PPO_discrete/model/Breakout-v0_a.pt (torch, 522431 bytes, 10 tensors)

net.0.weight f4 [16, 1, 4, 4]
0	0xbf3ffe8f	-0.749978
1	0x3edfd2bb	0.43715462
2	0x3f809e68	1.0048342
3	0x3f1413f2	0.57842934
4	0xbf584e7c	-0.8449476
5	0xbe4ca2fa	-0.19984046
6	0x3eb6fb93	0.3573881
7	0x3f0764b0	0.5288801
8	0xbf896cb6	-1.0736301
9	0xbed08882	-0.40729147
10	0x3f20a80c	0.6275642
11	0x3e1f6149	0.15564455
12	0xbfd6fa40	-1.679512
13	0xbfed447b	-1.8536524
14	0xbef8de7b	-0.4860724
15	0x3fa900e1	1.3203393
16	0xbfc75c2f	-1.5575007
17	0xbfc30167	-1.5234803
18	0xbf9e528d	-1.2368942
19	0xbf27028c	-0.6523826
20	0xbf741c49	-0.9535566
21	0xbf9647bb	-1.174064
22	0xbfdbd5a0	-1.7174568
23	0xbf7e00c4	-0.9921992
24	0x3cc170b3	0.02361331
25	0xbdfdb396	-0.12387769
26	0xbf879b6c	-1.0594306
27	0xbf79bbfb	-0.9755246
28	0x3eb51aa4	0.35371888
29	0x3fe05fe7	1.7529267
30	0x3dfbf614	0.12302795
31	0x3e6919d3	0.22763757
32	0xbfb47fb5	-1.4101473
33	0xbfad240c	-1.3526626
34	0x3badd2d9	0.005304676
35	0xbdbad074	-0.091217905
36	0xbfa2192d	-1.2663933
37	0xbf107ed2	-0.5644351
38	0x3fab833c	1.3399425
39	0xbed157a0	-0.40887165
40	0xbe7cef7c	-0.24700731
41	0xbdadcd63	-0.0848644
42	0x3f89da6a	1.076978
43	0xbf04f876	-0.5194162
44	0x3f322537	0.69588035
45	0xbe8f5287	-0.2799265
46	0xbf2a0c24	-0.66424775
47	0xbfb6323c	-1.423408
48	0x3fae8c77	1.3636616
49	0x3dc162ac	0.09442648
50	0xbfc642a5	-1.5489088
51	0xbfcb3c13	-1.5877708
52	0x3f8215d0	1.0162907
53	0x3f33e79b	0.70275277
54	0xbf028758	-0.5098777
55	0xbf04e9be	-0.5191916
56	0x3f7586fa	0.9590908
57	0x3eddfb06	0.43355578
58	0xbe6daf1d	-0.23211332
59	0xbf353712	-0.70787156
60	0x3faedc09	1.3660899
61	0x3fc6706e	1.5503061
62	0xbedd6dc8	-0.4324782
63	0xbfa75d29	-1.3075305
64	0x3f5c263e	0.8599585
65	0x3fbeb7ef	1.4899882
66	0x3f9b78bc	1.214622
67	0x3ffd14ce	1.9771974
68	0x3f204d67	0.62618107
69	0x3e60f7f3	0.21969585
70	0x3d7feecc	0.062483594
71	0x3f1a8348	0.6035657
72	0x3db64d91	0.08901513
73	0xbe7ad93c	-0.24496931
74	0xbf5bdba4	-0.8588202
75	0xbf24abee	-0.64324844
76	0xbf380c2c	-0.7189357
77	0xbff21eba	-1.8915627
78	0xc018a16c	-2.3848524
79	0xc008f505	-2.1399548
80	0x3f6ff3fb	0.9373166
81	0x3e5dd48c	0.21663111
82	0x3e055542	0.13020805
83	0x3f18ca65	0.5968383
84	0x3faa4567	1.330243
85	0x3f84fd4d	1.0389801
86	0x3fbbf62a	1.4684498
87	0x3fa8e0de	1.3193624
88	0x3f9c4644	1.2208943
89	0x3fa151eb	1.2603124
90	0x3fa09bb1	1.2547513
91	0x3fcb4a0a	1.588197
92	0x3e5d2b84	0.21598631
93	0x3a9cea81	0.0011971743
94	0xbcb1f23b	-0.02172195
95	0x3f308614	0.68954587
96	0x4018679e	2.3813243
97	0x3fa6a4f7	1.3019093
98	0x3f0abd68	0.5419526
99	0x3e729701	0.23690416
100	0x3fa5b8da	1.2947037
101	0xbf0aa164	-0.5415251
102	0xbeda3aaf	-0.42622897
103	0x3f678608	0.9043889
104	0x3d9e1a64	0.07719877
105	0xbf6b06c3	-0.9180719
106	0xbf15c8bb	-0.58509415
107	0x3e8ccf60	0.27501965
108	0xbf63b501	-0.88948065
109	0xbefbb585	-0.49161926
110	0xbe3edee6	-0.18639717
111	0xbee98730	-0.45610952
112	0x3e0e8b9f	0.13920449
113	0xbf0c0795	-0.5469907
114	0xbe8cde86	-0.27513522
115	0xbffb87cd	-1.9650818
116	0x3dbc693e	0.09199761
117	0x3ea10539	0.31449297
118	0x3f7d80b5	0.99024516
119	0xbe73442b	-0.23756473
120	0xbe9edfbe	-0.31030077
121	0x3e3cdcab	0.18443553
122	0x3f8cf71f	1.1012915
123	0x3f673d42	0.90327847
124	0x3f2193df	0.6311626
125	0x3f8dc62a	1.10761
126	0x3f062809	0.5240484
127	0x3f93116f	1.1489695
128	0xbf3c1241	-0.73465353
129	0xbebb6d90	-0.36607027
130	0xbe97bb93	-0.29635295
131	0xbfa6b102	-1.3022768
132	0x3db917c2	0.090377346
133	0x3f33c335	0.7021974
134	0xbf0daa8c	-0.5533836
135	0xbfb2e5be	-1.3976362
136	0x3ec36a8b	0.38167223
137	0x3f902c1f	1.1263465
138	0xbe4ce2a2	-0.20008329
139	0xbedb7049	-0.42859104
140	0xbd516e93	-0.051130842
141	0x3f36257e	0.7115096
142	0xbcf02530	-0.029314607
143	0x3f2669ed	0.6500538
144	0xbf3603c3	-0.7109949
145	0xbfdfe0ef	-1.7490519
146	0xbffc5bc7	-1.9715508
147	0xbf2710f7	-0.6526026
148	0xbe026143	-0.12732415
149	0xbf679751	-0.90465266
150	0xbf05b491	-0.5222865
151	0xbec954e6	-0.39322585
152	0x3efa5fc5	0.4890119
153	0x3eace2aa	0.3376668
154	0x3f628e6a	0.88498557
155	0x3f0ad846	0.5423626
156	0x3e9eb97c	0.31000888
157	0x3fb0b29b	1.3804506
158	0x4010be94	2.261632
159	0x4012e918	2.295477
160	0x3d32d062	0.04365576
161	0x3e52f46c	0.20601052
162	0xbda98c65	-0.08278731
163	0x3f21db27	0.63225025
164	0xbde25e00	-0.11053085
165	0x3fb1d4e7	1.3893098
166	0xbdae774d	-0.085188486
167	0xbf1ca5ff	-0.6119079
168	0xbf23aff0	-0.63940334
169	0x3f44d2b1	0.7688399
170	0xbed851ac	-0.4224981
171	0xbf57af4e	-0.8425187
172	0xbff8c9e5	-1.9436613
173	0xbf22270d	-0.63340837
174	0xbfbf4aee	-1.4944742
175	0x3ec8661a	0.39140397
176	0x3f6f79f9	0.9354549
177	0x3fdac076	1.7089984
178	0x3ffd7222	1.9800456
179	0x3fa02169	1.2510196
180	0x3e155545	0.14583309
181	0x3f3bacad	0.7331036
182	0x3f858952	1.0432532
183	0xbe38496b	-0.17996757
184	0xbf48035a	-0.78130114
185	0xbea7521c	-0.32679832
186	0x3e4456de	0.19173762
187	0xbf3e6a60	-0.74381065
188	0xbee48eba	-0.44640142
189	0xbebdb549	-0.37052372
190	0x3e093577	0.13399301
191	0xbfcd8bd1	-1.6058294
192	0xbf94e1a8	-1.1631365
193	0x3ebae7e2	0.36505038
194	0xbf1cfd2f	-0.6132383
195	0xbe4ec787	-0.20193301
196	0xbd8418f5	-0.06450073
197	0xbc7946b9	-0.0152146155
198	0xbe5c5f34	-0.21520692
199	0x3ec8fae1	0.39253905
200	0x3f02b758	0.5106101
201	0x3f742b29	0.9537836
202	0x3f160d47	0.5861401
203	0x3f9317c4	1.1491628
204	0x3feb1e20	1.8368568
205	0x3ffdfeff	1.9843444
206	0x3fe06af2	1.7532637
207	0x3f15ab08	0.584641
208	0xbb871288	-0.004122082
209	0x3dc848d2	0.09779514
210	0xbf2827b1	-0.65685564
211	0xbf945221	-1.1587564
212	0xbf3888dd	-0.72083837
213	0xbf85f732	-1.0466063
214	0xbf8707f5	-1.0549303
215	0xbf9095ed	-1.1295754
216	0xbfc2deaf	-1.5224208
217	0xbfcbb16f	-1.5913523
218	0xbf1a91f3	-0.6037895
219	0xbf04f044	-0.51929116
220	0xbf22ed98	-0.6364379
221	0xbf34224b	-0.70364827
222	0xbe184933	-0.14871673
223	0xbf08a567	-0.53377384
224	0x40011d58	2.017416
225	0x3fc6147b	1.5475
226	0x3b1b7fb9	0.0023727252
227	0xbf810868	-1.008069
228	0x3fd7d6b9	1.6862403
229	0x3fd7e70f	1.6867388
230	0x3f5614e0	0.836256
231	0x3e82f2f0	0.25575972
232	0x3fd8d6fc	1.6940608
233	0x3fc8b70d	1.5680863
234	0x3fb42283	1.4073032
235	0x3ec4cf68	0.38439488
236	0x3fb1de67	1.3895997
237	0x3fd3cf5a	1.6547654
238	0x3eaf8cf4	0.34287226
239	0xbf664997	-0.8995604
240	0xbee270fe	-0.4422683
241	0xbc24f4d0	-0.0100681335
242	0x3f0cc1a9	0.54983
243	0x3f4d1330	0.801074
244	0x3f3985b6	0.7246965
245	0xbef0c144	-0.4702245
246	0xbeb1074f	-0.3457589
247	0xbe7304f1	-0.23732354
248	0x3fa4bda4	1.2870374
249	0xbefcfca1	-0.4941149
250	0xbec4ec52	-0.38461548
251	0xbc12d0b3	-0.008960891
252	0x4035afcc	2.8388548
253	0x3cbe3e4d	0.023223067
254	0x3f9a9655	1.2077128
255	0x3ebd63c1	0.3699017

net.0.bias f4 [16]
0	0x3df71f89	0.12066562
1	0x3d20084b	0.03907041
2	0x3bd0758e	0.00636167
3	0x3e033dc6	0.12816533
4	0x3c82aedb	0.015952518
5	0x3bc3b320	0.005972281
6	0xbb872b1f	-0.0041250135
7	0x3b892af1	0.004186027
8	0x3c0c181a	0.008550668
9	0x3d5d6cc1	0.054058794
10	0x3bed0c0b	0.0072341016
11	0x3cbcf71a	0.023067046
12	0x3c51d069	0.0128060365
13	0x3d80518d	0.062655546
14	0x3e2ec545	0.1706744
15	0x3bcb638d	0.0062069357

net.2.weight f4 [32, 16, 4, 4]
0	0x3e1de9eb	0.15421264
1	0x3ea2c654	0.31791937
2	0xbf059dac	-0.52193713
3	0x3e76d0d9	0.24103107
4	0x3f497c17	0.7870497
5	0x3f3df9b4	0.7420914
6	0xbf4ce1ee	-0.8003224
7	0x3e7b2748	0.24526703
8	0xbebf24bf	-0.37332723
9	0x3e74bc44	0.23899943
10	0x3e52d29d	0.20588155
11	0x3ea222ba	0.3166712
12	0x3e66e8a7	0.22549687
13	0xbe1e1dfe	-0.15441129
14	0xbd2c94c6	-0.04213407
15	0x3e9f01bc	0.3105601
16	0x3d42afbb	0.04753087
17	0xbf39cd44	-0.72578835
18	0x3ea837e1	0.32855132
19	0x3ec1550a	0.37760192
20	0xbe1a883a	-0.15091029
21	0xbf74b09f	-0.95582
22	0xbd4b6029	-0.049652252
23	0xbe36e77b	-0.1786174
24	0x3eb7e6ce	0.35918278
25	0x3e7489c9	0.23880686
26	0x3f0a0624	0.5391562
27	0x3ea68f52	0.3253122
28	0x3d2b9275	0.04188772
29	0x3e59b49b	0.21260302
30	0x3d8fcc20	0.07021356
31	0x3c83a907	0.01607181
32	0x3db4142e	0.087929115
33	0xbf13ade9	-0.5768724
34	0x3c34bc6b	0.0110312505
35	0x3f15244e	0.5825852
36	0xbe2507ef	-0.16116308
37	0x3b788c91	0.003792558
38	0x3dd0fed3	0.10204854
39	0x3e714b53	0.2356389
40	0x3d0c345f	0.034229632
41	0x3ea1f445	0.31631675
42	0x3efc3a41	0.49263194
43	0xbd1d92cc	-0.038470075
44	0xbec08d6f	-0.37607905
45	0x3e9b25a8	0.30302167
46	0x3db5a5dc	0.08869526
47	0x3d5220c6	0.051300786
48	0xbdee4ad3	-0.11635365
49	0xbe6b4af3	-0.2297781
50	0x3e33884c	0.17532462
51	0x3e52f12d	0.20599814
52	0xbe931706	-0.28728503
53	0xbf24d7b6	-0.6439165
54	0xbe6f000f	-0.23339866
55	0xbe765d54	-0.2405904
56	0x3d8ce3af	0.06879365
57	0xbcef8fcc	-0.029243372
58	0xbe02aea9	-0.1276194
59	0xbf232db0	-0.6374159
60	0x3d81ee06	0.063442275
61	0x3e131ad4	0.14365703
62	0x3e645e08	0.22301495
63	0xbdb95778	-0.090498865
64	0xbf0f4255	-0.5596059
65	0xbecc99ed	-0.39961186
66	0x3e895d3d	0.26828948
67	0xbe0ed0a4	-0.13946778
68	0xbd98f473	-0.074685
69	0xbefa9797	-0.4894378
70	0x3e76fdd5	0.24120267
71	0xbe381940	-0.17978382
72	0x3e96f7fa	0.29486066
73	0x3ea935a8	0.3304875
74	0x3eeecb76	0.46639603
75	0xbea1c571	-0.31595948
76	0x3e5c2101	0.21496965
77	0xbeb2128a	-0.3477977
78	0xbe89beab	-0.2690328
79	0x3e13eb82	0.14445308
80	0xbeafae38	-0.34312606
81	0x3ef3139b	0.47475895
82	0xbe93d7bf	-0.2887554
83	0x3e264a12	0.16239193
84	0x3f542a6c	0.8287723
85	0x3f4d6b8c	0.8024223
86	0x3f9ce7f1	1.2258283
87	0xbd7fb444	-0.062427774
88	0xbedfe084	-0.4372598
89	0xbd6bd449	-0.057575498
90	0x3eb1ac09	0.34701565
91	0x3d4bda94	0.049769
92	0x3db6c0df	0.08923506
93	0xbe39ec0d	-0.18156452
94	0xbecc0b06	-0.3985216
95	0x3dc2c5c6	0.095103785
96	0xbf4ff0b1	-0.8122664
97	0xbcb51ee3	-0.022109454
98	0x3f32b19f	0.6980228
99	0x3ebcbdcf	0.36863562
100	0x3d080122	0.033204205
101	0xbdd027cc	-0.10163841
102	0x3e3ebff4	0.18627912
103	0x3e702045	0.2344981
104	0x3f09d720	0.5384388
105	0x3f34ef79	0.70677906
106	0x3f82405f	1.0175894
107	0xbee315ae	-0.44352478
108	0x3e82f10f	0.25574538
109	0xbe016bda	-0.12638798
110	0x3e085d23	0.13316779
111	0x3e82e0c9	0.25562122
112	0x3da5b853	0.08091798
113	0x3d550aa1	0.05201209
114	0xbe3888f3	-0.18020992
115	0xbc556210	-0.013023868
116	0x3ee510f0	0.44739485
117	0xbccde68b	-0.025134346
118	0x3ec920e7	0.39282915
119	0xbdeca685	-0.115551986
120	0xbef4442d	-0.47708264
121	0x3d4c7e2b	0.04992501
122	0x3d9387a1	0.072036035
123	0xbe01d3f3	-0.12678508
124	0xbdbe6ab5	-0.092976965
125	0x3e508c94	0.20366126
126	0xbdeab878	-0.11460966
127	0xbd988dd7	-0.07448929
128	0xbe82ff6f	-0.25585505
129	0xbf01f78a	-0.5076834
130	0x3ec72186	0.38892764
131	0x3e86b71f	0.26311585
132	0x3dd7fee1	0.10546661
133	0xbea855d1	-0.32877973
134	0x3e9783b7	0.29592678
135	0xbf56b72c	-0.8387325
136	0x3e236b8b	0.15958993
137	0x3e4d04f9	0.20021428
138	0x3eb36531	0.3503814
139	0xbf2fb1fc	-0.6863096
140	0x3eea4c16	0.45761174
141	0x3e2ef215	0.17084534
142	0x3d8aff1d	0.0678694
143	0x3d9cda19	0.07658786
144	0x38c887a4	9.562008e-05
145	0x3e4bc100	0.19897842
146	0x3e500400	0.20314026
147	0x3e7abac7	0.24485312
148	0x3e54cddc	0.20781654
149	0x3e80f257	0.2518489
150	0x3e998375	0.29983106
151	0x3e91f1c6	0.2850477
152	0xbc59fc4a	-0.013304779
153	0xbca4f2a9	-0.02013524
154	0xbcfd274f	-0.030902533
155	0xba1ecb10	-0.00060574804
156	0xbf0ff5b6	-0.562343
157	0x3e8e38a9	0.27777603
158	0xbeaa84fd	-0.33304587
159	0x3e8f0d3b	0.27939782
160	0xbed017f0	-0.40643263
161	0xbee898d1	-0.4542909
162	0xbecca8b6	-0.39972466
163	0x3f07eda4	0.53096986
164	0x3e934f6b	0.2877153
165	0x3e8677d7	0.26263306
166	0xbe209454	-0.15681583
167	0x3e39c5b3	0.18141823
168	0xbc1e27e7	-0.009653068
169	0x3f3a1289	0.7268453
170	0x3f028098	0.5097747
171	0x3f12749f	0.572092
172	0xbd6a0225	-0.05713095
173	0xbf16402d	-0.58691674
174	0xbea3af3c	-0.3196963
175	0x3ec9722b	0.39344916
176	0xbe176b21	-0.1478696
177	0xbdcf3110	-0.1011678
178	0x3ec65229	0.38734558
179	0x3e9b1407	0.30288717
180	0x3f05cd81	0.522667
181	0x3e2d6162	0.1693168
182	0x3edf8e35	0.43663183
183	0x3b1de039	0.0024089946
184	0x3e541cbd	0.20714088
185	0x3e676f47	0.22601043
186	0x3ec603c8	0.3867476
187	0xbf92846f	-1.1446666
188	0x3e8a2d81	0.26987842
189	0xbeb4e1c6	-0.353285
190	0xbe8c7f3d	-0.27440825
191	0xbe0fe8b2	-0.1405361
192	0x3e600ab2	0.2187908
193	0xbdab2ad6	-0.0835778
194	0x3e29b303	0.16572194
195	0x3e291f06	0.16515741
196	0x3f0e8c1f	0.5568256
197	0x3edcc1a6	0.43116492
198	0x3f5dbc58	0.86615515
199	0x3df8372e	0.121199
200	0xbf73c4cf	-0.9522218
201	0xbf45d8ee	-0.77284133
202	0xbd9a93cd	-0.07547722
203	0xbc9ed748	-0.019389763
204	0xbed45ecf	-0.41478583
205	0xbe717b25	-0.23582132
206	0x3d6124a1	0.054966573
207	0xbdc301af	-0.095218055
208	0xbd12a01f	-0.035797235
209	0xbf2e07d7	-0.6798071
210	0x3edca100	0.43091583
211	0x3e88c333	0.26711425
212	0xbf385b13	-0.7201397
213	0xbf4829a6	-0.7818855
214	0xbebeb360	-0.37246227
215	0xbdb8d2c6	-0.09024577
216	0x3e2dcda1	0.16972972
217	0x3eb9bd5e	0.36277288
218	0x3f290bd9	0.66033703
219	0xbdab3ff9	-0.08361811
220	0x3e247b69	0.16062702
221	0x3e014b66	0.12626418
222	0x3d6e4fce	0.058181576
223	0x3e853897	0.26019737
224	0xbdbbcbb1	-0.091697104
225	0xbea90936	-0.3301484
226	0xbc9770f3	-0.018486476
227	0xbe0e97f0	-0.13925147
228	0x3dc681e5	0.09692744
229	0xbe8e18f3	-0.2775341
230	0x3e8f974c	0.28045118
231	0xbe849996	-0.25898427
232	0xbe932fe6	-0.2874748
233	0xbed596f2	-0.41716725
234	0xbdbf749d	-0.09348414
235	0xbf4e4b1e	-0.8058337
236	0x3b027428	0.001990566
237	0xbe84bf37	-0.25927135
238	0xbed29b84	-0.41134274
239	0xbe8516b9	-0.259939
240	0xbe1c549a	-0.15266648
241	0x3d13c033	0.036071967
242	0x3dca9abd	0.09892795
243	0xbe6c3b4c	-0.23069495
244	0x3c0f9438	0.008763365
245	0x3ef4a859	0.4778469
246	0x3ee2f91d	0.44330683
247	0x3cd75cd4	0.026289381
248	0xbd6fb12c	-0.058518574
249	0xbdda37d5	-0.1065518
250	0x3e510070	0.20410323
251	0xbdb73a24	-0.08946636
252	0xbe2de9ad	-0.16983671
253	0x3e30ab56	0.1725286
254	0x3db7a226	0.08966474
255	0xbdfbfbac	-0.12303862

net.2.bias f4 [32]
0	0xbd347852	-0.04406006
1	0x3e02b109	0.12762846
2	0x3ebe8f6c	0.37218797
3	0x3e08ebe1	0.1337123
4	0xbd573ec8	-0.052550107
5	0x3eb71335	0.3575684
6	0x3db65d28	0.08904487
7	0x3d347ad7	0.04406246
8	0x3d25aadf	0.04044616
9	0x3d818d99	0.06325836
10	0x3de8ec46	0.113731906
11	0x3de4a7c6	0.11164813
12	0x3d96caef	0.07362925
13	0x3e596dcc	0.2123329
14	0x3e08e205	0.1336747
15	0x3e1fe543	0.156148
16	0x3e8822df	0.26589105
17	0xbd714244	-0.058901086
18	0x3d8fccc0	0.07021475
19	0x3de949d9	0.113910384
20	0x3e851bcb	0.25997767
21	0xbdd6681b	-0.10469075
22	0xbb8bb8f6	-0.0042639924
23	0x3e7122b0	0.23548388
24	0x3e97a256	0.2961604
25	0x3c8843d4	0.016633905
26	0x3ee6c021	0.45068458
27	0x3e3e6af3	0.18595485
28	0x3dd367d4	0.10322538
29	0xbcb346da	-0.02188437
30	0xbd8adb98	-0.067801654
31	0x3e8b9614	0.27262938

net.4.weight f4 [64, 32, 3, 3]
0	0x3e19c3d8	0.15016115
1	0xbe750de6	-0.23931083
2	0x3ecad323	0.3961421
3	0xbde85c07	-0.11345678
4	0x3f184944	0.59486794
5	0x3e2e9547	0.17049132
6	0xbe8ec0b8	-0.27881408
7	0xbe5e94f1	-0.21736504
8	0x3da94e68	0.08266908
9	0x3cb8a4cd	0.02253952
10	0x3e5aaa51	0.21354033
11	0x3e9f7ba7	0.31149027
12	0x3f0389b4	0.51381993
13	0x3d5c34d8	0.053761333
14	0x3ea05e2d	0.3132185
15	0xbf0404af	-0.51569647
16	0x3dbc6cb5	0.09200422
17	0x3e78b58d	0.24288006
18	0xbe085dde	-0.13317057
19	0xbea4570f	-0.3209767
20	0x3d82ba02	0.063831344
21	0xbb73e075	-0.0037212644
22	0xbd8743ba	-0.06604715
23	0x3e271cde	0.16319606
24	0xbec49c08	-0.38400292
25	0x3e60da13	0.21958189
26	0xbdf773f7	-0.120826654
27	0x3cad7d2b	0.021177849
28	0xbf03bcaf	-0.51459783
29	0x3e12fd9c	0.14354557
30	0x3e7a1204	0.24420935
31	0xbcd6375d	-0.026149446
32	0xbe918729	-0.28423432
33	0xbec0d03f	-0.3765888
34	0xbf067d63	-0.52535075
35	0xbd2fc5f4	-0.042913392
36	0x3e8849c9	0.26618794
37	0xbd2e4629	-0.04254738
38	0xbddbdccf	-0.10735475
39	0xbeb07135	-0.3446137
40	0x3d49c37c	0.049258694
41	0x3f223a02	0.6336976
42	0xbca42963	-0.020039266
43	0x3eb6fc1e	0.35739225
44	0xbf9b48c1	-1.2131578
45	0xbe3052c9	-0.1721908
46	0xbe9cfb54	-0.30660498
47	0x3e9d05da	0.30668527
48	0x3e0d421f	0.13794754
49	0xbe422400	-0.18959045
50	0xbd2f0016	-0.04272469
51	0xbe800efe	-0.25011438
52	0x3e7d6849	0.24746813
53	0x3c9490f0	0.018135518
54	0xbe2db8e5	-0.16965063
55	0x3d0ffa7b	0.035150986
56	0x3e2e31e2	0.17011216
57	0xbfa1eeb2	-1.2650969
58	0xbf1b1f21	-0.60594374
59	0x3f8729ff	1.0559691
60	0xbed2e4cf	-0.41190192
61	0x3cd77334	0.02630005
62	0x3f0b309e	0.5437106
63	0x3cd223e0	0.025651872
64	0x3f3cddd0	0.7377596
65	0xbd821ad3	-0.063527726
66	0x3ea9c3e1	0.33157256
67	0xbf5e4976	-0.8683084
68	0x3ecc965b	0.39958462
69	0xbe507910	-0.20358682
70	0x3dfd0674	0.123547465
71	0x3ea7d896	0.3278243
72	0x3e2724e6	0.1632267
73	0xbf2a850b	-0.6660926
74	0xbe42f064	-0.19037014
75	0x3d5669aa	0.052346863
76	0x3eeae956	0.45881146
77	0xbd623a86	-0.055231594
78	0x3da02ceb	0.078210674
79	0x3da30ebd	0.079617955
80	0xbea094a9	-0.3136342
81	0xbe25f4ca	-0.16206661
82	0xbeff6113	-0.4987875
83	0x3e6e429b	0.23267595
84	0xbe7f593a	-0.24936381
85	0xbee4c40b	-0.4468082
86	0x3e6ecb7d	0.23319812
87	0x3ca01c45	0.01954473
88	0x3f01ed79	0.5075298
89	0xbc474cf3	-0.012164342
90	0xbef59559	-0.47965506
91	0x3ee57757	0.44817612
92	0x3de51179	0.11184973
93	0x3ebf9cb4	0.37424242
94	0x3f349f41	0.705555
95	0x3db051f7	0.086093836
96	0x3dd8984f	0.105759256
97	0x3e370f5f	0.17876957
98	0x3e088b06	0.13334283
99	0x3d54317e	0.051805012
100	0xbf067d1d	-0.5253466
101	0x3f36c393	0.7139217
102	0xbd8cbbec	-0.06871781
103	0x3f3884bd	0.7207754
104	0xbd5b099c	-0.05347596
105	0x3f14c461	0.5811215
106	0xbd64dbed	-0.0558738
107	0xbf506ed8	-0.81419134
108	0x3e43a137	0.19104467
109	0xbe353cd6	-0.17698988
110	0x3ed1203e	0.4084491
111	0x3e12a732	0.14321592
112	0xbed26cf3	-0.41098747
113	0x3e8fdf19	0.28099898
114	0xbeb31c9b	-0.34982762
115	0x3eba58e5	0.36395946
116	0x3d237f1a	0.039916135
117	0xbe8d8899	-0.27643278
118	0xbea5637c	-0.32302463
119	0x3d89b0b9	0.0672316
120	0xbdcc67b6	-0.09980719
121	0xbf028b12	-0.50993454
122	0x3bd22e6f	0.0064142267
123	0x3eb50ce3	0.35361394
124	0x3db7bd31	0.08971632
125	0xbe5e7992	-0.21726063
126	0xbea57981	-0.32319263
127	0x3ebccf26	0.36876792
128	0xbe80e4f6	-0.25174683
129	0x3f2f962c	0.6858852
130	0x3f1f99a7	0.6234383
131	0x3e1ab3ab	0.151076
132	0xbd979a76	-0.07402508
133	0x3e1403cf	0.14454578
134	0xbe1adb64	-0.15122753
135	0xbf4dea4c	-0.80435634
136	0xbd896119	-0.06707973
137	0x3e89a96a	0.26887065
138	0x3e8deb83	0.27718744
139	0x3e4d5685	0.20052536
140	0x3f4b5374	0.79424214
141	0xbf13ad7a	-0.5768658
142	0x3ebe5330	0.37172842
143	0x3f563ffa	0.8369137
144	0xbedc2cbe	-0.43002886
145	0xbeb2a91d	-0.34894648
146	0x3e5f36e5	0.21798284
147	0x3e82f78e	0.25579494
148	0x3e60dcdf	0.21959256
149	0x3e37f607	0.17964946
150	0x3de540c6	0.11193995
151	0x3cfca0d8	0.030838415
152	0xbf020862	-0.5079404
153	0xbe7ceaa6	-0.24698886
154	0x3f08a5b7	0.5337786
155	0x3f1ed028	0.6203637
156	0x3f178d2f	0.59199804
157	0xbd6bb0df	-0.057541724
158	0xbeb5000f	-0.35351607
159	0xbf1b749f	-0.60724825
160	0x3eb42ed8	0.3519199
161	0x3eaf5945	0.34247795
162	0x3e88e19f	0.26734635
163	0x3abd9c2a	0.0014466096
164	0x3df0d9cf	0.11760294
165	0xbdf9699a	-0.12178345
166	0xbde04c26	-0.10952024
167	0x3d674181	0.056458954
168	0x3dafb94d	0.08580265
169	0x3eb0be6a	0.34520274
170	0xbda65b85	-0.08122925
171	0xbe887a4a	-0.266558
172	0xbe582e75	-0.21111472
173	0x3e7bc4ec	0.24586838
174	0xbd4afb3d	-0.049556006
175	0x3f5205a0	0.82039833
176	0xbef52aeb	-0.47884306
177	0xbd7bc0aa	-0.061463036
178	0x3dcf8205	0.10132221
179	0xbec1a44b	-0.37820658
180	0x3efda1b4	0.49537432
181	0xbec52985	-0.3850824
182	0x3cb73f22	0.022368971
183	0x3e7d766e	0.24752209
184	0x3e715e93	0.23571233
185	0x3d95be27	0.07311659
186	0x3dcf4dec	0.10122284
187	0xbefb3318	-0.4906242
188	0x3e034025	0.12817438
189	0x3ef155e1	0.47135833
190	0xbdbe2ddf	-0.09286093
191	0x3f06ea9b	0.5270173
192	0x3e152819	0.14566077
193	0x3e84ffcb	0.25976405
194	0x3e81ae19	0.25328138
195	0xbf2711e2	-0.6526166
196	0xbe49d506	-0.19710168
197	0x3e7d1714	0.24715835
198	0x3ecbe28f	0.39821288
199	0xbf4ef403	-0.8084108
200	0xbd9bceb2	-0.076077834
201	0x3e7c552e	0.24641868
202	0x3ee4669e	0.4460954
203	0x3e06cc9f	0.13163994
204	0x3f2ebf3c	0.6826055
205	0x3f030e60	0.5119381
206	0x3f5fb6a1	0.87388045
207	0x3a80f2f5	0.0009838032
208	0x3e2276ee	0.1586568
209	0x3cedae31	0.029013725
210	0xbe9f57c0	-0.31121635
211	0xbdc20fbd	-0.09475658
212	0x3e5337db	0.20626776
213	0xbf2ceaba	-0.67545664
214	0xbedef8f1	-0.43549302
215	0x3d276772	0.040870138
216	0xbecbc28c	-0.39796865
217	0x3f05fa91	0.5233546
218	0x3eb885eb	0.3603967
219	0xbef4fa42	-0.47847182
220	0xbee8404e	-0.4536156
221	0x3edfc3d1	0.43704084
222	0x3dfa624e	0.122257814
223	0xbea43353	-0.32070407
224	0x3ee5867c	0.44829166
225	0x3f0be52a	0.5464655
226	0xbd0e098b	-0.03467707
227	0x3be7329f	0.007055595
228	0xbea5090f	-0.32233474
229	0xbf68f0e6	-0.9099258
230	0xbde96fc2	-0.11398269
231	0xbe3213d4	-0.17390376
232	0xbeb66377	-0.3562276
233	0xbdaa6c45	-0.08321432
234	0xbf03a1f1	-0.5141898
235	0x3f1f837a	0.6230999
236	0xbec3ba53	-0.38228092
237	0xbed080e1	-0.40723327
238	0xbe67099d	-0.22562261
239	0x3eacf278	0.3377874
240	0xbd2c3c3d	-0.042049635
241	0x3c4121e1	0.0117878625
242	0xbead8188	-0.33887887
243	0xbe2a7d21	-0.16649295
244	0xbe2e2dc3	-0.17009644
245	0x3e0fd5c2	0.14046386
246	0xbcf5c55f	-0.03000134
247	0xbddb669b	-0.1071293
248	0x3e22bedd	0.15893121
249	0xbd79c2a1	-0.06097663
250	0x3e459b7d	0.19297595
251	0xbe55be08	-0.20873272
252	0x3e312b76	0.17301735
253	0x3f3175c7	0.6932034
254	0x3dc45b7d	0.095877625
255	0x3f111416	0.56671274

net.4.bias f4 [64]
0	0xbe4b1c5d	-0.19835038
1	0x3e1c4770	0.15261626
2	0x3e085440	0.13313389
3	0x3ea214e6	0.3165657
4	0x3e884163	0.26612386
5	0x3e0e0c74	0.13871938
6	0x3daedd43	0.08538296
7	0x3e19e346	0.15028104
8	0x3cffbf5a	0.031219173
9	0x3e07156f	0.1319177
10	0x3e47004d	0.19433708
11	0x3ebd296d	0.36945668
12	0x3e836ec5	0.25670448
13	0x3e545b9e	0.20738074
14	0x3e2d887e	0.16946599
15	0x3ec61080	0.38684464
16	0x3c7ca872	0.01542102
17	0x3f010036	0.50390947
18	0xbec91fa5	-0.39281955
19	0x3db5daf4	0.088796526
20	0x3e6ec569	0.23317493
21	0x3ecd1413	0.40054378
22	0x3f016714	0.5054791
23	0x3e95a795	0.29229417
24	0x3f02b049	0.5105024
25	0x3e22065d	0.1582274
26	0x3e4c38d2	0.1994355
27	0x3d09788e	0.033562236
28	0x3eb3e39e	0.35134596
29	0xbe8a9ad6	-0.27071255
30	0x3e27a274	0.16370565
31	0x3dd92296	0.106023
32	0x3e24e199	0.16101684
33	0x3e991c39	0.29904345
34	0x3eb4a241	0.3528004
35	0x3e151a95	0.14560921
36	0xbdfd951f	-0.12381958
37	0x3d8e37b9	0.06944222
38	0xbeaf9066	-0.34289855
39	0x3d8eb41e	0.069679484
40	0x3de38d50	0.111109376
41	0x3effbb4e	0.4994759
42	0x3eacc065	0.33740535
43	0x3d2c9fc5	0.042144556
44	0x3d52ad36	0.051434718
45	0xbe985e82	-0.29759604
46	0x3db20dd5	0.086940445
47	0x3e2f2d1a	0.17107049
48	0xbdc228ed	-0.09480462
49	0x3ea1fddc	0.31638992
50	0x3ea4d4f3	0.32193717
51	0x3db5e82e	0.088821754
52	0xbe880e19	-0.26573256
53	0x3d078c41	0.03309274
54	0x3eef1c73	0.46701393
55	0x3e76693e	0.24063584
56	0x3ea20947	0.31647703
57	0x3ded157b	0.11576363
58	0x3dbc8f4d	0.0920702
59	0x3e586206	0.21131143
60	0x3da35108	0.0797444
61	0x3e4a9266	0.19782409
62	0x3e39d2d0	0.18146825
63	0x3e72d3ce	0.2371361

net.6.weight f4 [64, 64, 5, 5]
0	0xbdbf0e19	-0.09328861
1	0x3d8cd5e2	0.068767324
2	0x3cac9c20	0.02107054
3	0x3ccce5a6	0.025011849
4	0x3e3d8182	0.18506435
5	0xbea50c50	-0.32235956
6	0xbf15bcbf	-0.5849113
7	0xbe0eec05	-0.13957222
8	0xbc192223	-0.009346518
9	0xbe6008b0	-0.21878314
10	0xbe707e12	-0.23485592
11	0xbe9e42f4	-0.30910456
12	0x3ce7d8d4	0.028301634
13	0x3e061a86	0.13096055
14	0xbf3a923a	-0.72879374
15	0x3f76d9bd	0.9642599
16	0xbd3c7a0d	-0.046014834
17	0xbe8259fd	-0.2545928
18	0x3e87d380	0.2652855
19	0x3e74b55a	0.23897305
20	0xbe128871	-0.14309861
21	0xbda5e807	-0.08100896
22	0x3cfade57	0.030623598
23	0xbea24da0	-0.31699848
24	0xbf6b411c	-0.91896224
25	0x3e702ba7	0.23454152
26	0xbd3c6e3f	-0.046003576
27	0x3e803d81	0.25046924
28	0x3e009a78	0.12558925
29	0x3d9a1618	0.07523745
30	0x3e4c4e42	0.19951728
31	0xbdd4d448	-0.10392052
32	0x3cbedaf4	0.023297764
33	0x3ea61524	0.32438004
34	0xbe17ee24	-0.14836937
35	0xbe43e94f	-0.19131969
36	0x3f2ba632	0.6705047
37	0xbd70dd4e	-0.058804803
38	0x3ed10df2	0.40830952
39	0x3df74e33	0.12075462
40	0x3df581cf	0.1198765
41	0xbf1eb2d7	-0.6199164
42	0xbdec4b81	-0.11537839
43	0xbf32f13a	-0.6989933
44	0xbe8a23ff	-0.26980588
45	0xbe829d0b	-0.2551044
46	0x3eaffb4b	0.3437141
47	0x3e91c25f	0.28468606
48	0xbf3407f9	-0.70324665
49	0xbe870bef	-0.26376292
50	0x3c42fdb6	0.01190131
51	0x3d808f63	0.06277349
52	0x3dd0497f	0.10170268
53	0xbcfe96af	-0.03107771
54	0x3e5e091b	0.21683161
55	0xbe1e9ffd	-0.15490718
56	0xbe7416ff	-0.23836897
57	0x3f04f054	0.5192921
58	0x3da356be	0.07975529
59	0x3df5c235	0.11999933
60	0x3e49c30b	0.19703309
61	0xbd4438e0	-0.047905803
62	0x3ec93609	0.39299038
63	0xbd765ef3	-0.060149144
64	0xbe4a8e98	-0.19780958
65	0xbf04b687	-0.51841015
66	0x3f06f447	0.5271649
67	0x3d2892d3	0.041155647
68	0x3f4bfa7c	0.79679084
69	0x3d0f7bb4	0.035030082
70	0x3f28b437	0.65899986
71	0x3f07ea14	0.5309155
72	0xbf0cf513	-0.55061454
73	0x3d53a342	0.051669367
74	0xbfaca2be	-1.3487165
75	0x3e93d7d6	0.28875607
76	0x3d8276aa	0.063702896
77	0xbdb42eff	-0.08798026
78	0x3e1d9d39	0.15392007
79	0xbc0fa80a	-0.008768091
80	0xbcfb27c8	-0.030658618
81	0x3f062b13	0.52409476
82	0x3ea0ce4f	0.314074
83	0x3df27342	0.1183839
84	0xbd208baa	-0.039195694
85	0xbd7387e3	-0.059455764
86	0x3f132a0f	0.5748605
87	0x3cef016f	0.029175488
88	0x3f0bd009	0.5461431
89	0x3ed7c0df	0.42139336
90	0xbdf56a67	-0.11983185
91	0x3f1b17b5	0.6058305
92	0x3f3389a0	0.70131874
93	0xbec03365	-0.3753921
94	0x3ea38a0a	0.31941253
95	0x3f18bbcb	0.5966155
96	0x3e3eb258	0.1862272
97	0xbe29ef47	-0.16595183
98	0xbde1b176	-0.11020176
99	0x3de22310	0.11041844
100	0x3e27d08f	0.16388153
101	0x3c0eb042	0.008709015
102	0x3e040d74	0.12895757
103	0x3d7cec50	0.061748803
104	0x3e5d849e	0.2163262
105	0x3eb5920b	0.35462984
106	0xbdb870a6	-0.09005861
107	0xbe0e5fb8	-0.13903701
108	0x3efade06	0.48997515
109	0x3d911715	0.07084481
110	0x3eaf0181	0.34180835
111	0x3f1002d2	0.56254303
112	0x3e0b4ba8	0.1360308
113	0xbd28ef2f	-0.04124373
114	0x3de51ae3	0.11186769
115	0xbed470b0	-0.41492224
116	0xbd9ccc7e	-0.07656191
117	0xbd62db1e	-0.055384748
118	0xbf591f21	-0.84813124
119	0xbeb591e0	-0.35462856
120	0xbe584335	-0.21119387
121	0x3f088b42	0.5333749
122	0x3dedf6eb	0.116193615
123	0xbe958a6c	-0.2920717
124	0x3cc9a9e1	0.024617137
125	0xbea61b12	-0.32442528
126	0x3d0aed08	0.033917457
127	0x3ed1c79c	0.40972602
128	0x3dc0e7dd	0.094192244
129	0x3c2ab5e2	0.010419341
130	0x3ec5f0bb	0.38660225
131	0xbd3dc57a	-0.046330906
132	0x3e9d23a8	0.30691266
133	0xbf1fbcfc	-0.6239774
134	0x3d99d969	0.07512171
135	0x3f1687ed	0.58801156
136	0xbd6b48ba	-0.057442404
137	0xbee9f250	-0.45692682
138	0x3d48a166	0.048982047
139	0x3eb48adc	0.3526219
140	0xbe8b4216	-0.27198857
141	0xbf1270d4	-0.5720341
142	0x3ea2e91f	0.31818482
143	0x3e96b9c4	0.29438603
144	0x3f206d35	0.62666637
145	0x3dc8884a	0.0979162
146	0x3e7e8cc4	0.24858385
147	0x3d7cb427	0.061695244
148	0xbf48e518	-0.7847457
149	0xbda97491	-0.082741864
150	0xbda80b77	-0.08205312
151	0x3c8532cf	0.016259579
152	0x3ec5e46e	0.3865084
153	0x3ed6ede5	0.41978374
154	0x3d4ee3f1	0.05051035
155	0xbdeb81fa	-0.114994004
156	0x3d3d9190	0.046281397
157	0xbe4cfab6	-0.20017514
158	0x3ea75dcf	0.32688758
159	0xbd94425a	-0.07239218
160	0xbe15e66e	-0.14638683
161	0xbed5cdef	-0.41758677
162	0x3e6ce99e	0.23135993
163	0xbec2dac7	-0.3805754
164	0xbd25f9c4	-0.0405214
165	0x3f38b00b	0.7214362
166	0xbebcc100	-0.36865997
167	0x3e0f4c37	0.13993917
168	0x3d9bdb63	0.07610204
169	0x3e4652bc	0.19367498
170	0x3aff6cd7	0.0019487393
171	0xbdf131a5	-0.11777047
172	0xbe0991e2	-0.13434556
173	0xbe016b00	-0.12638474
174	0xbf023e04	-0.5087588
175	0xbe017c97	-0.12645184
176	0x3e533394	0.20625144
177	0xbc6542ed	-0.013993007
178	0xbd232c65	-0.03983726
179	0xbd4a5f75	-0.04940744
180	0x3ecc702b	0.39929327
181	0xbe29b08e	-0.16571257
182	0x3e480df0	0.19536567
183	0xbe0fdc30	-0.14048839
184	0xbe9982e1	-0.29982665
185	0xbdb6c7dc	-0.08924839
186	0x3e5b07a4	0.21389633
187	0x3db38c0b	0.087669455
188	0x3e66b9b3	0.22531776
189	0x3f0cb421	0.54962355
190	0xbe4b3824	-0.19845635
191	0x3e21e615	0.15810426
192	0xbf1d76fd	-0.61509687
193	0x3cccfe49	0.025023596
194	0x3ee6e5ac	0.450971
195	0xbe9fa4df	-0.31180474
196	0x3d4304ce	0.047612004
197	0x3f0f2659	0.5591789
198	0x3ddaa8d7	0.10676735
199	0xbe662a62	-0.22477105
200	0xbe6174de	-0.22017238
201	0x3cd8e392	0.026475701
202	0x3e1adf53	0.15124254
203	0x3de7df78	0.1132192
204	0x3c0f4c01	0.008746148
205	0x3f263ead	0.64939386
206	0x3e6200bc	0.22070593
207	0x3e9704b2	0.2949577
208	0x3e90445d	0.28177157
209	0x3e28f849	0.16500963
210	0x3cabf575	0.020991066
211	0x3f4055fb	0.75131196
212	0x3ddb6510	0.107126355
213	0x3dc3067d	0.09522722
214	0xbc6517b4	-0.013982702
215	0xbec5f9a7	-0.38667032
216	0xbecedbda	-0.40402108
217	0x3d4980bf	0.049195047
218	0x3e011609	0.12606062
219	0x3f082a61	0.53189665
220	0x3c26b22c	0.010174315
221	0xbdf76894	-0.120804936
222	0x3e8388a4	0.25690186
223	0xbea68a56	-0.32527417
224	0x3ea171e9	0.3153222
225	0xbed7399f	-0.4203615
226	0x3e887068	0.2664826
227	0xbe181d2a	-0.14854875
228	0xbd42f622	-0.04759801
229	0xbe05aece	-0.13054964
230	0xbe245012	-0.1604617
231	0x3eb7cf17	0.35900185
232	0x3e749100	0.23883438
233	0x3ea244d2	0.3169313
234	0xbdf270e7	-0.11837941
235	0xbeecb3c9	-0.46230915
236	0xbf35e8bb	-0.71058244
237	0x3e8b1b8b	0.2716945
238	0xbf20274e	-0.62559974
239	0x3ea61a22	0.32441813
240	0xbda658a8	-0.081223786
241	0x3de8cb8f	0.11366951
242	0xbeb8a8b5	-0.36066213
243	0x3ea1549c	0.31509864
244	0x3e4025ac	0.1876437
245	0xbea85ef8	-0.32884955
246	0xbef9662a	-0.48710757
247	0xbdb19755	-0.086714424
248	0xbf09e731	-0.53868395
249	0xbf67f6c4	-0.9061091
250	0xbd2a9cd3	-0.041653465
251	0x3e9f3561	0.31095412
252	0x3e878c84	0.26474392
253	0x3df65545	0.120279826
254	0x3e151944	0.1456042
255	0xbd8a5126	-0.06753759

net.6.bias f4 [64]
0	0x3e9cec2f	0.30648944
1	0x3e4211ac	0.18952054
2	0x3eacf8ad	0.33783475
3	0xbdab6686	-0.08369164
4	0x3ea4e042	0.32202345
5	0x3d958926	0.073015496
6	0x3e2f4725	0.17116983
7	0xbdf51f43	-0.11968853
8	0x3d7b990d	0.061425257
9	0x3e58a1e0	0.211555
10	0x3e8488a4	0.258855
11	0x3e0048b8	0.1252774
12	0x3d79bb6e	0.060969763
13	0x3f299523	0.6624319
14	0xbd8fd3a9	-0.07022793
15	0x3cf98496	0.03045873
16	0x3dcd9ffd	0.10040281
17	0xbe96fc77	-0.2948949
18	0x3e9fa784	0.31182492
19	0xbd283a98	-0.041071504
20	0xbdbfb7ec	-0.09361252
21	0xbd28bd90	-0.041196406
22	0xbdc67c18	-0.09691638
23	0x3e38f633	0.18062668
24	0xbe0292ca	-0.12751308
25	0xbdf88548	-0.121347964
26	0xbe23ed1a	-0.16008416
27	0x3dbb62b7	0.09149688
28	0x3e56d5cb	0.20979993
29	0x3dd565d4	0.10419813
30	0x3e1139c2	0.14182189
31	0xbd895e3e	-0.067074284
32	0x3e691793	0.22762899
33	0x3da6bba0	0.081412554
34	0x3d047bbf	0.032344576
35	0x3d6ddb2d	0.05807035
36	0x3da35d1a	0.07976742
37	0xbd4c629f	-0.04989874
38	0xbd8969af	-0.06709611
39	0xbe5ba924	-0.21451241
40	0x3e3f8b9a	0.18705598
41	0x3dc1640b	0.0944291
42	0x3e95810e	0.29200023
43	0x3f31e7e0	0.6949444
44	0x3ebdb634	0.37053072
45	0x3e6e8328	0.2329222
46	0xbc1c1963	-0.009527537
47	0xbd88c45d	-0.06678078
48	0xbdf98a93	-0.12184634
49	0xbe59cfa6	-0.21270618
50	0x3da9adc1	0.08285094
51	0x3dc34e38	0.095364034
52	0x3e8f8f2b	0.28038916
53	0xbe490f0c	-0.19634646
54	0x3ec7917c	0.38978183
55	0x3db92f80	0.09042263
56	0xbdd03978	-0.10167211
57	0x3d58842e	0.05286043
58	0x3e332e81	0.17498209
59	0x3dd4177c	0.10356042
60	0xbca0bee5	-0.019622276
61	0x3d69ba52	0.057062455
62	0x3d7fa23c	0.062410578
63	0x3ef333df	0.47500512

policy.0.weight f4 [3, 64]
0	0xbfd8ac71	-1.6927625
1	0x3e30a649	0.17250933
2	0xbf052e80	-0.5202408
3	0xbff8c554	-1.943522
4	0x3f4006d2	0.75010407
5	0xc022ac28	-2.5417576
6	0xbfd81a55	-1.6883036
7	0x3f8c5c8e	1.0965745
8	0xbefad6a2	-0.48991877
9	0x40107cba	2.2576127
10	0x3f96a033	1.1767639
11	0xc063be12	-3.558476
12	0xc040ec9f	-3.0144422
13	0x3f38f9e2	0.7225629
14	0xbfe20f79	-1.7660972
15	0xc013d6d8	-2.309988
16	0xc031b1bb	-2.7764728
17	0xc0447b58	-3.0700283
18	0xbe583f81	-0.21117975
19	0x3fe30999	1.7737304
20	0x3f50dd82	0.81587994
21	0xbf885030	-1.0649471
22	0x401a9ab7	2.415693
23	0x3ec2ce59	0.38048056
24	0xc0670869	-3.6098883
25	0xc03480b2	-2.820355
26	0x3faac93b	1.3342661
27	0xbe578205	-0.21045692
28	0x3af5b276	0.0018745202
29	0x3fea5f93	1.8310417
30	0xbfe3ed62	-1.7806818
31	0x3f0a6123	0.5405447
32	0xbf5a32ed	-0.85233957
33	0xbfc0e118	-1.5068693
34	0x4019dadb	2.4039829
35	0x3fe0b3fe	1.7554929
36	0xbfa43402	-1.2828372
37	0xbc0bf3ff	-0.00854206
38	0xc05e0b13	-3.469426
39	0xc041a21f	-3.02552
40	0x3f804bf5	1.002318
41	0xc00fc20d	-2.246219
42	0xbf51108d	-0.8166588
43	0x3f2bdb52	0.6713153
44	0x3f1d5905	0.6146396
45	0xc01c5747	-2.442827
46	0xc07113f3	-3.7668426
47	0x400492dd	2.0714638
48	0x3fd21a73	1.6414322
49	0xbe91884f	-0.28424308
50	0x3f5e8dec	0.86935306
51	0xbfe5b0e9	-1.7944614
52	0xbf918d59	-1.1371261
53	0xbfe0ad0c	-1.755281
54	0xbe5431cc	-0.20722121
55	0x3ce4eb61	0.027944269
56	0x3f9bcb0c	1.217134
57	0xc0520f9f	-3.2822034
58	0xbf21af20	-0.63157845
59	0x40240c1f	2.5632398
60	0x3ebb0e34	0.36534274
61	0xbfcde899	-1.6086608
62	0xbf9a9744	-1.2077413
63	0xbfb80346	-1.4375999
64	0x402ebd23	2.730294
65	0x3f944685	1.1584021
66	0x3ee96312	0.45583397
67	0x402465c7	2.568712
68	0x3fa1b10e	1.2632158
69	0x401be8e3	2.4360893
70	0xbfa6e6f3	-1.303923
71	0xbd858a0b	-0.0652047
72	0xc01b26c9	-2.4242423
73	0xbe8eee64	-0.27916253
74	0xbf30dce5	-0.6908706
75	0x3f2406ef	0.6407308
76	0x3ffe8041	1.988289
77	0x3dd06daa	0.10177167
78	0x3f2d93d2	0.6780368
79	0xbf929934	-1.1453004
80	0xbfa62bef	-1.2982157
81	0x3ff0577b	1.8776697
82	0x3f9d8afb	1.2308038
83	0x3e3f68dc	0.18692344
84	0xbe06a7bc	-0.13149923
85	0xc0467b40	-3.1012726
86	0xc01a2f5e	-2.409141
87	0xbf9953fe	-1.1978757
88	0xbf0cfae8	-0.5507035
89	0x3e0482a1	0.12940456
90	0x3cae53c0	0.02128017
91	0xbfebe0b0	-1.8427944
92	0x3f1f524f	0.6223497
93	0xc0005a32	-2.005505
94	0x3ea8dd6c	0.3298143
95	0x3ee8486d	0.45367756
96	0xc04371d6	-3.053823
97	0xc04a5e60	-3.1620102
98	0xbe8baa2a	-0.27278262
99	0xc0411dc8	-3.0174427
100	0x404fd5d1	3.2474253
101	0x3f2c20cd	0.6723755
102	0xbf23be3b	-0.63962144
103	0x400c7fdc	2.195304
104	0x3f4e2fbf	0.80541605
105	0xbf301138	-0.68776274
106	0x401cf6d2	2.4525647
107	0xbd15025c	-0.036379203
108	0x3e05f9f1	0.13083626
109	0xbfa80182	-1.312546
110	0xbe8f875f	-0.28032967
111	0xbfe6eb05	-1.8040472
112	0xbecdd2c6	-0.4019987
113	0xc0031411	-2.0480998
114	0xbfa04d77	-1.252364
115	0xbf321309	-0.69560295
116	0xbd3b25a7	-0.045690205
117	0x3fab82e3	1.3399318
118	0xbe564bd3	-0.20927362
119	0xbe0c1617	-0.13680302
120	0xbe398f2a	-0.18121019
121	0xbf7f8a83	-0.9982073
122	0xbfdcdf26	-1.72556
123	0xc03c4e9e	-2.9422984
124	0xc027763a	-2.616591
125	0xbe891c58	-0.26779437
126	0xbfd0ab85	-1.6302344
127	0x3f8d74a1	1.1051217
128	0xbf4011e0	-0.75027275
129	0xbfb7b312	-1.4351523
130	0xbf3635b0	-0.7117567
131	0xbf204e19	-0.6261917
132	0xc040b578	-3.011076
133	0xbf440322	-0.7656728
134	0x401b7288	2.4288654
135	0xbfa9b452	-1.3258154
136	0x4027abe3	2.6198661
137	0xc016a540	-2.353836
138	0xbe172bad	-0.14762755
139	0x3fa96c40	1.323616
140	0xbe81c00f	-0.25341842
141	0xbdd0411d	-0.101686694
142	0x3f0a62cf	0.5405702
143	0x40384e74	2.8797884
144	0x406b7cfd	3.6795037
145	0x3f081b49	0.53166634
146	0xbfc7f4f9	-1.5621635
147	0xbfe724af	-1.805807
148	0xbfa1ec41	-1.2650224
149	0x400d7779	2.210417
150	0xbedbed6c	-0.42954576
151	0xbe063be3	-0.13108782
152	0x401f970d	2.4935944
153	0x3fa7b0ee	1.310087
154	0xbf97e0e2	-1.1865504
155	0x3fbb1958	1.4617109
156	0xbded3a31	-0.11583365
157	0xbe9d69fb	-0.3074492
158	0x3ff36752	1.9015906
159	0xbfa52281	-1.2901155
160	0x401467bd	2.3188317
161	0x40563f3d	3.3476098
162	0xc033d9ae	-2.810161
163	0xbf1e9e43	-0.6196024
164	0xc060cba8	-3.5124302
165	0xbf34e278	-0.70658064
166	0x405520a2	3.3301167
167	0xbeee2680	-0.46513748
168	0xbffa4749	-1.9553005
169	0x40162f13	2.3466232
170	0xc02deaab	-2.717448
171	0xbea3599d	-0.31904307
172	0xbea8fbfc	-0.3300475
173	0x402cae87	2.6981523
174	0x4016ffde	2.359367
175	0xbf6bd8c1	-0.92127615
176	0xbfdea591	-1.7394277
177	0x3fa0acce	1.2552736
178	0x3e9a413f	0.30127904
179	0x3fcc9aac	1.5984702
180	0x3fcc237f	1.5948333
181	0x3d7975d3	0.06090338
182	0x3ea44027	0.32080194
183	0x3f0b15c1	0.5433007
184	0xbfc0c6e7	-1.50607
185	0x40454600	3.0823975
186	0x3fa6e685	1.3039099
187	0xbfbc6957	-1.4719647
188	0x3f3e5d40	0.7436104
189	0x3fb49b13	1.4109825
190	0x4003e322	2.060738
191	0x3e0ea19c	0.13928837

policy.0.bias f4 [3]
0	0x3e028831	0.12747265
1	0x3d73e47c	0.05954407
2	0x3f1219cf	0.5707063
