PPO_discrete/model/Breakout-v0_c.pt (torch, 589839 bytes, 11 tensors)

net.0.weight f4 [16, 1, 4, 4]
00000000: dde2 1cc0 56b4 b8bf c03d 50bf 93eb 20bf
00000010: aba3 25c0 b8c0 e8bf 3efe acbf 302c 87bf
00000020: fe4f 35c0 8623 c5bf 9d91 2ebf c3f6 80bf
00000030: d25b 0fc0 5cd1 abbf 2e5e 96bf 35c5 bcbf
00000040: dc42 f6bf 410e 11c0 f127 0fc0 987d 80bf
00000050: da78 a4bf 2834 5ebf b65f 69bf f863 10bf
00000060: 7958 b53f 5a3f 613f 7f49 563f 349a 053f
00000070: dbff dd3f 3f4e ae3f 3240 123f e2c4 b83d
00000080: 078f 0cbf 920a 87be d5ad de3e f06f 193f
00000090: 9711 a63f bc0c af3f 30c1 cfbe c660 63bf
000000a0: e20d c93f 2d30 903f 3bc0 6fbe 0348 fbbf
000000b0: 4f77 0040 9728 563f 265c 50be 9532 d1bf
000000c0: 6dfe 9c3e 3839 74bf 3572 16c0 6509 24c0
000000d0: 30d2 0dbf ca98 c6bf ebd7 1dc0 84e3 42c0
000000e0: f5a4 76bf b132 70bf bee5 e5bf 0d1f edbf
000000f0: 32ad 0fbf d0e2 53bf e57c 91bf 665d bebf
00000100: 1bcb eebd 04bc 883e 368c 733e 93fa 213d
00000110: 83b0 233f 31a7 463f bb80 af3e 3632 9e3e
00000120: 717a df3e 4d60 1b3f d950 4f3f 3c88 1a3f
00000130: 97b4 a73f 9acc 1540 7f16 1640 9996 4b40
00000140: 7dbf a3bd c7db d7be cd01 063e 468a 583f
00000150: 0503 2c3d 6e4b bcbf 4860 51bf 43cf b43f
00000160: b97d 71be c648 49bf ac00 54be 9d2c 713f
00000170: 6388 453e 4b2e 26bf 3883 893c d036 1c40
00000180: 0080 ee3e 290f 1340 b9c3 7b40 3c87 3940
00000190: 00f8 2bbf 1a32 97be b0bd f2bd e34c 04bf
000001a0: c5f0 263f f045 9d3e 87d1 913d 3baa e13e
000001b0: 0754 a53d 0eae 27be 68fe a8be 0002 01bf
000001c0: 4dfa 7a40 0286 1a40 041d bd3e c470 58be
000001d0: 30fc d63e beae fdbd 433f 04bf 10f4 aa3c
000001e0: fcd3 853e c9c0 733d 504d 9b3c f43c 16be
000001f0: f62f 96be b599 ffbd cb1d 3ebb be80 dc3d
00000200: 2c32 993f 51de 9f3f f549 903f d403 5e3f
00000210: 40e4 1040 b66d 2540 c81c e93f c937 c93f
00000220: c996 453e 9536 b43c df1d 71bd eda8 94be
00000230: 00f5 043f 8e2a b0bd 64ed 063e 7c89 87bc
00000240: 43ef 7d3f 0acb 8d3f aaf6 893f 8ed6 a53f
00000250: f050 043f bab5 e13e d9ba 0b3f 23ac 673f
00000260: 3af9 08c0 6527 93bf e11f 88bf ff3c e9bf
00000270: 7216 15c0 bae6 8ebf d85e ebbe 2cef 22bf
00000280: 7f5b 523f 8327 82bd c2dc 02bf 06a3 893f
00000290: eefb 64be 6b83 1abd 6bcb d83d 19a9 de3e
000002a0: 3dba 1d3e ec9f 6f3d aea5 413f 704b 543e
000002b0: 7b8b 93bf afca 433e fa14 813f 1817 8fbe
000002c0: b109 b5be 0a6c 54be 885f ebbd 93af 64be
000002d0: 63ec 5d3f 95cb a13f 6596 743f 3912 6f3f
000002e0: a7aa be3e dd77 843f c780 703f e16a 2d3f
000002f0: b59e 543d 9da2 993c 9aab 6f3c 07c3 db3e
00000300: 278d 90be 9676 d33c d1ee 0abe 04e1 1ebf
00000310: 871e bb3e 996d 07bf f7b5 ebbe 409c 0d3f
00000320: 1527 8e3d e43d c9bf 6e88 cdbf 7a12 b0bd
00000330: 228c 36bf 474f 1ac0 8544 32c0 a174 61bf
00000340: 56f9 81bf d4f2 42be 2852 283f 480d 2ebe
00000350: 8764 acbf 7579 4b3f d893 0c40 046b b13f
00000360: 0204 f2bf 23cf 47be cf35 e43e 0c5f f1bc
00000370: d81c 0abf 1c86 8e3e 5226 4c3e a87d 6d3d
00000380: 4abb fe3e e836 113f 1603 98be e10b f5bf
00000390: c74e 45bf 2a77 2cbf 3209 d8be 2fc5 a9bf
000003a0: 5b40 07bf 5f21 533f 823e e63f 5fcf 453f
000003b0: 9fe4 a5be 526d 8e3e de50 d53f 8243 f23e
000003c0: aea5 823f 79ba 443f da5c 523f d393 653f
000003d0: 06da 733f 72c2 863e 4335 073f b0f5 953f
000003e0: 3b6c d73f eb61 9c3f b901 843f c023 843f
000003f0: 1318 2040 f4b9 a73f acc1 083f 2e90 f33e
-2.4513466 -1.4430034 -0.81344223 -0.6285946 -2.5881145 -1.8183813 -1.3515089 -1.056036
-2.8330073 -1.5401466 -0.6819094 -1.0075306 -2.2399793 -1.3423266 -1.1747491 -1.4747683
-1.9239154 -2.266495 -2.2368128 -1.0038328 -1.2849381 -0.86798334 -0.9116167 -0.5640254
1.4167625 0.8798729 0.83705896 0.5218842 1.7343706 1.3617629 0.57129204 0.090219274
-0.5490574 -0.26375252 0.43491998 0.5993643 1.2974118 1.3675761 -0.40577078 -0.8881954
1.5707362 1.1264702 -0.23413174 -1.9631351 2.007282 0.83655685 -0.20347652 -1.6343561
0.3066286 -0.9539981 -2.3507206 -2.5630734 -0.55398846 -1.5515378 -2.4663036 -3.0451365
-0.96345454 -0.9382735 -1.7960737 -1.8525101 -0.5612365 -0.82767963 -1.136624 -1.4872253
-0.11659833 0.26705945 0.23783955 0.039545607 0.6394121 0.77598864 0.342779 0.30897683
0.43648103 0.6069382 0.8098274 0.6036413 1.3101987 2.340613 2.345123 3.1810668
-0.07995508 -0.42159864 0.13086624 0.8458599 0.041995067 -1.4710519 -0.8178754 1.4125751
-0.23583116 -0.7862667 -0.20703381 0.942087 0.19290309 -0.6491439 0.016786203 2.4408455
0.4658203 2.2978003 3.933821 2.898879 -0.6717529 -0.29530412 -0.11852586 -0.5167982
0.65211135 0.3071742 0.07120042 0.44075188 0.080726676 -0.1637499 -0.33006597 -0.50393677
3.9215271 2.4144292 0.369362 -0.21136767 0.4198928 -0.12386845 -0.5165903 0.020868331
0.26138294 0.059510026 0.018957764 -0.1467169 -0.29333466 -0.12480489 -0.0029009457 0.10766743
1.1968436 1.248972 1.127257 0.8672459 2.2639313 2.5848212 1.8211908 1.5720149
0.19295801 0.021998683 -0.058866378 -0.2903513 0.5193634 -0.08601867 0.13176495 -0.01654505
0.9919321 1.1077588 1.0778401 1.2956102 0.51686 0.4408396 0.5458198 0.90497035
-2.1402116 -1.1496397 -1.0634729 -1.822174 -2.329495 -1.1164162 -0.45970798 -0.636462
0.8217086 -0.063551925 -0.511181 1.0752876 -0.22361729 -0.037722986 0.10585674 0.43488386
0.15403076 0.058502123 0.7564343 0.20731902 -1.1526941 0.19120286 1.0084527 -0.27947307
-0.35358956 -0.20744339 -0.114928305 -0.22332601 0.8668882 1.2640253 0.95541984 0.9338718
0.37239572 1.0349079 0.939465 0.6774121 0.051909167 0.018754298 0.014628315 0.42922232
-0.2823269 0.025813382 -0.13567664 -0.62062097 0.36546728 -0.5290161 -0.46037266 0.55316544
0.06941048 -1.5722013 -1.605726 -0.08597274 -0.71307576 -2.4110887 -2.785432 -0.88068587
-1.0154216 -0.19037944 0.6575036 -0.16997254 -1.3468179 0.79482204 2.1965237 1.3860784
-1.8907473 -0.1951261 0.44572303 -0.029464267 -0.5395026 0.27836692 0.19936493 0.057981163
0.49752265 0.56724405 -0.29689854 -1.914425 -0.7707333 -0.6736933 -0.42194515 -1.3263301
-0.52832574 0.82472795 1.7987826 0.7726955 -0.32400987 0.2781778 1.6665304 0.4731713
1.0206811 0.76847035 0.8217293 0.89678687 0.9525455 0.26320225 0.52815646 1.1715603
1.6829904 1.2217382 1.0313026 1.032341 2.5014694 1.3103623 0.5342052 0.47570938

net.0.bias f4 [16]
00000000: dbd6 e33e 4f47 553d 8f0c 363a 8ffe b23e
00000010: 8911 6a3e 326e c63a 190e 723d 479e 893b
00000020: 058c e33e 1d00 0c3f 3d05 923a 4828 cbb9
00000030: 5550 0d3d 209d b13b 05bd 003e c627 473e
0.4449986 0.05206996 0.00069446204 0.34959838 0.22858252 0.0015139042 0.059095476 0.0041997763
0.44442764 0.5468767 0.0011140477 -0.0003874919 0.03450044 0.005420342 0.12572105 0.19448766

net.2.weight f4 [32, 16, 4, 4]
00000000: 290b 7cbe 1c32 b1be 5cbe d1bd 59aa fdbc
00000010: bec8 303e 7ca9 8ebd 4b4b 333e d4a4 11be
00000020: 0a92 46bd 6ba2 9dbb d895 0bbe 78e4 47be
00000030: e331 903c 959c 1bbe 2738 09be d94c d0be
00000040: d5c4 633f 0d7e 343e d351 84be 408b 45bd
00000050: f375 553f 432e a63e 4e59 643e 8e4f e93c
00000060: 1175 9d3e e8a2 343f 34e3 cc3e adde 9ebd
00000070: 9189 cbbd 708e 4d3e 3064 7cbf a7fe 40bf
00000080: e3e1 1b3f e7ea 31be 7e13 6fbe 9afe fabd
00000090: 7259 0d3e aa46 683e 77ff 7abe d010 ea3d
000000a0: ae8a 833e 0c98 5f3e 0da8 323f c9de 3e3f
000000b0: 4f59 4e3e efa5 ac3e e85b 023f e305 d0bc
000000c0: 440d 15bf 040f aebe 178c 88be f120 5bbd
000000d0: 6a2b a23e 8232 acbd f1d0 59bc 5474 293d
000000e0: cc9c 6dbd 5fff 36bc c1e9 6dbe 5b7d 5fbe
000000f0: 5997 9a3d 0388 133d 3a70 39bd b024 12bf
00000100: 4584 143f 9ae4 813e 2193 ffbd f072 6e3e
00000110: 4dab 153f 3371 5f3e 345c 47bf 998f acbe
00000120: fa82 15ba 7ac6 2c3f 0403 8b3e 438f 17bc
00000130: caff 403e ae54 373e 9141 82be 5d00 3ebd
00000140: bd7f ad3e c929 55be 7393 88bf fab6 3dbf
00000150: 84e9 0f3f 1f47 d4bd 3852 bf3d 853d dd3e
00000160: a333 c53e b499 2a3f 53b2 a73e 1d71 5a3f
00000170: ae2f d23e 7083 b53d 06e8 05bd 8003 1e3f
00000180: d49a 363f e208 9dbe 84a5 82be 022b 53be
00000190: 738a 7d3f e3b1 713f 059b e3be 9a7a c63e
000001a0: 3774 be3d 6da2 26bf be22 03bf db78 063f
000001b0: c0a0 0fbe a885 18bd 0ff8 64be 310a 1cbf
000001c0: d111 693f f1b7 373f 51a8 c03d 4b68 cc3e
000001d0: 1c9c 3e3f d260 16be ef1a a83e b174 cd3d
000001e0: 0416 8a3e 21b4 283f 21ac ad3e ed67 af3e
000001f0: a14f abbc cc46 0b3e 782a f9bd 182a 5d3e
00000200: 792a 20bf 646c 91be 65fa 56bd 6e23 71be
00000210: c101 cd3e 7fc4 ee3d 82f2 8dbd 9bf0 47be
00000220: 294c 4bbe c07e 7fbe 0ddd c0be ca7c 3dbd
00000230: 5b9f 3f3e add2 983e 2790 0e3e 61d9 df3c
00000240: 2729 9cbe 059b 6cbe 7cc4 62be c041 1bbe
00000250: 9ac8 b23e d74f de3e e039 6e3d 9c0c 12bd
00000260: 6af0 8f3d 1fde 893a 7ede 3bbf 65b3 24be
00000270: 544b 303e 7ff2 a33d 3974 f3bc ae1f 4abe
00000280: 838b 283f a973 553f 58b2 c6be 47d9 cabe
00000290: 7219 a73e 8bdd c13e b260 c5be 8e0e 56bd
000002a0: d076 ed3e 1dc0 1e3e 52e4 e83e b202 423f
000002b0: 70af 863e 77e3 0fbf f782 683e b4b5 8b3d
000002c0: d4d0 133f c1ed 363e f0e3 b7bf 9abc 32c0
000002d0: 3a13 523e 51a6 b0be bbca 2ec0 d1ab f6bf
000002e0: f1c3 783e d4b4 b83e db5b 263f fe82 a93f
000002f0: 867f 643d c412 bf3e 67b6 b23e 5880 683e
00000300: 8608 693e 8ad1 e6bc 59a4 983c 6711 33be
00000310: 598e f93e 18c8 1d3e 83e7 48bc 65df d83d
00000320: de69 d43e 4f38 fc3e 2ee1 50be 30f6 1abf
00000330: ecb1 2d3d 8ec1 f73d c6e1 5c3e 9d69 4e3f
00000340: a933 7ebe ef72 19bf a307 84be 8c36 bdbe
00000350: 8ead f93e 85f3 5d3e 3312 ad3e db9f 02be
00000360: b4d4 a83e 1ccc 5c3f 5137 cb3e 7aee 203f
00000370: 7d2a 433e a200 863e b660 a03e 0b76 ab3e
00000380: cacd 8d3f 7aea d53e 850f 17be 78b0 1f3e
00000390: 9b88 153e 418c 71be 40aa 41be d554 d73e
000003a0: 68cd b23e 1243 843d 1970 253e 511e 783e
000003b0: 5aeb 813e dec3 333d 71e5 f0be 5c67 b5bd
000003c0: 1933 f53e 0e43 ce3c 1fb8 16be 7ac6 96bd
000003d0: 4dfb babe 33e4 1fbc 47bc bcbe bc05 41be
000003e0: a648 abbd 5116 3abe 84c5 483e ca67 b33c
000003f0: eba6 823e 2e70 843d d6d2 a6be a2bc 9abc
-0.24613632 -0.34608543 -0.10241386 -0.030965017 0.17264077 -0.0696592 0.1750919 -0.14223033
-0.048479117 -0.0048106215 -0.1363138 -0.19520748 0.017601913 -0.1519645 -0.13400327 -0.4068363
0.88972217 0.1762621 -0.25843677 -0.048228502 0.833831 0.3245717 0.22299692 0.028480317
0.30753377 0.70561075 0.40017092 -0.07757316 -0.09938348 0.20073867 -0.98590374 -0.7538857
0.6089155 -0.17374764 -0.2334728 -0.12255593 0.13803652 0.22683206 -0.24511515 0.11428988
0.25691742 0.21835345 0.69787675 0.74558693 0.20151256 0.33720347 0.5092149 -0.025393432
-0.58223367 -0.3399583 -0.2666938 -0.053498212 0.31673747 -0.08408071 -0.013294444 0.041370705
-0.05801086 -0.011169284 -0.23233701 -0.21825163 0.075483985 0.036018383 -0.045273043 -0.5708723
0.5801433 0.25369722 -0.124792345 0.23286033 0.5846451 0.21820526 -0.77875066 -0.33703306
-0.0005703416 0.6749035 0.27150738 -0.009250465 0.18847576 0.17903396 -0.25440648 -0.046387065
0.3388652 -0.20816721 -1.0669998 -0.74107325 0.5621569 -0.10365128 0.09341854 0.43210998
0.38515958 0.6664078 0.32753238 0.8532885 0.41052002 0.0886296 -0.032691978 0.6172409
0.7133 -0.3067084 -0.25516903 -0.20621875 0.9903938 0.9441206 -0.44454208 0.38765413
0.0929951 -0.6509159 -0.5122489 0.5252816 -0.14026165 -0.03723684 -0.22360252 -0.6095305
0.9104281 0.7176505 0.09407104 0.3992332 0.74456954 -0.14685372 0.3283305 0.10032023
0.26969922 0.65899855 0.33920386 0.34258977 -0.020911993 0.13601226 -0.121663034 0.21598089
-0.6256481 -0.28403008 -0.05248489 -0.23548672 0.400404 0.116585724 -0.0693102 -0.19525377
-0.19853272 -0.24950695 -0.37668648 -0.046261586 0.18713133 0.29848233 0.13922177 0.027325334
-0.30500147 -0.2310601 -0.22145265 -0.151618 0.34918672 0.43420288 0.058160663 -0.035656556
0.07028277 0.0010518468 -0.7338637 -0.16084059 0.17216235 0.08005237 -0.029718505 -0.19738647
0.6583788 0.8337961 -0.3880794 -0.39618894 0.326366 0.37864336 -0.38550335 -0.052259974
0.4637971 0.15502973 0.45486695 0.7578536 0.26305723 -0.5620646 0.22706209 0.068217665
0.5774052 0.17864133 -1.4366436 -2.7927613 0.20515147 -0.3450189 -2.7311237 -1.9271184
0.24293496 0.3607546 0.6498391 1.3243101 0.05578568 0.37319005 0.34904787 0.2270521
0.22757158 -0.028176088 0.018633055 -0.17487107 0.48741415 0.15408361 -0.012262228 0.10589484
0.4148702 0.4926171 -0.20398399 -0.605319 0.042406008 0.120974645 0.215705 0.80629903
-0.24824394 -0.59941 -0.25787076 -0.36955678 0.48765224 0.21674927 0.33802947 -0.12756293
0.3297478 0.86248946 0.3969064 0.62863886 0.19059177 0.26172358 0.31323785 0.33488497
1.1078427 0.41780454 -0.14752014 0.15594661 0.14602892 -0.23588659 -0.18912601 0.4205691
0.34922338 0.06458105 0.16156043 0.24230315 0.25374871 0.043887965 -0.4705005 -0.08857605
0.47890547 0.025178459 -0.14718674 -0.07362075 -0.36519852 -0.009758997 -0.36862394 -0.18849844
-0.08363466 -0.18172576 0.19606596 0.021900076 0.25517973 0.06466709 -0.3258273 -0.018888775

net.2.bias f4 [32]
00000000: 7675 abbb 02a7 c03d cf36 9e3e 64a3 1e3f
00000010: d06e 9a3e a038 e03e 5628 033f 0874 483d
00000020: 4317 fe3e 2d29 ea3e 9861 073f 533b 123f
00000030: fe63 be3e bd0f d93e f87e ad3e 21c0 c93e
00000040: d34d 043e 849b b03e 2785 fa3e 747a 923e
00000050: bd4e 013f f448 323e 0fb3 303f 5c90 9f3d
00000060: 3c9a eabc 1a3d 203f 4fd6 e43e a018 0d3f
00000070: 4386 f8bd 6f93 363d f964 833e f301 0a3f
-0.0052325083 0.09406854 0.3090119 0.61968064 0.30162668 0.437932 0.5123342 0.04893878
0.49627122 0.4573454 0.5288329 0.5712177 0.37185663 0.4239482 0.33885932 0.39404395
0.12920313 0.3449365 0.48929712 0.2860905 0.5051077 0.17410642 0.6902322 0.07791206
-0.028637998 0.62593234 0.44694754 0.551157 -0.121349834 0.044574197 0.25662974 0.53909224

net.4.weight f4 [64, 32, 3, 3]
00000000: 2a74 563e 0735 c13f 4736 ccbe 83f4 22be
00000010: eba6 3b3f 912f 3a3e 578c 153e 9438 333e
00000020: 06b2 c33e 3497 1a3f b515 f33e d189 0d3f
00000030: 7cbd 94ba 4f18 38bf c0a8 61bf d592 0d3f
00000040: 16dd da3e 31a2 9a3e b968 ec3e b178 1a3f
00000050: 6a2e 323e ae72 80be 5f53 6ebf 30ea 0dbf
00000060: f1c9 b93d af97 5d3e 885d 3b3c 72f0 893e
00000070: 920e 6e3e c97e 3a3e 4964 d0be e664 a0be
00000080: 4594 ddbd 8133 033d 820b 8e3d 33dd 3dbe
00000090: 2d7b cd3c 38cb 5abf 5281 3dbf d5e9 f4bd
000000a0: cbe1 a5bd c224 0e3e b8d1 80bc 092c e8be
000000b0: c5db 1e3f e826 89bd 14ce fc3e 5038 ea3a
000000c0: 9b81 0abe 8abd 8abe fccb 0bbd e1a3 7b3e
000000d0: cf6a 443f 1f89 9b3e 840e edbb 0053 4d3f
000000e0: 9088 81be b2a1 2bbe 6355 90bb 80b6 ea3e
000000f0: 7414 693f 4e23 993e 3cc6 a13e 08e2 1d3e
00000100: a488 e8be 5e79 14be 05da 34be 9d05 4abf
00000110: e9eb 3c3e 4e70 113f 6e8c cdbb 134d fb3e
00000120: cceb 3e3c 6da5 963f a0c0 a7be 4503 aebd
00000130: ce9f 0c3f 77bc 8d3e 49ce 833f 8cb3 c7be
00000140: 8ef4 a6bd 98fe 213f 6524 ae3e 672d 66bc
00000150: 49ee 61bd 51b0 0bbf ebbb 1bbf 5b53 45bc
00000160: 59b3 87be 0ce0 c53e 1d6e be3e 7579 303f
00000170: 38cd 423e a6a5 da3e acbd 75bf a211 38be
00000180: bd95 b8bc 8ab7 c6be 6de2 2b3e 41a5 b13d
00000190: b8a1 203f ca35 9cbd b134 89be 25c8 babf
000001a0: 9e96 40bf aace 583e c65e ab3e 868d 283f
000001b0: b6d4 00be 22a1 413f 2021 20be 9f74 64bd
000001c0: 86fa 6cbe f183 21be 670a bf3e be92 a83d
000001d0: c72f 8e3e 1f03 123f d653 37be 922a b03e
000001e0: 0a72 34bf 75f1 5fbe 1acf 0ebf 819b 9c3e
000001f0: 3129 e4be bf9d 5e3f e419 923d 74ae c83c
00000200: 2d64 d33d c927 dfbe 97e9 e33e 116b e03e
00000210: 61e1 56bd 55c4 d7bd 8901 eabe 095a 813d
00000220: 8f9a cf3e 99cf 8d3e e77d d93c 0960 b3be
00000230: 1a81 e73d c60c de3c 5883 233e 8706 a13d
00000240: 0a1b 313f 5d36 4b3f 5778 563e 32b0 a7be
00000250: 3399 9dbc e268 35bf da30 043f 574e 9e3e
00000260: f560 fb3d b8da 893e 1231 2c3e 4fb1 e33e
00000270: d1c4 77bd 6976 95bd 6a12 05be f5a4 e53e
00000280: cbeb 89be 7d01 d13d 8e8c ee3d 69df f7bd
00000290: f882 d0be 293f 173c 0427 e6be 85bb d6bd
000002a0: ef4e 2dbe bb93 39be ecf6 f9bd 562e 523e
000002b0: b523 53be 01a5 2dbf 3106 f0be 424c 8fbe
000002c0: cf95 713d b14f 973e 0fc2 30bf db79 753d
000002d0: 9603 f7bd 19f0 3e3d f9ec 703d fb63 c73d
000002e0: 08d1 62be 3340 9c3b 822c 253e 2147 51be
000002f0: 046d 12be 7719 863e 069e a23e ff3c 853e
00000300: a417 88be a090 f5bd d6df 083d 198d d2bd
00000310: ac04 9bbd fd0a 0c3c 2f16 823e 88c2 973e
00000320: 0342 5abe e92a ffbe 28d5 49bf 3c3a 53be
00000330: 2471 313f 4480 91bf cdbc 8a3e b52c 363f
00000340: 023a 303f 74b8 253f 9b8a 713e 1f54 4ebe
00000350: 5820 943e d430 ce3c d19c b73d a1ea 9d3e
00000360: ca0f 353f 92d7 bc3e e027 573f 294c b63e
00000370: b312 3b3c 084b a0bd 00ef 043e 9c46 303e
00000380: 1108 5d3d 3cc6 f63e b684 353e 6a27 32bf
00000390: 9988 d9be 4f9e 1ebe a8c6 883e bca1 113f
000003a0: f2c8 13bf 4d18 c53e c95e 413e f31b 97bd
000003b0: 1a3d a13c 0337 153f 8bf4 cf3e 5b79 5abe
000003c0: f44b e03e f231 d83d 8b2c 943e 16fa 303f
000003d0: 85ac a13f 6cdd 203f b69a e5be 6a3c 09bf
000003e0: da51 31be a5f7 0d3f 5d35 58be 7573 443f
000003f0: 4257 fc3e 847b fa3e 0a92 12bd fc8a dabd
0.2094275 1.5094308 -0.3988516 -0.15913586 0.7330157 0.18182208 0.14604317 0.17502052
0.3822176 0.6038697 0.474775 0.55288416 -0.0011347975 -0.7191209 -0.8814812 0.5530217
0.427468 0.30201867 0.46173647 0.6034041 0.17400518 -0.25087494 -0.93095964 -0.55435467
0.090717204 0.21639894 0.011435874 0.26941258 0.23247746 0.18212427 -0.40701512 -0.3132698
-0.10819296 0.03203154 0.06935789 -0.18541412 0.025083149 -0.8546634 -0.7402545 -0.119586624
-0.08099707 0.1388121 -0.015725002 -0.45346096 0.6205409 -0.06696874 0.49375975 0.0017869566
-0.13526003 -0.27097732 -0.03413008 0.24574234 0.76725477 0.30378053 -0.0072343964 0.8020477
-0.252995 -0.167609 -0.00440471 0.4584236 0.91046834 0.29909748 0.31596553 0.15418255
-0.4541675 -0.14499423 -0.17661293 -0.78914815 0.18449368 0.5681199 -0.006272844 0.4908224
0.011652898 1.1769234 -0.3276415 -0.08496717 0.5493134 0.2768285 1.0297328 -0.3900417
-0.08152114 0.63279104 0.34012142 -0.014048911 -0.055158887 -0.5456591 -0.60833615 -0.012043799
-0.2650402 0.38647497 0.37193385 0.6893533 0.19023597 0.42704505 -0.9599254 -0.17975476
-0.022532338 -0.38811904 0.16785593 0.08674098 0.62746763 -0.07627447 -0.26798013 -1.4592329
-0.75229824 0.21172586 0.33470744 0.6584095 -0.12581143 0.75636494 -0.15637636 -0.05577528
-0.23142442 -0.15772988 0.37312624 0.08231114 0.27770826 0.5703601 -0.17903075 0.3440748
-0.7048651 -0.21869452 -0.5578476 0.3058739 -0.44562677 0.8695945 0.071338445 0.024497248
0.103218414 -0.4358504 0.44514152 0.43831685 -0.05246103 -0.10535494 -0.45704296 0.06316001
0.40547606 0.27697447 0.026549293 -0.35034207 0.11303921 0.0271057 0.15968072 0.07862573
0.69181883 0.79379827 0.20944344 -0.32751614 -0.01923809 -0.70863163 0.5163704 0.30919144
0.122743525 0.26924682 0.16815594 0.44471213 -0.060490433 -0.072979756 -0.12995306 0.44852415
-0.26937708 0.10205362 0.116479024 -0.12103159 -0.4072492 0.009231367 -0.44951642 -0.10484985
-0.16924642 -0.18122761 -0.122053 0.20525488 -0.2061909 -0.678299 -0.46879724 -0.27987868
0.05898076 0.29552987 -0.6904611 0.059930664 -0.12061231 0.046615694 0.058819745 0.09735867
-0.22150052 0.0047683953 0.1613026 -0.2043729 -0.14299399 0.26191303 0.31761187 0.260231
-0.26580536 -0.11990476 0.03341659 -0.102808185 -0.075692505 0.008547542 0.2540755 0.29640603
-0.21314244 -0.49837425 -0.78840876 -0.20627683 0.69313264 -1.1367269 0.2709717 0.7116197
0.6883851 0.6473458 0.2358803 -0.20149277 0.28930926 0.025169767 0.08965457 0.3084307
0.7072722 0.36883217 0.8404522 0.3560498 0.011418032 -0.07826811 0.12981796 0.17214435
0.05396277 0.48198116 0.17726406 -0.6959139 -0.42487028 -0.15490077 0.26714063 0.5688741
-0.57728493 0.38495103 0.18883814 -0.07378378 0.019682456 0.58287066 0.4061626 -0.21335356
0.43807948 0.10556401 0.28940234 0.691316 1.2630774 0.6283786 -0.44844598 -0.5360781
-0.1731638 0.55456 -0.21114106 0.76738673 0.49285322 0.4892236 -0.035783805 -0.106710404

net.4.bias f4 [64]
00000000: 9089 eb3d b567 79be a920 64be d28b 183e
00000010: 432a c13e 28d7 59bb 4b4e b3bd 9570 7c3c
00000020: f758 10bf 3f15 fabd d402 ed3d f7e6 cabe
00000030: 2a28 e5be 85af 503d 11b9 4dbe fc88 2bbd
00000040: f6ef 113d 649f f2bc 66c2 e5bc 1155 533e
00000050: 7327 053f fd31 41bd daca b23e 233c 22bd
00000060: fa1a 7f3e 252e 8dbc 4a55 4c3d 0f51 55be
00000070: e92c d5be 282e 2c3d 382b 18bb a75e 23bd
00000080: 5219 b1be a6cd 763b a332 b63d ed9c aa3d
00000090: cf06 ecbc 7c32 063c aa1d 173d 0461 63be
000000a0: bb65 093e b92f 96bd 3790 3abc 3838 373f
000000b0: 76a1 833e d2da 62be f792 b7be 6f22 14be
000000c0: c3a9 ccbc 995b 6dbe d363 c2bd 44a6 903e
000000d0: 27fc 86bd b40f 5f3e 5935 943d 3835 5f3d
000000e0: df7b a9be bc9c 25bf f2ef 2d3e c9ca 99bd
000000f0: 690d 453c 9e87 713e a39a 233f 9fda a2be
0.11500847 -0.24355967 -0.22278084 0.14897087 0.37727556 -0.0033239815 -0.087551676 0.015407701
-0.5638575 -0.122110836 0.11572805 -0.39629337 -0.44757205 0.05094864 -0.20090128 -0.041878685
0.035629235 -0.029617019 -0.028046798 0.20637919 0.5201332 -0.047166813 0.34920388 -0.039608132
0.24912634 -0.017233917 0.049886025 -0.20831703 -0.41635826 0.042036206 -0.002321912 -0.03988519
-0.3458963 0.0037659197 0.08896377 0.083307125 -0.02881184 0.008190747 0.036893524 -0.22204977
0.13417713 -0.07333321 -0.011386923 0.7157016 0.25709122 -0.22153786 -0.35854313 -0.1446626
-0.024983292 -0.23179473 -0.09491696 0.2825185 -0.06591063 0.21783334 0.07236738 0.054494113
-0.3310232 -0.6469228 0.16986063 -0.07509381 0.012027123 0.2358689 0.6390783 -0.3180742

net.6.weight f4 [64, 64, 5, 5]
00000000: 3343 3c3d 7e50 f93e f717 9a3e e88d d93d
00000010: f5f6 5f3e b413 123e 5be4 83be 4486 92bf
00000020: 9203 2cbf 2567 7a3d 4cec 023f 15bc fbbe
00000030: ea06 89bd 89a2 6fbe 27a2 a43e c057 ee3d
00000040: 6617 c83d 3fd8 a6be 68d8 8ebe 6dc5 33be
00000050: 4b79 013f 4d7d ee3d 0388 5abd 8f35 d3be
00000060: 68d3 09bf 2a72 653d 5375 d2be 878a 4cbf
00000070: 9530 4abf 83d9 dfbd 5b7e 0fbe 4112 913e
00000080: c18d fe3e 5269 c7be 4039 ff3c 97c3 933d
00000090: 9664 bcbd 58a3 f8bd 8331 9abd 0b7e 9bbc
000000a0: 470e 023e 6a21 e53b 7adb 3a3e 7b98 e0bd
000000b0: 4b9b aabc 56e4 babd 4173 4abf 2c2c 0fbe
000000c0: 00c3 0e3e a9ce 9ebe 13ad 71be bdf0 04bf
000000d0: 94e6 15bf 91a1 7cbd 7261 9ebc 33d0 c7be
000000e0: 9bf0 0bbf 4f1e be3d 4b0b fcbe 1610 ad3d
000000f0: 8965 833d e72f 443d b979 47be c26c a13c
00000100: 4e9a ce3d 0f9c 3dbd fb4f 88be 3cb2 c73d
00000110: a57d 563d 66e0 ffbd f658 a93e 49b4 e2be
00000120: c451 23be 08c2 e13c dc33 883e b391 803e
00000130: 6a86 8e3d 9133 62be 8b3c e43d 2f49 16bd
00000140: 5251 8cbd ce13 b13c 60af 7cbb 4c64 f2bd
00000150: e1e5 84be ce3c e7bc 9422 0cbd 654b 673e
00000160: 8308 df3d 858c f8bd be36 d9be 089b 3bbf
00000170: c146 cabe 799f 38be fc26 64be d486 093e
00000180: 4475 06bf 8608 71be b0ed 313e 7e03 87bd
00000190: 6feb 1a3e 1463 9fbc a3db b83d f7db 9cbd
000001a0: e4c0 ff3d ffd5 923e fb86 c13c 2c24 8b3e
000001b0: 6cc7 193e 0df5 2abe 6771 43bd 9379 08be
000001c0: 6a92 3ebe 1698 09bf efb7 3abe 16f6 3f3e
000001d0: 4b13 4b3e d1aa a4bc b61f 433c 42b6 04be
000001e0: 8b71 a8be b137 983e afd6 f3be 68cc 9fbe
000001f0: ae0e c3be e064 49bd a7bf b2be b1df 5ebf
00000200: d012 02be 0285 26be 50ff 15bd 4009 4a3e
00000210: b7ab 18be ef9a debd 824a 3fbe 9471 8e3d
00000220: 2ddc f53d bee2 c6be c00c 1f3b b476 263e
00000230: 2bfe 0ebd 8f35 32bc 8609 83bc 98d5 ac3d
00000240: 0025 24be 5033 d03e 5760 1a3e ff82 24be
00000250: 6fd5 84be e2b1 2abe bc0d 60be 254f 97be
00000260: bdc2 dbbd 6bba 703d bc01 61bd 7b3b ac3e
00000270: 6ec6 5d3e dfaf cb3c a88b 613b 56b2 9abe
00000280: b0eb a63e 5eab 363e b634 6dbf 1fef 4bbd
00000290: bbb0 48be 46e8 f03d 5906 edbe 7ac8 0a3d
000002a0: 7bcb b3be a468 18be 2c42 3fbe 3fa4 d3be
000002b0: e82a adbd 0e52 abbe 6738 0ebc 3204 2d3e
000002c0: f8a4 50be 9d0d a6be 900e 68be 1469 833e
000002d0: 7dd8 c1bd 611d 9c3e 6e37 313c cee1 c93c
000002e0: ca83 4fbc 86cc c13d 76a2 a7be c6a1 32be
000002f0: f9c1 cbbe 8abb b4be cb91 e43d aa7a e0bd
00000300: 8c7a 0c3d 3f27 31be cfee 543c 07ac 95be
00000310: 26cc d3be f8e2 b9bd 4ff1 0fbf 323c 6d3e
00000320: d93e 9ebb 0810 f3bd 1573 4fbe 34d6 f6bc
00000330: fefb e83d ab9d c2bd 69e0 a0be 74d4 c5be
00000340: 0ef1 49be e9a9 b23c 2073 e7be 07f1 60bf
00000350: 57e3 12bf e0f8 fdbe d4b1 e8bd d8f6 02be
00000360: 3b6a 8bbe 21d2 c7be f21a d0be ba3d aebe
00000370: 85ca 07bf e2e3 ed3d c6b1 33be 81ee e5bd
00000380: e606 8ebe dc65 dfbe da9b 78be efb2 c3be
00000390: 6343 1dbf 91c3 8abe efca 2a3d 7dbc 54bc
000003a0: 686c 323d a85a 9f3e 4d96 4c3d 45ca ed3e
000003b0: 3f0e 94bb 8be1 bd3e 6c70 c1bd ae8a 45be
000003c0: 2200 203e 8028 b0bd 2f1c 88bd 7ff6 533c
000003d0: 2c04 c3bd af9a f4be b954 1fbe c2a4 8ebe
000003e0: 6254 32be 6443 fbbd 217f aa3b 7def eabe
000003f0: d957 38bf d3aa 04bf 88a2 693e e57d 64bf
0.045962524 0.48694223 0.3009641 0.106227696 0.2187155 0.14265329 -0.2576016 -1.1447225
-0.6719295 0.061133523 0.5114181 -0.49166933 -0.06690772 -0.23401846 0.32154962 0.11637831
0.09770088 -0.32586858 -0.2789948 -0.1755578 0.50575703 0.11644993 -0.053352367 -0.412518
-0.53838205 0.05601708 -0.41105136 -0.79898876 -0.7898038 -0.10930159 -0.14013045 0.2833424
0.49717525 -0.3894754 0.031155229 0.0721504 -0.09198873 -0.1214053 -0.07528975 -0.018981
0.12700759 0.0069925087 0.18247786 -0.10966583 -0.020826003 -0.09125583 -0.79082114 -0.13981694
0.13941574 -0.31017044 -0.23601179 -0.5192984 -0.5855496 -0.06167752 -0.019333575 -0.3902603
-0.5466401 0.09283125 -0.49227366 0.08450334 0.06415851 0.047897246 -0.19480027 0.01970518
0.10088025 -0.046291407 -0.2662352 0.097507924 0.052365918 -0.124939725 0.33075684 -0.44278172
-0.1594916 0.027558342 0.26602066 0.2511116 0.06959231 -0.22089984 0.1114436 -0.036690887
-0.06851448 0.021615889 -0.003855668 -0.11835536 -0.25956634 -0.028227236 -0.034212664 0.22587354
0.10890295 -0.12136177 -0.42424577 -0.73283434 -0.39507106 -0.18029584 -0.22280496 0.13430339
-0.52522683 -0.23538408 0.17375827 -0.06592463 0.15128873 -0.019456424 0.090262674 -0.076591425
0.12487963 0.2867889 0.023623934 0.27176034 0.1501748 -0.16695042 -0.04771557 -0.13327627
-0.1861054 -0.5374769 -0.18234228 0.18746218 0.19831578 -0.020100983 0.011909416 -0.12960151
-0.32899126 0.2972999 -0.47624728 -0.31210637 -0.38097137 -0.049168468 -0.34911844 -0.87060076
-0.12702489 -0.16261676 -0.036620438 0.19730091 -0.14909254 -0.10869395 -0.18680766 0.06955257
0.12004886 -0.38844866 0.0024269074 0.16256219 -0.034910362 -0.010877027 -0.015995752 0.08439177
-0.1602974 0.40664148 0.15075813 -0.16065596 -0.25944087 -0.1666942 -0.21880239 -0.2955257
-0.10730503 0.058771532 -0.054933295 0.3363913 0.21657726 0.024864135 0.0034415517 -0.30214185
0.3260169 0.17838809 -0.92658556 -0.04978859 -0.19598667 0.11763053 -0.46293905 0.033882596
-0.3511618 -0.14883667 -0.18677586 -0.41336247 -0.08455449 -0.3346104 -0.00868044 0.16896132
-0.2037543 -0.3243226 -0.22661805 0.25666106 -0.0946512 0.30491164 0.010816438 0.024643805
-0.012665698 0.09462838 -0.32741135 -0.17444524 -0.39796427 -0.3529933 0.1116062 -0.10960896
0.034296557 -0.17300127 0.0129963895 -0.2923281 -0.4136669 -0.09076494 -0.5622758 0.23167494
-0.0048292694 -0.11868292 -0.20258744 -0.030131437 0.11376189 -0.09502729 -0.3142121 -0.3863865
-0.19720861 0.021809535 -0.4520502 -0.8786778 -0.57378143 -0.4960394 -0.11362043 -0.12789476
-0.27229485 -0.39027503 -0.40645558 -0.3403147 -0.53043395 0.11615731 -0.17548284 -0.11227132
-0.27739638 -0.436324 -0.24278203 -0.38222453 -0.6143095 -0.2710233 0.04169744 -0.012984392
0.043560416 0.31123853 0.049948025 0.46443382 -0.0045183 0.37086138 -0.09445271 -0.19291183
0.1562505 -0.08601475 -0.066460006 0.012937187 -0.0952228 -0.47774264 -0.15559663 -0.27860075
-0.17415002 -0.12268713 0.005203143 -0.4588584 -0.72009045 -0.5182316 0.22815907 -0.892546

net.6.bias f4 [64]
00000000: 2b38 8bbc 467d 5abd 74e8 c6ba e9c9 80bd
00000010: 227b 023f 7d2c 83bd ec02 b6bb 2dff fe3a
00000020: d5bf 3cbd bc5c acbd 8789 243b b1ad 82bd
00000030: 750d 48bc 27a7 4f3e 6997 463e 9554 b6bb
00000040: 4a09 2fbe 8e1e ac3d a7be 72bd 1922 51bd
00000050: c05b b93e b081 a1bd 6882 063e cb3b 403c
00000060: 97c6 28bd 789e 573d 8ec1 0bbc 08d7 ffbc
00000070: 9afe 66bd dea7 593d 50af b23c 793f 243d
00000080: e778 3ebe 775a 1abd ae00 1abb a1fc c03d
00000090: 896e b1bd 085e fdbc 8e4d 493d e9e6 a5bc
000000a0: 5a3f 253c 77c8 913e ca13 db3c a551 41bd
000000b0: c69f f03d 1676 743c ce62 bc3c 308a 3bbc
000000c0: 35d2 6dbd 8555 dc3c bd99 233d 5637 46bd
000000d0: 3181 50bd 5154 e9bd 9842 963a 7355 4f3d
000000e0: 9484 24bc afd7 683d 5d5d 62bc 523d 29bd
000000f0: 3249 b63c ae7c c9bb 8b3c 0ebc ca0e 1e3d
-0.016994556 -0.053342126 -0.0015175478 -0.06288511 0.50969136 -0.0640497 -0.0055545475 0.001945471
-0.046081383 -0.08416125 0.0025106387 -0.06380785 -0.01221024 0.20278607 0.19393696 -0.005564282
-0.17093387 0.08404265 -0.05926385 -0.05105791 0.36202812 -0.07886064 0.13135684 0.011733006
-0.041205015 0.052641362 -0.008530034 -0.031230465 -0.05639515 0.053138606 0.021812111 0.040099595
-0.18600808 -0.03768393 -0.002349894 0.09423185 -0.08663661 -0.030928627 0.049146228 -0.020251708
0.010085905 0.28473255 0.026742835 -0.047197003 0.11749224 0.014920732 0.022996332 -0.011446521
-0.058061797 0.026896248 0.039941538 -0.048392616 -0.050904457 -0.11393035 0.0011463938 0.0506186
-0.010041375 0.056846317 -0.013816205 -0.041318245 0.0222517 -0.006148896 -0.008681427 0.038588323

value.0.weight f4 [256, 64]
00000000: 7b98 f5be 444c 7cbe 3f3c b2bd fcb1 a73c
00000010: 666e 92bf 4d9e 593e 28bb f8bd b6a0 dd3b
00000020: fe54 963e 3e64 643e 653c 69bb f160 9a3e
00000030: e0af 32be 2242 943d 69a9 fdbc ba8f 12bd
00000040: 0b54 2abf 8f4e 9abd c240 ea3d 6bc9 58be
00000050: 9715 9e3d 1830 2fbe a7c4 72bd a714 6e3c
00000060: abcb c7bc 8a92 3c3e 5ea8 28be 88a1 da3d
00000070: 5a64 8b3e 5d9c 353c 807d 1a3e 6145 c3bd
00000080: 77d7 523e c4ce 3cbb 9194 0dbc 07b0 2d3e
00000090: 3c2b b53d 4dcd af3e 7019 4bbd 8674 18bd
000000a0: 196f 023e 7d72 9b3e 8e10 043c 1c80 be3d
000000b0: 20db 043e 6390 a83d 3722 c1bd 0cfc aa3d
000000c0: 28d7 bfbe 245e 3a3e 157d 67bd b2d1 bebd
000000d0: e9cf 9d3c d7a2 3ebe 49ae c7bd 5636 f33d
000000e0: 4808 0f3e cc31 08bc 976e 32be 60a5 08bf
000000f0: c7ac 94bd 0608 cebd 752c 903d b743 76be
00000100: 0141 103e 5a09 d2bd 824f e23d a3a1 6a3c
00000110: 9e8c 693e ba9d ca3d d8ba c53d c006 5f3e
00000120: b106 a1bd b81b 4d3e c164 053e 6451 c63d
00000130: db32 58bc 1731 463d b4be 3d3e 215a 813e
00000140: 7b46 4e3e 0606 86bf 1289 623c 1117 b4be
00000150: 298b 84be f4d1 983d bcdd c7bc 9401 57be
00000160: 35b9 b9bc e0e9 4e3b 940d 023e d5f5 113e
00000170: 71f7 30be e2c1 92bc 5169 febd 97ee 223d
00000180: bd1c 323e d9e5 5cbe 7864 3ebe 46de 9a3d
00000190: 93a0 aa3e d187 0cbf 8065 99be f223 163b
000001a0: 9145 bb3b ba8c 613e 296f 113e 998a 833e
000001b0: eba3 23bb 90fe f83d 12d7 bcbd fe7a 633d
000001c0: 0177 7bbd d32e 763d 0c22 28be 13b5 fa3c
000001d0: 7cd5 833d e751 db3d 4aab af3d 1377 3ebe
000001e0: f48b 95bd a687 cd3d bc50 f83d 2601 973d
000001f0: 34dd 0cbc e3db 80bd 72e5 2f3e d04b cabd
00000200: 1926 533e 7343 b73d d921 843d 4874 e13d
00000210: 5ec1 8cbe 0b00 cc3b 3272 6d3e bf63 823e
00000220: d87e 6ebe 227d e0bc 033e 1bbd 5bc1 a63e
00000230: 5936 8fbb 0f1a 853e 9dc9 1e3e fd2b a93e
00000240: fb57 0ebe 6802 393e 05fd c73c b04c 52be
00000250: 3b56 18bd 1deb 1f3d 966d 56bd 52f7 453e
00000260: 48a8 3abe a0c7 ce3d fa0b 9dbe 0183 083e
00000270: 2208 cfbd e12a afbd 1b36 543e 1b80 8c3d
00000280: c752 01be 3561 3dbe afcc 993e ef79 8e3c
00000290: d617 e33c 0122 45bd d76f 633d f420 5cbe
000002a0: 0edd 243d 6163 b03e c396 883c 0cd4 c9bd
000002b0: 6068 78be 05ca edbe d5c3 ffbd 23c6 a83b
000002c0: 2836 4c3e 5ed9 c13c 0290 6ebb 4a4b 003b
000002d0: 8132 7b3e 0d96 32bf 39a7 763c 6a58 52bd
000002e0: 4cd5 7fbe c010 df3d 736e 37bc 5a81 433e
000002f0: 104e 873e c4dd c5bd 8814 1dbe a722 993e
00000300: 2544 e0bd d469 d7bd 1c43 003c 2004 eebe
00000310: 847e a8be 5472 0abe b574 363e 290b d1be
00000320: a22c 81be 8d45 c2bd fccd dd3c 5f0a 483d
00000330: e854 dd3d 00af 91be a67b a0b9 6da0 233d
00000340: 016c 353e 9c91 dfbc 715a 0f3e 861f 7bbe
00000350: 31c5 a2be 78df a7bd acf8 013d a2c9 0d3e
00000360: 9544 0f3e e463 4d3e 8677 18be 9fa9 e8bd
00000370: d0fd 6b3e 0e8c d9bc ed1d 103e d861 0b3e
00000380: 5129 053e 2565 913d fe21 acbd 6613 a9bb
00000390: 681d 1c3e 3c59 083e 5058 babd 8628 adbc
000003a0: dc38 2bbb 92ca 20bf b6a4 433d 0cf0 8abe
000003b0: 499d 693c 5bf9 b5bd da05 bebd 55bc debd
000003c0: ab78 49be fee6 583d 3fd8 6bbe 1b6f c33d
000003d0: 521b 8bbe 8794 b2bd ad82 403e 1001 823d
000003e0: 3e4b c6be 9390 73bd b709 97bd c977 c23b
000003f0: d5b2 9ebd 7cb7 563e e6cb 223c 67b8 51be
-0.47967896 -0.24638468 -0.08702897 0.020470612 -1.1439941 0.21251793 -0.12145072 0.006763543
0.2936172 0.22303864 -0.0035588976 0.30152085 -0.17449903 0.07239176 -0.03096457 -0.0357816
-0.6653449 -0.07534515 0.11438133 -0.21170585 0.07718962 -0.1710819 -0.059269574 0.014531291
-0.024389109 0.18415275 -0.16470477 0.10675341 0.27225 0.011084643 0.15086937 -0.09534717
0.20590006 -0.0028809765 -0.008641378 0.1696168 0.08846137 0.3433632 -0.049584806 -0.0372205
0.12737693 0.30360785 0.008060588 0.09301779 0.12974215 0.082306646 -0.09430354 0.083488554
-0.3746884 0.18199974 -0.056515772 -0.0931734 0.019264178 -0.18616806 -0.09750039 0.11875598
0.13968003 -0.008312654 -0.17424999 -0.5337734 -0.07259517 -0.10060124 0.070397295 -0.24049269
0.14087297 -0.1025569 0.11050321 0.014320764 0.22807547 0.09893365 0.09654778 0.21779919
-0.078626044 0.20030105 0.13026716 0.09683493 -0.013195719 0.04838666 0.18529779 0.25264075
0.20144074 -1.0470588 0.013826625 -0.35173848 -0.2588742 0.074619204 -0.024397723 -0.20996696
-0.022671321 0.0031572506 0.12700492 0.14253934 -0.17281891 -0.017914716 -0.12422431 0.03977832
0.17393775 -0.21572055 -0.18593013 0.075619265 0.33325633 -0.5489474 -0.2996025 0.0022909609
0.00571508 0.22026339 0.1420256 0.2569168 -0.002496953 0.12157929 -0.09220709 0.055537216
-0.061392788 0.06010325 -0.16419238 0.030603921 0.06437203 0.10708981 0.08577593 -0.1860011
-0.073020846 0.100356385 0.12124774 0.07373266 -0.008597661 -0.0629194 0.1717737 -0.09877741
0.20620002 0.08948412 0.064517684 0.11008507 -0.27491277 0.006225591 0.23188093 0.25466725
-0.23290575 -0.027403418 -0.037900936 0.32569394 -0.0043704924 0.25996444 0.15506597 0.33041373
-0.1390075 0.18067324 0.024412641 -0.20537066 -0.03719161 0.03904258 -0.052350603 0.19332626
-0.18228257 0.10096669 -0.306732 0.13331224 -0.10108973 -0.085531004 0.20723765 0.06860372
-0.12629233 -0.18494113 0.30038974 0.017392127 0.027721327 -0.04812813 0.05552658 -0.21496946
0.040249877 0.3445082 0.016673451 -0.09854898 -0.24258566 -0.4644319 -0.12488524 0.005150573
0.19942534 0.023663219 -0.0036401753 0.0019576126 0.24530984 -0.6976021 0.015054517 -0.05135385
-0.2498371 0.10891867 -0.011195767 0.19092312 0.26426744 -0.09661439 -0.15339863 0.2990925
-0.109504975 -0.10518232 0.0078285 -0.46487522 -0.32909024 -0.13520175 0.17817958 -0.40828827
-0.25229365 -0.09485922 0.02707576 0.048838016 0.1080721 -0.28453827 -0.00030609703 0.039947916
0.17716981 -0.027291112 0.13999344 -0.24523744 -0.3179107 -0.0819692 0.031731293 0.13846448
0.13991006 0.20057636 -0.14889345 -0.11360478 0.2304604 -0.026556041 0.14073916 0.13611543
0.13004042 0.0709937 -0.08404921 -0.005159783 0.15245593 0.1331529 -0.090988755 -0.021137487
-0.002612642 -0.628091 0.047764502 -0.27136266 0.014258691 -0.088854514 -0.0927846 -0.10875765
-0.19674937 0.052954666 -0.2303171 0.09542676 -0.2716928 -0.087197356 0.18799849 0.06347859
-0.3872928 -0.05946405 -0.073749 0.0059346897 -0.07748953 0.20968431 0.0099363085 -0.204805

value.0.bias f4 [256]
00000000: dfc9 1d3d 83fb e3be 4cd9 b83d 5787 9abd
00000010: 2a5e e13d b274 033d b7d8 19bd 29aa 13be
00000020: c1ed 35bf 17e5 bb3d 7a24 12bf 9a4d bc3e
00000030: f4f6 b73e c4a4 c6be 58a0 26bd ae0b d53e
00000040: d2f9 70bd 8367 97be 2536 7dbe 4002 4f3e
00000050: babc 673d 47f4 62be 1382 69bd befa a73e
00000060: b766 bfbe 7f1b 9b3e 4978 b23d b039 30be
00000070: 29f4 2d3f 4877 d5bd 5f86 3b3e 3494 8d3d
00000080: 1c8d d73d 0b9a 64be abf8 983e fe4b 83bf
00000090: e071 543e fd3f 0ebf 061a d4be 3456 72bf
000000a0: fe5c 3dbe 35f8 8ebc f8fd 5f3e 6a14 9bbe
000000b0: b8d1 3cba 3f8b 0a3f 2f81 a7be 7485 14be
000000c0: fad1 8dbe b649 01bf 2e0d 97be 8fcf 06be
000000d0: b880 5cbf 8626 263e 3ef5 c63c 4735 1ebd
000000e0: d0e8 853e 9ca6 e1be f72d d2bd 37bd a3be
000000f0: c8d7 67be c22a c8be 5488 263d 3c52 913c
00000100: ac0a 1cbc 18d9 c13d a179 bd3c a0be 3a3e
00000110: 9750 51be 3b65 a4bf f1c2 6fbe 335c b2bc
00000120: d746 bf3e 51cf 97bf 48f6 bc3e 55e2 b63e
00000130: 6b09 873e 080f b43e dff0 4b3c 0f3e 18bb
00000140: b740 6abd 1724 853e 4a93 6d3f bb11 b1bc
00000150: 6c17 5f3d dedc 21be 57a3 f9bd 51d0 8cbd
00000160: dc94 e8be b3de 4ebe 76d4 a13d 00f3 b53d
00000170: 20bc f3bd ce9a 8bbc 8553 c23e c008 1f3f
00000180: 5ea1 0fbe 5434 8cbe 8a6e a53e 4b4b a5be
00000190: 2531 bb3e d633 ff3d 2981 343e b7c0 f6bd
000001a0: 9602 533f 57cd 0fbd cb09 3dbd 49cb b53e
000001b0: 58f7 043f a1e8 68be a7b4 d9be 2847 26be
000001c0: 5197 a5bd 0c21 2b3e 5a75 e33e ced6 6dbf
000001d0: 8cb9 293e 63cc 873d 0ca7 36bd a9a4 8c3e
000001e0: 9f70 04be 9ebd c43d c9f0 c7be cc50 2d3f
000001f0: 72c4 36bd 0b82 c03e 199f a5bf c0f2 b13d
00000200: a938 4bbe 0620 e13e 9c6c 02bf 1255 30bf
00000210: e111 c03e b624 7bbe 6de1 29be 904f 06be
00000220: f5ec 8c3e 8935 3dbc 40c4 1d3e dbbd a7be
00000230: 377d 16be 2ba2 c1bc 568a 94bd 5406 b0bd
00000240: 3597 ddbd e96e 22be 715a a6bf a448 b63d
00000250: cc24 96be 1131 e2be adb9 a6be 0a60 31bd
00000260: eaa2 3dbd 2486 a4be bf85 1fbd 84aa f63e
00000270: 710d 20bf 8baa ec3d 2ed2 233f c8f5 96bc
00000280: 752c 273d c0f3 b63e e77a 833c fbbc efbd
00000290: 2e38 5f3e 4371 d4be 0f17 95be bec9 ef3e
000002a0: e98d e3bc f44e b93d 67d3 073e fd3d 0ebe
000002b0: 3732 a33e 1f66 e1bc 3a89 bdbd 6b1b 653c
000002c0: 09d1 aebd 9ab9 86be 43de b3be 0efa 583e
000002d0: 90c9 133f d917 4d3c f5fb 85bf 062c fdbe
000002e0: 44a4 9abf a821 f9be 789e 3cbd d63e cbbd
000002f0: 6697 e93d a5ba 463e f944 28bf 8a0d 21bf
00000300: e78e 8c3e e074 37be 4139 dfbe 6c36 003f
00000310: 97be a53e d11e 18bf 15c4 4d3f edfe 4f3d
00000320: defb 5d3e e574 30bf 17e9 163f 2bc9 54be
00000330: dfc6 e43d 5a5d f73b 7e4b 8d3e 47a3 52be
00000340: 4c64 78be 6704 fabd 2624 3e3f c4bb 74bc
00000350: e9fc 4a3e f22a 18be 1731 c4bd 8c0c 04bf
00000360: 11e7 ca3d e346 6abc 486b 02be b37a 28bf
00000370: 1226 65be 86c9 1e3e fd1e 15be 01f3 24be
00000380: 3556 5ebd 69b5 7abf 992e 80be d6e0 7ebe
00000390: dbb0 e03e 2be0 493f 1364 473e 0f09 8a3e
000003a0: 532e 58be fc4b 3fbe 001e 713c c7ef 0c3b
000003b0: 15ad b23e b171 123d a1e8 82be 279c 3ebf
000003c0: 905a 22bd e9d3 223e 61ea 1abf eb3e 9fbf
000003d0: 0ac9 4fbd 609c dd3e 3f96 1bbf e4d9 fd3b
000003e0: 0fa2 64be ac70 4a3f 6c17 9dbc d080 bd3e
000003f0: fffa 78be 6515 c5be 278b 14bd 8b25 153f
0.038522597 -0.44527826 0.09025821 -0.07545345 0.110042885 0.03209371 -0.03756019 -0.1442038
-0.7106591 0.09174555 -0.5708691 0.36777955 0.35930598 -0.3879758 -0.04068026 0.41610473
-0.058831997 -0.2957116 -0.24727686 0.20215702 0.056576468 -0.22163497 -0.057008814 0.3280849
-0.37383053 0.30294415 0.08714349 -0.17209506 0.67950684 -0.10423142 0.18312977 0.06913033
0.10524961 -0.22324388 0.2987722 -1.0257566 0.20746565 -0.5556639 -0.41426104 -0.94662786
-0.18492505 -0.017452339 0.21874225 -0.30289012 -0.00072028814 0.5411872 -0.32715747 -0.14504033
-0.27699262 -0.505031 -0.29502243 -0.13165115 -0.8613391 0.16225633 0.024286862 -0.038625028
0.26154184 -0.44072425 -0.10262673 -0.31980297 -0.22640908 -0.39095122 0.040657356 0.017739408
-0.009524029 0.094652355 0.023129286 0.1823678 -0.20440899 -1.2843393 -0.23414208 -0.02177248
0.37358734 -1.1860143 0.36906648 0.35719553 0.26374373 0.35167718 0.012447565 -0.002323035
-0.057190623 0.26004097 0.9280287 -0.0216149 0.054465696 -0.1580691 -0.12189358 -0.06875671
-0.4542607 -0.2020214 0.07901852 0.08884239 -0.11901116 -0.01704159 0.37954345 0.62122726
-0.140264 -0.27383673 0.32310897 -0.32284006 0.36560932 0.12461059 0.17627396 -0.12048476
0.8242582 -0.035107937 -0.046151917 0.35506657 0.51939917 -0.22744991 -0.4252064 -0.16238081
-0.08085502 0.16711825 0.4442547 -0.9290589 0.16574687 0.066307805 -0.044592902 0.27469376
-0.12933587 0.09606479 -0.39050892 0.6770141 -0.04462094 0.37599215 -1.2939178 0.08688879
-0.19845833 0.43969744 -0.50946975 -0.68879807 0.3751364 -0.24525723 -0.165899 -0.13116288
0.27524534 -0.011548408 0.15406895 -0.32762036 -0.14696203 -0.023636898 -0.07252948 -0.08594957
-0.10819856 -0.15862621 -1.299635 0.08900574 -0.2932495 -0.4417806 -0.32563534 -0.04330448
-0.046297945 -0.3213359 -0.03894591 0.48176968 -0.6252051 0.11555966 0.63992584 -0.018427745
0.040813882 0.35732841 0.016049815 -0.11705967 0.21798775 -0.41492662 -0.29119155 0.46833605
-0.027777629 0.09048262 0.13264237 -0.13890834 0.31874248 -0.027514515 -0.092546895 0.013983588
-0.08535964 -0.26313478 -0.3513051 0.21189138 0.57729435 0.012517893 -1.0467516 -0.4944765
-1.208138 -0.4865849 -0.046049565 -0.099240944 0.1140583 0.19407137 -0.65730244 -0.62911284
0.27452776 -0.17915678 -0.4359837 0.5008304 0.3237197 -0.5942202 0.8037732 0.050780226
0.21678111 -0.68928367 0.58949417 -0.20779864 0.11170744 0.00754897 0.27596658 -0.20570098
-0.2425701 -0.12207871 0.7427391 -0.014937345 0.1982304 -0.14860132 -0.09579676 -0.51581645
0.09907354 -0.014299127 -0.12736237 -0.65812224 -0.22377804 0.15506563 -0.14562602 -0.16108324
-0.054281432 -0.9793306 -0.2503555 -0.24890456 0.4388493 0.7885768 0.19471769 0.26960036
-0.21111421 -0.1868133 0.014716625 0.0021505223 0.34897676 0.035752956 -0.25568107 -0.7445702
-0.03963715 0.1590115 -0.60513884 -1.2441076 -0.050728835 0.43283367 -0.6077613 0.007746922
-0.22327445 0.79078174 -0.019176207 0.3701234 -0.24314497 -0.38492885 -0.03626552 0.5826041

value.2.weight f4 [1, 256]
00000000: 158b 08c0 486b 4fbf c611 f63e 30f9 0d3e
00000010: 5c54 0f3f 8d4f 1ebf a9a6 7fbf 6ddc 38bf
00000020: ed62 7b3f 90aa a93d 05a3 c0bf 1b57 963f
00000030: 7bac 24bf 890b 663f 0a6a 873f 4f6c bfbd
00000040: d871 323f 0ba5 563f 62a9 a03e 4f01 113e
00000050: b22c 283e 70a5 7e3f 2ccf efbe 542c 0bbd
00000060: 92ed 903e 3f30 d9be 87a5 693f 1957 a73e
00000070: 18e4 063e e5f1 f23e cc78 8dbe e0f1 76bf
00000080: 8671 5bbe 1b62 46bf 071f 02be 80c5 1cbf
00000090: b47f d8bf 2219 3a3f a195 7c3f 4639 c1be
000000a0: 13f6 84bf 31a1 0a3f bb5a f73e 052d a93d
000000b0: 4150 033f 6a87 f13e f175 43be f224 f83e
000000c0: e177 57bf 0174 303f ab7b 20be f9d3 003f
000000d0: ca37 36bf f269 7bbf a8fc bfbf f534 e0be
000000e0: 8d8f 033e e28b 3a3d 9611 273f e719 743f
000000f0: c82b 793f b046 523f c237 61bf 6617 a6bf
00000100: a7ab 523f 4ef0 ccbe af9a 89bf ef74 543f
00000110: 54dc e0bf 4381 22be b9ac 403f 6012 8fbf
00000120: 9b3b 5ebf 0649 013f 1779 5d3f b7cd 983f
00000130: 4ee0 9bbe 5818 8cbf ab52 04c0 1958 393e
00000140: e454 0d3f e729 6b3e 1937 a0bf 4378 f5bf
00000150: 410c ca3e 9682 ec3d cb3f 163f 56f6 c4bf
00000160: bbfc 403f 7d6b c8bd 771a 5a3f 7617 423f
00000170: 04c0 4f3f 25a2 723e 50de c23e 0cce 64bf
00000180: 1f68 9b3e 2437 503e 5fd9 5b3f 6e4b ddbe
00000190: 3495 d13d 3311 9dbe 4080 89bf 8edd 7cbd
000001a0: c4b1 f73e b6fe d43e db69 573f 0bcb 1c3d
000001b0: 1f52 d63e 36e2 5b3e 5cda 733e 5ed6 f73f
000001c0: a80e 523f 4acd ccbe 21ea 87bf 3fd2 bdbf
000001d0: a443 893d 82b0 63bf d509 2d3f 01cd 9abf
000001e0: 9be6 9f3f 17b5 e03e a40e 2dbf 6866 803f
000001f0: a5c8 24bf 42c1 303e 0546 fc3f 52f4 25be
00000200: 75a3 253f 2443 bd3e 7a9b 0c3f 819c 85be
00000210: 4a0e d7be 635d 12bf 8726 323f 870f 9a3d
00000220: 8266 303e 4335 383f bc04 583e 9a94 013f
00000230: 1725 053e a4c8 ee3e 0429 513e fa22 afbf
00000240: 51ee 963e 9f5f 8bbf b3bf ccbd b71c 273f
00000250: f512 ac3f 1295 3cbf f05c 2abe ae47 44bf
00000260: ff1a 54bf 388d c83e 12af 0f3f e556 b03e
00000270: 2a0b fdbc 8679 0c3f 811e 323d 6784 1cbf
00000280: 6670 ad3e e0a8 cb3f 3d95 383f dc1b b13d
00000290: 40cb 763f c2cb 8bbe ef91 3ebf 97e6 9d3d
000002a0: 7f9f 393f b063 4ebf f297 0b3f 5d21 b53e
000002b0: 2578 473f cc56 903f 8167 ae3e 2567 11bd
000002c0: 417c 0d3f 7841 43bf c6a7 83be caa0 bd3e
000002d0: c1bd 5b3f 2859 abbe 5411 02be 0fc8 09bf
000002e0: d256 19be 03ee 17bf 9ae6 b33e d08d 663f
000002f0: c993 a7be 0bcf 49bf 8743 513e b8dd 703c
00000300: 5e71 073f 7b9b 0ebf 05eb 133f 57a0 99be
00000310: c48c 233f 6ce6 853e 92f4 a83e cb05 073f
00000320: fde1 f9be 6e74 08be 51db 043e 1896 f03e
00000330: 091c afbf 3aef 5ebe 9539 50bf f384 573f
00000340: 793f 9ebf a697 9fbf 91dc aa3d 7066 dfbf
00000350: 2a20 a53d 6560 7b3e f404 933f b276 373e
00000360: 6c71 cb3e 5784 15be 821e ce3e cff7 46bf
00000370: a9e2 1bbf 9ee9 9ebf 3414 f33e dff4 433f
00000380: 4fb8 f03e 6510 2fbe bc59 633f 1767 683e
00000390: 3025 803f 9f7a 903e f368 fe3e 3d71 60bf
000003a0: f1be e13e 6a56 983e f4a0 1ebf 95c2 ca3e
000003b0: 0ebf 8ebe b054 ba3d 9b07 3d3f 4199 73be
000003c0: cb9f 473f f750 c1bf 65c8 023e 7226 20be
000003d0: 3534 e33d 41fd b03d 9bed 3a3f d27a ccbf
000003e0: f4f0 56be 3656 603f 7f99 b23e f56d a8bd
000003f0: cf20 0d3f 7d9b 663e 9523 853f 52b8 3a3e
-2.133489 -0.81023073 0.48060435 0.13864589 0.559881 -0.61840135 -0.9986368 -0.72211343
0.98197824 0.08284485 -1.504975 1.1745332 -0.64325684 0.8986135 1.0579236 -0.0934683
0.6970496 0.83845586 0.3137923 0.14160655 0.164233 0.9947119 -0.46837747 -0.03397782
0.28306252 -0.4241962 0.912682 0.32683638 0.13172948 0.47450176 -0.27631223 -0.9646282
-0.21430025 -0.7749345 -0.12707148 -0.6123886 -1.6913972 0.726946 0.98665816 -0.3773901
-1.0387596 0.5415221 0.4831141 0.0826054 0.5129433 0.47173625 -0.1908796 0.48465687
-0.84167296 0.6892701 -0.15672176 0.50323445 -0.7117888 -0.98208535 -1.499898 -0.43790403
0.12847729 0.04554356 0.6526121 0.95352024 0.9733243 0.8213911 -0.87975705 -1.2975891
0.8229317 -0.40027088 -1.0750331 0.82990927 -1.7567239 -0.15869622 0.75263554 -1.1177483
-0.868097 0.5050205 0.86512893 1.1937779 -0.30444568 -1.0944929 -2.0675457 0.18100013
0.5520766 0.22965203 -1.2516814 -1.9177326 0.39462474 0.11548345 0.5869109 -1.5387676
0.75385636 -0.09786127 0.8519663 0.7581705 0.8115237 0.23694666 0.38060236 -0.893769
0.30352876 0.20333534 0.85878557 -0.4322161 0.10233536 -0.30677184 -1.0742264 -0.06173473
0.48377812 0.4160058 0.841459 0.038279574 0.41859528 0.21473011 0.23813766 1.9362295
0.82053614 -0.40000373 -1.0618325 -1.4829787 0.067023546 -0.88941205 0.6759313 -1.2093812
1.249225 0.4388816 -0.67600465 1.0031252 -0.6436866 0.17261222 1.9708868 -0.16206482
0.6470254 0.36965287 0.5492474 -0.26095966 -0.4200309 -0.57173747 0.6959004 0.07522493
0.17226604 0.7195627 0.21095556 0.50617373 0.1300243 0.46637452 0.20425802 -1.3682549
0.29478696 -1.0888556 -0.09997501 0.6527819 1.3443285 -0.73664963 -0.16637015 -0.76671875
-0.8285369 0.3917024 0.5612651 0.34441295 -0.030889113 0.5487293 0.043486122 -0.6113953
0.33874816 1.5910912 0.7210272 0.08647892 0.96403885 -0.27303892 -0.74441427 0.07709997
0.72508997 -0.8062086 0.54528725 0.35377017 0.779177 1.1276488 0.34063342 -0.035498757
0.5526772 -0.7627177 -0.25713938 0.37036735 0.85836416 -0.33466458 -0.12701923 -0.5382089
-0.14974526 -0.5934755 0.35136873 0.9006014 -0.3272994 -0.7883155 0.20435916 0.014701299
0.5290736 -0.55705994 0.57780486 -0.30005142 0.63886666 0.2615236 0.32999092 0.52743214
-0.48805228 -0.13325664 0.12974288 0.46989512 -1.3680431 -0.21770945 -0.81337863 0.8418724
-1.236312 -1.2468154 0.08342851 -1.7453136 0.080627754 0.2454849 1.1485887 0.17916372
0.39734972 -0.14601265 0.4025765 -0.77721876 -0.6089273 -1.2415044 0.4747635 0.7654552
0.47015616 -0.17096098 0.888088 0.22695576 1.0011349 0.28218552 0.49689445 -0.8767279
0.4409099 0.2975343 -0.61964345 0.3960158 -0.27880138 0.09098184 0.7383973 -0.2378893
0.779782 -1.5102834 0.12771757 -0.15639666 0.11093942 0.08642054 0.7301881 -1.5974982
-0.20990354 0.8763155 0.34882733 -0.08224098 0.55128187 0.22520252 1.0401484 0.18234375
