PPO_discrete/model/Breakout-v0_c.pt (torch, 589839 bytes, 11 tensors)

net.0.weight f4 [16, 1, 4, 4]
0	0xc019ddc7	-2.4041612
1	0xbfb948ef	-1.4475383
2	0xbf448dfc	-0.7677915
3	0xbf201a71	-0.62540346
4	0xc0205fd0	-2.505848
5	0xbfe44139	-1.7832404
6	0xbfa6c8b4	-1.303
7	0xbf85e463	-1.0460323
8	0xc02eddfe	-2.7322993
9	0xbfc434b0	-1.5328579
10	0xbf3332c8	-0.6999936
11	0xbf6f46ec	-0.93467593
12	0xc00a4c29	-2.1608984
13	0xbfaa7916	-1.3318202
14	0xbf92cb1e	-1.1468236
15	0xbfb6933b	-1.4263681
16	0xbfef265b	-1.868358
17	0xc00bf8c2	-2.187058
18	0xc00f7b7c	-2.241912
19	0xbf80aa11	-1.00519
20	0xbf9ae728	-1.2101793
21	0xbf575ad0	-0.84122944
22	0xbf6db520	-0.928545
23	0xbf148092	-0.5800868
24	0x3fb2af20	1.3959694
25	0x3f5b19f8	0.855865
26	0x3f5277e7	0.82214206
27	0x3f054bc1	0.52068716
28	0x3fe30b92	1.7737906
29	0x3fa7891e	1.308872
30	0x3f199023	0.5998556
31	0x3db80a38	0.08986324
32	0xbf0c3368	-0.5476594
33	0xbea8345e	-0.32852453
34	0x3ed56e5b	0.41685757
35	0x3f167277	0.5876841
36	0x3fa22435	1.26673
37	0x3fa796fa	1.3092949
38	0xbed855bc	-0.4225291
39	0xbf52fbbd	-0.8241537
40	0x3fc60865	1.5471312
41	0x3f968110	1.1758137
42	0xbe8e3903	-0.2777787
43	0xbffac151	-1.9590245
44	0x3ff71bdf	1.930538
45	0x3f5e2f38	0.867908
46	0xbe6fc494	-0.23414832
47	0xbfd3efb0	-1.6557522
48	0x3ea92466	0.33035582
49	0xbf6bfd12	-0.9218303
50	0xc01316cc	-2.2982664
51	0xc0209613	-2.5091598
52	0xbf010f67	-0.5041413
53	0xbfc10885	-1.5080725
54	0xc019dc4d	-2.404071
55	0xc039dd66	-2.904138
56	0xbf7b1051	-0.9807177
57	0xbf82af52	-1.0209754
58	0xbfe3992f	-1.7781123
59	0xbfe4b8cb	-1.7868894
60	0xbf1a4022	-0.6025411
61	0xbf4a725e	-0.7908076
62	0xbf7a73d6	-0.97833
63	0xbfc59e4f	-1.5438937
64	0xbe14b400	-0.1452179
65	0x3e8db13e	0.27674288
66	0x3e79a1ed	0.24378176
67	0x3d2cafa2	0.042159684
68	0x3f25aee7	0.64720005
69	0x3f43eeb0	0.76536083
70	0x3ec1ceb9	0.3785303
71	0x3e99c3a1	0.30032066
72	0x3edda4b0	0.4328971
73	0x3f172e7f	0.5905532
74	0x3f419cd6	0.7562994
75	0x3ef93aab	0.48677573
76	0x3fa49023	1.2856487
77	0x4013c496	2.3088737
78	0x40117cad	2.2732346
79	0x40469e21	3.1034014
80	0xbd7aa801	-0.061195377
81	0xbebb5377	-0.36587116
82	0x3e38ac6f	0.18034528
83	0x3f57e29f	0.8433017
84	0x3d9ac20b	0.07556542
85	0xbfb8ec2b	-1.4447073
86	0xbf4f30de	-0.8093394
87	0x3fb531a8	1.4155779
88	0xbe6e3f34	-0.23266298
89	0xbf46f503	-0.7771761
90	0xbe77b173	-0.24188785
91	0x3f7808ee	0.96888626
92	0x3e3dca51	0.18534209
93	0xbf139668	-0.57651377
94	0x3c1e94f0	0.009679064
95	0x4016ecde	2.3582072
96	0x3efdeba7	0.4959385
97	0x4010eaef	2.2643392
98	0x407780f6	3.8672462
99	0x40348089	2.8203452
100	0xbf298a2d	-0.66226465
101	0xbe8e26ae	-0.27763885
102	0xbdc8caf5	-0.09804336
103	0xbf081fd1	-0.5317355
104	0x3f203cf1	0.6259299
105	0x3e94dd4b	0.29075083
106	0x3d96f87d	0.07371614
107	0x3ee81c78	0.4533422
108	0x3dc130e5	0.09433154
109	0xbe17f100	-0.14838028
110	0xbea0e326	-0.314233
111	0xbee86490	-0.45389223
112	0x4077b0ba	3.8701615
113	0x401a0f3c	2.4071798
114	0x3eb0e746	0.34551448
115	0xbe50d70d	-0.20394535
116	0x3ecf47a9	0.4048436
117	0xbdd7ea56	-0.10542743
118	0xbf055a46	-0.5209087
119	0x3c79fd54	0.015258152
120	0x3e7b88e1	0.24563934
121	0x3d352a94	0.04423006
122	0x3d0db764	0.034598723
123	0xbe17702d	-0.14788885
124	0xbe9cfd79	-0.30662134
125	0xbe09f4fd	-0.13472362
126	0x3b027af5	0.0019909714
127	0x3dcd3414	0.10019699
128	0x3fa08b2d	1.2542473
129	0x3f9b725b	1.2144274
130	0x3f938354	1.1524453
131	0x3f5c38a6	0.8602394
132	0x4013ae9d	2.3075325
133	0x4022adfc	2.5418692
134	0x3fe40d84	1.7816625
135	0x3fcd4807	1.6037606
136	0x3e227f9d	0.15868993
137	0x3c84be69	0.016204076
138	0xbdd88c85	-0.10573677
139	0xbe8613e8	-0.26187062
140	0x3ec80240	0.39064217
141	0xbda4b5ab	-0.08042463
142	0x3dcc6fec	0.09982285
143	0xbdc745d2	-0.09730114
144	0x3f8029c0	1.0012741
145	0x3f87da63	1.0613521
146	0x3f87743f	1.058235
147	0x3f9ebbf0	1.2401104
148	0x3f0b67a5	0.54455024
149	0x3ee69485	0.45035186
150	0x3f06f1c0	0.5271263
151	0x3f59ddb0	0.85103893
152	0xc0030ba0	-2.0475845
153	0xbf8e7ecd	-1.1132447
154	0xbf842441	-1.0323564
155	0xbfe3e1c6	-1.7803276
156	0xc0153fef	-2.3320272
157	0xbf84521d	-1.0337559
158	0xbed59924	-0.417184
159	0xbf2df9f3	-0.6795952
160	0x3f570cec	0.8400409
161	0xbd0393e0	-0.032123446
162	0xbf195281	-0.59891516
163	0x3f857fdd	1.0429646
164	0xbe69c20e	-0.22827932
165	0xbd9a7d19	-0.07543392
166	0x3d46e7b9	0.04856083
167	0x3eed7aef	0.46382853
168	0x3e0bc800	0.13650513
169	0x3db9ad11	0.09066213
170	0x3f3af429	0.7302881
171	0x3e784d64	0.24248272
172	0xbf92c078	-1.1464987
173	0x3e5f5700	0.21810532
174	0x3f752ccb	0.95771474
175	0xbea251be	-0.3170299
176	0xbec9824c	-0.3935722
177	0xbe65ba51	-0.22434355
178	0xbdf92a82	-0.12166311
179	0xbe805e11	-0.25071767
180	0x3f5e1331	0.86748034
181	0x3f96565e	1.1745107
182	0x3f61f633	0.88266295
183	0x3f6721f5	0.9028619
184	0x3ec2e334	0.38063967
185	0x3f7e7b66	0.9940704
186	0x3f66ba7e	0.90128314
187	0x3f270236	0.6523775
188	0x3c5173e7	0.012783981
189	0x3d313532	0.04326362
190	0x3d270df4	0.04078479
191	0x3ee26156	0.44214886
192	0xbe88005a	-0.26562768
193	0x3d3e0d7b	0.046399575
194	0xbe036332	-0.12830809
195	0xbf275f27	-0.65379566
196	0x3e9ad7e1	0.30242828
197	0xbefdbf1e	-0.49559873
198	0xbee16a61	-0.44026473
199	0x3f0beb09	0.5465551
200	0x3d8c4774	0.06849566
201	0xbfc8481b	-1.5647005
202	0xbfc9c4e3	-1.576321
203	0xbd96a619	-0.07355899
204	0xbf380adc	-0.7189157
205	0xc017a9cf	-2.3697393
206	0xc02f7b02	-2.7418828
207	0xbf605cc0	-0.87641525
208	0xbf7edeba	-0.99558604
209	0xbe551a5a	-0.20810834
210	0x3f18e756	0.5972799
211	0xbe31b4b3	-0.17354088
212	0xbfa5f20f	-1.2964495
213	0x3f515915	0.81776553
214	0x400a4d21	2.1609576
215	0x3fb01ded	1.3759133
216	0xbfeb7ed6	-1.8398082
217	0xbe336e71	-0.17522599
218	0x3ef226de	0.47295278
219	0xbcf0d129	-0.02939661
220	0xbefe95f5	-0.49723783
221	0x3ea68375	0.3252217
222	0x3e4d8143	0.2006884
223	0x3cd686c2	0.026187304
224	0x3ee638a8	0.449651
225	0x3f049eb2	0.5180465
226	0xbeac95e9	-0.33708122
227	0xbff05671	-1.877638
228	0xbf4d6279	-0.8022838
229	0xbf1cde4e	-0.6127671
230	0xbed39049	-0.41321018
231	0xbfab3878	-1.3376608
232	0xbf086d78	-0.53292036
233	0x3f5c9cec	0.86176944
234	0x3fe36e81	1.7768098
235	0x3f3e75ef	0.743987
236	0xbe8e14ce	-0.27750248
237	0x3e926c64	0.2859832
238	0x3fd13f12	1.6347373
239	0x3f08f10f	0.53492826
240	0x3f8228a5	1.0168654
241	0x3f4be1e3	0.7964155
242	0x3f4f90dc	0.8108041
243	0x3f661ce4	0.89887834
244	0x3f752a36	0.95767534
245	0x3e633c0f	0.2219088
246	0x3effd566	0.49967498
247	0x3f922ab7	1.1419286
248	0x3fd63a47	1.6736535
249	0x3f9a8831	1.2072812
250	0x3f79a04f	0.97510237
251	0x3f7f13c8	0.9963956
252	0x401d0566	2.4534545
253	0x3fa80fd4	1.312983
254	0x3f075ef6	0.52879274
255	0x3ef56655	0.47929636

net.0.bias f4 [16]
0	0x3ed72d46	0.42026728
1	0x3d3f46c5	0.04669835
2	0x3b20a2f7	0.0024511197
3	0x3ea62326	0.3244869
4	0x3e3d00b8	0.18457305
5	0x3af5888c	0.0018732711
6	0x3d509d38	0.050931185
7	0x3bf70160	0.0075380057
8	0x3ec9cdb7	0.3941476
9	0x3eec74d8	0.46182895
10	0x3a377a3a	0.0006999109
11	0xbb244462	-0.0025065173
12	0x3d0e6eee	0.03477376
13	0x3b0300db	0.0019989524
14	0x3dd4912b	0.10379251
15	0x3e2b8fc3	0.1675406

net.2.weight f4 [32, 16, 4, 4]
0	0xbe8f5f67	-0.28002474
1	0xbeab639e	-0.3347444
2	0xbdf3169d	-0.118695475
3	0xbd3f8f4c	-0.046767518
4	0x3e272cb8	0.16325653
5	0xbdb8c458	-0.090218246
6	0x3e1cc781	0.1531048
7	0xbe24d91e	-0.16098449
8	0xbd007057	-0.031357136
9	0xbcc61392	-0.024179254
10	0xbe176abd	-0.14786811
11	0xbe490324	-0.19630104
12	0x3be1f521	0.0068956767
13	0xbe022379	-0.12708844
14	0xbe227de3	-0.15868334
15	0xbed43e61	-0.4145384
16	0x3f6bc9be	0.9210471
17	0x3e3544cb	0.17702024
18	0xbe8513ed	-0.25991765
19	0xbd754bb5	-0.059886653
20	0x3f3f2bd7	0.7467627
21	0x3eac298f	0.33625457
22	0x3e1fe82a	0.15615907
23	0x3c374c20	0.011187583
24	0x3eac6b85	0.3367578
25	0x3f2fb90d	0.6864174
26	0x3ee302f7	0.443382
27	0xbda226dc	-0.07917568
28	0xbdbe5372	-0.0929326
29	0x3e85cbfd	0.26132193
30	0xbf7aee0e	-0.9801949
31	0xbf43aef9	-0.7643886
32	0x3f24c43e	0.6436194
33	0xbdd252f4	-0.10269728
34	0xbe601a56	-0.21885046
35	0xbd57d3d9	-0.052692268
36	0x3e1462a8	0.1449076
37	0x3e337280	0.17524147
38	0xbe9ceab8	-0.30647826
39	0x3e229544	0.15877253
40	0x3e9d4c2e	0.30722183
41	0x3e34b512	0.17647198
42	0x3f40721d	0.75174123
43	0x3f3b83bb	0.7324788
44	0x3e6dd07e	0.23224065
45	0x3ec2249b	0.37918553
46	0x3f01b933	0.50673217
47	0xbc31f897	-0.010862491
48	0xbf1fd7bb	-0.62438554
49	0xbea57f71	-0.32323793
50	0xbe90bb0c	-0.28267705
51	0xbd8c05dd	-0.06837056
52	0x3ea2203d	0.3166522
53	0xbdb63bb1	-0.08898104
54	0xbd134b41	-0.03596044
55	0x3ca05048	0.019569531
56	0xbd586ccd	-0.052838136
57	0xbd7407a2	-0.05957759
58	0xbe911158	-0.28333545
59	0xbe6e99c7	-0.23300849
60	0x3d99de07	0.075130515
61	0x3d9b4ef5	0.07583419
62	0xbd803968	-0.062609494
63	0xbf1739fc	-0.5907285
64	0x3f165aab	0.587321
65	0x3e484cc7	0.19560538
66	0xbe0c9c65	-0.13731535
67	0x3e613700	0.21993637
68	0x3f0ffd38	0.56245756
69	0x3e806159	0.2507427
70	0xbf4a3922	-0.7899343
71	0xbeb21917	-0.34784767
72	0xbc81243f	-0.015764354
73	0x3f2e136b	0.6799838
74	0x3e9a6bb6	0.30160302
75	0xbcff5840	-0.03117001
76	0x3e2c90ee	0.16852161
77	0x3e16c9c6	0.14725408
78	0xbe838f89	-0.25695446
79	0xbd5e81b1	-0.054322902
80	0x3ec4c3e8	0.38430715
81	0xbe695001	-0.22784425
82	0xbf825590	-1.0182362
83	0xbf2fb735	-0.68638927
84	0x3eff6e08	0.49888635
85	0xbd8a36c6	-0.067487285
86	0x3e05edc8	0.13078988
87	0x3eaa244f	0.33230826
88	0x3ebdfb7d	0.37105933
89	0x3f1a6153	0.60304755
90	0x3eb1dc46	0.34738368
91	0x3f590461	0.84772307
92	0x3ec1c4c0	0.3784542
93	0x3dc5d8cb	0.096604906
94	0xbd8407e0	-0.064468145
95	0x3f2336a2	0.6375524
96	0x3f3be221	0.7339192
97	0xbe842402	-0.25808722
98	0xbe897453	-0.2684656
99	0xbe628fc4	-0.22125155
100	0x3f7af337	0.98027366
101	0x3f62a93c	0.8853948
102	0xbef00222	-0.46876627
103	0x3ec2aa77	0.3802068
104	0x3d5b0a7b	0.05347679
105	0xbf29f9ad	-0.663966
106	0xbf05fac9	-0.5233579
107	0x3eed1ffb	0.46313462
108	0xbe475d2b	-0.19469135
109	0xbd5205f7	-0.05127522
110	0xbe482bae	-0.19547912
111	0xbf223143	-0.6335642
112	0x3f50236b	0.81304044
113	0x3f435790	0.76305485
114	0x3d7973ca	0.06090144
115	0x3eceea24	0.4041301
116	0x3f44045e	0.76569164
117	0xbe1cb75c	-0.15304321
118	0x3eadc089	0.33935955
119	0x3d9e2e63	0.07723691
120	0x3e0035ec	0.1252057
121	0x3f279c66	0.6547302
122	0x3ea10107	0.31446096
123	0x3ea0c7cb	0.3140243
124	0xbcd3378c	-0.025783323
125	0x3e341fee	0.17590305
126	0xbde52dd8	-0.111903846
127	0x3e546b7c	0.20744127
128	0xbf2300b5	-0.63672954
129	0xbe967a06	-0.29389971
130	0xbd8a0fc1	-0.06741286
131	0xbe802a7b	-0.2503241
132	0x3ece6e5f	0.4031858
133	0x3dd6dfb3	0.10491886
134	0xbda8c0ef	-0.08239924
135	0xbe55a508	-0.20863736
136	0xbe6dbe18	-0.23217046
137	0xbe82adb0	-0.25523138
138	0xbec806f1	-0.39067796
139	0xbd623e77	-0.055235352
140	0x3e2de1fa	0.16980734
141	0x3e89716f	0.26844355
142	0x3e0223f5	0.12709029
143	0x3c43ddb4	0.011954714
144	0xbea826a1	-0.32841972
145	0xbe6a8a64	-0.22904354
146	0xbe74063c	-0.23830503
147	0xbe2b318b	-0.16718118
148	0x3ec0f12d	0.37684003
149	0x3ec76189	0.389416
150	0x3d39abd8	0.0453299
151	0xbd563083	-0.052292358
152	0x3d4fb3c3	0.050708544
153	0xbc49b7cd	-0.012311888
154	0xbf436742	-0.76329434
155	0xbe2c5ae2	-0.16831544
156	0x3e1e0208	0.15430462
157	0x3d96f91a	0.07371731
158	0xbd38dbba	-0.045131423
159	0xbe56fbba	-0.20994464
160	0x3f248e5c	0.64279723
161	0x3f4341cd	0.7627228
162	0xbee20c04	-0.44149792
163	0xbe39d82f	-0.18148874
164	0x3ebf7ae8	0.37398458
165	0x3edb09ce	0.42780918
166	0xbeef1c52	-0.46701294
167	0x3e0043a0	0.12525797
168	0x3ef5e812	0.48028618
169	0x3e7e133e	0.24812028
170	0x3f0928c6	0.5357784
171	0x3f462cb2	0.7741195
172	0x3e884531	0.2661529
173	0xbf152f57	-0.5827536
174	0x3e859c8f	0.26096007
175	0x3dd7016e	0.104983196
176	0x3f08a23a	0.5337254
177	0x3df795e9	0.1208914
178	0xbf9ff4c7	-1.2496575
179	0xc001aa7d	-2.0260308
180	0x3e32371a	0.17403832
181	0xbe9a90c7	-0.3018858
182	0xc0213aa3	-2.519204
183	0xbfd3d92a	-1.6550648
184	0x3e6fde73	0.23424701
185	0x3ebb4876	0.3657872
186	0x3f3718f8	0.71522474
187	0x3fb12d4b	1.3841947
188	0x3d80963f	0.06278657
189	0x3ec0385c	0.37543
190	0x3eb88941	0.36042216
191	0x3e6da4eb	0.23207442
192	0x3e2c8ffa	0.16851798
193	0x3c864e53	0.01639477
194	0xbb129890	-0.0022368766
195	0xbe491608	-0.1963731
196	0x3f042d18	0.5163131
197	0x3d935cdc	0.07195446
198	0xbb2a975c	-0.0026030159
199	0x3d864728	0.06556541
200	0x3ed16705	0.4089891
201	0x3efbacf4	0.4915539
202	0xbe824f03	-0.25450906
203	0xbf20052e	-0.62507904
204	0x3d951dcf	0.07281076
205	0x3e4b0318	0.19825399
206	0x3e548c11	0.20756556
207	0x3f3d9a83	0.7406389
208	0xbe99beb2	-0.300283
209	0xbf226941	-0.63441855
210	0xbe82254a	-0.25419074
211	0xbec516c4	-0.3849393
212	0x3ef4c565	0.4780685
213	0x3e5f7d38	0.21825111
214	0x3ea92db7	0.3304269
215	0xbe0c0f0a	-0.13677612
216	0x3eabed01	0.33579257
217	0x3f632459	0.8872734
218	0x3ee13ef3	0.4399334
219	0x3f32b2b3	0.69803923
220	0x3e666a7b	0.22501557
221	0x3e9c29a6	0.30500525
222	0x3e958bc7	0.29208204
223	0x3eca3b69	0.3949845
224	0x3f89412d	1.0723015
225	0x3ead27f9	0.3381956
226	0xbe2772ca	-0.16352382
227	0x3e1199ed	0.14218874
228	0x3dc29cc4	0.09502557
229	0xbe77cd18	-0.24199331
230	0xbe4dbebc	-0.2009229
231	0x3ecef99f	0.4042482
232	0x3eb5dc39	0.3551958
233	0x3d8e9b6d	0.06963239
234	0x3e3965e6	0.18105277
235	0x3e89d972	0.2692371
236	0x3e7c15df	0.24617718
237	0x3d0c5548	0.034261018
238	0xbef2aabb	-0.47395882
239	0xbdc11541	-0.09427882
240	0x3efb53d8	0.49087405
241	0x3c8234ee	0.01589438
242	0xbe21f2d8	-0.15815294
243	0xbdb2d5d6	-0.08732192
244	0xbebc874f	-0.36821982
245	0x3c9d9814	0.019237556
246	0xbec19943	-0.37812242
247	0xbe49f7d6	-0.19723448
248	0xbdf5899a	-0.11989136
249	0xbe2d9784	-0.1695233
250	0x3e64c1f0	0.22339606
251	0xbc3482d8	-0.011017524
252	0x3e6f9734	0.23397523
253	0x3cd1b607	0.025599493
254	0xbea97425	-0.33096424
255	0xbcf951f9	-0.030434595

net.2.bias f4 [32]
0	0xbca6b301	-0.020349028
1	0x3dad66a4	0.08466843
2	0x3e9ce232	0.30641323
3	0x3f10d53c	0.5657537
4	0x3e9e1e73	0.30882606
5	0x3ede25bc	0.43388164
6	0x3f01e424	0.5073874
7	0x3d2f5dd4	0.04281409
8	0x3efba2d5	0.49147668
9	0x3ee5c7a7	0.44878885
10	0x3f037461	0.51349455
11	0x3f107652	0.5643054
12	0x3eb902a2	0.3613482
13	0x3ed59c73	0.41720924
14	0x3ea973c3	0.33096132
15	0x3ea167b9	0.31524447
16	0x3dfbde6d	0.12298284
17	0x3ead6f6d	0.33874074
18	0x3ef5ef48	0.4803412
19	0x3e94d463	0.29068288
20	0x3ee7364a	0.45158607
21	0x3de810f3	0.11331358
22	0x3f2f728c	0.6853416
23	0x3d8c7cf7	0.06859773
24	0xbd03805c	-0.032104835
25	0x3f1d22d2	0.61381257
26	0x3ee23259	0.44179037
27	0x3f0d4d4d	0.55196077
28	0xbdeaf71c	-0.114729136
29	0x3d2c7949	0.042107854
30	0x3e839b13	0.2570425
31	0x3f09d0da	0.5383431

net.4.weight f4 [64, 32, 3, 3]
0	0x3e994e07	0.29942343
1	0x3fb57325	1.4175764
2	0xbe97004a	-0.29492408
3	0xbe8f34f0	-0.27970076
4	0x3f42ff0b	0.76170415
5	0x3e108671	0.14113785
6	0x3e302dc9	0.17204966
7	0x3e4b27aa	0.1983935
8	0x3ecc1e5b	0.3986691
9	0x3f1fc5fa	0.62411463
10	0x3f0066e8	0.5015702
11	0x3f0ce2ab	0.5503337
12	0xbd911171	-0.07083405
13	0xbf26bb37	-0.6512942
14	0xbf60d91f	-0.878313
15	0x3f0b64ec	0.5445087
16	0x3ecabc81	0.39596942
17	0x3e6269b1	0.2211063
18	0x3ee0f527	0.43937036
19	0x3f30a786	0.6900562
20	0x3e3822dd	0.1798205
21	0xbe9e2e98	-0.30894923
22	0xbf77ad73	-0.9674904
23	0xbf0eef64	-0.5583403
24	0x3deb8b2f	0.115011565
25	0x3e879a3f	0.26484868
26	0xbcaa566e	-0.020793166
27	0x3e8d68ae	0.27618927
28	0x3e6a04ad	0.22853346
29	0x3e3929ed	0.180824
30	0xbeca9797	-0.3956878
31	0xbea05228	-0.3131268
32	0xbdd8797d	-0.10570047
33	0x3cd7134a	0.026254315
34	0x3d8893b8	0.066688
35	0xbe3d1780	-0.18465996
36	0x3e3ac474	0.18239003
37	0xbf5f04b6	-0.87116563
38	0xbf2ea90f	-0.6822671
39	0xbdf290ae	-0.11844002
40	0xbd7753ab	-0.060382526
41	0x3e1f667f	0.15566443
42	0xbd86bfcf	-0.06579553
43	0xbeb209e2	-0.34773165
44	0x3f3cdc96	0.7377409
45	0x3d14f071	0.036362115
46	0x3efd1004	0.4942628
47	0x3d8b1f08	0.06793028
48	0xbdf73708	-0.12071043
49	0xbea4f2f4	-0.3221661
50	0xbe2d471a	-0.16921654
51	0x3e6ccc44	0.23124796
52	0x3f40a939	0.75258213
53	0x3ec240f1	0.3794017
54	0x3c960bb0	0.01831612
55	0x3f292e26	0.6608604
56	0xbe67f13d	-0.22650619
57	0xbe0ccda4	-0.1375032
58	0xbc7f8cb2	-0.015597509
59	0x3ef051fb	0.46937546
60	0x3f4ae1fe	0.79251087
61	0x3e937046	0.28796595
62	0x3ed886d5	0.4229037
63	0x3e576b2c	0.21036977
64	0xbe93d996	-0.28876942
65	0xbde5d5ca	-0.11222418
66	0xbe1c5dae	-0.15270111
67	0xbf2e1aba	-0.6800953
68	0x3e21aba5	0.15788133
69	0x3f0eefc1	0.55834585
70	0xbd7b8176	-0.06140276
71	0x3ef29fe1	0.47387603
72	0xbc5949d2	-0.013262229
73	0x3f926373	1.14366
74	0xbeac478c	-0.33648336
75	0xbd967813	-0.07347121
76	0x3f189646	0.596043
77	0x3ea0962e	0.31364578
78	0x3f86ea8e	1.054033
79	0xbecc9a17	-0.3996131
80	0xbdef03f2	-0.116706744
81	0x3f104cd9	0.5636726
82	0x3eb0dfb7	0.3454568
83	0xbe093bae	-0.13401672
84	0xbcb75441	-0.022379043
85	0xbf159bf4	-0.5844109
86	0xbf152df6	-0.58273256
87	0xbc631584	-0.01386011
88	0xbe5601c8	-0.20899117
89	0x3ed607e3	0.41802892
90	0x3e9d4166	0.30713958
91	0x3f354af5	0.708175
92	0x3e089a8c	0.13340205
93	0x3efde68f	0.49589965
94	0xbf55e149	-0.8354688
95	0xbe620b02	-0.22074512
96	0xbbf35e2b	-0.007426997
97	0xbea92b6d	-0.33040944
98	0x3e48b5d5	0.19600613
99	0x3e20d4ff	0.15706252
100	0x3f3d1f1b	0.7387559
101	0x3c83dc2a	0.016096193
102	0xbe4b71c6	-0.1986762
103	0xbfa2d5d8	-1.272151
104	0xbf10542d	-0.5637844
105	0x3e508834	0.20364457
106	0x3ecf7698	0.40520167
107	0x3f2cb22c	0.6745937
108	0xbc2b5b4b	-0.010458778
109	0x3f3911d6	0.7229284
110	0xbd223bd8	-0.039607853
111	0xbc78f738	-0.01519566
112	0xbe0c1b6f	-0.1368234
113	0xbd930b82	-0.07179929
114	0x3ea1c7f9	0.3159788
115	0x3c60d31c	0.013722207
116	0x3e69126c	0.22760934
117	0x3f035209	0.5129705
118	0xbe271889	-0.16317953
119	0x3e9aa4ca	0.3020385
120	0xbf2e1a62	-0.68009007
121	0xbe41fef8	-0.18944919
122	0xbf0d4f9a	-0.5519959
123	0x3ea5113f	0.3223972
124	0xbed5b830	-0.41742086
125	0x3f5e1eb8	0.86765623
126	0x3d961f45	0.07330183
127	0x3d6dd9bf	0.058068987
128	0x3dde5841	0.10856677
129	0xbeec1952	-0.46113068
130	0x3ec7d8a0	0.3903246
131	0x3ec408c6	0.38287944
132	0xbcd18519	-0.025576161
133	0xbd90a954	-0.07063547
134	0xbf0829f3	-0.5318901
135	0x3d8362df	0.064153425
136	0x3ece03ec	0.40237367
137	0x3e8d3d79	0.27585962
138	0x3d05d70c	0.032675788
139	0xbeb61607	-0.3556368
140	0x3df0fac2	0.11766578
141	0x3c915b0b	0.017743608
142	0x3e246bf8	0.16056812
143	0x3da5bf21	0.080930956
144	0x3f249ec8	0.6430478
145	0x3f6408fe	0.8907622
146	0x3e5ec5a3	0.2175508
147	0xbe8285e2	-0.2549277
148	0xbcf88099	-0.030334758
149	0xbf35522f	-0.7082853
150	0x3f11096d	0.5665501
151	0x3ea953b8	0.33071685
152	0x3e353ecb	0.17699735
153	0x3e82c78f	0.25542876
154	0x3e2448bb	0.1604337
155	0x3ed431f3	0.41444358
156	0xbd9b37db	-0.07579013
157	0xbb7678f6	-0.003760872
158	0xbe651c61	-0.22374107
159	0x3ed991fc	0.4249419
160	0xbe8f11a8	-0.27943158
161	0x3db4cd0d	0.08828173
162	0x3e23aa94	0.15983039
163	0xbdf0412e	-0.11731182
164	0xbed2ac7d	-0.41147223
165	0xbb285538	-0.002568556
166	0xbede949c	-0.43472755
167	0x3adfd9d7	0.0017078471
168	0xbe537ea6	-0.20653781
169	0xbe3a503c	-0.1819467
170	0xbe56952c	-0.20955342
171	0x3dff1884	0.12455848
172	0xbe27b20a	-0.1637651
173	0xbf39d346	-0.72588
174	0xbef9f4ee	-0.4881968
175	0xbe6aa35f	-0.22913884
176	0x3d5b72b1	0.053576175
177	0x3e86b7fc	0.26312244
178	0xbf1b27e5	-0.6060775
179	0x3ddfc934	0.10927048
180	0xbde36843	-0.11103871
181	0x3d326e5f	0.04356229
182	0x3d730942	0.059335
183	0x3dda5c53	0.10662141
184	0xbe651c36	-0.22374043
185	0x3b2e39f4	0.0026584836
186	0x3e201baa	0.15635553
187	0xbe531f67	-0.20617448
188	0xbe122723	-0.14272742
189	0x3e89160a	0.26774627
190	0x3ea00f20	0.3126154
191	0x3e8628f2	0.26203114
192	0xbe8140a7	-0.25244638
193	0xbdfe05f5	-0.1240348
194	0x3d1844db	0.03717504
195	0xbdd87e9a	-0.10571022
196	0xbda2eec0	-0.07955694
197	0x3bd9aefa	0.0066431733
198	0x3e6f9e5a	0.2340025
199	0x3e8f1d76	0.27952164
200	0xbe906304	-0.28200543
201	0xbedd468b	-0.43217883
202	0xbf3d871e	-0.740343
203	0xbe5cdc04	-0.21568304
204	0x3f33469e	0.7002963
205	0xbf8ac512	-1.0841391
206	0x3e86e355	0.26345316
207	0x3f208a25	0.6271079
208	0x3f2ec6a8	0.68271875
209	0x3f26b3a9	0.6511789
210	0x3e60478f	0.21902297
211	0xbe354be4	-0.17704731
212	0x3e80f10a	0.25183898
213	0x3d93272d	0.071852066
214	0x3db4af49	0.088224955
215	0x3e9e5299	0.30922392
216	0x3f262db9	0.6491352
217	0x3eb6f8cd	0.35736695
218	0x3f4e8b57	0.80681366
219	0x3eba85af	0.36430117
220	0x3d1d0e38	0.03834364
221	0xbe1dbe93	-0.1540473
222	0x3e32980e	0.17440817
223	0x3e21d01d	0.15802045
224	0x3d0353e5	0.03206243
225	0x3eefa6ad	0.4680685
226	0x3e75634d	0.23963661
227	0xbf37059a	-0.7149292
228	0xbed01035	-0.40637365
229	0xbcd3bdb8	-0.0258473
230	0x3eac89d6	0.3369891
231	0x3f0abe78	0.5419688
232	0xbefd064e	-0.49418873
233	0x3eadd8d8	0.339545
234	0x3e20ba8d	0.15696163
235	0xbc88704b	-0.016655108
236	0xbd796b53	-0.060893368
237	0x3f080fbe	0.5314902
238	0x3ed8d6be	0.42351335
239	0xbe5de1b4	-0.2166813
240	0x3f0101c1	0.503933
241	0x3df8cc3b	0.12148329
242	0x3e6847cc	0.22683638
243	0x3f375039	0.71606785
244	0x3fa63109	1.2983714
245	0x3f21de54	0.6322987
246	0xbeb4a6eb	-0.35283598
247	0xbee878ba	-0.45404607
248	0xbdef6a34	-0.116901785
249	0x3f126f4b	0.5720107
250	0xbe2e75d3	-0.17037134
251	0x3f4a9efa	0.7914883
252	0x3f0458b8	0.51697874
253	0x3f019e94	0.50632596
254	0xbc31eaff	-0.01085925
255	0xbde06aaf	-0.10957848

net.4.bias f4 [64]
0	0x3de4762f	0.11155354
1	0xbe895650	-0.26823664
2	0xbe6c1f7e	-0.23058888
3	0x3e08a8da	0.13345662
4	0x3ebfc904	0.3745805
5	0xbc0441d0	-0.008072332
6	0xbda62386	-0.08112244
7	0x3c20e043	0.009819093
8	0xbf15cced	-0.58515817
9	0xbdebe67d	-0.115185715
10	0x3dd9b282	0.10629751
11	0xbed2963d	-0.41130248
12	0xbeec8ed9	-0.46202734
13	0x3d10e163	0.035371196
14	0xbe4fcb8b	-0.20292489
15	0xbd26020b	-0.040529292
16	0x3cc3c053	0.023895418
17	0xbcd3ec3d	-0.025869483
18	0xbcf628f6	-0.030048829
19	0x3e3f1b32	0.18662718
20	0x3f03ec4d	0.5153244
21	0xbd3ca302	-0.046053894
22	0x3eb20b4e	0.3477425
23	0xbd26671a	-0.04062567
24	0x3e7bcb39	0.24589242
25	0xbcc288a2	-0.023746792
26	0x3d2449fb	0.040109616
27	0xbe5fcfd3	-0.21856622
28	0xbed67710	-0.41887712
29	0x3d1c079f	0.038093206
30	0xbc94a68f	-0.018145828
31	0xbd3873f2	-0.04503245
32	0xbeae58ab	-0.34052023
33	0x3b3000cc	0.0026855944
34	0x3da56a01	0.08076859
35	0x3d8f05a1	0.069834955
36	0xbcfb4c08	-0.030675903
37	0x3c30e1d0	0.010796025
38	0x3d0a52ac	0.03377025
39	0xbe6d7e86	-0.23192796
40	0x3e01c977	0.12674509
41	0xbdaf7229	-0.08566696
42	0xbcda8965	-0.026676843
43	0x3f340821	0.70324904
44	0x3e823d36	0.25437325
45	0xbe6340f5	-0.22192748
46	0xbebb4776	-0.36577958
47	0xbe1c8abe	-0.15287301
48	0xbd0ad079	-0.03389022
49	0xbe7c863a	-0.24660578
50	0xbdd315db	-0.10306903
51	0x3e9373db	0.28799328
52	0xbd88a8a9	-0.06672794
53	0x3e635012	0.22198513
54	0x3d653e70	0.05596775
55	0x3d600d2d	0.054700065
56	0xbea7d0fe	-0.32776636
57	0xbf240d30	-0.6408262
58	0x3e2d8f76	0.16949257
59	0xbd833884	-0.06407264
60	0x3c81e563	0.01585645
61	0x3e72a418	0.2369541
62	0x3f1ef58f	0.6209344
63	0xbea699b7	-0.3253915

net.6.weight f4 [64, 64, 5, 5]
0	0x3d3c4333	0.045962524
1	0x3ef9507e	0.48694223
2	0x3e9a17f7	0.3009641
3	0x3dd98de8	0.106227696
4	0x3e5ff6f5	0.2187155
5	0x3e1213b4	0.14265329
6	0xbe83e45b	-0.2576016
7	0xbf928644	-1.1447225
8	0xbf2c0392	-0.6719295
9	0x3d7a6725	0.061133523
10	0x3f02ec4c	0.5114181
11	0xbefbbc15	-0.49166933
12	0xbd8906ea	-0.06690772
13	0xbe6fa289	-0.23401846
14	0x3ea4a227	0.32154962
15	0x3dee57c0	0.11637831
16	0x3dc81766	0.09770088
17	0xbea6d83f	-0.32586858
18	0xbe8ed868	-0.2789948
19	0xbe33c56d	-0.1755578
20	0x3f01794b	0.50575703
21	0x3dee7d4d	0.11644993
22	0xbd5a8803	-0.053352367
23	0xbed3358f	-0.412518
24	0xbf09d368	-0.53838205
25	0x3d65722a	0.05601708
26	0xbed27553	-0.41105136
27	0xbf4c8a87	-0.79898876
28	0xbf4a3095	-0.7898038
29	0xbddfd983	-0.10930159
30	0xbe0f7e5b	-0.14013045
31	0x3e911241	0.2833424
32	0x3efe8dc1	0.49717525
33	0xbec76952	-0.3894754
34	0x3cff3940	0.031155229
35	0x3d93c397	0.0721504
36	0xbdbc6496	-0.09198873
37	0xbdf8a358	-0.1214053
38	0xbd9a3183	-0.07528975
39	0xbc9b7e0b	-0.018981
40	0x3e020e47	0.12700759
41	0x3be5216a	0.0069925087
42	0x3e3adb7a	0.18247786
43	0xbde0987b	-0.10966583
44	0xbcaa9b4b	-0.020826003
45	0xbdbae456	-0.09125583
46	0xbf4a7341	-0.79082114
47	0xbe0f2c2c	-0.13981694
48	0x3e0ec300	0.13941574
49	0xbe9ecea9	-0.31017044
50	0xbe71ad13	-0.23601179
51	0xbf04f0bd	-0.5192984
52	0xbf15e694	-0.5855496
53	0xbd7ca191	-0.06167752
54	0xbc9e6172	-0.019333575
55	0xbec7d033	-0.3902603
56	0xbf0bf09b	-0.5466401
57	0x3dbe1e4f	0.09283125
58	0xbefc0b4b	-0.49227366
59	0x3dad1016	0.08450334
60	0x3d836589	0.06415851
61	0x3d442fe7	0.047897246
62	0xbe4779b9	-0.19480027
63	0x3ca16cc2	0.01970518
64	0x3dce9a4e	0.10088025
65	0xbd3d9c0f	-0.046291407
66	0xbe884ffb	-0.2662352
67	0x3dc7b23c	0.097507924
68	0x3d567da5	0.052365918
69	0xbdffe066	-0.124939725
70	0x3ea958f6	0.33075684
71	0xbee2b449	-0.44278172
72	0xbe2351c4	-0.1594916
73	0x3ce1c208	0.027558342
74	0x3e8833dc	0.26602066
75	0x3e8091b3	0.2511116
76	0x3d8e866a	0.06959231
77	0xbe623391	-0.22089984
78	0x3de43c8b	0.1114436
79	0xbd16492f	-0.036690887
80	0xbd8c5152	-0.06851448
81	0x3cb113ce	0.021615889
82	0xbb7caf60	-0.003855668
83	0xbdf2644c	-0.11835536
84	0xbe84e5e1	-0.25956634
85	0xbce73cce	-0.028227236
86	0xbd0c2294	-0.034212664
87	0x3e674b65	0.22587354
88	0x3ddf0883	0.10890295
89	0xbdf88c85	-0.12136177
90	0xbed936be	-0.42424577
91	0xbf3b9b08	-0.73283434
92	0xbeca46c1	-0.39507106
93	0xbe389f79	-0.18029584
94	0xbe6426fc	-0.22280496
95	0x3e0986d4	0.13430339
96	0xbf067544	-0.52522683
97	0xbe710886	-0.23538408
98	0x3e31edb0	0.17375827
99	0xbd87037e	-0.06592463
100	0x3e1aeb6f	0.15128873
101	0xbc9f6314	-0.019456424
102	0x3db8dba3	0.090262674
103	0xbd9cdbf7	-0.076591425
104	0x3dffc0e4	0.12487963
105	0x3e92d5ff	0.2867889
106	0x3cc186fb	0.023623934
107	0x3e8b242c	0.27176034
108	0x3e19c76c	0.1501748
109	0xbe2af50d	-0.16695042
110	0xbd437167	-0.04771557
111	0xbe087993	-0.13327627
112	0xbe3e926a	-0.1861054
113	0xbf099816	-0.5374769
114	0xbe3ab7ef	-0.18234228
115	0x3e3ff616	0.18746218
116	0x3e4b134b	0.19831578
117	0xbca4aad1	-0.020100983
118	0x3c431fb6	0.011909416
119	0xbe04b642	-0.12960151
120	0xbea8718b	-0.32899126
121	0x3e9837b1	0.2972999
122	0xbef3d6af	-0.47624728
123	0xbe9fcc68	-0.31210637
124	0xbec30eae	-0.38097137
125	0xbd4964e0	-0.049168468
126	0xbeb2bfa7	-0.34911844
127	0xbf5edfb1	-0.87060076
128	0xbe0212d0	-0.12702489
129	0xbe268502	-0.16261676
130	0xbd15ff50	-0.036620438
131	0x3e4a0940	0.19730091
132	0xbe18abb7	-0.14909254
133	0xbdde9aef	-0.10869395
134	0xbe3f4a82	-0.18680766
135	0x3d8e7194	0.06955257
136	0x3df5dc2d	0.12004886
137	0xbec6e2be	-0.38844866
138	0x3b1f0cc0	0.0024269074
139	0x3e2676b4	0.16256219
140	0xbd0efe2b	-0.034910362
141	0xbc32358f	-0.010877027
142	0xbc830986	-0.015995752
143	0x3dacd598	0.08439177
144	0xbe242500	-0.1602974
145	0x3ed03350	0.40664148
146	0x3e1a6057	0.15075813
147	0xbe2482ff	-0.16065596
148	0xbe84d56f	-0.25944087
149	0xbe2ab1e2	-0.1666942
150	0xbe600dbc	-0.21880239
151	0xbe974f25	-0.2955257
152	0xbddbc2bd	-0.10730503
153	0x3d70ba6b	0.058771532
154	0xbd6101bc	-0.054933295
155	0x3eac3b7b	0.3363913
156	0x3e5dc66e	0.21657726
157	0x3ccbafdf	0.024864135
158	0x3b618ba8	0.0034415517
159	0xbe9ab256	-0.30214185
160	0x3ea6ebb0	0.3260169
161	0x3e36ab5e	0.17838809
162	0xbf6d34b6	-0.92658556
163	0xbd4bef1f	-0.04978859
164	0xbe48b0bb	-0.19598667
165	0x3df0e846	0.11763053
166	0xbeed0659	-0.46293905
167	0x3d0ac87a	0.033882596
168	0xbeb3cb7b	-0.3511618
169	0xbe1868a4	-0.14883667
170	0xbe3f422c	-0.18677586
171	0xbed3a43f	-0.41336247
172	0xbdad2ae8	-0.08455449
173	0xbeab520e	-0.3346104
174	0xbc0e3867	-0.00868044
175	0x3e2d0432	0.16896132
176	0xbe50a4f8	-0.2037543
177	0xbea60d9d	-0.3243226
178	0xbe680e90	-0.22661805
179	0x3e836914	0.25666106
180	0xbdc1d87d	-0.0946512
181	0x3e9c1d61	0.30491164
182	0x3c31376e	0.010816438
183	0x3cc9e1ce	0.024643805
184	0xbc4f83ca	-0.012665698
185	0x3dc1cc86	0.09462838
186	0xbea7a276	-0.32741135
187	0xbe32a1c6	-0.17444524
188	0xbecbc1f9	-0.39796427
189	0xbeb4bb8a	-0.3529933
190	0x3de491cb	0.1116062
191	0xbde07aaa	-0.10960896
192	0x3d0c7a8c	0.034296557
193	0xbe31273f	-0.17300127
194	0x3c54eecf	0.0129963895
195	0xbe95ac07	-0.2923281
196	0xbed3cc26	-0.4136669
197	0xbdb9e2f8	-0.09076494
198	0xbf0ff14f	-0.5622758
199	0x3e6d3c32	0.23167494
200	0xbb9e3ed9	-0.0048292694
201	0xbdf31008	-0.11868292
202	0xbe4f7315	-0.20258744
203	0xbcf6d634	-0.030131437
204	0x3de8fbfe	0.11376189
205	0xbdc29dab	-0.09502729
206	0xbea0e069	-0.3142121
207	0xbec5d474	-0.3863865
208	0xbe49f10e	-0.19720861
209	0x3cb2a9e9	0.021809535
210	0xbee77320	-0.4520502
211	0xbf60f107	-0.8786778
212	0xbf12e357	-0.57378143
213	0xbefdf8e0	-0.4960394
214	0xbde8b1d4	-0.11362043
215	0xbe02f6d8	-0.12789476
216	0xbe8b6a3b	-0.27229485
217	0xbec7d221	-0.39027503
218	0xbed01af2	-0.40645558
219	0xbeae3dba	-0.3403147
220	0xbf07ca85	-0.53043395
221	0x3dede3e2	0.11615731
222	0xbe33b1c6	-0.17548284
223	0xbde5ee81	-0.11227132
224	0xbe8e06e6	-0.27739638
225	0xbedf65dc	-0.436324
226	0xbe789bda	-0.24278203
227	0xbec3b2ef	-0.38222453
228	0xbf1d4363	-0.6143095
229	0xbe8ac391	-0.2710233
230	0x3d2acaef	0.04169744
231	0xbc54bc7d	-0.012984392
232	0x3d326c68	0.043560416
233	0x3e9f5aa8	0.31123853
234	0x3d4c964d	0.049948025
235	0x3eedca45	0.46443382
236	0xbb940e3f	-0.0045183
237	0x3ebde18b	0.37086138
238	0xbdc1706c	-0.09445271
239	0xbe458aae	-0.19291183
240	0x3e200022	0.1562505
241	0xbdb02880	-0.08601475
242	0xbd881c2f	-0.066460006
243	0x3c53f67f	0.012937187
244	0xbdc3042c	-0.0952228
245	0xbef49aaf	-0.47774264
246	0xbe1f54b9	-0.15559663
247	0xbe8ea4c2	-0.27860075
248	0xbe325462	-0.17415002
249	0xbdfb4364	-0.12268713
250	0x3baa7f21	0.005203143
251	0xbeeaef7d	-0.4588584
252	0xbf3857d9	-0.72009045
253	0xbf04aad3	-0.5182316
254	0x3e69a288	0.22815907
255	0xbf647de5	-0.892546

net.6.bias f4 [64]
0	0xbc8b382b	-0.016994556
1	0xbd5a7d46	-0.053342126
2	0xbac6e874	-0.0015175478
3	0xbd80c9e9	-0.06288511
4	0x3efdabf3	0.4954525
5	0xbd832c7d	-0.0640497
6	0xbbb602ec	-0.0055545475
7	0x3afeff2d	0.001945471
8	0xbd3cbfd5	-0.046081383
9	0xbdac5cbc	-0.08416125
10	0x3b248987	0.0025106387
11	0xbd82adb1	-0.06380785
12	0xbc480d75	-0.01221024
13	0x3e4fa727	0.20278607
14	0x3e469769	0.19393696
15	0xbbb65495	-0.005564282
16	0xbe2f094a	-0.17093387
17	0x3dc37944	0.09544614
18	0xbd72bea7	-0.05926385
19	0xbd512219	-0.05105791
20	0x3eb9e53d	0.36307707
21	0xbda181b0	-0.07886064
22	0x3e068268	0.13135684
23	0x3c403bcb	0.011733006
24	0xbd28c697	-0.041205015
25	0x3d579e78	0.052641362
26	0xbc0bc18e	-0.008530034
27	0xbcffd708	-0.031230465
28	0xbd66fe9a	-0.05639515
29	0x3d59a7de	0.053138606
30	0x3cb2af50	0.021812111
31	0x3d243f79	0.040099595
32	0xbe3e78e7	-0.18600808
33	0xbd1a5a77	-0.03768393
34	0xbb1a00ae	-0.002349894
35	0x3dc0fca1	0.09423185
36	0xbdb16e89	-0.08663661
37	0xbcfd5e08	-0.030928627
38	0x3d1c8747	0.038214948
39	0xbca5e6e9	-0.020251708
40	0x3c253f5a	0.010085905
41	0x3e91c877	0.28473255
42	0x3cdb13ca	0.026742835
43	0xbd4151a5	-0.047197003
44	0x3df09fc6	0.11749224
45	0x3c747616	0.014920732
46	0x3cbc62ce	0.022996332
47	0xbc3b8a30	-0.011446521
48	0xbd6dd235	-0.058061797
49	0x3cdc5585	0.026896248
50	0x3d2399bd	0.039941538
51	0xbd463756	-0.048392616
52	0xbd508131	-0.050904457
53	0xbde95451	-0.11393035
54	0x3a964298	0.0011463938
55	0x3d4f5573	0.0506186
56	0xbc248494	-0.010041375
57	0x3d68d7af	0.056846317
58	0xbc625d5d	-0.013816205
59	0xbd293d52	-0.041318245
60	0x3cb64932	0.0222517
61	0xbbc97cae	-0.006148896
62	0xbc0e3c8b	-0.008681427
63	0x3d1e0eca	0.038588323

value.0.weight f4 [256, 64]
0	0xbef5987b	-0.47967896
1	0xbe7c4c44	-0.24638468
2	0xbdb23c3f	-0.08702897
3	0x3ca7b1fc	0.020470612
4	0xbf8f841a	-1.1212189
5	0x3e599e4d	0.21251793
6	0xbdf8bb28	-0.12145072
7	0x3bdda0b6	0.006763543
8	0x3e9654fe	0.2936172
9	0x3e64643e	0.22303864
10	0xbb693c65	-0.0035588976
11	0x3e9a60f1	0.30152085
12	0xbe32afe0	-0.17449903
13	0x3d944222	0.07239176
14	0xbcfda969	-0.03096457
15	0xbd128fba	-0.0357816
16	0xbf2a540b	-0.6653449
17	0xbdb5bfed	-0.088744976
18	0x3dea40c2	0.11438133
19	0xbe58c96b	-0.21170585
20	0x3dd08542	0.10181667
21	0xbe2f3018	-0.1710819
22	0xbd72c4a7	-0.059269574
23	0x3c6e14a7	0.014531291
24	0xbcc7cbab	-0.024389109
25	0x3e3c928a	0.18415275
26	0xbe28a85e	-0.16470477
27	0x3ddaa188	0.10675341
28	0x3e8b645a	0.27225
29	0x3c359c5d	0.011084643
30	0x3e1a7d80	0.15086937
31	0xbdc34561	-0.09534717
32	0x3e52d777	0.20590006
33	0xbb3ccec4	-0.0028809765
34	0xbc0d9491	-0.008641378
35	0x3e2db007	0.1696168
36	0x3db52b3c	0.08846137
37	0x3eafcd4d	0.3433632
38	0xbd979414	-0.074012905
39	0xbd187486	-0.0372205
40	0x3e026f19	0.12737693
41	0x3e9b727d	0.30360785
42	0x3c04108e	0.008060588
43	0x3dbe801c	0.09301779
44	0x3e04db20	0.12974215
45	0x3da89063	0.082306646
46	0xbdc12237	-0.09430354
47	0x3daafc0c	0.083488554
48	0xbebfd728	-0.3746884
49	0x3e3a5e24	0.18199974
50	0xbd677d15	-0.056515772
51	0xbdbed1b2	-0.0931734
52	0x3c9dcfe9	0.019264178
53	0xbe3ea2d7	-0.18616806
54	0xbdc7ae49	-0.09750039
55	0x3df33656	0.11875598
56	0x3e0f0848	0.13968003
57	0xbc0831cc	-0.008312654
58	0xbe326e97	-0.17424999
59	0xbf08a560	-0.5337734
60	0xbd94acc7	-0.07259517
61	0xbdce0806	-0.10060124
62	0x3d902c75	0.070397295
63	0xbe7643b7	-0.24049269
64	0x3e104101	0.14087297
65	0xbdd2095a	-0.1025569
66	0x3de24f82	0.11050321
67	0x3c6aa1a3	0.014320764
68	0x3e5e473d	0.21706863
69	0x3dca9dba	0.09893365
70	0x3dc5bad8	0.09654778
71	0x3e5f06c0	0.21779919
72	0xbda106b1	-0.078626044
73	0x3e4d1bb8	0.20030105
74	0x3e0564c1	0.13026716
75	0x3dc65164	0.09683493
76	0xbc5832db	-0.013195719
77	0x3d463117	0.04838666
78	0x3e3dbeb4	0.18529779
79	0x3e815a21	0.25264075
80	0x3e4e467b	0.20144074
81	0xbf7a583b	-0.9779088
82	0x3c628912	0.013826625
83	0xbeb41711	-0.35173848
84	0xbe93b050	-0.28845453
85	0x3d98d1f4	0.074619204
86	0xbcc7ddbc	-0.024397723
87	0xbe570194	-0.20996696
88	0xbcb9b935	-0.022671321
89	0x3b4ee9e0	0.0031572506
90	0x3e020d94	0.12700492
91	0x3e11f5d5	0.14253934
92	0xbe30f771	-0.17281891
93	0xbc92c1e2	-0.017914716
94	0xbdfe6951	-0.12422431
95	0x3d22ee97	0.03977832
96	0x3e321cbd	0.17393775
97	0xbe5ce5d9	-0.21572055
98	0xbe3e6478	-0.18593013
99	0x3d9ade46	0.075619265
100	0x3eaaa093	0.33325633
101	0xbf0c87d1	-0.5489474
102	0xbe8640a8	-0.26221204
103	0x3b1623f2	0.0022909609
104	0x3bbb4591	0.00571508
105	0x3e618cba	0.22026339
106	0x3e116f29	0.1420256
107	0x3e838a99	0.2569168
108	0xbb23a3eb	-0.002496953
109	0x3df8fe90	0.12157929
110	0xbdbcd712	-0.09220709
111	0x3d637afe	0.055537216
112	0xbd7b7701	-0.061392788
113	0x3d762ed3	0.06010325
114	0xbe28220c	-0.16419238
115	0x3cfab513	0.030603921
116	0x3d83d57c	0.06437203
117	0x3ddb51e7	0.10708981
118	0x3dafab4a	0.08577593
119	0xbe3e7713	-0.1860011
120	0xbd958bf4	-0.073020846
121	0x3dcd87a6	0.100356385
122	0x3df850bc	0.12124774
123	0x3d970126	0.07373266
124	0xbc0cdd34	-0.008597661
125	0xbd80dbe3	-0.0629194
126	0x3e2fe572	0.1717737
127	0xbdca4bd0	-0.09877741
128	0x3e532619	0.20620002
129	0x3db74373	0.08948412
130	0x3d8421d9	0.064517684
131	0x3de17448	0.11008507
132	0xbe94f434	-0.29092562
133	0x3bcc000b	0.006225591
134	0x3e6d7232	0.23188093
135	0x3e8263bf	0.25466725
136	0xbe6e7ed8	-0.23290575
137	0xbce07d22	-0.027403418
138	0xbd1b3e03	-0.037900936
139	0x3ea6c15b	0.32569394
140	0xbb8f3659	-0.0043704924
141	0x3e851a0f	0.25996444
142	0x3e1ec99d	0.15506597
143	0x3ea92bfd	0.33041373
144	0xbe0e57fb	-0.1390075
145	0x3e366729	0.1781279
146	0x3cc7fd05	0.024412641
147	0xbe524cb0	-0.20537066
148	0x3d212e52	0.039350815
149	0x3d1feb1d	0.03904258
150	0xbd566d96	-0.052350603
151	0x3e45f752	0.19332626
152	0xbe3aa848	-0.18228257
153	0x3dcec7a0	0.10096669
154	0xbe9d0bfa	-0.306732
155	0x3e088301	0.13331224
156	0xbdcf0822	-0.10108973
157	0xbdaf2ae1	-0.085531004
158	0x3e54361b	0.20723765
159	0x3d8c801b	0.06860372
160	0xbe0152c7	-0.12629233
161	0xbe3d6135	-0.18494113
162	0x3e99ccaf	0.30038974
163	0x3c8e79ef	0.017392127
164	0x3ce317d6	0.027721327
165	0xbd452201	-0.04812813
166	0x3d91855c	0.071055144
167	0xbe5c20f4	-0.21496946
168	0x3d24dd0e	0.040249877
169	0x3eb06361	0.3445082
170	0x3c8896c3	0.016673451
171	0xbdc9d40c	-0.09854898
172	0xbe786860	-0.24258566
173	0xbeedca05	-0.4644319
174	0xbdffc3d5	-0.12488524
175	0x3ba8c623	0.005150573
176	0x3e4c3628	0.19942534
177	0x3cc1d95e	0.023663219
178	0xbb6e9002	-0.0036401753
179	0x3b004b4a	0.0019576126
180	0x3e7b3281	0.24530984
181	0xbf32960d	-0.6976021
182	0x3c76a739	0.015054517
183	0xbd52586a	-0.05135385
184	0xbe7fd54c	-0.2498371
185	0x3ddf10c0	0.10891867
186	0xbc376e73	-0.011195767
187	0x3e43815a	0.19092312
188	0x3e874e10	0.26426744
189	0xbdc5ddc4	-0.09661439
190	0xbe1d1488	-0.15339863
191	0x3e9922a7	0.2990925
192	0xbde04425	-0.109504975
193	0xbdd769d4	-0.10518232
194	0x3c00431c	0.0078285
195	0xbeee0420	-0.46487522
196	0xbea87e84	-0.32909024
197	0xbe0a7254	-0.13520175
198	0x3e3674b5	0.17817958
199	0xbed10b29	-0.40828827
200	0xbe812ca2	-0.25229365
201	0xbdc2458d	-0.09485922
202	0x3cddcdfc	0.02707576
203	0x3d480a5f	0.048838016
204	0x3ddd54e8	0.1080721
205	0xbe91af00	-0.28453827
206	0xb9a07ba6	-0.00030609703
207	0x3d23a06d	0.039947916
208	0x3e356c01	0.17716981
209	0xbcdf919c	-0.027291112
210	0x3e0f5a71	0.13999344
211	0xbe7b1f86	-0.24523744
212	0xbea2c531	-0.3179107
213	0xbda7df78	-0.0819692
214	0x3d01f8ac	0.031731293
215	0x3e0dc9a2	0.13846448
216	0x3e0f4495	0.13991006
217	0x3e4d63e4	0.20057636
218	0xbe187786	-0.14889345
219	0xbde8a99f	-0.11360478
220	0x3e6bfdd0	0.2304604
221	0xbcd98c0e	-0.026556041
222	0x3e101ded	0.14073916
223	0x3e0b61d8	0.13611543
224	0x3e052951	0.13004042
225	0x3d916525	0.0709937
226	0xbdac21fe	-0.08404921
227	0xbba91366	-0.005159783
228	0x3e1c1d68	0.15245593
229	0x3e08593c	0.1331529
230	0xbdba5850	-0.090988755
231	0xbcad2886	-0.021137487
232	0xbb2b38dc	-0.002612642
233	0xbf20ca92	-0.628091
234	0x3d43a4b6	0.047764502
235	0xbe8af00c	-0.27136266
236	0x3c699d49	0.014258691
237	0xbdb5f95b	-0.088854514
238	0xbdbe05da	-0.0927846
239	0xbddebc55	-0.10875765
240	0xbe4978ab	-0.19674937
241	0x3d58e6fe	0.052954666
242	0xbe6bd83f	-0.2303171
243	0x3dc36f1b	0.09542676
244	0xbe8b1b52	-0.2716928
245	0xbdb29487	-0.087197356
246	0x3e4082ad	0.18799849
247	0x3d820110	0.06347859
248	0xbec64b3e	-0.3872928
249	0xbd739093	-0.05946405
250	0xbd9709b7	-0.073749
251	0x3bc277c9	0.0059346897
252	0xbd9eb2d5	-0.07748953
253	0x3e56b77c	0.20968431
254	0x3c22cbe6	0.0099363085
255	0xbe51b867	-0.204805

value.0.bias f4 [256]
0	0x3d40e90d	0.047097255
1	0xbeee541d	-0.46548548
2	0x3db32953	0.08748116
3	0xbd9a8757	-0.07545345
4	0x3e1ce157	0.15320335
5	0x3ce0eab7	0.02745567
6	0xbd19d8b7	-0.03756019
7	0xbe13aa29	-0.1442038
8	0xbf32f4bb	-0.6990468
9	0x3e127dc1	0.14305784
10	0xbf12247a	-0.5708691
11	0x3eaece11	0.3414159
12	0x3ea3de0b	0.32005343
13	0xbe856f4d	-0.26061478
14	0xbd26a058	-0.04068026
15	0x3ed3062a	0.4121564
16	0xbd70f9d2	-0.058831997
17	0xbe976783	-0.2957116
18	0xbe3adecb	-0.18249051
19	0x3e251c96	0.16124186
20	0x3da0eeb8	0.07858032
21	0xbe2cd7f0	-0.16879249
22	0xbd8a5090	-0.06753647
23	0x3e939f35	0.28832403
24	0xbe0fdd9d	-0.14049383
25	0x3e9eff54	0.31054175
26	0x3dddb05f	0.10824656
27	0xbe4891e6	-0.19586906
28	0x3f2c0ef2	0.67210305
29	0xbdc98e84	-0.09841636
30	0x3e0ff7a8	0.14059317
31	0x3d91646b	0.07099231
32	0x3dffc97a	0.124896005
33	0xbe2b2b57	-0.16715752
34	0x3e66d509	0.22542204
35	0xbf73795a	-0.9510704
36	0x3e638193	0.22217397
37	0xbf210d4a	-0.629109
38	0xbed41a06	-0.41426104
39	0xbf6d1f52	-0.92625916
40	0xbe3d5cfe	-0.18492505
41	0xbc8ef835	-0.017452339
42	0x3e8c669f	0.27422044
43	0xbea652b3	-0.3248497
44	0xba3cd1b8	-0.00072028814
45	0x3efdeec0	0.49596214
46	0xbe98e3d5	-0.29861322
47	0xbe0d9029	-0.13824524
48	0xbe7bd858	-0.24594247
49	0xbf0087bf	-0.5020713
50	0xbe8d41b0	-0.27589178
51	0xbe00182f	-0.12509225
52	0xbf5e069c	-0.86728835
53	0x3e3a7ed7	0.18212448
54	0x3c5b9ba7	0.01340381
55	0xbd1e3547	-0.038625028
56	0x3ea417b5	0.32049337
57	0xbf02217f	-0.5083236
58	0xbd5edf0c	-0.054411933
59	0xbeaaa823	-0.33331403
60	0xbe67d7c8	-0.22640908
61	0xbeee21d1	-0.46510175
62	0x3b850f16	0.0040606363
63	0x3bf71562	0.007540391
64	0xbc1c0aac	-0.009524029
65	0x3da7d942	0.081957355
66	0x3ca1b524	0.019739695
67	0x3e3c6f8b	0.18401925
68	0xbe515097	-0.20440899
69	0xbf9e445d	-1.2364613
70	0xbe78622d	-0.24256201
71	0xbd8d1441	-0.06888629
72	0x3ece04d6	0.40238065
73	0xbf8f7cb8	-1.1209936
74	0x3ed35610	0.41276598
75	0x3eb214b8	0.34781432
76	0x3e5de8dc	0.2167086
77	0x3e9e87c0	0.30962944
78	0x3b0979be	0.0020977105
79	0xbc0dd51e	-0.008656768
80	0xbd6a40b7	-0.057190623
81	0x3ec30b89	0.38094738
82	0x3f5958b6	0.8490099
83	0xbcb111bb	-0.0216149
84	0x3dde84d3	0.10865178
85	0x3d16d4d7	0.036824074
86	0xbde7e871	-0.113236316
87	0xbd77a527	-0.060460236
88	0xbee894dc	-0.4542607
89	0xbe3f3412	-0.18672207
90	0x3d96dc7a	0.07366271
91	0x3e204c99	0.1565422
92	0xbdf3bc20	-0.11901116
93	0xbc8b9ace	-0.01704159
94	0x3eb0f4bb	0.34561715
95	0x3f267f16	0.6503767
96	0xbe0fbe7b	-0.14037506
97	0xbe38d692	-0.18050602
98	0x3ea04eb4	0.31310046
99	0xbea54b4b	-0.32284006
100	0x3e947554	0.28995764
101	0x3e07504a	0.13214222
102	0x3e3a2d9d	0.18181463
103	0xbdc74a22	-0.097309366
104	0x3f3528a5	0.70765144
105	0xbd431049	-0.047622953
106	0xbcc77f42	-0.024352673
107	0x3eb518f4	0.353706
108	0x3edefe87	0.43553564
109	0xbe5e803d	-0.21728607
110	0xbed168d4	-0.4090029
111	0xbe264728	-0.16238081
112	0xbda59751	-0.08085502
113	0x3c30d2d5	0.010792454
114	0x3eeff21e	0.46864408
115	0xbf67280e	-0.90295494
116	0x3e245893	0.16049413
117	0x3da651da	0.08121081
118	0xbd36a70c	-0.044592902
119	0x3e923790	0.28558016
120	0xbdfabfa9	-0.122435875
121	0x3ddd65eb	0.10810455
122	0xbeb5f111	-0.35535482
123	0x3f1f55d1	0.6224032
124	0xbdbc09c8	-0.09181553
125	0x3ebdc825	0.3706676
126	0xbfa44fc4	-1.2836843
127	0x3d263ed7	0.040587272
128	0xbe34cea1	-0.17656948
129	0x3ef7adaf	0.48374698
130	0xbf19b7af	-0.60045904
131	0xbf1f537d	-0.6223677
132	0x3ea47a87	0.3212473
133	0xbe7b24b6	-0.24525723
134	0xbe29e16d	-0.165899
135	0xbe11ac24	-0.14225823
136	0x3e71eb3b	0.2362489
137	0xbc3d3589	-0.011548408
138	0x3e078c6a	0.13237157
139	0xbecdd4f4	-0.40201533
140	0xbdc834e4	-0.09775713
141	0xbcc1a22b	-0.023636898
142	0xbd8c8a02	-0.068622604
143	0xbdb00654	-0.08594957
144	0xbddd9735	-0.10819856
145	0xbe4e9bdd	-0.20176645
146	0xbf9ea93e	-1.2395399
147	0x3dc87b6f	0.09789168
148	0xbea2cefc	-0.31798542
149	0xbed54d23	-0.41660413
150	0xbeccd744	-0.40007985
151	0xbd31600a	-0.04330448
152	0xbd3da2ea	-0.046297945
153	0xbe945baa	-0.28976184
154	0xbd1f85bf	-0.03894591
155	0x3f077973	0.5291969
156	0xbf262525	-0.6490043
157	0x3e2bd4b4	0.16780359
158	0x3f1d0651	0.61337763
159	0xbd851cc6	-0.06499629
160	0x3d0e045c	0.034672126
161	0x3eb4a6b3	0.3528343
162	0x3c7c9587	0.0154165095
163	0xbdbed68f	-0.093182676
164	0x3e5dfd12	0.2167857
165	0xbed094e0	-0.40738583
166	0xbe78c0d9	-0.24292316
167	0x3e8e3d79	0.27781275
168	0xbce38de9	-0.027777629
169	0x3d440cec	0.047863886
170	0x3e3837e4	0.1799007
171	0xbdf7b18d	-0.12094412
172	0x3e8d0c0a	0.27548248
173	0xbce1661f	-0.027514515
174	0xbdc30540	-0.09522486
175	0x3c1c7f6c	0.009551864
176	0xbda5b576	-0.080912516
177	0xbe678944	-0.22610956
178	0xbeaf35ce	-0.34220737
179	0x3e557624	0.20845848
180	0x3f0c1fc5	0.54735976
181	0x3ca57b45	0.020200381
182	0xbf845fa2	-1.0341685
183	0xbefc1e8d	-0.49242058
184	0xbf94a73b	-1.1613535
185	0xbee4292e	-0.44562668
186	0xbd3c9e78	-0.046049565
187	0xbdcb3ed6	-0.099240944
188	0x3ddd4ebb	0.10806032
189	0x3e7444a5	0.23854311
190	0xbf250bdf	-0.6447124
191	0xbf1a5c30	-0.60296917
192	0x3e786591	0.24257495
193	0xbe36e7ba	-0.17861834
194	0xbeee41f9	-0.46534708
195	0x3ef251d5	0.47328058
196	0x3e9e0f25	0.3087093
197	0xbef604ac	-0.4805044
198	0x3f388762	0.7208158
199	0x3d703bb9	0.058650706
200	0x3e666751	0.2250035
201	0xbf27a87d	-0.6549147
202	0x3f0d739b	0.55254525
203	0xbe0a3de3	-0.1350017
204	0x3e0b9e67	0.13634644
205	0x3c922eaa	0.017844517
206	0x3ea18da3	0.31553373
207	0xbe52a347	-0.20570098
208	0xbe78644c	-0.2425701
209	0xbdfa0467	-0.12207871
210	0x3f296099	0.6616302
211	0xbc74bbc4	-0.014937345
212	0x3e2f3766	0.17110977
213	0xbe52d9bf	-0.20590876
214	0xbdc43117	-0.09579676
215	0xbf15b9c8	-0.58486605
216	0x3e0b74d2	0.13618782
217	0x3c6ccda0	0.014453322
218	0xbde2594f	-0.110521905
219	0xbf3322e8	-0.6997514
220	0xbe2bf8c4	-0.16794115
221	0x3e46e341	0.19422628
222	0xbdf40d39	-0.119165845
223	0x3c41711d	0.011806753
224	0x3c70167e	0.0146538
225	0xbf776ddc	-0.9665201
226	0xbe802e99	-0.2503555
227	0xbe82d277	-0.25551197
228	0x3ed2a69e	0.41142744
229	0x3f490468	0.7852235
230	0x3e1cb8a9	0.15304817
231	0x3e538a77	0.20658289
232	0xbe109863	-0.14120631
233	0xbe17e808	-0.14834607
234	0xbb321539	-0.0027173294
235	0x3d6aba8f	0.057306822
236	0x3e8e304d	0.27771226
237	0x3dbb2228	0.09137374
238	0xbe8c7c26	-0.27438468
239	0xbf3b2fa9	-0.731196
240	0xbd225a90	-0.03963715
241	0x3e3ab046	0.18231305
242	0xbf05622e	-0.52102935
243	0xbf9d709f	-1.2299994
244	0xbd4fc90a	-0.050728835
245	0x3ed981f7	0.42481968
246	0xbf1a1acb	-0.6019713
247	0x3c29c65d	0.010362235
248	0xbe2a1d8f	-0.16612838
249	0x3f42530a	0.7590796
250	0xbd0f8116	-0.035035215
251	0x3ea4c00e	0.32177776
252	0xbe5a9bf3	-0.21348552
253	0xbec3f423	-0.382722
254	0xbd148b27	-0.03626552
255	0x3f08bc17	0.53412
