PPO_discrete/model/LunarLander-v2_actor.pt (torch, 75167 bytes, 6 tensors)

FCNet.0.weight f4 [128, 8]
00000000: 67f8 0f3d f8b5 503e 8860 893e 4b62 16bf
00000010: dee4 fcbe c2b3 cfbe 4e16 e6bd 6869 7a3e
00000020: 5ac9 bdbe a27e 6abe e7c0 7b3e 0327 a6be
00000030: 20ee 903e a979 23be 3de3 08be da9e 86be
00000040: aecf 2abe d664 a53b d1d5 67be e930 17be
00000050: 2f3a 96be ad4a 8e3d bf7d b63e ae57 873e
00000060: e900 853e 2633 763e 448b f93e d1b8 a6bd
00000070: f0ac f0be dfb6 f8bc 4751 6dbe b53e b33d
00000080: 3158 8fbe 2616 943d 4a82 cfbd c5be d9be
00000090: 1ed9 4dbe c5e3 463e 5a5d 2ebe a2b6 953e
000000a0: e04d b83d 7628 403e 5a73 99be 57bb f3be
000000b0: a8bf cdbc 0def b03e 961f 5abe 6bf4 3dbe
000000c0: b45a df3d 0bc2 41be afc2 fdbc bc44 1cbe
000000d0: 7b01 84be d0d2 0d3e 3b12 893c a9a4 9c3d
000000e0: 34dd 0f3e d628 73be 6a1e 7dbe 7f88 9dbe
000000f0: 0a24 1e3e b95e 79be faa8 733d 41fe 263d
00000100: cf5a 8fbc ff83 26be 9d90 a6be bf75 32bf
00000110: d7fa 8c3e 1618 cbbc 80fc 8dbe 9bc5 b53d
00000120: 30cf 03be fb1c 783e a6a9 6fbe 12c4 fa3e
00000130: 78bb 0a3f e1bd 38bd b24b 373e 9a4b 863e
00000140: 8a27 133d 8a77 893e 1c2c 22bd fa71 ca3e
00000150: dda6 eb3e 927e ef3e 93b1 58be 8467 8c3e
00000160: 5505 9bbc 79aa e43d 537e 98bd 92dd d1bc
00000170: 61f9 03bf c9c4 f7bc e120 ab3e 9116 733e
00000180: fdec 61bc 1be6 6c3e e18d 823e 79bd dc3d
00000190: 25cb f8be a7f4 13bf bcd4 06be 6d2b 9c3e
000001a0: 8e05 273e 57a5 8cbe fa11 1d3e 69ae 0b3d
000001b0: 6488 64be 51d4 ee3d d4b8 413e 37cf 633c
000001c0: fd7b 61be 9ec1 d03d a770 3bbe 3e7b 11bf
000001d0: 2449 f6be b707 783b 3c26 3bbe dd84 173e
000001e0: de7d 06bd 45f0 c5be 07ec 09bd b9f0 853e
000001f0: ad3e ce3e e458 fbbc a1e6 803e ad8d 423d
00000200: f01b 1d3d 7967 6bbe 6f79 abbd 642e 74bc
00000210: ee17 a53e 9527 a0be 65c3 233e 0250 bebe
00000220: d577 a8be e235 8bbe d329 24be f888 73be
00000230: 6fd3 8bbd 9d1b 5ebe d60c 92be 90e6 18be
00000240: d73d 88bc 173d 483e 358c ecbd c488 543f
00000250: 662c 963d fdf1 693e 6481 643e c675 c83e
00000260: 7c99 753e 2019 7cbd 9a4b 6e3e ab26 213c
00000270: e20b 673c 5370 c33e d979 8bbd 0a0a 123e
00000280: acf8 a63a 91d5 253d 0e08 6c3e f70a 213e
00000290: 2f11 943e 8cba 70bd 213a 8abd 7572 703e
000002a0: 3d85 5f3e 1e92 3c3d 66e7 17bd 71ab 2fbf
000002b0: e56f 2cbe 705a a6be 4483 e43d 329c 9bbe
000002c0: 8414 1f3e 8a6f 50be ab76 203e ca89 37be
000002d0: a408 5bbe c9be 8fbe ffab 87ba a4d6 09be
000002e0: cbb4 bf3e 083e 45be 03c1 343e 4dd7 b3be
000002f0: 7def 073e d2dd c5bc f2ff 21be b158 d9bc
00000300: b535 e5bb ea64 b23e 1ebf ed3e 46c0 4b3f
00000310: a1d0 7e3c 9d38 3a3c 67b8 92be bca5 89be
00000320: b1cf a03e ae8a c3be bd42 ac3e 0ad4 da3e
00000330: a77c b2be 5179 41be 5252 1d3e 88b9 b6be
00000340: 18a0 c13d 881d 2c3e 5218 f3be 4f3d 1c3f
00000350: c57c 0a3f d792 91bd e3ee 463e 9027 583e
00000360: 512a 06be 4628 debe 6515 cd3d 6aba b63e
00000370: a9ef 893e 53db 703d 55c9 693e 4e8c df3d
00000380: 4217 e0bd c182 893e 4abd 893e 867d 0abf
00000390: 0081 27bf cdf6 c6be a08c 33be fca1 bcbe
000003a0: fe3b 5fbe f40d 1e3e eeca d1be f602 bebe
000003b0: 67bf d03e 85e7 103e 0aaf cabe 508a ad3d
000003c0: 2bc0 3b3e 5e86 58bd 14db 70be 2ab4 c43e
000003d0: e17b f7bd 6062 583e e2a6 3abe d265 7dbd
000003e0: ff73 7cbe ec86 83be cfd6 993e 69c2 803e
000003f0: 31ea 3c3e 3948 243c b361 a83e 148a 5b3e
0.035149004 0.20381916 0.2683146 -0.58743733 -0.49393362 -0.40566832 -0.11234723 0.24454272
-0.37067682 -0.22899869 0.24585305 -0.3245164 0.28306675 -0.15964378 -0.13367935 -0.2629307
-0.16680786 0.005047421 -0.22640158 -0.14764751 -0.29341266 0.06947837 0.35642812 0.26434082
0.25977257 0.24042949 0.48739064 -0.0814072 -0.4700694 -0.030360637 -0.23175536 0.08752195
-0.27996972 0.07230787 -0.101322725 -0.42528358 -0.20102355 0.19422825 -0.17027798 0.292409
0.089992285 0.18765435 -0.2997082 -0.47603866 -0.025115803 0.3455738 -0.21301112 -0.1855027
0.10905972 -0.18921678 -0.030976621 -0.15260595 -0.2578238 0.1384995 0.016732326 0.07648594
0.14049226 -0.23746046 -0.24718633 -0.307682 0.15443435 -0.2435254 0.05948732 0.04076982
-0.017499356 -0.1626129 -0.32532206 -0.69710916 0.27535126 -0.024791759 -0.27731705 0.08875581
-0.12872005 0.24229805 -0.2340456 0.48977715 0.54192305 -0.045102958 0.17899969 0.26229554
0.03592638 0.26849014 -0.039592847 0.39540082 0.46025744 0.46776253 -0.21161489 0.27422726
-0.018923441 0.111653276 -0.074459694 -0.025618348 -0.51552397 -0.030245202 0.33423522 0.23739077
-0.013789413 0.23134653 0.2549887 0.107783265 -0.48592487 -0.57795185 -0.13167089 0.3050188
0.16310713 -0.27469894 0.15338889 0.034101877 -0.22317654 0.1166159 0.18918163 0.013904384
-0.22019954 0.101931795 -0.18304692 -0.5682868 -0.48102677 0.0037846395 -0.18276304 0.14796777
-0.03283488 -0.38659874 -0.03367236 0.2616022 0.40282193 -0.030682035 0.25175956 0.047498394
0.03835672 -0.2298869 -0.08372771 -0.0149036385 0.3224482 -0.312802 0.15992506 -0.37170416
-0.32903925 -0.27189547 -0.1603158 -0.23782718 -0.06827437 -0.21690221 -0.28525418 -0.14931703
-0.01663105 0.19554554 -0.1155018 0.8302119 0.07332687 0.22846217 0.22314984 0.39152354
0.23984331 -0.0615474 0.23271027 0.009835879 0.014101954 0.38171634 -0.0681035 0.14261642
0.0012738905 0.040486876 0.23049948 0.15726839 0.2891936 -0.058771655 -0.067493685 0.23481162
0.2182817 0.046037786 -0.037085913 -0.68620974 -0.1683956 -0.32490873 0.111578494 -0.30392605
0.1553517 -0.20355049 0.15670268 -0.17923656 -0.21390015 -0.28075245 -0.0010350941 -0.13460785
0.37442622 -0.19261944 0.17651753 -0.351252 0.13274951 -0.024153624 -0.15820292 -0.02653155
-0.006994928 0.34842616 0.46434873 0.7959026 0.015552671 0.011366037 -0.28656313 -0.26884258
0.31408456 -0.38191742 0.33644667 0.42739898 -0.34860727 -0.18893935 0.15363434 -0.35688424
0.094543636 0.1680814 -0.47479492 0.6103105 0.54096633 -0.071080856 0.19427066 0.21108842
-0.1310208 -0.433901 0.10013846 0.35689098 0.2694066 0.058802914 0.22830708 0.10915433
-0.10941936 0.2685757 0.2690223 -0.54097784 -0.65431213 -0.3886017 -0.17534113 -0.36842334
-0.21800229 0.1543501 -0.40975136 -0.37111634 0.40771028 0.14150818 -0.3958667 0.08473647
0.18335025 -0.052862518 -0.23521072 0.38418704 -0.12084175 0.21131277 -0.18227723 -0.06186468
-0.24653624 -0.25688875 0.30046698 0.25148323 0.18448712 0.010026985 0.3288704 0.21439391

FCNet.0.bias f4 [128]
00000000: 04c3 f3bc 75b8 b23d ecff 9abe 4263 a33c
00000010: f707 893e 81f0 e2bd ba2e b1be 0057 e4bd
00000020: 6521 a63e bff4 353d e161 f23e 4138 41bc
00000030: f8bb 71bd fe8d 52bd c69f 083c 76f9 c03d
00000040: 488b 55be 996d 7b3e 7902 d73d e4eb 3bbe
00000050: 8ec5 a5be 164e a73c 9925 fabc 10ee c93d
00000060: 34d4 19bd f74c e13d b120 c73d 35b7 033e
00000070: b310 05bd beb5 363d a5b1 8a3d d440 e9bd
00000080: e44c 853e 03bd a7be bede 7d3d 8bfb a4bd
00000090: 2a1e f43d 591d 4cbd f4e7 81bd 4b6b b23d
000000a0: 0166 9f3e db2e 3c3e 12be 9f3e 9dde b5be
000000b0: 8fdc 60be f4a1 353d f8d9 5a3e daa9 bbbe
000000c0: 4c68 68bd bec1 473e 56c9 233e 396d cabd
000000d0: 2829 09bd fbfd 353e aa80 753d 78db 18be
000000e0: 4126 e3bd 34a2 a4bb 07e8 053e f30d 4e3e
000000f0: a24f 0dbe d199 0bbe 074b 91bd 4028 d83b
00000100: a47e 3f3e eaf5 fcbd 79d6 093d 538a 18be
00000110: d5fd 803e eeb0 3ebd 2dde b23e f03d 1c3e
00000120: a672 8abe e9d9 0d3e fdc5 dcbd 913b ca3e
00000130: debb 90be 4684 aebe 5bc3 233e 87f2 e03a
00000140: 1233 0e3e cc15 6fbe 31d0 243d bc6a 613e
00000150: bf4f b7be 58ca 21bb d461 553e 4a36 dd3d
00000160: caa8 b0bc ce51 583e 438c aebe e4a3 a03e
00000170: b5e3 013e 8425 a93d 7a89 b23d 3112 ad3d
00000180: 3312 a23e fbdd e33d b699 adbe e730 7b3e
00000190: c063 fe3d 293e 1d3e 7432 cc3c 2cb2 743b
000001a0: 54c0 833d a93e 603e 1b00 2c3d 6ab3 5f3e
000001b0: 4d44 b83e 5ac6 cdbb 2c85 f13c ec21 8abe
000001c0: b50c d63d ef32 383e 3122 66be 32b2 c2be
000001d0: 6aef 973e 20db 6e3e e1f5 083e 2d97 5b3e
000001e0: bae4 8cbe db66 033e 489f 893e 436d 033e
000001f0: 9525 97bd fe7f 1cbd da9f 613e d912 65be
-0.029756077 0.08726589 -0.30273378 0.01994479 0.2676389 -0.11081029 -0.34605962 -0.111494064
0.32447353 0.04442286 0.473403 -0.011793197 -0.05901715 -0.051404946 0.008338874 0.09422581
-0.20853913 0.24553527 0.104985185 -0.18351704 -0.32377285 0.020422976 -0.030535506 0.0985986
-0.03755589 0.11001008 0.09723032 0.12862857 -0.03248663 0.044606917 0.06772164 -0.11389318
0.26035225 -0.32761392 0.06198 -0.080557905 0.11919816 -0.049832676 -0.0634307 0.08711871
0.3113251 0.18377249 0.311997 -0.35521403 -0.21959136 0.044343904 0.21372211 -0.36653024
-0.05674009 0.195075 0.15994772 -0.09884114 -0.033486515 0.17772667 0.059937157 -0.1492747
-0.11091281 -0.005024219 0.13076793 0.20122509 -0.13799909 -0.13632895 -0.070943885 0.006596595
0.18700653 -0.12351592 0.033651803 -0.14896517 0.25193658 -0.046555452 0.34935132 0.15258002
-0.27040595 0.13852657 -0.10779951 0.3949857 -0.2826833 -0.34085292 0.15992491 0.0017162123
0.1388667 -0.23348159 0.04023761 0.22013372 -0.3580303 -0.0024687257 0.208381 0.108013704
-0.02156486 0.21124956 -0.34091386 0.3137504 0.1268452 0.08259109 0.08717628 0.08450735
0.3165451 0.11126324 -0.33906335 0.24530374 0.124213696 0.15355743 0.024926402 0.0037337644
0.06433168 0.21898903 0.041992288 0.21845785 0.3598961 -0.006279749 0.029482447 -0.26979005
0.104516424 0.1798818 -0.2247398 -0.38026577 0.29674846 0.23325777 0.13375045 0.21444388
-0.27518255 0.12832205 0.26879334 0.12834649 -0.07380215 -0.038208 0.22033635 -0.22370471

FCNet.2.weight f4 [128, 128]
00000000: 7ada 00bc 60eb 303e 5f38 d5bd c153 ba3d
00000010: f4db 693d cf4c 513e 2dcd 6cbd 5ead f53d
00000020: 062d 463e 0176 633c 48f5 1a3e 1d3a a5bd
00000030: 6fec bfbe 4e07 2d3b 0502 fc3d fa10 9d3d
00000040: d759 6c3d 274e 373e 5504 85bd 5cbc b63d
00000050: 0713 2cbc bb36 c43d 2d50 8abd 75f8 2c3e
00000060: 3191 e8bd 2366 dcbd 9a3d 2b3d 184b 8fbc
00000070: a3df d038 091f 793e 0a25 aa3c a439 433d
00000080: c56e 27be b1a3 9c3b 712c c1be 5f55 30bb
00000090: 86c9 7f3e 2475 33bd 5b09 f03d baf3 e1bd
000000a0: 6564 103e 0a09 80bd af9e 3a3e 263a 07bd
000000b0: d85e 643d 6548 1b3e ea7e 3c3e c789 5bbc
000000c0: 8b44 f53d 2d5c e53c b16c b0bd 8b80 263e
000000d0: 2725 1e3d 19c0 9b3d 0a85 babe 10e2 a33e
000000e0: d6df e03d 1c31 ddbd 9009 81be 1394 04be
000000f0: 449e 07bc 15fe 523d 64de b7bd 2e75 96be
00000100: 4414 313e ad5b dfbc f169 8c3e a961 43bd
00000110: f2f5 8abd f920 f33b 4c7a 3c3e 1e60 3fbe
00000120: a9c9 0a3d 2949 c33d 9cde 7a3d 20e7 443e
00000130: c2c3 b8bd a7a2 613d c9a9 023b a08f d83d
00000140: 0073 d8bd ad73 a8bd e06c 11be 6cce c8bd
00000150: 3b7c dfbc 6180 6f3e 241b a13e 000e 3d3e
00000160: 589e 103c 8499 043e 4941 97bd 7c27 323c
00000170: 14cd b9bd 32fe bb3d a4af 4bbc 426a 6cbd
00000180: 6ae7 7b3d ee3a 80bd a3fe 3f3d 9642 813e
00000190: a25c 823d 28af 183e 9bef 1b3c 9c61 8cbc
000001a0: 2902 9ebe 7f8d e8bd d850 73bd d8e3 f93d
000001b0: 6a7f 563e dd00 a9bc 2550 9a3e 6532 a0bd
000001c0: 5f38 51bd 5b65 983d df41 8bbd ca77 f1bd
000001d0: 8518 8b3d c1ba c1bd adcf 1d3e cb9b 283d
000001e0: bd0a 283d 5f6e 74bd 49ba 883e 22a4 ee3d
000001f0: f037 323e 8ae0 1dbe a1b6 19bd e10a 1f3b
00000200: 55e0 123e ccde eb3d f66c 0dbe 4e0a 3a3d
00000210: 6fab fe3d 1743 cd3d 9c73 2dbc cd78 a6bd
00000220: e7ad ae3d cb8f 9abe f96b 55bd ff15 893d
00000230: a10e e13d 7924 593d aecc c73d 98b3 84be
00000240: a1a8 6b3d 2a68 393d 89bc 54be f1a8 b93d
00000250: 7d03 783d 3761 853e b2d9 d83d dac6 033e
00000260: 7938 4dbc 0b90 cd3c f50f 8fbe 4ea6 e2bd
00000270: 83cf 783e e06f 90bd 0c79 8a3c a154 3cbe
00000280: 6fc4 a63d 14e6 bebc 8246 d4bd 3301 d23d
00000290: 173b 11bd bc77 2a3b 22c0 083e b4b2 5c3d
000002a0: eb1e 97bd 4cb5 62bc 81d2 18bc a7e5 79bd
000002b0: f44e ed3d 0f79 eebd 13cb a3bd 7127 80bd
000002c0: 9eb5 cebc 0e42 76bc 43a1 c6bd cda5 d73b
000002d0: 9cb2 8b3d 6217 b93d 13bc baba 4079 8dbd
000002e0: 10e8 3f3e 26b5 d3bd cdf9 a93d a157 88be
000002f0: d5d8 403c 32e4 2b3e 89a5 ccbc a2d5 3b3e
00000300: e8dc bbbd bfcb 63bc a2b6 dcbd 8171 8ebc
00000310: 16ae 3f3e 7a1f e0bd 0dde f138 94e6 a83b
00000320: 9a36 02bc 8c8f 2abe 0451 e0bc 7f78 febd
00000330: 5576 e6bc 2941 0d39 19ab fa3d 9e87 ebbc
00000340: 3229 943e 1fd7 b5ba 4f11 003e d64b 183e
00000350: d64c 933d 4951 2ebe cc36 a5bd 0957 25be
00000360: d35c 023e cf15 a2bc a7ba 6abc 12e3 85bd
00000370: c109 93bd 39a2 943d 679d 833d c185 953e
00000380: f68b c93d 1d89 433d a317 bebd 3452 87bd
00000390: 04d0 403e 47bb 943d 1a2f 303d a489 333d
000003a0: aa6a 1f3d 2236 1d3e 3add 6f3d 6517 053e
000003b0: a84a 1e3d 79f2 96bd 8829 97bd 0d68 8f3c
000003c0: 5f45 11bd 72e5 17be 06d9 ff3d a47f 50bd
000003d0: 8a10 46be 4135 c73b 7ff3 5f3e 1208 1bbd
000003e0: 2bb4 d1ba 7e5c 9dbd 4a15 89bd 1f39 843d
000003f0: b218 503d 17c3 43bd 42f2 a1bc c09a c83d
-0.007864589 0.17277288 -0.104111426 0.09098006 0.05709453 0.20439456 -0.05781286 0.11995958
0.19353113 0.013883115 0.1513263 -0.08067725 -0.37485072 0.002640206 0.12305073 0.07669254
0.057702865 0.17900907 -0.06494967 0.089226454 -0.010502583 0.095807515 -0.067535736 0.16891654
-0.11355818 -0.107616685 0.041806795 -0.017491862 9.9598685e-05 0.24328245 0.020769615 0.047662392
-0.16350849 0.0047802557 -0.3772922 -0.0026906354 0.24979219 -0.043812886 0.117205344 -0.11032815
0.14100797 -0.06251724 0.18224595 -0.03301444 0.055754513 0.15164335 0.18407789 -0.013399548
0.11975964 0.027998054 -0.08614481 0.16259973 0.03860965 0.07604999 -0.36429626 0.3200841
0.10980193 -0.108003825 -0.25202608 -0.12947111 -0.00827748 0.051511843 -0.089779645 -0.29386276
0.17292887 -0.027265394 0.27424577 -0.047700558 -0.067851916 0.007419702 0.18406028 -0.1868901
0.033883724 0.095354386 0.061247453 0.19228792 -0.09021713 0.055086758 0.0019937626 0.10574269
-0.105688095 -0.082251884 -0.14201689 -0.09804997 -0.027280917 0.23388816 0.3146602 0.18462372
0.008826815 0.12949187 -0.07385499 0.010873672 -0.09072319 0.09179343 -0.012432013 -0.057718523
0.06149999 -0.0626124 0.0468737 0.25246114 0.063653246 0.14910567 0.009517576 -0.017136388
-0.30861023 -0.11355113 -0.05940327 0.12201661 0.20947042 -0.020630294 0.3013927 -0.07822112
-0.05107915 0.07441207 -0.06799673 -0.11790426 0.06791786 -0.094594486 0.15411253 0.0411642
0.041025866 -0.05967557 0.26704624 0.116523996 0.17404151 -0.15417686 -0.037527684 0.002426796
0.14343388 0.115171045 -0.13811097 0.045419984 0.12435042 0.10022562 -0.010586645 -0.0812851
0.08529263 -0.3018783 -0.052104924 0.066936485 0.10989118 0.0530133 0.097558364 -0.2591827
0.057533864 0.045265354 -0.20775045 0.09065426 0.0605502 0.26050732 0.10588397 0.12868825
-0.012525671 0.0250931 -0.27941862 -0.11066876 0.2429791 -0.070525885 0.016903423 -0.18391658
0.081429355 -0.02330307 -0.10365011 0.10254135 -0.035456743 0.0026011309 0.13354543 0.053881362
-0.07378944 -0.01383717 -0.009327532 -0.06101003 0.11587325 -0.11644184 -0.07997718 -0.06257523
-0.025233086 -0.015030397 -0.09698727 0.0065810443 0.068211764 0.09037663 -0.0014246724 -0.06907892
0.18740869 -0.10337286 0.08299599 -0.26629356 0.011770447 0.16786268 -0.024981277 0.18343213
-0.09172994 -0.013903557 -0.10777022 -0.017388107 0.18718752 -0.10943504 0.00011533136 0.00515444
-0.007947588 -0.16656321 -0.027382381 -0.124253266 -0.028132597 0.00013471082 0.122396655 -0.02875119
0.2893768 -0.0013873315 0.12506603 0.14872679 0.0719239 -0.17023195 -0.08067092 -0.16146483
0.12730722 -0.01978579 -0.014326728 -0.06537451 -0.07179595 0.07257504 0.064265065 0.2920361
0.098411486 0.047738183 -0.09281852 -0.06607476 0.18829352 0.07262283 0.04301367 0.043832436
0.038920082 0.15352681 0.058560587 0.12997206 0.038645416 -0.07370467 -0.07380968 0.01750567
-0.035466548 -0.1483362 0.12492566 -0.050902978 -0.19342247 0.0060793464 0.2187023 -0.037849493
-0.0015999129 -0.07683657 -0.06693514 0.064562075 0.0508048 -0.047793474 -0.019768838 0.09795141

FCNet.2.bias f4 [128]
00000000: de23 933d 9388 833d 5b1b 483d 1955 a53a
00000010: 3ce2 29bd 2daf 543d 5481 a83d 9c6a 59bd
00000020: 2651 c6bd c285 7a3b 5127 413c bead 7e3d
00000030: 17e5 f73c 138f 323d bbaa 55bd 42ae a3bc
00000040: 998c b7bd 61bd c6bd 6269 83bc bc46 b03d
00000050: 6bd3 4abd 56c7 5fbd 23b6 a23d bda8 8e3c
00000060: a759 39bd b957 9fbd 9fe4 89bd 555c b43d
00000070: 4830 09bd 861a 46bc 4304 2fbc 3035 5f3d
00000080: 5d2d fe39 a394 213d 46b2 8dbb 8c57 76bc
00000090: 4d5d 9dbd 4e3f 64bd 8f36 dfbc 418c 8abd
000000a0: e8f6 cdbc 2329 9fbd 49ef c3bd 6940 3c3e
000000b0: 6391 75bd 349f 2e3d 4009 b93d 2e5d 673c
000000c0: fc79 113d d253 bebb efd4 5ebc c215 5cbc
000000d0: fe67 cc3b 73c0 9f3d be65 ba3c 7447 bebd
000000e0: eea3 a5bd b605 8dbd f7d6 df3d 18f6 06bd
000000f0: 19a6 4e3d 151a ee3b 94e1 46bd c19b 1abd
00000100: d5f8 5c3d 91fc 8c3d 2ce1 d0bd 6d66 763d
00000110: eae6 b8bd 72a0 febc 5efc da3d b859 74bd
00000120: 05f1 e23c 21d0 82bd 4f90 1c3e 5681 a93c
00000130: 10c7 7dbd b721 bb3d 440d a33d d25b 9a3d
00000140: 6fc2 183a 8cfe 5e3d 0975 94bd 6bac 5abd
00000150: c744 d8bc 4590 253d 39f2 ed3d a6ec 453d
00000160: 6e3c 9f3a f3df 5f3d 9f74 ca3c e3e0 a53d
00000170: 5426 8f3d f5b9 3e3d 92a5 3ebd 2dd7 9b3d
00000180: 66c6 77ba 9837 5bbd 028b 3b3d 420c 273d
00000190: 65df d4bd adcc 8ebc cd66 dc3c 7ef8 a33d
000001a0: 7bf9 85bd a57a 5d3d 6a32 a73c 8940 b7bc
000001b0: f956 283d 7710 993c 0498 9abc 9ad2 703d
000001c0: 30ef 6a3d 5d6c 013e 4818 a9bd f197 adbd
000001d0: a57c 193d 9722 09bd fe53 893d 6d5d 123d
000001e0: 9d2b 373c 9d24 e33d e74d 5a3d fd08 d23d
000001f0: 8d0b 50bd 5a3d b1bd 6d07 91bd 9a98 c3ba
0.071845755 0.06422534 0.048854213 0.0012613862 -0.04147552 0.051924873 0.082277924 -0.053080186
-0.096834466 0.0038226699 0.011789159 0.062177412 0.030260606 0.043593477 -0.052164774 -0.019980554
-0.08962364 -0.0970409 -0.016041461 0.086072415 -0.04951803 -0.05463346 0.07944896 0.017414445
-0.045251515 -0.07780404 -0.06733059 0.088066734 -0.03349331 -0.012091285 -0.010682168 0.054494083
0.00048480454 0.03944839 -0.0043242304 -0.015035521 -0.07683811 -0.055724435 -0.027247695 -0.067650326
-0.025142148 -0.07771518 -0.095671244 0.18383946 -0.059953105 0.042632297 0.090349674 0.014121337
0.035516724 -0.005808332 -0.013600572 -0.013432922 0.006237983 0.07800379 0.022753593 -0.09290972
-0.08087908 -0.06885855 0.10929673 -0.032949537 0.05045137 0.007266293 -0.04855497 -0.037746195
0.053948242 0.06884111 -0.10199198 0.060156275 -0.09028418 -0.031082366 0.106926665 -0.059655875
0.027702818 -0.06387354 0.15289424 0.020691555 -0.06195742 0.0913729 0.079615146 0.075370446
0.00058273127 0.054441974 -0.07248885 -0.053387087 -0.026399983 0.04042079 0.11618466 0.04832139
0.0012148747 0.054656934 0.024713812 0.08099534 0.069897324 0.04656406 -0.04654462 0.07609401
-0.0009451866 -0.053519815 0.045786865 0.040783174 -0.103941716 -0.017431581 0.026904488 0.080063805
-0.06541725 0.05407204 0.020409781 -0.02236964 0.04109857 0.018684609 -0.018871315 0.058794595
0.057357013 0.12638994 -0.082565844 -0.08476246 0.037472386 -0.033480253 0.06705473 0.03573363
0.011179832 0.11090968 0.05329695 0.10255621 -0.050792266 -0.0865428 -0.070814945 -0.0014922798

FCNet.4.weight f4 [4, 128]
00000000: a6a7 bcbd ff21 15be 66ca a63c 6027 0bbe
00000010: ea5a 01be 0255 4fbe 8141 5cbe a6c5 7a3c
00000020: 8576 2bbb f326 9bbc a4d3 2a3d cc04 2fbe
00000030: 02bc 61bd e247 483d 915d 95bc 060b 23be
00000040: b3e1 a1bc 7d46 5bbd cef6 8fbd 606d 41be
00000050: b149 72bd c80c 2aba 7428 40be 5327 f23c
00000060: a747 603d 8ce6 38bd c76e 323d c393 1abd
00000070: 9092 613e b568 29bd 0804 2dbd 056c eebd
00000080: 93e8 1ebe f06b 6bbc 0a79 463d b022 cb3b
00000090: 1558 94bd d891 763c 0409 44be 3fa5 953b
000000a0: 284d 3fbe a4d1 6b3d ce26 36bd 42f3 243d
000000b0: 3016 8cbd 56d4 803c b115 f33d 0d13 443d
000000c0: bfaf 483a 0ed3 283e 7f48 1b3d 7704 cf3d
000000d0: c8ec fc3c 5dc8 13bd f0a5 7ebd 9d1a ed3c
000000e0: 9f85 bcbc 901d 163c e866 6fbd bd9c 853e
000000f0: c9eb 573d 9d94 a63d f9a9 b3bd 216d 5d3d
00000100: 4b96 ccbd 4160 46be e544 d73c a506 453c
00000110: 4e52 c2bd b8e1 c43d a512 25bd 2ac7 c1bc
00000120: 092a e73c 525b babc a98e 033e ed01 1c3e
00000130: bd34 063c ce5c 20be cee6 06bd 79ab 98bd
00000140: 40d1 c8bd 8adb 23bd c636 9dbd 3493 ef3c
00000150: 0278 89bd a251 46be 1e6e 13b9 35fb 2fbe
00000160: d51d 29bc 570d 4ebe 157c 893d baae 26be
00000170: 5d63 413b c193 5d3c 0502 d3bd e9c8 233c
00000180: cd9d 6a3d 467b f2bd 8d1e 20be fa02 f13c
00000190: fed6 123d fe49 a4bc fb87 f7bd 5670 30be
000001a0: 5e6a eb3c 8ef9 d2bc 6c4b e1bd 4e3f 7ebc
000001b0: b683 5a3d ab37 1bbe af07 8ebd 2ec6 14be
000001c0: 6f8f 73be b0af c9bb a6fc 003d 63ba c7bc
000001d0: 78fa 9a3c 26cf 1bbd ae11 6abd f17c 23bd
000001e0: aeb2 ec3d 4aee e9bd 08ac 8abe eeab 05be
000001f0: 2e9d 283d 7d96 d03c 74af be3b b3db 3ebe
00000200: 3345 cebe 642f a13c 630e 3e3d 31bc 9c3d
00000210: 47fd 99bc 1204 15bd aef9 8c3c a741 44bd
00000220: c538 1fbd 931b d0be 3c95 243e 1466 ebbd
00000230: ca74 0e3e a4e9 9c3d 3b66 8fbd 75a8 e2bc
00000240: 193e 803b 68c9 40bd f5f3 0fbd ad22 26be
00000250: 92df ad3c d254 9f3d ef75 0a3d b34b 143e
00000260: 534f 063d ec2d 19bd e979 c6bc 004d bc3d
00000270: 1894 413d 8bf0 f33c e69b 90bd eef4 7bbe
00000280: 0e2b bc3d 9ff0 a63d d2b5 06bb ad16 8abd
00000290: 8a6f 81bc 4ed8 dcbc cf09 143b 86e4 cabd
000002a0: 5105 81bc 903b 7ebd 0ce4 adbc fd25 53be
000002b0: 1fe3 7e3c 65e0 9a3d 486f c6bd 69f9 54bd
000002c0: bec7 803d d792 0e3e 3859 b0be aa99 483e
000002d0: 2fbb 173d 91a3 e13d b94b 26be c76f 89bd
000002e0: 6b33 2fbc 752b 65bd 711e ba3d ff75 db3d
000002f0: b99d 70bd 0299 263d a511 ea3c 38ac 6d3d
00000300: eba6 47bb 16b2 793d 7aef d83b ad34 3c3d
00000310: 7eb9 0b3d f019 e3bb cbc0 9cbe 0a5a 3c3d
00000320: e6ab a33c f986 963c b64e ccbc 66ed a23d
00000330: 9116 71bd a892 44be c200 86be a7b8 37be
00000340: 8614 8cbe adba fb3d c57a ab3c a208 4ebd
00000350: 5c12 88bd a0f0 2abe 8127 5cbe 5dc2 a4bc
00000360: 9ae5 463d ba64 e5bd ab8e 83bd 1d87 b3bd
00000370: 0c7e f4bd b0d2 da3d 8d7e d43d e076 323e
00000380: 2b0b b53d ca38 843d 5d42 60bd f751 063d
00000390: 1762 abbc f222 bc3b 9711 93be 0791 64be
000003a0: 70ab ccbd 18b7 b9bd 40d5 e53d f505 433d
000003b0: d59d 5b3c cd98 dcbe 1982 00bd 708b 5bbe
000003c0: a6f8 8abe d3ae aabe 2b51 a93d db5c 09bb
000003d0: 0b1d e3bd 98a4 47bd 2366 013d 6e27 8dbc
000003e0: 92a8 353e a0b4 55be 4729 73be ff8b 79be
000003f0: 4c61 9dbd c011 ad3c d772 98bd 9719 3abd
-0.09211664 -0.1456375 0.020360183 -0.13589239 -0.12632337 -0.20247272 -0.21509363 0.015305912
-0.0026163172 -0.01893947 0.041705742 -0.17091674 -0.05511094 0.048896678 -0.018233093 -0.15922174
-0.019760942 -0.05353402 -0.07029496 -0.1888938 -0.05915231 -0.000648689 -0.18765432 0.029559767
0.054755833 -0.04514174 0.043562677 -0.037738573 0.22028565 -0.041359622 -0.042240173 -0.11641697
-0.15518408 -0.014368996 0.048455276 0.0061992034 -0.07243363 0.01504942 -0.19144064 0.004566818
-0.18681777 0.057572976 -0.0444706 0.04027105 -0.068401694 0.01572625 0.11869372 0.04786973
0.0007655583 0.16486761 0.037910935 0.101082735 0.030874625 -0.036079753 -0.06216997 0.028943354
-0.023012934 0.009162322 -0.05844775 0.26096144 0.052715097 0.081338145 -0.08772654 0.05405915
-0.099896036 -0.19372655 0.026277969 0.01202551 -0.094883546 0.09613365 -0.040300984 -0.02365454
0.028218286 -0.022748623 0.1284739 0.1523511 0.008191285 -0.15660402 -0.032934956 -0.07454581
-0.09805536 -0.04000429 -0.07676463 0.029244997 -0.06712343 -0.19367078 -0.00014060034 -0.17185672
-0.010322054 -0.20122276 0.0671312 -0.1627759 0.0029508688 0.013523997 -0.103031196 0.009996631
0.057279397 -0.11839919 -0.15636654 0.029420365 0.035849564 -0.020054813 -0.12086483 -0.17230353
0.028737243 -0.025753763 -0.11000714 -0.015518023 0.053348266 -0.15157954 -0.06935059 -0.14528725
-0.23785184 -0.006154977 0.031490944 -0.024380868 0.018918261 -0.03803935 -0.057145767 -0.039914075
0.11557518 -0.11422403 -0.27084374 -0.13053867 0.041165523 0.025462383 0.0058192555 -0.18638496
-0.4028717 0.019675918 0.04640044 0.07653082 -0.01879753 -0.036380835 0.0172089 -0.047914173
-0.0388725 -0.40646037 0.16072553 -0.11494079 0.13911739 0.07661751 -0.07001921 -0.027668217
0.0039136526 -0.047067076 -0.035144765 -0.16224165 0.02122477 0.0777985 0.033803876 0.14482002
0.032790493 -0.03739731 -0.024228053 0.09194374 0.047260374 0.029777786 -0.07060985 -0.24605152
0.091878995 0.081513636 -0.002055515 -0.06742606 -0.015800256 -0.02695861 0.0022588854 -0.09906869
-0.015749605 -0.062068522 -0.021226905 -0.2061996 0.01555708 0.07562331 -0.09689194 -0.05199567
0.06288098 0.13923202 -0.34443069 0.19589868 0.037043747 0.11017526 -0.16239823 -0.06710773
-0.010693411 -0.055949647 0.090878375 0.10715865 -0.058744166 0.040673263 0.028572867 0.05802557
-0.003046448 0.06096085 0.0066203447 0.045948673 0.034112446 -0.006930582 -0.3061584 0.045984305
0.019979428 0.018374907 -0.024939876 0.079554364 -0.05885941 -0.1919657 -0.26172453 -0.17941533
-0.27359408 0.12291465 0.020932565 -0.0503012 -0.06644127 -0.16693354 -0.21499445 -0.02011221
0.04855881 -0.11200853 -0.06423696 -0.08766005 -0.11938104 0.10684717 0.103757 0.1742816
0.08840021 0.06456144 -0.05475079 0.03279301 -0.020920796 0.0057414705 -0.28724357 -0.22320949
-0.099936366 -0.090681255 0.11222315 0.047613103 0.013404329 -0.43085328 -0.03137407 -0.2143991
-0.2714283 -0.33336505 0.08267435 -0.0020959887 -0.11089524 -0.048740953 0.031591546 -0.017230716
0.17740086 -0.20869684 -0.23746215 -0.2436981 -0.076845735 0.021126628 -0.07443779 -0.04543456

FCNet.4.bias f4 [4]
00000000: bef1 ee3c 788e 393d 8fd6 a43d 4a6f d93d
0.029168006 0.045301884 0.08048736 0.1061693
