PPO_discrete/model/Pong-v0_c.pt (torch, 592911 bytes, 11 tensors)

net.0.weight f4 [16, 1, 8, 8]
-0.37124917 -0.023953708 0.32135662 0.77209604 -0.060991004 -0.00853324 0.16981404 -0.25220582
0.0077414387 0.19182895 0.15220122 0.20314866 0.14647788 0.27195233 0.28239998 -0.39425468
-0.0554082 0.112256944 0.63883704 0.35059458 -0.38045564 -0.111653164 0.25685683 -0.27213302
0.18167436 0.4967007 0.4827248 -0.017731776 -0.4194124 0.02897257 0.3787213 -0.29734185
0.1793724 0.30225015 -0.08518394 -0.116216004 -0.31842974 -0.1605883 0.01245235 -0.20688252
0.12601443 0.31451717 0.22744094 0.33692944 -0.16263293 0.54055667 0.17747915 -0.4289625
-0.027947186 0.31893802 -0.0092894 -0.006742399 -0.60587054 0.27802697 0.09606431 -0.29579479
-0.24275592 0.14207977 0.05360983 0.19684747 -0.29928744 0.33247393 -0.027140673 -0.2047733
0.19407363 0.36409536 0.4502849 0.18405865 0.11254314 0.0796618 -0.13264439 -0.18026148
0.012254993 0.24448861 0.31117448 0.35465613 0.27475518 -0.09234051 -0.11737058 -0.20382266
0.40507668 0.44002566 0.2741635 0.45847422 0.36333203 0.20304725 -0.12807624 -0.029258752
0.2681871 0.38785142 0.307025 0.06005885 0.13861507 0.36703712 0.13878486 0.059133578
0.4184755 0.3285277 0.31681678 0.29064173 0.101647116 0.5147904 0.26793125 0.3013383
0.41357502 0.43134704 0.36309785 0.31450662 0.25888076 0.3246052 0.16339491 0.08559494
0.29231253 0.41233096 0.5448146 0.035970032 0.0138642825 -0.22415207 -0.19069393 -0.23736942
0.28962243 0.43115172 0.26726836 0.26644915 0.09898608 -0.22193864 -0.2935387 -0.30904773
0.10277908 0.1473173 -1.100375 -0.47722533 0.117062666 0.21275263 0.15951423 0.08488943
-0.056401633 0.063701674 -0.4671777 -0.042721182 0.19563079 0.1917984 0.14927214 -0.011124522
-0.15555264 0.38226354 -0.18833977 0.096295044 0.72487164 0.58829945 0.28327912 -0.007105511
0.031573165 0.26408455 0.3366911 0.44685292 0.5187475 0.14410743 -0.3542082 -0.12143704
-0.36734214 0.03565481 -0.06477345 0.11566494 0.19415973 0.01974559 -0.05936184 -0.04199494
-0.08446001 -0.1718829 0.26442972 0.6741672 0.5239844 0.048710704 -0.050340727 -0.25520125
-0.13391289 -0.17429562 0.41345248 1.1110796 0.49898797 -0.0931124 0.031207416 0.059798516
-0.052522674 -0.15047051 0.44227484 1.1088744 0.8145575 0.4260174 0.20290422 0.014312282
-0.541582 -0.6058321 -0.5342092 -0.017184256 -0.22511774 -0.09294846 -0.051302735 0.0993887
-0.35853466 -0.56699896 -0.5789197 0.052275855 0.091383345 -0.08501751 -0.05971706 -0.054149047
-0.45319116 -1.128733 -0.9337965 -0.16559193 0.12887739 -0.047856864 0.11012135 -0.0045400364
-0.5295422 -1.095921 -1.3625629 -0.08250359 0.23000035 -0.13558343 -0.01727936 -0.07607592
-0.3047976 -0.99358326 -0.9488957 -0.09622466 0.19601992 -0.0263466 0.060264345 0.083101295
-0.27275366 -0.46871427 -1.1715775 -0.18015161 0.10412317 -0.134163 0.07508226 0.13757218
-0.18720415 -0.5926616 -1.1091276 -0.12292273 0.13024919 -0.13120623 0.0027644006 0.10902946
0.0415698 -0.10287114 -0.8478611 -0.47221887 -0.13051674 -0.15644623 0.008866018 0.0047604563
00000000: 5f14 bebe 913a c4bc db88 a43e 16a8 453f
00000010: b4d1 79bd 01cf 0bbc bbe3 2d3e 1f21 81be
00000020: e5ab fd3b cf6e 443e a3da 1b3e 3406 503e
00000030: 4cfe 153e 563d 8b3e bb96 903e c0db c9be
00000040: b5f3 62bd f8e6 e53d d38a 233f 2281 b33e
00000050: 15cb c2be 6aaa e4bd bd82 833e 0555 8bbe
00000060: d808 3a3e 8e4f fe3e b427 f73e 3b42 91bc
00000070: 39bd d6be e257 ed3c c2e7 c13e 313d 98be
00000080: 66ad 373e 88c0 9a3e eb74 aebd a802 eebd
00000090: 3909 a3be 4271 24be f104 4c3c 03d9 53be
000000a0: ed09 013e 6508 a13e 47e6 683e 0482 ac3e
000000b0: 3f89 26be ec61 0a3f 18bd 353e f9a0 dbbe
000000c0: 7ff1 e4bc d84b a33e 9132 18bc 58ef dcbb
000000d0: 551a 1bbf 8d59 8e3e 5dbd c43d 6a72 97be
000000e0: 0295 78be 5c7d 113e fb95 5b3d 6292 493e
000000f0: 343c 99be 063a aa3e 1e56 debc 18b0 51be
00000100: 3dbb 463e b56a ba3e be8b e63e df79 3c3e
00000110: 057d e63d ba25 a33d eed3 07be 7796 38be
00000120: 2bc9 483c 395b 7a3e 4352 9f3e 7d95 b53e
00000130: b6ac 8c3e 051d bdbd fd5f f0bd e3b6 50be
00000140: 3666 cf3e 0b4b e13e 295f 8c3e 22bd ea3e
00000150: a806 ba3e 9eeb 4f3e 6b26 03be 0db0 efbc
00000160: d24f 893e 7694 c63e 6132 9d3e 4500 763d
00000170: 1cf1 0d3e 4aec bb3e 9e1d 0e3e 0d36 723d
00000180: 6c42 d63e c834 a83e cf35 a23e fece 943e
00000190: 5d2c d03d 4ec9 033f 492e 893e 0349 9a3e
000001a0: 1bc0 d33e 85d9 dc3e f6e7 b93e 0307 a13e
000001b0: 058c 843e a732 a63e ff50 273e 664c af3d
000001c0: fda9 953e 0b1d d33e f878 0b3f 5055 133d
000001d0: 0427 633c 1f88 65be 4545 43be f810 73be
000001e0: 6449 943e ebbf dc3e 66d7 883e 066c 883e
000001f0: 37b9 ca3d e243 63be b44a 96be 813b 9ebe
00000200: d77d d23d 59da 163e 17d9 8cbf e156 f4be
00000210: 8dbe ef3d d3db 593e b357 233e 82da ad3d
00000220: 6605 67bd 0676 823d ea31 efbe 68fc 2ebd
00000230: 7053 483e cd66 443e ccda 183e a143 36bc
00000240: 3149 1fbe 0cb8 c33e 24dc 40be 5636 c53d
00000250: 3091 393f cb9a 163f f609 913e 59d5 e8bb
00000260: dd52 013d 1736 873e c762 ac3e e8c9 e43e
00000270: a3cc 043f e690 133e c75a b5be fcb3 f8bd
00000280: 4514 bcbe c70a 123d f1a7 84bd bde1 ec3d
00000290: cfd1 463e 81c1 a13c 6725 73bd e302 2cbd
000002a0: 5ff9 acbd 1202 30be 5563 873e 3996 2c3f
000002b0: d723 063f e084 473d 1432 4ebd bda9 82be
000002c0: 7620 09be 8d7a 32be 0bb0 d33e db37 8e3f
000002d0: 5a7b ff3e b7b1 bebd b2a6 ff3c 4aef 743d
000002e0: 0422 57bd f114 1abe d971 e23e 99ef 8d3f
000002f0: d786 503f f41e da3e 20c6 4f3e 107e 6a3c
00000300: 1ea5 0abf d017 1bbf efc1 08bf ffc5 8cbc
00000310: 4485 66be c35b bebd d122 52bd 4e8c cb3d
00000320: db91 b7be d826 11bf 1534 14bf 351f 563d
00000330: 3127 bb3d a91d aebd e099 74bd 64cb 5dbd
00000340: ac08 e8be 537a 90bf 4a0d 6fbf ee90 29be
00000350: 6ff8 033e 8f05 44bd 4d87 e13d 96c4 94bb
00000360: 1490 07bf 2447 8cbf 7668 aebf a4f7 a8bd
00000370: 3685 6b3e 62d6 0abe 728d 8dbc b1cd 9bbd
00000380: 6e0e 9cbe 795b 7ebf d4ea 72bf 6f11 c5bd
00000390: 72b9 483e d3d4 d7bc bfd7 763d 0331 aa3d
000003a0: 5ea6 8bbe 51fb efbe 40f6 95bf aa79 38be
000003b0: 873e d53d 0762 09be bac4 993d b9df 0c3e
000003c0: 72b2 3fbe acb8 17bf e5f7 8dbf eabe fbbd
000003d0: 0b60 053e ed5a 06be f22a 353b d64a df3d
000003e0: 1845 2a3d 1bae d2bd 6d0d 59bf acc6 f1be
000003f0: 2ea6 05be 7133 20be c642 113c 9afd 9b3b

net.0.bias f4 [16]
-0.005322782 0.024863807 0.007692396 0.07222589 0.037056684 -0.011130426 0.06564682 0.050821017
-0.008705543 0.1090676 -0.013536762 -1.5016122e-05 0.06403646 -0.0070383656 0.097845495 0.1977896
00000000: bb6a aebb 2faf cb3c 7f10 fc3b 2beb 933d
00000010: c0c8 173d 645c 36bc d771 863d b329 503d
00000020: b2a1 0ebc d55e df3d 4cc9 5dbc c1ed 7bb7
00000030: 8c25 833d 17a2 e6bb 3863 c83d 5b89 4a3e

net.2.weight f4 [32, 16, 4, 4]
0.28453335 0.447833 -0.089721285 -0.28352138 0.23750092 0.16695784 -0.21423118 -0.7140401
-0.025359679 0.537783 -0.20077577 -0.32513765 0.25545835 0.51840234 -0.003123076 -0.15999877
0.18417513 0.22818014 -0.205741 -0.26418468 0.27508128 0.03651681 -0.045541376 -0.026762214
-0.016252745 -0.17686604 0.005274938 -0.09074175 -0.13032779 -0.12801203 -0.15506732 -0.4480353
0.33006516 0.46026888 -0.08882723 -0.33990252 0.35938224 0.38671654 -0.3495605 -0.07406319
0.18963403 0.2292494 -0.18628296 -0.18319947 0.045286547 0.15869969 -0.18394107 -0.04703437
0.115586914 0.03502935 0.046364468 0.26015645 -0.015457727 -0.12566215 0.037866693 0.101624414
-0.120734975 -0.053764198 0.050515268 0.19206804 -0.6907465 0.23880284 0.027363148 0.0147942295
0.5520492 0.2720125 0.04779719 -0.33389553 0.16003317 0.011945406 -0.08912478 -0.55986655
-0.14471915 0.11163928 0.034287386 -0.60149205 -0.2350166 0.3149346 -0.18474302 -0.20513305
0.5903789 0.41673446 0.13741556 -0.2830788 0.23455514 0.16694222 0.048089787 -0.51412016
0.059594467 0.13214411 0.15351145 -0.21948177 0.38921395 0.33798528 0.19022943 -0.08061341
0.06784254 -0.061744012 0.054481443 0.07059915 -0.2036497 -0.083312444 0.13098313 0.12986898
-0.40732816 -0.13129856 0.04213747 0.1879702 -0.2808168 0.051784538 0.008162871 0.16201939
0.37202063 -0.0005968347 0.121495456 -0.025469001 -0.08674183 0.033570815 0.0110355895 -0.2950749
-0.13140681 0.2946953 0.012562629 -0.1664435 -0.18693107 0.17988707 0.23263057 0.027026149
0.66412395 0.5008702 -0.25491285 -0.45241576 0.7625167 0.30492046 -0.5345812 -0.6450133
0.27704442 0.29840818 -0.34730697 -0.01014898 0.08951545 0.5212898 -0.21089719 -0.2134089
0.20809317 -0.02887646 -0.43930674 -0.015804976 -0.043151356 -0.1133536 -0.31112504 0.18166327
-0.2227358 -0.07643193 -0.48348755 0.20253733 -0.10800716 -0.29490045 -0.45361692 -0.031281643
0.50907326 0.22252192 0.17105551 -0.07847019 0.23417966 -0.10557918 -0.10916668 -0.27629238
0.10670829 0.09259815 -0.06817526 0.19527282 0.17983548 0.34834498 0.036031883 0.15553306
0.39747682 0.18959184 0.07327382 -0.2710615 0.22403394 0.21697152 0.08449432 -0.34651232
0.18052594 0.15722573 -0.024646355 -0.09666461 0.33969063 0.21009323 0.27316064 -0.17667094
0.0888847 0.07342495 -0.059333928 0.07229061 -0.22747736 0.05441961 0.0067337826 0.14748828
-0.18535392 0.11090997 -0.11726691 0.045713883 -0.072647825 -0.067764156 0.01721373 -0.0010491859
0.65533483 0.41697684 0.03382062 -0.6565458 0.29003137 0.47978947 0.20919034 -0.39345667
0.22886077 0.48396328 0.14422259 0.0007584457 0.22550686 0.41854042 0.08608729 -0.13326314
0.17647286 0.26624677 0.016983945 -0.04573929 0.0069335704 0.014293516 -0.039479684 -0.040578768
-0.2598338 -0.07036863 -0.07209455 0.12802656 0.02717261 0.17608754 0.13336118 0.072911195
0.064229995 -0.054845504 0.040244892 0.026135053 -0.022908244 0.064234085 -0.025782453 0.11191559
-0.04977681 0.23022228 -0.15203236 -0.042529922 -0.13706587 0.1520153 -0.123019524 0.017660271
00000000: 5bae 913e 5e4a e53e cbbf b7bd b729 91be
00000010: 7133 733e fff6 2a3e 6b5f 5bbe 55cb 36bf
00000020: 1abf cfbc 26ac 093f 2a98 4dbe 7178 a6be
00000030: 70cb 823e 04b6 043f 85ac 4cbb b8d6 23be
00000040: 6898 3c3e 0ea8 693e c5ad 52be 3743 87be
00000050: 74d7 8c3e a792 153d 9889 3abd 6e3c dbbc
00000060: 7a24 85bc 5f1c 35be 63d9 ac3b d0d6 b9bd
00000070: a674 05be 9615 03be f8c9 1ebe e264 e5be
00000080: 4dfe a83e 5da8 eb3e 0deb b5bd b407 aebe
00000090: f300 b83e b6ff c53e 98f9 b2be 71ae 97bd
000000a0: 6c2f 423e 5bc0 6a3e f6c0 3ebe a498 3bbe
000000b0: 637e 393d 2c82 223e 0c5b 3cbe 1da7 40bd
000000c0: d5b8 ec3d f07a 0f3d abe8 3d3d 3a33 853e
000000d0: 6842 7dbc 94ad 00be 1b1a 1b3d 7620 d03d
000000e0: e643 f7bd d937 5cbd 19e9 4e3d 7cad 443e
000000f0: c3d4 30bf bb88 743e ae28 e03c 7f63 723c
00000100: 1953 0d3f 3945 8b3e fcc6 433d 5bf4 aabe
00000110: bcdf 233e aab6 433c 0d87 b6bd 6a53 0fbf
00000120: 4231 14be 23a3 e43d ee70 0c3d 62fb 19bf
00000130: 31a8 70be 1c3f a13e 462d 3dbe 660e 52be
00000140: 1223 173f 385e d53e aab6 0c3e b4ef 90be
00000150: 392f 703e e7f2 2a3e ccf9 443d 619d 03bf
00000160: 5419 743d c950 073e 1b32 1d3e d4bf 60be
00000170: 0d47 c73e 680c ad3e 81cb 423e a518 a5bd
00000180: 08f1 8a3d 4ae7 7cbd ef27 5f3d 4a96 903d
00000190: 8c89 50be b79f aabd 7120 063e 60fc 043e
000001a0: 518d d0be 2173 06be 5798 2c3d 437b 403e
000001b0: 38c7 8fbe 061c 543d 90bd 053c 69e8 253e
000001c0: 7d79 be3e e674 1cba 9cd2 f83d 5ea4 d0bc
000001d0: b3a5 b1bd 8d81 093d 9ece 343c 0f14 97be
000001e0: 828f 06be 4de2 963e 7cd3 4d3c 2a70 2abe
000001f0: dc6a 3fbe 5134 383e b536 6e3e f165 dd3c
00000200: 0704 2a3f 0839 003f f083 82be 0aa3 e7be
00000210: 4b34 433f 891e 9c3e 50da 08bf 971f 25bf
00000220: c4d8 8d3e f5c8 983e 38d2 b1be e847 26bc
00000230: e053 b73d 4073 053f 6ff5 57be dd87 5abe
00000240: 6016 553e 538e ecbc d0ec e0be 7079 81bc
00000250: 7abf 30bd ef25 e8bd c84b 9fbe f005 3a3e
00000260: db14 64be 5888 9cbd ae8b f7be f265 4f3e
00000270: dc32 ddbd 31fd 96be 7a40 e8be 2e21 00bd
00000280: a052 023f c9dc 633e 2d29 2f3e fbb4 a0bd
00000290: cbcc 6f3e e639 d8bd c892 dfbd 3276 8dbe
000002a0: e089 da3d 19a4 bd3d 799f 8bbd 99f5 473e
000002b0: cb26 383e 465a b23e 2b96 133d 0f44 1f3e
000002c0: 1582 cb3e 5d24 423e 9610 963d 93c8 8abe
000002d0: 2769 653e c82d 5e3e 5c0b ad3d 106a b1be
000002e0: cbdb 383e c8ff 203e 27e7 c9bc 18f8 c5bd
000002f0: eeeb ad3e ae22 573e b6db 8b3e 3ae9 34be
00000300: 2e09 b63d d25f 963d 2208 73bd 190d 943d
00000310: d3ef 68be 19e7 5e3d 10a7 dc3b 2b07 173e
00000320: 6bcd 3dbe c424 e33d a229 f0bd 7b3e 3b3d
00000330: 62c8 94bd efc7 8abd cf03 8d3c d684 89ba
00000340: 06c4 273f fd7d d53e 7e87 0a3d 6313 28bf
00000350: fe7e 943e f7a6 f53e fe35 563e 2773 c9be
00000360: 7a5a 6a3e 09ca f73e 16af 133e 6ed2 463a
00000370: 45eb 663e ee4a d63e 884e b03d 2276 08be
00000380: 4db5 343e 7f51 883e ea21 8b3c 1f59 3bbd
00000390: 0133 e33b 5a2f 6a3c 73b5 21bd ec35 26bd
000003a0: f008 85be 6e1d 90bd 4fa6 93bd 6519 033e
000003b0: 1899 de3c 4b50 343e d58f 083e 7752 953d
000003c0: 048b 833d aea5 60bd d4d7 243d 2e19 d63c
000003d0: 12aa bbbc 298d 833d b935 d3bc 0034 e53d
000003e0: c5e2 4bbd 64bf 6b3e 5fae 1bbe db33 2ebd
000003f0: ff5a 0cbe e6a9 1b3e a9f1 fbbd 46ac 903c

net.2.bias f4 [32]
0.18389623 0.112559125 0.23501685 0.25516817 0.4021427 0.17571278 0.48789778 0.049630057
0.31582853 0.20979097 0.5001581 0.3653351 0.16468564 0.499734 0.25086847 0.5537871
0.38000163 0.3413241 0.35771322 0.31883085 0.24532369 0.19780117 0.2305082 0.27111632
-0.08875122 -0.014353715 -0.10350664 0.48328617 0.29873085 0.1837647 0.10242013 0.32857385
00000000: 4b4f 3c3e 6685 e63d 42a8 703e 67a5 823e
00000010: a6e5 cd3e 0dee 333e bdcd f93e e348 4b3d
00000020: 47b4 a13e 72d3 563e 5c0a 003f 340d bb3e
00000030: 5aa3 283e 23dd ff3e d571 803e fec4 0d3f
00000040: 938f c23e 08c2 ae3e 3026 b73e cc3d a33e
00000050: 2236 7b3e 648c 4a3e 570a 6c3e c2cf 8a3e
00000060: 33c3 b5bd d82b 6bbc 4afb d3bd 4971 f73e
00000070: 40f3 983e d02c 3c3e a5c1 d13d d53a a83e

net.4.weight f4 [64, 32, 3, 3]
0.10996765 0.19591744 0.20696828 0.23420371 0.6594883 0.086503126 0.045319773 -0.28446856
-0.08610436 0.039197613 -0.18607526 0.21024589 0.031379297 -0.26193535 0.04612015 -0.23124926
-0.15242061 0.14500321 -0.09436382 0.109278 0.11130598 -0.15026149 0.44517317 -0.26024792
0.0035315985 -0.17385171 -0.40173936 0.24428792 0.07694345 0.27886006 0.12669085 0.3595266
-0.059873436 0.048544385 -0.3571917 0.22794934 0.5864856 -0.022883894 0.115699805 0.50317705
0.33542258 -0.029466752 0.09741023 -0.36643076 -0.09087387 0.03780746 0.11543431 0.20363003
-0.10290123 -0.17792164 -0.36978397 -0.2259161 -0.16658503 -0.14796014 0.29945594 0.30804938
0.25296608 0.6698468 0.37321433 -0.6765117 0.25901973 0.043179076 -0.3688163 0.08398929
-0.40094262 -0.15378672 0.034552053 -0.15506922 -0.0061821234 -0.10793223 -0.22989433 0.02431998
0.0037746723 0.29069084 -0.24617389 0.17157596 0.53591377 -0.21498413 -0.05448358 0.13395481
-0.5203285 -0.09092152 -0.049817745 -0.2061127 0.021878134 0.039653625 0.15024076 -0.085436404
-0.03802648 0.4319926 -0.08271663 0.18515648 0.1341555 0.22817281 0.6612426 0.11628543
0.10059797 0.26339594 -0.14859806 -0.06968267 0.08390241 0.0006742717 -0.014759893 -0.4093241
-0.12907073 0.12057837 -0.44089755 0.0029894619 0.16782594 -0.22447142 0.073185794 -0.20678021
0.07175169 0.34302413 0.031861585 -0.17903711 -0.1279312 0.47834605 0.2667667 0.025447601
0.97683346 -0.08525053 -0.11747912 -0.011465659 -0.4928688 0.08352623 -0.10906188 -0.18306598
0.1861648 -0.0112626385 -0.6492654 0.051555067 0.21624088 0.03414969 -0.15952846 0.2761907
-0.058658063 -0.24776673 -0.04086169 0.3289813 0.014249848 0.06222138 -0.14691408 -0.06305365
0.12325419 -0.30235144 -0.13504311 0.015221093 0.2728535 -0.28286797 0.20079629 0.15252517
0.27327463 0.14589657 0.23128945 -0.12868299 0.46203083 0.54923713 -0.26281828 -0.016008936
-0.2323071 0.10500895 0.008003444 -0.014238342 -0.029736659 0.55028766 -0.17670357 -0.30721405
0.032315638 0.1936513 -0.067229696 0.3940454 0.204983 -0.1529017 0.26841992 -0.1756222
-0.5837312 0.2886345 -0.48593697 0.12990534 -0.35630018 0.12568903 0.12643266 -0.38805532
0.2753666 0.021555213 -0.38851246 0.1734558 0.09576215 0.12540586 0.05323813 0.06454792
0.03533235 0.09098876 0.051424127 0.05931014 0.23096907 -0.11317104 0.041218758 0.10893844
-0.13591959 0.56854695 0.29423854 -0.5423154 -0.15739584 -0.3270687 -0.018486159 -0.42082638
0.090711094 0.105028026 -0.048436884 0.12859687 -0.16750516 0.1452978 0.071260564 -0.03119713
0.0066201827 0.11814812 -0.06040375 -0.13451888 -0.0454844 -0.415097 -0.038400386 -0.27824494
-0.29780248 0.047074102 -0.11633455 0.08358245 0.15290317 0.16171739 0.014102962 0.2591558
-0.21593978 0.025637731 0.06382989 0.10098873 -0.14430135 -0.0076943818 -0.31030518 -0.100392945
-0.39140797 -0.076168455 0.1095468 -0.10184385 -0.10465941 0.4484942 0.23283508 0.49704963
-0.21797313 0.10163074 -0.6406063 -0.2687676 -0.22004853 -0.009967928 -0.42178348 0.055361792
00000000: b836 e13d 959e 483e 7eef 533e 19d3 6f3e
00000010: 3ad4 283f 8d28 b13d 3aa1 393d dda5 91be
00000020: 7c57 b0bd ad8d 203d 838a 3ebe b34a 573e
00000030: 9487 003d 641c 86be 7be8 3c3d 9bcc 6cbe
00000040: 2614 1cbe b97b 143e d241 c1bd 25cd df3d
00000050: 64f4 e33d 26de 19be bded e33e 373f 85be
00000060: 6472 673b 2f06 32be c8b0 cdbe 9d26 7a3e
00000070: 8794 9d3d bfc6 8e3e 3fbb 013e df13 b83e
00000080: d93d 75bd 7ad6 463d d5e1 b6be 8d6b 693e
00000090: ec23 163f 0177 bbbc 05f4 ec3d 36d0 003f
000000a0: 82bc ab3e 4264 f1bc 047f c73d d09c bbbe
000000b0: 141c babd ffdb 1a3d d368 ec3d 6484 503e
000000c0: e1bd d2bd 1731 36be 5354 bdbe 8d56 67be
000000d0: 4495 2abe dd82 17be 4a52 993e a6b8 9d3e
000000e0: c584 813e 147b 2b3f f315 bf3e df2f 2dbf
000000f0: 3c9e 843e 8bdc 303d 7dd5 bcbe 9402 ac3d
00000100: 5a48 cdbe 447a 1dbe 7486 0d3d 77ca 1ebe
00000110: 6993 cabb 930b ddbd 6b69 6bbe b23a c73c
00000120: 7e60 773b 6ed5 943e 0215 7cbe 9cb1 2f3e
00000130: a531 093f cd24 5cbe 2d2a 5fbd 732b 093e
00000140: 4034 05bf 1035 babd b10d 4cbd 350f 53be
00000150: c639 b33c d76b 223d b7d8 193e 48f9 aebd
00000160: a7c1 1bbd 222e dd3e 5667 a9bd a999 3d3e
00000170: 0f60 093e 22a6 693e 3247 293f 0e27 ee3d
00000180: 4f06 ce3d d5db 863e 172a 18be cab5 8ebd
00000190: 07d5 ab3d 9cc1 303a 7ad3 71bc ee92 d1be
000001a0: 1e2b 04be cbf1 f63d 53bd e1be d9ea 433b
000001b0: 90da 2b3e d6db 65be 6fe2 953d 31be 53be
000001c0: 8df2 923d dca0 af3e 4b81 023d 8155 37be
000001d0: 6600 03be c6e9 f43e a595 883e 7d77 d03c
000001e0: c211 7a3f d497 aebd e598 f0bd 76da 3bbc
000001f0: 4d59 fcbe cd0f ab3d d65b dfbd a675 3bbe
00000200: fca1 3e3e ee86 38bc 4236 26bf 682b 533d
00000210: 406e 5d3e 8ce0 0b3d 6e5b 23be de68 8d3e
00000220: 7043 70bd 90b6 7dbe 965e 27bd 3d70 a83e
00000230: 3278 693c d9db 7e3d a570 16be 4622 81bd
00000240: b16c fc3d cfcd 9abe be48 0abe e461 793c
00000250: 74b3 8b3e 12d4 90be 8b9d 4d3e 8f2f 1c3e
00000260: a7ea 8b3e e965 153e 24d7 6c3e 79c5 03be
00000270: 4e8f ec3e ce9a 0c3f 1e90 86be 2c25 83bc
00000280: eae1 6dbe ef0e d73d e120 033c ef47 69bc
00000290: 4b9a f3bc a7df 0c3f c8f1 34be 294b 9dbe
000002a0: 675d 043d 874c 463e b9af 89bd 52c0 c93e
000002b0: 10e7 513e 4392 1cbe 566e 893e 4ed6 33be
000002c0: 686f 15bf e7c7 933e bbcc f8be e805 053e
000002d0: fa6c b6be a0b4 003e 9077 013e 30af c6be
000002e0: dafc 8c3e 8f94 b03c 1beb c6be 669e 313e
000002f0: f21e c43d 656a 003e 3a10 5a3d b331 843d
00000300: a7b8 103d 5158 ba3d 1ba2 523d 30ef 723d
00000310: 2883 6c3e 38c6 e7bd 00d5 283d 1e1b df3d
00000320: 812e 0bbe 4b8c 113f 6fa6 963e 2fd5 0abf
00000330: 602c 21be 8c75 a7be 4970 97bc 8e76 d7be
00000340: bdc6 b93d ef18 d73d c165 46bd e6ae 033e
00000350: 7986 2bbe f2c8 143e 0ff1 913d 2091 ffbc
00000360: 1eee d83b a4f7 f13d ec69 77bd 51bf 09be
00000370: da4d 3abd 9887 d4be b949 1dbd 1f76 8ebe
00000380: 9179 98be c6d0 403d cf40 eebd 472d ab3d
00000390: a692 1c3e 3e99 253e 1c10 673c 12b0 843e
000003a0: 511f 5dbe 3806 d23c 3fb9 823d 2ed3 ce3d
000003b0: bcc3 13be 2721 fcbb 52e0 9ebe d19a cdbd
000003c0: a066 c8be 35fe 9bbd 135a e03d 8293 d0bd
000003d0: ac57 d6bd 08a1 e53e 526c 6e3e 4a7d fe3e
000003e0: 5934 5fbe c723 d03d c6fe 23bf e89b 89be
000003f0: 6754 61be 8550 23bc 01f4 d7be 0cc3 623d

net.4.bias f4 [64]
0.19586778 0.2161988 0.072304785 0.1553615 0.20507178 0.11747864 0.23625022 0.26123556
0.09245768 0.059217058 0.21649882 -0.020294102 0.042769995 0.056216687 0.21004415 0.23581196
0.25602102 0.096412644 0.19783773 0.0059713684 -0.16771996 0.09952595 0.19350699 0.03559644
0.08390817 0.15097386 -0.19376206 0.22595295 0.27115235 0.19617467 0.054857485 0.103407875
0.060906146 -0.0887233 -0.048156727 0.040074345 -0.050792832 -0.120667614 -0.061266758 0.16299221
0.083549 -0.034357414 0.04142541 0.18785991 0.15916556 0.06014485 0.2083372 0.099000625
0.038441163 0.13932468 0.29310584 -0.03748933 0.072361544 -0.04272442 0.12045376 -0.030942516
0.14976346 0.1608057 0.1721254 0.17256626 0.07930868 -0.073038004 0.11817938 0.18103875
00000000: 9091 483e 3863 5d3e 8814 943d 1617 1f3e
00000010: 56fe 513e a498 f03d 94eb 713e abc0 853e
00000020: 745a bd3d 968d 723d deb1 5d3e d13f a6bc
00000030: 972f 2f3d 7843 663d d015 573e b178 713e
00000040: 3015 833e fe73 c53d f995 4a3e 78ab c33b
00000050: c8be 2bbe 43d4 cb3d b226 463e 93cd 113d
00000060: 0cd8 ab3d e498 1a3e 9069 46be 3660 673e
00000070: 7bd4 8a3e 03e2 483e 3eb2 603d 82c7 d33d
00000080: b978 793d 90b4 b5bd fd3f 45bd ff24 243d
00000090: 250c 50bd 9520 f7bd daf2 7abd 6ee7 263e
000000a0: bd1b ab3d 5cba 0cbd b1ad 293d 595e 403e
000000b0: 4cfc 223e 725a 763d 5956 553e d7c0 ca3d
000000c0: 7b74 1d3d 21ab 0e3e f811 963e 698e 19bd
000000d0: 4a32 943d cdff 2ebd 76b0 f63d 297b fdbc
000000e0: 985b 193e 40aa 243e a441 303e 36b5 303e
000000f0: 976c a23d f394 95bd 0808 f23d 3962 393e

net.6.weight f4 [64, 64, 5, 5]
-0.25830257 0.002408215 0.023351833 0.07482565 0.040620487 0.29044956 -0.02289093 0.0113096265
-0.03925201 0.11324202 0.09406609 -0.019408146 0.10808283 -0.24976067 0.120399006 0.14836589
0.02918373 0.040129762 -0.2607088 0.001288789 -0.04008368 -0.1331092 -0.0012488908 -0.04972752
-0.16272372 -0.054620277 -0.019160325 0.257496 0.0037711102 0.18595985 0.3289273 -0.04604715
-0.35186344 -0.11712956 0.035285566 0.4685449 -0.14116956 -0.15197404 0.002159945 0.13851663
-0.18782943 0.07547738 -0.03546271 0.24769549 -0.31025618 -0.14364378 0.021612082 0.018332249
-0.07920793 0.05283507 -0.3398233 -0.14260483 -0.32010117 0.013501713 -0.13238537 -0.21550867
0.10647562 0.2957525 -0.20110728 -0.09408685 0.25505695 0.03748036 -0.10599782 -0.33997348
0.07153025 0.32320368 0.04522052 -0.055272583 -0.29564762 0.21628657 -0.6592481 0.06137362
-0.13570532 0.20872425 0.021015503 0.1432431 0.052552596 -0.069864586 0.118740626 0.022446066
-0.34363267 0.16839631 0.05246594 -0.07539995 0.0928195 -0.0069823614 0.38754442 -0.20700856
-0.22852567 0.0036588516 -0.3229861 0.26101023 -0.06535762 -0.16738006 0.052682616 -0.6719567
0.08555848 0.11681478 -0.17663397 -0.040127244 0.15598257 0.057494167 0.06851372 -0.07618496
-0.16838942 -0.041412786 0.03502803 -0.14643644 0.15496263 -0.08044121 -0.060681336 -0.058700744
0.12808748 0.0036921755 -0.21667069 0.0640967 -0.004939316 0.006796011 -0.00034730937 -0.22885056
0.10482238 0.178779 0.20834236 -0.13199778 -0.28280488 -0.09062852 -0.15340354 -0.04217938
0.26302123 -0.15684384 0.1816715 0.22542922 0.08213983 -0.12225165 -0.19176415 0.22159125
0.044466026 0.16650212 -0.18585144 -0.09949911 -0.33479136 0.080831334 -0.19494952 0.040017955
-0.093676604 -0.024389941 0.027545981 0.13640699 0.032260474 -0.10641849 -1.2134824 -0.040636666
0.23906624 0.06346761 -0.010527507 -0.13552035 0.08773965 0.18679501 0.22619683 -0.03298765
0.1341683 -0.03273285 -0.06354047 -0.17726403 -0.073808126 0.17293322 0.11674664 0.074086174
0.09383034 0.042787325 -0.026419278 -0.04124473 -0.05737525 -0.071670175 -0.048871346 0.2973652
0.0765041 0.15179782 0.06616294 0.027365737 -0.2563575 -0.014590335 -0.10802994 -0.09726885
-0.037516087 0.2869725 0.077510744 -0.086725034 -0.18665686 0.015131773 0.15164411 -0.1766072
0.060555346 0.07239824 0.115003504 0.023449276 0.16362314 0.08648931 0.098228216 -0.20560005
0.2901982 0.27145565 0.07559781 0.08311518 0.16652496 -0.071378075 -0.014724607 0.07147543
-0.50534904 0.032016404 -0.1163733 0.12865329 0.23624659 -0.09578574 -0.034122888 -0.1360907
-0.076264665 0.070238814 0.060849532 -0.04539136 -0.28499144 -0.16553763 0.098598465 0.13929912
0.17467605 0.045013946 -0.15477945 -0.03202105 0.18112008 0.09219054 -0.10200764 0.02681796
-0.36965793 -0.13358797 -0.011190643 0.18120827 0.026679683 -0.80897903 0.19690993 -0.04387466
-0.02483957 0.07477376 -0.14192016 0.104639895 -0.15632269 -0.03853664 0.09285591 0.27531442
-0.29099107 0.15932713 -0.21148852 0.21049497 0.5364736 0.13822316 0.16624363 -0.056277562
00000000: 3c40 84be 25d3 1d3b 584c bf3c 313e 993d
00000010: ab61 263d ceb5 943e c285 bbbc 034c 393c
00000020: b7c6 20bd 6feb e73d b9a5 c03d d5fd 9ebc
00000030: 885a dd3d 43c1 7fbe c193 f63d 3aed 173e
00000040: b812 ef3c 1b5f 243d a07b 85be 95ec a83a
00000050: c92e 24bd c74d 08be d2b1 a3ba 16af 4bbd
00000060: 0ca1 26be 83b9 5fbd 1df6 9cbc 84d6 833e
00000070: bb24 773b 426c 3e3e 2969 a83e f09b 3cbd
00000080: 7227 b4be 9fe1 efbd 9987 103d 1ee5 ef3e
00000090: c18e 10be 159f 1bbe dd8d 0d3b 4ed7 0d3e
000000a0: 5c56 40be e293 9a3d 5941 11bd e3a3 7d3e
000000b0: e6d9 9ebe 5b17 13be d20b b13c 832d 963c
000000c0: c437 a2bd 9669 583d 52fd adbe 0007 12be
000000d0: 4de4 a3be 4a36 5d3c 0890 07be 4eae 5cbe
000000e0: e40f da3d df6c 973e 11ef 4dbe 9bb0 c0bd
000000f0: d396 823e 0285 193d 6315 d9bd 0111 aebe
00000100: 747e 923d f47a a53e 2739 393d 8165 62bd
00000110: 205f 97be 3a7a 5d3e 7cc4 28bf e862 7b3d
00000120: 56f6 0abe cfbb 553e b428 ac3c 52ae 123e
00000130: 6441 573d 2a15 8fbd 492e f33d d0e0 b73c
00000140: 9ff0 afbe 1570 2c3e 87e6 563d 4a6b 9abd
00000150: 2618 be3d 4bcc e4bb 396c c63e 0dfa 53be
00000160: a202 6abe 58c9 6f3b 6f5e a5be 22a3 853e
00000170: 37da 85bd ae65 2bbe bac9 573d 5b05 2cbf
00000180: 4939 af3d 963c ef3d 89df 34be 775c 24bd
00000190: e5b9 1f3e 017f 6b3d ec50 8c3d dc06 9cbd
000001a0: 476e 2cbe 74a0 29bd 8d79 0f3d 6ff3 15be
000001b0: 86ae 1e3e 5cbe a4bd fe8c 78bd 3170 70bd
000001c0: 5d29 033e 6df8 713b ecde 5dbe 2145 833d
000001d0: fcd9 a1bb 12b1 de3b 1317 b6b9 cd57 6abe
000001e0: 1ead d63d d811 373e b357 553e 6d2a 07be
000001f0: cdcb 90be 729b b9bd d115 1dbe 49c4 2cbd
00000200: b8aa 863e ac9b 20be 1808 3a3e ebd6 663e
00000210: ed38 a83d 135f fabd d25d 44be d1e8 623e
00000220: 0222 363d 887f 2a3e d74f 3ebe 30c6 cbbd
00000230: c669 abbe e68a a53d d9a0 47be dee9 233d
00000240: 85d9 bfbd 6acd c7bc 1ca8 e13c 46ae 0b3e
00000250: 8f23 043d f0f1 d9bd 6453 9bbf a272 26bd
00000260: c8cd 743e 4efb 813d 917b 2cbc d9c5 0abe
00000270: d8b0 b33d 3147 3f3e 24a0 673e 0f1e 07bd
00000280: 6a63 093e e212 06bd 8221 82bd b484 35be
00000290: b728 97bd 6815 313e dd18 ef3d 7eba 973d
000002a0: 1f2a c03d c341 2f3d 3e6d d8bc 3cf0 28bd
000002b0: 4f02 6bbd d0c7 92bd 522d 48bd 4040 983e
000002c0: 2eae 9c3d e370 1b3e 6f80 873d 1c2e e03c
000002d0: 4a41 83be 4d0c 6fbc cd3e ddbd e434 c7bd
000002e0: 78aa 19bd 0fee 923e f4bd 9e3d e59c b1bd
000002f0: fa22 3fbe 42eb 773c 9848 1b3e 85d8 34be
00000300: e208 783d 8745 943d f586 eb3d b218 c03c
00000310: d38c 273e 4f21 b13d e02b c93d d288 52be
00000320: dc94 943e 3cfc 8a3e 06d3 9a3d 4b38 aa3d
00000330: 8585 2a3e ab2e 92bd 7a3f 71bc b661 923d
00000340: 8e5e 01bf a223 033d 2055 eebd b0bd 033e
00000350: a0ea 713e 502b c4bd 71c4 0bbd 5c5b 0bbe
00000360: a630 9cbd 5ed9 8f3d 5c3d 793d 4aec 39bd
00000370: 66ea 91be b282 29be feed c93d 6ea4 0e3e
00000380: 47de 323e 8b60 383d 817e 1ebe 8128 03bd
00000390: 8b77 393e 65ce bc3d 62e9 d0bd 57b1 db3c
000003a0: ce43 bdbe 49cb 08be f558 37bc a98e 393e
000003b0: 5a8f da3c 4019 4fbf c2a2 493e eab5 33bd
000003c0: 5b7c cbbc fc22 993d 8553 11be 714d d63d
000003d0: 0e13 20be 99d8 1dbd 3d2b be3d 03f6 8c3e
000003e0: c8fc 94be a726 233e 7290 58be fe8b 573e
000003f0: 5556 093f 5f8a 0d3e c53b 2a3e 4d83 66bd

net.6.bias f4 [64]
0.08986151 0.044360343 0.3067474 0.035815813 0.22781692 0.019121107 0.1804649 0.22006568
0.06574142 0.19531645 0.3069915 0.10497881 0.22618657 0.057366483 0.012403848 0.050366607
0.059994075 0.21274655 0.049214534 0.08131957 0.059834722 0.30184668 0.13689849 0.0029795484
0.041060682 0.07381923 0.05570286 0.053268697 0.063344546 0.059557818 0.27527845 -0.013769577
0.063689135 0.034035325 0.056785844 0.12164735 -0.02328513 0.0688413 0.00032523673 0.120151795
0.20124087 0.050320186 0.059148893 0.41815627 0.099610224 0.1356827 0.0904257 0.07485139
0.049950156 0.0114022475 0.05105727 0.028276728 0.16226608 0.023842731 0.018423976 0.081328936
0.025309866 0.049346916 0.10285199 0.23392579 0.04312438 0.3186895 -0.047663912 0.21280964
00000000: 5009 b83d 31b3 353d ff0d 9d3e 9ab3 123d
00000010: d748 693e dea3 9c3c cacb 383e e658 613e
00000020: 70a3 863d 0901 483e fd2d 9d3e 21ff d63d
00000030: 749d 673e 1ef9 6a3d 8239 4b3c 374d 4e3d
00000040: 59bc 753d 3bda 593e 2e95 493d e08a a63d
00000050: 4115 753d a68b 9a3e 1e2f 0c3e 8744 433b
00000060: 3f2f 283d 892e 973d af28 643d 4730 5a3d
00000070: c9ba 813d e6f2 733d 4cf1 8c3e cb99 61bc
00000080: 736f 823d a068 0b3d 4698 683d 3f22 f93d
00000090: 75c0 bebc abfc 8c3d 8984 aa39 2512 f63d
000000a0: 1612 4e3e 8a1c 4e3d 1c46 723d 9418 d63e
000000b0: 7200 cc3d 68f0 0a3e 1c31 b93d b04b 993d
000000c0: 8998 4c3d 7ed0 3a3c 6e21 513d 99a4 e73c
000000d0: 1429 263e d551 c33c e1ed 963c c98f a63d
000000e0: a356 cf3c fe1f 4a3d 10a4 d23d 3e8a 6f3e
000000f0: 31a3 303d 452b a33e 3c3b 43bd c5ea 593e

value.0.weight f4 [256, 64]
0.07112169 0.11539646 -0.07147941 0.071422875 -0.18965144 0.081946485 -0.14569563 -0.06846173
0.16479987 -0.30640334 0.03760714 0.030683802 0.17095701 0.00926761 0.2173591 0.050076645
0.054775283 -0.10617981 -0.020539904 -0.063145004 -0.33454096 -0.13222483 0.35569817 -0.22734505
-0.11725972 0.142691 -0.13012695 -0.17500454 -0.25142938 0.16250548 0.026547894 0.28241652
0.10647928 0.066699184 -0.016141845 -0.10157407 -0.071579464 -0.17464536 -0.19126502 0.057467066
-0.15530093 -0.31240702 0.085656025 -0.0028259156 -0.2186623 0.104385495 -0.0767525 0.13888495
-0.14696372 0.048628647 0.057058256 -0.0916127 0.04935535 0.055658955 -0.08189222 0.24981326
0.008413783 0.06360336 0.17602867 0.04924254 0.15790522 0.06272777 0.0037576247 0.012769895
-0.05022311 -0.74975336 -0.06111059 -0.5184549 0.021007933 -0.1652947 -0.42422897 -0.18913464
-0.23508407 -0.7282712 -0.18702891 0.017750386 -0.34284374 -0.031679448 -0.25640818 -0.24230866
-0.0045086415 -0.23874058 -0.2058436 -0.4224096 0.17731296 0.11990405 -0.56078666 -0.008846478
0.022545593 -0.68682224 -0.03302782 -0.12345556 -0.091668025 0.016911114 -0.3499245 -0.088239625
0.021486416 -0.1278142 0.25177878 0.10602836 -0.09398223 -0.025002206 -0.06220336 -0.0022306542
-0.026040036 -0.15232594 -0.012715334 -0.6619043 -0.17636545 -0.34779522 -0.02176365 0.026049102
-0.18116926 0.13965982 -0.13723762 -0.023131436 -0.5784124 0.13390465 0.0970926 -0.022174023
-0.04048558 -0.21661702 -0.045488156 -0.82720685 -0.18687645 0.09128781 -0.26685742 -0.16382952
0.18095593 -0.036595095 -0.07099641 -0.08228139 -0.21020816 0.13747633 -0.2775554 -0.35401985
-0.084070295 -0.25232396 -0.1296789 0.11449996 -0.013302593 -0.09197439 -0.12945506 -0.018142615
0.2147355 -0.3763551 -0.020050487 -0.15800016 -0.10942897 -0.26481202 -0.34190845 -0.06817265
0.28597498 -0.006160881 -0.04651566 -0.040755916 -0.019855835 -0.072984576 -0.19750315 -0.015478783
0.18361533 -0.16625074 0.09379761 -0.0053764833 0.22071035 0.018864077 -0.029605487 0.3571881
0.06281545 -0.08021908 0.008513308 -0.86712116 0.15658292 -0.46084043 -0.28680363 -0.14159766
0.11786376 -0.029429698 0.12977493 0.13899863 -0.23107676 0.10756426 -0.13328502 -0.073680595
0.106182896 -0.13892308 -0.14224955 -0.22465642 -0.2669165 -0.24951538 -0.28101337 -0.09435392
-0.32435635 0.30599263 -0.56866604 -0.12212827 -1.3386561 0.08349631 0.011797062 -1.0891553
-0.060283244 -0.009906452 -0.20777364 -0.15395904 -0.039990798 -0.21240537 0.01993878 0.12229689
-0.2118009 -1.0144047 -0.2753363 0.23083939 -0.18150708 0.005266314 0.29591045 -0.02038226
0.09452096 0.08699513 -0.116763525 0.084512174 -0.073865585 -0.06302794 -0.40810496 -0.084321246
-0.027448732 0.0050353333 0.19564737 0.14917262 0.099387646 0.09290364 0.3188267 0.2917685
0.09688284 0.014463673 -0.18636063 0.063136555 -0.38767827 0.22998507 0.065771386 0.028907828
-0.1603602 -0.12224282 0.14751248 -0.1141035 0.05794386 0.23085183 0.101518065 0.23061998
-0.05469657 0.41628018 0.11645047 0.002093314 -0.26590094 0.030360512 -0.00990708 -0.2758731
00000000: 40a8 913d fb54 ec3d cc63 92bd 2846 923d
00000010: fd33 42be 8fd3 a73d 3c31 15be aa35 8cbd
00000020: 4cc1 283e e6e0 9cbe f209 1a3d 995c fb3c
00000030: 5b0f 2f3e 2cd7 173c 6293 5e3e 2b1d 4d3d
00000040: 0c5c 603d cd74 d9bd 4d43 a8bc 2b52 81bd
00000050: f448 abbe f265 07be 121e b63e 24cd 68be
00000060: dd25 f0bd 971d 123e 0040 05be 6434 33be
00000070: 5abb 80be d667 263e f87a d93c e698 903e
00000080: cf11 da3d 9599 883d e73b 84bc 1106 d0bd
00000090: 4198 92bd 3cd6 32be fada 43be 9662 6b3d
000000a0: 3507 1fbe d0f3 9fbe 6d6c af3d ff32 39bb
000000b0: 03e9 5fbe 10c8 d53d 6a30 9dbd db37 0e3e
000000c0: a87d 16be d52e 473d ebb5 693d 709f bbbd
000000d0: d628 4a3d a5fa 633d 1cb7 a7bd 0ccf 7f3e
000000e0: f7d9 093c 7a42 823d dc40 343e 8cb2 493d
000000f0: e8b1 213e 6b77 803d 7b42 763b d238 513c
00000100: bfb6 4dbd d6ef 3fbf 194f 7abd 76b9 04bf
00000110: d418 ac3c 0443 29be 8a34 d9be 83ac 41be
00000120: e1b9 70be fb6f 3abf 8284 3fbe 4269 913c
00000130: 3789 afbe 4fc2 01bd ef47 83be c31f 78be
00000140: 3abd 93bb 6978 74be aac8 52be 1246 d8be
00000150: 8791 353e 4190 f53d b78f 0fbf d1f0 10bc
00000160: 89b1 b83c 95d3 2fbf 2e48 07bd 45d6 fcbd
00000170: 72bc bbbd 2d89 8a3c 4e29 b3be fab6 b4bd
00000180: 4804 b03c bae1 02be 26e9 803e 6625 d93d
00000190: c179 c0bd 6dd1 ccbc f3c8 7ebd 2b30 12bb
000001a0: ea51 d5bc 55fb 1bbe fa53 50bc 8f72 29bf
000001b0: 2599 34be 3712 b2be af49 b2bc ed64 d53c
000001c0: 6f84 39be fc02 0f3e 0588 0cbe 237e bdbc
000001d0: d612 14bf 4d1e 093e 7cd8 c63d 4ca6 b5bc
000001e0: 35d4 25bd dad0 5dbe ca51 3abd d4c3 53bf
000001f0: 8a5c 3fbe 1af5 ba3d 89a1 88be edc2 27be
00000200: 834c 393e bde4 15bd 9166 91bd 2583 a8bd
00000210: cf40 57be 98c6 0c3e be1b 8ebe 1742 b5be
00000220: 0c2d acbd 9b30 81be 8cca 04be f47e ea3d
00000230: 1ef3 59bc 125d bcbd de8f 04be d29f 94bc
00000240: 9fe3 5b3e 9eb1 c0be eb40 a4bc cbca 21be
00000250: 4c1c e0bd 7195 87be a00e afbe 1a9e 8bbd
00000260: 506b 923e 37e1 c9bb 3487 3ebd adef 26bd
00000270: b4a8 a2bc f078 95bd 443e 4abe b99a 7dbc
00000280: a805 3c3e a23d 2abe f618 c03d 362d b0bb
00000290: e501 623e d688 9a3c 3587 f2bc 5ce1 b63e
000002a0: 63a5 803d e749 a4bd 677b 0b3c a7fb 5dbf
000002b0: 4657 203e 47f3 ebbe edd7 92be fafe 10be
000002c0: 8e62 f13d 8d16 f1bc b8e3 043e a855 0e3e
000002d0: 639f 6cbe a74a dc3d de7b 08be dae5 96bd
000002e0: 6b76 d93d da41 0ebe dea9 11be 550c 66be
000002f0: 48a9 88be f680 7fbe fce0 8fbe a13c c1bd
00000300: 0912 a6be 11ab 9c3e 1994 11bf 631e fabd
00000310: 1559 abbf 1d00 ab3d 7748 413c 7169 8bbf
00000320: 90eb 76bd ac4e 22bc 9dc2 54be 70a7 1dbe
00000330: 64cd 23bd cb80 59be a756 a33c cb76 fa3d
00000340: 56e2 58be 03d8 81bf e1f8 8cbe 2961 6c3e
00000350: fedc 39be 0b91 ac3b 9381 973e b3f8 a6bc
00000360: 3494 c13d 812a b23d b721 efbd b814 ad3d
00000370: d746 97bd cb14 81bd 22f3 d0be 9eb0 acbd
00000380: 2adc e0bc 70ff a43b c957 483e b5c0 183e
00000390: c08b cb3d 4344 be3d 413d a33e ae62 953e
000003a0: 836a c63d 0bf9 6c3c 52d5 3ebe bd4d 813d
000003b0: c47d c6be 3581 6b3e 26b3 863d 1cd0 ec3c
000003c0: 7735 24be 725a fabd 830d 173e 19af e9bd
000003d0: 8a56 6d3d 6c64 6c3e b4e8 cf3d a527 6c3e
000003e0: 8309 60bd ad22 d53e 967d ee3d fb2f 093b
000003f0: 2b24 88be 9cb6 f83c 4e51 22bc 3d3f 8dbe

value.0.bias f4 [256]
-0.035287235 0.0964427 0.0794117 0.10372413 0.08066491 0.033644985 0.12733817 0.33131886
0.07684854 -0.17583795 -0.06274643 0.0073789805 -5.7510966e-05 0.17412952 -0.09477878 -0.012575022
0.25977087 0.10930977 0.18156397 0.07477192 -0.08385521 0.18818474 0.052504294 -0.08021009
0.14810237 -0.2186515 0.2295612 0.13370201 0.07263083 -0.23340604 0.01344815 0.083568074
-0.14569929 -0.22797967 0.19624062 0.16652228 0.022104736 -0.12203669 0.090201825 0.2443921
-0.17130965 0.28381187 0.22895393 0.03157465 -0.00898161 -0.078979954 -0.005951337 -0.00543928
0.21191809 -0.1358757 -0.33519992 -0.08367051 0.012131442 -0.0708817 0.08910218 -0.014086281
0.23328076 -0.08281387 -0.019472348 0.2477046 0.0891463 -0.3184923 0.118483305 0.23906216
0.17431034 -0.3068819 0.15606064 0.110287674 0.14781153 -0.0042015826 0.039971054 0.11567727
-0.14369705 -0.10935021 0.14881901 0.33745944 0.12750176 0.44049343 0.09342674 0.043900296
0.1720001 -0.3588159 -0.32367748 0.078635246 0.14209755 -0.21300685 0.004860885 0.12655592
-0.33708695 0.112425834 -0.057214197 0.13953388 -0.25031754 0.08579902 -0.17830926 0.35938478
0.1189032 0.1865646 0.20156372 -0.111579776 0.081278116 0.17187448 -0.057074264 -0.0384538
-0.5034945 0.06265087 -0.067233495 -0.13639124 0.05014361 0.19438757 -0.12650864 0.23633458
0.25826487 0.09665276 0.09645331 0.104495995 0.3021226 0.19617376 0.14191183 -0.002580063
-0.20657563 -0.062358867 0.13852605 0.13927738 -0.15128629 -0.17876075 -0.13655362 -0.1923204
0.086559966 0.18845233 0.11275354 -0.030835237 0.117568776 0.07459971 0.35968235 -0.33891338
-0.18861394 -0.12766898 -0.20215136 -0.15058497 -0.13029948 0.0019939481 0.08491241 0.48274326
0.1551999 -0.16041948 0.14420104 0.089972846 0.104235075 -0.004199508 0.34709603 -0.030400619
-0.13187344 -0.21604392 0.19155696 -0.020676743 0.17603391 0.18484245 -0.08147158 -0.37064087
0.23045252 0.075019486 -0.06555422 0.18623403 0.018768573 -0.15927523 -0.074118696 0.1933904
-0.018643338 0.38003245 -0.0021285077 0.11826725 -0.07906057 0.0568096 -0.30159304 0.30857903
-0.10370452 0.20464669 -0.05793571 -0.086230546 0.18506584 -0.15978067 0.13653925 0.17530894
0.0023176873 0.23518711 -0.070790224 0.061622262 -0.024293188 0.077712834 -0.08274869 -0.23790139
-0.1656503 -0.07929656 0.049324885 -0.24604578 -0.1372946 0.21190602 0.12463876 -0.08956199
0.15211272 -0.13548295 0.17156349 -0.32187623 -0.14970183 -0.049219135 -0.021322453 -0.053857014
0.3128979 0.094379 0.018912226 -0.09962584 -0.095236346 0.15211405 0.054582983 0.042991787
0.09880185 0.20586285 -0.45681107 0.0657537 0.07015451 -0.19862412 -0.050627638 -0.12085289
0.016891412 -0.04478282 0.14879647 -0.041947093 -0.20169207 0.17843816 -0.10659731 0.010539296
-0.021527046 0.38825396 0.19952701 -0.15726653 0.022212412 0.20426415 0.30452418 -0.3634607
0.04839609 -0.024915926 -0.062859274 -0.12524788 -0.025990902 -0.03129268 -0.029532295 0.078632236
0.09777069 -0.044131026 -0.0065378095 0.3286194 0.4878279 0.04780383 -0.3084781 0.03918762
00000000: 5989 10bd c083 c53d 9aa2 a23d 516d d43d
00000010: a533 a53d 53cf 093d f064 023e a0a2 a93e
00000020: c462 9d3d dd0e 34be 3381 80bd 60cb f13b
00000030: ee37 71b8 024f 323e 611b c2bd 7707 4ebc
00000040: b000 853e cddd df3d e8eb 393e 0522 993d
00000050: 48bc abbd 80b3 403e be0e 573d 3045 a4bd
00000060: 26a8 173e 2ee6 5fbe 1712 6b3e 2ee9 083e
00000070: 79bf 943d fe01 6fbe a155 5c3c bd25 ab3d
00000080: 3232 15be 8173 69be 4df3 483e d184 2a3e
00000090: fe14 b53c 5fee f9bd bcbb b83d ec41 7a3e
000000a0: cc6b 2fbe ca4f 913e e672 6a3e 6c54 013d
000000b0: 9a27 13bc 3ec0 a1bd 6f03 c3bb fd3b b2bb
000000c0: 0e01 593e 0023 0bbe 539f abbe 725b abbd
000000d0: f5c2 463c 6d2a 91bd 347b b63d 25ca 66bc
000000e0: 27e1 6e3e 519a a9bd 7984 9fbc 46a6 7d3e
000000f0: 5692 b63d 6c11 a3be 60a7 f23d b6cc 743e
00000100: 697e 323e a01f 9dbe 5cce 1f3e 81de e13d
00000110: e85b 173e 6ead 89bb b0b8 233d 34e8 ec3d
00000120: 5225 13be 01f3 dfbd 0364 183e 7cc7 ac3e
00000130: d28f 023e 5b88 e13e 8556 bf3d ccd0 333d
00000140: cb20 303e b8b6 b7be 0eb9 a5be 840b a13d
00000150: 0582 113e 781e 5abe 0f48 9f3b e097 013e
00000160: a996 acbe 843f e63d 6f59 6abd f8e1 0e3e
00000170: 9f29 80be 66b7 af3d b496 36be 4801 b83e
00000180: 8583 f33d ca0a 3f3e b866 4e3e f083 e4bd
00000190: 2475 a63d ddff 2f3e b4c6 69bd bb81 1dbd
000001a0: 04e5 00bf 194f 803d b7b1 89bd 25aa 0bbe
000001b0: 6363 4d3d 890d 473e 7b8b 01be b101 723e
000001c0: 4b3b 843e e2f1 c53d 5089 c53d ff01 d63d
000001d0: d0af 9a3e c6e1 483e 5651 113e 4616 29bb
000001e0: 9088 53be 036c 7fbd c6d9 0d3e bb9e 0e3e
000001f0: cbea 1abe 0f0d 37be b6d4 0bbe a4ef 44be
00000200: 5a46 b13d a6f9 403e 54eb e63d 2e9a fcbc
00000210: e6c7 f03d bcc7 983d 4928 b83e 0e86 adbe
00000220: 0324 41be a8bb 02be c400 4fbe f232 1abe
00000230: 3a6d 05be e6ac 023b 8fe6 ad3d 202a f73e
00000240: b9ec 1e3e 0145 24be 70a9 133e af43 b83d
00000250: 3379 d53d 079c 89bb 92b6 b13e b80a f9bc
00000260: d509 07be 9e3a 5dbe 8227 443e 4662 a9bc
00000270: 3c42 343e 5747 3d3e 92da a6bd a4c4 bdbe
00000280: bffb 6b3e d1a3 993d 4a41 86bd 22b4 3e3e
00000290: 8dc0 993c 0c19 23be 8bcb 97bd 2208 463e
000002a0: eab9 98bc 9d93 c23e 6f7e 0bbb 1a36 f23d
000002b0: 82ea a1bd 2fb1 683d 676a 9abe 12fe 9d3e
000002c0: 0963 d4bd e78e 513e ff4d 6dbd a499 b0bd
000002d0: e681 3d3e 8b9d 23be f2d0 0b3e 3084 333e
000002e0: 57e4 173b e4d4 703e 77fa 90bd a067 7c3d
000002f0: 8202 c7bc e827 9f3d 2578 a9bd 6c9c 73be
00000300: 3ba0 29be 3c66 a2bd e408 4a3d 6df3 7bbe
00000310: f596 0cbe e4fd 583e 9b42 ff3d 476c b7bd
00000320: 70c3 1b3e 0bbc 0abe 57ae 2f3e f6cc a4be
00000330: 704b 19be 019a 49bd 6dac aebc 2c99 5cbd
00000340: 2734 a03e c749 c13d d0ed 9a3c a208 ccbd
00000350: 460b c3bd c9c3 1b3e 6892 5f3d 2818 303d
00000360: a058 ca3d b6cd 523e 24e3 e9be e0a9 863d
00000370: 2bad 8f3d 1f64 4bbe ed5e 4fbd b881 f7bd
00000380: dc5f 8a3c 316e 37bd 1a5e 183e b7d0 2bbd
00000390: 5e88 4ebe 7eb8 363e b14f dabd 03ad 2c3c
000003a0: 7d59 b0bc 39c9 c63e cf50 4c3e 7a0a 21be
000003b0: cef6 b53c 9f2a 513e 98ea 9b3e 8517 babe
000003c0: fa3a 463d 7c1c ccbc 5dbc 80bd fb40 00be
000003d0: dfea d4bc c12c 00bd b6ed f1bc f009 a13d
000003e0: 003c c83d bcc2 34bd 1f3b d6bb cd40 a83e
000003f0: 94c4 f93e f3cd 433d d7f0 9dbe 3383 203d

value.2.weight f4 [1, 256]
0.2760747 1.340919 -0.4660917 0.62290156 -0.3862055 -0.023521718 -0.49432886 -0.17867245
-0.283473 -0.035976917 -0.4969673 0.06631795 -0.5114081 0.03156481 -0.28229493 1.2561724
-0.15992974 0.22238675 -0.021943688 0.04693499 0.918399 -0.02659802 -0.009429958 0.16560815
-0.46369642 0.019724183 -0.13026348 -0.62726396 -0.7803208 0.041552465 -0.18718374 0.054961015
0.48898157 -0.48594737 -0.06442581 0.09878785 0.6132415 -0.3185456 0.021046149 -0.26343736
0.70039093 -0.02276196 -0.12149977 0.71508956 0.019422052 -0.44635382 1.2451327 0.04789433
-0.03887129 -0.13705663 -0.45984855 -0.39892986 -0.25086597 0.6914892 -0.05804391 0.73349905
0.564318 0.6839281 0.30903995 -0.018647147 -0.10826779 0.9750625 0.7030888 -0.5797428
-0.08913695 0.037126508 -0.03073039 -0.04604268 -0.14310782 0.024967354 -0.64893025 0.024549471
0.2517741 0.93100834 0.545848 -0.06867142 0.071166344 -0.041981798 -0.1199273 0.12550622
0.019465087 0.0990213 0.7588903 0.03004879 -0.41360906 0.84910446 0.5442002 -0.10966361
0.85490835 -0.15896465 -0.24706775 0.21904103 -0.2333669 -0.40594116 -0.7158879 -0.041304417
0.09079859 0.22080734 0.01822609 0.026838664 0.84704864 -0.045305457 0.020580687 -0.35447648
0.08866531 -0.10607911 0.7793314 0.32901978 -0.43535462 -0.03618417 0.10818472 0.036239836
-0.051130265 -0.35330498 -0.18033187 -0.39581814 -0.5599994 -0.043920062 -0.026736254 -0.72488093
-0.52705914 0.00169236 -0.02508629 -0.3698225 -0.53406906 -0.009017477 -0.01438765 -0.32513812
-0.1419817 -0.09880198 -0.08171967 -0.1987073 -0.10074655 0.598368 -0.37162763 -0.41533166
0.12347398 -0.019913208 -0.5786263 -0.108073056 0.021057174 0.6276224 -0.29400793 -0.13311471
0.7503822 0.3669639 -0.16822296 -0.041026317 0.23784861 -0.8372513 -0.044950575 -0.29577124
0.21626829 -0.020360608 0.025669288 0.025565604 -0.43136293 -0.24671139 -0.3867225 -0.4231412
0.022905141 -0.2335397 -0.54765636 -0.23551732 -0.11930106 0.096108094 1.14672 1.2490798
-0.36495176 -0.2976365 -0.3786197 -0.08448329 -0.20185983 -0.14404234 -0.017924784 -0.15966451
-0.17797326 0.10019705 0.90264606 0.7170255 1.0698373 -0.13728428 -0.15138647 -0.48388836
-0.053030025 -0.38828456 0.030983862 -0.40511295 0.05405603 -0.0076512634 0.2017991 0.37961686
-0.043164276 0.06509677 0.052254662 -0.6548355 0.55028737 -0.043912195 -0.013143948 0.50436276
0.7222401 -0.12968889 -0.03979564 -0.29614234 -0.051953234 -0.046969786 0.78630614 0.3003818
-0.045025 -0.008344276 0.0512829 -0.010573368 0.032113276 -0.29132313 -0.06877991 0.13774918
0.030066926 0.035767812 0.04454674 -0.08333948 -0.08543321 -0.04430501 -0.11442956 -0.56862855
-0.042128112 -0.12440173 -0.06914339 -0.32186827 -0.33317003 0.98202825 -0.011983361 -0.026613368
-0.22201374 -0.44263816 -0.08389371 0.046082824 0.41051364 0.7940691 -0.033972807 0.095570885
-0.0025206339 0.5676761 -0.49468207 -0.47308496 -0.0727695 -0.28212914 -0.6730746 0.14388809
0.058910552 -0.015886368 1.0054563 -0.16350462 -0.40649214 0.069478065 0.054068368 0.011858326
00000000: aa59 8d3e 3ca3 ab3f 92a3 eebe 7a76 1f3f
00000010: babc c5be 9eb0 c0bc ac18 fdbe e9f5 36be
00000020: 6023 91be 885c 13bd 7f72 febe b5d1 873d
00000030: a4eb 02bf 1a4a 013d f688 90be 42ca a03f
00000040: 9fc4 23be 5ab9 633e 40c3 b3bc e73e 403d
00000050: 321c 6b3f 17e4 d9bc 1c80 1abc 2f95 293e
00000060: 9e69 edbe 9c94 a13c ca63 05be 5f94 20bf
00000070: 1bc3 47bf eb32 2a3d 18ad 3fbe cd1e 613d
00000080: cb5b fa3e 18ce f8be aef1 83bd 4951 ca3d
00000090: 65fd 1c3f 6918 a3be f968 ac3c 43e1 86be
000000a0: d24c 333f 4a77 babc dfd4 f8bd 1c10 373f
000000b0: ff1a 9f3c 7d88 e4be 8260 9f3f d82c 443d
000000c0: 8037 1fbd 9358 0cbe 4571 ebbe 8940 ccbe
000000d0: 8171 80be 7005 313f 73bf 6dbd 98c6 3b3f
000000e0: 2577 103f e915 2f3f 7c3a 9e3e e7c1 98bc
000000f0: 81bb ddbd b29d 793f a1fd 333f 066a 14bf
00000100: 6f8d b6bd f711 183d 4dbe fbbc 4097 3cbd
00000110: db8a 12be 5688 cc3c 4b20 26bf f91b c93c
00000120: 89e8 803e 9056 6e3f b2bc 0b3f 9aa3 8cbd
00000130: a9bf 913d 1bf5 2bbd 729c f5bd b484 003e
00000140: 3f75 9f3c aecb ca3d a246 423f e128 f63c
00000150: 91c4 d3be e95e 593f b450 0b3f 5197 e0bd
00000160: 46db 5a3f a1c7 22be 54ff 7cbe 4b4c 603e
00000170: bcf7 6ebe 85d7 cfbe 6e44 37bf d22e 29bd
00000180: 9cf4 b93d 521b 623e e24e 953c c2dc db3c
00000190: 2ed8 583f 3792 39bd d498 a83c f17d b5be
000001a0: 2896 b53d 0140 d9bd 4382 473f 4875 a83e
000001b0: cde6 debe da35 14bd f38f dd3d 3970 143d
000001c0: f86d 51bd 64e4 b4be eba8 38be ada8 cabe
000001d0: 1f5c 0fbf 86e5 33bd fd05 dbbc cc91 39bf
000001e0: 59ed 06bf 2ed2 dd3a c381 cdbc 6059 bdbe
000001f0: c0b8 08bf 0abe 13bc 2eba 6bbc 8178 a6be
00000200: a763 11be b158 cabd a45c a7bd ed79 4bbe
00000210: 3554 cebd a52e 193f fa45 bebe 5aa6 d4be
00000220: eddf fc3d 0621 a3bc da20 14bf 6855 ddbd
00000230: 1880 ac3c ddab 203f 3588 96be 394f 08be
00000240: 0c19 403f b1e2 bb3e a442 2cbe 360b 28bd
00000250: 968e 733e 1a56 56bf 181e 38bd 546f 97be
00000260: 6f75 5d3e 4acb a6bc 6648 d23c f56e d13c
00000270: 9adb dcbe e9a1 7cbe 7e00 c6be f7a5 d8be
00000280: 90a3 bb3c 0825 6fbe 3533 0cbf 742b 71be
00000290: 1d54 f4bd 52d4 c43d b9c7 923f d9e1 9f3f
000002a0: f5da babe d063 98be 71da c1be 9305 adbd
000002b0: 58b4 4ebe d67f 13be ffd6 92bc 187f 23be
000002c0: 9f3e 36be 1c34 cd3d d013 673f fc8e 373f
000002d0: 6ef0 883f 4094 0cbe 0e05 1bbe 37c0 f7be
000002e0: 0336 59bd 3ccd c6be ded1 fd3c f76a cfbe
000002f0: db69 5d3d 73b7 fabb 6ca4 4e3e 245d c23e
00000300: 06cd 30bd 7551 853d fc08 563d 4da3 27bf
00000310: a2df 0c3f 46dd 33bd b759 57bc eb1d 013f
00000320: bae4 383f 2acd 04be c100 23bd f89f 97be
00000330: eacc 54bd 6463 40bd 5c4b 493f a5cb 993e
00000340: 226c 38bd 6eb6 08bc 050e 523d eb3b 2dbc
00000350: 3689 033d 4e28 95be 7bdc 8cbd 1f0e 0d3e
00000360: ea4e f63c 4581 123d a476 363d e4ad aabd
00000370: 9bf7 aebd 2c79 35bd 0c5a eabd a491 11bf
00000380: 878e 2cbd 56c6 febd 0d9b 8dbd ebcb a4be
00000390: 4395 aabe 3466 7b3f dc55 44bc 4704 dabc
000003a0: 9257 63be 78a1 e2be 77d0 abbd 58c1 3c3d
000003b0: d82e d23e 1d48 4b3f 1227 0bbd abba c33d
000003c0: 3831 25bb 3953 113f f846 fdbe 3138 f2be
000003d0: 2d08 95bd 3b73 90be 9e4e 2cbf 6657 133e
000003e0: 314c 713d 2124 82bc cbb2 803f c16d 27be
000003f0: bd1f d0be 844a 8e3d cb76 5d3d 6d49 423c
