PPO_discrete/model/Pong-v0_a copy.pt (torch, 525503 bytes, 10 tensors)

net.0.weight f4 [16, 1, 8, 8]
000000 05 5d c2 be 80 ff 09 bf f1 65 1b bf 79 c9 14 bf
       -0.37961593 -0.5390549 -0.60702425 -0.5811992
000010 67 c3 f2 be ed 5b 9f be 9f e8 04 be a2 14 b3 3e
       -0.47414705 -0.3112482 -0.12979363 0.3497668
000020 f8 f2 f2 be 24 e0 00 bf 98 8a 19 bf 4b ff 41 be
       -0.47450995 -0.5034201 -0.599771 -0.18945043
000030 76 23 df be 72 d0 96 be 39 a4 8c be 5a 35 8a 3d
       -0.43581742 -0.29455906 -0.27469042 0.06748457
000040 81 ca df be ea ae 83 be 55 90 e4 be c4 dc dd 3d
       -0.43709186 -0.25719386 -0.44641367 0.10833123
000050 b9 24 8d be 64 22 12 bf 71 94 ea bd 46 1f 44 be
       -0.2756708 -0.57083726 -0.11454094 -0.19152555
000060 35 00 a7 be c0 fd 87 be d6 7d e1 be 0c 19 e1 3e
       -0.32617345 -0.26560783 -0.44041318 0.43964422
000070 71 6b fa 3e b2 f7 d7 3e 2a 59 d2 3e 7e 88 c8 bb
       0.48910096 0.42181164 0.41083652 -0.0061197868
000080 7d 1f b5 bd a8 a4 ad be 9f 98 e5 be 6b 6a a6 3e
       -0.088438965 -0.33914685 -0.44843003 0.32503065
000090 0d 87 a1 3e 05 d9 29 3f a3 35 24 be bc d4 6a 3b
       0.31548348 0.6634677 -0.16036086 0.0035832366
0000a0 49 e5 a6 bd ec 3d 55 3d 74 cc 92 be 44 f0 3b 3e
       -0.081492014 0.052061006 -0.2867161 0.18353373
0000b0 04 6b 93 be 97 c6 47 3e 55 d4 57 be ae 2b 06 be
       -0.28792584 0.1950935 -0.21077092 -0.131026
0000c0 21 9d 15 3c 38 09 4d be bf 82 1d be 1d 48 d8 bb
       0.009131701 -0.20023048 -0.15381907 -0.0066003934
0000d0 68 ab f5 be e4 b5 16 3e 41 23 71 be c9 c2 01 3c
       -0.47982335 0.14717823 -0.23548605 0.007919976
0000e0 d1 5c f8 3d b5 90 11 be a5 f1 05 bf 48 2c dd be
       0.12127078 -0.14215358 -0.52321845 -0.43197846
0000f0 81 df 0e bf 56 5f 8e 3e d4 77 67 be 5e a6 24 3d
       -0.5580979 0.2780711 -0.22604305 0.040197723
000100 fd d0 44 3e 4f 89 40 3f ec 73 ff 3e 2e 92 24 3f
       0.19220348 0.75209516 0.4989313 0.6428555
000110 37 88 a7 be 90 12 e7 be 97 70 fd be e8 a4 b5 3d
       -0.3272111 -0.4513135 -0.49499962 0.08869344
000120 d5 8e 55 3e f5 21 71 3e a6 fa 41 3e 62 55 97 3e
       0.20855267 0.2354811 0.18943271 0.2955733
000130 1c 09 6f 3e 5e 2f c9 bc a2 c2 8d 3d 64 c5 d4 bd
       0.23343319 -0.02455872 0.06921889 -0.10389212
000140 c3 7e d0 be 3a 56 51 bd b2 c5 2c be 63 92 a9 be
       -0.40721712 -0.051107623 -0.1687229 -0.33119497
000150 e2 f4 b6 3d 96 9b a3 3e 06 fe 02 3e c9 58 5f be
       0.089334264 0.3195464 0.12792215 -0.21811213
000160 a0 bf 36 bf 6f 9b dd be 16 75 08 bf 8c 90 f6 be
       -0.71386147 -0.4328265 -0.5330366 -0.48157156
000170 8b 7d 0b bf e8 3d 95 bd de 2d a2 3e 3b f6 28 bd
       -0.5448844 -0.07287198 0.3167562 -0.04125045
000180 4b 0e ea be 17 77 1c bf 5d 71 0e bf 3d 86 b9 be
       -0.4571403 -0.61119217 -0.5564173 -0.36235228
000190 e4 32 21 bf e4 7b 2a bf 16 9c 8a bd c7 fb dd bc
       -0.6296828 -0.6659529 -0.06768052 -0.027097596
0001a0 07 d8 97 3e 08 75 ec 3e ab 44 ab 3e 9b 86 77 3d
       0.29657003 0.46183038 0.33450827 0.060431104
0001b0 8c 0c 3a be ac eb fc be e0 cc 90 be 57 b4 bf be
       -0.18168849 -0.49398553 -0.28281307 -0.37442276
0001c0 c6 cc 1d 3f 14 a3 28 3f 46 15 f2 3e c8 95 12 3e
       0.61640584 0.6587384 0.47281855 0.1431495
0001d0 15 7f a8 bd de c4 4a be f6 80 cb 3d 9e da dd be
       -0.08227364 -0.19801661 0.09936707 -0.43330854
0001e0 51 eb bc be 20 5c 84 be cf 47 44 bd b9 b4 12 3d
       -0.36898282 -0.25851536 -0.047920045 0.03581688
0001f0 9b c1 5b be 97 74 c3 3d 55 6d 00 be d0 c0 d0 be
       -0.21460573 0.09543722 -0.12541707 -0.40772104
000200 9d a4 9b bb de 19 3a 3e 81 2b 2e bf 91 18 91 3b
       -0.004749848 0.1817393 -0.6803513 0.0044279774
000210 16 b6 c6 3e 51 65 3d 3e f1 da 51 3e 5c d8 1b 3d
       0.38810796 0.1849568 0.20493676 0.038048133
000220 c3 36 c6 3b 26 bf dd bd 44 47 0c bf f4 0e d5 be
       0.0060490086 -0.10827474 -0.5479624 -0.4161297
000230 48 c8 ea bd 64 3a e5 be 88 b4 cf bd dd d9 ab bd
       -0.11463982 -0.4477111 -0.101418555 -0.083911635
000240 83 ff f9 3d a2 46 00 3e e9 e9 0f bf 2e da 0d bf
       0.12206938 0.12526944 -0.56216294 -0.5541104
000250 85 d7 49 bf 83 83 0b bf 6d 40 94 be d6 a1 1f be
       -0.7884448 -0.54497546 -0.28955403 -0.1558908
000260 e5 18 ac bd f2 c0 2a be 93 11 1a bf 40 2e 8d be
       -0.08403186 -0.16675165 -0.60183066 -0.27574348
000270 4f fb 37 bf 1a e0 02 bf 37 03 67 be 27 b6 8a 3e
       -0.7186784 -0.511232 -0.2255982 0.27092096
000280 02 e3 d6 3e a4 99 d7 3d cf c3 7c be bd 89 9c 3d
       0.41970068 0.105273515 -0.2468407 0.07643459
000290 d7 ca 92 3e d8 a1 a9 3e 4c ad a1 3d f0 78 90 3e
       0.2867038 0.3313129 0.07894382 0.28217268
0002a0 40 b3 69 3e 91 5a 09 3e 97 27 8d 3d 82 20 5b 3f
       0.22822285 0.13413455 0.06892317 0.8559648
0002b0 2e 9a 56 3f 79 8d 04 3f 87 a5 b6 3e 85 b4 f2 bd
       0.8382901 0.5177837 0.35673162 -0.118508376
0002c0 c3 f8 5e bd 41 22 3f 3e 2d ba 0b 3e 3f 55 5a 3f
       -0.054436456 0.1866541 0.13645239 0.85286325
0002d0 7d 0b 73 3e 87 3d 67 be a9 74 d7 3c 69 78 53 bd
       0.23734851 -0.22582065 0.026300745 -0.051628504
0002e0 b8 26 36 3e 8f b7 ad 3e ea 6a ad 3d d4 57 70 bd
       0.17788208 0.33929107 0.08467658 -0.05867751
0002f0 d9 47 03 be 67 24 d9 be 2d 7f 2d be 5f bd ba 3e
       -0.12820376 -0.42410585 -0.16943045 0.36472604
000300 11 f4 6f be d7 92 c8 3e a0 ad 25 3f c8 8d 40 3f
       -0.23432948 0.3917453 0.64718056 0.7521634
000310 7c 67 96 be 1f 34 bb be fe c5 3c bd 2c 10 ba bd
       -0.29375827 -0.36563203 -0.046087258 -0.09085116
000320 fd ad 50 be ef 64 cc 3e e1 e8 c9 3e a0 09 9a 3e
       -0.20378871 0.39920756 0.39435485 0.30085468
000330 a9 1a 5f be 00 77 f2 be a2 f1 d3 3b d2 5b 3c bd
       -0.21787514 -0.47356415 0.006468014 -0.045986004
000340 8a 72 94 3d c8 07 08 3f 77 6f 05 3f e0 ee 4a be
       0.07248409 0.53136873 0.52123207 -0.19817686
000350 75 7c d4 be ff 63 3e bf 3b 13 26 3e 76 9f 62 3d
       -0.41501203 -0.7437133 0.16218273 0.055327855
000360 12 cd 93 3c 52 c8 98 3e ad ae 95 3e f1 33 dc be
       0.018042121 0.29840332 0.2923483 -0.43008378
000370 af e4 0e bf c3 d2 3f bf 41 76 00 be e6 ed 93 3e
       -0.55817693 -0.7493097 -0.1254511 0.2889244
000380 41 81 ac 3e a8 ce e4 3e 1c bb 7f be 56 fd d0 be
       0.33692363 0.44688916 -0.2497372 -0.4081828
000390 55 0a 2a bf 62 eb 34 bf ca d7 12 be 11 52 c3 3e
       -0.66422015 -0.70671666 -0.1434013 0.3814855
0003a0 28 f4 9d 3e 74 be bf 3d 5c 2b 0f bf e8 bb 23 bf
       0.3085034 0.09362498 -0.55925536 -0.639586
0003b0 d0 c8 0d bf 5a 91 13 3d 1c 98 ba 3e c5 7d 93 3e
       -0.5538454 0.03602729 0.36444175 0.28806892
0003c0 08 53 c1 3e 8a 58 6a be c7 20 f6 3c ad 61 31 bf
       0.3775866 -0.22885337 0.030044926 -0.69289666
0003d0 74 c3 81 be bd 39 fe 3d da e4 c2 3e b8 7f 1a be
       -0.2534443 0.124133565 0.38065225 -0.15087783
0003e0 54 9b 3e bd c8 f0 4b bd c1 30 08 be e4 fe b5 bd
       -0.04653485 -0.049790174 -0.13299848 -0.08886507
0003f0 ed d7 bf 3d 13 34 8b 3d 9b 9f 01 3f 60 0f 81 3e
       0.093673564 0.06797042 0.50634164 0.25207043

net.0.bias f4 [16]
000000 56 f3 40 bb 9b 25 6e bd 71 be 4e bc 0e 64 8f 3c
       -0.0029441915 -0.058141332 -0.012618647 0.017503764
000010 86 c0 66 bc e9 3a 0d bd 90 76 3e bc 95 97 4a b9
       -0.014083987 -0.03448001 -0.011624947 -0.0001932069
000020 a0 86 1c 3d da 27 13 bd 47 56 ce 3c 76 c2 7c 3c
       0.038214326 -0.035926677 0.025187625 0.0154272225
000030 81 ab 56 bd 02 89 40 bd bb 6c 1b 3c 80 5d 5a 3d
       -0.052409653 -0.04700566 0.009486373 0.053311825

net.2.weight f4 [32, 16, 4, 4]
000000 e6 6f 5e be e5 bc 11 3d f8 8b b1 3d 24 53 7e be
       -0.21722373 0.035580534 0.08669275 -0.24836403
000010 9b 87 bf be d6 cf 5d 3e cb 09 26 3e 9c 7d 9a 38
       -0.37408146 0.21661314 0.16214673 7.366689e-05
000020 e3 e9 b8 be c1 16 92 3e 28 a9 9b bd 10 c5 0d 3e
       -0.3611594 0.28532985 -0.07600623 0.13844705
000030 98 24 b9 3d d0 1d be 3d 57 7f b7 3d 71 56 1e bd
       0.09040183 0.0928303 0.08959835 -0.038656656
000040 bc 5a 21 bd 0f b5 26 3e c2 d1 6f 3e 7b ec b7 3d
       -0.03939317 0.16280006 0.2341986 0.08980652
000050 f3 bb 8c 3e 2c 8d fd 39 66 0b 7d 3d 1a 29 fc 3c
       0.27487144 0.00048361102 0.06177845 0.030781318
000060 48 13 20 3c d4 09 af 3d f8 4d e0 bd 9b 53 68 3e
       0.009770222 0.085467964 -0.10952371 0.22688143
000070 45 3c 43 3e 6e 96 67 be ce 24 b9 3e b6 f1 64 be
       0.1906596 -0.22615978 0.36160892 -0.2235783
000080 c7 99 59 bd ff a7 f0 3d 8d 30 54 ba 6c 5f 83 be
       -0.05312517 0.11750793 -0.0008094393 -0.2565874
000090 dc 43 96 3e 1a a0 41 3e b3 c3 9b 3c 46 a0 f1 be
       0.29348648 0.1890873 0.019014215 -0.4719259
0000a0 f4 72 97 3e c0 c4 08 3e b8 6e 07 3e bd c5 43 bd
       0.2957989 0.13356304 0.1322583 -0.047796
0000b0 08 0f b9 3e 24 92 cc bd 4b 72 34 bd d6 30 57 bd
       0.3614428 -0.099888116 -0.04405431 -0.052536808
0000c0 45 f2 56 be 00 8c e8 3d b5 ba 87 bc ef 6c e7 3d
       -0.20990856 0.11354828 -0.016568521 0.11300074
0000d0 06 5f b3 3c f2 72 7e 3d a2 b0 83 be 49 0c 0b 3e
       0.021895897 0.06212134 -0.25720698 0.13578905
0000e0 17 c2 91 3e 89 16 78 be 8c 4d 6b be 38 c0 55 3e
       0.2846839 -0.24227346 -0.229788 0.20874107
0000f0 1d a0 84 3e c3 71 13 be 79 03 0c 3e 23 2a b5 bd
       0.25903407 -0.14398865 0.136732 -0.088459276
000100 50 83 36 3e 9d d0 8d bd a8 43 9d 3e 4e 33 a5 be
       0.17823529 -0.069245555 0.3071568 -0.32265705
000110 1c 97 0a bd 9b d9 0d be 34 8f 2e be 34 a3 fd bc
       -0.033835515 -0.13852541 -0.17046815 -0.03096161
000120 9d 67 3c 3d e4 ab 2b be f8 61 a6 3d aa 93 ed 3d
       0.04599725 -0.1676479 0.08124155 0.1160043
000130 ea 4d 38 be 1c 19 39 be 54 59 28 3e c4 fd c4 be
       -0.17998472 -0.18075985 0.16440326 -0.38474858
000140 13 0c ef 3b 53 3b e3 3d 63 fa 1d 3e 99 56 20 be
       0.0072951405 0.110952996 0.15427546 -0.15658034
000150 d5 58 1a 3d 7b 7b 9f 3d f4 28 57 3e 69 82 1a be
       0.037682373 0.07787224 0.21011716 -0.1508881
000160 77 75 2b 3e db 7b 82 3d 81 8d 99 be 2e 7b b8 bd
       0.16744028 0.0637128 -0.2999077 -0.0900787
000170 23 b8 59 3e 06 de f9 bd e3 f5 b2 3d 60 97 44 bc
       0.21261649 -0.12200551 0.087383054 -0.011998981
000180 a8 cc 81 be 66 77 84 3d f7 f8 f5 3d 73 da 05 be
       -0.25351453 0.06468086 0.12010377 -0.13071613
000190 b3 b4 5d 3e 9d 5a 98 be 02 6a 11 3e 82 74 0b be
       0.21650963 -0.29756632 0.14200595 -0.13618663
0001a0 1a 3b 21 3e 05 fb 8b be ce 2f 84 3d c0 45 8b bb
       0.15745202 -0.2733995 0.064544305 -0.004250258
0001b0 33 04 ac 3d b0 2e 02 bf b6 77 b4 3d 36 ec 83 be
       0.083992384 -0.5085249 0.088118955 -0.25766152
0001c0 e3 91 dc bd f0 5d 75 3d 41 58 c3 be 10 59 a3 bd
       -0.10770013 0.05990404 -0.3815327 -0.07975972
0001d0 7f 73 42 bc ce 8f 85 be 56 b2 59 bd 0b 50 b9 3c
       -0.011868357 -0.26086277 -0.05314859 0.022621175
0001e0 05 96 23 3e 02 0f 42 3d f9 58 4b bd 6c a3 03 be
       0.15975197 0.047377594 -0.049645398 -0.12855309
0001f0 2d 22 b6 3d 45 d9 81 bd 0d 92 16 bd c7 75 c4 3e
       0.08893237 -0.06340269 -0.03676038 0.38371107
000200 65 a9 b7 be e6 28 87 be fe 68 fd 3d 90 9c 64 be
       -0.35871425 -0.2639839 0.12373541 -0.22325349
000210 dc fa cf bd a1 08 a3 be 77 40 fc 3d dd b4 b3 bd
       -0.101552695 -0.3184252 0.12316983 -0.08774731
000220 6b ba bc bd fb 1d eb 3c ef a3 d3 bd 83 8d 43 be
       -0.09215244 0.02870082 -0.10334002 -0.19096951
000230 35 8e 07 3e d9 17 d6 3d 17 0f a1 3e fd a2 da 3d
       0.13237841 0.10453767 0.31456825 0.10675619
000240 35 5d 24 3d 62 2e 71 be 9c 7f b4 3d 5e 93 88 be
       0.04012795 -0.2355285 0.08813402 -0.26674932
000250 e4 3f 83 3e a3 ab c8 3d 98 fc 55 bd db d3 3d bd
       0.25634682 0.09798362 -0.052242845 -0.04634462
000260 0e d5 c1 3d fa 53 e1 b8 18 2b df bc 21 ec 34 3e
       0.09464465 -0.00010744478 -0.027242228 0.17668201
000270 46 e1 0b bc b6 28 8f be 58 c5 60 bd 5d 89 dc 3e
       -0.008537596 -0.27960747 -0.0548757 0.4307355
000280 f3 ad 07 bf 4c 99 e5 bc 50 dc ce 3e a9 7e 6d 3c
       -0.529998 -0.0280272 0.4040246 0.01449553
000290 7a 2d f3 be bd 90 be 3d da 9b 25 bd 00 a4 d2 3d
       -0.47495633 0.093049504 -0.040431835 0.10285187
0002a0 64 53 9c be ed 07 a8 3e f2 78 14 be 17 b8 e4 3d
       -0.30532372 0.32818547 -0.14499262 0.11167925
0002b0 60 fb e7 3d 78 27 9e 3e 72 b8 f6 3d b8 1d 63 bc
       0.11327243 0.30889487 0.12046899 -0.013862066
0002c0 7d bb c1 3d e1 f4 d1 be bf 60 02 be df 35 e2 bd
       0.09459589 -0.4100714 -0.12732218 -0.11045431
0002d0 62 2c de 3d 51 54 0a 3d e2 b9 9a bd d6 ae dd be
       0.10848309 0.033771817 -0.075549856 -0.43297452
0002e0 9d c1 87 3e 01 a2 0d be f9 03 06 be 2f 18 df 3d
       0.26514903 -0.13831331 -0.13087453 0.108932845
0002f0 ee 62 56 3e e8 09 1e bd c8 c9 8b 3a 7b ef b2 3d
       0.20936176 -0.038583666 0.0010664994 0.087370835
000300 7e 35 17 3e 4d 3a 94 be 56 d6 43 be 88 4f cb be
       0.147665 -0.2895073 -0.19124731 -0.39709115
000310 18 f7 4e 3d 5a d9 67 3e 74 88 8d be 57 25 1c be
       0.050528616 0.22641507 -0.27643168 -0.15248619
000320 91 00 dd 3d 9e af 96 bd 91 e7 3d 3e 71 91 1f bd
       0.10791124 -0.07357715 0.18545367 -0.038957063
000330 61 25 ff 3e 53 f7 1d bf b6 a6 8e 3e bd a4 ba 3e
       0.49833205 -0.6170551 0.27861565 0.3645381
000340 46 50 b2 3d 10 17 2b be db 67 8e bd 50 b2 74 3c
       0.08706717 -0.16708016 -0.069534026 0.014935091
000350 fb c2 3e bd e0 df db 3d 09 85 a9 be 61 20 13 be
       -0.046572667 0.1073606 -0.3310931 -0.1436782
000360 ce 94 a6 3e 94 3f dd bd fa e4 e6 bd 55 81 19 3e
       0.32535404 -0.10803142 -0.112741426 0.14990743
000370 f0 b0 b6 3b f3 d6 91 be bf 86 ff bd 81 65 b0 3e
       0.005575292 -0.28484306 -0.12476873 0.3445244
000380 dd 78 a5 3d ee aa cd bb 9f 7e 96 be 50 55 0a be
       0.080796935 -0.00627648 -0.2939348 -0.13509107
000390 a0 d2 1a be a6 1a f0 3d 0a 2a 09 3e 67 16 6e be
       -0.1511941 0.11723833 0.13394943 -0.23250733
0003a0 a4 80 0a 3e a6 66 1a bd c1 6a d4 bd 81 c8 cc bb
       0.13525635 -0.03769555 -0.10371924 -0.006249488
0003b0 f8 1b 1f 3e 73 9d 9d bd 55 c0 97 bd 01 7d 27 3e
       0.15538013 -0.07696047 -0.07409731 0.16356279
0003c0 f4 af 27 be 57 d3 58 bd 24 f9 24 be cd 14 5f 3e
       -0.16375715 -0.052935924 -0.16110665 0.21785279
0003d0 76 10 52 3e 21 36 0f be 5b af e2 be 6a 82 20 bd
       0.20514092 -0.13985492 -0.4427441 -0.039186873
0003e0 f5 93 00 3e ce a8 b3 be d7 7c b7 bd 17 72 6d bc
       0.12556441 -0.35089725 -0.08959358 -0.014492533
0003f0 b9 14 d7 3d ff 4c e5 bc 4f 6f 75 3e 1e f4 59 bd
       0.105019994 -0.027990816 0.23968242 -0.053211324

net.2.bias f4 [32]
000000 ad 9a 71 3e 27 3e 1c 3e 05 92 09 3e 99 cc 66 3e
       0.2359416 0.15258084 0.13434608 0.22538985
000010 80 9f 54 3e 09 c0 49 3e 16 f7 fb 3d 4d dd 8a 3b
       0.2076397 0.19702162 0.12302987 0.004237807
000020 56 eb e7 3d 93 59 12 3e 95 20 57 3e 76 eb 40 3e
       0.11324184 0.14291982 0.21008523 0.18839821
000030 e5 0e 62 3e 92 35 05 3e 45 19 4b 3e fa 17 13 3e
       0.22075994 0.13008717 0.19833858 0.14364615
000040 b2 b6 5f 3e ca 8b 3f 3e 1b e8 90 bd ba 37 f5 3d
       0.21847036 0.18705669 -0.070755206 0.119735196
000050 11 80 79 3e 17 49 f5 3d 40 9c ad 3d 2f c6 3f 3e
       0.2436526 0.119768314 0.08477068 0.18727945
000060 4a e6 a2 bc e3 72 6f 3e 92 2f 1e 3e a4 df a3 3d
       -0.019885201 0.2338367 0.15447834 0.080016404
000070 44 aa 03 3e 3d e2 09 3e ea 6a 32 3e eb fb 17 3e
       0.1285792 0.1346521 0.17423597 0.14842193

net.4.weight f4 [64, 32, 3, 3]
000000 ed ea 05 bd 9f 5e 95 be 42 5f 2f be cc 30 c6 3e
       -0.032694746 -0.29173753 -0.17126182 0.38709104
000010 07 7f ec 3c 38 15 fe 3d 4a 7a 3a bd 47 d8 99 be
       0.028869165 0.12406391 -0.04552678 -0.3004782
000020 b6 34 0f bf ec f4 1a be 59 91 06 be 30 ea 40 3e
       -0.55939806 -0.15132493 -0.13141383 0.18839335
000030 3a c5 4e 3e 0b c5 0e be 80 46 d5 bb f4 69 cb bd
       0.20192423 -0.13942353 -0.0065086484 -0.09932318
000040 b8 4f d1 3e ed 49 3e bf f0 b3 ad be d6 d2 d9 be
       0.40881133 -0.7433155 -0.33926344 -0.42543668
000050 0a 53 31 3c d1 8f 14 be 83 45 17 3f 34 63 93 3e
       0.010823021 -0.14507987 0.5909044 0.28786623
000060 4b 6e 1a 3d c0 b5 46 be f8 61 62 bd a8 25 8e be
       0.03770284 -0.1940527 -0.05526921 -0.27763104
000070 54 88 35 3e 39 a4 a9 3d f6 3f 91 3d 2c 68 73 3e
       0.17727786 0.08283276 0.07092278 0.23770207
000080 28 ea 9c bc cc f5 e2 be 61 30 d5 3c 04 74 99 bd
       -0.019154623 -0.44328153 0.026024045 -0.07492831
000090 de cc 07 3d b1 f0 22 be 71 ec ec 3d 16 49 d8 bb
       0.03315436 -0.15912129 0.11568535 -0.0066005094
0000a0 06 ca 99 be 24 67 ce bc f9 26 8a be 6c 90 a2 bd
       -0.30036944 -0.025195666 -0.2698286 -0.079377025
0000b0 7c b1 d7 be 28 be 64 be 40 b7 d6 bd 1e 76 3f bd
       -0.42127597 -0.22338164 -0.10484171 -0.046743505
0000c0 35 bb fd bc 76 da 05 3e 86 8e d0 be 10 87 31 3d
       -0.030973056 0.13071617 -0.40733737 0.043341696
0000d0 e3 82 cf 3d cc 5a d5 be c1 37 dd bd 3a a3 00 bf
       0.101323865 -0.41670835 -0.1080165 -0.50249064
0000e0 30 69 11 3e 06 36 98 3e bf 59 61 3e 0a 7c 47 be
       0.14200282 0.29728717 0.22006892 -0.19480911
0000f0 a8 1e ea be 58 0a 51 be e8 6a 7a 3e 58 43 37 3d
       -0.45726514 -0.20414102 0.24454844 0.04474196
000100 eb d4 8d 3e 58 ea 39 3e a1 f6 f0 3d 73 36 9b 3d
       0.27701506 0.18155801 0.11765791 0.07578745
000110 3f d5 83 3e 56 83 ae 3b c7 bc ab bc 87 36 38 3e
       0.2574863 0.005325715 -0.02096404 0.1798955
000120 b3 b1 b8 be 32 dc 94 be 1a b3 76 3d 08 04 ee 3e
       -0.36073074 -0.29074246 0.0602294 0.4648745
000130 a5 ad e4 3c 42 6a 97 3e ed 08 89 3e c8 97 91 3e
       0.027914831 0.29573256 0.26764622 0.28436112
000140 1d f0 da bd 20 2f 97 bd 84 bd 0d be a4 0d 2d be
       -0.10690329 -0.07382035 -0.13841826 -0.16899735
000150 6e c5 40 ba 9d 70 75 bd f2 09 c4 bd 6a e3 2a 3e
       -0.0007353638 -0.05992185 -0.095722094 0.16688314
000160 4f 2b 55 3e f2 41 2e be d6 5d 40 bd 41 6a a9 bd
       0.20817302 -0.17017344 -0.04696449 -0.082722194
000170 f4 6c bc 3c 9f c3 83 3e f2 ce 0e bf da 1c 9d be
       0.023001172 0.25735185 -0.55784523 -0.30686074
000180 0d 25 8b 3e ae fe 5c be 5f 2d 3a be e0 b1 5c be
       0.27176705 -0.21581528 -0.1818137 -0.21552229
000190 92 ad 3b bd 51 b9 81 3e 1b 18 74 bd eb 4d 39 3e
       -0.045819826 0.25336698 -0.0595933 0.1809613
0001a0 49 db 72 bc 2a 72 b9 3d 3b e0 89 be 76 98 f9 3d
       -0.0148227895 0.09054978 -0.26928887 0.12187283
0001b0 90 82 75 3d 8d ec 69 bd 57 2f 55 bc 97 6d 80 3d
       0.059938967 -0.057110358 -0.013011775 0.062709026
0001c0 aa 64 aa bd a2 d9 05 be 73 6f 3f 3e 02 ac 73 be
       -0.083199814 -0.13071302 0.18694858 -0.23796085
0001d0 79 2d 8f be 54 84 15 be 15 ea 32 ba 47 b2 5f 3e
       -0.2796438 -0.1460126 -0.0006825042 0.21845351
0001e0 0b ab 6a 3e e5 95 4d 3e 55 ab 93 3d 7f c9 bf 3d
       0.2291681 0.20076711 0.07210413 0.09364604
0001f0 2d 60 0c bd 90 4b 74 bd b1 05 8c be 91 02 cf 3d
       -0.034271408 -0.059642375 -0.27348092 0.101079114
000200 76 c7 53 bc fc b8 21 3e 85 51 94 3e 74 e2 68 bf
       -0.012925973 0.15793222 0.28968444 -0.9097054
000210 67 ce 1d be 1d af 2b 3f 57 f7 b7 bd 7b 69 c5 bc
       -0.15410767 0.67064077 -0.08982723 -0.024098149
000220 14 53 20 be e4 fe fd 3d f8 58 ba 3d e4 79 a4 bd
       -0.15656692 0.12402132 0.09099001 -0.08031061
000230 de ba c1 3c aa 3d 8f 3b 62 8e a2 3e 89 99 8b bd
       0.023648676 0.0043713646 0.31749254 -0.06816394
000240 24 a3 45 be 0a 14 27 bd 61 24 ad 3c 90 4f 16 be
       -0.19300514 -0.040790595 0.02113551 -0.14678788
000250 c9 f9 5a be c5 04 4d bc 5c 30 b5 3b ce 28 08 bb
       -0.21384348 -0.012513344 0.0055294465 -0.0020776275
000260 10 de fc 3d 79 77 95 3e 6b 99 62 3e ce b7 9c be
       0.123470426 0.29192713 0.22128837 -0.30608982
000270 15 df 64 be a4 2f 44 3c e9 6c 29 be 04 1a 65 be
       -0.22350724 0.011974249 -0.16545452 -0.22373205
000280 04 ae db 3e c8 47 ec 3e 7b ed 5d bc 09 f0 40 3e
       0.429062 0.46148515 -0.013545389 0.18841566
000290 b5 d1 ad be 62 97 36 be cd b1 0d be c0 b3 a6 be
       -0.33949056 -0.17831185 -0.13837357 -0.32559013
0002a0 dd a3 55 3d 8f fc ea 3d d6 df ab 3e 98 38 5f bd
       0.052158225 0.11473953 0.3356921 -0.05449733
0002b0 00 55 0e bf 64 b4 b7 3e 08 23 89 3e 92 ac b0 be
       -0.5559845 0.35879815 0.2678454 -0.3450666
0002c0 c0 55 c8 3d 37 c7 85 be 0b b8 61 3e 75 18 a7 be
       0.097819805 -0.2612855 0.22042863 -0.32635847
0002d0 2c d3 dc 3d 1f 54 62 be 9a 52 e9 3d a3 a5 7a be
       0.10782465 -0.22102402 0.11392708 -0.24477248
0002e0 27 86 28 3e 76 73 07 3d e9 6e 95 3d 2a 46 ae 3d
       0.16457425 0.033069097 0.07296545 0.085094765
0002f0 fe 95 fe 3e be a3 aa 3d 07 f5 97 3d 82 5c 8f be
       0.4972381 0.083320126 0.07419782 -0.28000265
000300 d9 d0 48 3d 71 86 dd be d6 79 50 3e 37 f9 15 bd
       0.049027298 -0.43266633 0.20358977 -0.036614623
000310 46 b5 62 be 56 b7 16 3e 0e ae e6 bd 58 bf 8f bd
       -0.22139463 0.14718375 -0.11263667 -0.07018918
000320 d5 a1 58 3e d8 64 b9 bd a0 23 9a 3c 8b 4b 97 be
       0.21155484 -0.090524375 0.018815815 -0.29549822
000330 30 9d c8 bd 29 5e 93 3d 37 fa 3f bd 62 aa ff 3d
       -0.09795606 0.07195694 -0.046869483 0.1248367
000340 d2 49 25 be 9a 4b 14 3e 7a 45 15 3e c0 9e 20 be
       -0.16141441 0.14481965 0.14577284 -0.15685558
000350 fd 1a 2f 3e 71 9c d5 3d 60 d2 5c be c8 db 74 be
       0.17100139 0.104302295 -0.21564627 -0.23911965
000360 f2 e1 ad be b7 8e a0 be 70 9d 64 3d 61 18 f5 bd
       -0.33961445 -0.31358883 0.055814207 -0.119675405
000370 11 ce 5b 3e d1 4c 81 be 88 5b 9c 3c 4f 0b 01 be
       0.21465327 -0.2525392 0.019086614 -0.1260197
000380 e1 c3 4b be 3a f4 da be 02 f7 df bd b0 86 e3 3d
       -0.1989894 -0.42764455 -0.10935785 0.11109674
000390 09 a3 59 be 37 9e 29 3e e6 a7 08 bf f9 90 1d be
       -0.21253599 0.1656426 -0.5338119 -0.15387334
0003a0 2f 87 a3 3e 84 8a 0e 3e d3 83 80 be ae 5f 84 3c
       0.31939074 0.13920027 -0.25100574 0.016158905
0003b0 83 f4 a2 be 69 b2 d3 bd 89 2a 82 3e 78 8e de be
       -0.31827173 -0.103367634 0.25423077 -0.4346807
0003c0 ec d7 b3 bd 07 b1 d8 3b 68 50 c9 3e 93 37 1e be
       -0.08781418 0.0066129 0.39319158 -0.15450887
0003d0 17 1f 1b be f9 32 0b be 32 e2 8e be c2 d8 b4 3d
       -0.15148579 -0.13593663 -0.27906948 0.08830406
0003e0 04 25 23 3e c4 67 8d be 52 2e 92 3e d9 fa 16 bf
       0.15932089 -0.2761823 0.28550965 -0.58976513
0003f0 3f 71 93 3d 75 d8 a0 bd aa 8c 91 3d 0f 68 7e 3d
       0.07199334 -0.07853786 0.07106908 0.062110957

net.4.bias f4 [64]
000000 49 3f 3e 3e f9 aa 35 3e 5a b0 6e b9 4e 43 88 3d
       0.18578829 0.17741002 -0.00022763145 0.06653462
000010 bf 2a 10 bd 2d 50 10 be 05 75 dd 3d 55 74 87 3d
       -0.035197016 -0.14093085 0.10813335 0.066139854
000020 ea 5e b1 3d 53 60 3a 3e d1 d1 2b 3e ad 51 19 3d
       0.086606815 0.18200807 0.16779257 0.037431408
000030 fb 97 72 3e b7 cd 53 be 73 c2 b6 3d 96 98 89 3e
       0.23690788 -0.20683943 0.08923807 0.26874226
000040 d0 82 20 3d 39 64 cc bd 60 84 ab 3c fc 81 26 3e
       0.039187253 -0.099800535 0.020937145 0.16260523
000050 eb 98 a3 3d 5a d8 1c 3e 59 db 0b 3e 3e 9b 96 3c
       0.07988151 0.15316907 0.13657893 0.018384572
000060 a4 89 09 bc 8b 2f 2c 3e e8 74 f0 3c 58 d9 30 3e
       -0.0083946325 0.16815011 0.02935262 0.1727041
000070 fd 2f 2b 3e 5f e9 92 3b da a0 08 3e 65 3b 0e bc
       0.16717525 0.0044833864 0.1334261 -0.008681153
000080 ad 73 8b bd 1f 1d d9 3d 44 bb a3 3d 30 5d 2d 3e
       -0.06809173 0.106012575 0.079947025 0.1693008
000090 af dd ae 3d 64 36 8d 3e dd 0c 2b 3e b6 25 a4 3d
       0.085383765 0.2758056 0.16704126 0.08015005
0000a0 70 85 f6 3d c9 f7 b0 3d d1 58 1a 3e af eb 92 3d
       0.1203717 0.08641011 0.15072943 0.07173859
0000b0 c2 b2 4a 3e 63 62 70 3e b3 c5 8d 3d 5b 79 b3 3d
       0.19794753 0.23475032 0.06922474 0.08763381
0000c0 57 2c fc 3d cf ca 07 3e 6f 59 a3 bb 17 da 01 3e
       0.12313145 0.13260959 -0.0049850265 0.12680851
0000d0 56 64 0d 3e cf 4d d5 3c 22 29 93 bd b6 56 b8 3d
       0.13807806 0.026038079 -0.0718558 0.09000914
0000e0 92 63 26 3e a7 64 3a 3d db 8d 22 3e f6 c7 1f 3e
       0.1624892 0.045506146 0.15874426 0.15603623
0000f0 7e df 84 3d 13 9e 49 3d 0c 93 2a be 0d 7d 92 3d
       0.0648794 0.049223017 -0.16657656 0.07152758

net.6.weight f4 [64, 64, 5, 5]
000000 0e 33 a4 bd aa 2d 36 be 71 c0 33 3f 36 54 9b bd
       -0.080175504 -0.17790857 0.7021552 -0.07584421
000010 8e 89 99 be 40 c0 a9 be 49 94 f7 bd e0 5a d3 3e
       -0.29987758 -0.33154488 -0.1208883 0.4128027
000020 32 1b e7 3e 70 90 9a be 4e e7 26 3e ac 83 dd 3a
       0.45137936 -0.30188322 0.16299173 0.0016900203
000030 8e 65 de 3e 17 6e f5 bc ef 4f f4 38 5f 42 0d be
       0.43436855 -0.029959721 0.000116497155 -0.1379485
000040 74 7b 62 be 69 52 8b 3e b2 e4 4d bd 84 a6 5f bd
       -0.22117406 0.2721131 -0.05026693 -0.05460216
000050 b0 fb 02 3f dc 62 b2 be 3a ec 01 3e 36 2f 2e 3e
       0.51165295 -0.3484105 0.1268777 0.17010197
000060 cc 81 5d 3e 47 9d 98 bd b9 67 82 be 8d 9a 66 3f
       0.21631545 -0.07451873 -0.2546976 0.90079576
000070 52 cd e5 ba 98 f3 8f be 80 48 f0 3d 11 42 fd 3e
       -0.0017532504 -0.28115535 0.11732578 0.49464467
000080 6e 92 50 be bd 3f dd 3e 8d 76 5c bd b8 83 b1 bd
       -0.20368358 0.4321269 -0.053823996 -0.086677015
000090 10 32 57 be e3 cd 93 3e 46 d4 52 3f 04 b4 a1 be
       -0.21015191 0.28868017 0.82355154 -0.31582654
0000a0 19 16 8d be 2c bb d0 be 95 9d ba be db c6 dd 3e
       -0.27555922 -0.407678 -0.3644835 0.43315777
0000b0 32 73 5c be 5d 1b 4a bf a6 4e b5 bc ac 1a f7 3e
       -0.21528319 -0.78948003 -0.022132229 0.48262537
0000c0 e7 de 20 3f f1 07 10 3e 6a 40 c8 3d f1 47 29 bf
       0.6284012 0.1406553 0.09777911 -0.661254
0000d0 2e 11 27 be 11 b9 9f bd 2d 13 98 be 23 4e e0 bd
       -0.16315147 -0.077989705 -0.2970213 -0.109524034
0000e0 02 4b ac 3e b0 26 5a be 67 d8 01 3f 70 d1 b5 3d
       0.33650976 -0.2130382 0.5072083 0.08877838
0000f0 0d 67 c8 3e 8f d2 b4 be 39 9c 62 bd f4 1f f1 be
       0.39141122 -0.35316893 -0.055324767 -0.4709469
000100 6c 2b 8a 3c 7d ad 59 bd 9d 64 70 bc 3b 83 2f 3e
       0.016866408 -0.053143967 -0.014672426 0.17139904
000110 13 08 18 3f da cf be 3e d9 3c dc 3e 6e bd 62 3e
       0.5938732 0.37267953 0.43015173 0.22142574
000120 d7 02 9f bb 5a 70 4d 3c da 8e 6a 3e 03 f5 8c be
       -0.0048526335 0.012538994 0.22906056 -0.2753068
000130 97 52 8e 3e 12 d1 a7 bd 5f af 02 be d9 e4 9a 3d
       0.27797386 -0.08194174 -0.12762211 0.075631805
000140 9f ae c6 3e 35 25 d3 3e 93 0f 7b 3e f3 fc ce 3d
       0.388051 0.41239324 0.2451766 0.1010684
000150 b1 23 83 3e ae 25 6c be e6 bc 20 3e af 9a 2d bc
       0.25613168 -0.23061249 0.15697059 -0.0105959615
000160 a8 31 8b be f2 15 03 3e fb bb 20 3e 8a 29 1c 3f
       -0.27186322 0.1280134 0.15696709 0.61000884
000170 98 75 91 3e 9b b7 b7 3e dc 39 0a 3f 3f 9e ca bd
       0.2841003 0.35882267 0.53994536 -0.09893464
000180 e3 16 c2 be 96 49 d9 3e a4 88 5d 3e 13 94 59 3e
       -0.37908086 0.42438954 0.21634156 0.21247892
000190 e1 5d df 3e 2c d9 bb be 4e 03 cf be d1 b5 42 3d
       0.4362631 -0.36689126 -0.4043221 0.047536675
0001a0 55 4b 10 be 47 31 f7 bd 97 91 1a 3f ed 66 4f 3e
       -0.14091237 -0.12069946 0.603784 0.20254107
0001b0 d2 40 66 3f d0 d4 c7 be de b5 a4 3d 3b 25 06 3f
       0.8994266 -0.3902955 0.08042501 0.5240056
0001c0 29 52 af 3d 64 da 4f 3e a5 e4 e3 3e 87 70 eb 3d
       0.08560593 0.20298153 0.4451038 0.11496072
0001d0 6f 27 16 3e 4c af ba be 80 08 b5 be ed e0 f7 bd
       0.1466348 -0.36461866 -0.35358047 -0.12103448
0001e0 69 c1 99 bd 28 37 d8 3e 66 ba 0a bf 76 ec d9 bd
       -0.07507593 0.4222958 -0.5419067 -0.106408045
0001f0 25 cd a6 3e 2e 72 64 3e 4d ff d0 3e 2c 9a 3e 3e
       0.32578388 0.22309181 0.4081978 0.186135
000200 17 a0 cf 3e 2b f2 ed 3e cd a9 9a 3d d5 7d d8 bc
       0.40551826 0.46473822 0.07551918 -0.026427189
000210 ae 82 c2 3d bd 7e 16 3f 11 7a 10 3e 55 01 8f 3c
       0.094975814 0.5878714 0.14109065 0.01745669
000220 f5 25 9a 3d e1 cc 02 3f d9 fc 81 bd ea a6 6f bc
       0.07526771 0.5109387 -0.06347055 -0.014627198
000230 a0 b0 8f 3e 71 dc 8e be 0c ea dc 3b da dc 9b 3d
       0.28064442 -0.27902558 0.0067417677 0.076104835
000240 32 97 42 3e cc 3b 7d 3d cf d4 d8 be 97 95 3d 3f
       0.19002989 0.061824605 -0.4234986 0.7405638
000250 cc 1c dc 3c d5 47 17 be 6e 69 1a bd 02 f2 12 3e
       0.0268692 -0.14773495 -0.0376982 0.14350131
000260 18 66 c1 bd fa ba 70 be 46 ec 6e 3f fa 57 60 be
       -0.09443301 -0.23508826 0.93329275 -0.2190856
000270 0c 27 42 bd 4f 30 61 3e ea b5 19 3e 6c e6 e7 bd
       -0.04740052 0.21991085 0.15010801 -0.11323246
000280 6f c8 b7 bd 75 ad 93 3d 4c 17 f6 bd 32 36 c8 3e
       -0.089737765 0.07210819 -0.12016162 0.39103848
000290 07 d8 16 bd 22 da 0c bf ef fc 35 be 95 e7 30 3d
       -0.036827113 -0.55020344 -0.17772268 0.043189604
0002a0 7f 4b f8 3b e6 8b 1d 3e fa 34 7e 3e 81 49 38 be
       0.007577359 0.15385398 0.24824896 -0.1799679
0002b0 b8 cb b4 bc 81 db e7 3d 3c 81 82 3e 69 2c 3a 3d
       -0.022069797 0.11321164 0.25489223 0.04545251
0002c0 71 61 84 3e 6c 68 cb bd 78 7e be 3e d9 9b c1 be
       0.25855592 -0.09932026 0.37205863 -0.37814215
0002d0 d7 39 d1 3c 88 41 22 3e ad 07 10 3f 59 87 e8 3e
       0.025540275 0.1584531 0.5626171 0.45415762
0002e0 bc 20 a5 3e 43 03 91 3d 6b 2d 1c 3e 2d 76 89 3e
       0.32251537 0.070807 0.152517 0.26847973
0002f0 c7 f5 1d 3e c8 25 4d be d0 08 0c 3f 54 f7 10 be
       0.15425788 -0.20033944 0.54700947 -0.14156848
000300 26 3d 12 3e 00 ef 02 3d 92 9e 49 bd 6a fc 13 be
       0.14281139 0.03196621 -0.04922349 -0.14451757
000310 77 73 90 3e 7c 6c a4 3d 16 42 02 bf bb 5f 89 ba
       0.28213093 0.08028504 -0.5088209 -0.00104808
000320 c7 8c ae 3e 51 b7 2f bc 39 00 bc 3a 50 0f a3 3e
       0.3409178 -0.010724858 0.0014343328 0.3184762
000330 80 c2 a9 3e ec f9 2c 3f 17 5f 1d be 3f 5b 0c 3e
       0.33156204 0.6756885 -0.15368305 0.13706683
000340 4c 49 91 be 42 51 93 3d 08 f8 bb bc 3d fd 86 be
       -0.28376234 0.07193233 -0.022945419 -0.2636508
000350 00 10 b7 3e 38 be 9f bc 82 8d 8f 3d d7 c1 6c 3f
       0.35754395 -0.019499883 0.07009412 0.92483276
000360 7b 04 40 bd 97 e3 d2 3c f8 d3 c6 3e 12 6e 90 be
       -0.046879273 0.025743289 0.38833594 -0.28208977
000370 25 f1 45 be e9 9d cf 3e 5e 50 89 3d 89 62 10 3f
       -0.1933027 0.40550163 0.06704782 0.5640035
000380 50 ad 8b 3e 79 6c 45 3e df 12 4d 3d 45 1f 89 3c
       0.27280664 0.1927966 0.050066825 0.016738543
000390 51 81 83 be 46 bd 3b bd 6f 58 fc 3e a4 fb 9b 3e
       -0.25684598 -0.045834802 0.4928622 0.30465424
0003a0 b2 18 00 3e 9a a9 b4 be bb 91 c8 3e e2 ff 95 3e
       0.1250942 -0.35285646 0.39173684 0.29296786
0003b0 c3 92 72 be c5 3e 83 be b0 81 4b bd bd d2 94 3e
       -0.23688798 -0.25633827 -0.049684227 0.2906703
0003c0 b0 3d f2 3e b7 7b 2b 3e ac 58 3d 3f 0d 5c 83 be
       0.4731269 0.16746412 0.7396343 -0.25656167
0003d0 39 49 10 3e 32 01 24 3f da 98 21 3d 4f 40 33 3f
       0.14090432 0.64064324 0.03945241 0.7002
0003e0 f6 93 fa 3d 87 d7 3b be 4b 2c 9e 3d fd 37 a1 3c
       0.122352526 -0.18343936 0.07723292 0.019680018
0003f0 d5 42 87 3e 5c 97 0f be 01 97 f8 3e f6 e4 14 3e
       0.26418176 -0.14022583 0.48552707 0.14540467

net.6.bias f4 [64]
000000 65 c1 cb 3d 65 9f b1 3d 7b 40 2e 3e 26 d9 10 3e
       0.099489965 0.0867298 0.17016785 0.14145336
000010 f0 1a e9 3c 49 ed c1 3d a8 e0 51 3e 63 57 52 3e
       0.028455228 0.09469087 0.20495856 0.20541148
000020 b0 31 5e 3d 59 71 e2 3b b9 bd d3 3c c3 f4 a5 3d
       0.054246604 0.0069104847 0.025847303 0.08103325
000030 04 8a 49 3e 24 0c cd 3b 9b b3 0e 3e f6 48 1f 3e
       0.19681555 0.006257551 0.13935702 0.15555176
000040 7c 50 16 3d 01 0a e1 3d e5 88 48 3e c5 68 ce 3d
       0.03669785 0.10988236 0.19583471 0.10078577
000050 3e 3d e5 3d f5 a0 9a bb 8d 78 8a 3e d0 a2 51 3e
       0.11193322 -0.0047188946 0.27045098 0.20472264
000060 f4 48 b5 3d 53 60 0c 3e 18 6a 12 3e 31 ae 65 3e
       0.08851805 0.1370862 0.14298284 0.2242973
000070 ed ca ad 3d ed b6 a2 3d 9b d1 65 3e 37 99 ce 3e
       0.08485971 0.079450466 0.2244324 0.4035127
000080 3c bc b0 3e 45 06 28 3e 3c a2 ba 3d 50 d9 ea 3d
       0.3451861 0.16408642 0.09112975 0.1146723
000090 d6 41 84 3e f0 a1 56 3e bb ef 06 3e 2d 03 5b bc
       0.2583148 0.20960212 0.13177387 -0.013367456
0000a0 13 e7 b5 3d fe 94 56 3e c2 b4 62 3e 25 f9 20 3e
       0.088819645 0.20955274 0.22139266 0.15720041
0000b0 fb 07 ea 3b e6 8c 57 3e 5b 9f 25 3d 80 b1 91 3c
       0.0071420646 0.21049842 0.040435176 0.017784834
0000c0 b7 60 76 3c c3 43 1d 3e e2 d3 43 bc b7 fe 95 3d
       0.015037707 0.1535788 -0.011952372 0.073239736
0000d0 a4 e4 24 3e 09 3f 0e bd 1e af c0 3d 3e a7 82 3c
       0.16102844 -0.034728084 0.09408401 0.015948888
0000e0 9e 02 da 3d 38 aa 24 3e 9b 19 28 3e e2 e2 96 bd
       0.106450304 0.16080558 0.16416018 -0.07367493
0000f0 d8 b1 a4 3d f3 31 3f bd 39 a1 a0 3d 36 26 21 3e
       0.080417335 -0.046678495 0.07843251 0.15737233

policy.0.weight f4 [3, 64]
000000 96 67 3f c0 4e ec ea 3f 4c ee da 3d 05 6d 79 be
       -2.9906974 1.8353364 0.10689983 -0.24357994
000010 bb c5 90 3d 3c dc 91 3e 4a 12 24 c0 c6 a4 83 bf
       0.07068964 0.28488338 -2.5636163 -1.028466
000020 1a 8f b4 bd 69 1e 1e c0 b8 06 a9 be df 42 19 c0
       -0.08816357 -2.470606 -0.33012938 -2.3947065
000030 af f2 89 be 7f 42 f9 3f 70 22 c3 3e 91 54 95 3e
       -0.26942965 1.9473418 0.3811221 0.29166082
000040 83 7f 9e be ca 31 c6 bf 05 15 8c 3e 58 a9 56 bf
       -0.3095666 -1.5483944 0.27359787 -0.8385215
000050 1b 84 bb 3e 95 ad 48 bf ea a0 89 be d7 b3 a6 bd
       0.36624226 -0.78389865 -0.2688058 -0.081397705
000060 d3 85 24 3e 83 b0 4a 3e 91 bc dd be 3c 18 16 be
       0.16066675 0.19793896 -0.43307927 -0.14657682
000070 90 8f 9e be 9d ee 4d 3e 75 18 af bd 09 e9 13 bf
       -0.30968904 0.20110555 -0.08549587 -0.5777746
000080 fb 0c 09 c0 0d e8 0f 40 91 68 cd 3f 33 c6 ab 3f
       -2.1414173 2.2485383 1.6047536 1.3419861
000090 e8 7d 1d bf fb 41 df 3e 75 d1 64 3e 4d ac cc 3e
       -0.6152024 0.43605027 0.22345527 0.39975205
0000a0 3d 16 97 bd 22 bd 08 bf 64 56 a6 3e d0 f3 54 c0
       -0.073772885 -0.53413594 0.32487786 -3.3273811
0000b0 bc ea 91 bf f8 ba d2 3e a2 20 b4 bf d4 62 c0 bd
       -1.139976 0.4115827 -1.4072459 -0.0939385
0000c0 62 13 98 bd 3a 25 1b 3f ca 9c 0c 40 97 f8 04 40
       -0.07425572 0.6060368 2.1970696 2.0776727
0000d0 e4 1f db 3f 25 dc 45 40 c4 a2 c4 bd 77 61 28 bd
       1.7119107 3.0915616 -0.096013576 -0.041108575
0000e0 fe a7 3d bf fd 62 3b bf 90 3f 9c 3e d4 94 0b 40
       -0.7408446 -0.7319792 0.30517244 2.1809587
0000f0 e6 2b 2e 3d 6a c1 f5 bf c1 2a f0 3e 76 a5 5f 3d
       0.042522334 -1.919965 0.4690762 0.054601155
000100 46 b3 a4 3e 5c dc 44 be 5d 64 cf 3d 96 28 3a 3e
       0.32168025 -0.19224685 0.10126565 0.18179545
000110 75 56 7e 3d de 22 90 be 60 48 bd bf 41 6a 2e bf
       0.06209417 -0.28151602 -1.4787712 -0.6813088
000120 89 ec e4 3d 99 bd 03 c0 18 66 f9 bf 25 f4 6e bf
       0.11177928 -2.0584471 -1.9484282 -0.93341285
000130 89 01 4e 3f e2 88 a9 bf ed 92 6f be ea b9 91 3d
       0.8047109 -1.3244898 -0.23395891 0.071155384
000140 bb 7f f1 3e fd 34 07 40 99 f5 0d 3f e1 25 9a bf
       0.47167763 2.1126091 0.5545288 -1.204281
000150 47 c2 3a b9 32 60 97 3f e3 d0 c8 be 65 ab 24 be
       -0.00017810716 1.1826231 -0.39221868 -0.16081007
000160 c5 d6 6d be 9e 0a e0 3e b2 71 8d 3c 66 95 9f 3e
       -0.2322646 0.437581 0.017266128 0.3116867
000170 06 15 f6 3f aa 73 45 3d 00 9b 70 be f0 d3 b3 3f
       1.9225166 0.04820601 -0.23496628 1.4049053
000180 a7 b0 27 40 fb 21 f8 be 03 d9 0e be 38 b3 10 c0
       2.620157 -0.48463425 -0.13949971 -2.2609386
000190 4c e5 2a 40 9d 77 0a 3e 65 49 8f 3e 44 8c b1 3d
       2.6702452 0.13522191 0.27985683 0.08669332
0001a0 63 73 98 3e a0 28 1e c0 c2 16 91 3f 53 98 51 3f
       0.29775533 -2.4712296 1.133507 0.81873053
0001b0 ba ca 23 40 9b 0b d7 3f 85 15 05 c0 d2 c5 1d be
       2.5592484 1.6800417 -2.0794384 -0.15407494
0001c0 e8 9f 93 3d c4 07 b8 be 92 34 28 bf 63 8c 52 bf
       0.07208234 -0.35943425 -0.65705216 -0.82245463
0001d0 b6 e6 c9 bf e4 ca 69 bf 21 b6 11 bd bd f3 de 3c
       -1.5773532 -0.9132521 -0.035574082 0.027215833
0001e0 87 6c 0a c0 c4 47 26 c0 28 e8 d5 3d 87 a2 2a bf
       -2.162874 -2.5981302 0.10444671 -0.6665425
0001f0 bf db 2c 3e cf ff a4 bf e1 58 63 3e 91 4d d4 3e
       0.16880701 -1.2890567 0.22201873 0.41465428
000200 02 28 b6 3f b9 72 aa bf 25 85 0d 3f 78 45 90 3d
       1.423096 -1.331626 0.5528129 0.070445
000210 1e 02 f7 3e 24 21 d8 3d d1 47 0f 40 2a 5b 08 40
       0.48243803 0.10553196 2.2387583 2.1305642
000220 20 f2 81 3f 9b 1b 45 40 7a ce 08 40 f3 cd 2f 40
       1.0152016 3.07981 2.1376023 2.7469451
000230 93 e5 55 be 5a cc 6b bf e5 5c 31 3e bc 59 07 bf
       -0.20888357 -0.9210869 0.17320593 -0.528713
000240 56 16 12 3f b7 4d 5c bf ad 5a e1 3d ff 07 e4 3f
       0.5706533 -0.86056083 0.11003623 1.781494
000250 ce 0b a9 bb 0c d3 40 bf a8 fd 92 3f 01 4c cc 3e
       -0.005158878 -0.7532203 1.148366 0.39901736
000260 fd 52 42 be 30 20 2e 3c a9 e1 46 3f 59 aa 52 be
       -0.1897697 0.010627791 0.7768808 -0.20572795
000270 9b 35 bf bf 63 70 d5 bd 62 80 b3 3e 63 40 35 bf
       -1.4938234 -0.10421827 0.35058886 -0.7080137
000280 24 e2 23 bf 74 04 fa bf 45 f9 a6 bf bc 2b 19 3f
       -0.6401694 -1.9532609 -1.3044821 0.5983236
000290 18 74 f1 bf 2b c3 40 3e 72 34 0a 3f c3 8d ad 3d
       -1.8863554 0.1882445 0.53986275 0.084743045
0002a0 93 2c 95 bd 33 6a 06 40 f8 d0 78 bf 35 4f a4 3f
       -0.072838925 2.100232 -0.9719386 1.2836672
0002b0 1a 42 d6 bf 71 18 0a c0 6b d5 15 40 a8 83 03 3e
       -1.6738923 -2.1577418 2.341151 0.12843192
0002c0 08 1c 8b 3b 16 b2 5a bd 68 75 fe bf 12 41 fb bf
       0.004245285 -0.053392492 -1.987958 -1.9629233
0002d0 a2 3d b2 3e 07 c5 19 c0 76 dc 8b 3d f2 2b 3c 3d
       0.34812647 -2.4026506 0.06829159 0.045940347
0002e0 39 5a 26 40 26 14 0d 40 1c 72 da bd 94 f7 d0 bf
       2.5992568 2.2043548 -0.10666296 -1.6325555
0002f0 a0 98 a0 bc 51 fa 30 40 fc 92 8f 3e 76 fb 0e 3e
       -0.019604027 2.765278 0.28041828 0.13963112

policy.0.bias f4 [3]
000000 78 62 37 3e 28 a8 95 3e 95 e9 09 ba
       0.17908657 0.29229856 -0.00052609417
