PPO_discrete/model/Pong-v0_c.pt (torch, 592911 bytes, 11 tensors)

net.0.weight f4 [16, 1, 8, 8]
000000 66 24 b8 be 9f 0f 1c bd 98 c2 a7 3e 89 4d 32 3f
       -0.3596527 -0.038100835 0.3276565 0.6964956
000010 87 20 97 bd 68 e9 54 bd bb 04 1e 3e 93 95 83 be
       -0.07379251 -0.051980406 0.15431492 -0.25700054
000020 ad f4 e2 3d a3 96 6a 3e f1 aa 5f 3e 01 c8 5a 3e
       0.110818245 0.22909026 0.21842553 0.21365358
000030 ee eb c1 3d c7 80 43 3e ce e7 9f 3e a0 85 b7 be
       0.09468828 0.19092093 0.3123154 -0.35844135
000040 36 ba ed bd 37 85 4d 3e 02 db 3e 3f 47 33 c7 3e
       -0.116077825 0.20070349 0.7455293 0.3890631
000050 c1 69 c5 be ae 92 12 be 62 39 8a 3e c9 e1 8d be
       -0.38557246 -0.14313766 0.26996905 -0.27711323
000060 60 f7 39 3e 0f 9b 03 3f a3 7e f6 3e 21 bf e8 3b
       0.18160772 0.51408476 0.4814349 0.0071028625
000070 26 65 d4 be 8e 1b 1d bc ed 42 c1 3e 84 6c bc be
       -0.4148342 -0.009589089 0.37746373 -0.3680154
000080 0a e5 38 3e 06 19 9a 3e 06 cd 9e bd b3 b2 0f be
       0.18056121 0.30097216 -0.07753949 -0.14033012
000090 d5 5e d6 be 0a 0d 1e be 3e 6a 85 3d 4d e9 72 be
       -0.41869226 -0.15434662 0.06514405 -0.2372181
0000a0 6e 55 bc 3d 44 c1 b5 3e 58 54 97 3e ff cc 7c 3e
       0.09195982 0.35499012 0.29556537 0.24687575
0000b0 b9 27 3a be 56 96 0b 3f 00 78 1c 3e b1 b5 dc be
       -0.18179215 0.5452627 0.15280151 -0.4310737
0000c0 e7 4b 15 ba bb aa 9d 3e 01 34 99 3d 1e 28 92 3a
       -0.0005695209 0.3079432 0.07480622 0.0011150872
0000d0 76 46 07 bf 1c 50 85 3e ba 32 a4 3d 7e e3 9e be
       -0.5284189 0.2603768 0.08017488 -0.31032938
0000e0 d6 13 87 be 5f a0 d3 3d e2 6f 80 3c 5d fb 5e 3e
       -0.2638232 0.10333323 0.01567835 0.21775575
0000f0 3e f7 a0 be 1e c2 91 3e 45 6a c7 bc 18 c2 54 be
       -0.3143863 0.28468412 -0.024342665 -0.20777166
000100 c5 ff 53 3e 8c 7d 91 3e 83 ac bf 3e 57 5f 6c 3e
       0.20703037 0.28416097 0.37436303 0.23083244
000110 6e a4 1b 3e a8 b4 65 3d 01 dc 11 be 52 c4 3d be
       0.15199444 0.05608049 -0.14244081 -0.18531922
000120 72 c1 5f 3d 09 5d 98 3e 37 3c 9f 3e 84 4f cc 3e
       0.054627843 0.2975848 0.31100628 0.39904416
000130 4a f8 8b 3e 84 cb 90 bd bd 84 d0 bd e0 36 2a be
       0.27337867 -0.070700675 -0.10181568 -0.16622496
000140 6f 46 c5 3e 1b f8 fd 3e c4 ae c2 3e 61 b8 09 3f
       0.385303 0.49603352 0.3802396 0.53796965
000150 52 cf c4 3e 27 52 83 3e 4a a6 d8 bd be d6 84 bb
       0.38439423 0.25648615 -0.10578592 -0.0040539196
000160 67 0e 82 3e cc 3c cc 3e 92 67 cb 3e 9b 48 13 3e
       0.25401613 0.39890134 0.39727455 0.14383166
000170 5a 5a 77 3e aa e8 b0 3e fc f1 28 3e 7f d8 21 bd
       0.2415556 0.3455251 0.1649856 -0.039513107
000180 8d ae ec 3e 89 2c a4 3e 11 e9 d1 3e fc 81 a3 3e
       0.46226922 0.32065228 0.40998128 0.31935108
000190 2c 65 13 3e fe 2a f7 3e 9d b6 90 3e 86 52 8e 3e
       0.14394063 0.48274988 0.28264323 0.27797335
0001a0 32 b1 e0 3e c4 a4 d2 3e f0 ec c6 3e 4c 0b 54 3e
       0.4388519 0.4114133 0.38852644 0.20707434
0001b0 21 42 77 3e da 9c a7 3e 43 b0 11 3e 5e 56 57 3d
       0.2414632 0.32736856 0.14227395 0.0525726
0001c0 05 4e 9d 3e 8e 50 02 3f 41 88 24 3f 0e 3d 70 3d
       0.30723587 0.50904167 0.64270407 0.058651976
0001d0 70 cb 1b 3d 0f cf 70 be a6 88 54 be 6e 73 83 be
       0.03803581 -0.23516487 -0.20755252 -0.25674003
0001e0 7b 99 95 3e e8 91 f5 3e 77 78 bd 3e fb 30 a1 3e
       0.2921866 0.4796288 0.3700597 0.31482682
0001f0 32 96 84 3d 8f 31 87 be 22 f6 be be 56 9c ac be
       0.0647396 -0.26404998 -0.3729716 -0.33713025
000200 60 c2 f5 3d b1 ef 13 3e 5a 72 85 bf ed f4 06 bf
       0.11999965 0.14446904 -1.0425522 -0.5271748
000210 85 34 f0 3d 07 dc 66 3e 00 1d 09 3e fb 70 86 3d
       0.11728767 0.22544871 0.13389969 0.06564518
000220 58 f3 36 3c e5 e3 0a bd 2e 9d f8 be eb d1 0f be
       0.011166416 -0.033908743 -0.4855742 -0.14044921
000230 c3 15 77 3e f3 6a 7d 3e 00 05 15 3e b6 7a 43 bd
       0.24129395 0.24747829 0.14552689 -0.04772445
000240 17 d2 0f be 45 7f b9 3e 18 61 a2 be 67 55 af ba
       -0.14044987 0.3622991 -0.31714702 -0.0013376892
000250 9a 87 31 3f bd 9e 0f 3f 64 6c 84 3e c2 7a 2f 3d
       0.69347537 0.5610159 0.25863945 0.04284168
000260 1b 18 01 3d de 63 86 3e 86 da 9e 3e 86 da de 3e
       0.03151713 0.26248068 0.31026095 0.43526095
000270 10 c7 0e 3f 5a 36 1d 3e bb b6 b4 be a1 88 b9 bd
       0.55772495 0.15352765 -0.35295662 -0.09059263
000280 41 d1 94 be cc 47 8b 3d ba 75 c4 3b c9 18 f1 3d
       -0.29065898 0.068008035 0.0059954794 0.117723055
000290 84 95 2e 3e 0c 17 1a bd f1 f1 da bd 78 a5 b9 bc
       0.17049223 -0.037619635 -0.10690678 -0.02266191
0002a0 1a 2f 17 bd 07 87 20 be 6d bd 91 3e d1 ea 3e 3f
       -0.036910154 -0.15676509 0.28464833 0.7457705
0002b0 8d 42 10 3f 32 32 04 3c 40 2d 49 bd ab fd 82 be
       0.5635155 0.008068608 -0.04911542 -0.25584158
0002c0 6a fb dd bd e6 9a 21 be 9f 06 d0 3e 32 37 98 3f
       -0.10838969 -0.15781745 0.40630051 1.1891844
0002d0 ad e7 0f 3f 53 93 81 bd ba 62 2a bd ca ca 0b 3d
       0.56212884 -0.06326928 -0.04159806 0.03412894
0002e0 72 91 bf bc 8e 95 33 be 22 3a d4 3e 69 48 93 3f
       -0.023384783 -0.1753752 0.41450602 1.1506473
0002f0 22 e4 5d 3f 29 c3 f6 3e 44 52 6c 3e fb 39 7e 3d
       0.8667623 0.4819577 0.23078257 0.062067013
000300 7b 12 02 bf 4f 4b 12 bf 18 78 fa be 7d b8 7d bd
       -0.5080945 -0.5714616 -0.4891975 -0.06194352
000310 85 98 60 be d8 09 33 be 7b ae 13 bd ab a4 fb 3d
       -0.21933182 -0.17484224 -0.03605507 0.12287267
000320 9f 7f d2 be 34 30 1b bf 30 e2 26 bf 43 0d 82 3c
       -0.41112992 -0.6062043 -0.65188885 0.015875464
000330 fa 09 16 3e 00 cc b3 bd 8d 5f 92 bc b2 56 a3 bd
       0.14652243 -0.08779144 -0.017867828 -0.0797552
000340 74 a4 fb be a3 08 9b bf 22 bb 7d bf 1b 1f fa bd
       -0.49148905 -1.2112011 -0.99113667 -0.12212964
000350 d8 0d 2b 3e e0 52 79 bc 92 c1 37 3e f6 77 ff bb
       0.167045 -0.015217513 0.17944935 -0.007796283
000360 26 db 08 bf 31 d3 93 bf e6 d3 bb bf b4 4f b3 bd
       -0.53459394 -1.1548826 -1.4674041 -0.087554365
000370 da 9e 04 3e 2c 46 be bd 71 fc 00 3d e9 b8 e5 bc
       0.12951222 -0.09290728 0.031490747 -0.028042274
000380 fa b9 d0 be ad 02 85 bf 02 b2 8a bf da 0e 52 be
       -0.4076689 -1.0391442 -1.0835574 -0.20513478
000390 9c 24 ec 3d a1 58 1e bd 0c a0 ba 3d db 78 f5 3d
       0.1153042 -0.03865874 0.09112558 0.11985942
0003a0 46 a4 ab be dc 50 18 bf ec d8 aa bf f5 ac 66 be
       -0.33523768 -0.5949838 -1.3347449 -0.22526915
0003b0 22 52 1f 3e 79 5f 2f be c1 bb c5 3d 77 aa 1c 3e
       0.15558675 -0.17126264 0.09654952 0.15299402
0003c0 e3 82 eb bd 6a a7 1b bf 9a 89 99 bf 46 48 e0 bd
       -0.11499574 -0.6080233 -1.1995118 -0.10951285
0003d0 0e f8 c5 3d 2c f8 4b be 60 51 94 bd ae 2f 97 bc
       0.09666453 -0.19918889 -0.072420835 -0.018455353
0003e0 47 09 b8 3b 2c 6c b3 bd 4b 5a 6e bf c9 55 02 bf
       0.0056163403 -0.087608665 -0.93106526 -0.5091215
0003f0 85 a7 0b be ee 74 c1 bd 7d 02 e8 bc e9 cc 03 bc
       -0.13638122 -0.09446131 -0.028321499 -0.00804446

net.0.bias f4 [16]
000000 f4 64 13 ba e5 a1 8e 3d 0d af fb 3a 8c 46 a7 3d
       -0.0005622648 0.06964473 0.001920195 0.081677526
000010 fb 0a a0 3d d9 f8 07 3b 77 a4 d3 3d 07 f2 76 3d
       0.07814594 0.002074769 0.103341036 0.06028941
000020 76 2e 0a 3b f1 ce 03 3e 59 26 d3 3a 45 7a 0e 3b
       0.0021084822 0.1287191 0.0016109451 0.0021740359
000030 0d 79 92 3d 27 7d b0 3a 5b eb f1 3d 70 30 63 3e
       0.07151995 0.0013465033 0.118124686 0.22186446

net.2.weight f4 [32, 16, 4, 4]
000000 a7 d2 a2 3e b6 52 01 3f c9 14 c0 bd 73 6f 82 be
       0.3180134 0.5051683 -0.093789645 -0.25475654
000010 e1 05 81 3e b7 99 84 3e 7f ae 7b be d4 ba 6e bf
       0.25199798 0.25898525 -0.24578284 -0.9325383
000020 63 30 9e bd d4 34 0d 3f 0f f7 43 be ee ae ad be
       -0.07724073 0.55158734 -0.19137214 -0.33922523
000030 af f1 1e 3e cd e6 08 3f 15 20 9a 3d 8b 3e 06 be
       0.15521882 0.53477174 0.075256504 -0.13109796
000040 34 2d 16 3e e8 1f 57 3e 39 9c 54 be 2b 7e 35 be
       0.14665681 0.21008265 -0.20762719 -0.1772391
000050 b5 90 6d 3e 04 6b 3d 3d 6a cd 99 bd e1 6b 28 3d
       0.23199733 0.046244636 -0.07509883 0.041118506
000060 74 1f 92 bd d9 0f 57 be e7 b4 50 bc e7 a1 fc bd
       -0.071349055 -0.21002139 -0.012738443 -0.12335568
000070 0a 80 31 be 62 87 0f be 6f f2 02 be e4 8c 03 bf
       -0.17334 -0.14016488 -0.12787794 -0.5138686
000080 86 e8 a4 3e 29 8f e6 3e 6f db 88 3d 6f 9b 9e be
       0.3220865 0.45031098 0.06682479 -0.3097796
000090 a7 40 cc 3e 94 bc be 3e 3e c7 90 be 65 54 31 be
       0.39893076 0.3725325 -0.2827701 -0.1731735
0000a0 ad 25 2e 3e 31 3e 56 3e 48 cf a2 bd 7f 2e e6 bd
       0.1700656 0.20922162 -0.07949692 -0.11239337
0000b0 7c 30 ed 3c 1c b7 70 3e 38 a3 73 be 46 fc 2c 3d
       0.028953783 0.2350735 -0.23792732 0.042232774
0000c0 de 0a fc 3d 3c 51 54 3d 68 9d 62 3d 1f 2f 83 3e
       0.1230676 0.051835284 0.055325896 0.25621888
0000d0 f5 47 12 bd bc e0 af bd 4f 4f 32 3c e5 05 14 3e
       -0.035713155 -0.085877866 0.010883166 0.14455374
0000e0 cc 1f 2c be 78 f9 e8 bc 88 04 1b 3d bb 72 27 3e
       -0.16809005 -0.028439268 0.03784612 0.1635236
0000f0 b2 78 33 bf 4c ce 8c 3e e8 74 71 3c d2 47 44 bc
       -0.7010604 0.27501142 0.014737345 -0.011980014
000100 a5 8c f2 3e 88 62 95 3e c4 e2 02 3d 13 ac 98 be
       0.47372928 0.29176736 0.03195454 -0.29818782
000110 fd b7 f6 3d 4f 37 62 3d bc 9a f6 bd 4f 48 09 bf
       0.12046812 0.055228528 -0.12041232 -0.5362596
000120 ea 46 31 be 03 42 85 3d 4f b2 d1 3c ed d7 10 bf
       -0.17312208 0.06506731 0.02559772 -0.56579477
000130 b3 4c 8c be 9b 7e a5 3e be ab 21 be b1 92 38 be
       -0.27402267 0.32323155 -0.1578817 -0.18024708
000140 de 02 0f 3f 0b 6f f7 3e d8 f5 34 3e b6 64 e9 be
       0.5586375 0.48326907 0.17671907 -0.4558465
000150 95 36 62 3e 6f f3 70 3e 0f 15 97 3c f5 83 24 bf
       0.22091134 0.23530363 0.018442659 -0.6426385
000160 46 93 90 3d e9 d5 de 3d 8b e2 3f 3e ac ed 9e be
       0.0705934 0.10880644 0.18738763 -0.31040704
000170 54 3f d0 3e d4 47 9f 3e c3 91 02 3e 5d 66 a3 bc
       0.40673316 0.31109488 0.12750916 -0.019946272
000180 18 4e be 3d 4c 88 06 bd da 52 6e 3d 5c d7 47 3d
       0.09292239 -0.032844827 0.058184482 0.048789367
000190 4d e7 79 be 35 39 5c bd 96 61 bc 3d 27 df 1f 3e
       -0.2440464 -0.053765494 0.091983005 0.1561247
0001a0 94 ec d5 be f0 25 02 be 03 f9 55 3c 4f 9e 51 3e
       -0.41782057 -0.12709785 0.013059857 0.20470546
0001b0 fb bd 8b be cb ed 3c 3d 5c fc 11 3c f7 fc 46 3e
       -0.2729338 0.046125215 0.008910265 0.19432436
0001c0 bc ae b8 3e f7 1d b4 bb cc af 02 3e bc ed 91 3d
       0.36070812 -0.005496736 0.12762374 0.07125422
0001d0 40 15 cc bd 0a 64 00 3d 24 7d 3e 3d f1 72 71 be
       -0.099649906 0.031345405 0.046506062 -0.23579003
0001e0 0a d5 fc bd 77 5d 88 3e 5c c5 c3 3c fa 28 e9 bd
       -0.123453215 0.26633808 0.02389782 -0.11384769
0001f0 40 42 8b be c5 a1 42 3e 23 3b 82 3e cb 74 50 3d
       -0.27198982 0.19007023 0.25435743 0.050892632
000200 99 7c 19 3f 73 3c 18 3f 3c 1c 6c be 4d c5 ec be
       0.59955746 0.5946724 -0.23057646 -0.4624428
000210 50 26 45 3f f1 f6 a6 3e b4 b9 11 bf f8 e4 18 bf
       0.77011585 0.32610276 -0.56923985 -0.5972438
000220 27 ea 67 3e 15 61 7e 3e 2d 08 b0 be a4 5c 35 3c
       0.22647916 0.24841721 -0.34381238 0.0110694505
000230 a9 4f f5 3d 61 3d 00 3f dd 2e d5 bd bf 6e 97 be
       0.119780846 0.50093657 -0.10409329 -0.2957668
000240 d2 25 47 3e 1d 93 2e bc 7d 68 e3 be a1 17 3f 3d
       0.19448021 -0.010655192 -0.44415656 0.046653394
000250 e3 1c 31 bd 0d 7a f9 bd c1 c4 b0 be e7 80 67 3e
       -0.04324044 -0.121814825 -0.3452511 0.22607766
000260 51 32 5d be e7 be d7 bd 05 7f 00 bf d2 ea 7c 3e
       -0.21601225 -0.105344586 -0.50193816 0.24698952
000270 7f c5 ac bd 39 71 93 be 39 df d0 be ad ae 2d bb
       -0.08436107 -0.2879732 -0.40795305 -0.002650182
000280 09 ed 05 3f 2d b1 aa 3e 61 f0 65 3e 27 37 3b be
       0.5231481 0.333383 0.22454979 -0.18282758
000290 36 a3 76 3e a1 7e 4d bd 7e 56 b1 bd ac 3f 73 be
       0.24085698 -0.05016959 -0.08659075 -0.23754758
0002a0 68 a2 d4 3c c5 21 2d 3e 7e 4b a8 bd b6 d8 4e 3e
       0.025956348 0.16907413 -0.08217524 0.20199856
0002b0 87 a9 03 3e 26 62 9e 3e 3b d0 25 3c c8 a5 2f 3e
       0.12857638 0.30934256 0.010120447 0.17153084
0002c0 bb 57 e5 3e a9 5e 4e 3e a8 16 d4 3d 11 ff c4 be
       0.44793496 0.20153297 0.10355884 -0.3847585
0002d0 7d e4 8b 3e 6e 98 83 3e 73 39 a9 3d ce 83 ea be
       0.2732276 0.25702232 0.08262911 -0.45803684
0002e0 9c a3 86 3e ba 1d 3f 3e 34 72 2e 3d 30 b9 d7 be
       0.262967 0.18663684 0.04258938 -0.42133474
0002f0 86 d4 96 3e 19 98 76 3e bb cf 89 3e 77 7a a8 be
       0.29459018 0.24081458 0.26916298 -0.32905933
000300 dd 8e 9c 3d 17 78 33 3d 3e 9d 47 bd 83 40 a4 3d
       0.076444365 0.0438157 -0.048733942 0.08020117
000310 8a 11 61 be 8c ce 5d 3d 48 80 b9 bc ed c7 3d 3e
       -0.21979347 0.054152057 -0.022644177 0.18533297
000320 f8 9d 5c be 7c 53 b7 3d d5 1b 13 be 56 0f 09 3d
       -0.21544635 0.0895147 -0.14366086 0.03346189
000330 1a 0b 85 bd fc 0f 66 bd ce e6 f0 3c e1 89 89 3c
       -0.06496258 -0.056167588 0.029406931 0.016789379
000340 b3 ef 28 3f 36 51 df 3e 22 0b 4b 3d 45 91 07 bf
       0.6599075 0.43616647 0.049571164 -0.5295604
000350 c8 16 b7 3e c1 bd 04 3f 79 13 65 3e 0e 0a c8 be
       0.35759568 0.5185204 0.2237071 -0.3907017
000360 12 7f 20 3e 4d 6d e8 3e 67 79 26 3d 6c e3 85 bc
       0.15673473 0.4539589 0.040643122 -0.016343795
000370 63 ab 2c 3e f3 3e d1 3e 4f 31 e2 3d 3b 53 90 be
       0.16862254 0.4086834 0.11044561 -0.281885
000380 b6 20 44 3e f2 93 94 3e 9b 25 d3 3b 1e 05 91 bd
       0.19153103 0.29019123 0.006443692 -0.07081054
000390 81 be 0e 3d f4 d8 b1 bb 82 bf 33 bd 93 04 b6 3c
       0.034849647 -0.005427474 -0.043883808 0.022218978
0003a0 bb a0 81 be 9e 52 a2 bd ce bc cc bd f5 74 23 3e
       -0.2531794 -0.07925914 -0.09996949 0.15962584
0003b0 49 77 3f 3d 5f 8a 3a 3e b5 2e c9 3d 0c e5 b0 3d
       0.04674462 0.18216847 0.09823362 0.08637437
0003c0 c5 65 b7 3d ea 82 80 bd e7 f7 32 3d b5 15 57 3d
       0.08954958 -0.0627497 0.04369345 0.052510936
0003d0 6b 9b 99 bc 52 8a 94 3d 69 00 15 bd 63 de 16 3e
       -0.018750867 0.07252945 -0.036377344 0.14733271
0003e0 0d 22 4b bd ad 5c 67 3e 1a 65 06 be 1f d1 d8 bc
       -0.04959302 0.22593947 -0.13124505 -0.026466904
0003f0 5c ed 17 be e8 92 33 3e c3 a6 da bd 45 32 29 3d
       -0.14836639 0.17536509 -0.106763385 0.041307706

net.2.bias f4 [32]
000000 84 19 72 3e 47 a7 d1 3d 00 59 88 3e cf 79 90 3e
       0.23642546 0.10236984 0.26630402 0.28217933
000010 75 9f e4 3e f9 cb 38 3e 60 4d 0a 3f 9d 23 91 3d
       0.44652906 0.1804656 0.54024315 0.07086871
000020 e1 a5 ae 3e 71 50 86 3e a9 2a 0c 3f cb db d5 3e
       0.3411093 0.26233247 0.54752594 0.4176925
000030 90 13 3a 3e 49 5e 0a 3f 76 be 8c 3e d8 4c 1f 3f
       0.18171525 0.5405012 0.2748906 0.6222663
000040 2c c9 c5 3e bc a7 b6 3e 38 ff c1 3e 41 4f b7 3e
       0.38630044 0.35674846 0.3789003 0.35802653
000050 52 c7 8b 3e cc 2d 4f 3e 4b 31 8b 3e ee 57 a6 3e
       0.27300507 0.20232314 0.27186045 0.3248896
000060 78 7c a5 bd 58 ec 8e bb 92 89 c2 bd c9 dd 02 3f
       -0.08080381 -0.0043616705 -0.09498896 0.5111967
000070 9d 41 a6 3e 90 59 61 3e ca ab cf 3d a8 43 b2 3e
       0.32471934 0.22006822 0.10140188 0.34817243

net.4.weight f4 [64, 32, 3, 3]
000000 0f ac 98 3d e4 91 79 3e e6 48 3e 3e e2 b4 57 3e
       0.074546926 0.24372059 0.18582496 0.21065095
000010 10 c7 32 3f b1 e1 d6 3d dc af fe 3d c0 2b 5a be
       0.69834995 0.10492266 0.12435886 -0.21305752
000020 e7 91 19 be 32 89 6a 3c 5c a1 47 be 90 b3 49 3e
       -0.14997064 0.0143149365 -0.19495147 0.19697404
000030 13 1d 02 3d 8e 02 82 be 53 76 6e 3d b9 63 5b be
       0.03176601 -0.25392574 0.05821831 -0.2142476
000040 6b e6 20 be 64 5d f2 3d 9b 43 b0 bd dc 6f a8 3d
       -0.15712897 0.11834219 -0.08606645 0.082244605
000050 4d 7f b8 3c 1d df 20 be b4 fe d4 3e 5c e1 a2 be
       0.02252164 -0.15710111 0.41600573 -0.3181256
000060 81 3b aa bc 7d f3 a0 be 6f ec ea be 00 b6 9e 3e
       -0.020780327 -0.31435767 -0.4588351 0.3099823
000070 f2 40 8e 3d 1c 74 92 3e 67 d3 34 3e a4 53 b0 3e
       0.06945981 0.2860421 0.17658769 0.34438813
000080 8e 0a 77 bd b6 9d 3e 3d 88 71 cf be 2e 09 1f 3e
       -0.0603128 0.046537124 -0.40516305 0.15530846
000090 8a df 10 3f 31 f9 fb 3a 93 ae a3 3d e0 4b 1e 3f
       0.56591094 0.0019224045 0.07992282 0.61834526
0000a0 f4 f3 42 3e 77 9c 17 bd d7 1f bf 3d b0 51 d6 be
       0.19038373 -0.03701445 0.09332245 -0.41859198
0000b0 b9 b9 94 bd 85 76 ac 3d b4 7d fe 3d b7 c8 98 3e
       -0.07261986 0.08421043 0.1242632 0.29840633
0000c0 77 95 e8 bd 53 24 49 be bb 58 bc be c4 35 4c be
       -0.11356633 -0.19642763 -0.36786446 -0.19942385
0000d0 3a 76 75 be c1 a8 2c be ee 01 9b 3e f8 68 da 3e
       -0.23970881 -0.1686125 0.3027491 0.4265821
0000e0 93 50 93 3e ac e7 2e 3f ac 71 b3 3e 33 f2 16 bf
       0.2877241 0.68322253 0.35047662 -0.58963317
0000f0 03 dd 65 3e 34 2e 62 bc 7d ec b5 be 7a fa 19 3e
       0.2244759 -0.013804961 -0.3553199 0.15036955
000100 28 10 c9 be dd ff d5 bd 5a 0f ab 3c 0e f2 21 be
       -0.3927014 -0.10449193 0.020881344 -0.15814993
000110 0b bc 24 bd 77 8a d5 bd 96 bc 37 be 3b 7d 15 3b
       -0.040218394 -0.10426801 -0.17943034 0.002281024
000120 48 09 42 3d 50 6b a2 3e b0 1c 92 be 53 b1 57 3e
       0.047372133 0.31722498 -0.28537512 0.21063738
000130 e7 5b 0e 3f 49 f3 8e be d4 68 b5 bd 8b 45 9f 3d
       0.5560898 -0.27919987 -0.08857885 0.07776936
000140 28 ea 00 bf 7e fd af bd 90 69 5d bd d0 bb 8b be
       -0.50357294 -0.08593272 -0.05405575 -0.27291727
000150 90 6f 4f 3d 54 20 5c 3d e3 de 25 3e 7b fd 10 3d
       0.050643504 0.053741768 0.16198306 0.035397988
000160 f4 2f 41 bd b2 6b a1 3e c5 f6 2d be 80 86 48 3e
       -0.047164872 0.31527478 -0.16988666 0.19582558
000170 ce a4 11 3e f5 31 46 3e e6 65 2f 3f 57 5c 00 3e
       0.14223024 0.19354995 0.6851486 0.12535225
000180 20 b9 24 3e f1 ea 69 3e 4c dd d1 bd 4d ba 88 bd
       0.16086245 0.2284353 -0.10247287 -0.06676159
000190 a1 22 91 3d 80 33 82 bd 19 2f d0 bd f3 7f cb be
       0.07086683 -0.06357479 -0.10165233 -0.39746055
0001a0 1f d0 a8 bd 90 fb f2 3d 05 d7 ec be eb bf 1c be
       -0.08242821 0.11864388 -0.46257797 -0.15307586
0001b0 f5 b2 07 3e 1d 45 8f be 2f 21 83 3d a5 de 2b be
       0.1325186 -0.27982417 0.06402814 -0.16784151
0001c0 cd fa 06 3e 91 a3 af 3e 7f c1 8a 3d ba b3 c7 bd
       0.1318161 0.3430448 0.06775188 -0.09751077
0001d0 b4 15 2b be 7c 10 bf 3e f9 b8 87 3e 5c 81 20 3d
       -0.16707498 0.37317264 0.2650831 0.039185867
0001e0 cd e8 68 3f 66 69 d4 bd 8e 25 0b be d3 c1 59 bd
       0.90980226 -0.10371666 -0.13588545 -0.05316336
0001f0 f3 ed ef be e7 0d 96 39 c3 7a e3 bd 42 64 47 be
       -0.46861228 0.00028620588 -0.11107399 -0.19471839
000200 86 32 33 3e b1 68 2f bc a7 d6 29 bf 30 26 7f 3d
       0.17499742 -0.010706113 -0.6634316 0.062292278
000210 8d 1e 83 3e 19 90 81 3d 2f 51 96 bd 84 74 9c 3e
       0.25609246 0.063263126 -0.07339703 0.30557644
000220 cb 99 1c 3b 46 81 a0 be 53 b1 f9 3d 8e f7 bd 3e
       0.0023895379 -0.31348628 0.12192025 0.37102932
000230 d4 95 fa bc 46 ba 02 3b 61 15 cc bd bf 6b 6d bd
       -0.030589022 0.0019947453 -0.09965015 -0.057964083
000240 dd 88 36 3e ff ef af be ad 74 09 be 95 12 f9 3d
       0.17825647 -0.3436279 -0.13423415 0.12161747
000250 c7 dd 80 3e 07 06 8e be d9 d3 40 3e ab 25 8a 3d
       0.25169203 -0.27738973 0.18830813 0.06745466
000260 98 54 80 3e e6 e2 8b 3d d3 fb 3f 3e 91 0b 94 bd
       0.2506454 0.06830387 0.18748407 -0.072287686
000270 ca 25 d2 3e 61 3d fb 3e 4e 94 96 be ae 67 ba bd
       0.41044456 0.49070266 -0.29410022 -0.091018066
000280 d1 97 91 be 52 3a cc 3d 50 89 df bd 1b dd 61 bc
       -0.2843614 0.09972061 -0.10914862 -0.013785626
000290 4a 45 75 3d 3c 70 08 3f d4 ad 16 be e7 64 a1 be
       0.059880532 0.53296256 -0.14714748 -0.31522295
0002a0 b4 5d 04 3d 37 0b 3a 3e 84 66 4a 3b 44 96 dc 3e
       0.032315925 0.1816834 0.0030883858 0.43083394
0002b0 47 6c 58 3e 37 95 0e be aa a0 35 3e eb ee a3 bd
       0.21135055 -0.13924108 0.1773707 -0.08004554
0002c0 aa 37 46 bf 2e 11 a3 3e 6a 89 f7 be 5d d7 9a 3d
       -0.77428687 0.31849045 -0.48347026 0.075606085
0002d0 ac 4a ce be ce 0b ca 3d cc de df 3d 44 63 bf be
       -0.40291345 0.09865533 0.10931167 -0.3738042
0002e0 6f 8a 87 3e 11 f8 7f 3d 4f dd b7 be dd 2f 16 3e
       0.26472804 0.062492434 -0.35911033 0.14666696
0002f0 e3 a7 b4 3d 12 84 ca 3d a7 db 82 3d 20 6b 81 3d
       0.08821084 0.09888472 0.063895516 0.063192606
000300 46 b4 b8 3d d0 55 3f 3d 75 57 58 3d 26 cb e2 3d
       0.090187594 0.046712697 0.05281778 0.11073904
000310 5c 82 44 3e 60 12 39 bd b1 1a 21 3c 87 0e 6a 3e
       0.19190353 -0.04518354 0.009833024 0.22857104
000320 79 df 90 bc b9 83 22 3f df 96 a9 3e 1b 16 25 bf
       -0.017684685 0.6348224 0.33122918 -0.64486855
000330 82 b1 0a be a9 f4 c6 be 99 5c 5a be 9d 8a da be
       -0.13544276 -0.38858536 -0.21324386 -0.4268388
000340 24 e7 01 3e 4b 5e e1 3d a3 74 c0 bd cd 1d 49 3e
       0.1268583 0.11004313 -0.09397247 0.19640274
000350 b1 85 e5 bc 6d 76 5f 3e 9e 7c 88 bb d7 8f 7a bd
       -0.02801785 0.2182252 -0.004165246 -0.061172333
000360 12 56 db 3c b5 73 92 3d e7 0b 2d bd 46 c8 a7 bd
       0.02677444 0.071509756 -0.04224768 -0.08192496
000370 a0 6b f0 bd 38 ea e4 be d0 d5 00 be 40 40 95 be
       -0.11739278 -0.44709945 -0.12581563 -0.2915058
000380 8c 88 98 be bd a8 90 3d 07 38 03 be 1a 4e 59 3d
       -0.29791677 0.07063434 -0.12814341 0.053053
000390 0f 33 44 3e 14 a8 4d 3e f4 a8 17 bc 8a 6a 91 3e
       0.19160102 0.20083648 -0.00925659 0.28401595
0003a0 c2 87 69 be 6f fb 83 b9 ba 2a 08 3e e8 e8 a5 3d
       -0.22805694 -0.000251736 0.13297549 0.08101064
0003b0 f7 3b 21 be 5b 61 c9 3d 24 e1 8c be 7c 1a b9 bd
       -0.15745531 0.09833022 -0.2751552 -0.090382546
0003c0 f2 93 cb be 3b b6 0f be 0b eb f2 3d e0 75 f0 bd
       -0.3976131 -0.14034359 0.11861237 -0.11741233
0003d0 00 21 fd bd 61 09 b5 3e 51 a0 44 3e 58 c5 0c 3f
       -0.1235981 0.35358718 0.19201781 0.5498862
0003e0 87 bf 75 be c6 6c 10 bd 5a c6 61 bf 03 db a6 be
       -0.23998843 -0.035259984 -0.88193285 -0.32588968
0003f0 0f 16 36 be 0a 97 5a bd fe 6d e9 be 2b dc 17 3d
       -0.17781852 -0.0533667 -0.4559173 0.037075203

net.4.bias f4 [64]
000000 6e 02 5c 3e 01 60 5b 3e 24 34 a5 3d c6 6b 26 3e
       0.21485302 0.21423341 0.08066586 0.1625205
000010 ff ea 4c 3e c7 3e 11 3e 23 55 8b 3e 68 cb 73 3e
       0.20011519 0.14184104 0.27213392 0.23808062
000020 ab ba e8 3d 88 7b 32 3d 95 21 80 3e 3a 85 3f bc
       0.11363729 0.04357484 0.2502562 -0.0116894785
000030 3a 88 7b 3d 2f 21 29 3d 6d 33 59 3e 32 91 83 3e
       0.061409213 0.041291412 0.21211024 0.25696713
000040 d2 7f 77 3e f9 21 dc 3d 68 c5 8c 3e ba 68 c2 3c
       0.24169853 0.10748667 0.2749436 0.023731578
000050 aa 68 3f be b2 30 e0 3d f9 f7 5c 3e 73 1b b2 3d
       -0.1869227 0.10946788 0.21578969 0.08696642
000060 cf a8 c5 3d 3f 56 14 3e 53 cb 2e be 9e 6e 85 3e
       0.09651338 0.14486025 -0.1706975 0.26060957
000070 aa 94 a0 3e be 56 66 3e 64 c1 71 3d c9 79 fc 3d
       0.31363422 0.22494027 0.059022322 0.12327916
000080 6e 9f d0 3d f5 b6 1a bd 1f 1f 11 bd 9b e8 2d 3d
       0.10186659 -0.037772138 -0.03543007 0.042458158
000090 00 6c 78 bd c3 58 1d be cb 0a 2a bd c4 00 0f 3e
       -0.06064987 -0.15365891 -0.0415142 0.13965136
0000a0 be 87 01 3e 7e 30 d2 bc 50 58 4d 3d fe 14 32 3e
       0.12649438 -0.025657889 0.05013305 0.1739082
0000b0 23 e8 16 3e dd 0b 57 3d bf 21 78 3e 94 bd 13 3e
       0.1473699 0.052501548 0.24231623 0.14427787
0000c0 20 72 eb 3c 87 d5 59 3e cb bf a2 3e ba c4 ad bd
       0.028740942 0.2127286 0.3178695 -0.08484788
0000d0 20 91 92 3d e7 51 5c bd 2c 3b 09 3e ad b8 61 bc
       0.07156587 -0.053789046 0.13401479 -0.01377694
0000e0 55 b0 1b 3e 31 75 31 3e 05 63 3a 3e ee b1 35 3e
       0.15203984 0.17329861 0.18201835 0.17743656
0000f0 0c 71 6c 3d 2f 29 5f bd c8 67 d8 3d 09 fc 54 3e
       0.057724997 -0.054482635 0.1056667 0.20799269

net.6.weight f4 [64, 64, 5, 5]
000000 cf 84 6f be e9 fb fd bc 0a 73 66 bd 73 41 13 3b
       -0.23390506 -0.03100391 -0.056262054 0.002246943
000010 1b 08 95 3c a7 7d 28 3e a5 24 35 bc c2 95 f7 3d
       0.018192342 0.16454183 -0.0110561 0.12089111
000020 93 ec 0d be 10 85 64 3d c7 6c a9 3d f9 ef 16 3d
       -0.13859777 0.05579096 0.08272701 0.03684995
000030 8a 2f 64 3e 55 fd 02 be 80 6f 0a 3e d4 42 75 3e
       0.2228376 -0.12791951 0.13519096 0.23951274
000040 cb 44 15 3e 7b 55 83 3b 3c cd cc bd dc eb 50 bb
       0.14577024 0.004007993 -0.10000083 -0.0031878864
000050 0a 4d 4c be f8 b6 4c 3e b2 c5 92 3c 94 2c 3a be
       -0.19951263 0.19991672 0.017916534 -0.18181068
000060 2b 86 18 be 8a 6a 48 bd 5f bc 33 be c2 40 26 3e
       -0.14894931 -0.04892973 -0.17552327 0.1623564
000070 f5 a6 f1 bd dc 5d 63 3e 8f 43 aa 3e 52 81 0d be
       -0.11799423 0.22203773 0.33254668 -0.13818863
000080 61 34 ce be c6 43 28 be 96 69 dc bd 45 74 c5 bc
       -0.40274337 -0.16432104 -0.107623264 -0.024103293
000090 0d 99 2c be 2b 64 a1 3d c7 a7 37 bd f8 dd 1f 3e
       -0.16855259 0.07880434 -0.04483774 0.15612018
0000a0 33 d1 24 3e 75 e8 06 3d 5f a5 54 3c 91 d6 82 3d
       0.16095428 0.032936532 0.012978881 0.063885815
0000b0 b1 77 f5 be 33 9c 05 bd 5e 6d 0a bc 43 51 9d 3e
       -0.4794288 -0.032619666 -0.008448927 0.3072606
0000c0 8e f4 0c be e8 a0 4c 3d 25 3b d1 be 94 3c a8 be
       -0.13765165 0.04995814 -0.40865436 -0.32858717
0000d0 9c 0e 8e be f8 78 07 be 63 a3 85 be b1 fc 4b be
       -0.2774552 -0.1322974 -0.26101217 -0.19920613
0000e0 70 51 8d 3d ec 9f af 3e 0d bd 34 be 05 09 b6 bd
       0.069002986 0.34301698 -0.17650242 -0.08888439
0000f0 53 21 97 3e b0 56 90 3e b3 af d3 be b3 ac 08 bf
       0.29517612 0.28191137 -0.41344985 -0.5338852
000100 57 2c b2 3d 7d f9 f2 3e 89 93 03 3e 52 0e 9b 3d
       0.086998634 0.4745597 0.12849249 0.07571091
000110 54 fa ff bd 84 37 1a 3e dc fe 62 3d 37 2c 7c 3e
       -0.12498918 0.1506024 0.055418834 0.24626242
000120 e3 bc 00 be 2f b3 80 bd 50 29 95 3d 7d 3d ec 3e
       -0.12572055 -0.062841766 0.0728327 0.46140662
000130 7d bc 3c bc 1b 38 88 bd 0b c2 e4 3d a4 01 96 3d
       -0.0115195485 -0.06651326 0.11169823 0.07324532
000140 ce cb 2d be f1 b5 20 3e ce ac 67 be 9c 71 29 be
       -0.16972277 0.15694405 -0.22624514 -0.16547245
000150 3b af a1 3d 68 c2 71 3e 03 0c 02 3f b8 18 51 be
       0.07894751 0.23609316 0.5079958 -0.20419586
000160 b9 ef 2c be 10 12 21 3d 8a 03 66 3d 09 f5 5c 3e
       -0.16888322 0.039323866 0.05615572 0.21577848
000170 df 8a 23 3e fa 58 50 be c2 39 fb 3c 7b 95 ea be
       0.15970944 -0.20346442 0.03066719 -0.4581717
000180 27 33 42 3e 3e 54 2f 3d ab 2d 1f be 3a aa 02 3e
       0.18964826 0.04280495 -0.15544765 0.12760249
000190 e0 3e 4f 3e 29 f5 ec 3a d7 82 9c 3d b9 93 ad bd
       0.20238829 0.0018078435 0.07642143 -0.084754415
0001a0 20 99 2e be b4 fb ca 3c 69 cd 25 3c ff 17 22 be
       -0.170506 0.024778225 0.010119774 -0.15829466
0001b0 d8 e1 62 3d ee 90 d2 bd 6d d7 b2 3e f2 58 a1 bc
       0.055391163 -0.102815494 0.34929982 -0.019695733
0001c0 c7 5e 74 3e 56 27 a4 3c d4 6b 20 be 23 ce d3 3d
       0.2386428 0.020038288 -0.15666133 0.10342052
0001d0 a2 7b 41 bc a7 bb 94 bc c7 ee 5d be 46 40 25 be
       -0.0118092615 -0.018155886 -0.21673118 -0.161378
0001e0 75 c3 10 3d 6b 5f 2f 3e d5 19 47 bd f3 27 19 be
       0.035342652 0.17126243 -0.04860862 -0.14956646
0001f0 1c 61 92 be 79 d5 eb bd 0a f7 20 be c4 f8 61 bd
       -0.28589714 -0.11515326 -0.15719238 -0.055168882
000200 b8 03 8d 3e 75 e5 be bd 5b e6 7e 3e e1 a3 65 3e
       0.275419 -0.09321109 0.24892561 0.22425796
000210 46 f7 40 3e 61 e0 46 be b1 a3 1f be 88 5c 54 3e
       0.18844327 -0.19421531 -0.15589787 0.20738423
000220 9e ae 6d bd 37 bc 02 3e 34 8f 8b be 18 c3 d0 bd
       -0.058027856 0.12767111 -0.27257693 -0.10193461
000230 b4 31 31 be 8f 44 77 bc 94 dc e0 bd 28 5b d8 3d
       -0.17304116 -0.015092029 -0.10979572 0.10564262
000240 5c 95 7f bd bb 38 7d 3c 69 62 ca 3d 50 ef 67 3e
       -0.0623983 0.01545542 0.098820515 0.22649884
000250 01 e9 ba 3e d9 1b 02 bd b0 16 5a bf eb a1 c5 3d
       0.36505893 -0.03176484 -0.8519087 0.09650024
000260 dd 89 94 3e 6c 24 55 bc e2 9f 1b bd c9 92 5a bc
       0.2901143 -0.013009172 -0.037994273 -0.01334066
000270 d7 18 c6 bc b7 d5 21 3d 06 35 70 3e 0d 8f 3d bd
       -0.024181766 0.039510455 0.23457727 -0.046279002
000280 dd 52 9a 3d 48 b6 e6 bd 2e 6b c4 bd 5e c5 d5 be
       0.07535336 -0.11265236 -0.095907554 -0.41752142
000290 e5 58 87 bd 2e 2e 8a 3e a4 f9 8e 3d 91 f2 af 3d
       -0.06608752 0.26988357 0.06981209 0.08591188
0002a0 51 5d 83 3e 7c bc bd bc e6 36 6c bc b6 81 d2 bd
       0.25657132 -0.023161165 -0.014417386 -0.10278647
0002b0 e3 f6 9a bd 85 40 22 bd db 7b fc bc 92 0a ea 3e
       -0.07566621 -0.039612312 -0.030820778 0.4571119
0002c0 af 4f a9 3e 3e 12 8b 3d a0 f9 6f 3c 88 26 60 bc
       0.33068606 0.06790589 0.014646918 -0.013681062
0002d0 d8 7a 85 bd c7 df 03 bd 34 7a 98 bd 85 0a 4a be
       -0.06517571 -0.032195833 -0.074451834 -0.19730575
0002e0 a2 61 69 bb 9a 12 be 3e e0 99 81 3c 56 e0 bc ba
       -0.0035611172 0.37123567 0.015820444 -0.0014410119
0002f0 00 2d 4d be b6 08 41 3d b3 2e ee 3e b7 ba 79 be
       -0.20036697 0.047127448 0.46520004 -0.24387632
000300 2b 76 0f be 11 32 17 3e e4 6a a6 3c 8f eb ad 3d
       -0.14009921 0.14765193 0.020314641 0.08492195
000310 38 e8 85 3e 73 d2 c7 3d 50 86 ae 3d 0f 0a b8 bd
       0.2615373 0.09756937 0.08521712 -0.089862935
000320 d0 69 cc 3e c8 3d 33 3e 5a 50 8e be f1 b4 36 3e
       0.3992448 0.17504036 -0.27795678 0.17842461
000330 f6 fe 7f 3d 92 b4 99 3c 9a af 0a bc d5 8f 5b 3d
       0.06249901 0.01876286 -0.008464718 0.053603966
000340 bc 3b dd be 12 4d 6a be 98 8f ef bd 6e 61 19 3d
       -0.43209636 -0.22880962 -0.1169731 0.03744643
000350 09 aa 1f 3e 54 79 b7 bd a9 ba 20 bd 8b ef 7e be
       0.15592207 -0.089586884 -0.039240513 -0.24896066
000360 e5 d7 0a 3e 46 aa bb 3d 73 19 8c 3d cc 53 4b bd
       0.1355892 0.091633365 0.068407916 -0.04964046
000370 78 58 c4 be 37 aa 90 be 00 89 8f 3e 90 49 10 3d
       -0.38348746 -0.28254864 0.2803421 0.035226405
000380 dc 18 91 3d 24 7e 8e 3d d8 96 18 bf b4 ed 23 be
       0.0708482 0.06957653 -0.5960517 -0.16008645
000390 f9 f7 03 3e 2f 7f a5 bc bb 75 66 3d c5 a1 b6 3e
       0.12887563 -0.020202247 0.05626462 0.35670295
0003a0 fd 28 4c be f9 2f 50 be a1 c7 9f bd fd 64 a4 3d
       -0.19937511 -0.203308 -0.07801748 0.080270745
0003b0 99 4b d0 3d 79 52 df 3d 31 e3 ce bd a5 84 56 bd
       0.10170669 0.10904402 -0.10101927 -0.052372593
0003c0 3d 07 93 bd 3f 5c d1 3e 50 f0 a8 3d 17 8f 72 3e
       -0.07179115 0.4089069 0.08248961 0.23687397
0003d0 13 28 12 be 15 1d 89 3e 57 2c 26 3f 9f 6e 03 3f
       -0.142731 0.2678 0.6491141 0.5134067
0003e0 35 b1 c5 be d5 bf 22 3e 06 fb 49 be 6a 27 30 3e
       -0.3861176 0.1589349 -0.19724664 0.17202535
0003f0 b6 8a b6 3e 09 c1 92 3e b8 cf 05 3e 8a fc 9d bb
       0.35652703 0.286629 0.1306752 -0.004821365

net.6.bias f4 [64]
000000 c5 90 bf 3d b3 2c 49 3d 6e 67 bd 3e 9a b3 12 3d
       0.093537845 0.049114894 0.36992973 0.035815813
000010 86 c5 4c 3e de a3 9c 3c 33 2e 45 3e ab ce 60 3e
       0.19997224 0.019121107 0.19255905 0.21953838
000020 70 a3 86 3d 99 fb 64 3e 6c ad a0 3e ea 9f 24 3e
       0.06574142 0.22361602 0.3138231 0.16076627
000030 dc 5b 60 3e 1e f9 6a 3d 52 71 2e 3c 37 4d 4e 3d
       0.21910042 0.057366483 0.010647135 0.050366607
000040 59 bc 75 3d ce 37 4a 3e 56 59 44 3d 0f 9f a3 3d
       0.059994075 0.1974785 0.04793676 0.079893224
000050 a7 5e 7a 3d 1d a3 99 3e 2b 88 02 3e 87 44 43 3b
       0.061125424 0.30007258 0.12747256 0.0029795484
000060 3f 2f 28 3d 89 2e 97 3d af 28 64 3d 47 30 5a 3d
       0.041060682 0.07381923 0.05570286 0.053268697
000070 c9 ba 81 3d e6 f2 73 3d 64 90 85 3e cb 99 61 bc
       0.063344546 0.059557818 0.26086724 -0.013769577
000080 73 6f 82 3d 6a 45 86 3d 46 98 68 3d 3f 22 f9 3d
       0.063689135 0.065562084 0.056785844 0.12164735
000090 75 c0 be bc ab fc 8c 3d 74 99 87 3c 25 12 f6 3d
       -0.02328513 0.0688413 0.016552664 0.120151795
0000a0 ee 6b 11 3e 8a 1c 4e 3d 1c 46 72 3d 9c 4d e8 3e
       0.14201328 0.050320186 0.059148893 0.4537171
0000b0 72 00 cc 3d 68 f0 0a 3e 1c 31 b9 3d b0 4b 99 3d
       0.099610224 0.1356827 0.0904257 0.07485139
0000c0 89 98 4c 3d 7e d0 3a 3c 70 db 50 3d f4 0b e5 3c
       0.049950156 0.0114022475 0.050990522 0.027959801
0000d0 0f 40 3b 3e 3b 4b 33 3d e1 ed 96 3c c6 25 a5 3d
       0.18286155 0.043772917 0.018423976 0.08063845
0000e0 a3 56 cf 3c fe 1f 4a 3d 76 b5 0a 3e 13 46 88 3e
       0.025309866 0.049346916 0.13545784 0.26615962
0000f0 31 a3 30 3d 3b 20 bb 3e f7 57 79 3c b0 6f 4a 3e
       0.04312438 0.36548027 0.015218726 0.19769168

value.0.weight f4 [256, 64]
000000 5b a1 8e 3c fb 54 ec 3d 3a b5 e0 b9 28 46 92 3d
       0.017410925 0.11539646 -0.00042859634 0.071422875
000010 eb 12 cf bd 8f d3 a7 3d 17 34 db bd 02 db 24 be
       -0.1011103 0.081946485 -0.10703295 -0.1609917
000020 4c c1 28 3e d3 7b 38 be f2 09 1a 3d 46 28 03 3c
       0.16479987 -0.18015985 0.03760714 0.008005207
000030 37 f5 63 3d 2c d7 17 3c 61 90 5f 3e 2b 1d 4d 3d
       0.055653777 0.00926761 0.2183242 0.050076645
000040 0c 5c 60 3d 70 da de bc 4d 43 a8 bc f5 e5 81 bd
       0.054775283 -0.027203768 -0.020539904 -0.06342689
000050 f4 48 ab be 74 3a 5d be f0 df b5 3e 24 cd 68 be
       -0.33454096 -0.2160433 0.35522413 -0.22734505
000060 dd 25 f0 bd 97 1d 12 3e 00 40 05 be 64 34 33 be
       -0.11725972 0.142691 -0.13012695 -0.17500454
000070 5a bb 80 be d6 67 26 3e 6a c2 7c 3c e6 98 90 3e
       -0.25142938 0.16250548 0.015427211 0.28241652
000080 cf 11 da 3d 95 99 88 3d e7 3b 84 bc 11 06 d0 bd
       0.10647928 0.066699184 -0.016141845 -0.10157407
000090 41 98 92 bd 3c d6 32 be 9a 30 41 be 96 62 6b 3d
       -0.071579464 -0.17464536 -0.18866196 0.057467066
0000a0 53 e8 d2 bc d0 f3 9f be 6d 6c af 3d 06 f6 a9 bd
       -0.025745546 -0.31240702 0.085656025 -0.08298878
0000b0 03 e9 5f be 10 c8 d5 3d 6a 30 9d bd db 37 0e 3e
       -0.2186623 0.104385495 -0.0767525 0.13888495
0000c0 a8 7d 16 be d5 2e 47 3d eb b5 69 3d 70 9f bb bd
       -0.14696372 0.048628647 0.057058256 -0.0916127
0000d0 f1 7e d8 bc c0 9d 9e 3c 1c b7 a7 bd ad 80 7f 3e
       -0.026427718 0.01936233 -0.08189222 0.2495143
0000e0 f7 d9 09 3c 7a 42 82 3d 33 0c 52 3d af df 8f 3d
       0.008413783 0.06360336 0.051281165 0.07025086
0000f0 e8 b1 21 3e e1 b6 41 3d ee 5e 93 bc fd 84 d7 3d
       0.15790522 0.047293548 -0.017989602 0.105234124
000100 6e 2e 21 bc d6 ef 3f bf ed 73 80 bd 76 b9 04 bf
       -0.00983773 -0.74975336 -0.06272111 -0.5184549
000110 9b 8e ce 3c 04 43 29 be 54 7b 01 bf 9a 33 33 be
       0.025214484 -0.1652947 -0.5057881 -0.17500153
000120 e1 b9 70 be cd 27 53 bf 82 84 3f be 4c 8d c4 3b
       -0.23508407 -0.82482606 -0.18702891 0.005998289
000130 37 89 af be 4f c2 01 bd db 95 82 be c3 1f 78 be
       -0.34284374 -0.031679448 -0.25504956 -0.24230866
000140 3a bd 93 bb 79 f7 0b be aa c8 52 be 12 46 d8 be
       -0.0045086415 -0.13668622 -0.2058436 -0.4224096
000150 87 91 35 3e 52 95 b4 3d b7 8f 0f bf d1 f0 10 bc
       0.17731296 0.08817543 -0.56078666 -0.008846478
000160 89 b1 b8 3c 95 d3 2f bf 2e 48 07 bd 45 d6 fc bd
       0.022545593 -0.68682224 -0.03302782 -0.12345556
000170 72 bc bb bd 2d 89 8a 3c 27 2c a0 be fa b6 b4 bd
       -0.091668025 0.016911114 -0.31283686 -0.088239625
000180 48 04 b0 3c ba e1 02 be 26 e9 80 3e 66 25 d9 3d
       0.021486416 -0.1278142 0.25177878 0.10602836
000190 c1 79 c0 bd 6d d1 cc bc 97 18 87 bd 2b 30 12 bb
       -0.09398223 -0.025002206 -0.06596487 -0.0022306542
0001a0 da 1e 9d 3c 55 fb 1b be fa 53 50 bc d0 5f 3c bf
       0.01917975 -0.15232594 -0.012715334 -0.735837
0001b0 25 99 34 be 37 12 b2 be af 49 b2 bc ed 64 d5 3c
       -0.17636545 -0.34779522 -0.02176365 0.026049102
0001c0 6f 84 39 be fc 02 0f 3e 05 88 0c be 44 6b bb bc
       -0.18116926 0.13965982 -0.13723762 -0.022878297
0001d0 7f ff 14 bf 19 96 09 3e 7c d8 c6 3d 13 d2 b9 bc
       -0.58202356 0.13436164 0.0970926 -0.022683179
0001e0 35 d4 25 bd da d0 5d be 51 ab 9a bd 6f d4 53 bf
       -0.04048558 -0.21661702 -0.07552207 -0.8274602
0001f0 8a 5c 3f be 3b ab 9f 3d 17 92 9c be 8e a8 38 be
       -0.18687645 0.077963315 -0.30580208 -0.18033049
000200 a2 02 7e 3d bd e4 15 bd 47 1a 54 bd 25 83 a8 bd
       0.06201423 -0.036595095 -0.051782873 -0.08228139
000210 bb 75 0b be 98 c6 0c 3e e0 f1 f0 bd 1b 25 5a be
       -0.1361913 0.13747633 -0.11764884 -0.21303217
000220 0c 2d ac bd 7f f8 72 bb f4 2a ff bd 58 71 07 3e
       -0.084070295 -0.0037074385 -0.124593645 0.13226831
000230 76 4d 55 bc 12 5d bc bd ec f1 05 be d2 9f 94 bc
       -0.013018956 -0.09197439 -0.13080567 -0.018142615
000240 9f e3 5b 3e ec 97 76 be eb 40 a4 bc cb ca 21 be
       0.2147355 -0.24081391 -0.020050487 -0.15800016
000250 4c 1c e0 bd 2c 9c 77 be a0 0e af be 1a 9e 8b bd
       -0.10942897 -0.24180669 -0.34190845 -0.06817265
000260 50 6b 92 3e 37 e1 c9 bb 34 87 3e bd ad ef 26 bd
       0.28597498 -0.006160881 -0.04651566 -0.040755916
000270 b4 a8 a2 bc f0 78 95 bd 02 c6 3b be b9 9a 7d bc
       -0.019855835 -0.072984576 -0.18337253 -0.015478783
000280 a8 05 3c 3e a2 3d 2a be f6 18 c0 3d 36 2d b0 bb
       0.18361533 -0.16625074 0.09379761 -0.0053764833
000290 e5 01 62 3e d6 88 9a 3c 69 fb 6a bc 5c e1 b6 3e
       0.22071035 0.018864077 -0.014342167 0.3571881
0002a0 50 1c 42 3d e7 49 a4 bd 67 7b 0b 3c e1 a8 4b bf
       0.047390282 -0.08021908 0.008513308 -0.79554564
0002b0 46 57 20 3e 47 f3 eb be ed d7 92 be fa fe 10 be
       0.15658292 -0.46084043 -0.28680363 -0.14159766
0002c0 8e 62 f1 3d 8d 16 f1 bc b8 e3 04 3e 85 25 0e 3e
       0.11786376 -0.029429698 0.12977493 0.138815
0002d0 e8 ec 26 be ee fd da 3d de 7b 08 be 1d e1 95 bd
       -0.1630131 0.106929645 -0.13328502 -0.073183276
0002e0 6b 76 d9 3d da 41 0e be cc ad a0 bc b0 db 61 be
       0.106182896 -0.13892308 -0.019614123 -0.2205646
0002f0 48 a9 88 be 28 88 7e be bb 26 63 be 55 db 8b bd
       -0.2669165 -0.24856627 -0.22182743 -0.06828944
000300 e5 a2 0e bf 11 ab 9c 3e fa 98 12 bf 63 1e fa bd
       -0.5571731 0.30599263 -0.57264674 -0.12212827
000310 9e 07 c3 bf 1d 00 ab 3d e3 27 ea ba 0d 8d d0 bf
       -1.52367 0.08349631 -0.001786467 -1.6293045
000320 90 eb 76 bd bc bd 81 bd 0e bd 59 be d3 af cc be
       -0.060283244 -0.06335017 -0.21263525 -0.39977893
000330 06 d2 24 bd cb 80 59 be 32 6d ae 3c cb 76 fa 3d
       -0.040239356 -0.21240537 0.021292303 0.12229689
000340 56 e2 58 be eb d1 bb bf e1 f8 8c be 59 12 6c 3e
       -0.2118009 -1.4673437 -0.2753363 0.23053874
000350 fe dc 39 be 82 6b d7 bc 93 81 97 3e b3 f8 a6 bc
       -0.18150708 -0.02629638 0.29591045 -0.02038226
000360 34 94 c1 3d 81 2a b2 3d b7 21 ef bd b8 14 ad 3d
       0.09452096 0.08699513 -0.116763525 0.084512174
000370 d7 46 97 bd cb 14 81 bd 11 f3 a6 bf 9e b0 ac bd
       -0.073865585 -0.06302794 -1.3042928 -0.084321246
000380 2a dc e0 bc 70 ff a4 3b c9 57 48 3e b5 c0 18 3e
       -0.027448732 0.0050353333 0.19564737 0.14917262
000390 c0 8b cb 3d 43 44 be 3d d4 57 9c 3e ae 62 95 3e
       0.099387646 0.09290364 0.30535758 0.2917685
0003a0 aa cd b9 3d 0b f9 6c 3c 52 d5 3e be d4 3d 02 be
       0.090724304 0.014463673 -0.18636063 -0.12718898
0003b0 c4 7d c6 be 35 81 6b 3e 26 b3 86 3d 1c d0 ec 3c
       -0.38767827 0.22998507 0.065771386 0.028907828
0003c0 77 35 24 be 72 5a fa bd 83 0d 17 3e 15 44 e9 bd
       -0.1603602 -0.12224282 0.14751248 -0.11389939
0003d0 89 fc eb 3d 6c 64 6c 3e b4 e8 cf 3d 11 a4 6b 3e
       0.11522777 0.23085183 0.101518065 0.23011805
0003e0 83 09 60 bd ad 22 d5 3e e8 c7 17 bd 99 68 c4 bc
       -0.05469657 0.41628018 -0.03705588 -0.023975657
0003f0 2b 24 88 be 8f 2a 96 3b 19 3d ef bd 22 42 98 be
       -0.26590094 0.00458271 -0.11681575 -0.29737955

value.0.bias f4 [256]
000000 58 dd 05 37 c2 d5 cb 3c 24 b7 06 3e 76 b2 57 3e
       7.978953e-06 0.024882201 0.131558 0.21064171
000010 32 07 01 3c b2 94 3a bd c4 4a af 3d 67 1d ae 3e
       0.007875251 -0.045551963 0.08559182 0.34006807
000020 01 93 a7 3c 74 70 f8 bd 33 81 80 bd 3a f9 8d 3d
       0.02045584 -0.12130824 -0.06274643 0.06932302
000030 e6 ce 91 3d 2b 84 e2 3d 93 78 21 be 9b f0 f2 3b
       0.07119541 0.11060365 -0.15768652 0.0074139363
000040 c3 cf 79 3e 24 03 1c 3e 62 54 36 3e 25 11 fc 3d
       0.24395661 0.15235573 0.17805627 0.123079576
000050 25 4f 9f bd 56 bb 4f 3e 65 f5 1b bd f3 f7 0a be
       -0.077787675 0.20286307 -0.038075823 -0.13571148
000060 17 03 0d 3e 13 d0 55 be a9 63 3a 3e b9 12 f8 3d
       0.1377071 -0.20880155 0.1820208 0.12112946
000070 92 d8 e3 3d 30 a7 02 be a4 6f 8d 3d 57 4c 1c 3e
       0.11125292 -0.1275909 0.069060594 0.15263496
000080 f9 5e 30 be 3b 79 9c be 09 fa 32 3e 8d 35 1d 3e
       -0.17223729 -0.30561242 0.17478193 0.15352459
000090 00 5b d6 3a 44 0a 1e be 5a 90 36 3e 1c 2d 6e 3e
       0.0016354024 -0.15433604 0.17828503 0.23259395
0000a0 cc 6b 2f be 2b ba 55 3e f9 bb 4a 3e 65 ca 6b bc
       -0.17130965 0.20871799 0.19798268 -0.014391516
0000b0 9a 30 5d 3d 95 06 c7 bd cd 5e 58 bd 8f d3 67 3d
       0.05400143 -0.09718052 -0.052824784 0.056598242
0000c0 dc 6e 70 3e 96 51 f4 bd 19 7c de be 62 ef b2 bd
       0.2347979 -0.11929624 -0.43454054 -0.08737065
0000d0 57 5f 73 3d 6d 3f 31 bd 19 7b 0e 3e c9 7f f5 bc
       0.059417095 -0.04327338 0.13914146 -0.02996816
0000e0 f9 1f 62 3e ef 52 bb bd fd dd 6b bc f0 35 76 3e
       0.22082509 -0.09146678 -0.014396188 0.24044013
0000f0 dd 13 ac 3d ba f5 94 be f5 06 48 3e c4 db 5d 3e
       0.08402226 -0.29093724 0.19533904 0.21665865
000100 4d 52 f0 3d 25 43 75 be 8c c4 2c 3e 63 e7 00 3e
       0.11734448 -0.23951395 0.16871852 0.12588267
000110 01 c4 22 3e 96 40 15 b9 bd cb d5 3d d2 b5 3c 3e
       0.15895082 -0.00014233807 0.104392506 0.18428734
000120 5e 25 36 be be 31 12 bd 2a aa 66 3e 12 c9 a2 3e
       -0.17787692 -0.03569197 0.2252585 0.3179403
000130 ea 0e 13 3e 73 b4 ea 3e 7d 66 04 3e b3 10 d1 3c
       0.14361158 0.45840797 0.12929721 0.025520658
000140 8c 33 8d 3e 08 05 b6 be 53 c8 98 be d4 54 28 bc
       0.2757839 -0.35550714 -0.29840335 -0.010274131
000150 22 09 49 3e 38 2f 44 be e0 0a 85 bd 3a ea 03 3e
       0.1963239 -0.19158638 -0.06496215 0.12882319
000160 f4 16 a6 be e8 55 eb 3d d1 21 6a bd 37 a6 62 3d
       -0.32439387 0.11490995 -0.057161156 0.055334296
000170 f4 6f d5 be b4 36 dd 3d 07 d3 5c be 94 50 98 3e
       -0.41686976 0.108014494 -0.21564876 0.29748976
000180 29 0a 28 3e dd 50 63 3e 0d 13 2d 3e 46 65 46 be
       0.16410126 0.22198816 0.16901799 -0.1937457
000190 9b 4f c6 3d 1a ad 57 3e 25 75 f8 bc 27 b3 34 bd
       0.09683152 0.21062127 -0.030329296 -0.044116165
0001a0 76 26 04 bf 37 21 9a 3d 68 36 ab bd af a3 0f be
       -0.51621187 0.075258665 -0.083599865 -0.14027284
0001b0 ee 64 2b 3d 7e 78 52 3e e6 7b f2 bd 1a 3a b1 3e
       0.0418443 0.20553777 -0.11840038 0.3461464
0001c0 ec 92 a9 3e 9c 22 d8 3d e2 77 d8 3c 03 a2 d3 3d
       0.33119905 0.10553476 0.026424352 0.10333636
0001d0 cc 11 5f 3e 05 5a 59 3e 68 a0 77 3c d3 2e 8e 3d
       0.21784133 0.21225746 0.015113927 0.06942525
0001e0 0e 75 59 be 40 1d 1d bd 63 8f 20 3e ba a5 0d 3e
       -0.21236059 -0.038357973 0.15679698 0.13832751
0001f0 12 c0 66 be 87 c2 1a be 09 d6 04 be ff aa 64 be
       -0.22534207 -0.15113269 -0.12972273 -0.22330855
000200 b8 1e c5 3d 65 2e a2 3e ec e0 73 3d 2a ff 5c bd
       0.09625 0.3167602 0.059540674 -0.05395428
000210 ad 15 60 3e 5b d7 a7 3d 0e a1 9f 3e d4 ef a2 be
       0.21883269 0.08195373 0.31177562 -0.318236
000220 be 65 41 be 6c be 4c be 86 e6 cd bd 66 e2 3b be
       -0.18886468 -0.19994515 -0.100537345 -0.18348083
000230 c3 56 32 be ba 0d 5b bb b1 7a eb 3d 3e e3 10 3f
       -0.1741591 -0.003342493 0.11498011 0.56596744
000240 af 20 c9 3d 00 35 19 be 61 dd ec 3d 4c ba 96 3d
       0.09820687 -0.14961624 0.11565662 0.07359752
000250 96 f2 fe 3d 2f c8 59 3d 0c 32 ab 3e 6d c6 49 bd
       0.12448613 0.053169426 0.3343662 -0.0492615
000260 74 2a 81 bd 0a 14 55 be 22 10 7f 3e e1 a6 b9 3c
       -0.063069254 -0.20808426 0.24908498 0.022662582
000270 21 19 f0 3d 22 f9 43 3e 17 bc c2 bd 52 09 aa be
       0.11723543 0.19138005 -0.095085315 -0.33210236
000280 09 18 2f 3e a7 f1 b3 3d 7b dd 8a bd 80 18 89 3e
       0.17099012 0.08786326 -0.06780525 0.26776505
000290 f2 d0 fe 3c f6 d4 ca bd 8e f1 8e bd 3f 7f a9 3e
       0.031105492 -0.099039 -0.06979667 0.33104894
0002a0 82 61 00 bd 3d b8 a3 3e f4 60 e8 bd 89 46 05 3e
       -0.03134299 0.319765 -0.11346617 0.13015188
0002b0 6d 1c 76 bd 28 f3 e1 3d 8d 30 df be 2a c6 a9 3e
       -0.060085703 0.110327065 -0.4359173 0.33159
0002c0 9b 29 c4 bd ff 66 70 3e fc 09 a8 bd 2d 4e b3 bd
       -0.09578248 0.2347679 -0.08205029 -0.08755145
0002d0 de ea 6a 3e 83 b1 47 be f5 d6 0e 3e 97 bf 70 3e
       0.22941157 -0.19501309 0.13949187 0.23510586
0002e0 09 05 a9 3c 7a 82 67 3e cb ef 87 bd f8 31 6b 3d
       0.020632284 0.22608367 -0.06637534 0.0574207
0002f0 e8 c8 89 bd e8 9b b7 bd 8e f5 d0 bc af ec 5e be
       -0.06727773 -0.08965284 -0.025507715 -0.21769975
000300 78 ab 85 be 69 3c 97 bd f6 3d 68 3d b7 eb 8b be
       -0.26107383 -0.07384569 0.056699716 -0.27328274
000310 6f 62 01 be b2 e5 71 3e 38 37 6a 3e 07 e5 b5 bd
       -0.12635206 0.23622778 0.22872627 -0.08881574
000320 b8 ac be 3d b9 b0 18 be ef eb 30 3e fa 8c ca be
       0.09310287 -0.14911164 0.17277502 -0.39560682
000330 52 db ed bd c8 22 ca be 11 15 da bc 93 da 40 bd
       -0.11614098 -0.3947966 -0.026621373 -0.04708345
000340 d0 69 ab 3e 7a 1e 5b 3e a4 b4 18 3d b4 9d 27 be
       0.33479166 0.21398345 0.037281647 -0.16368753
000350 a7 ca 27 be 24 10 2a 3e 3d 9b 91 3d 73 fc d5 3c
       -0.163859 0.1660772 0.071096875 0.026121354
000360 5a 34 00 3e c9 3a 8b 3e 9d b3 c3 be 9a 1a fc 3d
       0.1251997 0.27193287 -0.38222972 0.12309761
000370 3a 92 6e 3d b3 90 6c be e8 a7 f2 bd ab 0b f5 bd
       0.05824492 -0.23102073 -0.11848432 -0.11965116
000380 bb ce 8a 3c 33 b0 96 bd 21 7a 76 3e 2b 92 6d bd
       0.01694428 -0.07357826 0.24070026 -0.058000725
000390 83 28 19 be 21 44 87 3c 95 a2 9f bd e4 c9 72 3d
       -0.1495686 0.016511979 -0.07794682 0.05927457
0003a0 bb 99 38 bd 8b 64 aa 3e d9 7d 3b 3e 1b 82 90 bd
       -0.045068484 0.33279833 0.18309726 -0.07056066
0003b0 cc 89 e4 bb 04 1f 71 3e 1f aa c5 3e a7 d3 ce be
       -0.0069744345 0.23546988 0.38606355 -0.40395853
0003c0 e9 d9 c5 3d df e1 44 bd a5 7a 88 bd c0 9f 27 be
       0.09660704 -0.04806697 -0.066640176 -0.16369534
0003d0 9f 0d a8 bd 64 89 3d bd e5 2b 98 bd 35 dd 81 3d
       -0.08205723 -0.046273604 -0.07430247 0.0634102
0003e0 58 9c 1d 3e 45 2d 08 be a5 d7 b9 bb 85 4e a6 3e
       0.15391672 -0.13298519 -0.005671459 0.3248178
0003f0 e0 2a c5 3e 44 fb a7 3d 39 3f 55 be 81 d3 2e 3e
       0.38509274 0.08202222 -0.20824899 0.1707287
