2048-Project/data/model/2048_2048zero.pt (torch, 724319 bytes, 74 tensors)

conv_block.0.weight f4 [128, 16, 1, 1]
00000000: 3f57 dc3d 3e55 08be b242 6c3e a341 0a3e
00000010: 14e5 a23c 7469 9d3d 833d 4c3d d68b e2bc
00000020: d12c c6bd 9f4c dc3d 3953 a5bd 4f50 36ba
00000030: dd0e 35be 359c 143d 2962 3fbe 124f 263d
00000040: 1a88 3abe 6f5f e5bd bfbb 78be 84c4 e0bd
00000050: 9bc5 123e 6c92 58be dd48 aaba 40e5 353e
00000060: 41de 303e 6c5b 253e f462 11be 7180 8bbc
00000070: 6379 173e e12f 09be bb2b aabd 8cf4 793d
00000080: 804c bc3c 6fb7 873d 834f 26be cf4a 343e
00000090: e205 513d b860 753e 4460 4e3e e57a b93c
000000a0: b304 6cbe 8dfe 39bd 004c cf3d 01a5 443e
000000b0: 2d32 c138 b3ea c3bd aebe 24bc 7266 41be
000000c0: d318 a43d 89b3 253d 6bd4 3ebe 2c90 3b3e
000000d0: 89cc 6a3e 2de2 253c 32a1 d2bd fef7 a2bd
000000e0: 66ab e2bd 476f 5a3e e982 18be ff5c 6bbe
000000f0: 1f69 51be 7c03 1cbe 7bd1 0dbd 448a 133e
00000100: b240 473e 9fa2 5b3e 45a0 3a3d d5b1 be3d
00000110: 59ba 29be 2836 6ebe 3b87 3b3e ffa8 58be
00000120: 3bf8 573e 5dbd f43d 35a9 0dbe 95ef 20be
00000130: c332 b73d b59e a43d ca9a 6839 e30e 15be
00000140: 4a1d 94bd 6144 6d3e 0408 413d e82f b53d
00000150: 37da 7f3d 0a74 1abe 38f2 043d a154 48ba
00000160: 3df8 11be d146 6bbe 4df3 773d d84a 8fbd
00000170: 9a0a 393e 3158 febc 788a 4b3e 2f5b c63d
00000180: eb09 623e 04d2 f33c 7c29 8ebd da9e 6cbe
00000190: 78c9 513e 1c66 333e 84a4 55bc a750 3c3d
000001a0: 4779 35be 8059 cc3b 42af 60be 8830 37be
000001b0: 4996 a2bd 3ef9 a53c 3bc8 4a3e fd46 b63d
000001c0: cde5 053e 2204 fe3d dedf ef3b 1dfb 00be
000001d0: 9946 ef3c 3856 203e 68ac 0a3e bde5 2a3e
000001e0: 3f2a 5a3e ad2c 373e 07d4 f939 f13b 0abd
000001f0: 37ca e33d 0f72 60be c21d c23d d317 89bd
00000200: e6b6 263e 1413 01bd 5fa9 1b3e ac27 20bd
00000210: 6f61 163e 4392 88bd 91e5 97bc bac8 5abe
00000220: 62a9 e93d 5173 d2bc 92cd 863a 4cb7 04b8
00000230: 558d b7bd 0a84 773a 927c bfbd 02fe 36b9
00000240: 2aff 76be 64d4 53bd 9189 22bd f481 023d
00000250: fe09 a0bc f62e 4cbe 6772 babd 0c29 723d
00000260: b1df 4cbe 7807 16bd bcd2 8fbd 3d28 45be
00000270: 420d cf3d 589a c3bc 0678 203e 666a dfbd
00000280: 0709 75be 5936 0abe 5de5 3ebe 5aad 7cbe
00000290: 37ad 1dbe 894e b1bd 52b7 bd3d 815d 163e
000002a0: f36a 743e ce61 26be aa05 c9bd d96f c1bd
000002b0: 7e61 4a3e 1381 93bd 9ae7 1ebe 3407 e0bd
000002c0: d5d4 96bc aac9 803e 71e2 15be 7a60 aa3d
000002d0: e3d8 2abd f7d3 43be 6e34 173e 97e0 413a
000002e0: b09f 0abe ccbb 17be 8833 243e 4bd7 153e
000002f0: 631d 2fbe 06b9 563c 1d0b 00b9 5da5 4239
00000300: a57a c73c 71f6 1dbc fe52 603e 6915 e4bd
00000310: de69 493e 6777 6f3e 29b3 15bd 03f4 54bc
00000320: 7c85 4fbd d7df b7bd 5288 d33a e00e dc3d
00000330: 9177 b0b8 cf98 57be ae0a 0ebd 7b06 22be
00000340: 170c 08be 70f3 373e 7e53 a5bd 2c9c 4f3e
00000350: 316b fcbd 48bc 75be 72d7 c23d 45e8 dd3d
00000360: e91b 62be 59a2 333c 8d6e af39 ed62 1bba
00000370: 7be1 4cba 637a 3f3d 85e8 673e b902 26be
00000380: a22e 173d 35d4 7b3e 6739 053e 7dea 5dbe
00000390: e95f 4c3e 1fae 6abd a98f 0fbe 1c9d 093e
000003a0: 78e8 2bbe b5c2 2bbd bd4b c23c 3a37 3b3c
000003b0: a2fa 5cbe dc92 2e3c 134a 9fbd 0705 6ebc
000003c0: 5ef8 283d 6550 9d3d 4f47 e33d 0741 62be
000003d0: 5ba4 5b3d 986a 54bd 62e0 75bd 5498 47be
000003e0: 6ed8 003d 70e1 323e 77f0 cbbd 3510 c83d
000003f0: d469 413a 045a bdbd 265e a73d 0f16 eb3d
0.10758828 -0.13313767 0.23072317 0.13501601 0.019884624 0.07686129 0.04986335 -0.02765457
-0.09676517 0.10756802 -0.08072514 -0.0006954716 -0.17681451 0.036281783 -0.18689789 0.04060275
-0.18215981 -0.11199843 -0.2429037 -0.109749824 0.14333193 -0.21149606 -0.0012991686 0.17763233
0.17272283 0.16148156 -0.14197904 -0.01702902 0.14792399 -0.1339717 -0.08309122 0.061024234
0.022985697 0.06626784 -0.16241269 0.17606662 0.051031 0.23962677 0.2015391 0.022641608
-0.23048668 -0.045408774 0.10121918 0.19203569 9.212303e-05 -0.0956625 -0.010055227 -0.18886736
0.08012547 0.04045442 -0.18635719 0.18316716 0.22929586 0.010124725 -0.10284652 -0.07957457
-0.11067848 0.21331511 -0.14893688 -0.22984694 -0.20450257 -0.15235704 -0.034623604 0.14408213
0.19458273 0.21448754 0.045563 0.093112625 -0.16574992 -0.23262846 0.18313305 -0.21158217
0.21090786 0.11950181 -0.13834079 -0.15716393 0.08945229 0.080380835 0.00022182908 -0.1455646
-0.07232149 0.23170616 0.047126785 0.08847028 0.062463965 -0.15083328 0.03245756 -0.0007642005
-0.14254852 -0.22976233 0.060534764 -0.06996697 0.1807045 -0.031047912 0.1987704 0.09685361
0.22074096 0.02976323 -0.06941506 -0.23107472 0.2048701 0.1751942 -0.013039712 0.045975354
-0.17722045 0.006236255 -0.21941856 -0.17889607 -0.07938821 0.02026045 0.19802944 0.08900259
0.13075943 0.12403132 0.007320388 -0.12595792 0.029208468 0.1565789 0.1354233 0.166892
0.21305178 0.17888136 0.00047650954 -0.03374857 0.11122554 -0.2191851 0.09478332 -0.06693997
0.16280708 -0.031512335 0.15201329 -0.039100334 0.14685605 -0.06668522 -0.018542083 -0.21365634
0.1140926 -0.025689753 0.0010284653 -3.164196e-05 -0.08962504 0.00094419776 -0.09349932 -0.00017451498
-0.24120775 -0.051716223 -0.039681975 0.031862214 -0.019536015 -0.19939789 -0.09103852 0.059121177
-0.20007206 -0.036628217 -0.07022616 -0.19253631 0.101099506 -0.023877308 0.15670785 -0.10908966
-0.23929225 -0.13497294 -0.18642183 -0.24675503 -0.15398107 -0.086575575 0.09263481 0.14684106
0.23868923 -0.16248247 -0.098155335 -0.09445161 0.19763753 -0.07202353 -0.15518036 -0.10938874
-0.018412033 0.25153857 -0.14637162 0.08319183 -0.041710746 -0.19123827 0.14766094 0.0007395832
-0.13537478 -0.14817733 0.16035283 0.14632909 -0.17101054 0.013105636 -0.00012211171 0.00018562884
0.024350474 -0.009641276 0.21906659 -0.11136896 0.19669291 0.23385392 -0.036547814 -0.01299763
-0.05066441 -0.08978241 0.0016138649 0.10745025 -8.414605e-05 -0.21054386 -0.034678154 -0.15822785
-0.13285862 0.17963958 -0.080725655 0.20274419 -0.12325133 -0.23997605 0.09513749 0.108353175
-0.2208096 0.010964 0.00033460968 -0.0005927522 -0.00078155816 0.046747576 0.22647293 -0.16211976
0.036909707 0.2459267 0.13010179 -0.21671481 0.19958462 -0.05729496 -0.14019646 0.13438839
-0.16787899 -0.041933734 0.023717755 0.011426741 -0.21579984 0.010655131 -0.077778004 -0.014527566
0.041252486 0.0768135 0.110975854 -0.22095118 0.05362354 -0.05185947 -0.06002844 -0.19491702
0.031456403 0.1746881 -0.099579744 0.09768716 0.00073781353 -0.09245685 0.08172254 0.11478817

conv_block.0.bias f4 [128]
00000000: 5f48 8abd c50c 493e d7a8 c73d 7eb0 6b3e
00000010: 5d3f cd3d a7ba 833b 0cfe e3b9 367f 08bd
00000020: 2f32 43be f763 5a3d c3e3 693e eac5 62be
00000030: 4dc8 4e3e 9402 793d 4ba9 f8bd 956e 0ebe
00000040: 4a9c 78ba d659 42bd 9d5a 843a 3a57 debd
00000050: 12df 033d e3d4 96b9 7766 26be 003d e33b
00000060: 2bc9 26be 9990 293e a6e0 7aba 3fcd b03c
00000070: d4d1 e6bc a862 65be 80fc b83d 04b4 523c
00000080: acab 3bbe 0087 423e 6fc7 3ebe 8284 21be
00000090: 660d 10be 0f65 413e 4079 353c 9d6e 193e
000000a0: 40db eb3c 5702 433d c8ae 073c b6b5 15be
000000b0: 233d 0a3e 6d95 253e 57d3 363e 3fce 303e
000000c0: dd68 953d 63ea 44bc a761 9139 ba7c 063d
000000d0: 5dc1 d0bd c8e9 03be fbd7 183e e337 c1bc
000000e0: 0fb2 9f3d 2c03 3bbe 7f8d 88bd 7284 2fbe
000000f0: 7f86 c83d 2a6b 63be 315e f8bd f328 7f3a
00000100: b090 1a3e 855e 10be fcad 8cba 50b8 4a3d
00000110: 9df2 b3bd d5f1 3f3e cbdf 23be 4568 44be
00000120: 6bbe c8bd f6b6 143e 7410 0a3e 6c9f 293e
00000130: 4ec1 dcba 87d9 303e dadf e2b9 de01 0bbe
00000140: f555 d8bd 1405 77bd f89b 323e fa7f 8b3a
00000150: 27ec dabd b997 5b3e 67fd e0bd 53f0 f1bd
00000160: c0d9 35be 1de0 7c3d c4b8 9ebd bdf7 c6bc
00000170: de3e 66be 08b6 f7bd 5342 0cbe 37d9 e93d
00000180: 3921 183d 8d44 13be 9b82 a8bd 0b42 e33d
00000190: eb1d db3d 3775 f53b 4934 ebbc 1769 82bd
000001a0: 5e9c 6a3e 435d 71bd 1167 373e 4513 d0bd
000001b0: 2e1e 5c3e 5ec6 913d 5507 a33d fd6b 6a3e
000001c0: ead6 823d 3f17 3e3e 20b2 fcbd 62e2 073d
000001d0: 06e3 273d 216e cdbd 5aa6 523d 98ae 27bd
000001e0: 66a9 b93d a3fe 8cba ec92 5dbe 6595 26be
000001f0: 210b 53be fc6d ffbc 4fe3 fdbd 226a 203e
-0.06752085 0.19633777 0.097490005 0.23016545 0.10021851 0.0040200534 -0.00043486094 -0.033324443
-0.19062112 0.05331799 0.2284079 -0.2214581 0.20193596 0.060793474 -0.12141665 -0.13909371
-0.0009483738 -0.047448955 0.0010097806 -0.10856481 0.03219516 -0.00028768842 -0.16250025 0.006934762
-0.16287677 0.16559066 -0.00095702184 0.021582244 -0.028176226 -0.22400916 0.090325356 0.012860302
-0.18327206 0.18996811 -0.18630765 -0.15773204 -0.14067611 0.18886207 0.0110762715 0.14983602
0.02879107 0.047609653 0.008281417 -0.14620098 0.13499884 0.16170283 0.17854057 0.17266177
0.07295392 -0.012018773 0.00027729312 0.032833792 -0.10193131 -0.12882149 0.1492614 -0.02358622
0.07797634 -0.18262929 -0.06667613 -0.17140368 0.09791278 -0.22208849 -0.121273406 0.000973358
0.15094256 -0.14098556 -0.0010733004 0.04949218 -0.08786509 0.18744595 -0.16003339 -0.191804
-0.09801944 0.14522919 0.13482839 0.16564721 -0.0016842277 0.1727048 -0.00043272862 -0.13574931
-0.1056327 -0.060307577 0.1744231 0.0010642998 -0.10689574 0.21444596 -0.10985833 -0.11813416
-0.17758846 0.06173717 -0.07750085 -0.024288053 -0.2248492 -0.120952666 -0.13697176 0.114183836
0.03714106 -0.14381619 -0.08228036 0.11096581 0.10699066 0.0074907797 -0.028711455 -0.063677005
0.22911212 -0.058926832 0.1791041 -0.10159925 0.21495888 0.07117914 0.07960383 0.22892757
0.06388648 0.18563555 -0.12338662 0.03317488 0.04098799 -0.10030771 0.051428176 -0.04093799
0.09065513 -0.001075704 -0.21638077 -0.16267927 -0.20609714 -0.031180374 -0.12396871 0.15665486

conv_block.1.weight f4 [128]
00000000: 5c6e 7e3f 0560 803f 6f20 7e3f 3542 7e3f
00000010: 93ef 7d3f 6975 7e3f 1141 7e3f a2ab 7e3f
00000020: c1d6 7f3f 868c 7f3f 7134 7f3f 7199 7e3f
00000030: 73e1 7f3f b615 803f 78ce 7d3f 1f58 7d3f
00000040: c8eb 7e3f 30df 7f3f 1766 7e3f dc9d 7e3f
00000050: 48bf 7c3f e6f4 7e3f 3885 7f3f 782e 803f
00000060: e3d2 7f3f dc56 7d3f ce42 7e3f e991 7f3f
00000070: 21b5 7e3f d574 803f 92bc 7e3f f86b 7c3f
00000080: c2f0 7f3f 0b63 7e3f 66e0 7e3f 4544 803f
00000090: 864d 803f b73e 803f 6d19 7f3f d109 7d3f
000000a0: 52c1 7c3f b3c9 7c3f 3fab 7f3f db8b 7c3f
000000b0: 6445 803f 1260 803f 8f60 803f b2a8 7e3f
000000c0: 4714 803f 9e49 7e3f 63f7 7d3f ab5f 803f
000000d0: 2113 803f 4d9b 7e3f 35b5 7e3f 4dce 7e3f
000000e0: 011e 803f ff3d 7d3f e4f9 7d3f a845 803f
000000f0: 795a 803f e649 7e3f b391 7e3f 974a 7e3f
00000100: 172f 803f 3d08 7d3f 19cb 7e3f 0e06 7e3f
00000110: a854 803f f479 7e3f 01ab 7e3f b5cb 7d3f
00000120: 46fd 7c3f 91d2 7f3f 21b5 7d3f a012 7e3f
00000130: a641 803f 96f8 7e3f 4749 803f 97e3 7d3f
00000140: 40fa 7e3f 3fac 7d3f be1f 803f 125f 7e3f
00000150: b656 803f a65f 803f 54e7 7e3f 05cc 7e3f
00000160: 88ac 7f3f bd4f 803f cce4 7e3f 534e 803f
00000170: 44bc 7f3f fe6b 803f 7db8 7b3f 94d7 7e3f
00000180: 386f 803f 3ed8 7d3f 737f 7f3f 4373 7f3f
00000190: 355d 7e3f 1d19 7f3f 5ef4 7d3f 671d 803f
000001a0: 94e5 7d3f 2129 803f 91bc 7e3f 33d9 7e3f
000001b0: 9da5 7e3f 9c8c 7f3f f63f 7e3f bc04 803f
000001c0: 4034 803f 9a31 7d3f 8d4a 803f fffa 7e3f
000001d0: 8b7d 7e3f ddaa 7c3f 9bfe 7f3f b732 803f
000001e0: c959 803f 55a9 7d3f 70ca 7e3f a142 803f
000001f0: c52d 7c3f c73e 7e3f 8f2a 803f c520 803f
0.99387145 1.0029303 0.9926824 0.99319774 0.99193686 0.99397904 0.99318033 0.9948064
0.99937063 0.99823797 0.99689394 0.99452883 0.99953383 1.0006626 0.9914317 0.9896259
0.99578524 0.9994993 0.99374527 0.99459624 0.9872937 0.99592435 0.9981265 1.0014181
0.9993116 0.9896066 0.99320686 0.99832016 0.9949513 1.0035654 0.99506485 0.9860225
0.9997674 0.9936988 0.99561155 1.0020834 1.0023658 1.0019139 0.9964817 0.98843104
0.98732483 0.9874527 0.99870676 0.986509 1.0021176 1.0029318 1.0029467 0.9947616
1.0006188 0.9933108 0.9920561 1.0029196 1.0005838 0.9945572 0.9949525 0.9953354
1.0009156 0.98922724 0.9920943 1.0021257 1.002761 0.9933151 0.9944107 0.99332565
1.0014371 0.98840696 0.9952865 0.9922799 1.0025835 0.99404836 0.9947968 0.9913896
0.98823965 0.99930674 0.99104506 0.9924717 1.0020034 0.9959806 1.0022362 0.991754
0.996006 0.9909095 1.0009687 0.99363816 1.0026462 1.002919 0.9957173 0.9953006
0.99872637 1.0024334 0.99567866 1.0023903 0.99896646 1.0032957 0.9832838 0.99547696
1.0033941 0.99158084 0.9980385 0.9978525 0.9936097 0.99647695 0.99201 1.0008973
0.99178433 1.0012552 0.9950648 0.9955017 0.99471456 0.9982393 0.99316347 1.0001445
1.0015945 0.9890381 1.0022751 0.9960174 0.99410313 0.98698217 0.9999787 1.0015477
1.00274 0.99086505 0.99527645 1.0020334 0.9850734 0.9931454 1.0012988 1.001

conv_block.1.bias f4 [128]
00000000: 2237 45bb 526b 913a 23ac 95bb cda2 0fbc
00000010: 3532 8338 429a 73bb 7cc1 1ebb ab86 3ebb
00000020: cae8 8d3b 3767 1f3b 4b8f 4fbb fd45 66bb
00000030: e4bb 223b 0b1b 513b fa4c a43b 1286 6cbb
00000040: c295 40bb cf56 953b 3187 61bb b8fe 8bbb
00000050: 623b 833b a2a7 7fbb 287f 7d3b c00f 583b
00000060: 5e5e 703b 03f2 c8bb 3b2d 33bb 7bd5 7c3b
00000070: 298c eaba 622e 043c 0a54 793b 937d 22bc
00000080: 4a67 b33b 5a91 a6bb cdfa 63bb 2927 9ebb
00000090: 0009 6f3b ac03 5e3b af7b 14bb ffa8 d0bb
000000a0: 1379 e4bb d3dc 68bb 17a6 6d3b 5869 51bb
000000b0: 20a9 9b3b d89b 793b 8ac0 7d3b d27b 82bb
000000c0: d83b 593b 8583 7eba bd07 763b f046 6e3b
000000d0: 14a9 8f3b eb93 ca3a c147 79bb 443c 5fbb
000000e0: a056 203b 56e4 bcbb 7445 85bb 1266 5b3b
000000f0: d8b2 f93b 550c 87bb bd9e 09bb 7111 1eba
00000100: e2ac 5d3b d77b 3fbb e177 6dbb 43af 8dbb
00000110: 9d91 9c3b d958 84bb 6471 7abb ab22 163c
00000120: 82b9 76b9 4569 5fbb fed9 8abb 918a 7bbb
00000130: d268 7e3b 213e e6ba ccd0 a13b 45ce e0b8
00000140: 15d7 23ba 682d 8dbb 04ac 593b 3b55 4cbb
00000150: a3fc 643b 9ccd 6f3b 1fd4 79bb 500d 5ebb
00000160: dba4 8abb d466 773b 11d7 66bb 997a 733b
00000170: e895 6e3b 0ec2 863b e368 893b 09e3 7bbb
00000180: 3fff 943b 585e b23b fee1 38bc 1304 62bb
00000190: ba97 bdbb 31db c13b 8353 53bb dea3 563b
000001a0: 5441 beba 191c 413b a0dc 90bb ba5b 353b
000001b0: b992 77bb 2ea0 843b 1bc9 833b cf57 493b
000001c0: a885 a13b 07bd ccbb 3f73 833b 24a4 603b
000001d0: e82a 7bbb 176a 13bc 0fdf 4f3b db5b e03b
000001e0: 4cd5 b1bb 27a2 41bb 6867 84bb 0be1 9c3b
000001f0: 3260 bd3a 7982 a2bb 44a9 f33b e3fe 7e3b
-0.0030092676 0.0011094606 -0.0045676394 -0.008766842 6.2559186e-05 -0.0037170802 -0.0024224212 -0.0029071968
0.004330729 0.0024322995 -0.0031671103 -0.003513693 0.002483123 0.0031906988 0.005014059 -0.0036090654
-0.0029386138 0.0045574675 -0.0034412856 -0.004272308 0.0040048817 -0.003900983 0.0038680527 0.0032968372
0.003667734 -0.0061323657 -0.0027340192 0.0038579393 -0.0017894554 0.008067699 0.0038044476 -0.009917635
0.0054749595 -0.005083245 -0.003478694 -0.0048264456 0.003647387 0.00338767 -0.002265673 -0.006367802
-0.006972441 -0.0035532012 0.0036262327 -0.003195366 0.004750386 0.0038087275 0.0038719499 -0.0039820457
0.0033147242 -0.0009708929 0.0037541233 0.00363582 0.0043841694 0.001545546 -0.0038037153 -0.003406302
0.0024465695 -0.0057645245 -0.0040671173 0.0033477587 0.007620197 -0.004121343 -0.0020999156 -0.00060298207
0.003382497 -0.0029218101 -0.0036234783 -0.0043238713 0.0047781006 -0.004038912 -0.0038214559 0.009163539
-0.00023529495 -0.0034089845 -0.0042374125 -0.0038382153 0.0038819802 -0.0017566123 0.0049382206 -0.00010719573
-0.0006250006 -0.0043083914 0.0033214102 -0.003117873 0.0034940622 0.0036591059 -0.0038120819 -0.0033882447
-0.004231078 0.00377505 -0.0035223404 0.0037151931 0.003640527 0.0041124886 0.0041934117 -0.0038434884
0.0045470293 0.0054433756 -0.0112843495 -0.0034487292 -0.0057859095 0.005916022 -0.0032245822 0.003275148
-0.0014515319 0.002946621 -0.004420832 0.0027673081 -0.0037776663 0.004047415 0.0040217764 0.0030722504
0.004929263 -0.0062481198 0.004011541 0.0034277523 -0.0038325135 -0.008997462 0.0031718647 0.0068468875
-0.0054270383 -0.0029546113 -0.0040406473 0.0047875694 0.0014448224 -0.004959401 0.0074359495 0.0038909249

conv_block.1.running_mean f4 [128]
00000000: ce3b 49bd 49e2 f93d c96c 463e f281 8f3e
00000010: 0431 293e 1edb 3b3d 9546 a5bc 4366 323d
00000020: 34c1 61be f908 2cbc e356 fd3d b98f 36be
00000030: 13b4 5a3e 66d8 e43d 7877 f4bd 9e8e 35be
00000040: 29f6 6ebd ec0b 04be f0ed ea3c a5e3 15bd
00000050: a0ee 9dbc 8350 adbc c9dd e1bd a381 c23d
00000060: 0d64 31be 9feb 1f3e 92da 08bc 620f 1cbc
00000070: 3e97 f7bd 13ef 99be 3673 533d ce4a 03be
00000080: 0f27 5ebe 0cdd 833e 871c 7bbe 9c4f 1ebe
00000090: 8d7d 41bd 50aa da3d 5843 3abc bf84 973e
000000a0: 48cb 79bc 1944 3f3d 0330 553d 5542 d6bd
000000b0: 79bc c33d af35 083e bbb8 fa3d 5f14 2d3e
000000c0: ea57 293e 57f7 82bc 93cc 413d 2104 18bd
000000d0: cdb5 1dbe dfc6 bfbd 772d 703d 0ec5 98bd
000000e0: dc52 183d b081 0abe c02e 5c3c f0e1 39be
000000f0: ed39 f53d 26ab 93be 473a 55be f382 1f3d
00000100: 70f5 b93d a410 17bd 4159 273d 2a97 073e
00000110: dfcd 99bd 8746 8d3e f502 78be b703 88be
00000120: fc5b 42be ba2d 3c3e b27a be3d a071 243e
00000130: 609e b93b 5c37 b43d 2ef2 3fbc b251 efbd
00000140: e39c f7bd 240a fbbc 8c07 603e 273e 203d
00000150: fba1 9cbd 12ac 7a3e 9407 c6bd 687c 37be
00000160: 4a70 5cbe 6a4a ae3d 80ea 0fbe e269 e8bd
00000170: e5c7 4cbe 7a07 14be 89fd 03be 34d2 f83d
00000180: ee26 21bd be75 003b f936 4cbd 2a14 f13d
00000190: 8c7a 243e 4514 223d 9d94 2ebd 98ec 63bd
000001a0: 6fde 843e 3345 bfbd 625c 0c3e 481d 25be
000001b0: 47f7 4a3e ae2a 3c3e 75c9 8dbc 0766 793e
000001c0: 9efe f33d 3f6b 2a3e c100 13be 9f25 5ebb
000001d0: a3bc c43b 99d8 38bc 052b c53d 32e6 ba3b
000001e0: ac64 aa3d 39a8 bd3c 8884 8fbe c00a 5abe
000001f0: 55a3 8cbe 2e1c 18bd eb1f 21be 9706 323e
-0.0491293 0.122013636 0.19377436 0.28028828 0.16522604 0.045863263 -0.020175258 0.043554556
-0.22046357 -0.010500186 0.12370088 -0.17828263 0.21357755 0.11174087 -0.11936849 -0.17730185
-0.058340225 -0.12895173 0.02867791 -0.036594052 -0.019278824 -0.021156555 -0.1102863 0.094973825
-0.17323323 0.15617226 -0.0083528925 -0.009525152 -0.12089394 -0.30065212 0.051623546 -0.12821504
-0.21694587 0.25754583 -0.24522601 -0.15460056 -0.047238875 0.10677016 -0.011368595 0.29593465
-0.01524622 0.046695802 0.05204774 -0.104618706 0.09557433 0.13301729 0.12242266 0.16902302
0.16537443 -0.015987081 0.047314238 -0.037113313 -0.15401383 -0.093641035 0.05863711 -0.0745946
0.037188396 -0.13526034 0.01343888 -0.18152595 0.11973939 -0.28841513 -0.20823012 0.038943242
0.090800166 -0.036881104 0.040856604 0.13241258 -0.0750997 0.2759287 -0.24219878 -0.26565334
-0.18980402 0.18376818 0.09300746 0.1605897 0.0056646317 0.087996215 -0.011715455 -0.11685504
-0.12090471 -0.030644484 0.21877879 0.039121773 -0.07648083 0.24479702 -0.09669414 -0.17918551
-0.2152721 0.08510287 -0.14054298 -0.113483205 -0.19998129 -0.14455977 -0.12889685 0.12149468
-0.039343767 0.001960143 -0.049857114 0.11771424 0.16062373 0.03957011 -0.042622197 -0.055645555
0.25950953 -0.093393706 0.13707116 -0.16124451 0.19820891 0.18375656 -0.017307976 0.24355327
0.11913799 0.16642474 -0.14355756 -0.0033896936 0.0060039326 -0.01128211 0.09627346 0.005703711
0.08319983 0.023151504 -0.280308 -0.21293163 -0.27468362 -0.03713625 -0.15734832 0.17385326

conv_block.1.running_var f4 [128]
00000000: a264 663c 9b26 903c eedc 893c e91e 533c
00000010: 0dcd 013d 1902 d23c bec5 b63c 6ffe 753c
00000020: 9bda a73b 0ad4 0c3c 2307 a43c e9f6 f73c
00000030: 5406 823c c916 073d 6f3b 123d c3d5 913c
00000040: f242 883c 7baa 983c f157 4b3b e2fa d83b
00000050: 4f87 853c 97ba 973c 8914 de3c 8ef8 553c
00000060: eed6 763c 8e53 d93c cc44 bc3c f38e 1f3c
00000070: 08b4 a63c d5bd c63c ca8a 3a3c db21 f63b
00000080: 14cf fc3c 159b 1b3c ba3e a13c d368 1f3d
00000090: dc22 963c 4e8c 7f3c 88d8 793b 5a3e 993c
000000a0: 234b bd3c fb28 e13c 4281 a53c 79d3 e73c
000000b0: f69f 8a3c 76b4 053c be74 953c e9df 4c3c
000000c0: 8413 4a3c f283 303c a7ac 073d f125 1d3d
000000d0: ecc9 da3b 62ae dd3c 95c3 883c 692c 803c
000000e0: 008d 983c 8625 903c eb73 2a3c 6b97 ae3c
000000f0: af45 6a3c 3fb5 9c3c f624 8a3c f867 d73c
00000100: 4f2f 1b3c 1314 3d3c d730 af3c 047a 7d3c
00000110: 8891 7a3c 42c7 3b3c ed3b cf3b b3ff 173c
00000120: fe0e e53a 47c4 bb3c 3091 fa3c cfe5 703c
00000130: 40d8 eb3b 49e8 5a3c 7f79 c63c c072 9a3c
00000140: 018f 343c 5043 553c 9b90 f93b a2e8 853c
00000150: 2a75 b63c 5790 923c 104b 8f3c bc03 163c
00000160: 5b8a ea3c b20f e93c a185 1b3d 28fa bd3b
00000170: 43fc 743c 8581 003d cebe 773c edf4 603c
00000180: 94e0 533c d3e6 a23b b880 103c 614c 923c
00000190: 6903 893c a9a8 253d bb25 563c 0891 a83c
000001a0: a75c bf3c 6e6b a13c baff d13b bb1b 123c
000001b0: 927b f43c 5b72 513c feb5 6d3c 877e 923c
000001c0: 730f 7c3c a844 ec3c c8cd 013c 4a53 b43c
000001d0: 2b68 993c 499c 403c 4fb5 f43c 3a2e 0c3d
000001e0: 8c67 063c 4e5f 073d 4bd6 d63b 8702 8b3c
000001f0: 4937 013c 8da4 453c b29b 013d 3888 873c
0.014062079 0.017596534 0.01682898 0.0128857875 0.031689692 0.025635766 0.022311088 0.015014275
0.0051224953 0.008595476 0.020022934 0.030269103 0.015872158 0.032980714 0.03570121 0.017802125
0.016633485 0.018635979 0.003102776 0.0066217044 0.016299872 0.01852159 0.027109401 0.013059748
0.015065892 0.0265291 0.022982024 0.009738672 0.020349517 0.02426044 0.011385629 0.00751136
0.030860461 0.009497424 0.01968323 0.038918328 0.01832717 0.015597416 0.0038123447 0.01870649
0.023107117 0.027485361 0.020203236 0.02829908 0.016921978 0.008160701 0.018244144 0.012504556
0.012333754 0.010773646 0.03312364 0.038366262 0.006676903 0.027060691 0.016694823 0.015646176
0.018621922 0.017596018 0.010403614 0.021312436 0.01429884 0.019129394 0.016863327 0.026294693
0.0094717285 0.011540431 0.021385593 0.015470985 0.015293486 0.011461081 0.0063242824 0.009277272
0.0017475781 0.02292074 0.030586809 0.014703228 0.00719741 0.013361045 0.024227856 0.018853545
0.011020423 0.013016537 0.0076161153 0.01634628 0.022272665 0.017891092 0.017491847 0.009156164
0.028630426 0.028449867 0.037969235 0.005797643 0.014952722 0.03137352 0.015121175 0.01373027
0.012931962 0.004971364 0.008819751 0.017858686 0.016725259 0.04044405 0.013070519 0.020576969
0.02335961 0.019704547 0.006408659 0.008917744 0.02984408 0.012783612 0.014508722 0.017882599
0.015384543 0.028841332 0.007922597 0.022012372 0.018726429 0.011756011 0.02987161 0.034223773
0.008203398 0.033049874 0.0065563074 0.016968979 0.007886716 0.012063158 0.031642623 0.016544446

res_blocks.0.block.0.weight f4 [128, 128, 1, 1]
00000000: 1b45 72bd 0078 83bd 6e7a 883c 33e5 64bd
00000010: cff6 a8bd 5af2 823d 547b e63c e5a3 55bd
00000020: 6766 873d b558 8f3d 2013 8dbd f270 0ebd
00000030: a5c4 d4bc b41b 91bd 9cd2 e43a 9451 16bd
00000040: 0a5f 82bd b512 953d 22b4 7a3d 1ad7 a3bb
00000050: fddc 9c3d 1d73 003d 01a9 2ebd 7bb8 8bbb
00000060: 79bf 8b3c 9e6e 60bd 63d1 1e3d 42d8 543d
00000070: 8f37 1f3d 0c72 60bc fe77 3bbd 73ce 8ebc
00000080: 539d 3abd a0a9 09bd 20ba 2d3d c8ea 3fbd
00000090: a0c0 86bc 64ee e93c 1dbf 86bc ec84 16bd
000000a0: 6091 09bc f2d5 863c 6984 233d cb3d 25bd
000000b0: 9288 5c3a 96ce 1abc dc98 bcbd 8527 d93c
000000c0: a7bf d53c f843 5cbd 1270 353d 2653 82bc
000000d0: 767f b93d fdfc 03bd affb 9cbd 8cd4 3bbc
000000e0: e006 b7bd d6d8 a7bd ef3a 273d 731e 4abd
000000f0: e589 d13c 351a 793b 4a7d 3bbc 3aee 3a3d
00000100: fa93 3dba b2e8 293d 9886 98bd ece2 2cbd
00000110: 951a 713c de45 14bb 7a6f 793d f56b 8fbd
00000120: 317c 92bd c9df 643d 9385 603d a68a 613d
00000130: 3a9e 80bd 0145 183d 1ea1 94bd 908b 3dbd
00000140: 4481 0f3d dc25 7a3d 48a2 6f3d c244 723d
00000150: fc25 1fbd 66f2 8f3d acee 0ebd c99f 3cbd
00000160: 3b63 0b3c d2f6 d1bc f0f9 713d 73b8 9fbc
00000170: 22db 0d3d 9aac e43c 2873 83bd 69f8 19bd
00000180: f19f 97bc 2bc4 413d 9b68 9ebd f7ed d33c
00000190: 551c da3c 5cf7 423d 1b88 19bd 0b71 8dbc
000001a0: 8325 bfbb cd02 f53c 441a a13c 1b27 393c
000001b0: ca8f 833c f241 f63c 6188 97bd 7f6d 46bd
000001c0: 1f86 343d 8eb4 753d 802f 193b 2762 9fbd
000001d0: fd0f 2b3d 0270 0fbd b67c af3a 71af b73d
000001e0: 9eca 81bd ee7f e4bc 24ce 6cbd 73d5 643d
000001f0: 06fe c8bc 93ac 9f3b 6b4c 61bd fdbf 653d
00000200: 1027 36bd 2a92 34bc 4688 ac3d 4e0f 953d
00000210: 4f4e 4d3d c4f3 f63b 1fe6 67bd 746a e3bc
00000220: 073b 88bd bb00 123d 6f0f 493d 0da4 46bc
00000230: cd46 423c ed3e ebbc 3af4 9a3d f333 78bd
00000240: 810b bd3c e082 5ebd 74cd 9bbd 7242 2c3d
00000250: 849c 0bbd 48a3 9e3d ccfe 5d3d 52b4 9f3c
00000260: ab9c de3c b254 263d 4a5d a73d e335 7cbd
00000270: 2d23 0fbd d35c 583c 0b15 9a3d 27fc d5bc
00000280: c739 acbd 8240 603d 8f19 b23d ad04 ecbc
00000290: 8d65 0b3d 86ba 623b 8099 663d 1a4e 8f3c
000002a0: aec5 363d 6b03 a7bd 3560 30bd 3088 2cbb
000002b0: 30cb 2fbc 7598 81bd 58d7 7bbc 6989 8ebc
000002c0: c933 e13c 8129 b53d ca60 7bbc 1cd6 b43c
000002d0: 01a5 873d 31ae 4f3c 5ecf e33c b7b6 3f3d
000002e0: 7dd0 163c 43e4 64bd b5ae 35bd 1ecb aa3d
000002f0: 8e9c a23d 443f babc 2938 90bd 9b09 c03c
00000300: 8d8a 94bb b0cc 4abd 3b32 593a 0815 52bc
00000310: 6135 af3b 891f 6dbc 2988 afbd d3ef a3bd
00000320: c0eb b0bd 1036 3b3d 86f7 8cbd b97b 8c3d
00000330: 49a4 a13d 2a22 acbd a2dc b63c ac6b be3b
00000340: a697 bc3d b217 10bb 7e9b 3dbd 88b8 2a3b
00000350: 911f 2a3d 1a36 58bd 8a83 16bd 4b5f 183d
00000360: 3e73 73bc f19f 9fbd e012 a7bd f821 8ebd
00000370: 197f b23d 29a9 1e3d 551d a13d d5ef 39bd
00000380: d27f 8c3d 726e 17bd e85b 853d ca7a f93c
00000390: e727 ee3c 24e6 0b3d ec1c 36bd 68c3 ac3d
000003a0: ac9a bcbc 935f c0bc ad8b 6c3d cf4e 813d
000003b0: ecca 323d a758 ce3c 9822 b8bc eac2 33bd
000003c0: 46d2 aabd 5839 aebc 8e26 a73d 6edb 943d
000003d0: 682f e83b c692 753b b6c5 2c3d 59dd 023c
000003e0: e4e1 e13b a87a 813d 4b9a dfbc 1aff 49bd
000003f0: 751d b9bc 22e5 8d3d 5ff3 e9bb 6a77 4f3d
-0.059147935 -0.064193726 0.016659942 -0.055882644 -0.082502 0.06393881 0.02813498 -0.052158255
0.066113286 0.069993414 -0.068884134 -0.03477568 -0.025972674 -0.07085362 0.0017457786 -0.036698893
-0.063657835 0.07278959 0.061206944 -0.0050000073 0.07659338 0.03135978 -0.042641643 -0.004263935
0.017059075 -0.054792993 0.038773905 0.051964052 0.038871344 -0.013699066 -0.04576873 -0.017432427
-0.045560192 -0.033609033 0.04241383 -0.046854764 -0.016449273 0.028556056 -0.016448552 -0.036747858
-0.0083964765 0.016459439 0.039921198 -0.040342133 0.00084126845 -0.009448668 -0.09208843 0.026508102
0.026092364 -0.053775758 0.04429633 -0.015908789 0.09057514 -0.03222369 -0.07665192 -0.011464249
-0.08936858 -0.08195655 0.040827688 -0.049345445 0.025578449 0.0038010005 -0.011443445 0.045637347
-0.0007231828 0.04148168 -0.07447547 -0.042208597 0.01471581 -0.0022624652 0.060897328 -0.07003013
-0.07152594 0.05587748 0.054814886 0.055063866 -0.06280179 0.037175182 -0.07257293 -0.046275675
0.035035387 0.06107126 0.058504373 0.059147604 -0.038854584 0.07028656 -0.034895584 -0.04605082
0.008507545 -0.025630388 0.05907625 -0.019497132 0.03463281 0.027914334 -0.06418449 -0.037590418
-0.018508883 0.04730622 -0.07734796 0.025870306 0.026624838 0.04759918 -0.037483316 -0.017265817
-0.005833329 0.029908562 0.019665845 0.011300827 0.016059775 0.030060742 -0.07399059 -0.048444267
0.04407322 0.059986643 0.002337426 -0.07782393 0.041763294 -0.03501893 0.0013388607 0.0896901
-0.06337474 -0.027893033 -0.05781378 0.055867624 -0.02453519 0.0048728674 -0.05500452 0.056091297
-0.044470847 -0.011021176 0.084244296 0.0727831 0.05012351 0.0075363833 -0.056615945 -0.027760722
-0.066518836 0.035645228 0.049086984 -0.012124074 0.0118577005 -0.028716529 0.07566114 -0.060596418
0.023076775 -0.05432403 -0.076075464 0.042055555 -0.03408481 0.07745987 0.05419807 0.019495163
0.027174314 0.040608115 0.0817209 -0.061574828 -0.034945656 0.013205725 0.07523545 -0.026121212
-0.08409458 0.05474902 0.08696281 -0.028810823 0.034032393 0.003459604 0.056298733 0.017493296
0.044622116 -0.08154949 -0.0430605 -0.0026326291 -0.010729596 -0.06327907 -0.015371166 -0.017399507
0.027490513 0.08845807 -0.0153429005 0.022074752 0.06623269 0.012675808 0.027808841 0.04680511
0.009204981 -0.05588175 -0.044356067 0.08339523 0.07940017 -0.022735246 -0.07041962 0.02344208
-0.004533118 -0.04951161 0.0008285378 -0.012822397 0.0053469394 -0.014472851 -0.08570892 -0.08004727
-0.08638716 0.045705855 -0.06883149 0.06859536 0.07892663 -0.08404954 0.022322003 0.0058111753
0.09208612 -0.002198678 -0.046290867 0.002604993 0.04153401 -0.05278597 -0.03674654 0.037200253
-0.014859019 -0.07794178 -0.08157897 -0.06940073 0.08715648 0.038735542 0.07866923 -0.045394737
0.06860317 -0.036970563 0.0651167 0.030454058 0.029071761 0.034155026 -0.044461176 0.08435708
-0.023022972 -0.023483073 0.057750393 0.0631386 0.043650553 0.025188757 -0.022477433 -0.043887056
-0.08340888 -0.021267578 0.081616506 0.072684154 0.0070857294 0.0037471517 0.04218074 0.007987344
0.0068933833 0.06322223 -0.027295252 -0.04931555 -0.022597054 0.06928469 -0.007139608 0.05065099

res_blocks.0.block.0.bias f4 [128]
00000000: fe3e 1a3d c92e 87bd df24 8d3a bd41 0ebd
00000010: c4ec f0bc 5b21 25bd accc 4ebc c3dc 743a
00000020: b146 7cba 0f97 7dbd 233b 06b9 05fc c53b
00000030: 6b26 53bc 9246 efbc 6e17 48bd b34c 88ba
00000040: f6f6 213d 698a 84bd 0b88 7fba e566 8dba
00000050: c9c6 a93c d03e 0eb8 34a8 d73c b2f5 f4bc
00000060: 3eeb 533c 1f2c 1cbc 9527 263d 978a 473d
00000070: c8fb 4f38 d912 693c 542a 70bd 338c 1f39
00000080: ae42 453d 01a6 00bd 3f4c 67bd f15e 6b3a
00000090: 3f81 00bd fce1 25bd 5626 813d deb7 7abd
000000a0: 7bf1 9d3c 51bd 19bc 772c 2c3d b144 c4bb
000000b0: 97e7 773d f672 ccbc 820c d23c c136 fbb9
000000c0: cc36 7dbd 4ea1 e039 e757 0e3d af89 09bc
000000d0: c5fe 01bd 8a58 dbbc b794 863a 829f 8c3d
000000e0: 7da7 78ba f020 4fbd b3d4 ae3b b640 b0b8
000000f0: 1213 8dbd c6ba 8cbd 29d5 0239 9f51 84b9
00000100: d861 1dbd 3a55 2f3b 91a0 17bd d136 e93b
00000110: 2fdb 8ebc c0fd 51bd b8fe 1cbd fab4 543c
00000120: 87e4 07bd d310 06bb 9e52 163c dfa6 e73c
00000130: 3902 653d 0523 01b9 b306 8e3c 6f6a 323c
00000140: ca71 4abc 05ef 5a3c 8f54 1838 1145 fa3c
00000150: e833 713d de75 333d 3641 703c e074 dfb9
00000160: 95ff b53c 258a 70b9 7f26 793c e4e2 f2b9
00000170: 6d73 b23c 6d57 1538 d0f1 f93b fdd0 7dbd
00000180: fe89 8cbd 3a8a 883d 3727 1abd e4af 72bc
00000190: b9db e139 502f 8cbc 4cc2 d63c 56af a5b9
000001a0: 0ac9 49bd 1edf d3bc a870 31bd b20e 0e39
000001b0: a677 fb3c 9a75 2ebd 660a 83b8 db3c 8c3a
000001c0: 4438 6e3d 8101 6bba ef0b 9cbb c63c 893d
000001d0: bcca 4ebd b3ed eb3c c989 0f3b 1f08 ba3c
000001e0: 884a 8a3d 6a41 663d 5f8c 3e3d 1452 e4bc
000001f0: eca3 ba3c 5788 8c3c 2727 22bd 646d 2cbd
0.03765773 -0.066007204 0.0010768435 -0.03473066 -0.029409774 -0.040315013 -0.01262204 0.00093407574
-0.0009623571 -0.06191164 -0.00012801266 0.006042006 -0.0128875775 -0.029208455 -0.04885047 -0.0010398835
0.03954216 -0.06471712 -0.000974775 -0.0010788111 0.020724671 -3.3913937e-05 0.026325323 -0.029902313
0.012934504 -0.009532004 0.040565092 0.048716154 4.9587135e-05 0.014225685 -0.058634117 0.0001521565
0.048159294 -0.031408314 -0.0564692 0.0008978686 -0.03137326 -0.04049872 0.0630614 -0.061210506
0.019280186 -0.009383515 0.042034592 -0.005989634 0.060523596 -0.024957161 0.02564073 -0.00047915246
-0.061819836 0.0004284479 0.0347518 -0.008394643 -0.031737108 -0.026775617 0.0010267709 0.06866361
-0.0009485407 -0.05056852 0.0053354143 -8.404387e-05 -0.06888403 -0.06871562 0.00012477174 -0.00025237814
-0.03842339 0.002675368 -0.037018362 0.0071171303 -0.0174385 -0.051267385 -0.038328856 0.012982601
-0.033176925 -0.0020456805 0.009174971 0.028277813 0.055910323 -0.00012315444 0.017337179 0.010889634
-0.012356231 0.013362651 3.6318375e-05 0.030550512 0.058887392 0.04381358 0.014663985 -0.00042620953
0.022216598 -0.00022939646 0.015206932 -0.00046326884 0.021783555 3.560579e-05 0.0076277032 -0.061966885
-0.068622574 0.066669896 -0.037635054 -0.014812443 0.0004307905 -0.017112404 0.026215695 -0.00031601888
-0.04926399 -0.025863227 -0.043320328 0.0001354765 0.030696701 -0.042592622 -6.2485036e-05 0.0010699289
0.058159128 -0.00089647627 -0.004762165 0.06701045 -0.05048631 0.028799867 0.0021902195 0.02270895
0.06752497 0.056214727 0.046520587 -0.02787117 0.022783242 0.017154856 -0.03958812 -0.04209651

res_blocks.0.block.1.weight f4 [128]
00000000: 6f6b 7d3f f2fa 7e3f afd2 7c3f 6de6 7b3f
00000010: 1c27 803f 7c5a 7d3f 5923 7d3f c3eb 7d3f
00000020: db70 7e3f f76c 7e3f c504 7f3f 2917 7d3f
00000030: 33cd 7e3f f5f5 7f3f 2897 7c3f af48 7e3f
00000040: aa05 803f 0ac5 7c3f 2385 7e3f 46a4 7f3f
00000050: 053e 7e3f 9a08 803f 3937 7d3f f339 803f
00000060: 04be 7d3f 948c 7c3f ef6d 7c3f 1790 7b3f
00000070: 65b6 7f3f 0449 803f cf15 803f aac7 7c3f
00000080: 9b5e 7e3f f656 803f fa75 7f3f 2a19 7d3f
00000090: a770 7e3f 2988 7e3f e551 7e3f f879 7f3f
000000a0: d5f2 7e3f 1514 803f c887 7c3f f822 7d3f
000000b0: 9387 7c3f 2f36 7e3f 400d 7f3f 303d 7e3f
000000c0: 3931 803f 2ed0 7d3f 421b 803f d3a0 7e3f
000000d0: 00cf 7e3f 4b42 7f3f 17c3 7c3f 2b25 803f
000000e0: 709d 7e3f 2269 7e3f 4118 7d3f 0742 7e3f
000000f0: c005 803f 2fa6 7c3f e68a 7e3f 4a2b 803f
00000100: c1e4 7f3f cb60 803f 9516 7f3f 314b 803f
00000110: 6d5a 7c3f 5a4b 7e3f 36b3 7d3f 08fe 7e3f
00000120: 685e 7e3f 1df4 7c3f 868a 7c3f 612e 803f
00000130: f286 7b3f 8355 7e3f 61e0 7e3f 1363 7b3f
00000140: be00 7d3f ba2e 803f 2e01 7d3f fc3c 7d3f
00000150: 7402 803f 5d0c 7f3f df3f 7e3f 1b2d 7d3f
00000160: 9c4d 7e3f de3f 803f b598 7b3f 9757 7e3f
00000170: 96fe 7d3f ba46 803f ca20 7e3f 5a87 7d3f
00000180: 3031 7d3f ac07 803f df49 803f fbfa 7f3f
00000190: 4ae1 7d3f 2d1b 7c3f 239d 7f3f 229e 7e3f
000001a0: 5c85 7e3f 05a3 7e3f 482d 7f3f b068 7e3f
000001b0: 6df8 7f3f c587 7d3f d2e5 7d3f 7aa7 7d3f
000001c0: 4151 7f3f ade3 7d3f a7cd 7d3f 4fc5 7c3f
000001d0: a2b6 7f3f 1b0a 7e3f cd79 7e3f 5a0d 803f
000001e0: 8e9a 7d3f e132 7f3f 9f2a 803f e441 7e3f
000001f0: b33a 7e3f a320 803f 5003 7f3f ccb4 7f3f
0.98992056 0.9960166 0.9875898 0.98398477 1.0011935 0.98966193 0.9888206 0.9918787
0.99390954 0.9938502 0.9961665 0.98863465 0.9953186 0.99984676 0.98668146 0.99329656
1.0001729 0.9873816 0.994219 0.99860036 0.99313384 1.0002625 0.9891239 1.0017685
0.99118066 0.98652005 0.98605245 0.9826674 0.99887687 1.0022283 1.0006655 0.98742163
0.99363106 1.0026538 0.9978939 0.9886652 0.99390644 0.99426514 0.9934371 0.99795485
0.9958928 1.0006129 0.98644686 0.98881483 0.9864437 0.9930143 0.9962959 0.99312115
1.0015022 0.9914578 1.0008318 0.9946415 0.99534607 0.9971053 0.98735183 1.0011343
0.9945898 0.9937917 0.98865134 0.993195 1.0001755 0.98691076 0.9943069 1.0013211
0.99958426 1.0029539 0.9964383 1.0022947 0.9857548 0.9933373 0.9910158 0.9960637
0.993628 0.9880999 0.9864887 1.0014154 0.98252785 0.9934923 0.99561125 0.9819805
0.9882926 1.001426 0.98829925 0.9892118 1.0000749 0.9962824 0.9931621 0.9889695
0.9933717 1.0019491 0.9827989 0.993524 0.9921659 1.0021584 0.9926878 0.99034655
0.9890318 1.0002341 1.0022544 0.9999234 0.9917189 0.98478967 0.99849147 0.9946004
0.9942224 0.994675 0.9967847 0.9937849 0.9998844 0.9903529 0.991788 0.99083674
0.9973336 0.9917553 0.99141926 0.9873857 0.9988805 0.9923417 0.99404603 1.0004075
0.99063957 0.9968701 1.0013007 0.9931929 0.9930832 1.000996 0.9961443 0.9988525

res_blocks.0.block.1.bias f4 [128]
00000000: bd4e 643a e5d2 2abb 48b9 dabb ba5d a43a
00000010: 2e1b 573b 2138 a73b 6e04 d5bb c9c9 823a
00000020: 5026 57bb 6a06 83bb 1e63 873b 764f b9ba
00000030: 0558 5bbb f541 483b d27a e539 23fc 54bb
00000040: 7e38 5f3b f99b 89bb 1046 75bb daea a23b
00000050: f65e 5ebb 0917 843b e37f 61bb 0c23 243b
00000060: b9a4 b63a 3df1 a7bb 1951 b339 854f eebb
00000070: 07eb 5f3b a18f df3b f769 5d3b e09c b23b
00000080: edc5 1cbb b69f 7c3b b0ae ae3b a123 02bc
00000090: b743 273b 03ca 80bb b389 663b 8625 4f3b
000000a0: 7da8 463b 5116 9d3b 244b 453b b62b 583b
000000b0: ee74 97bb aee1 5fbb 6d4f 40bb b750 463b
000000c0: 67cd 773b bc19 8bbb f0fe 673b fac5 903b
000000d0: 54a2 193b 6b32 02b9 9ec0 a2bb 6fef 463b
000000e0: 76d1 8bbb 0fc8 4c3b d5eb 84bb 79fb 633b
000000f0: 8c31 4a3b 5617 a03a 44f9 773b 5aa7 6d3b
00000100: 1a42 883b 73d7 a63b 878e b43a 7ff8 893b
00000110: 38f6 113b efab 7a3b 5dc8 893b bb26 c03b
00000120: 7a8e d9bb 9ecf c63b a97c 94bb 49b8 23bb
00000130: e3c4 5c3b 941c 713b 96ee 46bb 1630 c3bb
00000140: f051 a4b6 08a2 b43b 1283 983b c101 5abb
00000150: 6c61 723b 7e26 81ba 5922 213b 58c0 e63a
00000160: d76d 59bb 33f8 333b 580e 67bb 446d 023b
00000170: 733e 52bb e7a8 9b3b a29a 24b9 36d8 813b
00000180: b35b f3ba fedd 8f3b e090 933b 4928 fc3b
00000190: 60b2 88bb ad4d 9f3a d1c1 0c3a c795 80bb
000001a0: 6795 9bbb 1767 23bb 30a8 953b 9a4f 483b
000001b0: 7924 c13a 9aba ad3b 5e14 80bb 9201 84bb
000001c0: 790a 033b d7ab 883b dc9c 36bb 1d5d ee3b
000001d0: 3396 f2ba a661 493b e2b5 9fbb bc62 ef3b
000001e0: ed37 743b c938 7d3b f960 7f3b e156 6dbb
000001f0: 310e c3bb 4d91 8e3b e4f9 a23b 8a55 923a
0.00087092427 -0.0026065644 -0.0066749193 0.001254014 0.0032822597 0.0051031266 -0.006500772 0.000997835
-0.0032829233 -0.0039985674 0.0041316887 -0.0014138061 -0.0033469212 0.0030556892 0.00043769792 -0.0032498918
0.0034060772 -0.0041995016 -0.0037425794 0.004971844 -0.0033931113 0.0040310663 -0.0034408502 0.0025045304
0.0013934589 -0.0051251934 0.00034201963 -0.007272663 0.0034167187 0.006822542 0.0033785084 0.00545083
-0.0023921684 0.0038547344 0.005330883 -0.007943065 0.002552254 -0.0039303317 0.003517729 0.003160806
0.003031283 0.00479392 0.0030104602 0.0032985038 -0.0046220934 -0.0034161615 -0.0029344216 0.0030260512
0.0037811638 -0.004245011 0.0035399757 0.004418132 0.0023442702 -0.00012416548 -0.0049668094 0.0030355116
-0.004266913 0.0031247174 -0.0040564337 0.003478734 0.0030852286 0.0012213986 0.0037837783 0.003626308
0.0041582705 0.0050916015 0.0013775387 0.0042105312 0.0022272002 0.0038249453 0.0042047934 0.005863992
-0.006639299 0.0060672304 -0.004531462 -0.0024981669 0.003368669 0.0036790716 -0.003035461 -0.00595666
-4.8971197e-06 0.0055124797 0.0046542967 -0.0033265206 0.0036984337 -0.000985339 0.0024587123 0.001760493
-0.0033177042 0.002746117 -0.0035256352 0.0019901553 -0.003208068 0.0047503593 -0.00015697864 0.003962542
-0.0018566757 0.004390477 0.0045033544 0.007695232 -0.0041716546 0.0012153886 0.0005369457 -0.003924105
-0.0047480348 -0.0024933273 0.0045671687 0.0030565024 0.0014735601 0.0053017857 -0.003908678 -0.0040285075
0.0019995256 0.0041708755 -0.0027864492 0.0072742836 -0.0018507898 0.003072837 -0.004873977 0.007305471
0.003726478 0.0038638583 0.0038967712 -0.0036215114 -0.0059526195 0.0043508173 0.004973637 0.0011164409

res_blocks.0.block.1.running_mean f4 [128]
00000000: 18f9 19be aeea 633e 910f f63d 8fef 9d3d
00000010: fc2b 993d 33c0 4dbe 88ce 67be 278b ac3e
00000020: 2f5d 21be 61d9 543e 03ad 16bf 58dc a9be
00000030: f5b6 c6bd 0c58 26bd fec3 69be df46 a7be
00000040: adf1 7a3e 7c48 75bd 4616 19bd 6396 34be
00000050: b751 303e b936 023d 9002 0bbd 72de 72be
00000060: 7dbd 283f 7ff6 eebd bffb eb3d 5698 bcbd
00000070: f3d8 f03d f714 0cbe 3560 1fbe 25bc d1be
00000080: 4805 f43d b775 113e addc 0b3e f64f 8abe
00000090: 5c46 123e bada d5be c23a 66ba 9933 73be
000000a0: 1dc1 6cbe 2fd6 8dbd 03ca 08bd 5ce7 54bd
000000b0: 485b 433e abda a8be d6ca 1a3e 05fa 6cbe
000000c0: 7a9c 33bf c57d 003e f177 adbd 43a3 f4be
000000d0: a22c b43c e5de 4cbe 8a02 393d e657 b8bd
000000e0: e2d9 6b3e 7af9 203e 9eed a13d 1bd9 b0be
000000f0: b24a f9bc d787 513e 11d5 bd3c 6273 3b3c
00000100: dbee 103e 6958 8cbe 1379 483e 95df 933e
00000110: 6c62 25be 1302 28bf b695 f03c 3fda a1be
00000120: f1ba d43d a37c 8dbe 1738 b1bd d603 8a3e
00000130: 82ab 8e3e 60b2 1dbe f349 923e 44eb 193a
00000140: b830 8f3e dd04 c2be 7fd6 70bd e66c f53e
00000150: a1cd c0bd 310b aebd 2aed 7fbe 37c9 363e
00000160: 9972 8e3e 0d76 de3e e5ef 4b3e 5dec b1be
00000170: 41bd 533e 0dd7 2cbd e5d5 943d bffb efbd
00000180: 3f95 6cbc 777d e5bd 3495 ee3e 4889 9ebe
00000190: f65c 3e3e e459 5f3e 4015 48ba e28b 0f3e
000001a0: 0648 d5be 5db6 a23c b1af c83e 9fcc 943e
000001b0: 9187 883e 9801 1c3c 78c3 793e ca2b 6d3e
000001c0: 6921 233e 9589 8d3e 0ce7 c5be 1af8 44be
000001d0: ea6c 5abc 204b acbe a52a 14be 5872 a33d
000001e0: 1462 8b3e cdd7 4dbe b923 67be b179 c93d
000001f0: f6a0 893d a152 273f 0fde f53d 9a6b 943e
-0.15036428 0.22257492 0.12014688 0.07711708 0.074790925 -0.2009285 -0.22637379 0.33699915
-0.15758203 0.20786048 -0.58857745 -0.3317592 -0.09702865 -0.04061131 -0.22828671 -0.32671258
0.24506254 -0.05988358 -0.037374757 -0.17635493 0.17218672 0.03179047 -0.03393799 -0.23717669
0.65914136 -0.11668109 0.11522626 -0.09208743 0.1176013 -0.13679872 -0.15564044 -0.40963855
0.1191507 0.14205061 0.136584 -0.2701413 0.14284652 -0.41768438 -0.00087825593 -0.23750152
-0.23120542 -0.06925618 -0.03339578 -0.051978454 0.1907779 -0.3297933 0.15116438 -0.2314225
-0.7016064 0.12547977 -0.08470143 -0.4778081 0.021993939 -0.20006903 0.045168437 -0.0900114
0.23032334 0.15720168 0.0790665 -0.34540638 -0.030431125 0.20461975 0.023172887 0.011441084
0.14153616 -0.27411202 0.19577436 0.28881517 -0.16150826 -0.65628165 0.029368263 -0.3161182
0.10387219 -0.27634153 -0.086532764 0.26956052 0.27865225 -0.15400076 0.28572044 0.0005871544
0.27966857 -0.37894335 -0.05879831 0.47934645 -0.094142206 -0.08498228 -0.24992815 0.17850195
0.27821806 0.4344944 0.19915731 -0.34750643 0.20677663 -0.042197276 0.0726736 -0.11717939
-0.01443988 -0.11205571 0.46598208 -0.30964112 0.1859015 0.21811634 -0.0007632561 0.14018205
-0.41656512 0.019862348 0.39196542 0.29062364 0.2666593 0.009521864 0.24390972 0.23161235
0.15930714 0.2764403 -0.38652837 -0.19235268 -0.013331631 -0.33651066 -0.14469393 0.07980794
0.27223265 -0.20101853 -0.22572221 0.09837664 0.06720154 0.65360457 0.12005245 0.28988343

res_blocks.0.block.1.running_var f4 [128]
00000000: 6439 e93d 505f 043e a341 273e 949a 2e3e
00000010: 4d06 c73d 9c7d f33d 3213 903d e58a 413e
00000020: 7963 7e3d d0b4 0f3e 291a 473e 9f6c b73d
00000030: 6076 433e 8500 a53e 5c55 eb3d 1f99 ed3d
00000040: 30a0 a33d 1b2e c13d 233f df3d 2a27 0d3d
00000050: ca20 1d3e 36bd 833d aae8 353e f560 6a3e
00000060: e1c3 f43d 1f72 f13d 1947 f43d a6eb 183e
00000070: 80dd 643e ed85 ed3d 12d9 bc3d 657c e83d
00000080: ca80 6d3d df4c 2e3e 1dd3 623d d750 293e
00000090: 2735 333d eaec 5b3e 2f96 083e a517 be3d
000000a0: 0bef 1a3d 7c27 803e b856 f23d f875 133e
000000b0: d17b 803d 8c8c 843d e91e 023e 8879 dd3c
000000c0: 5e11 e33d 80d9 e33d 5053 d83d 36ab 7d3d
000000d0: ebd0 9e3d a17d 1b3d 17f8 063e 0644 213e
000000e0: e7d8 203e 673b 013e 8795 953c 18a2 e03d
000000f0: 0b77 8a3d a50f 4b3d 95f7 143d 968f 0a3e
00000100: c969 dd3d 7afc 923d be25 e53d 804b 6b3d
00000110: 4d69 203e eeee 213e 347b dc3e 3613 b83d
00000120: a706 8b3d d8bc 333e a7c2 873d a98a 983d
00000130: dad7 963d 9d54 b43d 7d28 203e 2bcb 223d
00000140: b746 843e 7739 b13d 1de2 df3d 4ba8 5b3d
00000150: 01a8 9c3e 2a3a 943d e527 0f3e ddab 2f3e
00000160: c163 fa3d 2f43 b23d a46d 983d 0958 133e
00000170: 1794 d73d eba4 0c3e 554f 5a3d 28b1 fd3d
00000180: aa6b b73d d898 863d 247a 293e 8360 d13d
00000190: a860 1e3d c1b2 093e 17ba 943d 6406 a33d
000001a0: 0e04 803e d644 333d 1a01 e33d 180d b33d
000001b0: afe7 303e b5b2 e83d 74ee 3c3e 79ca 9c3d
000001c0: a7d9 453e e559 c53d ee5f 543e f020 f63e
000001d0: 1b9c 1c3e 06e5 033e 8817 363e f2b6 823e
000001e0: ce42 d83d c800 903d a2c1 2c3e 354a 6f3e
000001f0: 101d 063e e05f 9a3d 22e3 c53d 350e 5f3e
0.113878995 0.12926984 0.16333632 0.17051154 0.09717999 0.118891925 0.07034911 0.1890064
0.062106583 0.14033818 0.19443573 0.08956265 0.19088125 0.3222696 0.114908904 0.11601471
0.07989538 0.09432622 0.10900714 0.034461178 0.1534454 0.064325735 0.17764536 0.22888549
0.119514234 0.11789345 0.11927623 0.14933643 0.2235012 0.1159781 0.092210904 0.113518514
0.05798415 0.17021511 0.055377115 0.16534744 0.043751862 0.21477094 0.1333854 0.092818536
0.037825625 0.25030124 0.118329465 0.1440047 0.06273616 0.0647212 0.12707104 0.02703549
0.11087297 0.11125469 0.105627656 0.061930858 0.07754692 0.037961606 0.13180576 0.15748605
0.15707742 0.12620316 0.018259777 0.10968417 0.06760987 0.049575467 0.036368925 0.13531336
0.108111925 0.07177062 0.111888394 0.05744505 0.15665169 0.158138 0.43062747 0.08988039
0.06788378 0.17552507 0.06628924 0.07448322 0.07365389 0.08805201 0.15640445 0.039744537
0.258352 0.08653539 0.109317996 0.053627294 0.30596927 0.072376564 0.13980062 0.17155404
0.12226058 0.087042205 0.07442787 0.14389051 0.10526293 0.13734786 0.053298313 0.123873055
0.08956082 0.065721214 0.16550499 0.10223486 0.038666397 0.13447095 0.07262056 0.07960203
0.25003093 0.04376682 0.110841945 0.08742732 0.1727588 0.11362211 0.18450338 0.07655806
0.19321309 0.09636287 0.2073972 0.48072004 0.15293925 0.12880334 0.17782414 0.255302
0.10559617 0.07031399 0.1687074 0.23368151 0.13097024 0.07537818 0.09662463 0.21782763

res_blocks.1.block.0.weight f4 [128, 128, 1, 1]
00000000: d339 8dbd a20a 543d 8ab1 b1bd 0d87 bbbc
00000010: 9420 b23d d295 9abd ce59 6d3d 9ffd 363d
00000020: 2891 06bb 973f f2bc 2b16 903d 8b81 9abc
00000030: 682a c8bb 5b3f b9bd bdea 3d3d df52 7f3d
00000040: 9c78 0ebd 2fa2 933d d83a 8fbd 4822 9cbd
00000050: 3b22 4ebc e089 99b9 b56b 8a3d 7d02 06bc
00000060: a122 59bd ca68 953c 9fee e93b e109 a13d
00000070: 1cf9 3cbd 06a1 6b3d ae2d cbbc e622 9c3c
00000080: 07bc 3c3d 9c90 7ebc d747 db3c def0 103c
00000090: 904a 983c 01d9 c1bc 92d5 203d ee89 bdbd
000000a0: 2bbf 50bd 78a4 0c3c 37dd 793d 48ca 1f3c
000000b0: 7ab8 6c3c 9c39 babd 3a63 93bc 3704 8e3d
000000c0: e5b8 90bd 30dd 0e3d 73d1 183d a9b5 b13c
000000d0: 1c68 9b3d a272 30bd c841 97bd bd7e 153d
000000e0: 3c71 523d 0a20 6c3d 5d2f 313c 934c 693d
000000f0: a6b9 703d a4fb 393d 2268 00bd 29d9 c9bc
00000100: ae2b df3c b835 38bd d86b 623d 9f03 a9bb
00000110: dba5 93bd e143 933c eedb 75bc 54a3 e6bc
00000120: 2cd9 73bd a4a3 133d 1863 a63d a092 a3bd
00000130: b2c1 493c f6bf 02bd 7e4e a9bd d09e 6bbd
00000140: f8fd 563c 3532 77bd 6c12 423d a029 c43c
00000150: bcba 5b3d 0b2f ddbc c377 473c 27be 57bc
00000160: 7d08 babc 2f55 9d3d 0844 8a3c d3c1 183b
00000170: e42f a2bc 2dec 843d 9b20 5b3d 9207 8a3d
00000180: 815d 15bd 97b6 28bd d127 2b3d ba14 84bd
00000190: 5b45 39bd d776 ac3c 1ffa 5abd ce22 b03a
000001a0: ddd8 9dbc add7 81bb 337d 33bb 2af8 b23d
000001b0: e844 793d 3aeb 9a3d 55c4 9b3b 656b 8cbd
000001c0: 61d6 9d3d acd1 8fbc 0cbc 44bd b754 9ebc
000001d0: b07b a4bb 6ea7 95bd 811f 4a3d 3d7a 173d
000001e0: dc9a 07bc 3752 7d3d a798 b13d e973 51bd
000001f0: 430c a7bc 0237 34bd 7a9b dc3b fc23 b23b
00000200: d94e 31bd 2baf acbb 04b0 1bbd be4d 153d
00000210: 0de6 fbba 7ab4 1f3d a9e3 94bd 130e 2a3d
00000220: 2826 bb3c 8820 c93c c595 a13d 7c88 a93d
00000230: 371f 28bd 2304 19bd 315b 7ebd 3a2e a23d
00000240: 9530 493d 2d97 14bc 288a 483b 11e1 8abd
00000250: 5ac3 993d 16be 573d e1c6 f5bc 29f0 1d3d
00000260: d5b4 f2bc fa25 e3bc de0e 2ebd 8855 0cbd
00000270: 9cb6 3f3d a34d 89bd f6fb a7bd 8028 a5bd
00000280: 7c17 c23c 8dcf e43c 7f3f 613d 947c 1abd
00000290: f511 a03d f537 a23d 2a93 753d cf98 9dbb
000002a0: a8c0 98bd e5c9 9cbc bcc9 fcbc 75ea 8d3d
000002b0: 8b1a f2bc 36d5 4d3d 93e6 cf3c 8fb0 8ebd
000002c0: 51d1 383c a8b2 65bc 5127 473c 802a 37bc
000002d0: 80f2 c2bc a42d 45bb 4bda 99bd e387 ca3c
000002e0: 723b 50bd baba 8abd ea66 95bd 9ada 91bc
000002f0: 29a6 063d a70a 853d 05d6 593d 0929 bc3c
00000300: 624a bb3b e349 00bd fed0 e5bc 76f4 383d
00000310: 612a 31bd ba99 92bd d291 6ebd 0793 e638
00000320: 87ca 7f3d 64e3 2c3d 7f14 c23b e50d 44bc
00000330: fa32 9abd c5ed 623d 0862 7a3d 92a7 5d3d
00000340: 2109 50bd 6636 7b3c 90db 7abd c465 59bd
00000350: 1ecf 113d daeb c93c b76b 983d bb9b 12bc
00000360: 2c1b 84bd d1e5 f5ba e63c 923d 0e7d 82bd
00000370: 3373 ff3c 8e62 a63d f5f5 9bbd 0e7d e03c
00000380: b973 a2bb 4ef2 a43d 5ae2 39bc a0d3 aa3d
00000390: 45c6 c03c 65c3 a53d 0d39 52bd d9be 0bbc
000003a0: 5ae3 4e3d 66c1 35bd d8c1 cb3c 0c70 ac3d
000003b0: ef78 89bc ad23 0ebd b859 06bd e786 853d
000003c0: 7475 13bd 537b 923d 76aa 1a3d a31b 413b
000003d0: 8fad 443d 4917 f5bc cf32 09bd a7d3 af3d
000003e0: 2c2b 493b 12de 87bd b4fe 4c3d 7bd3 7dbd
000003f0: 6ade e0bc f0db f9bc 6bc6 223d 7dd0 ab3d
-0.06895795 0.051767953 -0.08676441 -0.022891546 0.0869762 -0.07548107 0.057946973 0.044675466
-0.0020533297 -0.029571338 0.07035478 -0.018860599 -0.006108571 -0.09045287 0.046366442 0.06233489
-0.03478299 0.072086684 -0.069936454 -0.07623726 -0.012581403 -0.0002928516 0.06758825 -0.008179304
-0.05301154 0.018238444 0.0071390416 0.078632124 -0.046136007 0.05752661 -0.024802055 0.01905961
0.046077754 -0.015537407 0.026767654 0.00884649 0.018590242 -0.023663046 0.039266177 -0.092548236
-0.050963562 0.008584134 0.061001983 0.009752817 0.0144482795 -0.09093019 -0.01799165 0.06934398
-0.07066516 0.03487891 0.03730912 0.021693068 0.07588217 -0.043078072 -0.07385594 0.03649782
0.05137752 0.057647742 0.010814515 0.056957792 0.0587708 0.045406 -0.03134931 -0.024639683
0.027242508 -0.044973105 0.05527863 -0.0051579024 -0.07209369 0.017976703 -0.015006049 -0.028154053
-0.059533283 0.03604473 0.081243694 -0.07986951 0.012314247 -0.03192135 -0.08266924 -0.057524502
0.013122074 -0.060350616 0.04738085 0.02394563 0.05364488 -0.02699997 0.0121745495 -0.013167894
-0.022709126 0.07682263 0.016878143 0.0023308888 -0.019798227 0.064903595 0.053497892 0.06739725
-0.036466125 -0.041189756 0.04178602 -0.06449266 -0.04523216 0.021052761 -0.05346119 0.0013438107
-0.019268448 -0.003962478 -0.0027387857 0.0873874 0.06085673 0.07564397 0.004753629 -0.068564214
0.07706905 -0.017556034 -0.048030898 -0.019327505 -0.0050196275 -0.07307325 0.04934645 0.03698181
-0.008276667 0.061845984 0.08671694 -0.05113593 -0.020391589 -0.043997772 0.0067324014 0.0054364186
-0.043288086 -0.005269905 -0.03800966 0.036451094 -0.0019218341 0.038990475 -0.07269985 0.04151733
0.022845343 0.024551645 0.078898944 0.082779855 -0.041045394 -0.03735746 -0.062098686 0.07918973
0.049118597 -0.009069246 0.0030599926 -0.06781209 0.075079635 0.052671514 -0.03000206 0.038559113
-0.029627243 -0.02772807 -0.042494647 -0.034261256 0.04680501 -0.06704261 -0.082023546 -0.080643654
0.023692839 0.027931 0.054992195 -0.037716463 0.07815925 0.07920829 0.0599548 -0.004809476
-0.07458621 -0.01913924 -0.030857913 0.06929485 -0.029553672 0.050252162 0.025378501 -0.0696727
0.011280374 -0.014019646 0.01215537 -0.011179566 -0.023797274 -0.0030087018 -0.07512339 0.024722999
-0.05083794 -0.067738965 -0.0729502 -0.017804433 0.032873306 0.064961724 0.05318262 0.022968786
0.005715654 -0.031320464 -0.028053757 0.04515501 -0.043253306 -0.07158227 -0.058244534 0.000109946406
0.062449005 0.042209044 0.0059228535 -0.011966203 -0.07529254 0.055402536 0.061128646 0.054114886
-0.050789956 0.015332794 -0.061244547 -0.053075567 0.035597913 0.024648596 0.0744242 -0.008948262
-0.06450495 -0.0018760507 0.07140522 -0.063715085 0.031182861 0.081242666 -0.07615272 0.02740338
-0.004957643 0.080540285 -0.01134547 0.083411455 0.023532042 0.08093909 -0.05132394 -0.008529388
0.050509788 -0.044373892 0.024872705 0.08419809 -0.016781298 -0.03470199 -0.032800406 0.06519871
-0.036000684 0.071524285 0.03776022 0.0029465936 0.04801708 -0.02991833 -0.03349572 0.08585291
0.0030695898 -0.066341534 0.05004759 -0.06196926 -0.027449805 -0.030500382 0.039740007 0.08389375
