DDPG_Conv/model/CarRacing-v0_actor.pt (torch, 160679 bytes, 20 tensors)

ConvNet.0.weight f4 [32, 3, 4, 4]
000000 fb 4d d9 ba d2 9d c3 ba 1e 98 29 3b 93 e3 08 3a
       -0.0016579026 -0.0014924353 0.0025878022 0.00052218995
000010 50 7a 1a bb 74 4a 54 ba 8d 2e 1e bb 34 2d ca bb
       -0.002357144 -0.00080982526 -0.0024136633 -0.0061699394
000020 c7 32 02 ba ec 17 ab 3a 5d aa 0a 3b 40 1a 1f bb
       -0.0004966673 0.0013053394 0.0021158673 -0.002427712
000030 81 be 2f ba 9a c2 02 3b 43 97 b6 3b 03 0d e6 b8
       -0.00067041075 0.0019952417 0.005572231 -0.00010969678
000040 c6 2e 31 bb de 4e 23 bb 95 11 63 3b fd 1f 69 ba
       -0.0027035936 -0.0024918835 0.003464793 -0.0008893011
000050 41 59 10 bc 62 fb 6a bb 2c bf 3f bb 51 27 01 bc
       -0.008810342 -0.0035855402 -0.0029258234 -0.007882909
000060 fe c0 b0 bb e6 6c 48 bb c5 07 50 bb 10 35 d6 ba
       -0.0053941 -0.0030582487 -0.0031742912 -0.0016342718
000070 14 19 75 3a 49 36 b1 ba d1 75 17 bb 01 32 13 bb
       0.0009349745 -0.0013520207 -0.0023110996 -0.0022460225
000080 33 fa 1d 3b d6 90 80 ba e4 8e 91 3b 3d 52 da 3a
       0.002410543 -0.000980879 0.0044420827 0.0016656589
000090 04 4a 86 bb a5 19 27 bb da c7 58 ba d1 29 98 bb
       -0.004098179 -0.0025497463 -0.00082695263 -0.004643657
0000a0 42 20 65 bb 94 62 80 bb 3c b8 d3 b9 01 e4 cd ba
       -0.0034961854 -0.0039180014 -0.00040382321 -0.0015708209
0000b0 3e ad 65 3b 14 23 86 3a 9d 18 9f 3b 49 09 7b 3b
       0.0035045887 0.0010233843 0.004855229 0.0038305095
0000c0 36 4e 3b bb fd 50 00 3a ca dd 33 3a 97 1f 36 bb
       -0.0028580553 0.00048948807 0.0006861357 -0.0027789825
0000d0 ca 85 92 b8 3c d7 95 bb d8 35 46 3b ba 01 55 3a
       -6.986743e-05 -0.004572777 0.0030244496 0.00081255625
0000e0 d8 ae 05 b9 a9 ab 13 bb 70 a1 48 3b 98 a4 53 ba
       -0.00012749003 -0.0022532737 0.0030613802 -0.00080735376
0000f0 54 a0 be bb 2d 6c 6d 3a 66 82 6a bb 9b e1 cc ba
       -0.0058174524 0.0009056952 -0.003578329 -0.00156312
000100 b3 c4 a8 ba 61 2d 0d 3a f8 c2 ab 3a 09 9c 9c 3a
       -0.0012876004 0.0005385485 0.001310437 0.0011948358
000110 d0 aa 7e 3a 5b 06 a9 39 bb 2c b5 ba 9b 7c 2c 3b
       0.0009714784 0.00032238927 -0.0013822535 0.0026319388
000120 e7 da af ba 2a d5 68 ba 64 8a b6 3b 1f 91 3c 3b
       -0.0013416678 -0.00088818616 0.0055706967 0.0028773022
000130 b1 dc 1d bb 42 63 88 bb cb 77 3f bb 6d 08 bd bb
       -0.002408784 -0.004162223 -0.002921569 -0.0057688267
000140 1d f1 a4 ba 54 80 85 ba 90 ed 11 bb 4b 13 08 bb
       -0.0012584064 -0.001018534 -0.0022266842 -0.0020763453
000150 5b 58 67 bb 25 03 a1 bb 6c 3b a5 3a 00 61 78 bb
       -0.0035300467 -0.004913705 0.001260621 -0.0037899613
000160 d6 13 5c bb eb 2d f7 bb 88 89 d0 ba e1 db a9 37
       -0.003358116 -0.0075433156 -0.0015910128 2.0248759e-05
000170 04 ca 28 bc 02 a1 83 bb af b4 b7 bb 19 a3 0a bc
       -0.0103020705 -0.0040169964 -0.005606256 -0.008461737
000180 39 cf 6b ba b9 4e 91 3a a4 35 cc ba a0 64 8e 3a
       -0.0008995417 0.0011086083 -0.0015579951 0.0010863729
000190 93 a1 15 bb a5 d5 17 3b bf 05 aa ba 9b 3a 6a ba
       -0.0022831901 0.0023168114 -0.0012971683 -0.00089351245
0001a0 53 5c 97 3b 03 cb 11 3a dd df be 3b 26 69 34 3b
       0.00461916 0.0005561562 0.0058250264 0.0027528494
0001b0 10 10 40 ba f9 e3 e9 ba b6 06 8f bb 50 d0 a5 bb
       -0.0007326612 -0.001784443 -0.0043648137 -0.005060233
0001c0 35 6c 22 3b 72 79 43 3b ba a4 51 ba 41 2d d6 39
       0.0024783735 0.0029827026 -0.00079972635 0.00040850978
0001d0 c2 81 13 3a 38 51 c0 ba 4d 1d 6d bb ec e9 0d bb
       0.00056269404 -0.0014672643 -0.0036180795 -0.002165432
0001e0 65 ef 93 3b 0b 8b 9e 3b 6d f3 e4 39 7d 51 cf 3a
       0.004514622 0.0048383526 0.00043668915 0.0015817132
0001f0 8e 78 67 ba 73 43 38 bb ce e7 fa b9 62 e4 6f bb
       -0.0008829915 -0.0028116375 -0.00047856424 -0.0036604633
000200 09 d1 3e 3b 34 ef e5 39 26 de 8d ba 79 95 93 3b
       0.0029116294 0.00043856504 -0.0010823652 0.0045039025
000210 96 bb a3 bb 82 9b 01 ba 51 59 77 bb 35 20 6b bb
       -0.004996727 -0.0004944132 -0.0037742446 -0.0035877351
000220 ba 08 83 3b cb 07 ef 3a d6 ea 95 3b 60 25 18 3a
       0.003998843 0.0018236575 0.0045751138 0.0005803909
000230 95 9b 48 bb f1 37 ac bb 2f 69 1e bb 98 f0 03 bc
       -0.0030610312 -0.005255692 -0.002417158 -0.0080529675
000240 40 f6 3b 3b 53 f4 62 ba 2b d7 f4 3a 7a 6d 1b 3b
       0.0028680712 -0.0008657623 0.0018679848 0.0023716376
000250 c1 4f 05 3a 26 e3 54 bb 45 2a 63 bb 7a b5 69 bb
       0.00050854316 -0.0032484024 -0.0034662646 -0.0035661147
000260 97 6d a3 bb c3 e7 60 bb b2 3b 58 39 82 13 45 ba
       -0.0049874294 -0.0034317828 0.00020621603 -0.00075178605
000270 a8 2c a1 ba 13 2a a7 ba e2 89 3a 3b 79 27 57 3b
       -0.0012296634 -0.0012753628 0.0028463532 0.0032829924
000280 93 0d f8 3a 8a 49 62 3b 22 9c 90 3b e8 c0 40 39
       0.0018924944 0.0034528696 0.0044131437 0.0001838241
000290 df c6 d1 ba 51 7a c2 bb bc b9 ea 3a b1 f4 a3 bb
       -0.0016004703 -0.0059349914 0.0017908136 -0.0050035347
0002a0 b7 41 ac bb 4f 06 8d bb 11 98 37 3b 76 81 04 ba
       -0.0052568573 -0.0043037306 0.0028014223 -0.00050546916
0002b0 fe d4 bc 3a 38 0c 4b 3b df 95 c4 39 b8 ca 66 ba
       0.0014406738 0.0030982625 0.00037495696 -0.0008804011
0002c0 29 23 6a 3b cb 53 d0 b9 29 a7 75 3b bf 38 96 3b
       0.0035726523 -0.00039735282 0.0037483668 0.0045844014
0002d0 d4 04 80 bb 94 a3 de bb 24 ad 51 bb 11 50 17 bc
       -0.0039068256 -0.0067944024 -0.003199407 -0.009235398
0002e0 fb 8c c1 bb ee 84 d4 bb e5 80 f5 b9 65 ff d4 ba
       -0.0059066988 -0.006485573 -0.00046826075 -0.001625043
0002f0 30 3a 83 b9 15 15 bb 3a ac 1a 14 3b a5 4d 03 bb
       -0.0002502962 0.0014273251 0.0022598905 -0.0020035293
000300 8d 89 21 3b e8 b6 81 ba 41 68 70 b9 0d 0a d6 ba
       0.0024648637 -0.0009896429 -0.00022927021 -0.00163299
000310 a3 db 61 3b e5 63 94 ba be cc ca b9 ca 5e 1c bb
       0.003446319 -0.0011321275 -0.00038680987 -0.002386021
000320 22 de 76 3b 6a 1a 35 3b 2d e3 06 bb 60 8c dc b9
       0.0037669023 0.0027634152 -0.0020582185 -0.00042066257
000330 27 fb 6d bb cb e7 09 3a 3b f4 80 bb 56 d1 94 bb
       -0.0036313029 0.0005260675 -0.0039353645 -0.0045415564
000340 83 86 c1 ba 67 c9 09 39 5b 5f c6 39 0d bb 53 ba
       -0.0014764819 0.00013140366 0.00037836548 -0.0008076884
000350 75 a8 91 ba 36 9a 85 ba c6 05 50 ba ab 59 c6 39
       -0.0011112826 -0.0010193053 -0.00079354306 0.0003783231
000360 c1 1d 88 3a 6a f4 76 3b e9 10 0d 3a 0f 2c f6 39
       0.0010384844 0.0037682303 0.0005381243 0.00046953603
000370 7f ab c2 bb a9 73 95 39 80 d6 93 bb b1 4e c8 bb
       -0.005940854 0.00028505668 -0.0045116544 -0.0061128964
000380 a9 19 92 3a 54 e2 b0 3a f3 fe d0 ba 14 e2 3c bb
       0.0011146563 0.0013495185 -0.0015945121 -0.0028821277
000390 2e 1e bc 39 6c e2 07 ba b7 f6 04 bb d4 4a 43 bb
       0.0003588064 -0.0005183581 -0.0020288655 -0.002979924
0003a0 25 53 33 3b d5 5a 01 3b bd 07 0e 3b d0 c9 35 3b
       0.002736279 0.0019737978 0.0021672093 0.0027738698
0003b0 37 45 f1 bb 21 88 91 37 06 dc e7 bb 10 22 0a bc
       -0.0073629874 1.7348737e-05 -0.0070757894 -0.008430973
0003c0 78 79 46 3b bd 86 75 ba 54 c0 37 b9 21 ab c6 ba
       0.0030284803 -0.0009366086 -0.00017523888 -0.0015157202
0003d0 7e a5 fe 3b 01 ce 6f 3b 51 eb 43 b9 f3 08 97 b9
       0.007771193 0.0036591294 -0.00018684311 -0.00028807632
0003e0 ac 57 48 3c 67 11 9b 3b 04 89 85 3b e1 e9 62 bb
       0.012227934 0.004732299 0.0040751714 -0.0034624266
0003f0 4b 56 d0 3b 04 27 ba b9 99 40 4f 3b 9b eb 50 bb
       0.006357943 -0.00035505753 0.0031624197 -0.0031878713

ConvNet.0.bias f4 [32]
000000 b1 72 28 38 d6 38 4d 38 40 a7 2e 39 b2 f3 57 b9
       4.0161136e-05 4.892874e-05 0.00016656239 -0.00020594781
000010 79 58 1b 39 a9 ae 13 b8 c2 30 1f b8 0e c3 79 39
       0.0001481491 -3.5210196e-05 -3.7953963e-05 0.00023819154
000020 0c 56 62 b6 b1 5d e4 38 d9 da 0d b9 bf 7d 61 39
       -3.372671e-06 0.000108893386 -0.00013528335 0.00021504516
000030 68 37 77 b7 d5 d1 9b b9 7a 79 5c 39 b3 22 96 b9
       -1.47352475e-05 -0.0002972024 0.00021026089 -0.00028636082
000040 bc 0f 90 b9 0d dd 86 39 93 3d 95 39 3b d3 1b 38
       -0.00027477543 0.00025723167 0.0002846537 3.7151603e-05
000050 31 c8 e7 38 8f a2 ac 36 cf df 91 b9 64 ea 26 37
       0.00011052227 5.1449238e-06 -0.00027823306 9.948944e-06
000060 45 f7 91 38 12 db 1d 39 fd 1a 89 39 fb 45 72 38
       6.960196e-05 0.00015054297 0.00026150784 5.776247e-05
000070 b6 ef 53 39 a3 01 35 39 f0 a4 d6 38 bb 84 97 b8
       0.00020211827 0.00017262115 0.00010235037 -7.224964e-05

ConvNet.1.weight f4 [32]
000000 8c da 7f 3f f9 c8 7f 3f 79 64 80 3f 15 9b 7f 3f
       0.9994285 0.99916035 1.0030662 0.9984601
000010 17 7d 7f 3f 0e 07 80 3f 71 2a 80 3f 44 eb 7f 3f
       0.99800247 1.0002153 1.0012952 0.9996836
000020 93 d7 7f 3f 69 eb 7f 3f b0 cf 80 3f 88 06 80 3f
       0.99938315 0.9996858 1.0063381 1.0001993
000030 1c 0c 80 3f 79 dc 7f 3f 01 5f 80 3f 9a a8 7f 3f
       1.0003695 0.9994579 1.0028993 0.9986664
000040 ff 33 80 3f 97 60 7f 3f 19 91 7f 3f 3c 26 80 3f
       1.0015868 0.9975676 0.99830776 1.0011668
000050 3f 62 7f 3f aa 5c 80 3f 54 14 80 3f 71 c1 7f 3f
       0.99759287 1.0028279 1.0006204 0.99904543
000060 3d 1d 7f 3f 04 42 80 3f f1 df 7f 3f 00 d7 7e 3f
       0.9965399 1.0020146 0.9995108 0.99546814
000070 4e a7 7f 3f 6b 95 7f 3f d5 1f 80 3f 06 93 80 3f
       0.9986466 0.9983737 1.0009714 1.0044868

ConvNet.1.bias f4 [32]
000000 5b df dc ba 25 b4 93 bb 9a 91 ae bb a7 26 d6 bb
       -0.0016851233 -0.004507559 -0.0053274157 -0.0065353694
000010 d0 ce b8 bb 84 8c db 3b 5f 53 dd 3b d3 c0 db bb
       -0.0056398883 0.0067001004 0.0067543234 -0.006706336
000020 7d bd a2 3b 5f 43 08 3c ce fd c3 ba 1a f2 98 3b
       0.0049664364 0.008316844 -0.0014952959 0.0046675326
000030 28 97 59 bc ac 90 ee 3b fe c4 14 3c 8e 6e 33 ba
       -0.013280667 0.00728043 0.00908017 -0.0006844782
000040 4b 51 c7 3b b8 21 b8 3b 96 03 04 bc b8 ef 80 bb
       0.006082689 0.005619254 -0.008057496 -0.0039348267
000050 ac f0 10 3c d5 1c 3b bb c8 a5 dc 3b 69 72 0e 3c
       0.008846443 -0.002855112 0.00673363 0.00869427
000060 fd 81 a7 3b 80 d3 f3 3b 62 6a e4 ba 7d 11 26 ba
       0.0051119314 0.0074409842 -0.0017426724 -0.00063350034
000070 39 ca bd 3b 79 4c c4 b9 09 3d a0 bb 74 83 9d bb
       0.005791929 -0.0003744101 -0.0048900885 -0.00480693

ConvNet.1.running_mean f4 [32]
000000 e0 2d 27 bb 09 58 85 bb 88 e9 b4 39 45 64 a3 ba
       -0.0025509521 -0.0040693325 0.0003450627 -0.0012465796
000010 4e 93 f7 ba 40 2a 05 3a 7d 46 98 3a 09 3e 1d bb
       -0.0018888505 0.0005079843 0.0011617687 -0.0023993275
000020 77 6b d5 3a 6d 11 12 bb 7a ad 04 bb 4f 64 00 3b
       0.0016282637 -0.0022288219 -0.0020245002 0.0019591039
000030 5c 7b 84 b9 bc a0 3a bb c6 ff 54 3b 73 3e ae bb
       -0.00025268912 -0.0028477153 0.0032501086 -0.005317503
000040 ad ca 5f 39 25 62 0f 3b bf 18 49 bb 7f 0a 20 bb
       0.0002134244 0.0021878567 -0.0030684916 -0.0024420319
000050 3d 07 f1 3a 5d 65 0a bb 07 33 bc ba d9 9f ad b9
       0.0018388998 -0.0021117546 -0.0014358469 -0.00033116227
000060 db e3 e4 3a a0 ef 4f 3b 8d 1d 93 bb 3d 93 55 3a
       0.0017462926 0.003172852 -0.0044896067 0.00081472454
000070 73 49 3f 3b 72 d0 b0 bb f4 da 3b bb 41 fb f7 39
       0.0029188066 -0.0053959424 -0.0028664442 0.0004729871

ConvNet.1.running_var f4 [32]
000000 e9 2b 09 3a 1f c6 49 3a 0e 2e 20 39 bf 41 e5 39
       0.00052326784 0.0007697064 0.00015275946 0.00043727268
000010 52 03 a9 39 cd 4d 6f 39 af af 60 39 90 b9 15 3a
       0.00032236666 0.00022821799 0.00021427752 0.000571155
000020 6a 82 a8 39 17 69 e4 38 00 a4 d6 39 7b 70 29 39
       0.00032140623 0.00010891462 0.0004093945 0.00016158998
000030 46 9f 99 39 f4 ae 81 39 47 6a f2 39 ec 67 8c 3a
       0.00029301102 0.00024735148 0.0004623702 0.0010712123
000040 84 0a e3 38 80 bc b5 39 ea 8f 53 3a 02 0b 18 3a
       0.00010826162 0.00034663454 0.0008070456 0.000579998
000050 2f bf e1 39 c8 da e9 39 cc 07 d0 38 bd a6 fd 38
       0.00043057787 0.00044604228 9.919665e-05 0.000120950375
000060 b3 f3 5a 39 0f c2 ee 39 a2 c6 6f 3a a0 2c 00 39
       0.00020880885 0.00045539482 0.0009146725 0.00012223655
000070 84 85 e2 39 9c 21 b6 3a 71 a2 34 3a 3b 02 16 39
       0.00043205556 0.0013895514 0.0006890661 0.00014305946

ConvNet.3.weight f4 [32, 32, 4, 4]
000000 d8 18 32 bb 2a 6b bc 3a 85 bf 97 ba a1 10 67 b7
       -0.0027175453 0.0014375199 -0.0011577463 -1.3772545e-05
000010 85 12 aa bb ae 40 ca bb 2b 14 96 bb 11 63 75 bb
       -0.005190196 -0.006172261 -0.004580041 -0.0037443081
000020 57 2f 25 3b 8b 50 29 3a 61 3e 2b bb fe d6 4f 3b
       0.0025205219 0.000645884 -0.002612971 0.0031713839
000030 2a 02 e1 3a d4 07 0b 3b fb f1 91 3a 06 2d 38 3b
       0.0017166783 0.0021214383 0.0011134738 0.0028103008
000040 e8 5a ef b8 78 fd 42 ba b4 68 d0 3a 3b bf 1b 39
       -0.00011413341 -0.00074382825 0.0015900345 0.00014853191
000050 62 ac 7b 3b 2d 0c c7 3b 4c e5 3c 3b 97 6d 8e 3b
       0.0038402309 0.0060744495 0.0028823195 0.00434656
000060 e9 9f 82 3b fc 7e d0 3a 96 68 3e b9 1b 2d 48 3b
       0.003986348 0.0015906985 -0.00018158773 0.0030544463
000070 12 fd 35 3b b1 e1 10 3b d0 1a 0e 3b f0 d0 8a 3b
       0.002776925 0.0022107179 0.0021683462 0.004236333
000080 c2 60 a9 3a d2 90 36 bb 73 55 e3 ba f1 b1 7f bb
       0.0012922513 -0.0027857316 -0.0017344191 -0.0039015973
000090 13 94 f5 3b fd 47 c8 ba 6f c9 23 3b d9 41 a0 3b
       0.0074944585 -0.0015280243 0.002499189 0.004890662
0000a0 59 19 45 3b a7 0f 01 3b f3 3a 83 3b 5a 41 aa 3b
       0.0030074923 0.0019693167 0.00400483 0.005195779
0000b0 6e e4 17 ba b0 d4 87 3a 6c ee 4a b8 e5 f5 9f 3b
       -0.00057942315 0.0010363068 -4.83826e-05 0.004881608
0000c0 00 6b 46 bb 0d 34 0c 3b 9c f1 32 bb 91 55 06 3b
       -0.003027618 0.002139333 -0.0027304655 0.002049778
0000d0 91 6f 25 bc 9b 89 68 bb 70 0f eb bb 0a 9d d8 bb
       -0.0100974 -0.003548241 -0.007173471 -0.0066105174
0000e0 65 0c b0 3b da fb 1c 3b b9 88 81 ba 2e f4 86 3a
       0.0053725713 0.0023953826 -0.0009882665 0.001029616
0000f0 69 ac e4 3b 98 49 f1 ba f5 db 82 3b e2 87 1c 3b
       0.0069785607 -0.0018408773 0.003993506 0.0023884703
000100 db d2 45 3b fb ff ac 3a 81 e8 ec 3a d1 7e 61 bb
       0.0030185494 0.0013198847 0.0018074663 -0.0034407864
000110 3e be 96 3b 55 93 a5 3b 13 72 d8 b9 2d 6a cf 3b
       0.0046003154 0.0050529637 -0.00041283722 0.006329796
000120 32 f5 ea 39 c4 a6 94 38 12 21 09 bb 91 47 ee 3a
       0.00044814643 7.0882525e-05 -0.0020924252 0.0018179287
000130 7e be 09 3b e9 51 06 ba 36 5a cd ba 09 27 1a 3b
       0.0021018083 -0.00051239 -0.0015667144 0.0023521802
000140 cc e7 2c 3b 2a 74 08 bb e1 9e 7a bb cf 9e fb ba
       0.002638328 -0.0020821192 -0.0038241672 -0.0019197109
000150 f9 55 61 ba 2a b6 1e 3b f1 80 3c 39 20 60 1c 3a
       -0.000859588 0.0024217465 0.00017977112 0.00059652515
000160 4b 51 83 39 1b cd 06 bb f0 13 bb 3a 2e 91 86 ba
       0.00025046835 -0.002056903 0.001427291 -0.0010266656
000170 29 55 2a ba a8 75 9c bb 81 77 8f 3b c4 1f b9 3a
       -0.0006497675 -0.004774768 0.0043782596 0.0014123847
000180 4b 06 58 3a 84 b4 0b 3b d2 19 0d ba 18 1c cf 3a
       0.0008240684 0.0021317312 -0.00053825707 0.0015801219
000190 c3 05 2c bb d5 6a 77 3b 32 ca ab 3a 5e 36 34 bb
       -0.0026248551 0.0037752886 0.0013106524 -0.0027498226
0001a0 8e d1 1f bb d8 3d db 3a 52 8d 07 bb e5 a2 38 39
       -0.002438638 0.0016726805 -0.0020683599 0.0001760829
0001b0 36 6a 9d 3a a8 1b a0 3a ef c8 55 bb 31 7c 62 ba
       0.0012009803 0.0012215273 -0.0032620986 -0.0008639722
0001c0 5e 79 b1 bb cb 3e a1 bb c0 e0 85 bb af 06 17 bb
       -0.0054160794 -0.0049208156 -0.00408563 -0.0023044755
0001d0 bf a3 f8 bb 24 30 aa bb f5 da ec bb 00 d2 44 bb
       -0.0075878794 -0.005193727 -0.00722825 -0.0030032396
0001e0 7a f0 1a 3b 0b d7 b7 ba b6 2a 34 3b c9 75 c8 3b
       0.002364187 -0.001402588 0.0027491278 0.0061175567
0001f0 fb e6 50 3b 8e 19 17 bb a5 3b 47 bb 11 6d 6d bb
       0.0031875956 -0.0023056003 -0.003040054 -0.0036228339
000200 fe e7 6b ba e5 b6 42 bb ae 80 2c 3b ab 7f 35 3b
       -0.0008999108 -0.0029711064 0.0026321816 0.0027694504
000210 1c fc 9c bb b6 5d 00 3b 89 04 6b bb ab 38 03 39
       -0.004790796 0.0019587106 -0.0035860857 0.00012514244
000220 98 b0 4a bb 76 6c 28 3b 43 ad 40 bb e0 44 35 bb
       -0.0030928012 0.0025699413 -0.0029400147 -0.002765946
000230 0f 10 3e 3b 33 12 32 3b fe e4 d8 3b 6e a3 56 3b
       0.002900127 0.0027171492 0.006619095 0.003275122
000240 8e ff 6d 3b ca dd 74 3b c5 68 47 3a 59 d3 a8 3a
       0.0036315653 0.0037363642 0.00076068594 0.0012880369
000250 6f 84 1d 3a a3 c1 56 ba 37 32 f4 39 46 2e 5f bb
       0.0006008809 -0.0008192306 0.0004657672 -0.003405468
000260 c5 59 aa b8 c0 28 0a 3a 8e c0 1c bb c1 63 17 3b
       -8.1229526e-05 0.00052703544 -0.0023918482 0.002310023
000270 31 c8 13 3b b6 d8 9d bb 57 4c 45 bb 0b a3 03 bb
       0.0022549743 -0.0048170937 -0.0030105317 -0.0020086195
000280 84 72 2a bb e8 df b2 bb 57 05 7a bb 7a a6 14 39
       -0.0026008198 -0.0054588206 -0.0038150155 0.00014176397
000290 a3 cc 5f bb 16 e7 04 bc f4 39 f0 bb c0 74 10 bc
       -0.0034149073 -0.008111736 -0.0073311273 -0.008816898
0002a0 a0 c4 85 3b 68 dd e2 3a 7d 93 a6 3a a3 9d a3 3b
       0.0040822774 0.0017308416 0.001270875 0.004993157
0002b0 99 60 2e ba fb db 24 3b 4e c9 08 ba f9 36 df 38
       -0.00066519674 0.0025155533 -0.0005217985 0.00010643708
0002c0 c7 d1 8a 3b d9 3b 38 3b dd d2 82 3b 99 13 7c 3b
       0.004236433 0.0028111844 0.003992422 0.003846383
0002d0 98 22 c7 b9 87 f9 22 bb db 11 c8 ba 42 b3 1c bb
       -0.00037982012 -0.0024867968 -0.001526411 -0.0023910557
0002e0 ef fb 0f 3b 2a 70 67 bb 61 40 9a b8 32 bf e9 ba
       0.0021970232 -0.0035314658 -7.355284e-05 -0.001783347
0002f0 8e c9 72 ba c5 92 05 3a 10 60 91 3b ab cd 68 3a
       -0.00092616014 0.0005095418 0.0044365004 0.00088807446
000300 f0 93 26 ba 1c de 3d 3b c3 70 e0 b9 be 3b 3d ba
       -0.0006354442 0.0028971499 -0.00042808623 -0.000721868
000310 db 8f db 3b bf 24 95 3a b4 06 80 3a 9d c8 1e 3c
       0.0067004985 0.0011378749 0.0009767623 0.009691385
000320 a7 a0 3a 3b 70 7e c7 3b b0 5c c0 3b ff c4 8d 3b
       0.0028477104 0.0060880706 0.005870424 0.0043264623
000330 29 a3 43 bb ff 86 87 3a 7e e7 2b b9 51 b7 0a 3b
       -0.002985189 0.0010339915 -0.00016394068 0.0021166394
000340 5f 39 4f ba 02 8b 78 ba 7f 92 5b bb 35 76 b5 ba
       -0.00079049723 -0.0009481163 -0.0033504067 -0.0013844433
000350 db c8 18 bb 2f e9 62 bb 0c 2b ba b8 38 bf 8e 3b
       -0.0023313079 -0.0034623852 -8.877189e-05 0.004356291
000360 a0 7b 88 3b 50 b3 e0 39 7c a1 4d bb 74 fa 5a 3b
       0.004165128 0.00042858208 -0.003137677 0.0033413442
000370 a1 f1 18 3b 03 c7 b8 ba 43 10 10 bb 6b b8 59 3b
       0.0023337381 -0.0014097396 -0.002198235 0.0033221494
000380 c7 6d 28 3a 7d 50 4e 3b c3 4d 0a bb 79 e1 d6 3a
       0.00064250495 0.003148108 -0.0021103479 0.00163941
000390 fd c1 32 bb 8c 03 43 3b 2f 36 d0 ba ff 3b ea 3a
       -0.002727627 0.0029756753 -0.0015885289 0.0017870663
0003a0 f2 c2 59 3a 60 d6 16 39 20 a1 43 bb a4 15 89 3a
       0.0008306942 0.00014384976 -0.0029850677 0.001045872
0003b0 fb 92 26 3b 40 62 84 3b 79 c0 8a 3a bd e3 2e 3b
       0.0025417197 0.0040400326 0.0010585926 0.0026686036
0003c0 db 8c b2 ba be a0 75 ba a8 96 21 bb 88 03 7c 3a
       -0.00136223 -0.0009369961 -0.0024656449 0.00096135633
0003d0 4d 48 bf ba 3e 10 88 bb 0e 09 7c 38 32 49 23 39
       -0.0014593691 -0.004152327 6.0089915e-05 0.00015572159
0003e0 64 0b 5c 3a 3f a9 b5 ba 2d 3a 97 bb 43 b6 69 3a
       0.00083940313 -0.0013859643 -0.0046150894 0.0008915404
0003f0 66 c1 97 3b 38 e0 78 3b 4d 41 2b b9 f7 00 4f 3b
       0.004631209 0.0037975442 -0.00016332157 0.0031586268

ConvNet.3.bias f4 [32]
000000 83 5c 66 38 df 76 2f b9 76 df 13 b6 19 21 8f 39
       5.492243e-05 -0.00016733583 -2.2034778e-06 0.00027299745
000010 9d b5 3f b9 52 b0 92 b8 d7 39 69 39 ae 72 01 b9
       -0.00018282836 -6.994665e-05 0.00022242159 -0.0001234512
000020 47 d6 b2 b7 f0 07 79 b8 bf 28 90 b9 a5 f8 de 37
       -2.1319034e-05 -5.937362e-05 -0.00027496179 2.6580246e-05
000030 57 fa 5d b7 76 c5 0c b9 96 d9 2f b9 20 16 9b 39
       -1.3230913e-05 -0.00013425 -0.00016770358 0.00029580388
000040 19 26 9c b9 f2 5b 2b 38 f7 a9 db b8 90 70 d4 38
       -0.00029783024 4.0855208e-05 -0.00010474392 0.00010129914
000050 55 f8 1c 39 38 93 95 39 85 e7 64 39 a2 48 bf b8
       0.0001496983 0.0002852918 0.00021830022 -9.121119e-05
000060 8f 21 fb b8 8b a0 db b8 63 c7 92 b9 ec 39 6f 39
       -0.000119748634 -0.00010472637 -0.00027995845 0.00022814394
000070 42 2d 0c 39 71 d4 e5 b8 74 ef 2a b7 c0 64 cb 38
       0.000133683 -0.00010959141 -1.0188542e-05 9.6985605e-05

ConvNet.4.weight f4 [32]
000000 8f 1b 81 3f 44 58 7e 3f 4e 83 7e 3f f6 8f 7e 3f
       1.0086535 0.9935343 0.99419105 0.99438417
000010 0c 20 80 3f 99 83 7e 3f b7 b1 80 3f 02 cc 7e 3f
       1.000978 0.9941955 1.0054234 0.9953004
000020 97 1e 7f 3f f2 6d 81 3f 80 4e 81 3f 10 6f 80 3f
       0.9965605 1.0111678 1.0102081 1.0033894
000030 68 e8 7d 3f 49 1f 7e 3f 34 00 7e 3f d5 25 80 3f
       0.9918275 0.9926649 0.9921906 1.0011545
000040 8d b8 80 3f 39 2c 7d 3f 77 24 80 3f 2e ec 7f 3f
       1.005632 0.98895603 1.0011128 0.99969757
000050 b7 54 80 3f 91 c7 7f 3f 2b 01 7e 3f 93 c3 80 3f
       1.0025853 0.9991389 0.9922053 1.0059685
000060 fa 7f 7e 3f 35 95 7f 3f cf 31 80 3f f4 d4 7f 3f
       0.99414027 0.99837047 1.00152 0.99934316
000070 26 4b 7d 3f 64 d0 80 3f 23 7d 7d 3f 1b a8 7d 3f
       0.9894279 1.0063596 0.9901907 0.99084634

ConvNet.4.bias f4 [32]
000000 f8 e6 1e 3b 1b 18 f3 bb 38 6c 88 bb 9a 3b 4d 39
       0.0024246555 -0.007418645 -0.0041632913 0.00019572527
000010 70 fc 20 39 f4 49 f2 3a ae c1 8e bb 0d a2 87 bb
       0.0001535283 0.0018485175 -0.0043565845 -0.004139191
000020 24 3a 9d 3a 8e 19 37 bb 1f d4 c2 3b 2d 81 fa ba
       0.0011995477 -0.0027938816 0.005945697 -0.0019111984
000030 d4 de 8e bb e5 9d ac bb b9 d9 31 bb e0 92 15 bc
       -0.0043600593 -0.005267846 -0.002713783 -0.009129256
000040 b4 6c 7a 3b db ac fc bb 1f 07 aa bb 65 07 c0 ba
       0.0038211765 -0.0077110357 -0.005188837 -0.0014650641
000050 7c 0f aa b8 b1 a1 88 bb 27 30 81 bb f7 54 48 3a
       -8.109116e-05 -0.0041696657 -0.003942508 0.0007642055
000060 59 82 98 bb 3f 33 46 3b 5f 33 16 3b 6f 2c bd ba
       -0.0046542105 0.0030242947 0.0022918803 -0.0014432798
000070 36 c4 41 bc 09 c1 9d bb a2 3f 0f bc c7 1f 89 bb
       -0.0118265655 -0.0048142713 -0.008743199 -0.0041846964

ConvNet.4.running_mean f4 [32]
000000 5f a3 c3 3d 00 12 90 3d 3d 99 7a be 77 04 62 be
       0.09552645 0.07034683 -0.24472518 -0.22072016
000010 af 74 7a be 65 ce 7e be d8 8a 19 3e b6 09 44 be
       -0.24458574 -0.24883421 0.14994371 -0.1914433
000020 9b 64 52 be cd 2c a7 3d 82 57 45 3e f4 ca c4 3c
       -0.2054619 0.08162842 0.19271663 0.024022557
000030 8b 03 70 be 90 5d 4c be 49 04 6b be 11 22 3f be
       -0.23438852 -0.19957566 -0.22950853 -0.18665339
000040 a5 2e 4d 3e c7 b2 82 be cb 8e 4a 3d a9 47 5e be
       0.20037325 -0.2552702 0.049452584 -0.21707024
000050 28 34 2b 3e ec f3 56 be 56 a1 13 be 0f a1 5d 3d
       0.16719115 -0.20991486 -0.14417014 0.054108676
000060 89 e8 3e be dd dc 5f be 3a 1b 3c be 1e 03 4d bd
       -0.18643393 -0.21861596 -0.18369761 -0.0500518
000070 34 08 7c be f3 d4 13 3d 62 22 28 be 54 f8 a7 be
       -0.24612504 0.036091756 -0.16419366 -0.32806647

ConvNet.4.running_var f4 [32]
000000 ec a5 0b 3d 5e 8d 24 3d 38 93 a2 3d 1e 71 c5 3d
       0.034093782 0.04017388 0.07938236 0.09640716
000010 39 47 d1 3c 92 f7 7f 3d f3 84 09 3d ba c1 90 3d
       0.025546657 0.06249196 0.033574056 0.070682004
000020 6e 97 f6 3d 02 38 e0 3c 86 94 59 3d 9f e1 0d 3d
       0.12040602 0.027370457 0.05312016 0.034638997
000030 ae 3d c2 3d fa 4f 81 3d 99 73 12 3e 2a 53 18 3c
       0.09484421 0.063140824 0.1430191 0.009297172
000040 fc 4b 6c 3d e0 65 26 3e 31 25 38 3d 21 81 45 3d
       0.05768965 0.162498 0.044957343 0.04821885
000050 bb 09 86 3d e5 ad 7e 3c e7 ef dc 3c bc b3 80 3d
       0.06544825 0.015544389 0.026969863 0.062842816
000060 cd d8 bc 3d cf 93 a3 3d fb 6d b0 3c ea 52 09 3d
       0.09221039 0.079871766 0.021536818 0.03352634
000070 d2 66 a8 3d 1d 92 d7 3c ae d4 e2 3d c4 92 bf 3d
       0.082227364 0.02631479 0.11075722 0.09354165

ConvNet.6.weight f4 [32, 32, 4, 4]
000000 27 5a 96 bb e1 08 b2 b8 04 b3 8a bb 53 f6 b9 bb
       -0.0045883837 -8.489355e-05 -0.004232766 -0.005675116
000010 66 71 0d bc b9 a9 03 bc 77 ee ff bb f4 1e fc bb
       -0.008632993 -0.0080360705 -0.0078104096 -0.0076941196
000020 5c 8b fc b9 91 55 e9 ba 5f 64 8b 39 b2 5e 01 3b
       -0.00048169016 -0.001780199 0.00026586928 0.001974028
000030 b7 c4 2f 3b 16 27 34 bb 3b 8c 5e bb 1e c4 9f 39
       0.0026820132 -0.0027489117 -0.0033958096 0.00030472962
000040 1a 9a cc 3a 5c 69 05 3b 86 50 34 3b ef ae 32 ba
       0.0015609891 0.0020356989 0.0027513816 -0.0006816228
000050 a1 10 0b bc 60 0b 99 b9 f9 39 12 bb 8f 1e b2 bb
       -0.008487851 -0.0002919091 -0.0022312386 -0.005435772
000060 87 3e af bb fc a1 8e ba f4 aa bd 38 d0 7b 96 39
       -0.00534803 -0.0010882015 9.044065e-05 0.00028702477
000070 99 17 c0 3a 56 b5 2d bb bc e7 d7 39 41 00 9e 3a
       0.001465547 -0.002650579 0.0004118065 0.0012054519
000080 9b 67 de bb 7b 4e c5 3a 79 6b bc ba a4 a7 20 3b
       -0.006787253 0.0015053296 -0.0014375291 0.0024513984
000090 52 6b 6f bb 14 bb 1b 39 bc 01 6f bb 9b c4 a9 38
       -0.0036532474 0.00014851644 -0.003646954 8.0951686e-05
0000a0 ba a5 a2 bb 27 b4 ab b9 1d a7 83 ba ca 1c c0 3a
       -0.004963604 -0.00032749886 -0.001004431 0.0014657017
0000b0 ff 0f 4a bb e9 c4 8a ba 05 72 7e bb c3 a4 ba 3b
       -0.0030832288 -0.0010587248 -0.0038825285 0.0056959107
0000c0 42 de 2d bb 47 94 3d bb ec 3b 12 3b f6 36 fd ba
       -0.002653018 -0.0028927492 0.0022313548 -0.0019318748
0000d0 c7 2d 7f bb 0a eb 18 3b 2b 1b b4 3a 07 6f 01 3b
       -0.0038937198 0.0023333454 0.0013741007 0.0019750015
0000e0 40 ec 06 bb 6a 7b 89 3a 7b e5 a8 3a bc de c1 3b
       -0.0020587593 0.0010489051 0.0012885773 0.0059164446
0000f0 f9 93 d2 ba 00 af 78 3b 3d 50 14 b9 fd 0d a2 3b
       -0.0016065828 0.0037946105 -0.00014144271 0.004945515
000100 0a a1 ce bb 16 fd cb ba 8f 6d 9a 39 ca 57 3b bb
       -0.0063058184 -0.0015563096 0.00029454796 -0.0028586262
000110 fd 82 93 bb af 96 44 ba 75 c1 44 ba a3 a4 12 3b
       -0.004501699 -0.000749926 -0.0007505634 0.0022375963
000120 31 92 42 bb c0 86 51 3b 4d 8a eb ba a8 b4 53 3b
       -0.0029689188 0.0031971186 -0.0017970294 0.0032303724
000130 c1 50 bf bb 35 4f 09 ba 68 f3 2f bb c9 e7 63 ba
       -0.005838484 -0.0005237938 -0.0026847962 -0.00086939015
000140 b8 a9 54 3a f3 e6 b2 3a 11 4c fb ba cd 24 94 ba
       0.0008112448 0.001364915 -0.001917245 -0.0011302471
000150 1a 09 01 3b 03 bb 59 3b 3d ea a6 bb ac 31 6a 3b
       0.0019689263 0.003322304 -0.0050938413 0.0035735173
000160 71 e0 70 ba 11 9c 8f 3b 5c dc 8f 3a 10 76 a6 ba
       -0.0009188718 0.0043826182 0.0010975706 -0.001269998
000170 6d e8 9a 3b e5 38 98 3b 58 75 a7 bb c0 d7 c6 ba
       0.0047274143 0.004645454 -0.005110424 -0.00151705
000180 94 6d 14 ba 24 72 59 bb 9a c3 00 39 eb 46 8f 3b
       -0.00056620804 -0.0033179605 0.00012279899 0.0043724678
000190 1f 57 be bb d7 be f4 bb 96 86 0e bc 0c 15 0d bc
       -0.0058087255 -0.007469039 -0.00869908 -0.008610975
0001a0 14 f6 0a 3b 9d 0c 14 bb ed 22 e7 3a fc bf 8c 3b
       0.0021203803 -0.0022590526 0.001763431 0.0042953473
0001b0 6a a1 a3 ba 50 04 87 ba bc 61 67 bb 53 be 07 ba
       -0.0012484018 -0.0010300968 -0.0035306057 -0.0005178202
0001c0 7b 48 99 bb 44 43 15 ba b8 8b 01 bb 90 8b c5 ba
       -0.00467783 -0.0005693922 -0.0019767117 -0.00150715
0001d0 40 a4 4c bb 19 5a 69 bb e8 3b 0f bb d2 67 f4 3a
       -0.003122583 -0.003560668 -0.0021855775 0.0018646664
0001e0 b9 3c cb bb e3 76 26 bb 33 e9 8d 3a e0 2e eb 3b
       -0.006202307 -0.0025400452 0.0010826945 0.007177219
0001f0 5b 51 61 bb 0b fc da b9 e1 59 8f ba 9b d1 ad 3b
       -0.0034380767 -0.00041767987 -0.001093682 0.005304528
000200 4f f7 b5 bb 73 47 34 39 bd 8e ef ba f7 3c ad b7
       -0.005553163 0.00017192755 -0.0018276792 -2.0651596e-05
000210 dc ee ac bb 36 07 87 3a 1b ed 1a bb 42 c9 c1 3b
       -0.0052774977 0.0010301832 -0.002363986 0.0059138844
000220 30 b3 40 bb a9 41 0c 3a eb 43 0b 3b de a7 e1 3b
       -0.002940368 0.00053503603 0.00212502 0.0068864664
000230 d6 f3 2e bb b6 1b 5f bb 26 61 0e 3b cc 58 e5 3b
       -0.002669563 -0.0034043617 0.0021725385 0.006999111
000240 64 c2 26 bb ea d5 22 3b 59 1a 12 3b 93 8b da 3a
       -0.0025445456 0.002484674 0.0022293536 0.0016673676
000250 43 f7 0a bc e6 02 18 bc 9e 28 3c bb 3b b0 1e bc
       -0.008481803 -0.009278035 -0.0028710733 -0.009685571
000260 49 33 8c bb 33 c0 c1 39 ac 92 cd ba fe 72 f3 3a
       -0.0042785746 0.00036955028 -0.001568397 0.0018573699
000270 86 b8 48 3b af 40 38 bb 04 71 5d ba e1 e6 63 3a
       0.0030627563 -0.0028114726 -0.00084473216 0.00086937664
000280 fa 4f 8c 3a 77 76 41 3b 11 d1 3f 3b 3e 04 60 3b
       0.0010704987 0.0029520073 0.00292689 0.0034182216
000290 49 eb 23 bc ea 5e 19 bc 44 b4 be bb 79 a9 f0 bb
       -0.010004827 -0.009361008 -0.005819829 -0.0073444215
0002a0 9e d2 d9 bb 6e 2b 01 bc ef c2 48 bb 90 31 db bb
       -0.006647422 -0.00788389 -0.0030633768 -0.006689258
0002b0 0d c7 c7 b9 9b 3d 4c 3b cb 20 9a ba d0 d2 50 bb
       -0.00038104542 0.003116465 -0.0011759041 -0.0031863935
0002c0 1d fa 09 3a f5 b8 b8 3b 6d 00 de ba 3c b7 60 bb
       0.0005263405 0.005637283 -0.0016937383 -0.0034288904
0002d0 ed 31 15 3b 39 54 e7 b9 10 4d 20 3b fc b3 12 3b
       0.0022765354 -0.00044122504 0.0024459995 0.002238511
0002e0 10 a2 54 bc e2 a4 2b bc 54 86 a2 bb 93 6f b4 bb
       -0.012978092 -0.010476323 -0.004959861 -0.0055064647
0002f0 82 4f fa ba f5 07 ee 3a 88 46 22 3b ce 32 e1 ba
       -0.0019097182 0.001816033 0.0024761278 -0.0017181279
000300 16 9f c8 bb 4a fc 92 ba 09 a2 34 bb a1 8d 67 bb
       -0.00612248 -0.0011214104 -0.00275624 -0.003533222
000310 fe b2 bd 39 a7 22 a0 3a c4 04 d9 ba 69 43 db 3a
       0.0003618225 0.0012217358 -0.0016557206 0.0016728464
000320 2d d2 3a bb 37 a8 23 3b 81 b2 4a ba 97 90 ab 3b
       -0.0028506622 0.002497209 -0.00077322876 0.0052357423
000330 89 f8 02 ba c7 6d c1 3a c9 44 09 bb eb f9 ac 3b
       -0.0004996141 0.0014757448 -0.002094554 0.005278816
000340 f9 89 8b bb 89 a0 62 bb 04 73 80 bb d3 0d d9 b9
       -0.004258391 -0.003458055 -0.003919961 -0.00041399765
000350 dc 87 4f bb 9a 09 0a 3b ea 5a 58 3b 82 32 db 3b
       -0.0031666672 0.0021062852 0.0033013173 0.0066893706
000360 87 04 c4 bb c3 01 91 bb cf a9 c8 ba 8b 93 d3 3a
       -0.005981985 -0.004425259 -0.0015309396 0.0016141994
000370 32 92 bc bb c1 ab 4c ba 53 fa 4a ba f0 65 a0 3b
       -0.0057547325 -0.0007807576 -0.00077429897 0.0048949644
000380 29 c2 45 bb be 7c 81 bb 09 ff 5a b9 b4 b9 c0 ba
       -0.0030175543 -0.003951638 -0.00020885108 -0.0014703781
000390 87 34 e6 ba a4 07 dc ba 0c ee 69 3a c4 87 7c 3a
       -0.0017563262 -0.0016786945 0.00089237164 0.0009633268
0003a0 08 ee 0e bb ac be 5c 3a 8d f2 75 3b 56 0f d3 3b
       -0.0021809358 0.00084207463 0.0037528605 0.006441037
0003b0 8a aa e6 bb ce bf 06 3a 26 a5 0d bb e7 4f 86 3b
       -0.007039373 0.00051402755 -0.0021613329 0.0040988806
0003c0 15 9f c9 bb 73 3b 4e bb c4 ae ad bb 7b d2 2c bb
       -0.0061529973 -0.003146854 -0.0053003747 -0.0026370573
0003d0 cb b5 84 bb 93 c4 98 3a 42 c6 09 bb 24 52 8c 38
       -0.0040499917 0.0011655263 -0.0021022712 6.69102e-05
0003e0 68 0d 98 bb a4 0c 3c 3b 8e 64 2f bb 9d d9 09 3b
       -0.00464027 0.0028694058 -0.0026762816 0.0021034249
0003f0 ff 9e 90 bb ef 7d 67 3b 76 6d 11 bb c1 73 09 3b
       -0.004413485 0.0035322865 -0.0022190488 0.0020973536

ConvNet.6.bias f4 [32]
000000 70 7d 2a 39 8e 74 98 39 bd 83 8e 38 5e e0 13 b9
       0.00016259192 0.0002907854 6.795626e-05 -0.00014102596
000010 b8 78 6b 39 85 4f 33 b7 50 2a 4c 39 0c c8 9a 39
       0.00022456318 -1.0687746e-05 0.00019470719 0.00029522215
000020 5b 86 38 39 9d ae 94 b7 93 66 0e b9 65 c2 8d b9
       0.00017597659 -1.7724285e-05 -0.00013580387 -0.0002703845
000030 5c b0 7c b9 e1 ec 59 37 53 ba 11 39 65 86 8c 39
       -0.00024098292 1.2989361e-05 0.00013897689 0.00026803013
000040 65 86 3d b9 cc 87 1a 39 90 f2 93 b9 45 d6 96 b9
       -0.0001807451 0.00014737173 -0.00028218748 -0.00028769873
000050 40 19 a8 38 ea 3f fc b7 56 98 2a 39 c2 77 0e b9
       8.0155674e-05 -3.0070503e-05 0.00016269213 -0.00013586789
000060 6a a0 1b 38 99 9b 41 39 e2 a8 3d b8 d7 51 9b 39
       3.7104277e-05 0.00018463879 -4.5218396e-05 0.0002962488
000070 47 ab 10 b9 35 2b 98 39 53 85 94 39 df 31 03 39
       -0.00013796716 0.0002902389 0.00028328094 0.00012511712

ConvNet.7.weight f4 [32]
000000 1e cc 80 3f 0f 20 80 3f 8b 0b 80 3f e3 91 80 3f
       1.0062292 1.0009784 1.0003523 1.0044521
000010 46 52 7f 3f 19 1c 80 3f 6f 92 80 3f 57 ea 7f 3f
       0.99734914 1.0008575 1.0044688 0.9996695
000020 7b 3e 80 3f ef 95 80 3f db ac 7f 3f 0e a2 80 3f
       1.0019068 1.0045756 0.9987313 1.0049455
000030 d4 44 7f 3f fa 35 7f 3f 94 43 80 3f 6e 33 80 3f
       0.997144 0.99691737 1.0020623 1.0015695
000040 fd 32 80 3f 5e cb 7f 3f fc 6e 80 3f ef 46 80 3f
       1.001556 0.9991969 1.003387 1.0021647
000050 4b 5f 80 3f 8e 01 80 3f 01 fa 7f 3f 69 fc 7e 3f
       1.0029081 1.0000474 0.9999085 0.996039
000060 67 84 80 3f 3e 4b 80 3f e4 5a 80 3f 69 68 80 3f
       1.0040406 1.0022962 1.0027738 1.0031863
000070 5a 23 7f 3f 2e b3 7f 3f f6 0f 80 3f 2d 97 80 3f
       0.9966332 0.9988278 1.0004871 1.0046135

ConvNet.7.bias f4 [32]
000000 7c 80 01 3c 83 82 60 3a 9b b8 99 39 ae 86 11 3b
       0.007904168 0.00085643696 0.00029319976 0.002220552
000010 2c 5b 5d bb 5f ee 86 bb 47 e6 04 3b 20 be a3 bb
       -0.0033776267 -0.0041177715 0.0020278858 -0.00499703
000020 60 e6 b9 ba cc 69 fe 3a cc 8b c4 39 d0 ae 92 3b
       -0.0014183037 0.0019410192 0.0003748819 0.0044764057
000030 2b 76 96 bb ad c7 58 bb 10 8e 01 3b de 60 09 bb
       -0.0045917234 -0.0033078 0.0019768514 -0.0020962278
000040 ca f7 cb 3a 96 19 4b bb b2 8f 83 3b f4 1a 7e 3a
       0.0015561518 -0.0030990592 0.0040149326 0.00096933474
000050 42 88 b9 3a 12 57 4b b9 e6 a7 60 39 9d 92 3c bb
       0.0014154988 -0.00019392025 0.00021424852 -0.0028773912
000060 b1 99 47 3b 35 fc ae ba 3a e7 1b bb 7f c3 0e 3a
       0.0030456597 -0.001335031 -0.0023788945 0.00054460013
000070 fe 50 99 bb c7 ca 1b bb 20 35 9e ba 9e dc 4c 3b
       -0.0046788445 -0.0023771988 -0.0012070276 0.0031259428

ConvNet.7.running_mean f4 [32]
000000 f8 99 49 be 6b f9 ff bc e5 a4 75 3d f1 88 ea 3d
       -0.1968764 -0.031246861 0.05997171 0.11451901
000010 6c 79 90 bd 9e a5 51 bc c7 66 23 3d 52 2a f3 bc
       -0.070544094 -0.012795834 0.039892938 -0.029683266
000020 77 75 5f bd 29 18 e1 bc 80 59 ce bd 36 1e 23 be
       -0.054555383 -0.02747734 -0.100756645 -0.15929493
000030 04 34 86 3b 3b de 5e 3c 80 b5 04 be d0 01 55 bd
       0.004095556 0.013602789 -0.12959862 -0.05200368
000040 86 3f 1e bd 09 1c e3 bc a5 cf ef bc d0 b3 b6 bd
       -0.0386348 -0.02772333 -0.029273817 -0.08921015
000050 de 99 b7 3c a2 0d 80 bc 07 a3 2e be f8 2b d9 bd
       0.022412237 -0.0156315 -0.17054377 -0.106040895
000060 71 c4 b7 3d d8 90 1d 3d 2e fa 23 bc 9c c0 24 bc
       0.08973015 0.038468212 -0.010008378 -0.010055687
000070 66 10 3e bd 88 52 13 be d8 70 73 bd 7f 58 83 bd
       -0.046402358 -0.14386952 -0.059433788 -0.06413364

ConvNet.7.running_var f4 [32]
000000 e1 3c 19 3e 24 fc 9c 3d e1 3e 8e 3d 92 3c 14 3d
       0.1496463 0.076652795 0.06945587 0.036190577
000010 88 68 7b 3d 33 c3 9d 3d 67 08 0c 3d 7d b2 02 3e
       0.061378986 0.07703247 0.0341877 0.127634
000020 9c df 26 3d 07 24 2d 3d 90 31 1b 3e e2 72 af 3d
       0.040740594 0.042270686 0.15155625 0.08566834
000030 08 aa 54 3d 74 c5 33 3d 95 89 a3 3d 22 a9 2f 3d
       0.051919967 0.043889478 0.07985226 0.042885907
000040 2c cb e0 3d d2 9e 92 3d 31 83 56 3d d5 82 4a 3d
       0.10976252 0.07159199 0.052371208 0.049441177
000050 22 b4 d9 3c bd 35 54 3d 9e a5 a9 3d 62 32 57 3d
       0.026575152 0.05180906 0.08283542 0.052538283
000060 46 db 30 3d 23 d8 b4 3d ff fa e4 3c dd 9a c8 3d
       0.043177865 0.08830287 0.027951716 0.09795163
000070 6e 01 cc 3d 6e 8f be 3d 26 25 bc 3d 7b 10 88 3d
       0.0996121 0.09304701 0.09186773 0.066437684

ConvNet.10.weight f4 [3, 1152]
000000 70 d1 91 ba aa c3 0d 3a 57 f3 64 3b 72 48 f6 39
       -0.0011125039 0.00054078794 0.003493508 0.00046974752
000010 ee 3c b8 ba 9a 51 3d 3a f8 15 f6 39 6a bd 61 b8
       -0.0014056244 0.00072219374 0.00046937144 -5.3820586e-05
000020 b5 4b 1a 3b 55 60 27 39 67 ff c1 ba a7 c5 fb 3a
       0.002354366 0.00015962248 -0.0014800847 0.0019208685
000030 df 6d 13 3b b9 c1 6d ba de 74 e5 39 aa 03 1a 3a
       0.0022495908 -0.00090696994 0.00043765357 0.000587518
000040 32 9f 87 3a 3d 13 3e 3a a0 83 01 3b e8 72 cd 3a
       0.0010347127 0.00072507915 0.0019762293 0.0015674504
000050 43 a4 0b bb 8a d3 89 3a 72 a3 b0 39 a2 06 3d ba
       -0.0021307624 0.0010515314 0.00033691112 -0.0007210766
000060 45 69 18 ba d7 b4 41 3b 89 5c ae 3a 30 30 8c 3a
       -0.0005814026 0.0029557252 0.0013302724 0.0010695513
000070 71 fe f1 ba ae c8 b7 b9 48 56 0f bb 83 40 b8 b8
       -0.001846267 -0.00035053998 -0.0021871496 -8.78582e-05
000080 ec 65 b1 b8 6a 29 ac 3a 2c 3b 07 3a 67 63 5a bb
       -8.459002e-05 0.0013134901 0.00051586586 -0.0033323409
000090 79 2a 9c ba 90 d8 79 39 cb fb e3 b8 84 1c e1 ba
       -0.0011914513 0.00023827166 -0.000108711036 -0.0017174636
0000a0 82 16 c7 3a ce 76 3c ba 5e 24 1f ba 2b fa 4a 3a
       0.0015189203 -0.0007189334 -0.0006070788 0.00077429664
0000b0 3f 29 bc 3a d0 fc 46 bb 85 8f b1 39 ed 89 83 3a
       0.0014355554 -0.003036309 0.00033867 0.0010035612
0000c0 8c 03 fd ba 55 50 3f ba 6c d0 ad 39 66 00 f4 b8
       -0.0019303425 -0.0007298042 0.00033152418 -0.00011634901
0000d0 7a 0e 68 3a c6 e2 d2 ba 0b 1d 91 b9 b6 ec 31 39
       0.0008852255 -0.0016089312 -0.00027678194 0.00016968217
0000e0 84 db 45 3a 26 9d a8 ba d7 6e da ba 88 69 8b ba
       0.0007547664 -0.0012864217 -0.0016665113 -0.0010636309
0000f0 39 c7 5d bb b2 b4 33 bb 15 a6 46 ba 6b ea ed 3a
       -0.003384067 -0.0027420935 -0.0007577849 0.0018151527
000100 cc 7d 00 ba e1 14 19 3a 3f 6f af b9 b0 50 d9 ba
       -0.00049015577 0.0005839598 -0.00033461486 -0.0016579833
000110 3f 61 18 bb 39 21 2a 3a 48 5c e5 3a 3f 86 5b ba
       -0.0023251323 0.0006489936 0.0017498815 -0.0008374191
000120 25 e4 48 bb 92 31 bf 39 46 e4 19 bb e2 e8 d6 ba
       -0.0030653563 0.00036467292 -0.002348201 -0.0016396309
000130 fe 46 33 bb c6 19 02 ba 1c 4c 0a 3b 5a 39 3f 3b
       -0.0027355547 -0.0004962947 0.0021102494 0.0029178471
000140 dd 48 73 3a 37 ec 18 ba fe b6 9a 3a d6 fa e7 3a
       0.0009280572 -0.00058335386 0.0011803803 0.0017698656
000150 ef 07 ee 3a b1 cc 28 3b fa e5 22 3a 37 5b a8 ba
       0.0018160323 0.0025756771 0.0006214079 -0.0012844567
000160 11 0c d1 3a ab dd 08 bb be 45 a5 3a 32 50 19 bb
       0.0015949031 -0.0020884078 0.0012609286 -0.0023393747
000170 62 c7 58 3b 41 69 bf b9 18 ca 7b bb ad 7d 08 bb
       0.0033077826 -0.0003650878 -0.0038420018 -0.0020826862
000180 bf a1 fd 3a ae 03 a6 b9 fd 67 37 bb c8 0f 45 bb
       0.0019350572 -0.0003166473 -0.0027985566 -0.003006922
000190 56 64 0c bb 5d d2 83 b9 19 90 7e 3a 56 f1 a6 3a
       -0.002142211 -0.00025143 0.0009710803 0.0012736719
0001a0 49 3c 30 ba bf 1e b2 38 cf 72 6c 3b 0b 3f ba 3a
       -0.00067228504 8.493428e-05 0.0036079173 0.0014209462
0001b0 89 eb a5 ba e0 7b 3f bb 64 6d 74 bb d5 c6 b7 3a
       -0.0012658696 -0.0029218122 -0.0037296647 0.0014021049
0001c0 14 9e 3b 3a 34 ca 1f bb ce 6d 7e 36 6c 1c ab 3a
       0.00071570394 -0.0024381997 3.7912864e-06 0.0013054735
0001d0 0d ae cc ba ed de a2 3a e0 9f 76 ba 20 d8 d4 ba
       -0.0015615836 0.0012426056 -0.00094079785 -0.0016238727
0001e0 ac 74 49 bb 39 2c 36 b9 35 52 29 bb e3 91 a7 ba
       -0.0030739708 -0.00017373347 -0.0025836353 -0.0012784566
0001f0 3e e6 50 3a 47 55 bc 3a a3 41 34 3a c8 58 ac ba
       0.0007968879 0.0014368676 0.0006876236 -0.0013149017
000200 80 ca 0f b9 57 0a f2 ba 85 1e 58 39 16 03 82 38
       -0.0001371298 -0.0018466216 0.00020610735 6.199458e-05
000210 d5 d9 1e 38 90 76 33 3a a1 b8 bd 38 aa 90 23 ba
       3.7873007e-05 0.00068459753 9.046612e-05 -0.0006239513
000220 b5 3a f3 ba 5e a3 40 ba b3 b1 cb 39 2c 6c 25 3b
       -0.0018556925 -0.00073485624 0.00038851573 0.0025241477
000230 f2 68 94 ba 16 98 12 ba 6d 8c df b7 e2 6c 7e b7
       -0.001132278 -0.00055921206 -2.6649062e-05 -1.5164931e-05
000240 7b 80 e1 3a 79 ca b6 ba e2 55 1f ba d3 68 05 b9
       0.0017204428 -0.001394584 -0.0006078166 -0.00012722918
000250 d6 ef 27 3b 2c 66 3e b9 6c 77 f8 3a 34 d2 c8 ba
       0.002562513 -0.00018157874 0.0018956489 -0.0015321434
000260 63 67 2e 3a a7 89 17 3b 36 1c 55 3a 1d a7 f5 38
       0.0006652979 0.0023122819 0.0008129509 0.00011713638
000270 90 33 f4 3a f4 b7 00 bb f4 68 a9 b9 9f 67 dd ba
       0.001863109 -0.0019640895 -0.00032312388 -0.0016891843
000280 64 75 0f bb 00 7f 9c 3a c2 bb 5a 3b be ba 9d 39
       -0.0021890039 0.0011939704 0.0033376073 0.00030084507
000290 cd fd e8 3a 4e 4f d6 39 4e 86 01 38 f6 be a4 ba
       0.0017775834 0.00040876347 3.0881078e-05 -0.0012569118
0002a0 ec df 88 3a 9e 6a ae 3a 5d 53 d6 b8 87 6d 4a 39
       0.001044271 0.0013306921 -0.00010219843 0.00019305023
0002b0 67 83 82 3a 6e 9c 9a 39 89 4f 1b 39 c0 3e 4e b9
       0.0009957374 0.00029489718 0.00014811581 -0.00019669067
0002c0 c4 22 d4 3a 99 f8 e0 3a 43 49 1b 3b c3 cb 5d 3a
       0.0016184677 0.0017163932 0.002369479 0.0008460844
0002d0 cf 7b 81 39 6d 1b 4b 3a 34 53 f4 b9 bf 46 9b 3a
       0.00024697042 0.0007747922 -0.00046601298 0.0011846646
0002e0 b0 ec ff ba 8d bc fe b9 5d af a2 3a af e3 48 ba
       -0.0019525494 -0.00048587137 0.0012411881 -0.0007663322
0002f0 89 71 b8 38 ac 9c 91 ba 66 9b 84 3a 18 bc 6f 3a
       8.794951e-05 -0.0011109314 0.0010117113 0.00091451546
000300 86 f0 bf 3a 06 fd b6 39 c2 88 95 b8 d3 aa 75 38
       0.0014643825 0.00034902262 -7.130347e-05 5.8571644e-05
000310 4e b0 1e bb ce 53 d3 3a db 37 87 ba 2a a8 a6 39
       -0.0024213973 0.0016122998 -0.0010316329 0.0003178728
000320 67 bf b6 3a fc 1a d8 b9 7d ed 3b 3a e6 42 7a 3a
       0.001394254 -0.00041218835 0.00071688724 0.0009546712
000330 5c f3 2b 3b 17 38 c7 3a de 9a a7 ba 85 55 1c bb
       0.0026237583 0.0015199211 -0.0012787243 -0.0023854685
000340 f9 1f e2 39 c4 18 15 3a a3 16 d2 ba 1d c1 8a ba
       0.000431299 0.00056875893 -0.0016028475 -0.0010586117
000350 1d 07 84 ba 9c e5 e9 3a 46 f7 f3 3a 4a db 85 ba
       -0.0010072921 0.0017844918 0.0018613122 -0.0010212448
000360 96 7c 60 ba 9d f0 2a bb ad b4 9a 3a 19 30 2c ba
       -0.00085634866 -0.0026083358 0.0011803113 -0.00065684464
000370 5d 44 ea 3a af fa 6e ba 40 fd ba 3a 50 9f 08 bb
       0.0017873157 -0.0009116334 0.0014266148 -0.002084691
000380 02 90 12 38 c2 0e 95 b9 74 93 f0 39 44 08 c4 ba
       3.494323e-05 -0.0002843049 0.00045886228 -0.0014956077
000390 91 f8 ce 3a ee cd 91 b9 41 77 a4 ba 7e 42 20 3a
       0.0015790631 -0.00027809985 -0.0012547747 0.0006113424
0003a0 5b 79 17 3a 8d 61 83 3a 93 83 0a ba e7 1a e0 ba
       0.0005778276 0.0010023579 -0.00052838883 -0.0017097861
0003b0 b1 17 0f bb f5 d6 2e bb ce bc d4 39 60 32 58 3b
       -0.002183419 -0.0026678417 0.00040576461 0.003298901
0003c0 02 d3 f0 b9 ae a9 c0 b9 b8 16 b1 39 fd 91 51 3b
       -0.0004593358 -0.00036747515 0.00033776998 0.0031977885
0003d0 2b 24 1a 3a 9a 2c f1 ba 0e 09 f2 38 a7 ac 07 3b
       0.0005880023 -0.0018400133 0.00011541146 0.0020702274
0003e0 d5 db 1c 3a 82 0b 69 ba fb 56 02 ba 13 e2 c2 39
       0.0005983685 -0.00088899594 -0.00049720675 0.00037171002
0003f0 53 7e 9f b9 a9 43 13 3a f5 f5 e1 ba 75 9e f0 38
       -0.00030420962 0.0005617687 -0.0017239439 0.00011473607

ConvNet.10.bias f4 [3]
000000 c0 73 81 ba c9 37 ea 3c 1f ed dd bc
       -0.0009876415 0.028591054 -0.027090607
