DDPG_Conv/model/CarRacing-v0_critic.pt (torch, 155399 bytes, 22 tensors)

ConvNet.0.weight f4 [32, 3, 4, 4]
000000 04 28 b9 bb 5f 22 95 bb 15 de 9a bc 8c d0 46 bc
       -0.005650522 -0.0045512165 -0.018904725 -0.012134682
000010 9b a0 45 3b 23 7b 1f bb ce e8 51 bc c0 f0 61 bb
       0.0030155543 -0.002433487 -0.012811853 -0.0034475774
000020 a3 be a2 ba f0 28 b1 bb 41 e9 81 bc 10 31 c8 bb
       -0.0012416433 -0.0054064915 -0.015858294 -0.0061093643
000030 d5 de ad bb c3 d4 b8 bb 48 52 88 bc 43 2b 71 bb
       -0.0053061047 -0.0056405975 -0.016640797 -0.0036799468
000040 10 b1 2a 3c aa 6c 8c 3c 85 a8 1c 3c 7e d3 8c 3b
       0.010418192 0.017141659 0.009561663 0.004297673
000050 63 cf 5a 3c 06 c5 a7 3c 79 d4 7d 3c 0b 1a 40 3c
       0.013355109 0.02047969 0.015492552 0.011724959
000060 0e 3f 24 3c 69 b3 8a 3c 58 8f 6c 3c 17 67 0b 3c
       0.010024799 0.016931253 0.014438473 0.008508465
000070 66 09 2d 3c 89 97 1b 3c dd 38 2a 3c 93 cd eb 3b
       0.010561323 0.009496578 0.010389534 0.007196137
000080 48 f7 27 bb 60 b8 e1 bb e8 c2 75 bc 7b f4 94 39
       -0.002562957 -0.0068884343 -0.015000083 0.00028410912
000090 3b 69 83 3a 52 08 74 ba 15 6f 89 bb 1b 2f 4a 3b
       0.0010025868 -0.0009309101 -0.00419415 0.003085083
0000a0 4d 7e 5c 3a 02 5b 4a 3b 1c 96 36 bb 82 1d 5c 3b
       0.0008411154 0.0030876999 -0.0027860468 0.0033586924
0000b0 85 ee 52 3b d7 a3 93 3a 1c 6a fa bb 3e 3f c4 37
       0.0032185626 0.0011264038 -0.0076420438 2.339447e-05
0000c0 7c 6c bb 3b 68 b0 bb 3b 06 71 af 3b 3d 43 a4 3b
       0.0057197195 0.0057278164 0.0053540496 0.0050128982
0000d0 bb 61 47 3b bb a8 c7 3b 57 b9 22 3c 64 ef ee 3b
       0.0030423242 0.0060931123 0.009931884 0.007291721
0000e0 73 96 5c 3b 41 3e e7 3b 8c 34 d5 3b 70 ed d1 3b
       0.003365901 0.007056982 0.006506508 0.0064064786
0000f0 49 a3 c3 3b 80 5b 85 3b 7d 7b 1d 3c 8d ad 0a 3c
       0.005970393 0.0040697455 0.009611961 0.008464229
000100 f6 79 12 3b cb 7c f7 3b 64 92 86 3b 59 93 5b 3b
       0.0022350526 0.0075527183 0.0041068066 0.0033504574
000110 82 be e5 3b 46 cd b6 3b 53 da 1b 3c c6 44 fe 3b
       0.0070112357 0.0055786697 0.009512502 0.0077596633
000120 cb a3 a6 3b d0 91 08 3c 06 8c 8c 3b b9 50 dc 3b
       0.0050854436 0.008335546 0.004289153 0.00672349
000130 4d c4 c9 3a 06 a9 16 3c 7b 8c d6 3b e8 cb e7 3b
       0.0015393585 0.009195572 0.0065475083 0.007073868
000140 75 67 a4 3b 94 2a 8b 3b 94 07 54 3b f4 88 19 3c
       0.005017216 0.004247019 0.003235315 0.009371031
000150 62 13 0f 3b 8f 67 2f 3b a8 8c c0 3b 6e 1f 99 3b
       0.0021831621 0.0026764607 0.0058761425 0.004672936
000160 35 52 f6 3a 14 2a 61 3b e4 f3 d7 3b 25 7b fe 3b
       0.001879281 0.0034357356 0.0065903533 0.007766145
000170 a7 1d 72 3b 02 ef da 3b a2 08 a8 3b 45 a7 0f 3c
       0.0036943944 0.006681324 0.0051279822 0.0087679075
000180 1b cb b7 3b 7b 13 56 3c 50 62 f5 3b c4 14 c0 3b
       0.005608929 0.013066168 0.0074885264 0.0058618505
000190 63 2e b0 3a 8f 12 02 3c b8 79 c8 3b 32 1d 91 3b
       0.0013441559 0.007938995 0.0061180256 0.004428529
0001a0 ac 35 90 3b 50 63 98 3b 03 b1 25 bb 90 0f e9 ba
       0.0044009294 0.004650511 -0.002528251 -0.0017781127
0001b0 1c 2a 8a 3b c5 d8 04 3c f8 72 07 3c c9 e8 31 3b
       0.0042164456 0.0081083225 0.008267157 0.0027146807
0001c0 c0 64 c4 3b b2 28 44 3c dc 8a 48 3c cb 21 53 3c
       0.0059934556 0.011972593 0.012240138 0.012886475
0001d0 be 8a 96 3b 43 4e 30 3c a9 bb 21 3c 67 2d 0b 3b
       0.004594176 0.010760847 0.009871402 0.0021236779
0001e0 34 b9 b0 3b 5a cd 49 3c 39 9a 4a 3c 6c 6e 31 3b
       0.0053931717 0.012317026 0.012365871 0.0027073873
0001f0 66 e4 1b 3c c5 90 38 3c 73 01 16 3c 1b 08 0d 3b
       0.009514904 0.0112649845 0.009155619 0.0021519724
000200 5b d8 21 3b 1d cf ce 3b 0b f8 eb 3b 4e 2f 1e 3b
       0.0024695608 0.006311311 0.0072012 0.0024137083
000210 d5 f0 f9 39 6d 25 d8 3b e4 4c ef 3b 83 f9 b7 3b
       0.00047672415 0.0065962584 0.0073028672 0.005614461
000220 d2 3f 2c 3b c3 15 10 3c a3 da d1 3b e8 c4 55 3a
       0.0026283157 0.008794251 0.0064042374 0.00081546465
000230 55 b1 fc 3b 7e 77 09 3c a4 73 9b 3b 73 93 b8 3b
       0.0077115693 0.008390306 0.00474401 0.0056328117
000240 eb 17 25 bc 53 4b 25 bb 34 94 56 bb bc 4c 52 bb
       -0.010076503 -0.0025221899 -0.0032742145 -0.0032089194
000250 b7 c1 f3 bb 8f eb 63 bb 2f 3a c4 3a 4d d4 66 3a
       -0.007438864 -0.0034777855 0.0014970953 0.0008805439
000260 00 26 b0 bb ad 2f 76 bb 95 00 3b 3a 48 db 79 bb
       -0.0053756237 -0.0037565038 0.00071335706 -0.0038125087
000270 84 95 ca bb 16 42 52 bb 15 d6 0a bc ce d7 4e bc
       -0.0061823744 -0.0032082847 -0.008473893 -0.012624694
000280 ab bc ed bb f5 5a 98 bb 83 60 81 bb 69 55 ac bb
       -0.007255157 -0.004649515 -0.0039482727 -0.005259205
000290 2a 13 0b bc 1c be 2f bc 25 40 19 bb fd 8d f6 bb
       -0.008488456 -0.010726478 -0.002338418 -0.0075242505
0002a0 ed 16 c3 bb 11 79 c9 bb 87 03 20 bb fb 80 24 bc
       -0.0059536607 -0.0061484654 -0.0024416165 -0.010040517
0002b0 41 02 06 bc c6 62 04 bc 43 6c bd bb c4 7f 19 bc
       -0.008179248 -0.00808019 -0.005780728 -0.009368841
0002c0 0f 87 dd bb c2 45 cb bb 23 db a8 bb 8d c1 c4 bb
       -0.006760485 -0.006203384 -0.0051530763 -0.0060045184
0002d0 76 8e 08 bc 73 4c e6 bb 66 07 0a bc db 01 d3 bb
       -0.008334747 -0.0070281564 -0.0084246155 -0.00643943
0002e0 ff c3 1e bc 67 1e c4 bb fd 4b ec bb d4 89 f3 bb
       -0.009690284 -0.0059850696 -0.007211207 -0.007432202
0002f0 c3 4f b3 ba 6b 1c 55 bb 50 9a ae bb a5 66 81 bb
       -0.0013680387 -0.003251816 -0.005328454 -0.0039490038
000300 86 40 10 3a 5c 5c 95 bb 08 6f 8a bb 85 9e 96 bb
       0.0005502779 -0.0045581292 -0.0042246617 -0.0045965337
000310 98 1e 2d bb 96 0e bb bb f9 1a f2 ba de f8 a6 bb
       -0.002641594 -0.005708526 -0.0018471173 -0.0050955852
000320 ef 3b 75 bb 23 21 5f bb 44 4d 07 bb 62 27 85 bb
       -0.0037419756 -0.003404685 -0.002064542 -0.0040635327
000330 4e 8c 49 3b fc c8 db ba 69 32 48 bb af c3 84 bb
       0.0030753794 -0.0016768272 -0.0030547625 -0.0040516476
000340 8b 98 c9 bb c5 1e 34 bc 78 d4 8f bb 48 16 ac bb
       -0.0061522177 -0.010993664 -0.004389342 -0.0052516796
000350 d1 b8 ad bb 4c 6a 92 bc b4 5c 04 bc 2e 40 39 bc
       -0.005301573 -0.017872952 -0.008078743 -0.011306806
000360 24 c5 b9 bb 23 5f 31 bc 69 e3 7b bb 7f 33 46 bc
       -0.005669253 -0.010825905 -0.0038435108 -0.012097239
000370 4f c8 42 ba 67 fc 58 bc 5f 63 2c bc 4c 6d 1a bc
       -0.0007430361 -0.013243771 -0.010521739 -0.0094254725
000380 48 ff 90 3b 69 9e e6 b7 86 c5 23 3b cd e2 22 bb
       0.004424963 -2.7491902e-05 0.002498956 -0.0024854422
000390 ba 0b 18 3c 8e 04 93 ba d4 f9 bc 3b 8f a6 01 bc
       0.00928014 -0.0011216567 0.0057670865 -0.007913246
0003a0 a4 17 0f 3c 73 8e c0 3b 07 7c 56 3a 52 0c a5 bb
       0.008733664 0.0058763563 0.00081819337 -0.005036869
0003b0 a9 94 7e 3c 5b 26 cc 3a 94 8f 61 3c ba d5 11 bb
       0.015538373 0.0015575396 0.013767142 -0.0022252635
0003c0 f5 50 4a bc 2a d2 17 bc 45 21 0c bc 58 2f fc bb
       -0.012348403 -0.009266416 -0.008552854 -0.0076960735
0003d0 54 9c d1 bb 67 fa a9 bb 42 de 09 bc 1c 3e ca ba
       -0.0063968096 -0.005187321 -0.008414807 -0.0015429887
0003e0 72 54 0c bc 4d 85 df bb 17 17 cd bb 10 78 81 bb
       -0.008565055 -0.0068213106 -0.006258856 -0.00395108
0003f0 60 f6 b9 bb a0 05 c2 bb 93 f8 10 bc 5f 99 1e bb
       -0.005675122 -0.0059210807 -0.008848327 -0.0024200303

ConvNet.0.bias f4 [32]
000000 f8 c0 98 39 2d a9 24 b9 43 b7 54 39 bc 26 36 39
       0.00029135472 -0.00015703282 0.00020286166 0.00017371302
000010 e1 38 6b b9 97 d9 54 39 92 71 c9 39 4e d9 78 38
       -0.00022432535 0.00020298954 0.00038422324 5.933019e-05
000020 54 0c b2 b6 8e 9f 67 b9 f5 9a 06 ba 44 5d 9d b9
       -5.3062486e-06 -0.00022089315 -0.0005134785 -0.00030014862
000030 17 66 ef b7 a9 bc e8 37 a3 7c cb b9 3e 09 af 38
       -2.853856e-05 2.7744407e-05 -0.0003881204 8.346372e-05
000040 e2 58 99 39 5f 68 e1 b9 7d d8 99 b8 df 5b f8 b7
       0.00029248657 -0.00042993107 -7.3359326e-05 -2.9606685e-05
000050 dd f9 8c b9 0d e3 0a 39 54 47 a6 b7 29 3e a3 b9
       -0.00026889044 0.00013245289 -1.9821957e-05 -0.00031136096
000060 23 cb f4 b9 d1 73 e0 38 42 5a e3 b8 ab 93 29 b9
       -0.00046690655 0.00010702725 -0.00010841015 -0.00016172107
000070 df b4 29 38 81 24 26 b9 5f b4 dc 38 93 e2 7c b7
       4.046119e-05 -0.00015844592 0.00010524014 -1.5073124e-05

ConvNet.1.weight f4 [32]
000000 ea cd 80 3f 27 bc 7e 3f e0 07 81 3f ed 17 7e 3f
       1.006284 0.9950585 1.0080528 0.9925526
000010 a3 de 7f 3f 3b 0f 7e 3f be e1 7f 3f b1 86 7f 3f
       0.9994909 0.9924199 0.9995383 0.998149
000020 cf d5 7f 3f 5d 31 81 3f f9 8f 80 3f 95 1f 80 3f
       0.9993562 1.009319 1.0043937 1.0009638
000030 9b 91 7e 3f 9f 9e 80 3f 21 c5 7d 3f 30 4a 80 3f
       0.99440926 1.0048407 0.9912892 1.002264
000040 8e 12 7e 3f 40 35 81 3f dd 30 81 3f b6 e8 7f 3f
       0.9924706 1.0094376 1.0093037 0.99964464
000050 90 38 7f 3f 8d 9e 7f 3f 6d a0 80 3f 27 12 81 3f
       0.9969568 0.99851304 1.0048958 1.0083665
000060 cd 82 7e 3f 00 aa 7d 3f 0d d8 80 3f 4d 16 7f 3f
       0.99418336 0.99087524 1.0065933 0.99643403
000070 f8 1c 80 3f 6d 4c 80 3f 7c 3f 80 3f 49 87 7c 3f
       1.000884 1.0023323 1.0019374 0.9864393

ConvNet.1.bias f4 [32]
000000 37 98 05 bb e5 cf 98 bb 12 f7 0e 3a c7 91 14 bc
       -0.0020384917 -0.004663455 0.00054536865 -0.009067959
000010 c4 ed c3 bc 2a 27 f2 bb bf a6 c2 ba 59 2a 84 bc
       -0.023917086 -0.0073899226 -0.001485072 -0.016133474
000020 93 a8 6a bc ff 21 60 ba 28 05 3a 3b 23 56 f3 3a
       -0.014322418 -0.00085499877 0.002838442 0.00185651
000030 12 8e 89 39 3a 0b e5 ba 7d ef 0d bc 6b ff 32 b9
       0.00026236527 -0.0017474659 -0.0086630555 -0.00017070553
000040 af f1 47 bc b7 31 63 3b bb 39 61 3b 7d 99 5b bc
       -0.012203618 0.0034667084 0.0034366685 -0.013403294
000050 d3 d6 9e bc 08 0b bd bb 8c 9a 5b 3b 30 bd cc ba
       -0.019389546 -0.0057691373 0.0033508865 -0.0015620347
000060 4f 9e 87 bc 7b e0 fb bb a7 c6 8f bc 37 49 3f 3c
       -0.01655498 -0.0076866723 -0.01755078 0.011675171
000070 88 bb ea bb be e2 bb bc 6a 76 85 bc 24 34 b4 bb
       -0.0071634687 -0.022935268 -0.016291816 -0.0054993797

ConvNet.1.running_mean f4 [32]
000000 bf 1e 9d 41 c2 22 91 42 8c 55 9e 42 9d c4 8f c2
       19.640013 72.56789 79.16708 -71.88401
000010 b6 0f 10 c2 55 98 82 c2 4b f3 8d 42 75 78 2a c2
       -36.015343 -65.29752 70.97518 -42.617634
000020 8d 96 86 42 08 88 25 42 9b be 96 42 c0 ae a1 c2
       67.294044 41.382843 75.37228 -80.84131
000030 b9 e7 01 41 b7 fb 9e 42 16 33 8c 42 b6 b6 2f c2
       8.119073 79.49163 70.09978 -43.92843
000040 9e a3 8f c2 af 80 a5 42 85 ed 86 42 7c 7e 9d c2
       -71.819565 82.751335 67.463905 -78.74704
000050 47 75 44 c2 db af 94 42 fd 3b 99 42 c9 c3 71 42
       -49.11453 74.34347 76.617165 60.441196
000060 c4 cc 27 42 00 20 9e 42 67 34 2c c2 77 58 40 42
       41.949966 79.0625 -43.051174 48.08639
000070 e8 9f ea c2 ac 27 82 41 6d 1c 90 c2 d6 bd 81 c2
       -117.31232 16.269371 -72.05552 -64.87077

ConvNet.1.running_var f4 [32]
000000 d0 b9 bb 42 6e 43 3e 44 e9 76 57 44 06 48 3b 44
       93.862915 761.0536 861.858 749.12537
000010 45 3e 4c 43 26 c3 10 44 a3 ad 35 44 e6 50 b0 43
       204.24324 579.0492 726.7131 352.63202
000020 5a ec 2d 44 ad 15 71 43 82 99 4b 44 b3 3a 6a 44
       695.693 241.08467 814.39856 936.9172
000030 14 5f 00 42 a9 16 5a 44 68 56 2c 44 ff 12 97 43
       32.09285 872.35406 689.3501 302.1484
000040 60 35 52 44 ee 9a 70 44 57 9c 21 44 ff 82 53 44
       840.834 962.4208 646.4428 846.0468
000050 04 c4 b2 43 05 53 3c 44 90 d7 58 44 d8 4d 0d 44
       357.53137 753.2972 867.36816 565.2163
000060 d2 53 78 43 72 ef 6a 44 bf 6a 85 43 dc 55 c1 43
       248.32742 939.74133 266.83395 386.67078
000070 c4 35 f5 44 8b 51 81 42 c3 b9 34 44 20 31 2c 44
       1961.6802 64.65926 722.9025 688.7676

ConvNet.3.weight f4 [32, 32, 4, 4]
000000 f1 e1 a5 3b 76 9a 2e 3b dd 61 8e 3b 66 7f fe 3a
       0.0050623347 0.002664236 0.0043451623 0.001941663
000010 d1 6b ff 3b 4d 7d d5 b9 60 19 a5 3a a7 72 b5 bb
       0.007794835 -0.00040719882 0.0012596063 -0.0055373493
000020 46 d1 7f 3b b4 19 2a 3b 51 4a 7b 3b 8c 5c 8d bb
       0.0039034649 0.0025955262 0.0038343857 -0.004314011
000030 37 04 7e 3b c6 cb a0 3b 03 1e 4e ba 5c 73 83 bb
       0.0038759836 0.004907104 -0.00078627485 -0.0040115546
000040 c1 4f c1 3b 73 8d e9 3b d6 b5 00 bc 28 40 d2 bb
       0.0058994 0.0071274578 -0.007855853 -0.0064163394
000050 aa fb 5a bb 66 89 32 b9 86 a9 c1 bb a2 0a 02 bc
       -0.0033414164 -0.00017026588 -0.0059101013 -0.007937105
000060 07 1a d2 3a fe d7 bb 3b 33 d5 fc ba 3b 90 a9 bb
       0.0016029485 0.0057325354 -0.0019289613 -0.0051746643
000070 49 f1 b7 3b ba 9f 05 3c 02 11 e2 b9 e5 9b 17 ba
       0.00561348 0.008155758 -0.0004311875 -0.0005783423
000080 87 4e a6 3b 93 63 38 3b 81 94 7e 3b 53 65 24 bb
       0.005075279 0.0028135523 0.003884584 -0.0025084808
000090 94 34 4f 3b e1 8c b6 3b 2d 1a 91 39 a2 b6 bc bb
       0.0031617032 0.0055709933 0.00027676058 -0.005759076
0000a0 82 75 de 3b c8 21 f9 3b 8f 09 dc 3b 36 c5 0c bb
       0.0067889104 0.007602904 0.0067150067 -0.0021479852
0000b0 bb 48 db 3b 06 0c 73 3b 6d 4f 3e 3b 09 63 00 bb
       0.0066920198 0.0037086024 0.002903904 -0.001959028
0000c0 e3 ca 1e 3c 05 0c 43 3c ce d1 ab 3b 41 ea 03 3c
       0.009691927 0.011904721 0.0052435165 0.008051456
0000d0 e3 9a 19 3c 8d 39 09 3c 1e 0c 1a 3c bf f3 c8 3b
       0.009375307 0.008375538 0.009402303 0.0061325724
0000e0 c0 46 bf 3b 22 1e e5 3b 2f 00 cc 3b 4f 22 15 3c
       0.0058372915 0.0069921175 0.006225608 0.009102418
0000f0 f1 02 e8 3b 4d 83 28 3c 72 91 10 3c e3 4a bf 3b
       0.007080429 0.010285211 0.008823739 0.0058377846
000100 47 83 c2 3a a6 58 86 bb 18 a2 85 3a ea 86 91 ba
       0.0014840149 -0.004099923 0.0010195402 -0.001110283
000110 04 28 29 3c 2b e5 72 ba 06 1a 1b 3b b5 a7 5a 3c
       0.010324482 -0.0009265716 0.0023666634 0.013345649
000120 fe 0c 1e 3c 19 3f 1f 3c 8a dc cc 3b bf 11 3e 3c
       0.009646652 0.0097196335 0.0062518762 0.011600911
000130 9e dc cf 3b 7e e8 15 3c 8b 6f 1c 3c e0 55 09 3c
       0.0063434383 0.009149669 0.009548078 0.008382291
000140 1a 44 80 3b 70 7e ac 3b 8f 3d cf 3b 80 ba 5e 3b
       0.0039143683 0.005264096 0.006324477 0.0033985674
000150 e9 f4 dd 3b 86 ae a9 3b 8c fc 7e 3b c6 20 ad 3b
       0.0067735803 0.0051782755 0.0038907854 0.005283448
000160 3b dd 5e 3b a6 cf c8 3b 71 a8 21 3b 6a a2 e7 3b
       0.0034006375 0.0061282692 0.002466705 0.007068922
000170 f3 9c fb 3a 6f 75 49 3b 2e 13 a7 3b e6 ce b1 3b
       0.0019196555 0.0030740162 0.005098722 0.0054262755
000180 a9 6b 80 3b af a4 94 3b da 2b 77 3b 50 58 30 3b
       0.003919084 0.0045362334 0.0037715347 0.0026908107
000190 9d 8d f9 39 2b 04 fd 3b 51 a7 aa 39 9e fa dc ba
       0.0004759849 0.007721444 0.00032549587 -0.0016859358
0001a0 6c c6 88 3b 59 6b 13 3c fb 1f 8e 3b 37 00 8c 3b
       0.0041740444 0.008997762 0.0043373085 0.0042724865
0001b0 86 11 b3 3b c5 50 12 3c ba 56 d9 3b 2c 3e c2 3a
       0.0054647354 0.00893039 0.006632653 0.0014819554
0001c0 bd d0 cb 3b 8f 52 28 3b ab ac 63 3b e5 75 b8 3b
       0.006219952 0.0025683974 0.003474037 0.0056292885
0001d0 bd 8a ce 3b 66 17 89 3b e1 74 ba 3a 02 14 33 3c
       0.00630316 0.0041836975 0.0014225506 0.010930063
0001e0 ce 15 4b 3b 1f ef b1 3b d8 db 95 3b 6c db b3 3b
       0.0030988338 0.005430117 0.0045733266 0.0054888036
0001f0 f3 84 ed 3b cb 2b d9 3b f7 68 6a 3b 9a 60 0e 3c
       0.007248515 0.006627535 0.003576813 0.008690024
000200 d9 12 a5 3b 65 1d 7b 3b 92 59 78 3b 22 96 9c 3b
       0.005037647 0.003831708 0.0037895185 0.0047786394
000210 f6 a0 bc ba f1 20 53 3b eb 06 80 3a 30 df 63 bb
       -0.0014391232 0.003221568 0.0009767687 -0.0034770481
000220 09 02 96 ba 47 a3 82 3b 9f 34 2e 3b 4d f7 9a 3a
       -0.0011444698 0.0039867493 0.0026581658 0.0011822969
000230 75 e1 9a 3a 93 17 3c ba 13 7a 5d 3b 34 91 d2 3a
       0.0011816459 -0.00071751437 0.0033794686 0.0016065002
000240 d8 ba 62 3b 54 48 38 3b 46 cd 9d 3a b2 5e b8 3b
       0.003459623 0.0028119283 0.0012039326 0.005626523
000250 35 e6 da 39 69 a6 c3 3a ee 32 6b ba 96 a8 b0 bb
       0.00041751718 0.0014926913 -0.00089721277 -0.0053911908
000260 a5 52 10 ba aa b7 c4 3a 7f 1a 69 b9 21 46 5e bb
       -0.0005505479 0.001500835 -0.00022230482 -0.0033916312
000270 b2 23 33 3a 61 5d 5c 3a 12 91 19 ba 51 61 0f 3a
       0.0006833627 0.00084062485 -0.0005858104 0.00054695184
000280 c3 77 b0 3b 66 d4 aa 3a 05 69 87 3b 39 5f b8 39
       0.0053853705 0.001303327 0.0041323924 0.0003516616
000290 0d 0c 7b 3b 30 50 53 3b 47 57 86 b9 2c 34 dc ba
       0.0038306743 0.003224384 -0.00025623498 -0.0016800216
0002a0 d3 ed 71 3b b8 b4 ba 3b 08 41 3f 3b ab a6 9a 3b
       0.0036915436 0.005697813 0.0029183049 0.0047195754
0002b0 f7 14 31 3b 93 19 fb 3b a1 dd 93 3b 3b 11 84 3b
       0.0027020553 0.007662961 0.004512504 0.0040303743
0002c0 4a 34 d4 ba 4f 4c 3c ba 29 ec f1 3b 22 35 56 3c
       -0.00161899 -0.0007183002 0.007382889 0.013074191
0002d0 84 d5 83 3b c2 40 33 3c 78 9b d4 3b c4 50 46 3c
       0.004023256 0.010940732 0.00648826 0.012104217
0002e0 4a de 06 3c 3a da 23 3c 83 af a4 3b 9b 1e c1 3b
       0.008231709 0.01000076 0.0050258054 0.005893541
0002f0 12 e2 bb 3b 4b fd 71 3b 5c 73 f5 3a d7 fc a7 3b
       0.005733737 0.0036924656 0.0018726396 0.0051265764
000300 16 1c bd bb 8d 1f 24 bc 0e c7 4d bc eb 0b 16 bc
       -0.0057711704 -0.010017288 -0.012559665 -0.009158115
000310 96 d4 06 bc 3f 25 29 bc b8 37 92 b9 e8 ba 94 ba
       -0.008229395 -0.010323822 -0.00027888804 -0.0011347206
000320 40 d9 f0 bb 5b c2 16 bc 57 98 c0 3a 3a ed bf ba
       -0.007350117 -0.009201611 0.0014693838 -0.0014642843
000330 23 f9 08 bc 0c 2d 86 3a 78 d8 d5 3a 1d 2b b9 3a
       -0.00836018 0.0010236814 0.0016315123 0.0014127229
000340 23 94 79 3b 21 75 63 3b 89 30 86 3b ab 74 88 3b
       0.003808268 0.0034707265 0.0040951413 0.0041642985
000350 a3 27 11 bb 52 34 81 38 df 2c 94 3b 02 20 09 bb
       -0.002214887 6.160945e-05 0.0045219506 -0.002092362
000360 97 bc 9b 3b 2e 9a b9 3b ae 5f 59 3b 09 cf d7 ba
       0.0047527063 0.0056641316 0.0033168602 -0.00164649
000370 33 a2 e3 3a f3 78 62 3b bd e0 02 b9 01 14 af ba
       0.0017367065 0.0034556955 -0.00012481488 -0.0013357402
000380 d7 88 b1 3b 3b b4 33 3b 8b d5 63 bb ce ee ad bb
       0.005417924 0.0027420658 -0.0034764733 -0.0053080088
000390 92 5b fc bb 8c ce 4a ba 51 b2 dc bb d4 68 26 bc
       -0.0077013457 -0.00077364664 -0.006735124 -0.010156829
0003a0 de 0e e1 3b af 57 a7 3b 11 30 f3 3a 08 41 43 ba
       0.0068682274 0.0051068882 0.0018553754 -0.000744835
0003b0 a4 e3 2b 3b fe 42 bf 3b 0f 0e ba bb c2 94 d2 bb
       0.0026228214 0.0058368435 -0.0056779454 -0.0064264247
0003c0 af a2 84 3b 61 35 0a 3b c5 ae 55 bb 1f c7 c4 3b
       0.0040477137 0.0021088945 -0.0032605391 0.0060051824
0003d0 d2 69 86 3b 86 ca e1 39 e2 8e 19 bb 6a c9 3b 3b
       0.0041019702 0.00043066236 -0.0023431112 0.0028653988
0003e0 47 36 6a 3b c0 1f 91 3b dd cd c4 3b 7a 80 0e 3c
       0.0035737918 0.0044288337 0.006005986 0.008697623
0003f0 87 a9 07 3b 1e 88 e8 3b 7b 8c 75 3b e8 22 e1 3b
       0.0020700411 0.0070963046 0.0037467766 0.006870616

ConvNet.3.bias f4 [32]
000000 fe cd a8 3a 1b e4 10 bb ca 9c 5e ba 0d 7f 39 3b
       0.0012878773 -0.0022108618 -0.00084919913 0.0028304488
000010 33 5d 3f 3a 52 9a 88 bb d3 6e 1f 3a 43 bf a8 b9
       0.00072999595 -0.004168787 0.0006081883 -0.00032185958
000020 0c 5c d4 3a f1 a8 1d 3a 80 5d 3f 3b 42 2e 04 3b
       0.0016201749 0.0006014249 0.0029200017 0.0020169173
000030 34 50 c5 ba 16 46 1c 3b f6 91 10 3b 47 85 3d 3a
       -0.001505381 0.0023845485 0.0022059656 0.00072296377
000040 05 87 2b 3a 6e 07 8c 3b 00 37 ac ba 56 3f 37 3b
       0.0006543252 0.0042733466 -0.001313895 0.0027961335
000050 b7 0b 3e 3a 98 a5 3f 3b d8 7c b5 ba aa 05 02 39
       0.00072496705 0.0029242989 -0.001384641 0.00012399876
000060 c4 75 c5 ba 04 3c df ba 79 0e c2 b8 2d 98 5d bb
       -0.0015065004 -0.0017031436 -9.2533366e-05 -0.0033812628
000070 c6 68 df ba df df 20 39 5b 54 2e bb 7e 86 50 bb
       -0.0017044775 0.00015342188 -0.0026600573 -0.0031818445

ConvNet.4.weight f4 [32]
000000 6c 09 81 3f 59 01 80 3f 34 33 80 3f e5 ec 7c 3f
       1.0081 1.0000411 1.0015626 0.9879897
000010 4b 25 7f 3f a7 17 80 3f df f4 80 3f e1 b6 7d 3f
       0.9966628 1.0007218 1.0074729 0.99107176
000020 43 cb 80 3f 57 5f 81 3f f1 52 82 3f 68 10 7e 3f
       1.006203 1.010722 1.0181562 0.99243784
000030 7a e3 7f 3f 3d 73 7f 3f 34 16 80 3f 10 81 7f 3f
       0.99956477 0.99785215 1.0006776 0.9980631
000040 eb 36 80 3f 22 29 80 3f 75 c4 7e 3f 49 bb 7c 3f
       1.001676 1.0012553 0.9951852 0.98723274
000050 87 b4 80 3f b7 b8 80 3f 56 8f 7f 3f 7d c4 80 3f
       1.0055093 1.005637 0.9982809 1.0059963
000060 58 6b 80 3f 8e a8 80 3f 7b 53 7e 3f 8b 3b 7e 3f
       1.0032759 1.0051439 0.9934613 0.99309605
000070 77 a7 81 3f e0 9a 7a 3f 65 42 80 3f 7b e7 7f 3f
       1.0129231 0.9789257 1.0020262 0.99962586

ConvNet.4.bias f4 [32]
000000 fc 11 17 3b e9 ed 23 bc 98 e1 32 bb 0c 56 80 bc
       0.002305149 -0.010005453 -0.002729511 -0.01566603
000010 6b c6 e4 3a 5b df 59 bb 48 07 1b bc e1 0d 1a bc
       0.0017454153 -0.0033244702 -0.009462185 -0.009402723
000020 0c d4 25 bb c8 05 20 bb 53 5e 86 bb 0d 89 7e 3a
       -0.0025303392 -0.0024417508 -0.0041006 0.0009709753
000030 0d 49 b9 bc a4 3b a2 bb d5 84 49 bc 3c 2f fd bb
       -0.022617841 -0.0049509574 -0.012299736 -0.007726578
000040 e4 b0 77 bb e0 59 b6 bc b2 04 c2 bb f0 34 31 bc
       -0.0037794644 -0.022259653 -0.00592097 -0.010815844
000050 3c bf 82 bb 64 dd ce 3b 64 40 c6 ba 2b 4c 05 bb
       -0.003990082 0.006313013 -0.0015125391 -0.002033959
000060 36 58 03 3b 13 94 af bb 06 8f 8d bc 7b 4f 80 bc
       0.0020041591 -0.005358228 -0.017280113 -0.0156629
000070 ee a8 75 bb c3 5f c1 bc 7b e8 33 bc 62 26 94 3b
       -0.0037484723 -0.023605233 -0.010980721 0.004521177

ConvNet.4.running_mean f4 [32]
000000 a4 6a 02 3f 3b a3 ed bd 4a 0e 59 3f f7 1b f0 bc
       0.5094397 -0.11603399 0.8478743 -0.02931021
000010 2c 18 6f 3e 69 de 25 3f da 31 d0 3e 92 ed df be
       0.23349065 0.64792496 0.40663034 -0.4373594
000020 a4 7a 1e 3f 25 11 3a 3f 89 49 ba 3e 26 d8 84 be
       0.61905885 0.7268241 0.36384228 -0.25946158
000030 0e 5a 6a be 3e 60 23 3f aa 9b 07 3f 0e 13 cc 3e
       -0.22885916 0.6381873 0.529719 0.39858288
000040 79 d2 07 be 93 b1 8a 3e 67 b9 f1 be 7e 84 1b bf
       -0.13263883 0.27088603 -0.47211763 -0.6074904
000050 b3 58 64 3e 3c 01 1f 3f f8 7f 20 3f 54 dd 72 be
       0.22299461 0.6211126 0.62695265 -0.23717242
000060 e7 37 b6 3e 98 87 c4 3e e3 4d d2 3e 80 db 16 3e
       0.35589525 0.383847 0.41075048 0.1473217
000070 d0 a9 af 3e 2f 3d 2c be f5 c5 9a 3e 6c fb 1e 3f
       0.34309244 -0.16820215 0.30229154 0.6210239

ConvNet.4.running_var f4 [32]
000000 60 b5 99 3e 38 2d 95 3e aa ce d1 3d db be 5c 3e
       0.3002119 0.29136062 0.10244496 0.2155718
000010 d4 4f a3 3e bf ef fc 3d 9f ec 34 3e 5a 11 63 3e
       0.31896842 0.123504154 0.17668389 0.22174588
000020 95 b2 07 3e a9 5e 07 3e 22 66 00 3d 99 8c af 3e
       0.13251717 0.13219704 0.0313474 0.34286955
000030 28 3f 94 3e 3f d6 d8 3d aa 02 4c 3d 6f b3 3e 3e
       0.28954434 0.10587739 0.04980723 0.18623136
000040 8e 64 13 3e 44 da 50 3e 8e a9 1a 3e 9b 60 68 3e
       0.14393827 0.20395762 0.15103742 0.22693102
000050 e8 c8 88 3d 58 e6 b0 3d 06 47 b8 3d 58 19 27 3e
       0.06678945 0.086376846 0.08997922 0.16318262
000060 78 05 4d 3e 15 08 0d 3e 36 f0 9e 3e b1 87 ab 3e
       0.20021617 0.13772614 0.3104264 0.33501962
000070 92 c8 fb 3d d7 61 10 3f a1 28 c9 3c 52 9c d5 3d
       0.12294115 0.5639929 0.024555506 0.10430206

ConvNet.6.weight f4 [32, 32, 4, 4]
000000 33 72 38 bc 95 2f 23 bb ab 73 28 b9 fd ff 9c bb
       -0.011257696 -0.0024900187 -0.00016064818 -0.0047912584
000010 e3 ad 1c 3c c8 72 91 3b 0d 38 f5 3b 5f c8 23 3c
       0.009562942 0.004438732 0.0074834884 0.009996503
000020 0f b8 09 3c b9 b5 01 3c 41 b6 1c 3c fa 86 4f 3c
       0.008405699 0.007916861 0.009564937 0.012666458
000030 0c b6 38 3a 08 18 cd 3a 8e 5d a5 3a 77 eb 97 3b
       0.000704617 0.0015647421 0.0012616382 0.004636224
000040 62 be a8 bb 8e c7 dd bb 75 5d d1 3b 61 2e 10 3c
       -0.0051496485 -0.0067681735 0.006389315 0.00880012
000050 ac 81 6f 3b b9 e8 a6 3a 5d 9d d6 3b fe 9b 2f 3c
       0.0036545796 0.0012734152 0.006549521 0.010718344
000060 82 f9 b6 3b 2a be e2 bb 18 15 9d 3a e7 fd 9d b9
       0.005583943 -0.006919642 0.0011984436 -0.00030134546
000070 95 6f 03 bc 8e 4b 38 bc db 17 05 bb 35 60 81 3b
       -0.008022209 -0.011248482 -0.0020308408 0.0039482363
000080 32 c3 15 bc 87 b8 f5 bb cf ca cf 3a 5b bb 45 bb
       -0.0091407765 -0.007498804 0.0015853288 -0.0030171487
000090 37 fa a5 b9 5a 46 03 3c 00 b4 dc 3b 3f b2 cd 37
       -0.00031657677 0.008012379 0.006735325 2.4520907e-05
0000a0 9e af d9 3b 8a b4 0f 3c 7f 21 df 3b cb 44 34 3c
       0.0066432497 0.008771071 0.006809413 0.01100273
0000b0 f0 bd 84 bb e7 ee 77 3b ab f6 a6 3b 88 fe 31 3b
       -0.0040509626 0.0037831606 0.005095323 0.002715977
0000c0 15 14 58 3a 4f b6 a2 3b 12 95 65 3a bc de b0 bb
       0.00082427385 0.0049655805 0.000875787 -0.0053976458
0000d0 e9 8f 8b 3b 97 09 64 bb 56 37 d9 bb 5d 1a 20 bc
       0.004259099 -0.0034795755 -0.006628911 -0.0097719105
0000e0 38 2d c9 b8 23 62 0c bc cf 63 36 38 e9 40 f1 bb
       -9.5928495e-05 -0.0085683195 4.3485135e-05 -0.007362474
0000f0 e6 b6 49 bb b4 eb c2 bb 75 c1 4d bb b2 5a e4 ba
       -0.0030779182 -0.005948508 -0.0031395827 -0.0017422049
000100 7b f1 da 3b 09 9f ca bb 38 5e 60 bc bb c8 12 bc
       0.0066816187 -0.0061835092 -0.0136943385 -0.008958991
000110 61 1b 23 3c d3 60 b7 3b cf ae e7 3b bf 8a a0 b8
       0.009955258 0.005596259 0.0070703994 -7.655238e-05
000120 78 e1 c9 3b 2f 7f a3 3b c6 8d df 3b 3a c7 70 3b
       0.006160911 0.0049895267 0.0068223206 0.0036739842
000130 9a 92 94 3b 52 99 17 bb 82 d3 9c b8 2a 5d 03 39
       0.004534078 -0.0023132158 -7.478056e-05 0.0001252784
000140 c9 bf fc ba 0e 8a 0c 3c 17 ec 19 3a c5 34 0c bc
       -0.0019283231 0.008577837 0.0005871667 -0.008557503
000150 56 74 ee 3b 13 c0 f9 3b 32 18 ed 3b 77 31 f7 3b
       0.007277052 0.007621774 0.0072355503 0.0075437385
000160 a9 1b 21 3c 2f 83 2f 3c f6 00 ee 3b 7e b5 5f 3c
       0.009833255 0.010712429 0.007263298 0.013654111
000170 36 40 3a 3b 6a b8 a3 3b e9 1b dd 3b 5b e3 bf 3b
       0.002841962 0.004996349 0.006747712 0.0058559603
000180 4e 58 1d 3c 99 a5 49 3c a3 71 c0 3b 33 db d2 ba
       0.009603573 0.012307548 0.0058729216 -0.0016087055
000190 98 de 43 ba 36 0e 03 3c 1d 76 5e 3b 16 b7 1b 3c
       -0.0007471829 0.007998994 0.0033944913 0.0095041
0001a0 72 56 55 3b 13 a6 17 3c 4b a3 b7 3b 3e 6d 15 3c
       0.0032552746 0.009255904 0.005604183 0.009120284
0001b0 6d b5 1c bb bb 3d b8 39 3a 57 c8 3a 81 f6 ec 3b
       -0.002391185 0.00035141208 0.0015284785 0.007231534
0001c0 bc d7 b5 3b 38 59 a6 3b 68 96 9b bb 1f a2 22 bc
       0.005549399 0.0050765537 -0.0047481544 -0.009926348
0001d0 ce 31 42 3c 6f 48 f2 3b 0e 3b a3 bb 44 fa 9d bb
       0.011852695 0.0073938887 -0.004981405 -0.0048210938
0001e0 25 39 a7 bb e0 22 2e 3b cb a7 04 bc 13 1f 07 bc
       -0.0051032477 0.002657108 -0.008096646 -0.008247155
0001f0 ba c8 52 bb d9 0a 8a 3b 3a 8a b6 bb b2 ee 0d bb
       -0.00321631 0.004212719 -0.005570677 -0.0021657166
000200 f0 6a 35 3c 28 d9 83 ba 23 ed c1 ba 12 fc 23 38
       0.011072859 -0.0010059224 -0.0014795404 3.9096987e-05
000210 5d d7 8f 3a 7c 7c aa 3b 1f e3 19 3c da a7 18 3c
       0.0010974217 0.005202828 0.009392529 0.009317363
000220 4b 86 c1 3b df 21 95 3b 82 c4 0a 3c de 56 d1 3b
       0.0059059015 0.004551157 0.008469703 0.006388529
000230 4b 5b cc 3b 96 d0 11 bc 7e 0e af bb fb 4c 31 3b
       0.006236469 -0.008899828 -0.005342304 0.002705394
000240 aa 43 35 3c b3 fb 82 bb a5 cd bf b8 23 ff 45 3b
       0.011063496 -0.00399729 -9.145894e-05 0.0030211888
000250 67 36 1e 3c 99 eb 77 bb 0e fd 34 3b 18 62 a7 bb
       0.009656525 -0.0037829636 0.0027616653 -0.0051081292
000260 c0 54 10 3c b6 ef b3 3b de cc 10 3c 7f ba 61 3c
       0.0088092685 0.0054912223 0.008837907 0.013777374
000270 8b c6 fe 39 b4 ed f8 bb 02 29 07 bc c1 46 f0 ba
       0.0004859458 -0.007596696 -0.008249523 -0.0018331633
000280 b2 2c 96 3b a4 99 d2 3b 56 17 43 ba 57 08 d8 bb
       0.004582965 0.006427007 -0.0007442137 -0.006592791
000290 f5 c4 12 3b 21 f9 e7 3a 22 6b a7 bb a6 a6 ad bb
       0.0022395228 0.0017698148 -0.005109207 -0.005299407
0002a0 74 4e ae 39 be a8 82 bb 39 09 1a bc 97 65 b3 bb
       0.00033246318 -0.003987401 -0.009401613 -0.005474757
0002b0 60 bf 97 bb 35 9f 75 b9 7e 85 eb bb a6 96 14 bc
       -0.004630968 -0.0002342433 -0.0071875444 -0.0090691205
0002c0 d6 c4 a6 3b bf 9e 00 3c c7 24 d1 bb 45 27 81 bb
       0.0050893826 0.007850348 -0.006382558 -0.003941449
0002d0 7a 66 90 3b b0 02 11 3b 4f 65 fa bb 50 02 c0 ba
       0.0044067474 0.0022126846 -0.0076414715 -0.0014649127
0002e0 fc ac 79 3a 2a df 9a 3b 44 47 df bb e5 c4 e6 ba
       0.0009524373 0.0047263103 -0.0068139154 -0.0017606287
0002f0 63 30 25 bc 39 aa a1 ba 67 13 20 bc 4b c2 d7 bb
       -0.010082337 -0.0012334056 -0.009770251 -0.006584441
000300 52 02 d9 3a ae 07 c7 3b e9 80 41 3b 95 3d 63 3b
       0.0016556478 0.0060739135 0.00295263 0.0034674157
000310 ac 64 cd bb 38 ee 9e bb af c0 35 bb 9e d4 80 bb
       -0.0062681045 -0.004850175 -0.0027733257 -0.003931596
000320 16 0f 00 3b 14 5f 06 bc d5 5f fa bb b2 b7 b7 3a
       0.0019540242 -0.008201379 -0.0076408186 0.0014016537
000330 49 f1 82 bb f1 9d 36 bc 01 7e 01 bc be db 09 bb
       -0.0039960486 -0.011146055 -0.007903577 -0.0021035518
000340 03 03 35 3c eb 93 c3 3b 2f 82 a1 3b 20 25 b7 bb
       0.011048081 0.005968561 0.004928849 -0.0055891424
000350 3f 2a 37 3c e8 86 de 3b e9 96 74 3b be 69 af 3b
       0.011179506 0.0067909844 0.0037321395 0.0053531816
000360 36 e5 89 3b cb 1b eb 3a 18 28 00 3c f3 26 f5 3a
       0.0042082323 0.001793736 0.007822059 0.0018703624
000370 00 ef 37 3b 49 29 b8 3b 24 30 3d 3b df 4b 9a 3b
       0.002806604 0.005620156 0.0028867805 0.0047087516
000380 fc 38 67 3b bf 2f 8a 3a ee 27 06 39 7d 93 1e bc
       0.0035281768 0.0010542794 0.00012794111 -0.009678719
000390 2b 65 82 3a 39 a0 3c 39 93 93 70 bb 46 42 67 bb
       0.0009948363 0.00017988765 -0.0036709055 -0.0035287305
0003a0 de 73 71 3a 20 b3 cf ba f4 8b b5 3b 23 7b 96 bb
       0.0009210686 -0.001584623 0.0055403654 -0.0045923158
0003b0 7e 44 70 bb 11 dc cd b9 41 55 3b bb 2a ab ba bb
       -0.0036661918 -0.0003926461 -0.002858475 -0.005696674
0003c0 e1 fe ef bb 9f c2 80 bb 9e a3 49 3b d2 65 48 3b
       -0.007324085 -0.0039294506 0.003076769 0.0030578268
0003d0 50 5c ba 3b 02 22 7d 3b 8d 1d dc 3b b7 e0 0d 3c
       0.005687274 0.0038625007 0.00671739 0.008659533
0003e0 d3 7e 26 3c f6 7f 93 3b 1f dd cd 3b 04 be 50 3c
       0.010162073 0.004501338 0.006282463 0.012740616
0003f0 0a ec 65 3b ed 3e 16 bc 11 1d 93 3a 1e c1 c2 3b
       0.0035083317 -0.009170276 0.0011223872 0.0059434315

ConvNet.6.bias f4 [32]
000000 94 9f d7 39 13 4a 11 3b af 49 1a 3a d4 07 84 bb
       0.0004112689 0.0022169396 0.00058856135 -0.0040292535
000010 f7 4f 12 bb da 06 52 3b df d5 8d ba 42 b8 33 39
       -0.0022325495 0.003204754 -0.0010821185 0.00017139412
000020 80 15 e4 3a fa 8d 33 bb 25 2a 4b 39 b1 7a 9a ba
       0.0017401427 -0.0027397857 0.00019375289 -0.0011785832
000030 02 89 2a bb c5 91 87 b9 ec a8 d3 ba 9c 19 06 ba
       -0.0026021604 -0.00025857813 -0.0016148365 -0.00051155104
000040 1f 97 d4 39 77 29 57 3b a2 cf 18 3b 8c d7 ac ba
       0.00040548385 0.0032831111 0.0023317118 -0.0013186797
000050 74 68 c8 b9 30 1a 66 ba 76 2d 00 3b 11 00 ca 3a
       -0.00038224796 -0.0008777706 0.0019558347 0.0015411397
000060 65 8c 2d 3b b7 fe 88 3b 89 93 40 3b 51 bd 77 bb
       0.0026481387 0.004180755 0.0029384813 -0.003780205
000070 fe ea 64 b9 bb cc 23 ba 7c 0c 43 ba 25 6a 27 ba
       -0.00021831316 -0.0006248464 -0.000744052 -0.0006386361

ConvNet.7.weight f4 [32]
000000 f9 64 7b 3f 72 95 7a 3f 1e 24 7d 3f 14 4a 7e 3f
       0.9820095 0.97884285 0.98883235 0.99331784
000010 fc eb 79 3f fc 10 7b 3f 25 c6 7d 3f b5 5e 7a 3f
       0.9762571 0.9807279 0.9913047 0.9780076
000020 2a 8a 7b 3f 1e 93 7c 3f ae cd 7e 3f 49 7d 7b 3f
       0.98257697 0.98661983 0.9953259 0.98238045
000030 12 de 7a 3f 59 2e 7c 3f ef 7b 7c 3f e6 b3 7a 3f
       0.979951 0.9850822 0.9862661 0.97930753
000040 ec aa 7c 3f 76 7a 7d 3f 41 30 7c 3f e4 7f 79 3f
       0.98698306 0.99014986 0.9851113 0.9746077
000050 e4 f4 7d 3f e3 91 7a 3f ea 11 7b 3f 3e 2e 7d 3f
       0.992018 0.97878855 0.9807421 0.98898685
000060 62 a4 7a 3f b6 7b 7a 3f 5b 3b 7a 3f 76 37 7d 3f
       0.9790708 0.9784502 0.9774682 0.9891275
000070 85 47 78 3f 9a 0b 7c 3f b8 25 7f 3f ff fe 7c 3f
       0.9698413 0.984552 0.9966693 0.98826593

ConvNet.7.bias f4 [32]
000000 bf a6 70 bc e5 26 88 bc 0e 48 85 bc 2d 53 06 bc
       -0.014688193 -0.016620109 -0.01626971 -0.008198542
000010 f4 a3 d1 bc 63 19 be bc 7b 93 7a bc 0d 26 58 bc
       -0.025590874 -0.023205465 -0.015293951 -0.013192666
000020 5f 43 7f bc 1b f1 4b bc c7 3a 78 bb 2e 13 85 bc
       -0.015580027 -0.012447621 -0.003787683 -0.016244497
000030 ab 1b c9 bc fa 83 86 bc 20 6f a3 bc 04 82 83 bc
       -0.024549326 -0.016420353 -0.01995045 -0.016053207
000040 60 f1 41 bc 08 6a 84 bc f8 af 3b bd 42 e2 e9 bc
       -0.011837333 -0.01616384 -0.045822114 -0.028550271
000050 54 e5 26 bc 0d 61 99 bc 25 74 e1 bc 02 cd 54 bc
       -0.010186512 -0.018723035 -0.027521202 -0.012988331
000060 fd 6a 40 bc 46 4e 7f bc 4a 60 c0 bc de 5a 6c bc
       -0.011744258 -0.015582627 -0.023483414 -0.014425961
000070 0c c4 bf bc 3b fc 8f bc 73 77 41 bc 74 85 64 bc
       -0.023408912 -0.017576328 -0.011808264 -0.013947833

ConvNet.7.running_mean f4 [32]
000000 50 12 50 3e 1e c6 d4 be db 2a db be 6f 68 23 be
       0.20319486 -0.415574 -0.42806134 -0.15957807
000010 e6 64 38 be 0f 12 42 be 61 39 10 3e 93 72 4f 3e
       -0.1800724 -0.18952201 0.14084388 0.2025855
000020 af 88 66 be ff a2 e1 be 5b 65 ac 3e 83 59 e6 3d
       -0.22513078 -0.4406967 0.33671078 0.11247542
000030 17 e1 87 be de d3 d6 bd 07 e6 b2 be a5 c3 b3 3e
       -0.26538917 -0.10489629 -0.34941122 0.35110202
000040 ca d5 0e be 9c ec 0b be 51 d1 30 3d f3 ae d0 be
       -0.13948742 -0.13664478 0.04316837 -0.40758476
000050 75 53 ba bc f1 49 b8 be e9 a7 ce 3d 02 9e 75 be
       -0.022744874 -0.35993913 0.1009062 -0.23986056
000060 b1 db 07 be 34 f8 3f bc 38 da c8 be 8d 10 23 be
       -0.132674 -0.011716891 -0.39228988 -0.15924282
000070 3e a3 8c be 14 71 5a be 12 c3 33 3e f0 e5 d1 bd
       -0.27468294 -0.21332198 0.17554882 -0.10248935

ConvNet.7.running_var f4 [32]
000000 c1 05 55 3e 8b c6 75 3e 35 46 1c 3e e0 63 b8 3d
       0.20802976 0.2400152 0.15261157 0.09003425
000010 ae 91 63 3e e3 63 58 3e 2f b3 12 3e 38 69 73 3e
       0.22223541 0.21131854 0.14326166 0.23770607
000020 b0 52 12 3e 68 e5 5e 3e 0c e1 c1 3e f5 f3 97 3e
       0.14289355 0.21767199 0.3786701 0.29678312
000030 c6 0f 39 3e 81 ad 29 3e f2 85 0b 3e 86 46 63 3e
       0.18072423 0.16570093 0.13625315 0.22194871
000040 a7 39 01 3e 2c f0 0a 3e 6e 52 7c 3e 98 28 0e 3e
       0.12619649 0.13568181 0.2464082 0.13882673
000050 1c 36 44 3e 14 5e 19 3e 50 76 6e 3e 0d 58 80 3e
       0.19161266 0.14977294 0.2328732 0.25067177
000060 15 53 76 3e c5 ea 0a 3e 66 b4 a0 3e ea 19 8d 3e
       0.24055131 0.1356612 0.31387633 0.27558833
000070 e3 8a 85 3e a2 c6 a6 3d 10 6b ab 3e d1 8a 50 3e
       0.26082525 0.08143355 0.3348012 0.20365454

ConvNet.10.weight f4 [1, 1152]
000000 7a 3b ca 3b 61 33 37 3b bb 21 33 3b d3 18 7a 3b
       0.006171641 0.0027954208 0.0027333337 0.003816177
000010 e5 48 c2 3b b6 03 62 bb 03 5f 19 3b ba 87 9e 3b
       0.0059291 -0.0034487075 0.0023402579 0.004837957
000020 4d 40 cb 3b 25 c1 ee 3b e5 a5 35 bb 97 01 44 bb
       0.0062027336 0.007286208 -0.002771729 -0.0029908174
000030 1f a7 ea 3a bb 07 13 bb ad 10 2b 3b b4 18 82 3b
       0.0017902589 -0.0022435028 0.002610247 0.00397023
000040 49 72 5f 39 f0 48 e2 ba 72 b5 f5 3a 3d cc 96 3a
       0.00021309512 -0.0017264169 0.0018746092 0.001150496
000050 ca e9 a0 3c fe 38 98 3b 31 5b b7 b9 d1 c2 89 3a
       0.01964273 0.004645466 -0.00034972423 0.001051033
000060 13 fa 95 bb 11 43 5a bb a5 6f f6 bb c4 78 63 bb
       -0.0045769303 -0.0033304135 -0.0075206333 -0.0034709433
000070 8d 63 b0 bb bc 7d 12 bb 44 fe 61 3b 0f 0c 5d 3b
       -0.005382961 -0.0022352776 0.003448383 0.0033729111
000080 a4 d0 c3 ba b7 5a 9b ba 8d 7f a3 39 aa 5a aa 3b
       -0.0014939499 -0.0011852597 0.00031184815 0.0051987963
000090 9a c4 89 ba a4 8f b4 ba 92 9f 67 3b 8d 39 05 bb
       -0.0010510862 -0.0013775718 0.0035342914 -0.0020328492
0000a0 26 6c 35 bb 6a 41 57 3b af eb 34 ba 55 c5 db 3b
       -0.002768287 0.0032845386 -0.00069015747 0.0067068734
0000b0 9b 91 63 3b 74 de 81 3b ca b2 85 bb 6b a4 05 3a
       0.0034724239 0.003963286 -0.004080151 0.00050980475
0000c0 36 64 47 3b 23 10 db 3b f0 9a 53 3b a4 ae 0e 3c
       0.003042472 0.0066852733 0.0032288395 0.00870863
0000d0 64 12 ae bb 37 f2 7b 3a bb d3 e8 3a 4a 6c 2b 3b
       -0.005312251 0.0009610983 0.0017763296 0.0026157075
0000e0 de c0 9f 3a d5 93 22 3b 97 0b d1 3a 76 0e f7 ba
       0.0012188216 0.0024807353 0.0015948889 -0.0018848914
0000f0 92 0f bc bb 8c 57 df 3a ee 9c f2 3a fa 89 8b 3b
       -0.005739161 0.0017039641 0.0018509903 0.0042583914
000100 ee e7 2b 3b 58 d7 f8 3a d7 87 bf bb a4 ee 0a bc
       0.002623077 0.0018985076 -0.005845051 -0.008479748
000110 df 55 e3 bb 3b bd 72 bb 8c 37 ab bb 03 74 56 ba
       -0.006937727 -0.003703906 -0.0052251276 -0.0008180739
000120 da c0 67 bb 38 36 c9 3a 0d 5b 7e bb a7 30 28 bb
       -0.0035362751 0.0015351241 -0.0038811595 -0.0025663765
000130 9e 36 5f bb e1 3f 60 3b ca c0 fe b9 d5 17 20 ba
       -0.0034059654 0.0034217762 -0.00048590294 -0.0006107067
000140 10 37 8b 39 de 22 63 bc 80 4e 23 bc 06 5e f3 ba
       0.0002655317 -0.013863293 -0.009967446 -0.001856745
000150 b9 35 06 bb 8f 2e 38 3c f3 37 b1 b9 b8 64 c0 bb
       -0.0020478799 0.011241569 -0.00033801756 -0.0058713816
000160 4e cd 3a 3c 79 67 d0 b9 4e af ee 3a 9a 70 ec 3b
       0.0114014875 -0.00039749945 0.0018210204 0.0072155716
000170 55 3c 8b 3b 5d 1e 07 3b 33 4b da bc ca 40 9a 3a
       0.0042491355 0.0020617463 -0.026647186 0.0011768576
000180 29 63 1b bc 79 58 ad 3a 54 92 d0 3b 6e 47 a4 3a
       -0.009484091 0.001322522 0.0063651 0.0012533495
000190 cc b7 e5 bb 65 69 d2 ba 9b 24 4e bb 42 bc cd bb
       -0.0070104357 -0.0016053139 -0.0031454924 -0.0062785456
0001a0 27 3e 80 bb 3a e0 7c bb 43 c2 8c bb 43 17 b6 3a
       -0.003913659 -0.0038585798 -0.0042956187 0.001389243
0001b0 39 7a a4 bb 4c b8 ec 3a 53 6e 38 bc 63 cb d6 ba
       -0.005019453 0.0018060296 -0.011256772 -0.0016387518
0001c0 66 65 a6 bb a2 0a 99 ba 24 41 33 bb 3f 4e aa ba
       -0.0050780056 -0.0011676142 -0.002735206 -0.001299329
0001d0 33 41 b5 b9 09 de 5d 3b 41 ab 65 bc ec c9 20 bb
       -0.00034571587 0.0033854267 -0.014017881 -0.0024534417
0001e0 ef 76 c2 3a f6 79 ef 3a d8 26 4e bb 62 14 64 3c
       0.001483647 0.00182706 -0.0031456258 0.013920875
0001f0 e0 c0 0c bc 97 15 4e 39 e4 d2 ab bb ff 16 6d bb
       -0.008590907 0.00019653734 -0.005243646 -0.0036177037
000200 83 00 b7 bb b3 66 9d 3b 30 8c cf bb b7 2e fa bb
       -0.005584778 0.0048035025 -0.0063338503 -0.0076349634
000210 ce 53 4b bb a9 d4 85 3b a7 a1 a8 3b c2 c9 17 3b
       -0.0031025293 0.004084189 0.0051462236 0.0023161029
000220 5e 8c e9 3a 91 c9 5f 3a 8c d1 4f bb f1 c3 b3 ba
       0.0017818322 0.00085368106 -0.0031710593 -0.0013715011
000230 47 7a b6 b9 d9 8f 39 3b 7c d3 a0 3b 57 c4 6f 3b
       -0.0003480485 0.00283145 0.0049080234 0.0036585534
000240 a0 1f 8f 3b a8 27 2c bc 04 28 09 ba e9 73 74 39
       0.0043677837 -0.010507502 -0.0005232098 0.00023312833
000250 8b 93 21 ba 47 c2 9d bb c7 31 ac bb 65 c9 ee 3b
       -0.0006163648 -0.0048144194 -0.0052549574 0.0072871917
000260 ac 41 b2 3a 63 62 e4 ba 7b 45 5f 3b 55 84 cf 3a
       0.0013599894 -0.0017424341 0.0034068513 0.0015832285
000270 f5 6f 81 bb 86 c7 d8 3a a9 85 b2 3b 25 65 6c bb
       -0.003950114 0.0016538955 0.0054480624 -0.003607103
000280 99 a5 c0 3b 45 ef 99 3b 8a f3 e3 b9 d7 da ff 3a
       0.005879116 0.0046977126 -0.00043478265 0.0019520175
000290 7f 26 de 3b 73 ff 7e 3a 9d 7b ce 3b 32 7a dc 3b
       0.0067794914 0.0009727396 0.006301357 0.006728434
0002a0 59 f7 03 bb 11 39 c3 3a 51 b5 11 3b ad e0 3a ba
       -0.0020136444 0.0014894326 0.0022233317 -0.0007128816
0002b0 71 6d ce 3a dd d6 37 39 2c 5c a8 3a 56 8e 69 ba
       0.0015749169 0.00017532283 0.0012844852 -0.00089094543
0002c0 cb b8 ef 3a a0 5c 2f bb 40 97 8e bb 5f ae 56 3b
       0.0018289326 -0.002675809 -0.0043515265 0.0032757742
0002d0 ce 03 e9 3a 70 03 cc 3a eb 8f e7 3b 82 6b a4 bb
       0.0017777623 0.0015564989 0.007066717 -0.0050176987
0002e0 55 71 8f 3c 07 e1 70 b9 44 0c 9f bb d5 1e 6b 3b
       0.017510096 -0.00022972013 -0.004853757 0.0035876532
0002f0 99 5d 9f 3a 6f 2e 5f ba 41 99 79 3c 01 8b be b9
       0.0012158632 -0.0008513694 0.0152342925 -0.0003634319
000300 e9 7b 1f 3a 82 a8 7c 3b c8 d7 1e 3b 8b f1 9b bb
       0.00060838327 0.0038552587 0.0024237502 -0.004759019
000310 22 ff 82 bb 20 8f 09 3b 4a 78 da 3a d2 7b d8 3b
       -0.0039976994 0.002098985 0.0016667929 0.0066065574
000320 89 dc 98 3b b2 bb 21 bb d0 29 8c bb 78 98 aa 3b
       0.0046649617 -0.0024678526 -0.0042774454 0.005206164
000330 7e b6 89 3c 25 63 4a bc 55 c0 44 3c 5e f4 e6 bb
       0.016810652 -0.012352739 0.012008746 -0.007048174
000340 35 bf e6 3b 85 04 11 3c 65 89 65 b9 f1 c9 d7 ba
       0.0070418366 0.008851175 -0.00021890325 -0.0016463381
000350 0a c4 6b 39 d5 6a 15 3a 01 c5 0c 3b 4e da 23 3b
       0.00022484377 0.0005699818 0.0021479728 0.0025001946
000360 6b 62 5d 3b af 3e c6 3b f3 d2 90 3b e2 14 22 3c
       0.0033780586 0.006049953 0.0044196784 0.009892674
000370 22 05 18 3b 99 ef 1b 3c 7a 43 ad bc 0c 24 7f bb
       0.0023196419 0.009517574 -0.02115034 -0.0038931398
000380 7a 93 4e 3c 82 80 98 3b 2b b2 33 bc a3 96 a2 3b
       0.012608403 0.004653991 -0.0109677715 0.004961805
000390 9c 66 e5 3b a7 d2 0b 3b a2 9d 91 b9 d3 a3 9c b8
       0.0070007574 0.0021335275 -0.00027774 -7.469174e-05
0003a0 a8 c4 1b 3b 27 75 1a 3c 05 21 8a bc 41 6c 81 3a
       0.002376834 0.009427345 -0.016861448 0.0009874181
0003b0 a8 8b 3a bc a3 f9 b6 bb 03 08 0e 3c 89 65 d7 3b
       -0.011385836 -0.0055839582 0.008668902 0.006573383
0003c0 63 91 02 3a d9 5c 05 bb b2 d9 c4 bb 07 68 16 bb
       0.0004980771 -0.002034953 -0.0060073966 -0.0022950189
0003d0 2c e1 b6 bb 7b 90 ae bb 94 57 6e 3a 5b 32 cd 39
       -0.005581042 -0.005327282 0.00090920296 0.00039138165
0003e0 42 9d 94 3b df c4 5e 3b 3b 4c 1f 3b eb f3 ae 3a
       0.004535348 0.0033991856 0.0024306912 0.001334784
0003f0 e0 1d 1f 3b 2b e3 e1 3a 3b f8 da 3b 75 0f 09 3c
       0.0024279281 0.0017233839 0.0066824234 0.008365502

FCNet.0.weight f4 [128, 3]
000000 a4 65 84 b9 4a 86 2c b9 94 de 25 3a de 32 f8 3b
       -0.0002525273 -0.00016453225 0.0006327417 0.007574423
000010 e0 ca d7 bb 16 93 b4 bb b8 aa 08 bd d3 28 72 3d
       -0.006585464 -0.005510698 -0.033365935 0.059120964
000020 50 05 0d 3d 9c 1f 65 bb c6 53 1d 3b 75 42 4d 3b
       0.034428895 -0.0034961468 0.0024006232 0.003132013
000030 75 db 3a ba 00 73 07 3b c5 cb e5 3a ca 04 cc ba
       -0.00071280386 0.002066791 0.0017532042 -0.0015565392
000040 aa a8 a0 3a 9f 95 d8 3a f7 fe 68 bb 6e a7 b1 ba
       0.0012257297 0.0016524083 -0.0035552362 -0.0013553926
000050 d8 7d a8 3a 9c 83 d6 bc 71 17 4e 3d 88 c9 05 3d
       0.0012854887 -0.026185803 0.050315324 0.0326629
000060 44 4f 1f bc c4 61 04 bc e0 5a 7e 3b 15 82 2d bb
       -0.009723488 -0.00807995 0.003881149 -0.002647524
000070 3b 80 98 3b 29 9a 4c bb b7 15 96 ba ba c2 ed 3a
       0.004653958 -0.0031219816 -0.0011450563 0.0018139698
000080 e6 14 68 3a 8c e3 09 bb cf 5e 03 bc d7 4c d9 3b
       0.0008853212 -0.002104017 -0.00801821 0.0066314745
000090 9b c7 f7 bc 08 a6 5f 3d c7 33 04 3d 8e ab 37 3a
       -0.030246546 0.0546017 0.03227594 0.00070064596
0000a0 41 20 fb bb 1b e9 8c 3b 5c e4 61 3a 64 5b 01 ba
       -0.007663757 0.0043002493 0.0008617097 -0.0004934578
0000b0 57 22 8b 3a 9f 6f 2e ba 8b 5f f9 36 44 4f 0a 3b
       0.0010615092 -0.0006654206 7.431901e-06 0.0021104375
0000c0 f4 9f 45 3b 49 09 12 3b ee 8e 80 ba fd a5 a2 ba
       0.0030155154 0.0022283366 -0.0009808221 -0.0012409088
0000d0 a5 4e 06 3b ea 21 49 38 ba db 04 3c 18 18 04 3c
       0.0020493653 4.795372e-05 0.0081090275 0.008062385
0000e0 39 1c 3e 3c 80 85 cc 3b c9 66 2a bb 49 33 ee 3b
       0.0116034085 0.0062415004 -0.0026001206 0.0072692973
0000f0 8d 85 54 bc 2f 02 92 3c 8f 73 85 bc b9 c8 e0 bc
       -0.012971294 0.017823307 -0.016290454 -0.027439462
000100 83 87 6f 3d f0 41 07 3d 78 2e 3a bb 91 58 d2 3b
       0.058478843 0.033021867 -0.0028409045 0.0064192493
000110 bd f8 e4 b9 17 20 23 3b 87 ec d4 39 ef 7a b6 bb
       -0.00043672873 0.0024890953 0.00040612018 -0.005568854
000120 45 20 85 ba b1 c4 ef 3a 4b 9e 36 3b 01 eb 0c bd
       -0.0010156712 0.0018292872 0.0027865346 -0.034403805
000130 46 cf 57 3d 50 29 1c 3d 42 2a ab ba 6c 9c 51 3b
       0.052687906 0.038125336 -0.0013058858 0.0031984104
000140 70 f7 19 3a 0a 1d 62 ba ee c4 bf 3a 8e 31 6c 3b
       0.0005873358 -0.0008625543 0.0014630833 0.003604028
000150 a2 1c 24 39 1d bd 81 3b 8d 57 29 3a ed d8 93 bb
       0.00015650925 0.0039593116 0.00064598845 -0.0045119436
000160 9b 32 28 39 dd af bf 3a 16 9f 32 3b e9 85 e6 3b
       0.0001604058 0.0014624555 0.0027255467 0.0070350063
000170 17 75 3a bb 71 a3 0c 3a 0e 5e ec 3c 59 6b 76 3c
       -0.0028451139 0.0005364931 0.028853443 0.015040242
000180 8d ad 01 bb 92 31 32 bb 65 cc 07 bb 0a ce 99 bb
       -0.0019787282 -0.002719019 -0.0020721194 -0.004693751
000190 87 b3 34 3b 78 9e a7 3b 9d d9 d1 bb 3b 8b 8c bb
       0.0027572827 0.0051153265 -0.0064041154 -0.0042890585
0001a0 ca 2d f1 3b 5f 15 e0 39 13 db 7d 39 37 4a 24 3b
       0.007360195 0.00042740532 0.00024209572 0.002506865
0001b0 05 eb b0 3b 91 85 92 3b 8d d5 78 bb 23 87 53 3b
       0.0053991103 0.0044714888 -0.0037969083 0.0032276593
0001c0 23 83 c6 3b 7f 0f 5a bb 36 b1 80 bc bf 94 61 3d
       0.006058113 -0.0033273397 -0.0157095 0.055073496
0001d0 6e cf ed 3c 2c 88 04 bb b9 51 46 3d e1 57 c0 3c
       0.029029574 -0.0020222766 0.04841778 0.023479404
0001e0 0e 8a 42 bb 01 fe b0 3a a6 b7 31 3b d3 fb 92 3b
       -0.0029684338 0.0013503433 0.002711752 0.004485586
0001f0 c5 df 2a b9 12 3c 8b 3b 99 50 f1 3b 8f fb 8d bb
       -0.00016295824 0.0042491043 0.0073643443 -0.0043329666
000200 85 4f c6 ba 69 e2 7e bd a1 c0 56 3d ff 47 5e 3d
       -0.00151299 -0.06222764 0.0524298 0.05426788
000210 bf a6 8a bb 4a 03 5c bb 4f 4f d6 3b 82 e3 3a bb
       -0.0042313035 -0.0033571296 0.006540216 -0.0028516953
000220 8b 45 0e 3b 48 6e 0a 3b 63 a4 45 bb 0b db 84 3b
       0.0021708931 0.0021122862 -0.0030157797 0.0040544323
000230 af da 61 bb 91 cd df bc 63 9d 5f 3d 16 6a 17 3d
       -0.003446262 -0.027319701 0.054593455 0.036966406
000240 38 1a 97 ba 48 08 b9 bb a6 a3 bd 3b 9f d7 9a 3a
       -0.00115282 -0.005646739 0.0057873307 0.0011813528
000250 6c 7c 14 bc cc 3b a2 3b 07 b9 e1 3b a8 d2 ac 3a
       -0.009062868 0.004950976 0.006888512 0.0013185339
000260 42 34 95 3b bf 01 4e bb 3a f4 c3 bb 86 00 c7 3b
       0.0045533488 -0.0031434146 -0.005980042 0.0060730604
000270 b8 ad 66 bb 64 23 ec 38 7d 74 b2 3a b0 5a cb 38
       -0.003519876 0.00011259949 0.0013615038 9.696686e-05
000280 ca a3 ff ba 29 01 29 3b 67 fc 5d 3b f2 e9 a4 bb
       -0.0019503769 0.0025788045 0.0033872367 -0.0050327713
000290 82 60 c6 3b 21 17 6a bb 39 63 66 3b b8 a4 35 bb
       0.006053985 -0.0035719352 0.0035154356 -0.0027716588
0002a0 ea 01 4b 3b 08 46 28 bb 6f 5e c9 3b ae 8b 1a bb
       0.0030976483 -0.0025676508 0.0061452906 -0.002358179
0002b0 cb ff 42 3b a5 56 dc 39 a6 c9 a9 3b 6a f5 50 3b
       0.0029754515 0.00042026225 0.005181509 0.003188456
0002c0 31 22 8f bb 40 7a 74 3b bc f9 c1 bb 08 4b ac 3b
       -0.0043680896 0.0037304312 -0.0059196632 0.005257968
0002d0 bf 27 35 b9 11 2d 2f 3c 7e 4e 63 3b d9 ec 58 b7
       -0.00017276312 0.010691897 0.0034684236 -1.2929749e-05
0002e0 6c 67 7a bb 26 fe 3b 3b 12 39 1f bc 4f 6a a5 3c
       -0.0038208617 0.002868542 -0.0097181965 0.020192293
0002f0 ef f5 61 bc c9 22 d4 39 3f da 3a bb cb da b8 3b
       -0.013791545 0.00040461708 -0.0028511432 0.0056413165
000300 fd 53 0d ba fe 69 7b 3a 83 ec 65 3b 1d e3 08 bd
       -0.00053912384 0.0009590684 0.00350836 -0.033419717
000310 96 2c 79 3d b7 c5 0f 3d 59 8c a3 bb ec 6c 8e bb
       0.060833536 0.035100665 -0.004991096 -0.0043464806
000320 72 00 c4 3b 44 0b 5e ba 1d 20 89 3a 1d 17 fa 3a
       0.0059814984 -0.00084703066 0.0010461841 0.0019080375
000330 b7 f8 9f bc c4 e4 76 3d 2f e0 e9 3c d1 1c b4 3a
       -0.019527776 0.06027676 0.028549282 0.0013741498
000340 2a bf 44 3b 55 d7 1b bb 44 70 4a bb 14 ff 84 bb
       0.003002117 -0.002377947 -0.003088967 -0.004058728
000350 34 58 c7 3b d5 ca 88 bb be 5c a5 3b 34 d7 b8 3b
       0.0060835127 -0.00417457 0.005046456 0.0056408886
000360 76 fb 83 bb 00 41 e9 3b 5f 0d 59 bb a9 00 e5 bc
       -0.004027779 0.0071183443 -0.0033119542 -0.027954416
000370 ae 68 6b 3d d9 d6 f0 3c 74 ff ef bb 33 a4 4d 3d
       0.057472877 0.029399322 -0.0073241536 0.05020542
000380 1d 08 d7 3c 39 ce f8 bc 38 c4 77 3d 52 39 f2 3c
       0.026248986 -0.030371772 0.060489863 0.029568348
000390 90 7a 12 ba 09 61 0c 3c 58 e5 e8 3a 2c f7 65 3b
       -0.0005587721 0.008568057 0.0017768545 0.0035089953
0003a0 60 cc 94 bb 17 5d ed 3b 12 6e 41 ba 1f a6 b3 3a
       -0.004540965 0.007243763 -0.00073787675 0.0013706124
0003b0 33 7d ca b8 74 73 2f 3b fe 16 50 3c ac f1 27 3b
       -9.655431e-05 0.0026771696 0.012700794 0.0025626225
0003c0 aa 95 2d 3a 76 f0 a1 39 95 9a e6 3a 37 51 1f bd
       0.0006621728 0.0003088747 0.0017593676 -0.038895812
0003d0 5a a2 40 3d dc 6c 47 3d 78 02 ca 3b 2d 89 3b 3b
       0.04702983 0.0486878 0.006164845 0.0028615699
0003e0 7a 06 c8 3b 02 40 a1 ba 74 09 c3 bb 8d 16 d1 3b
       0.0061042877 -0.0012302401 -0.0059520546 0.006380862
0003f0 85 93 22 bc 39 49 48 3d 9f 22 bf 3c 15 32 57 b9
       -0.009922867 0.048897956 0.023331938 -0.00020522655
