DDPG_Conv/model/CarRacing-v0_critic.pt (torch, 155399 bytes, 22 tensors)

ConvNet.0.weight f4 [32, 3, 4, 4]
000000 5b 7c de 3c 9f 9f 9e 3c 8d 99 6e 3d 8b 06 a2 bb
       0.027158907 0.019363223 0.058251906 -0.0049446276
000010 90 70 9b bc a2 53 b5 bc 16 58 13 3d 27 52 a8 bc
       -0.018974572 -0.022134606 0.035972677 -0.020546986
000020 92 2c d2 bc 76 e2 93 bd 54 e5 7b 3c 7c 1c 65 3c
       -0.025656018 -0.07220928 0.0153745 0.013983842
000030 ab dd 9d bb 0a fd 28 bd 73 25 82 3c 20 22 e4 ba
       -0.0048176846 -0.04125694 0.015886998 -0.001740519
000040 26 00 22 ba 1e 9c 80 bc f1 73 13 bc 87 0d 81 3c
       -0.00061798317 -0.015699442 -0.008999811 0.01575352
000050 32 5d be 3c b5 21 b3 3c 16 16 af bb 97 40 90 bc
       0.023237798 0.021866659 -0.005343209 -0.017608924
000060 6e b8 fd bc e6 72 56 bc 3f ee b6 bc 11 fc 4b 3c
       -0.030971732 -0.013088917 -0.022330401 0.012450234
000070 e2 9d 8c bc a4 d5 78 bc 8b 7e 15 bb 9b 23 94 ba
       -0.017165128 -0.015187655 -0.0022811021 -0.0011302115
000080 bf ed e8 39 fb d1 00 bd 2e 9f 95 bc 1e a2 1c 3c
       0.00044427623 -0.031450253 -0.01826438 0.009560136
000090 46 c2 91 3d dd 2e e3 3b 0d 18 25 3b 88 f4 0b 3c
       0.07117133 0.006933077 0.0025191337 0.0085421875
0000a0 cf 4d 86 3d 13 79 05 3d 50 97 4b bb 18 95 ab 39
       0.065578096 0.03258617 -0.003106553 0.00032726745
0000b0 c4 a3 16 3d 7d b1 d6 3c dc 13 0e bb c1 44 05 3d
       0.036777273 0.02620768 -0.0021679318 0.032536272
0000c0 9e 50 8f bb be 5e 9e 3a 58 fd e0 bb bf a0 a8 bc
       -0.004373624 0.0012082679 -0.0068661384 -0.020584462
0000d0 8a 22 43 3c 5b 58 ff 3c a0 2a a7 3d 5b 20 18 3d
       0.01191009 0.03117006 0.08162427 0.03714023
0000e0 b3 b9 70 bc 7b 30 42 3b f0 01 d7 3c f8 b8 ce bb
       -0.014692712 0.0029630947 0.026246041 -0.006308671
0000f0 56 ef f4 ba b2 a4 da 3b 65 8d 5e 3c c6 16 05 3d
       -0.001868705 0.0066724652 0.013583516 0.03249242
000100 5c 05 c0 bc 34 51 ce bc 12 41 1a bd e6 9a f8 bc
       -0.023440056 -0.025185205 -0.037659712 -0.030347299
000110 a4 42 18 3b 0c 9d 38 3c 3d 32 09 3c b1 2e 37 bc
       0.002323308 0.011267912 0.008373794 -0.011180566
000120 63 b1 26 3c 88 6a bc 3c 63 bf ce 3b a3 1a 60 bc
       0.010174128 0.023000017 0.006309436 -0.013678226
000130 4c be 1d bb b7 16 e8 3b ab b0 a8 3b 32 67 08 bc
       -0.0024069725 0.007082786 0.0051480136 -0.008325385
000140 7a e4 ff bc 35 85 66 bd fd 9c 75 bd 5e ac 5a bc
       -0.031236876 -0.05627938 -0.05996417 -0.01334676
000150 db 6d 2f 3b 46 d7 92 3b a1 f8 d3 bc 01 fa a3 bb
       0.002676836 0.004481229 -0.025875391 -0.005004168
000160 61 4f 16 3c 63 53 13 3d ca 43 6a 3c 65 f8 e7 3b
       0.009174199 0.035968196 0.014298389 0.0070791715
000170 b9 e1 ee 3b 15 82 24 3c b6 40 24 bc 69 aa d9 3b
       0.007290092 0.01004078 -0.010025194 0.006642629
000180 e2 2e 89 bc fe fc ed bc 06 19 cf 3c 4e b5 4f 3d
       -0.016745988 -0.0290513 0.025280487 0.050710015
000190 c4 08 1a 3b 06 99 17 bd 3d 1d 91 bc 0c c2 00 3c
       0.002350376 -0.03701117 -0.017714137 0.007858764
0001a0 d7 ac 31 3d 78 d8 40 3d a5 6a 47 bb f2 3a fb bc
       0.043377724 0.04708144 -0.0030428555 -0.030667756
0001b0 c9 a3 5c bc c7 b6 3b 3c 0b 86 33 bc 6d 2d 9c 3c
       -0.013466784 0.011457152 -0.010957251 0.01906463
0001c0 83 32 96 bc 18 c9 fc 3c 10 f6 9d ba 60 ac 9e bc
       -0.018334633 0.030857608 -0.0012051482 -0.019369304
0001d0 68 a3 09 3b 85 6e 03 3b 3d 94 dc bb 56 c0 d1 ba
       0.0021001939 0.0020054888 -0.0067315386 -0.0016002755
0001e0 e7 26 28 bd 9a 84 85 bc 33 a3 c1 3b b7 57 80 bc
       -0.041052725 -0.01629858 0.0059093474 -0.015666826
0001f0 24 89 49 ba b8 9b 9b 3c a3 99 46 bc bd ad e7 bc
       -0.0007687977 0.01899515 -0.012121591 -0.028281087
000200 2a da 05 3d 8c 3c bf 3c db 9a 77 bc 69 4e 6f bd
       0.03267876 0.0233443 -0.015112604 -0.058424387
000210 d9 2c a4 3b 09 f6 86 3b 30 c1 f3 3c ae 8a 82 3d
       0.005010229 0.004118685 0.029755205 0.06374107
000220 9a 24 28 bc 45 0b 37 bd 2e 9d b6 bc 4b 1a f8 3b
       -0.010262633 -0.04468848 -0.022291746 0.0075714937
000230 d7 7a de 3b f9 a1 e7 bb 89 4e fb 3c ea d7 c9 bc
       0.006789546 -0.007068869 0.030677097 -0.024639089
000240 ec b8 07 bd 06 d8 ed bc ba d8 ea bc d9 e9 e1 bc
       -0.03313534 -0.029033672 -0.028667796 -0.027577328
000250 45 02 02 bd e6 22 df bb 51 44 dd bc a8 cd 95 3c
       -0.031740446 -0.00680958 -0.027010115 0.018286541
000260 63 2a e0 3a 2d 37 e4 3c a3 56 20 bb 0a 4a cc ba
       0.0017102476 0.027858341 -0.0024465702 -0.001558603
000270 6c 14 ab bc 2f e5 c0 3c fe 45 1a 3c 03 1e f4 bc
       -0.020883761 0.023546783 0.0094161015 -0.029799467
000280 31 38 dd bc 9e 01 76 bc 5e fb 5f bd 43 32 86 bc
       -0.027004333 -0.015015034 -0.05468308 -0.016381389
000290 32 97 9e ba 61 e7 58 bb 4f 04 ee 3b 34 f5 e0 3c
       -0.0012099503 -0.0033096897 0.007263697 0.027460672
0002a0 93 6a 16 3c ca 6d de 3c b2 c9 cd 3a 16 97 0b 3b
       0.009180683 0.02715196 0.0015700369 0.002129977
0002b0 61 6f 01 3d 32 2b 30 3d a3 86 e3 3c 02 1b c4 bb
       0.03160036 0.043009944 0.02777416 -0.005984665
0002c0 e6 06 da 3a e6 18 25 3c 27 3f 22 bd f3 5a 8a 3b
       0.0016634136 0.010076737 -0.039611008 0.004222268
0002d0 c1 14 a6 3b cd bd 07 b9 b4 73 e5 b9 e5 83 47 3d
       0.005068392 -0.0001294531 -0.0004376449 0.04870977
0002e0 28 38 d8 3b 39 2c 16 3d b0 c4 04 3b c5 51 20 3a
       0.006598491 0.036663268 0.0020258836 0.00061157
0002f0 93 41 f4 3c 5b ea ca 3c 4a 11 e5 3c 69 35 1a bc
       0.029816424 0.024769953 0.027962346 -0.009412148
000300 db 2f e1 3b bc 00 5f 3c 68 c4 39 bb a2 b6 50 3d
       0.00687216 0.013611015 -0.0028345827 0.050955422
000310 50 06 ce bc 97 50 04 bd ca a8 33 bb d2 50 ed 3c
       -0.025149494 -0.03230342 -0.0027413839 0.028969202
000320 55 fa a3 bb 73 18 ca 3c af 1a 80 bc 6e ef 1d bd
       -0.005004207 0.024669861 -0.015637724 -0.038558416
000330 83 13 7f bc 6e ac d6 3c 38 93 26 3d 8c 95 6f bc
       -0.015568617 0.026205268 0.040667742 -0.014623057
000340 1f bc 41 3b 2e 31 f2 38 3c b8 9c 3c c4 fb 7c bc
       0.0029561592 0.0001154862 0.019130819 -0.015440885
000350 76 ee b5 bb 14 43 4c bd cb 9d d8 bb eb 02 b5 bb
       -0.0055521084 -0.04986866 -0.0066106073 -0.0055240295
000360 98 e1 17 3d d7 7a 57 bc 0f 25 a0 3c e4 09 ef 3c
       0.037080377 -0.013151846 0.01954892 0.02917952
000370 ea 9a f2 bb d9 6b f4 bb 76 67 c0 3b 7e 35 9a bc
       -0.007403721 -0.0074591455 0.0058717085 -0.018824335
000380 68 76 80 3a d6 69 8a 3b 6a 82 cb bc ec b1 48 bd
       0.0009800913 0.0042240424 -0.02484246 -0.048997805
000390 c3 e2 12 3c 04 26 ac 3d ae 9a 16 3d 0e a7 4b bd
       0.008965197 0.084056884 0.036768608 -0.049719863
0003a0 b9 5b 92 bc be e5 b5 bc 95 15 38 3c aa 75 48 3d
       -0.017866002 -0.022204276 0.011235614 0.04894034
0003b0 60 0a c9 3c 7d a1 16 bc 99 3a a4 bc 61 64 22 bc
       0.02454108 -0.009193775 -0.020047473 -0.0099116275
0003c0 0a 99 dd bc 24 6f 3d bb ec c0 45 bc be d5 8a 3b
       -0.027050514 -0.0028905356 -0.012069922 0.004236906
0003d0 66 d4 a1 bc 45 d6 70 3c 00 77 f4 3b 85 28 f8 3c
       -0.0197546 0.014699523 0.007460475 0.030292759
0003e0 4d bd 9a bc e8 ba ba 3b d8 5a c6 3b f7 7c 27 3c
       -0.018889094 0.0056985505 0.00605331 0.010222665
0003f0 69 ad 32 bc 7d e7 40 bc 72 a9 8f bb eb 75 50 bc
       -0.010905602 -0.011773941 -0.004384213 -0.012723426

ConvNet.0.bias f4 [32]
000000 94 48 fa bc 35 ed c4 3c 7f 61 80 3d 5f 0d 19 bc
       -0.030552186 0.02403889 0.06268596 -0.009341567
000010 8d 0a 83 bb 29 a2 ce 3b c0 83 43 3d 83 8c ce bb
       -0.0039990605 0.006305952 0.04773307 -0.0063033714
000020 24 c6 3d 3c fc cf 10 3d 04 05 0c 3d 93 ae 0e bd
       0.011582885 0.0353546 0.03418447 -0.034834456
000030 ce 78 40 3b f6 c0 97 bc d1 07 fe bc 89 fd 19 bb
       0.002936888 -0.018524628 -0.031009587 -0.0023497066
000040 fe a3 24 bd 6a a1 05 bd ca 01 f3 3b 03 05 27 bc
       -0.040195458 -0.03262464 0.0074159848 -0.010194066
000050 df fa 8e 3c 84 16 b5 3c 0b ef ca 3b 0c 57 1b bc
       0.017453609 0.022105463 0.006193047 -0.009481203
000060 91 94 2c 3b 06 2a dc 3c 24 68 ab ba 98 95 87 3c
       0.002633367 0.026875507 -0.0013077301 0.016550824
000070 ab aa 86 bc 7e e4 83 3c 12 70 22 bc 87 5c 5d 3c
       -0.016438803 0.016100165 -0.009914415 0.01351083

ConvNet.1.weight f4 [32]
000000 d5 23 53 3f f7 d0 44 3f 08 ef aa 3f e4 2b 4c 3f
       0.8247655 0.76881355 1.3354197 0.7975447
000010 4d 58 9d 3f b8 08 4b 3f 21 d0 88 3f a2 1a 50 3f
       1.2292572 0.7931018 1.0688516 0.8129064
000020 ae ea 93 3f 4a 57 5a 3f 2b 38 5b 3f 94 2d 89 3f
       1.1555994 0.8528944 0.8563258 1.0717034
000030 04 28 6b 3f 33 62 6a 3f 7e a7 79 3f 81 8f 5d 3f
       0.91857934 0.9155609 0.975212 0.86547095
000040 a0 05 5f 3f 48 2a 6a 3f a5 e7 39 3f 34 64 58 3f
       0.8711796 0.91470766 0.72619087 0.845279
000050 db 63 46 3f d9 f5 45 3f 6a 6d 82 3f be 59 64 3f
       0.7749612 0.7732826 1.018964 0.89199436
000060 da 9d 5d 3f ea a6 4d 3f ba 24 52 3f 8c da 5e 3f
       0.8656899 0.80332816 0.8208729 0.87052226
000070 87 25 69 3f 1e 78 6d 3f 2c 03 57 3f c0 cf 3e 3f
       0.9107289 0.9276141 0.83989215 0.7453575

ConvNet.1.bias f4 [32]
000000 15 40 0b be 65 6d 6c be d8 9e 91 3e 32 02 47 be
       -0.13598664 -0.23088606 0.284415 -0.19434431
000010 82 0f 81 3e 83 b1 38 be 07 3d e8 ba e0 ad 30 be
       0.25207144 -0.18036465 -0.0017718383 -0.17253828
000020 23 2b 77 bc 21 e5 07 be 01 ba 02 be 37 41 9f bd
       -0.015085968 -0.13271 -0.12766267 -0.077761106
000030 32 81 02 be 39 fc d9 bd 89 3d c9 bd 04 bc e3 bd
       -0.12744597 -0.10643811 -0.0982619 -0.111198455
000040 39 bf 1c be 83 0e 31 be ab 66 86 be af a2 ee bd
       -0.1530732 -0.17290692 -0.26250204 -0.11652123
000050 99 f0 55 be 04 90 84 be 2e 79 ad bd 7f 83 16 be
       -0.20892562 -0.25891125 -0.08470379 -0.146986
000060 1d 51 f4 bd 23 2b 34 be d9 78 1e be 17 73 1f be
       -0.11929534 -0.1759458 -0.15475787 -0.15571247
000070 3d c7 39 be 26 a5 01 be b5 ad 3f be e6 c5 5b be
       -0.1814241 -0.12660655 -0.18718608 -0.21462211

ConvNet.1.running_mean f4 [32]
000000 b6 7f 9e bc 8f dc 3a 3c c3 7f 78 3d b7 8c 91 bc
       -0.019348007 0.011405124 0.060668718 -0.017767293
000010 21 4f 1c ba a7 3d 06 3d 09 50 37 3d f5 87 02 bd
       -0.0005962719 0.03277364 0.04475406 -0.03186794
000020 29 2b bd 3b 08 9c 6a 3d ee d5 8f 3c 29 12 d5 bc
       0.0057729674 0.05727771 0.017558064 -0.026009636
000030 bd 6b e0 bb 61 28 a8 bc 07 8d 09 bd 46 8e f8 bc
       -0.006848781 -0.020527067 -0.03358176 -0.030341279
000040 a1 0c 2b bd a1 21 02 bd 33 ca 94 3c cd a6 a3 bc
       -0.04176009 -0.031770352 0.018162822 -0.019976998
000050 2b 60 ad 3c 14 51 0b ba 9a e0 7e 3c b6 89 de bb
       0.02116402 -0.0005314511 0.015556479 -0.0067913188
000060 6e 84 51 bc 48 ff 5a 3c 2b 19 47 bc 5a 91 e3 3c
       -0.012787921 0.013366528 -0.012151997 0.02777927
000070 95 10 cf bc d4 29 a6 3b 26 87 38 3c fd f2 80 3c
       -0.025276462 0.0050709043 0.011262691 0.015740866

ConvNet.1.running_var f4 [32]
000000 d2 50 33 3b 13 49 e9 3b fa 4a b3 39 2d df f7 3b
       0.0027361405 0.007119307 0.00034197402 0.0075644464
000010 4b 87 dc 39 5d 20 bc 3c 75 28 24 3a 2e f2 83 3c
       0.0004206247 0.02296465 0.0006262132 0.016106691
000020 e8 ad eb 3a 6d 41 64 3c cb 73 82 3b 95 06 cc 3b
       0.0017980905 0.013931614 0.0039810888 0.0062263706
000030 97 b3 08 3b ad 4e c1 3b 00 ec 4f 3a 31 12 ac 3c
       0.0020858997 0.0058992715 0.000793159 0.021004768
000040 8a ac 05 3c 3d 51 05 3b ff c5 6c 3c 70 bd e3 3b
       0.008158812 0.0020342611 0.014451503 0.006950073
000050 1d 08 56 3c b2 18 4a 3c 5e 35 5e 3b db 5d de 3b
       0.013063458 0.012334989 0.003390632 0.006786091
000060 be b0 f0 3b de a0 57 3c aa 9b ab 3b b6 11 f9 3a
       0.007345288 0.013160912 0.0052370625 0.0019002471
000070 43 75 a9 3a e1 68 f0 3a 47 ac e3 3b dc 4a 09 3c
       0.0012928623 0.0018341803 0.0069480273 0.008379664

ConvNet.3.weight f4 [32, 32, 4, 4]
000000 77 fe 19 bc 5e 9d a9 3c 26 0d c3 bc 91 52 dc 3c
       -0.009399048 0.020704921 -0.02380998 0.02689484
000010 9b 6b 1c bc e9 fe a2 bb 94 4b 11 3c 4c 8c ef bb
       -0.0095471395 -0.0049742353 0.008868117 -0.007310426
000020 ad c9 02 bc 57 4a 20 3c 88 44 bb 3b db da 86 3c
       -0.007982654 0.009783349 0.0057149567 0.01646178
000030 86 39 67 bb 22 9b ce bb ee 8a 07 bc 03 6b 50 3c
       -0.003528209 -0.0063051144 -0.0082728695 0.012720826
000040 ef 9b 8d bc 32 68 b6 3c ab 61 b2 3a c3 9d a9 3c
       -0.017286269 0.022266481 0.001360943 0.02070511
000050 28 5a 68 bc e2 7b 86 3c 0c ea e9 3c 0b 4c 80 3b
       -0.014181651 0.016416494 0.028553985 0.003915315
000060 4d ee 09 bc 39 a5 9d 3c 13 e7 5c 3c 03 08 9c 3c
       -0.008418632 0.019243823 0.013482827 0.019046789
000070 42 ad b8 ba f4 f7 8c bc 72 c6 03 3b 9c 39 00 bb
       -0.0014089721 -0.017208077 0.0020107296 -0.0019565588
000080 c6 f3 f6 3c 20 56 75 bd 61 13 5b 3d 3d 44 98 bd
       0.030145537 -0.05989659 0.053485278 -0.074348904
000090 fa b5 77 3c 86 55 3b 3d a2 82 0d bd d0 be d2 bc
       0.01511907 0.04573586 -0.03454841 -0.025725752
0000a0 ce 2e cf 3c e9 82 b1 3b 18 95 0c 3d c9 4c 32 3d
       0.025290873 0.005417217 0.034321874 0.04353026
0000b0 29 10 d8 3b 84 c0 1f 3b d8 aa 0c 3d fd 28 a4 bc
       0.0065937233 0.0024376223 0.034342617 -0.020039076
0000c0 a8 0d 5a bc 3f c9 a1 3b b2 dd fb 3b 1e dd b5 bc
       -0.01330892 0.0049373205 0.0076863403 -0.022200163
0000d0 55 74 30 3c 9c 25 1a 3d 92 4f e9 3a 0e e1 da bb
       0.010769923 0.037633523 0.0017800203 -0.0066796606
0000e0 8a c4 ef bb 33 ba 17 3d 69 53 97 3c 85 ec 9b 3b
       -0.0073171305 0.037042808 0.01847239 0.00475842
0000f0 c0 a7 64 3c 41 21 8c bb 70 6c 09 bc 4f 3e 58 3c
       0.01395601 -0.004276425 -0.00838767 0.013198449
000100 43 f3 04 3d c6 78 dc bd 2d 87 b6 3c 23 3f 18 3d
       0.032458555 -0.10765223 0.022281254 0.037169587
000110 4f aa 91 bb 79 11 07 3d bf 04 1b bc d6 f0 58 bd
       -0.004445351 0.032975648 -0.009461581 -0.052964054
000120 13 08 e9 39 53 6e 9f bc 2d 35 c4 3c a3 6e b3 3c
       0.0004444724 -0.019461786 0.023951137 0.021903342
000130 a5 66 95 bc b1 57 f2 3c d5 9d 02 3c 94 d5 12 bd
       -0.018237421 0.02958283 0.0079722 -0.035848215
000140 65 f4 1a 3c bc c4 90 bb 55 1a 4b bc c7 96 ef bb
       0.009457682 -0.004417984 -0.012396415 -0.007311675
000150 9a 8a 1f 3c 65 1c f4 3a db 88 50 bb 94 d1 37 3c
       0.009737635 0.0018624185 -0.0031819853 0.011219401
000160 93 a1 a1 bc 6f 5d 00 bd b1 04 0e bd bb d1 02 bd
       -0.019730365 -0.031339105 -0.034672443 -0.031938296
000170 33 cc bf bc 02 00 d2 bc 10 0a f6 bc e7 75 bf bc
       -0.0234128 -0.02563477 -0.030034095 -0.02337165
000180 c3 bc 35 3c 81 08 bf 3c 3c 28 59 bd 3c ec 94 3c
       0.011092368 0.023319485 -0.053016886 0.018179052
000190 72 f3 bb bc 64 48 58 bd d6 4e 19 3d b3 18 23 3c
       -0.022943232 -0.052803412 0.0374287 0.009954619
0001a0 bd 51 83 bc cf b0 05 3d 33 85 cf 3c 9e 31 b5 bb
       -0.016030187 0.03263932 0.025332069 -0.0055295965
0001b0 a6 42 f9 3a 5d 9b 27 3d b9 8f 90 3c 48 df 97 bc
       0.0019017055 0.04091965 0.017646657 -0.018539086
0001c0 4d c1 38 3b 8f 93 95 bb d3 17 62 3c 13 09 a6 3c
       0.0028191388 -0.0045647095 0.013799625 0.020267999
0001d0 ae 6c e3 bc c3 7b ef bc be 28 29 3c 05 ff 04 3c
       -0.027761783 -0.029233819 0.010324655 0.008117442
0001e0 a7 ec 40 bc 53 d5 a0 3b 5e 2e 89 bc 92 a4 01 bd
       -0.011775172 0.0049082427 -0.016745742 -0.031651087
0001f0 04 91 86 b9 16 23 ee bc 64 a2 69 bc 84 95 0b bd
       -0.00025666517 -0.029069465 -0.014259908 -0.034078136
000200 b4 8c 80 bc 8d a4 27 bd b8 4a d8 3c 80 77 2b 3d
       -0.015692092 -0.040928412 0.026402816 0.04186201
000210 ab 3b 09 bd 3a 89 2e 3d cc e7 b0 3c 1a a3 73 bc
       -0.03350417 0.04261134 0.021594904 -0.014870429
000220 62 89 4a bd 97 67 27 bd 49 ed 65 bd 99 b8 2d bd
       -0.049447425 -0.040870275 -0.056134496 -0.042412374
000230 60 69 fd bc e9 b7 5f bc 29 30 0c bd 1d f6 84 bc
       -0.030934036 -0.013654687 -0.034225617 -0.016230637
000240 23 42 aa bb 05 de e0 3b 98 91 19 bd 7f 8c 40 bc
       -0.0051958724 0.0068624043 -0.037492365 -0.011752247
000250 36 f8 d3 bc 37 c6 b7 bb 66 84 23 3b ec b0 57 bc
       -0.025875192 -0.005608346 0.0024950742 -0.01316474
000260 f5 be d4 3b 61 9d 87 3c 27 42 b0 3c ce c7 4e 3c
       0.0064924904 0.016554536 0.021515919 0.012620879
000270 4b 92 87 bc f9 b3 63 bb 63 c6 27 bd d0 eb 84 bc
       -0.01654925 -0.0034744723 -0.04096068 -0.016225725
000280 77 17 ea 38 f2 6e 0f bd 34 ce b8 bc 8e a5 82 bc
       0.0001116236 -0.035017915 -0.022559263 -0.015948083
000290 f8 78 d6 3b f7 05 d7 3a 76 dd a1 bc 21 3b 03 bd
       0.0065451823 0.0016404976 -0.019758921 -0.03203881
0002a0 01 6c 8e 3c fa 57 86 3c da 9b 36 3d b7 20 7d 3c
       0.017385485 0.016399372 0.044582225 0.015449694
0002b0 40 f0 f6 39 8c 8a ad 3c 12 43 5a 3c c7 25 95 3c
       0.00047099777 0.021184228 0.013321655 0.01820649
0002c0 54 d9 0f bd 30 e5 0b bd 89 cd 3b bd 42 b0 74 bd
       -0.03511937 -0.034154117 -0.04585031 -0.059738405
0002d0 a1 c5 c2 ba 0d 75 29 3c 91 1e 7f bd ea fa 61 bd
       -0.0014859923 0.0103428485 -0.06228501 -0.05517093
0002e0 e7 af 90 3c 05 8e 30 3d d6 f5 3c 3d 8c 6a c1 3c
       0.017662002 0.04310419 0.046132885 0.023610376
0002f0 19 7e 87 3b 75 fe 36 3c 1f 89 35 3c 50 95 1b 3c
       0.004134905 0.011169066 0.0110800555 0.009496048
000300 e0 3e 58 39 f7 9c 2f 3c 5e c4 1c bd bb 8e c0 bc
       0.00020622788 0.010718576 -0.038273208 -0.02350556
000310 bf b6 d7 bb 55 82 a3 3c ba 77 2d bc 49 9a a0 bc
       -0.0065830643 0.019959608 -0.010587627 -0.019604819
000320 22 22 e5 bc 3d 0c e5 bb ce 95 3a bc 87 0c 12 3b
       -0.027970377 -0.0069899843 -0.011388255 0.00222853
000330 93 b4 48 bc 84 5b cc 3b 6b 20 5f bc ed 05 ad b9
       -0.0122500835 0.0062364955 -0.013618569 -0.00033001546
000340 a7 63 2a bc 8e 5f d3 3c dd 03 68 3c e1 22 0d 3c
       -0.0103997355 0.0258024 0.014161077 0.008614273
000350 9a a5 98 3c c2 d2 94 bb a2 26 93 3c d2 2d d3 bc
       0.018633652 -0.004541726 0.017962757 -0.025778685
000360 7f 37 b3 3b 17 c8 89 bc 9e 09 63 bb 9b 3d dc bc
       0.005469262 -0.016819043 -0.0034643183 -0.026884845
000370 72 c7 85 b9 9e a0 d9 3c 83 11 f5 b9 96 04 ac bc
       -0.00025516335 0.026565846 -0.0004674309 -0.02099828
000380 84 82 d0 38 4b e7 78 bc 56 e0 01 bc 87 6d e3 bc
       9.942523e-05 -0.015191863 -0.007927021 -0.027762188
000390 af 8e 8c 3c 01 54 49 3d 47 1f 1c bd 5d ed 14 bc
       0.01715788 0.049152378 -0.038115766 -0.009089795
0003a0 86 3b fe b9 98 22 f6 bb 1e 9a 9b bc a8 e7 ce bb
       -0.00048491004 -0.007511448 -0.018994387 -0.0063142367
0003b0 6b a7 10 bd 5e 70 23 3d 87 89 26 3d ca 8b b3 3c
       -0.035315912 0.039902084 0.0406585 0.021917243
0003c0 48 2a 8d 3b e2 9f ff b9 29 d9 ac bb 3b 73 83 bb
       0.004308019 -0.00048756512 -0.005274911 -0.0040115393
0003d0 f3 98 be 3b 90 9f f6 3a 39 7b af bb 69 b2 0b 3c
       0.005816573 0.0018815864 -0.0053552655 0.008526423
0003e0 c6 c3 ec 3b 05 8c a3 bb 4b cb e0 bc 5f 2f b2 bc
       0.0072254864 -0.004991057 -0.027440688 -0.021751104
0003f0 af 6c 16 bc ab 15 7e bb aa 8d d5 bc af 1e e4 3b
       -0.009181186 -0.003877024 -0.026068527 0.0069616656

ConvNet.3.bias f4 [32]
000000 b1 4b 7a bb c7 e2 26 ba aa 85 bb 3b c8 6d 80 3b
       -0.0038192088 -0.000636619 0.005722721 0.003919337
000010 be 99 93 3b 2f b7 b9 3b 62 7f d4 39 d6 99 16 3b
       0.0045044115 0.005667589 0.000405307 0.0022979877
000020 d2 9c 79 bb 1c c3 b1 3b 2a 90 9d 3a c2 e6 28 3b
       -0.0038087857 0.00542487 0.0012021114 0.0025772308
000030 a6 16 a9 3b a8 72 92 bb ef 1b 35 bb f3 8b 3d bc
       0.0051601706 -0.0044692345 -0.0027635058 -0.011569011
000040 c4 e1 37 bb 6e 47 94 3b 48 f9 2a 3c b4 49 24 3b
       -0.002805815 0.0045251166 0.01043541 0.0025068345
000050 33 ed 64 3b 03 d4 68 3b e7 29 d7 3a c9 53 63 3a
       0.003493142 0.003552676 0.0016415686 0.0008671848
000060 e4 1f 47 ba 93 a8 fa bb c7 1f b5 3a 60 48 d0 ba
       -0.00075959996 -0.00764949 0.0013818674 -0.001589071
000070 c1 84 c4 ba f3 8d 95 b9 ad f8 47 3a e1 9c 93 3a
       -0.0014993177 -0.00028525255 0.0007628303 0.0011261964

ConvNet.4.weight f4 [32]
000000 29 81 7e 3f e0 fe 80 3f 52 a7 7f 3f d2 b2 6e 3f
       0.9941583 1.0077782 0.99864686 0.9324161
000010 46 fd 7b 3f b9 40 62 3f 56 3c 82 3f 9c 28 66 3f
       0.9843334 0.8838001 1.0174663 0.89905715
000020 e6 db 6d 3f 0d cf 83 3f 2a d5 8e 3f 76 87 7a 3f
       0.92913663 1.0297562 1.1158803 0.97862947
000030 9a e6 72 3f 11 64 78 3f 61 3d 68 3f 65 e1 6f 3f
       0.9488312 0.9702769 0.90718657 0.937033
000040 18 cc 7b 3f a6 b2 72 3f 7b 3f 6e 3f e0 cc 7f 3f
       0.983583 0.94803846 0.93065614 0.9992199
000050 21 97 8a 3f e6 f2 73 3f 2c 0e 85 3f 88 e3 7b 3f
       1.0827371 0.9529251 1.039495 0.9839406
000060 bf 7d 80 3f 7f e4 7c 3f c7 df 61 3f 7d 9e 6f 3f
       1.0038375 0.9878616 0.8823208 0.9360121
000070 2f 57 7d 3f 56 32 78 3f 75 bd 84 3f 80 9c 6e 3f
       0.98961157 0.96951807 1.0370318 0.9320755

ConvNet.4.bias f4 [32]
000000 8f 97 17 be 7d d5 c4 bd d5 35 c2 bd 64 43 17 be
       -0.14803909 -0.09611032 -0.09482924 -0.14771801
000010 e4 b9 fb bd 02 11 08 be b8 65 94 bd a7 e9 0c be
       -0.12291315 -0.13287738 -0.07245964 -0.13761006
000020 26 ac 16 be f9 66 aa bd 74 cf 24 be 08 74 d0 bd
       -0.14714107 -0.08320422 -0.16094762 -0.10178381
000030 04 7d 06 be b3 f1 f6 bd 86 6b e7 bd 33 c5 ab bd
       -0.13133627 -0.12057819 -0.11299805 -0.08387222
000040 97 b4 f3 bd 0e 8f 2a be 57 00 df bd 6d f3 0d be
       -0.11899679 -0.16656134 -0.10888737 -0.13862391
000050 ea d7 08 be 9b bb ef bd 46 ca d7 bd 3f fd bf bd
       -0.13363615 -0.11705705 -0.105366275 -0.09374475
000060 89 e6 2a be f9 b3 c0 bd d2 4c 03 be 11 46 3a be
       -0.16689505 -0.09409327 -0.12822273 -0.1819079
000070 6e fe 15 be 56 10 df bd e8 08 99 bd 65 49 18 be
       -0.14647838 -0.10891788 -0.07472402 -0.14871748

ConvNet.4.running_mean f4 [32]
000000 97 cd 73 be 41 f7 68 bd 5f 97 09 be 62 08 48 be
       -0.23808895 -0.056876425 -0.1343665 -0.19534448
000010 42 3b 72 be 0c 2a 98 bd 4c 93 df be ca a6 67 3e
       -0.23655418 -0.07429895 -0.43667066 0.22622219
000020 d9 15 8a 3e ad 27 aa be 33 df 35 be 09 b9 1e bf
       0.26969793 -0.33233395 -0.17760925 -0.6200109
000030 27 e5 12 bf 3d c9 a7 be e6 2e aa be 16 57 1f be
       -0.5738091 -0.3277072 -0.33238906 -0.15560564
000040 96 71 21 be 63 14 e2 be c9 6c b9 be 7e af c1 be
       -0.15765986 -0.4415618 -0.3621581 -0.37829202
000050 9d 7a f3 3d c1 e1 99 be 32 5b 2b be 47 44 f6 bd
       0.11888621 -0.3005505 -0.16734007 -0.120247416
000060 fc 99 ca be 91 11 9d be 75 6d a8 3e 80 9a 95 be
       -0.39570606 -0.30677465 0.3289601 -0.29219437
000070 2c bd f6 bd 3e 9e 2c 3f e6 51 c1 be 7a da 93 bd
       -0.120478004 0.6742896 -0.37757796 -0.072194055

ConvNet.4.running_var f4 [32]
000000 4e ec c8 3d 46 09 3d 3e 0e e4 3d 3e a8 cc 8d 3e
       0.098106965 0.18460569 0.18544027 0.27695203
000010 b8 fb db 3d b4 d9 6c 3e bc 23 dc 3d 10 41 61 3e
       0.10741371 0.23129922 0.10749003 0.21997476
000020 57 b3 c2 3e a7 f0 8a 3e c8 45 e1 3d 60 6c c3 3e
       0.3802745 0.27136728 0.10999638 0.3816862
000030 49 6d 15 3e 7d c9 09 3e 9e 2f c3 3e 65 b6 58 3e
       0.1459247 0.13455768 0.38122267 0.21163328
000040 0a 3c de 3d dc 29 22 3e ed 00 90 3e 6f a4 08 3e
       0.10851295 0.1583628 0.28125706 0.13343976
000050 9a ff 21 3e b9 a3 c1 3d 74 2e 2b 3e a4 c8 c8 3d
       0.1582016 0.09455056 0.16716939 0.09803894
000060 7a d9 a9 3d 1c cc 1e 3e 63 50 5f 3f a5 71 11 3e
       0.082934335 0.15507549 0.87232035 0.14203508
000070 e0 e5 fb 3d 1b b9 04 3f 0b 03 b8 3d aa 7d c0 3d
       0.122997046 0.5184495 0.089849554 0.093989685

ConvNet.6.weight f4 [32, 32, 4, 4]
000000 ad ec 8a bc 26 84 2e bd ed 17 0f 3d a0 f7 0e bd
       -0.016958559 -0.042606495 0.034934927 -0.034904122
000010 4a 39 13 bc 0c 69 93 bc cf 13 fe 3c 41 7a 44 3d
       -0.008985827 -0.017994426 0.031015305 0.047968153
000020 fa 4b 81 3b 8f 6c c9 bb 6e 12 7b bc 87 f2 24 3d
       0.0039458247 -0.0061469744 -0.015324218 0.040270355
000030 00 d1 c3 3c cb a3 ee 3c 2a 87 8a bb f3 44 a2 bc
       0.02390337 0.029130837 -0.0042275386 -0.019808268
000040 ce c6 b9 bc 9a 13 c7 3c 17 68 43 3c e4 ed 29 3c
       -0.022677805 0.024301339 0.011926672 0.010371659
000050 f7 b9 bb bc c9 ad 11 bc d3 b2 7f 3c 7f 33 b0 3c
       -0.022915823 -0.008891531 0.0156066 0.02150893
000060 f1 a5 0c 3d b0 4b 99 3c 48 d3 53 bd ba e7 5f 3c
       0.03433794 0.018712848 -0.051715165 0.013666088
000070 4d 75 71 3c a0 fa 2b bc a1 33 e2 3c 51 70 29 3c
       0.014737439 -0.010496765 0.02761251 0.01034172
000080 18 82 de bc c5 13 c0 bc c7 bc eb 3a 62 15 8c bd
       -0.027161643 -0.023446927 0.0017985337 -0.06840016
000090 57 aa 8a bc 43 37 95 3c 24 e0 31 bc 65 18 f5 3c
       -0.016926927 0.018214827 -0.010856662 0.029918859
0000a0 48 37 a8 3b 06 99 1d 3d ba 4a c7 3c ec 6e 26 bb
       0.005133543 0.038476013 0.024327625 -0.0025395704
0000b0 6e 28 0f 3d 8e e8 53 ba 5c 1c ff bb f5 20 91 bc
       0.034950666 -0.00080836646 -0.007785363 -0.01771591
0000c0 ad 22 24 bc f5 c3 bb 3c b6 0a e9 3b c1 02 98 bc
       -0.010018033 0.022920588 0.0071118725 -0.018556
0000d0 fa e3 b2 3c 47 05 a4 bb 22 50 0b 3d 7e b6 23 3d
       0.021837223 -0.005005512 0.034011967 0.03996896
0000e0 95 f1 80 3b bb 0f 30 3b bf 2c 6c bc bd 2d 59 3c
       0.003935049 0.0026864845 -0.014414965 0.013255534
0000f0 1e f6 73 3c 36 56 5c 3c 09 9d 9f 3c 33 63 97 bc
       0.014890222 0.013448289 0.01948406 -0.018479919
000100 a3 78 c7 bc 9b 47 e6 3c 48 6e 38 bd 2b c3 14 bb
       -0.024349516 0.028110316 -0.045027047 -0.0022699337
000110 b5 78 93 3b 95 2b 70 3a c9 7d 17 3d 83 28 ef 3b
       0.0045004734 0.00091617677 0.036985192 0.0072985305
000120 42 81 fc bc 16 9e 14 3c a2 23 0e bc bb 45 70 3c
       -0.030823354 0.009070894 -0.008675488 0.014665063
000130 7c 28 98 bc b4 dd 40 bc e5 13 c6 ba b3 18 d7 bc
       -0.018573992 -0.011771608 -0.001511213 -0.026256895
000140 e6 74 54 bc 5c b5 c7 39 67 d9 a3 bc 2d 03 e9 3b
       -0.012967324 0.0003809136 -0.020001126 0.0071109743
000150 04 b6 fc bc bf ad 65 bd dc 1d dc 3c 46 59 b3 3c
       -0.03084851 -0.0560739 0.026869707 0.021893155
000160 aa 97 95 bc 33 04 71 3b 0e 47 0e bd 40 00 86 3b
       -0.018260796 0.0036776185 -0.03473573 0.0040893853
000170 d7 8f fb bc 66 c5 aa ba 06 eb de bc d4 35 ac bc
       -0.030708237 -0.00130288 -0.027211677 -0.021021761
000180 d9 ef 48 3c eb 4c 62 bd e0 de 79 3c a4 ca 4e 3d
       0.012264215 -0.055249136 0.015250891 0.050486222
000190 24 ca d9 bc b4 c7 ec bc 70 bf 48 bc 87 49 e6 bb
       -0.026585646 -0.02890382 -0.0122526735 -0.007027808
0001a0 8c e9 da bb fc 31 d6 bc 84 ff 0d bc 6c 18 4a bd
       -0.006680673 -0.026146881 -0.008666877 -0.049339697
0001b0 2d bd 48 bd ee 13 73 bb 40 bb 9e ba d9 3e 51 3c
       -0.049008537 -0.0037090736 -0.0012110248 0.012771332
0001c0 81 57 de bc 56 69 35 bc ca e3 d7 bc 3a 77 f2 bb
       -0.027141334 -0.011072477 -0.026353735 -0.007399467
0001d0 33 e7 2e bc 1e d8 32 bc 81 56 a0 3c a7 82 81 3c
       -0.010675239 -0.010915784 0.019572498 0.01580937
0001e0 7f 9b 89 bc 24 20 ba bc 86 98 14 bc a6 db fc 3b
       -0.01679778 -0.022720404 -0.009069568 0.007716614
0001f0 34 90 06 bc d1 41 71 bc f8 15 be bb 04 66 09 bc
       -0.008213092 -0.0147251645 -0.0058009587 -0.008386139
000200 a5 b6 0a 3d d2 a0 16 bd 41 98 51 bb e7 29 d2 bb
       0.03386559 -0.036774464 -0.003198162 -0.0064136866
000210 87 dc c5 3c 70 30 1b 3d ce 63 12 3d c9 c9 4a 3c
       0.024153007 0.03788799 0.035739712 0.012377211
000220 2d b3 65 bc fa 89 0d 3c 34 13 9d 3d 5e d5 a3 bb
       -0.01401977 0.008638853 0.07669678 -0.0049998006
000230 be de 03 3b 9c 4b 17 3d 5a a7 04 3c 55 77 37 bd
       0.0020121778 0.03693734 0.00809654 -0.04479154
000240 e3 41 24 bd 73 42 4a bc 15 be 20 bc c9 11 1f ba
       -0.040101897 -0.012344944 -0.009810944 -0.0006068019
000250 df 5c 99 3c c4 b7 aa 3c 67 ee e8 bc f4 f3 0e bd
       0.018721042 0.02083958 -0.028433992 -0.03490062
000260 68 8c e1 3c 3d 57 8f bb 0c c4 86 bc fb a9 32 3c
       0.027532771 -0.0043744133 -0.016450904 0.010904784
000270 fb aa a3 bc 30 b2 bf bc fb 4d 39 bc c6 84 da bc
       -0.01997899 -0.023400396 -0.011310096 -0.02667464
000280 21 1c 0f 3c cc 9f 0c bc e3 3f d9 bc 5f c5 0a bd
       0.008734734 -0.00858302 -0.026519721 -0.033879634
000290 79 d4 53 bc 72 01 3b bd 61 e0 dd 3c b8 70 91 bc
       -0.012929075 -0.045655675 0.027084531 -0.017753944
0002a0 4b 88 0d 3d 09 a9 2b bd 72 aa 0f bd d2 f5 49 3d
       0.034553807 -0.04190925 -0.03507466 0.0493067
0002b0 e9 13 b1 bc 14 a0 ce 3c 9b 6e cc 3b 31 3b 11 bd
       -0.02161594 0.025222816 0.006238771 -0.03545684
0002c0 0f 01 23 bd 84 96 a2 ba fa ed 9a bb 6c d6 1c bd
       -0.03979593 -0.0012404476 -0.004728076 -0.038290426
0002d0 e7 43 d9 bc 88 5a d3 3c a9 8d cb 3a 60 33 bc 3b
       -0.026521636 0.025800005 0.0015529889 0.005743429
0002e0 b4 13 67 bc f1 76 d1 ba 04 da f8 bc 02 e4 0a 3d
       -0.014103819 -0.0015980882 -0.030377395 0.03390885
0002f0 98 6c 90 bb 55 92 bd bc 0a 9a 91 3c 73 17 81 3c
       -0.0044074766 -0.023141066 0.017773647 0.015758252
000300 32 02 0d 3d a4 39 58 bc ee 40 28 3c ec 9d 06 3a
       0.03442592 -0.013197336 0.010269387 0.00051352265
000310 83 95 00 bd a9 fd 69 bd e7 e1 49 bc 5e ba 7f bb
       -0.031392585 -0.057126675 -0.012321926 -0.0039020996
000320 5d 7b ff 3b 7b 0e 7f bc 9b 7a 80 3c fa e1 d7 3b
       0.0077966885 -0.015567417 0.015683463 0.006588218
000330 a5 4c bf bb e4 10 8b 3b a3 40 b7 3b 07 19 f9 bb
       -0.005837994 0.004243957 0.005592422 -0.0076018604
000340 dd b7 c6 bb f0 53 91 bc c7 a0 26 bb 70 e6 29 bb
       -0.0060643987 -0.01774022 -0.002542542 -0.0025924705
000350 95 17 81 3b 14 4b 18 bd 8a 2e f6 3b 1b 14 d2 3c
       0.003939579 -0.037180975 0.007512872 0.025644353
000360 87 e2 ab bc 68 e0 49 3c 9d d0 9a bc b6 59 fc ba
       -0.02098204 0.012321569 -0.018898303 -0.001925281
000370 03 21 78 bd 23 83 bb 39 ec 6b 9d 3b fa d4 07 bd
       -0.060578357 0.00035765124 0.004804125 -0.033162095
000380 45 b1 3c bd 4a d0 06 bd e9 7b 31 bd a3 36 3d bd
       -0.046067495 -0.032913484 -0.04333106 -0.046194684
000390 e8 d3 40 3a b0 c0 25 bb c1 f4 08 bc 7f b9 1a 3b
       0.0007355795 -0.0025291853 -0.008359135 0.00236091
0003a0 39 3b 0b bd c2 5b d3 bc e5 00 70 bc 11 9f 9a bc
       -0.033992026 -0.02580059 -0.014648651 -0.018874677
0003b0 01 6b 20 bd 84 d8 e6 bc 63 d5 3f 3c 18 70 de bc
       -0.039164547 -0.028179415 0.01170859 -0.02715306
0003c0 c0 e3 27 3c 07 dd a5 3c 9f ce f1 3c b0 87 d4 bc
       0.010247171 0.020246996 0.02951747 -0.025943607
0003d0 26 03 15 bd 44 5f 13 bc f3 81 22 3d cc 4d e9 3c
       -0.036379956 -0.008994881 0.03967471 0.02847948
0003e0 34 a1 30 bc 92 3f f5 3c 65 22 19 bd be 1b 6b bd
       -0.010780621 0.02993754 -0.037386317 -0.057399504
0003f0 47 d2 8f 3c bf c8 18 3c ad 59 9b 3c 21 8d 10 bc
       0.017556323 0.009325205 0.01896366 -0.00882271

ConvNet.6.bias f4 [32]
000000 37 cc 0c bb ac 8b aa 39 29 00 8e 3a 5a 6b 60 3b
       -0.0021484026 0.0003252899 0.0010833788 0.0034243674
000010 5d 80 df 3a 6b 87 97 3b 71 0c b0 3b 96 ce a9 3a
       0.0017051805 0.0046242974 0.005372577 0.0012955244
000020 91 bb a2 39 19 69 0b 3c 5a 21 15 bb 87 bf 2d 3b
       0.00031038796 0.008508944 -0.0022755475 0.0026511864
000030 c8 ce 34 3b 1b 84 b7 ba 64 b0 e4 3a fb f0 4c ba
       0.0027589072 -0.0014001162 0.0017447588 -0.00078178913
000040 bb f6 6d bb 5e 35 a4 3b 63 d5 9a 3a f5 6c ce b8
       -0.0036310393 0.0050112447 0.0011812862 -9.84314e-05
000050 31 5c 30 bb ff 98 b5 3b 31 76 f6 bb 3b e2 04 b9
       -0.002691042 0.00554192 -0.0075214137 -0.00012672778
000060 61 f7 9b 3a ce a7 9d bb 40 23 25 3b 90 70 71 3a
       0.0011899286 -0.0048112636 0.0025198013 0.00092101935
000070 e0 3a bc 3b 27 0d 38 3b 9b 76 9c 3b 79 54 91 3a
       0.005744323 0.0028084011 0.004774881 0.0011087797

ConvNet.7.weight f4 [32]
000000 df dc 7f 3f f3 21 70 3f af 6a 7b 3f dc 16 75 3f
       0.999464 0.938018 0.9820966 0.95738006
000010 4e 8b 86 3f d1 89 70 3f 18 ad 7f 3f 91 b2 69 3f
       1.0511262 0.9396029 0.99873495 0.91288096
000020 13 be 85 3f 62 2a 8e 3f 77 f1 73 3f fd b1 80 3f
       1.0448631 1.1106684 0.9529032 1.0054318
000030 d9 43 7f 3f cc 6a 84 3f 46 a9 6f 3f db a9 7e 3f
       0.997129 1.0345092 0.93617666 0.9947793
000040 0f 20 8a 3f 6c a2 7f 3f 5a 85 7b 3f 5f 79 76 3f
       1.0791034 0.9985721 0.98250353 0.9627895
000050 d2 bf 72 3f 5a f9 82 3f 2a 15 76 3f b6 63 82 3f
       0.94823945 1.0232346 0.96126044 1.0186679
000060 ac 97 76 3f 43 d6 82 3f 85 94 86 3f 26 25 79 3f
       0.9632518 1.0221637 1.0514075 0.9732231
000070 39 5a 79 3f 5b 22 83 3f 04 db 7d 3f f0 0e 7f 3f
       0.97403294 1.024486 0.99162316 0.9963217

ConvNet.7.bias f4 [32]
000000 f2 c1 f6 bd 05 20 46 be 75 d8 11 be 51 46 c8 bd
       -0.12048711 -0.19348152 -0.14242728 -0.09779037
000010 a2 2f 27 be fb 83 b9 bd c4 13 31 be a4 2f 39 be
       -0.16326764 -0.090583764 -0.17292696 -0.1808458
000020 df ad 17 be 34 6e 2f be 9f fc 8e bd 7f d3 0b be
       -0.1481242 -0.17131883 -0.069817774 -0.13654898
000030 6b 34 0f be 00 c9 3c be 6c c7 38 be 20 b2 1f be
       -0.1398484 -0.1843605 -0.18044823 -0.15595293
000040 74 a5 53 be a2 b5 77 be 13 0e 34 be 5f 1b ef bd
       -0.20668584 -0.24190381 -0.17583494 -0.116751425
000050 79 f0 29 be 5e 98 55 be 8e ce ea bd ec c7 2c be
       -0.1659564 -0.20858905 -0.114651784 -0.16873139
000060 30 bc 5b be c8 63 0c be 20 d8 36 be b0 90 02 be
       -0.21458507 -0.13709939 -0.17855883 -0.12750506
000070 98 dd a9 bd 9e a5 5e be cc ff f5 bd 80 26 28 be
       -0.08294219 -0.21742865 -0.1201168 -0.16420937

ConvNet.7.running_mean f4 [32]
000000 0c fe b0 be 49 8c 7e bd 4b f6 2e 3e db 9d cc be
       -0.34568822 -0.062145505 0.17086141 -0.39964184
000010 64 9e 9a be 23 0d 9e be 4d fa b4 bd dc 86 76 be
       -0.30198967 -0.30869398 -0.088368036 -0.24074882
000020 b2 9a 20 bf f8 f7 70 be 09 61 2d bf 15 45 aa 3d
       -0.62736046 -0.23532093 -0.6772619 0.083139576
000030 17 c0 4c be 03 4d 99 be f1 8e c4 be 42 d7 ca 3d
       -0.19995151 -0.29941568 -0.38390306 0.099043384
000040 b4 aa de bd 32 2b 52 3d c7 6e 1f 3d 34 4d f7 3d
       -0.10872403 0.051310726 0.038924005 0.12075272
000050 97 9f 99 3d 3f 1b 8c be 67 cd fd be c7 e2 f7 bd
       0.075011425 -0.27364537 -0.49570772 -0.12103801
000060 aa 1f 8b 3e e5 d4 97 be 0b 22 84 3d 29 00 22 3d
       0.27172595 -0.29654613 0.06451806 0.039550934
000070 b5 7f ae 3c e8 c9 9e be fa 98 b6 be ca 1c 3f 3e
       0.02130113 -0.31013417 -0.35663587 0.18663326

ConvNet.7.running_var f4 [32]
000000 9a 76 3a 3e ad 66 b1 3d 68 94 7d 3d e6 8b 99 3d
       0.18209305 0.08662162 0.06190911 0.07497387
000010 33 b8 fe 3d 64 5e 9d 3d 1f f2 ae 3d f8 8d f1 3d
       0.12437477 0.07684019 0.08542275 0.117946565
000020 ec f8 59 3e ac e7 3b 3d 55 a4 b1 3d 99 f1 6b 3d
       0.21286362 0.045875236 0.08673922 0.057603452
000030 64 7b 26 3e 15 19 95 3d 2d bf 94 3d 6a 4d 99 3d
       0.16258007 0.07280175 0.072630264 0.07485469
000040 01 af 34 3d b0 5b 89 3d 91 ea c7 3d d5 5c 39 3e
       0.04411221 0.06706941 0.09761537 0.18101819
000050 2e 4e 3e 3e db 8f 65 3d 4d 73 1f 3e 93 be 7d 3d
       0.1858451 0.056045394 0.15571328 0.061949324
000060 24 d3 cb 3d 37 b2 0f 3e 64 b6 71 3d 92 79 12 3e
       0.09952381 0.14032827 0.059011832 0.14304188
000070 b3 e7 17 3e a9 64 8e 3d 35 1e 88 3d d4 ab 9f 3d
       0.1483448 0.06952793 0.066463865 0.077964455

ConvNet.10.weight f4 [1, 1152]
000000 30 b8 c3 bb d8 bc 06 3d bd 4a 99 bc f1 80 d0 bc
       -0.0059728846 0.03289494 -0.018712396 -0.025452109
000010 f4 bc 29 bd 43 c4 56 bc 06 36 e8 3b 12 ec f6 bc
       -0.041439965 -0.013108316 0.007086518 -0.030141864
000020 a4 e8 ed bc 8f 61 1e bc 42 2a 10 bd 7b 88 98 3b
       -0.029041596 -0.0096668145 -0.03519655 0.0046549416
000030 6c 52 c9 3c ce c2 cf 3b 76 bd f9 bc 99 4b 54 bd
       0.024575435 0.006340361 -0.03048585 -0.051829908
000040 19 83 96 bc 40 03 5e bb 77 46 7a bd 7c 71 b2 bc
       -0.01837306 -0.003387645 -0.061102357 -0.02178263
000050 e7 31 70 bc a6 04 d6 bc b6 6a ab 3d 1a 12 87 bc
       -0.014660335 -0.026125263 0.08369963 -0.016488124
000060 a5 5a 0f bb f5 f6 a8 b9 62 97 c7 ba 47 11 1c 3b
       -0.0021874097 -0.00032227454 -0.0015227611 0.002381401
000070 64 04 e2 bb d0 2e 6a bb 25 ec 91 bb 41 31 32 bc
       -0.006897496 -0.0035733469 -0.0044531994 -0.010876001
000080 57 89 a1 ba 08 9b 5a bb ab 25 b5 3b 78 a7 5f 3c
       -0.0012324256 -0.0033356566 0.005528172 0.0136507675
000090 bd a8 6c bc fe cb e2 bb d8 67 c5 bb 83 d9 90 bb
       -0.014444527 -0.0069212904 -0.006024342 -0.0044204607
0000a0 65 50 78 bb d8 89 f6 3a 3b 06 74 bc e9 26 82 3a
       -0.0037889716 0.0018809391 -0.014894064 0.0009929809
0000b0 83 c3 92 bc 6f f2 c7 bb 7d 8b 57 3d fe d7 e6 bc
       -0.017915493 -0.0061018984 0.05262326 -0.028179165
0000c0 1b cd 10 bc 94 91 b4 3c 17 4c 34 3c b2 83 8b 3c
       -0.008837963 0.022042073 0.011004469 0.01703057
0000d0 ae ba 93 bc 6e 51 13 bc a7 01 b1 bb f2 76 f9 bc
       -0.018033352 -0.008991582 -0.0054018083 -0.030452225
0000e0 c7 00 1d ba 19 e2 a4 bb fb ce 1e bd f0 b6 58 3c
       -0.00059891905 -0.0050318358 -0.03877161 0.013227209
0000f0 90 ba e1 bb f3 43 78 bc f4 ee bb 3b 3e 8c f0 3b
       -0.006888695 -0.015152919 0.0057352725 0.007340937
000100 cc 8f 4f 3a 51 89 12 bc 33 fa 20 bc f8 38 58 3d
       0.0007917851 -0.008943872 -0.009825277 0.052788705
000110 dc 9d 97 3b e9 03 27 bc e1 ff a8 bc c8 a3 47 bc
       0.0046269726 -0.010193803 -0.020629825 -0.012185045
000120 91 39 47 bc 3d bf 0c bc 99 89 30 3d 57 3c d7 bc
       -0.012159721 -0.008590517 0.043099973 -0.02627389
000130 bc f1 ad 3c 16 bb e0 ba 66 fb 6a 3c e7 9f 7a bc
       0.021233432 -0.00171456 0.014342165 -0.015296913
000140 2a cc c6 bb 0e 9b 13 3c e7 84 06 bb f6 92 89 3c
       -0.0060668187 0.009009136 -0.0020525993 0.01679371
000150 aa f4 a7 bc 5e bb 90 3c 3d 73 53 bd 73 3e 46 bb
       -0.020502407 0.017667469 -0.05162357 -0.0030249625
000160 24 79 c2 3b b6 62 9c 3a 7f 16 a3 3c c5 e0 7d bc
       0.0059348512 0.0011931274 0.019908188 -0.015495484
000170 2b 0a b2 3c 7b a9 24 bd a5 a4 ab bc ad 7b 53 3b
       0.021733364 -0.04020069 -0.020952532 0.0032269761
000180 13 52 1d 3c 3b a7 ea bc 08 9e ca 3c 35 40 b4 3b
       0.009602088 -0.028644195 0.024733558 0.005500818
000190 dd 2a 7c bc 57 5c 00 bb fa 4d 99 3b ea 37 88 3b
       -0.015391079 -0.001958629 0.004678485 0.004157056
0001a0 33 ec 5c bb b4 04 d9 3a d5 d4 6b ba f0 19 a4 3b
       -0.0033710122 0.0016557188 -0.0008996253 0.005007975
0001b0 83 f5 93 3b 75 ec 9a 3b dd 3d 97 3c f2 82 3f bc
       0.0045153513 0.004727895 0.018462116 -0.011688935
0001c0 4a 41 0a bc d9 a8 01 bc 87 32 29 bb fd db b3 3d
       -0.008438418 -0.007913792 -0.002581747 0.08782194
0001d0 95 2f 12 bc a5 55 ec bb 35 55 b3 bc 5c 6e a3 ba
       -0.008922477 -0.007212358 -0.021891216 -0.0012468803
0001e0 03 3b 0b 3c bf 45 c0 bc 79 ef 8a 3b 42 62 a8 3c
       0.008497956 -0.023470758 0.004239973 0.020554665
0001f0 3b 16 80 3c e0 a7 e2 bb c3 75 6f bc 4a b9 9d ba
       0.0156356 -0.006916985 -0.014615479 -0.001203337
000200 b9 38 dd bb 32 e4 0c bb c1 99 3f bb 35 8c b4 3b
       -0.0067511466 -0.002149832 -0.0029235932 0.005509878
000210 7f 1e 18 3c 79 fd b5 bc a6 cb 73 3b 6f 13 fd 3c
       0.009284615 -0.022215592 0.0037200241 0.030893056
000220 00 95 3f 3b 1b c1 45 3b c0 21 df bb 5d 68 9c 3b
       0.0029233098 0.0030174914 -0.0068094432 0.0047731833
000230 ba bf 67 bc ff 8c 10 3b 26 4f f4 3b a3 dd c9 ba
       -0.014144832 0.0022056696 0.0074557243 -0.0015401136
000240 06 20 b1 3b fe 3c d8 bc fb 8d 0b bc 56 d7 3f bc
       0.005405429 -0.02639627 -0.0085177375 -0.011709055
000250 2e be 80 bb 83 b0 61 bb f3 54 28 bc 23 d7 9e 3c
       -0.003928921 -0.0034437485 -0.01027416 0.019389695
000260 8a cd 0a bd 0c 8c 49 3c 84 88 fd 3a b6 d7 8a bb
       -0.033887424 0.012301456 0.0019343053 -0.0042371405
000270 2e 4b b7 3c c3 bf 50 bc 11 f5 46 bb dd 26 3e bd
       0.022374716 -0.012741032 -0.0030358473 -0.04642378
000280 b8 15 2f bc ae 81 7f bb 2c 07 fb 3b 2b 80 d6 3b
       -0.0106863305 -0.0038987207 0.007660767 0.0065460405
000290 55 af f3 3d 4f 57 88 3d 35 60 2a bd ab 99 a3 b9
       0.11898676 0.06657278 -0.041595656 -0.00031204274
0002a0 da ce c6 bb 25 90 ae 3b 74 bb 11 bb 4a 68 0f bb
       -0.006067139 0.005327242 -0.0022236975 -0.002188223
0002b0 3b 42 a2 3b a4 64 6f ba e5 27 0b bb 9d f0 5d 3b
       0.004951743 -0.0009132123 -0.0021233496 0.003386534
0002c0 5e b7 62 3a 4f 71 d5 3b 70 80 16 39 ab 14 68 bb
       0.00086485397 0.0065137516 0.00014352961 -0.003541271
0002d0 6f e6 95 3b 06 07 58 bc ce 74 99 3c 02 90 ef bb
       0.004574589 -0.013185268 0.018732455 -0.0073108682
0002e0 2b 76 93 3a 61 ae 7d bb e3 9e d5 bb 82 01 2f 3c
       0.0011250427 -0.0038708674 -0.006519185 0.010681512
0002f0 ee cc 61 3c 35 5b 26 bb 80 1b bf bc 3b a0 cf 3b
       0.013781769 -0.0025383953 -0.023328543 0.0063362396
000300 49 4b f8 bb ec c6 5e 3d 27 54 ae 3c 25 5d 07 bc
       -0.007577334 0.054388925 0.021280361 -0.0082619535
000310 83 d3 ac bc 37 b5 0f 3a 42 cd 37 3c 55 48 32 bd
       -0.02109695 0.000548202 0.011218371 -0.043526012
000320 8a db b2 3c 7e ab 15 bb 77 a7 1c 3b 38 e4 17 b9
       0.0218332 -0.0022837813 0.0023903528 -0.000144855
000330 99 4d e5 39 27 fb 22 3c ef 0f 75 3c 08 72 21 3b
       0.00043736098 0.009947575 0.014957412 0.0024634618
000340 ae 94 b7 3b e7 1d aa bb e7 c7 8f bb 84 3a 05 3d
       0.005602441 -0.005191553 -0.004387844 0.032526508
000350 3c cb d5 bb b7 f6 50 3c 99 f1 63 bc 2f 9d 3b bb
       -0.0065244716 0.012754134 -0.013912582 -0.0028627624
000360 4a da 80 bb be fe ac bc 16 08 3c 3c 8a 21 e5 3b
       -0.003932272 -0.021117564 0.011476537 0.0069925236
000370 95 11 69 bc cc 7b e5 3a 8a 9d 45 3c 54 7d fa 3a
       -0.014225383 0.0017508208 0.012061486 0.0019110837
000380 f5 92 aa 3d db b5 83 3c 5d 07 64 3d 27 ad 70 3b
       0.08328811 0.016077926 0.055671085 0.00367243
000390 63 de 99 bb b4 f6 17 3c d6 57 d5 3c 05 8b 9d 3b
       -0.0046957 0.009275127 0.02604286 0.004807832
0003a0 9c 9f 36 3c 1f 67 0f bc ba ac 06 bd 40 80 87 3d
       0.011146452 -0.008752613 -0.03287957 0.066162586
0003b0 7e 93 cb bb c2 ff 5d bc 1a 45 8c bc 7a fd e8 b9
       -0.006212651 -0.013549747 -0.017122794 -0.00044439343
0003c0 7d fd 2a bb b7 f4 14 bd b0 7b 43 3b 82 88 5d 3c
       -0.0026091032 -0.03636619 0.0029828362 0.0135213155
0003d0 7a 35 83 bb 5c cb 89 bb 77 bc 2f b9 b8 a5 b2 3b
       -0.0040041776 -0.0042051505 -0.00016759509 0.005451884
0003e0 99 3d ca bb b6 ce 77 bb e0 65 01 bb 30 1d b7 3a
       -0.006171894 -0.0037812418 -0.001974456 0.001397049
0003f0 e2 cb 86 bc 89 04 5c 3a a7 c0 e8 3c 1b 41 f3 3c
       -0.01645464 0.000839301 0.028412176 0.02969413

FCNet.0.weight f4 [128, 3]
000000 bc 0a 99 ba 3b bc ac ba 71 a1 09 bb 70 ae 48 3a
       -0.0011676173 -0.0013178656 -0.0021000768 0.0007655388
000010 70 8b 2a bb 30 ae a7 3a 2c 27 17 3a 89 55 1c bb
       -0.0026023053 0.0012793001 0.000576603 -0.0023854694
000020 99 43 f9 3a 39 28 fc b9 d8 b7 ba b9 08 92 dc 39
       0.0019017338 -0.00048095154 -0.0003561366 0.00042070472
000030 62 11 e2 3d 74 80 96 bc b4 12 be 3d a3 f8 48 3b
       0.11038472 -0.018371798 0.09280911 0.0030665777
000040 a0 96 6b bb 3e 15 26 bb 12 d2 f9 b8 de 34 a5 ba
       -0.0035947934 -0.0025342251 -0.00011912374 -0.0012604257
000050 7e 70 6c bb 15 08 e1 3d 96 f8 9d bc e7 26 c3 3d
       -0.0036077793 0.1098787 -0.019283574 0.095289044
000060 e6 e1 23 bb cc 52 ba ba a5 dd b1 ba 88 22 b8 3d
       -0.0025006472 -0.0014215349 -0.0013570084 0.08990961
000070 4d e6 36 3c da 30 b9 bd 4c 63 fc 3d 1b 8c 77 bc
       0.011163306 -0.09042521 0.12323627 -0.015109087
000080 e0 51 c3 3d df 98 2f ba ee a0 91 bb 2b 47 53 ba
       0.09537101 -0.00066985 -0.004444233 -0.0008059616
000090 74 fd 06 3b 43 58 b6 ba d6 ff 89 bb 50 af aa 39
       0.0020597847 -0.0013911802 -0.004211406 0.00032555545
0000a0 51 25 24 bb 88 a8 b3 ba 11 f2 d5 3a 53 35 13 bb
       -0.0025046656 -0.0013706842 0.0016322752 -0.0022462204
0000b0 c9 b3 25 ba 0f 6b 53 3c 5d 61 fd bb 3f 4e 26 3b
       -0.00063210406 0.012903943 -0.007732554 0.0025376228
0000c0 1e 2d 59 bb 2a bd 7b bb ed 6e 07 3a f4 2e 29 bd
       -0.0033138464 -0.003841231 0.00051663705 -0.041304544
0000d0 68 d0 31 bc 8e 19 9e 3d b1 5f 1d 3c 32 10 a5 bb
       -0.010852911 0.07719718 0.009605334 -0.005037331
0000e0 dd ff c3 ba 7d 01 f4 3a 9c b9 8c ba 8e af 6f 3a
       -0.0014953573 0.0018616166 -0.0010736468 0.0009143286
0000f0 19 ae e9 3d c3 3c 59 bc ba e4 bf 3d 7d 3e 5e 3b
       0.114101596 -0.013259116 0.09369798 0.0033911758
000100 9f 71 4e ba 56 93 11 ba 66 d0 cc 3a 7b 2e 45 bb
       -0.0007875207 -0.0005553266 0.0015626072 -0.003008752
000110 54 43 f7 3a 8f 0a 0b bb 87 f1 99 bb 2b 62 df ba
       0.001886467 -0.002121601 -0.0046979818 -0.0017042806
000120 56 d2 eb 3d 4d 3d a0 bc 08 f6 c2 3d e9 69 d6 ba
       0.11514728 -0.01956048 0.09519583 -0.0016358468
000130 0e 2f ec ba a8 aa 59 3a be 80 cc ba ce 45 72 bb
       -0.0018019394 0.0008303323 -0.0015602333 -0.0036967876
000140 dc 95 bb 39 f3 f7 1a 3a 02 1a 5e ba 78 06 31 38
       0.00035779073 0.0005911581 -0.00084725034 4.2206113e-05
000150 1c 30 26 3d f3 af 9f bc ac b3 f3 bb 56 08 b3 3d
       0.040573224 -0.019493079 -0.00743719 0.08741824
000160 47 62 7b 3c 66 86 b3 bd 48 4a 86 bc 65 1a 78 bc
       0.015343255 -0.08765869 -0.016392842 -0.015143012
000170 a8 bb aa 3d 94 f3 ad 3b 77 35 03 bb 95 d1 50 ba
       0.08336574 0.005308578 -0.0020020881 -0.00079658005
000180 f7 01 4b 39 1f fe 10 bb 09 f5 c4 ba 03 ab 27 3a
       0.0001936032 -0.0022124124 -0.001502664 0.0006396027
000190 04 c8 52 ba b6 dc 84 3a 5f 07 22 b6 25 ca c0 ba
       -0.0008040669 0.0010136578 -2.4144172e-06 -0.0014708681
0001a0 f6 36 02 bb 53 d4 25 3c d6 3b df bb d9 bf 92 3b
       -0.0019869185 0.010121423 -0.006812553 0.0044784364
0001b0 c5 00 48 3c fa cd 0b bc 0b 3e b1 3b 38 ba 47 3b
       0.012207215 -0.008532995 0.0054090074 0.0030475985
0001c0 c6 17 b3 bb 9d 83 52 bb 13 bd f9 b9 f0 4d d4 bb
       -0.0054654805 -0.0032121905 -0.00047633852 -0.0064790174
0001d0 2c 02 2b ba d2 b3 97 3a 85 79 2c bb 01 2c 41 bc
       -0.0006523456 0.0011573976 -0.0026317548 -0.0117902765
0001e0 e3 8e c5 ba a6 24 b0 bb 95 c2 c7 39 80 18 98 3b
       -0.0015072491 -0.0053754626 0.00038101213 0.0046415925
0001f0 f1 8e ae ba 76 06 04 bb 4b 90 77 bb 3e 11 0f bb
       -0.0013317746 -0.0020145453 -0.0037775214 -0.0021830346
000200 f4 fb 1e ba 80 15 1b ba 6a 69 af ba 69 30 da 3a
       -0.00060647656 -0.00059159845 -0.0013382856 0.0016646507
000210 ba ed 06 bd fb 88 5c bc 5a 30 ae 3d 9d e4 e7 bc
       -0.032941557 -0.013460393 0.08505316 -0.028307253
000220 d9 9e 3f bc 56 89 b0 3d 4c 16 c4 ba d5 76 2b bb
       -0.011695587 0.08619945 -0.0014960258 -0.0026163359
000230 3d e4 23 ba 44 43 89 3b 60 eb 07 bc 8c 3d 9c bb
       -0.00062519667 0.004188927 -0.008295864 -0.004768079
000240 44 6b a8 3b ec 29 f7 bb 5e 86 d2 bb 92 5c 25 3a
       0.00513974 -0.0075428393 -0.006424709 0.00063080445
000250 80 ff 66 3a 22 b0 24 3a ea cb 3c ba 99 ad 08 3a
       0.0008811876 0.00062823493 -0.00072020164 0.00052138563
000260 67 ba d6 3a 4c f0 42 ba 5d 86 0f 3a a1 79 54 b8
       0.0016382457 -0.000743632 0.0005475039 -5.0658015e-05
000270 45 e9 b5 ba 1d 66 56 bb 41 a4 f7 ba 00 28 4c ba
       -0.0013878724 -0.0032714673 -0.0018893556 -0.0007787943
000280 e3 a0 9f bb 92 a9 25 bb 41 0b de 3d 95 38 b3 bc
       -0.004871474 -0.0025278074 0.1084199 -0.021877566
000290 e1 ca b7 3d a8 3d d5 3b 1b 26 21 bb 91 76 41 bb
       0.08974243 0.006507594 -0.0024589363 -0.0029520134
0002a0 8e 6b 30 3b b0 27 c1 bb f8 14 0e bb de a2 12 3c
       0.0026919576 -0.0058946237 -0.0021679979 0.008949963
0002b0 8e b6 c4 bb ec 38 2f bc 84 32 05 3b 83 09 14 bb
       -0.0060032075 -0.010694724 0.00203243 -0.0022588677
0002c0 fa 5f 9f ba fc 84 e0 3b 87 03 03 bb aa 08 a7 ba
       -0.001215934 0.0068517905 -0.0019991116 -0.0012743671
0002d0 7f 0c 49 bc 6e 88 7b bc 6b 6f b4 3d a7 96 fc b9
       -0.012271046 -0.015352352 0.08810314 -0.0004817743
0002e0 a8 52 b7 b9 fe 7b 70 ba 32 02 d2 39 d7 5e 92 bb
       -0.00034966064 -0.000917375 0.00040055957 -0.004466872
0002f0 d3 77 a7 39 d4 6f 42 3c 47 82 ea bb a9 0e de 39
       0.00031941998 0.011867482 -0.0071566436 0.00042354062
000300 11 48 31 ba 2f 62 9b 39 b3 12 03 bb 10 16 e6 3d
       -0.0006762753 0.00029637056 -0.002000016 0.11234677
000310 9c bb b4 bc 2f 0b c5 3d 2b 04 a4 3b 09 4b 5c bb
       -0.022062115 0.09621274 0.0050053797 -0.003361406
000320 99 22 03 bc 0b 2f 03 bd 9a 61 68 bc be 5b b3 3d
       -0.008003854 -0.032027286 -0.014183426 0.08757733
000330 72 15 c9 3b 5a 87 b6 bb c4 da d9 bb d9 b3 95 38
       0.0061365897 -0.0055703344 -0.0066483933 7.138373e-05
000340 f1 6c 54 bb 70 ad d9 ba e0 ff 04 bb 64 20 12 bb
       -0.0032413567 -0.0016607475 -0.0020294115 -0.0022297138
000350 22 7f 34 bb 48 ac dc 38 99 f3 5e bb 3c da 60 3a
       -0.0027541597 0.000105225074 -0.0034019707 0.00085774413
000360 41 f3 18 bd ec 8c 8b bc 12 de ad 3d 3c 6a 07 3e
       -0.03734136 -0.01703497 0.08489622 0.13224119
000370 33 40 b1 bc 7b 87 bf 3d c6 95 da ba 38 f0 ee ba
       -0.021637058 0.09352013 -0.0016676716 -0.001822955
000380 25 02 94 ba d1 58 44 3b 7a 91 7b ba f8 c5 81 ba
       -0.0011292143 0.0029960165 -0.0009596568 -0.0009900918
000390 f3 77 01 3c b3 df 2c bc 6b e6 67 3b 39 6b ca 3b
       0.007902133 -0.010551381 0.0035385143 0.0061773327
0003a0 e5 7f 73 bb 7f bd 54 bb ab ee 32 3d ba d6 a1 bb
       -0.0037155089 -0.0032461581 0.043684643 -0.0049389275
0003b0 ea 91 9f 3d be a7 11 39 2e 09 b2 ba 50 42 f2 39
       0.07791503 0.00013890766 -0.0013583058 0.00046207244
0003c0 b3 41 6d bb e9 e7 d6 ba 60 f6 0e bc 44 85 31 bb
       -0.003620249 -0.0016396019 -0.008725733 -0.002708749
0003d0 e1 94 42 bb ee 9c 3a bb 3e f7 86 bb e1 9f 8c bb
       -0.002969079 -0.0028474885 -0.004118829 -0.00429152
0003e0 d1 3e 09 3b e9 3f 2e ba c1 21 bd ba 46 2a 8b 3a
       0.0020941983 -0.00066470966 -0.0014429615 0.0010617457
0003f0 5e 6b 82 ba 3f 6a 2b ba 31 25 0d b9 57 3e ba ba
       -0.0009950211 -0.0006538964 -0.00013460663 -0.0014209253
