ActorCritic/model/actor.pth (torch, 278879 bytes, 6 tensors)

fc1.weight f4 [256, 8]
-0.22712074 0.21255153 0.07401904 0.19974825 -0.4333261 0.07922238 0.18375044 0.22462259
-0.080343075 0.12423672 -0.3075357 0.50656515 0.12785818 0.28811687 0.34084398 0.39763182
-0.30707633 0.041572534 -0.49430707 -0.11509226 0.51123977 0.3827292 0.17959793 0.37701818
0.06526457 0.0042129713 0.043725204 -0.28269002 0.40177903 0.063267745 0.058555707 -0.052738365
0.30724466 -0.022832884 0.7414336 -0.08094523 -0.01264102 0.36284518 -0.1744292 -0.19445725
0.14572051 0.3073971 0.16128215 0.5483424 -0.17081545 0.2430455 -0.17990266 -0.05048933
-0.23238894 0.17052163 -0.27290994 0.05337976 0.4265118 -0.15108953 0.090191275 0.22568747
-0.14243262 -0.30182758 -0.25362927 -0.32389566 -0.052369665 0.08024959 -0.03770661 0.21585411
0.15767683 0.12735645 0.82159024 0.05945666 -0.0404981 0.3055036 -0.29626802 -0.241102
0.29875728 -0.31100187 -0.013862089 0.037484996 0.17065358 -0.10039209 -0.12511578 -0.09158557
0.10664122 0.0013588556 -0.41016558 -0.39117247 0.09486137 -0.013004052 0.30473116 -0.10791752
-0.25969017 -0.18580802 -0.09193618 -0.076547585 0.29970303 -0.2976405 -0.1832122 -0.17294766
-0.08751559 0.081146285 -0.6281724 0.16739237 0.40614656 0.20299861 -0.24994288 0.16940638
0.17866597 0.15253706 -0.3537388 -0.42692932 0.07058882 0.22553144 -0.19174135 0.106658034
0.2033568 0.2511172 0.28836823 -0.061774917 -0.42444873 -0.0026406602 -0.25554743 0.20682393
-0.30337486 0.061472137 -0.37130606 0.14605404 0.35399434 0.37216038 0.26557857 0.158198
0.19271326 0.27133107 -0.5985397 -0.11446597 0.305988 0.07905122 0.007288639 0.10875996
-0.014075566 -0.14682497 -0.2435673 -0.019730022 0.47111216 -0.38538837 0.30642214 0.36552748
0.076385744 0.20096886 -0.54322076 -0.33846343 0.29289192 0.046233676 -0.035176806 -0.04375816
0.06547309 0.025772123 0.89496714 -0.18774337 -0.2409741 0.24062629 -0.10746191 0.018123738
0.23729657 0.22664465 -0.47161052 -0.065701716 0.3794716 -0.0025656894 -0.030097349 -0.19162369
-0.023967983 0.18449375 0.20551397 -0.13752319 -0.08499433 -0.06404039 -0.27818286 0.147939
-0.04303567 0.23900059 0.3155999 0.03698361 -0.53612244 -0.39812502 -0.07291286 -0.09933486
-0.008674094 0.24242792 -0.5883469 0.009619571 0.1833572 0.10265083 0.21030241 -0.23591165
0.19924486 0.2828723 0.62748706 -0.12551685 -0.30964532 0.24639499 -0.19298051 -0.32580513
0.15326583 0.23414885 0.35077286 -0.2514352 -0.28978637 0.14968702 0.24059479 0.14575271
-0.275176 0.04270385 0.5888925 0.21299846 -0.56368065 -0.28021646 -0.19084536 0.010835091
-0.097235225 -0.21488346 -0.1264693 0.28399652 -0.16863826 -0.32914093 0.120898634 0.3829985
0.009513304 -0.27614787 -0.39270774 -0.27450672 -0.14722833 0.3036738 -0.2240432 0.043180406
-0.17313759 0.08287491 0.43068647 0.058673717 -0.25211692 -0.056127984 -0.14937985 -0.27200603
-0.35359785 -0.09853616 0.46618634 0.060224846 -0.3223515 0.18945691 -0.22907943 0.23127593
0.015037506 -0.02330254 0.26092598 -0.0052650045 -0.15867878 -0.10283567 0.07528984 -0.2686717
00000000: 5792 68be 1ca7 593e 4b97 973d ce8a 4c3e
00000010: ebdc ddbe 583f a23d 1329 3c3e 7703 663e
00000020: e98a a4bd d26f fe3d 5275 9dbe 41ae 013f
00000030: 41ed 023e 0e84 933e 1a83 ae3e 6696 cb3e
00000040: 1c39 9dbe f647 2a3d d115 fdbe 7eb5 ebbd
00000050: 9ce0 023f 15f5 c33e 85e8 373e 8708 c13e
00000060: 6ea9 853d f70c 8a3b 3319 333d bfbc 90be
00000070: fbb5 cd3e 8592 813d 1cd8 6f3d 2f04 58bd
00000080: 2c4f 9d3e 070c bbbc 98ce 3d3f 9dc6 a5bd
00000090: 481c 4fbc d8c6 b93e 919d 32be cd1f 47be
000000a0: c237 153e 2763 9d3e 2627 253e 2b60 0c3f
000000b0: 3fea 2ebe ebe0 783e 6738 38be e6cd 4ebd
000000c0: 5ef7 6dbe 399d 2e3e daba 8bbe bca4 5a3d
000000d0: c15f da3e 37b7 1abe 34b6 b83d 9e1a 673e
000000e0: dbd9 11be 2589 9abe b2db 81be a7d5 a5be
000000f0: 9381 56bd e659 a43d 3f72 1abd dc08 5d3e
00000100: 0976 213e bb69 023e bd53 523f d488 733d
00000110: 56e1 25bd f86a 9c3e 71b0 97be 71e3 76be
00000120: b7f6 983e a33b 9fbe d11d 63bc de89 193d
00000130: d0bf 2e3e 5e9a cdbd 5a1e 00be 3791 bbbd
00000140: b666 da3d a11b b23a 3901 d2be c247 c8be
00000150: ae46 c23d f30e 55bc b905 9c3e dc03 ddbd
00000160: 1cf6 84be 7544 3ebe 0949 bcbd fbc4 9cbd
00000170: ad72 993e 5664 98be fb9b 3bbe 3119 31be
00000180: 603b b3bd 0630 a63d e8cf 20bf e868 2b3e
00000190: 71f2 cf3e dede 4f3e 07f1 7fbe de78 2d3e
000001a0: 36f4 363e ad32 1c3e 411d b5be 7b96 dabe
000001b0: df90 903d b7f1 663e d857 44be 876f da3d
000001c0: c43c 503e 6f92 803e 00a5 933e b207 7dbd
000001d0: 5851 d9be ed0e 2dbb 1dd7 82be a7c9 533e
000001e0: f353 9bbe 35ca 7b3d d41b bebe 318f 153e
000001f0: bf3e b53e ce8b be3e eaf9 873e a8fe 213e
00000200: a056 453e e8eb 8a3e e639 19bf 226d eabd
00000210: 76aa 9c3e 9be5 a13d 89d5 ee3b 8bbd de3d
00000220: 349d 66bc 4959 16be b569 79be dba0 a1bc
00000230: 9d35 f13e a051 c5be 5de3 9c3e 6b26 bb3e
00000240: 2170 9c3d c8ca 4d3e 8410 0bbf 144b adbe
00000250: eef5 953e 865f 3d3d 8e15 10bd c23b 33bd
00000260: c116 863d 0f20 d33c 911c 653f cc3f 40be
00000270: eac1 76be bd66 763e fd14 dcbd 3c78 943c
00000280: dffd 723e 8915 683e ef76 f1be 9f8e 86bd
00000290: 1a4a c23e 2025 28bb b78e f6bc 0039 44be
000002a0: 8158 c4bc eeeb 3c3e 4172 523e e1d2 0cbe
000002b0: 8211 aebd 9c27 83bd fc6d 8ebe 527d 173e
000002c0: 2c46 30bd 92bc 743e 4f96 a13e 207c 173d
000002d0: 523f 09bf 0bd7 cbbe 5653 95bd 1370 cbbd
000002e0: ca1d 0ebc 063f 783e e79d 16bf 689b 1d3c
000002f0: fdc1 3b3e 993a d23d 8459 573e d392 71be
00000300: d806 4c3e a3d4 903e fea2 203f 7d87 00be
00000310: d589 9ebe f84e 7c3e af9c 45be eecf a6be
00000320: b8f1 1c3e b7c4 6f3e 8098 b33e 1dbc 80be
00000330: e15e 94be 8e47 193e 7b5e 763e 3340 153e
00000340: dee3 8cbe 3bea 2e3d a9c1 163f 451c 5a3e
00000350: 604d 10bf 8878 8fbe f76c 43be aa85 313c
00000360: 4323 c7bd 690a 5cbe 2b81 01be fe67 913e
00000370: 82af 2cbe 2985 a8be b499 f73d 6118 c43e
00000380: b0dd 1b3c 4163 8dbe fd10 c9be 258c 8cbe
00000390: 06c3 16be 227b 9b3e 956b 65be f0dd 303d
000003a0: fb4a 31be 52ba a93d f082 dc3e da53 703d
000003b0: 7815 81be 75e6 65bd 08f7 18be 6044 8bbe
000003c0: c70a b5be 54cd c9bd faaf ee3e 54ae 763d
000003d0: 410b a5be fe00 423e cc93 6abe 99d3 6c3e
000003e0: df5f 763c f8e4 bebc 1798 853e 0f86 acbb
000003f0: b17c 22be 829b d2bd 8f31 9a3d 568f 89be

fc1.bias f4 [256]
-0.014282952 -0.1468456 0.12327622 0.15890518 0.37645873 -0.27792615 -0.21120897 -0.20945607
0.23109405 -0.3088075 0.35380837 -0.11292863 -0.092653014 0.21292244 -0.3294713 -0.053903755
-0.014724753 0.2861184 0.24171022 0.15068544 0.12795366 0.27274618 -0.12496596 0.03820458
-0.16115566 0.09215211 0.018921841 0.058523826 0.12905653 -0.113367155 0.27417785 0.25462595
0.03380222 0.23015703 0.21702315 0.13078572 0.29156485 -0.2461624 0.39671177 -0.34615046
-0.10963623 -0.2129715 -0.10816084 -0.04281841 -0.3145437 0.361717 0.38281712 0.030291228
0.2080277 -0.080168575 0.3533546 -0.29698312 -0.038420204 0.15713352 0.34381193 0.07462477
-0.16210012 0.30456972 -0.11078213 -0.2773711 -0.095672935 0.32364288 0.20402202 -0.31612325
0.13177307 0.33081177 -0.22111875 0.32558396 0.23929222 0.3249655 0.3724512 0.15286069
-0.16348304 0.375561 0.27908462 0.36998346 0.18847649 -0.06958213 0.03651186 -0.29436776
0.42542532 0.016804434 -0.14035772 -0.096098736 0.11636441 0.22214389 0.2523602 0.11923949
0.11488062 -0.13395478 0.2844297 -0.03808205 0.116087176 0.111905485 0.12989019 -0.24210533
-0.101533145 0.17463885 0.344349 0.3704808 0.3280062 -0.25387612 0.02002412 0.093751535
-0.24766615 0.11335147 -0.1288535 0.13529055 0.19023971 0.009430642 0.20021911 -0.023945356
0.37570536 -0.13232993 0.24433239 0.05364176 -0.26429027 -0.17351983 0.09528846 -0.043922745
-0.11098258 0.13363564 -0.1141434 -0.21730405 0.078244336 0.4011274 0.17324637 -0.079254605
0.24639586 -0.04252656 0.05456402 0.13070616 0.17436424 0.017356439 0.026993776 0.12705523
0.3050178 0.16777353 0.2197354 0.29782504 -0.031195005 0.3350198 0.08220476 -0.3047413
-0.10319655 0.32933503 -0.33644924 0.42696443 0.08842197 0.20202966 0.33750185 -0.07104242
0.26593304 0.11909476 -0.27701214 0.07939423 0.16457668 0.025961846 -0.028302798 0.010329446
0.26817685 -0.06288539 0.44280425 0.30751723 0.12356286 -0.28936955 0.14896232 -0.27145863
0.20129685 0.036334924 0.24576008 0.030135583 0.31490132 0.15873441 -0.28081653 -0.07047039
-0.27735496 0.37501937 -0.31153777 -0.32792315 0.10225457 -0.1724503 -0.14893007 0.2063736
0.036207173 0.27488402 -0.11503272 0.26221022 -0.10391123 0.45814785 0.22523378 -0.070699826
0.03495431 -0.02339435 0.037772734 0.27725405 0.13109858 0.3628503 -0.10201945 0.19278462
0.31653637 -0.00069062266 -0.20685363 0.19854492 0.040221512 -0.22863504 -0.31583086 -0.09749748
0.43091032 0.094028555 0.27160224 -0.2121327 0.06858275 0.331906 -0.2741869 0.14170691
-0.09646904 0.090215996 -0.04838695 -0.017373849 0.027779289 -0.3735604 0.29293698 0.046244334
0.014152554 0.17392723 0.253862 0.11755077 0.03723289 0.06532763 -0.11033872 0.4282451
0.49473435 -0.10829183 -0.16447197 -0.012776849 0.022609266 0.07013813 0.08716111 0.2617086
-0.25888196 0.06697168 0.16288015 0.21416257 0.29681686 0.18056571 0.011868498 0.1764394
-0.32657975 0.13275823 0.41228178 0.07374943 0.18929915 0.15017426 0.2166844 -0.13068344
00000000: 0b03 6abc b15e 16be 3e78 fc3d 0ab8 223e
00000010: 33bf c03e 564c 8ebe 2a47 58be a77b 56be
00000020: eba3 6c3e 041c 9ebe 5f26 b53e 2047 e7bd
00000030: ddc0 bdbd 5708 5a3e 76b0 a8be 2fca 5cbd
00000040: 1740 71bc 1c7e 923e e282 773e 494d 1a3e
00000050: 4906 033e 63a5 8b3e 27ee ffbd 687c 1c3d
00000060: fd05 25be 3fba bc3d fa01 9b3c aeb6 6f3d
00000070: 6527 043e 0a2d e8bd 0a61 8c3e 555e 823e
00000080: 3274 0a3d 49ae 6b3e 513b 5e3e b1ec 053e
00000090: fd47 953e ff11 7cbe ce1d cb3e a23a b1be
000000a0: f688 e0bd 3315 5abe 6e83 ddbd 5b62 2fbd
000000b0: df0b a1be f832 b93e 9b00 c43e 4f25 f83c
000000c0: 3705 553e 6c2f a4bd e5ea b43e 2c0e 98be
000000d0: 815e 1dbd 9ce7 203e 1e08 b03e dfd4 983d
000000e0: 93fd 25be 90f0 9b3e bee1 e2bd 9603 8ebe
000000f0: 2cf0 c3bd 85b4 a53e 26eb 503e e8da a1be
00000100: 85ef 063e 2960 a93e f46c 62be f1b2 a63e
00000110: 0509 753e e161 a63e ecb1 be3e 8387 1c3e
00000120: 1968 27be 8849 c03e 2ee4 8e3e 796e bd3e
00000130: fbff 403e 1381 8ebd 768d 153d 5fb7 96be
00000140: 59d1 d93e 74a9 893c efb9 0fbe 6acf c4bd
00000150: 7750 ee3d b079 633e 5b35 813e d533 f43d
00000160: 8846 eb3d 712b 09be c5a0 913e ecfb 1bbd
00000170: 1dbf ed3d b42e e53d ef01 053e 76ea 77be
00000180: 9cf0 cfbd 87d4 323e 834e b03e a9af bd3e
00000190: 6ef0 a73e 0dfc 81be a009 a43c ce00 c03d
000001a0: 329c 7dbe d124 e83d 2cf2 03be 9b89 0a3e
000001b0: 33ce 423e fb82 1a3c 3d06 4d3e 0d29 c4bc
000001c0: 745c c03e 7f81 07be 4532 7a3e 76b7 5b3d
000001d0: 0e51 87be 2faf 31be 9926 c33d 56e8 33bd
000001e0: d64a e3bd c8d7 083e 04c4 e9bd f484 5ebe
000001f0: 913e a03d 9260 cd3e 7f67 313e 3d50 a2bd
00000200: 324f 7c3e 5530 2ebd 867e 5f3d d6d7 053e
00000210: 8a8c 323e 172f 8e3c 0d22 dd3c c41a 023e
00000220: 4b2b 9c3e d3cc 2b3e 5102 613e 867c 983e
00000230: ab8c ffbc b787 ab3e f85a a83d 0d07 9cbe
00000240: b658 d3bd 9a9e a83e 1343 acbe 159b da3e
00000250: 9416 b53d dde0 4e3e 0bcd ac3e b07e 91bd
00000260: 6028 883e f4e7 f33d 89d4 8dbe 7199 a23d
00000270: ca86 283e f0ad d43c 45db e7bc d63c 293c
00000280: 7a4e 893e 0eca 80bd 3db7 e23e e672 9d3e
00000290: 860e fd3d 3f28 94be 9489 183e a0fc 8abe
000002a0: c320 4e3e eed3 143d 88a8 7b3e e6de f63c
000002b0: bf3a a13e 468b 223e 2fc7 8fbe c852 90bd
000002c0: 7801 8ebe 8a02 c03e e181 9fbe 8be5 a7be
000002d0: d86a d13d d096 30be 2081 18be 9a53 533e
000002e0: f94d 143d 99bd 8c3e 4696 ebbd 6b40 863e
000002f0: 69cf d4bd 5b92 ea3e afa3 663e 12cb 90bd
00000300: 402c 0f3d 82a5 bfbc 95b7 1a3d 3ef4 8d3e
00000310: b53e 063e 84c7 b93e 93ef d0bd 5569 453e
00000320: 0e11 a23e e70a 35ba 70d1 53be 5c4f 4b3e
00000330: 50bf 243d 4e1f 6abe 95b4 a1be c2ac c7bd
00000340: 47a0 dc3e 0b92 c03d 730f 8b3e 5139 59be
00000350: 1d75 8c3d 95ef a93e 3a62 8cbe 9e1b 113e
00000360: 8f91 c5bd 2ac3 b83d 6531 46bd 9a53 8ebc
00000370: 6491 e33c 4f43 bfbe d6fb 953e b36a 3d3d
00000380: 1de0 673c fb19 323e 33fa 813e 75be f03d
00000390: 8481 183d 7eca 853d 44f9 e1bd f142 db3e
000003a0: d24d fd3e 1bc8 ddbd 576b 28be fd55 51bc
000003b0: 1137 b93c 94a4 8f3d 8681 b23d abfe 853e
000003c0: 2d8c 84be 7328 893d 0eca 263e 6f4d 5b3e
000003d0: 61f8 973e 38e6 383e 1774 423c 88ac 343e
000003e0: 7635 a7be c6f1 073e 9916 d33e f109 973d
000003f0: a3d7 413e 48c7 193e 84e2 5d3e e1d1 05be

fc2.weight f4 [256, 256]
-0.057482842 -0.06767964 0.05483782 0.14159979 0.11896852 -0.13387883 -0.07267501 0.06771507
-0.0056723524 0.027781844 0.027946414 -0.012859876 -0.11503045 0.11400638 -0.15333258 0.028368184
0.057754934 -0.10627152 0.04748822 -0.044074226 0.071074694 -0.008296613 -0.027903989 -0.004719336
-0.0386526 0.04617333 -0.12552802 -0.021594867 0.01443985 -0.15941863 -0.15765518 0.041560218
0.016385222 -0.12764111 0.07315659 0.029285505 -0.07440546 -0.14033453 -0.102020584 0.020395748
0.0038478065 -0.029951282 0.04696121 0.056725003 0.008808282 -0.023114054 -0.0028241104 -0.015503041
0.06925955 0.017240405 -0.01221803 -0.22307667 -0.034485657 0.043414522 -0.11446279 0.009045317
-0.001837541 0.050488472 0.04357426 -0.22192825 0.03944228 -0.05562926 0.086153105 0.058188252
-0.06917571 -0.119602546 0.08613039 -0.16936736 -0.045311242 0.03682789 0.09099783 -0.00054743583
-0.084513806 -0.034517433 -0.016991705 0.043032516 -0.053722385 0.0047398377 0.028096842 -0.041151762
0.09497082 -0.029195331 -0.022095503 -0.077791296 -0.012171167 0.10078275 -0.00013104733 -0.036602177
-0.08801101 -0.15296336 0.0056779357 0.028012332 0.060118727 0.029590484 0.004475018 -0.115192175
0.08912589 0.023177877 0.09849433 0.044966355 -0.113887995 0.12132363 0.2897711 -0.08479372
-0.032615583 0.037321437 0.14913553 -0.057940662 0.08485647 0.059488766 0.166327 0.0021691907
0.044866793 0.002053935 -0.021653807 0.10402436 0.15141302 -0.04014842 0.013476518 -0.094355606
0.001940119 0.031676877 -0.061892387 0.032749977 0.039306995 0.07084794 0.069546506 -0.04493111
0.05858715 -0.020761201 0.14824846 -0.071387924 -0.1400739 -0.05988741 0.088488944 0.11284891
-0.003023263 0.05383225 0.026125282 0.0851493 -0.01464466 0.037385825 0.07513637 0.027863014
-0.046094682 -0.03471872 -0.06318476 0.002512979 0.08870667 0.04909539 0.06637503 -0.09872938
0.032083053 -0.1051881 0.010555754 -0.047040813 0.0522507 0.1944645 0.01803087 0.08192341
-0.009712856 -0.012428716 -0.08569494 0.017728845 -0.09088955 -0.039901502 0.09869518 -0.05555525
0.06726476 0.06686501 -0.009324084 -0.042828985 0.035343025 -0.04356805 -0.08816184 -0.067448914
-0.035619743 -0.039070625 -0.13663402 -0.06690559 0.014868291 -0.13469137 0.0006265287 0.017578889
-0.0308285 0.053941052 -0.04900293 0.008606288 -0.090028055 0.057919875 -0.08158289 0.027121196
-0.03882835 0.004364592 0.02479013 -0.017428584 0.08088852 -0.09371975 -0.11864255 0.13545232
-0.0149183655 -0.15317965 -0.11884368 -0.10575083 0.009697834 0.0062201554 -0.015871515 -0.16163227
-0.0028321443 0.018558292 0.059037294 -0.0025486322 -0.06052391 -0.10397477 0.018928375 0.04600664
0.048229337 -0.00885995 0.009336204 0.05738287 0.11098627 -0.113638714 0.037920743 0.17647405
0.011833333 0.0044880896 0.010362754 -0.014757434 0.1343645 0.021128785 -0.05975823 -0.09249756
0.13123183 -0.048313558 -0.103237614 0.03335195 0.014310344 -0.08317154 0.18329503 0.012623947
-0.029440455 -0.1403833 0.19311501 0.04970105 0.034188032 0.020009613 0.008524192 -0.13319989
-0.107281856 0.0024249046 -0.09657463 -0.07594233 0.04351071 -0.011923691 0.08623216 0.08367966
00000000: 2173 6bbd a09b 8abd 9f9d 603d 89ff 103e
00000010: c4a5 f33d 8817 09be a3d6 94bd 33ae 8a3d
00000020: 24df b9bb c096 e33c e1ef e43c 3bb2 52bc
00000030: 1695 ebbd 2d7c e93d 3703 1dbe 6564 e83c
00000040: 7090 6c3d e2a4 d9bd 0283 423d 2d87 34bd
00000050: 9c8f 913d 84ee 07bc e896 e4bc a9a4 9abb
00000060: 3052 1ebd 3f20 3d3d 6b8a 00be b8e7 b0bc
00000070: 1f95 6c3c a33e 23be 5c70 21be 0c3b 2a3d
00000080: 4d3a 863c 5ab4 02be 1fd3 953d 28e8 ef3c
00000090: e461 98bd dbb3 0fbe 2bf0 d0bd fc14 a73c
000000a0: 7b2b 7c3b 645c f5bc 665a 403d 7a58 683d
000000b0: 9d50 103c af59 bdbc b614 39bb 7800 7ebc
000000c0: f3d7 8d3d c03b 8d3c 222e 48bc 366e 64be
000000d0: d540 0dbd 6dd3 313d 786b eabd cf32 143c
000000e0: a5d9 f0ba 00cd 4e3d ec7a 323d 2941 63be
000000f0: 3a8e 213d 82db 63bd 0a71 b03d ce56 6e3d
00000100: ffab 8dbd 2ef2 f4bd 2165 b03d a36e 2dbe
00000110: 4898 39bd d7d8 163d 125d ba3d cc81 0fba
00000120: 9315 adbd 2762 0dbd 3032 8bbc dd42 303d
00000130: 010c 5cbd a450 9b3b 592b e63c c08e 28bd
00000140: 1080 c23d 0c2b efbc a101 b5bc 0b51 9fbd
00000150: 9369 47bc 3067 ce3d c069 09b9 2aec 15bd
00000160: 1e3f b4bd 6da2 1cbe fa0d ba3b 1e7a e53c
00000170: 0e3f 763d be67 f23c 2ca3 923b e0e9 ebbd
00000180: a287 b63d 88df bd3c 65b7 c93d a42e 383d
00000190: 1c3e e9bd 8678 f83d e15c 943e 54a8 adbd
000001a0: eb97 05bd 5dde 183d fcb6 183e 3053 6dbd
000001b0: 3bc9 ad3d 7eaa 733d a051 2a3e fb28 0e3b
000001c0: 3ec6 373d 509b 063b 5363 b1bc b90a d53d
000001d0: 040c 1b3e ab72 24bd 9dcc 5c3c 833d c1bd
000001e0: 974b fe3a 9dbf 013d df82 7dbd d724 063d
000001f0: 5f00 213d ba18 913d 666e 8e3d af09 38bd
00000200: 14f9 6f3d 6513 aabc 72ce 173e d533 92bd
00000210: 886f 0fbe 804c 75bd b139 b53d 541d e73d
00000220: f021 46bb 357f 5c3d b004 d63c c262 ae3d
00000230: 28f0 6fbc e121 193d 19e1 993d fa40 e43c
00000240: c7cd 3cbd 3735 0ebd 0367 81bd cbb0 243b
00000250: d8ab b53d 3f18 493d a2ef 873d a132 cabd
00000260: 8569 033d dc6c d7bd 0bf2 2c3c dead 40bd
00000270: d404 563d b421 473e 7ab5 933c 76c7 a73d
00000280: ac22 1fbc d0a1 4bbc d480 afbd 153c 913c
00000290: 4d24 babd c26f 23bd b320 ca3d e78d 63bd
000002a0: 1bc2 893d 86f0 883d 0bc4 18bc 726d 2fbd
000002b0: d9c3 103d 6974 32bd 328e b4bd a822 8abd
000002c0: 02e6 11bd 8508 20bd cae9 0bbe cc05 89bd
000002d0: 229a 733c 89ec 09be a13d 243a 9a01 903c
000002e0: 0d8c fcbc 4bf1 5c3d 4cb7 48bd 6301 0d3c
000002f0: a160 b8bd 643d 6d3d ee14 a7bd 452d de3c
00000300: 7a0a 1fbd da04 8f3b ac14 cb3c 64c6 8ebc
00000310: e1a8 a53d 24f0 bfbd defa f2bd 03b4 0a3e
00000320: 296c 74bc 20db 1cbe 5164 f3bd e493 d8bd
00000330: aae3 1e3c 72d2 cb3b fb04 82bc ee82 25be
00000340: 7f9b 39bb 8f07 983c 17d1 713d f406 27bb
00000350: ebe7 77bd b9f0 d4bd ae0f 9b3c 7571 3c3d
00000360: 208c 453d 5329 11bc e1f6 183c 4d0a 6b3d
00000370: c54c e33d 6abb e8bd c852 1b3d 9db5 343e
00000380: 99e0 413c d310 933b 8ac8 293c 2ac9 71bc
00000390: d996 093e 4616 ad3c 0cc5 74bd 5c6f bdbd
000003a0: a361 063e 70e4 45bd 3e6e d3bd 0e9c 083d
000003b0: ef75 6a3c d755 aabd b1b1 3b3e acd4 4e3c
000003c0: 1c2d f1bc a4c0 0fbe f1bf 453e 5493 4b3d
000003d0: c008 0c3d 33eb a33c 0da9 0b3c 8d65 08be
000003e0: 97b6 dbbd 26eb 1e3b ebc8 c5bd a787 9bbd
000003f0: 4938 323d 965b 43bc 7d9a b03d 3e60 ab3d

fc2.bias f4 [256]
0.084525265 -0.0016160586 -0.010640455 0.020952037 -0.006980957 -0.0071499944 -0.06088232 0.049067978
-0.0068363673 0.017078213 0.027281405 0.048069455 0.056673978 -0.03280022 0.036195625 0.033294197
0.029900858 -0.038987704 0.0022070138 0.010171731 -0.015181207 -0.049875587 -0.08617864 0.0139548965
-0.030137451 0.09271131 0.03627746 0.074205674 0.01706145 0.04587675 0.017677689 0.045092944
0.044095293 0.014946856 0.014506922 -0.0416827 0.105550975 -0.05901774 0.039534286 0.08446412
0.0521244 0.07172593 0.018547643 0.065378614 -0.02792857 0.006746915 -0.051493824 0.020799026
-0.048958577 0.02203697 0.0116373105 -0.02847913 0.01809987 0.07996043 0.011272687 0.032073732
-0.0295048 0.036374405 0.026474483 -0.0091650365 -0.06866659 0.08487496 0.03460068 -0.047298692
0.09444263 -0.03957011 -0.07433703 0.0125139095 0.005826289 0.07876372 0.0076131425 0.026253872
0.07019875 0.0011591162 0.037638254 -0.045022555 0.0371801 0.04397685 0.10913924 0.11980387
0.016787365 -0.00054791605 0.034220345 -0.0215025 0.040965382 -0.029240103 0.09046668 -0.046580166
-0.044347584 -0.0582761 -0.048724506 0.08391918 0.115416035 -0.101719305 0.025514957 0.034038823
-0.03779544 0.030401433 -0.076214634 -0.002520131 0.071903355 -0.0878931 -0.014422139 0.04366135
-0.0013231549 0.07153618 -0.05159741 -0.078873165 0.06372885 0.0012549424 0.036987755 0.08792494
-0.03327907 -0.006433722 -0.047057755 0.016608227 -0.037415925 0.024634441 -0.043551542 -0.07728306
0.00017111434 0.07529968 0.005575438 0.026883496 0.06456829 0.08237872 0.10238786 -0.03839071
-0.03774335 0.013854797 -0.06185165 0.0038761657 -0.03732185 0.0914272 0.028218538 -0.013642174
0.086697705 0.025847197 0.0063398997 -0.077245876 -0.0038451266 0.080464706 -0.06733812 0.040002417
0.13201562 -0.0090540685 0.122003384 -0.023093827 0.018532002 -0.07212246 0.12001995 -0.09695056
0.013916288 0.060126495 0.07236183 -0.025722228 0.09329623 -0.014180152 0.07142949 0.09328942
0.04988691 0.022481889 0.017679073 0.04679553 -0.0021235514 0.02300574 -0.00482288 0.02949539
0.008827195 0.051025033 0.040036317 0.10622569 -0.05871416 -0.090620086 -0.005901133 -0.017710514
-0.08039742 -0.05446714 -0.05525321 0.014818636 0.034096595 0.082386084 0.041356966 -0.041317366
0.076457635 -0.044384837 -0.06766722 -0.009774251 0.007978919 0.06240729 -0.004098014 -0.0027998055
0.03647326 -0.016169973 0.06013739 -0.0148076825 -0.084460005 0.035322964 0.08904809 0.09527859
0.007015784 -0.04818073 -0.031053519 0.093387656 0.0472802 0.05562659 -0.0419372 0.028294608
-0.006880862 0.015386227 0.008957417 -0.0064110593 0.021163534 0.10213336 -0.018717336 0.00020046406
0.010533539 0.051699147 0.053983144 0.07236879 0.014067984 -0.051882677 0.09528237 -0.0052341092
0.091590986 0.0042622 0.028298499 0.09623556 -0.0041155126 -0.04629729 0.013988988 0.084391266
0.01601052 0.08082919 -0.008439968 0.031114083 -0.022437083 -0.032182384 0.034551516 -0.012162907
0.082638904 0.076992 0.028281802 -0.08304614 0.032244105 0.024471018 0.07485596 -0.059790485
0.09150492 0.06300526 0.07505798 -0.06356741 0.09681972 -0.055693746 0.031720918 0.10806702
00000000: 951b ad3d eed1 d3ba 4e55 2ebc 9ba3 ab3c
00000010: 83c0 e4bb 804a eabb bd5f 79bd 81fb 483d
00000020: 9b03 e0bb 9ce7 8b3c 417d df3c 7ae4 443d
00000030: f922 683d 8659 06bd dd41 143d 7f5f 083d
00000040: a5f2 f43c 92b1 1fbd 8ca3 103b 55a7 263c
00000050: 99ba 78bc 584a 4cbd 6d7e b0bd 14a3 643c
00000060: d1e2 f6bc 6ddf bd3d ad97 143d 25f9 973d
00000070: 74c4 8b3c 42e9 3b3d cdd0 903c 61b3 383d
00000080: 449d 343d a8e3 743c 71ae 6d3c 7bbb 2abd
00000090: 1c2b d83d 96bc 71bd b4ee 213d 86fb ac3d
000000a0: 6580 553d 0be5 923d 3af1 973c 39e5 853d
000000b0: 75ca e4bc 3a15 dd3b 30eb 52bd b862 aa3c
000000c0: ca88 48bd e086 b43c 6baa 3e3c 104d e9bc
000000d0: 2e46 943c 4bc2 a33d 14b1 383c bf5f 033d
000000e0: 0db4 f1bc 54fd 143d 04e1 d83c f328 16bc
000000f0: 12a1 8cbd ecd2 ad3d 71b9 0d3d 46bc 41bd
00000100: 236b c13d 4514 22bd 033e 98bd 2407 4d3c
00000110: 74ea be3b e04e a13d ab77 f93b 5c12 d73c
00000120: 5dc4 8f3d 7ced 973a 922a 1a3d 9269 38bd
00000130: 294a 183d 1221 343d 6584 df3d bb5b f53d
00000140: a885 893c 06a2 0fba a22a 0c3d 0326 b0bc
00000150: 51cb 273d f188 efbc 9846 b93d d8ca 3ebd
00000160: d0a5 35bd ebb2 6ebd 5993 47bd d2dd ab3d
00000170: 3e5f ec3d 3652 d0bd be04 d13c 4b6c 0b3d
00000180: 64cf 1abd 6d0c f93c 6b16 9cbd c828 25bb
00000190: 1142 933d 4c01 b4bd d64a 6cbc 3ed6 323d
000001a0: b66d adba 9081 923d ce57 53bd 4188 a1bd
000001b0: 4584 823d e17c a43a 7980 173d fe11 b43d
000001c0: a24f 08bd f9d1 d2bb a2bf 40bd fa0d 883c
000001d0: 7141 19bd 2bce c93c 1a63 32bd 9546 9ebd
000001e0: 286d 3339 b836 9a3d 2ab2 b63b c73a dc3c
000001f0: 613c 843d 2db6 a83d bab0 d13d 943f 1dbd
00000200: c598 1abd 3bff 623c 2858 7dbd 4507 7e3b
00000210: ccde 18bd 2f3e bb3d 902a e73c 6d83 5fbc
00000220: 918e b13d 80bd d33c efbe cf3b 1633 9ebd
00000230: 85fe 7bbb aeca a43d 91e8 89bd 93d9 233d
00000240: 1a2f 073e 8457 14bc e9dc f93d 442f bdbc
00000250: 6dd0 973c f1b4 93bd 05cd f53d 048e c6bd
00000260: 2401 643c 3347 763d 7032 943d 6cb7 d2bc
00000270: 1812 bf3d de53 68bc a049 923d 860e bf3d
00000280: 3756 4c3d f02b b83c b4d3 903c abac 3f3d
00000290: 482b 0bbb 8976 bc3c 4009 9ebb 51a0 f13c
000002a0: f09f 103c a0ff 503d 1ffd 233d db8c d93d
000002b0: 427e 70bd 0697 b9bd 4b5e c1bb a415 91bc
000002c0: 67a7 a4bd f018 5fbd 3151 62bd ddc9 723c
000002d0: dfa8 0b3d 09ba a83d ec65 293d 663c 29bd
000002e0: d295 9c3d e0cc 35bd 1d95 8abd 2e24 20bc
000002f0: 03ba 023c c99e 7f3d a248 86bb f17c 37bb
00000300: fc64 153d e476 84bc a052 763d ec9b 72bc
00000310: 5ef9 acbd d0ae 103d d85e b63d 6c21 c33d
00000320: a9e4 e53b 2859 45bd f363 febc 0742 bf3d
00000330: e2a8 413d b5d8 633d 57c6 2bbd 18ca e73c
00000340: db78 e1bb 8316 7c3c 21c2 123c dd13 d2bb
00000350: 265f ad3c 4c2b d13d 1955 99bc a933 5239
00000360: dd94 2c3c 7cc2 533d 6e1d 5d3d 1736 943d
00000370: 677d 663c ee82 54bd 6723 c33d e482 abbb
00000380: 0e94 bb3d eda9 8b3b 41d2 e73c 2617 c53d
00000390: 6cdb 86bb 3aa2 3dbd 1132 653c 54d5 ac3d
000003a0: 7e28 833c c689 a53d cb47 0abc f6e2 fe3c
000003b0: f9cd b7bc add1 03bd e485 0d3d ee46 47bc
000003c0: 963e a93d fbad 9d3d 3daf e73c 1814 aabd
000003d0: 6512 043d 7277 c83c 154e 993d dee6 74bd
000003e0: ee66 bb3d e708 813d 00b8 993d a12f 82bd
000003f0: 6b49 c63d 201f 64bd cbed 013d 3e52 dd3d

fc3.weight f4 [4, 256]
0.010140979 0.0679613 0.112678066 0.1153344 0.028134678 -0.018644221 0.029700514 -0.12672698
0.12941511 -0.023742305 0.023486441 0.061526 -0.14203113 0.07277093 0.10509611 0.054237776
0.04133618 0.005169521 0.04031853 0.10105539 -0.02971207 0.07502349 0.0797753 -0.017047925
0.016003331 -0.120617315 -0.059499145 0.14408705 0.0600619 -0.10987088 -0.017437255 -0.00044929518
0.017270446 -0.02803893 0.052764766 0.023182007 0.11181694 -0.019536506 0.05185441 -0.10526074
0.06544313 0.0062270043 -0.08757382 -0.01782417 0.08132857 -0.08319053 0.022189599 0.0074094865
0.034789268 0.0064818137 -0.058442567 -0.0045679794 -0.05439217 -0.1286122 0.114672735 -0.10191896
0.061091475 0.02521576 -0.051989388 -0.00924314 -0.06094821 -0.12904616 -0.01922355 0.051174548
-0.14427572 0.057764348 0.07670028 0.09037218 0.091850154 -0.047558263 -0.061688576 -0.052099936
-0.072389685 0.05056828 -0.092662804 0.086142465 0.027543737 -0.046551753 -0.083794795 -0.1287637
0.10170004 -0.04408829 0.01223758 0.028094396 0.021400372 0.047221664 0.02300339 0.01776385
-0.036379904 0.0540469 -0.049017392 0.06935758 -0.13172446 0.03666878 0.006706891 0.107903436
0.08629764 -0.033335503 -0.030391693 -0.027401613 -0.049573977 0.023138374 0.089987345 0.061859794
0.1175208 -0.06514552 0.039241683 0.057921626 -0.036268186 -0.00042693986 0.08241913 -0.032584794
0.027385095 -0.12292743 -0.020932028 -0.007887471 0.068508714 -0.0012899996 -0.042131197 0.08326058
0.046345398 -0.07946763 -0.019747427 0.047068663 0.020937601 0.025886234 -0.059948597 0.09704223
-0.01184548 0.026003916 0.05587399 -0.029311592 -0.02837165 -0.07066311 0.1169717 -0.05211264
-0.003212959 0.058791514 0.006331634 -0.06017203 0.05489508 -0.082713954 0.049623754 -0.031744894
-0.043926314 0.08780435 -0.03170169 0.04789357 -0.03475536 0.0875142 -0.07880891 0.11030913
0.036861412 0.04899285 -0.107608244 0.016146705 -0.110579506 -0.06511508 0.01618377 -0.099607624
-0.08097653 0.06779876 0.11076819 0.08085546 -0.020026887 0.05510695 0.038148794 0.04202797
-0.02536756 -0.00905026 -0.04153342 0.0071698525 0.07729775 0.08955138 -0.028720463 0.041338652
0.12038872 -0.041037723 0.056475062 -0.043341223 -0.0063912566 0.0025694335 0.028818833 -0.033637594
-0.01117121 -0.0031210873 0.12736765 -0.09301264 0.10166619 -0.07037551 0.038376898 0.059032597
-0.022548018 -0.01173213 -0.060166486 0.09513067 0.0130462395 0.01076658 -0.019950854 -0.070836335
-0.1075158 0.03076474 0.09575735 -0.13120894 -0.025143465 -0.06072667 -0.0029462995 0.057959486
-0.048048873 0.055137992 -0.031668432 -0.003971424 -0.09052788 -0.054157972 0.017444963 -0.016536916
0.009351762 -0.13384256 -0.10430978 -0.0034699098 -0.09452946 -0.040492304 -0.04397626 -0.020247368
-0.06623446 0.15025648 0.05534164 -0.09358284 0.017750572 0.034941882 -0.029567674 0.0005708205
-0.018189784 -0.077328235 0.13063662 0.067017205 -0.04870484 0.08302452 0.020554494 -0.10926134
-0.027231498 -0.13899417 0.0661137 0.09364866 -0.11605031 -0.015011359 -0.090858884 0.12243383
-0.080930606 -0.024129635 -0.08360621 0.011572381 0.008931752 -0.049667843 0.030272199 -0.1174013
00000000: 5926 263c 4b2f 8b3d c2c3 e63d 7134 ec3d
00000010: b27a e63c c4bb 98bc 7e4e f33c b8c4 01be
00000020: 6585 043e 397f c2bc a366 c03c b002 7c3d
00000030: 9c70 11be ed08 953d a13c d73d 6e28 5e3d
00000040: 2050 293d 1665 a93b 0b25 253d 21f6 ce3d
00000050: ba66 f3bc eaa5 993d 3c61 a33d 17a8 8bbc
00000060: 6b19 833c 3606 f7bd 60b5 73bd 8e8b 133e
00000070: 7803 763d fc03 e1bd 93d8 8ebc 618f ebb9
00000080: c07a 8d3c e6b1 e5bc de1f 583d 31e8 bd3c
00000090: 4800 e53d 060b a0bc 4a65 543d f192 d7bd
000000a0: 0c07 863d e60b cc3b e759 b3bd fe03 92bc
000000b0: 988f a63d cc5f aabd f6c6 b53c 47cb f23b
000000c0: 317f 0e3d 6565 d43b 7961 6fbd fdae 95bb
000000d0: 53ca 5ebd ebb2 03be 8ad9 ea3d e3ba d0bd
000000e0: 0e3b 7a3d 4891 ce3c d3f2 54bd 8a70 17bc
000000f0: d5a4 79bd ad24 04be b57a 9dbc 679c 513d
00000100: 04bd 13be 4f9a 6c3d 0915 9d3d 0d15 b93d
00000110: ef1b bc3d 74cc 42bd 29ad 7cbd be66 55bd
00000120: 0b41 94bd af20 4f3d ffc5 bdbd 766b b03d
00000130: 67a3 e13c 0dad 3ebd 9b9c abbd a2da 03be
00000140: 1c48 d03d ec95 34bd 2180 483c 3826 e63c
00000150: d54f af3c 816b 413d 9b71 bc3c 7e85 913c
00000160: 1803 15bd 4860 5d3d 76c6 48bd 590b 8e3d
00000170: c7e2 06be 0132 163d 7bc5 db3b 7afc dc3d
00000180: d1bc b03d cf8a 08bd 00f8 f8bc 5979 e0bc
00000190: 150e 4bbd b08c bd3c 494b b83d b260 7d3d
000001a0: bfae f03d 046b 85bd e3bb 203d 3a3f 6d3d
000001b0: f38d 14bd e6d6 dfb9 5ccb a83d a277 05bd
000001c0: b556 e03c 60c1 fbbd a579 abbc 733a 01bc
000001d0: 4c4e 8c3d 3415 a9ba c391 2cbd 8684 aa3d
000001e0: acd4 3d3d edbf a2bd 5bc5 a1bc 12cb 403d
000001f0: 5585 ab3c 5e0f d43c a98c 75bd 14be c63d
00000200: 8b13 42bc 2a06 d53c 20dc 643d dd1e f0bc
00000210: aa6b e8bc d2b7 90bd dc8e ef3d 1074 55bd
00000220: 8290 52bb 5fcf 703d 9879 cf3b f276 76bd
00000230: aad9 603d ef65 a9bd 4742 4b3d ef06 02bd
00000240: 14ec 33bd c4d2 b33d a2d9 01bd 0c2c 443d
00000250: a35b 0ebd a53a b33d 9166 a1bd c1e9 e13d
00000260: fefb 163d baac 483d b661 dcbd 1846 843c
00000270: 8277 e2bd 0e5b 85bd d393 843c 15ff cbbd
00000280: 06d7 a5bd 14da 8a3d 6fda e23d 8c97 a53d
00000290: 6d0f a4bc d3b7 613d e941 1c3d 8525 2c3d
000002a0: a1cf cfbc 8b47 14bc f31e 2abd 15f1 ea3b
000002b0: 484e 9e3d b766 b73d 2d47 ebbc b852 293d
000002c0: 5c8e f63d 2c17 28bd 6552 673d 9186 31bd
000002d0: bf6d d1bb f163 283b 7915 ec3c 93c7 09bd
000002e0: 7307 37bc 288b 4cbb aa6c 023e 697d bebd
000002f0: 5d36 d03d 0921 90bd 1831 1d3d 2acc 713d
00000300: 9fb6 b8bc 1f38 40bc 2271 76bd ded3 c23d
00000310: e5bf 553c 4f66 303c f96f a3bc a412 91bd
00000320: 3e31 dcbd 5606 fc3c 6e1c c43d a35b 06be
00000330: abf9 cdbc 87bc 78bd b416 41bb ed66 6d3d
00000340: e5ce 44bd 60d8 613d c2b6 01bd b822 82bb
00000350: ae66 b9bd c0d4 5dbd bde8 8e3c 6d78 87bc
00000360: 2238 193c 060e 09be 5ea0 d5bd 6d67 63bb
00000370: a998 c1bd 42db 25bd 7320 34bd cfdd a5bc
00000380: efa5 87bd d6dc 193e eaad 623d 5ca8 bfbd
00000390: a669 913c 381f 0f3d e837 f2bc 1ea3 153a
000003a0: be02 95bc 445e 9ebd 9bc5 053e 5140 893d
000003b0: ba7e 47bd c208 aa3d e661 a83c 69c4 dfbd
000003c0: 9714 dfbc 7d54 0ebe 9f66 873d deca bf3d
000003d0: c9ab edbd 34f2 75bc 3914 babd 96be fa3d
000003e0: f2be a5bd 83ab c5bc bc39 abbd 159a 3d3c
000003f0: 7c56 123c 8270 4bbd 67fd f73c 1870 f0bd

fc3.bias f4 [4]
-0.030869562 0.015119852 0.014734967 -0.06350418
00000000: 2ae2 fcbc 41b9 773c ee6a 713c 7b0e 82bd
