DDPG/model/LunarLanderContinuous-v2_actor_target.pt (torch, 507135 bytes, 10 tensors)

FCNet.0.weight f4 [400, 8]
0	0xbe1facdb	-0.15593283
1	0x3da74767	0.08167916
2	0x3c4acfcb	0.012378643
3	0x3d3c2e55	0.045942623
4	0xbd7fe95c	-0.06247841
5	0x3d9e36e3	0.077253126
6	0x3d02d433	0.03194065
7	0xbd1ff84c	-0.039055154
8	0x3c42edc0	0.011897504
9	0xbd1cc27f	-0.038271423
10	0xbd1353b4	-0.035968497
11	0xbd8d1217	-0.06888216
12	0x3d98425e	0.074345335
13	0xbde446d7	-0.11146324
14	0x3d91f82b	0.071274124
15	0x3ced4e42	0.02896798
16	0xbd570286	-0.05249264
17	0x3cee4f3e	0.02909052
18	0x3cf83949	0.030300753
19	0x3da317ae	0.07963501
20	0x3ccdb164	0.025109
21	0xbcbe0b18	-0.02319865
22	0x3d06e02d	0.032928634
23	0x3cd1819f	0.025574503
24	0xbc11d9d9	-0.008902037
25	0x3e3026e6	0.17202339
26	0xbcb4ba1b	-0.022061398
27	0xbc9d03fb	-0.019166937
28	0xbc3d5206	-0.0115552
29	0xbd2c6360	-0.04208696
30	0x3d6f0701	0.05835629
31	0x3d562a14	0.052286223
32	0x3d2c1df4	0.042020753
33	0x3cfeaa77	0.031087143
34	0xbd84bf1d	-0.064817645
35	0xbd2e2dec	-0.042524263
36	0x3e112cca	0.14177242
37	0xbc2ee375	-0.010674347
38	0x3cec8e43	0.02887643
39	0x3b256045	0.0025234383
40	0xbdeb385e	-0.114853606
41	0x3d36e8b7	0.044655528
42	0x3e058c0f	0.1304171
43	0x3cf142e2	0.029450838
44	0x3cd9b887	0.026577247
45	0x3d2f9ae4	0.042872325
46	0xbd1b6158	-0.03793463
47	0x3d950f97	0.07278364
48	0x3d84c407	0.06482702
49	0x3d1e78a3	0.038689267
50	0x3cb0467c	0.021517985
51	0x3d83d709	0.06437499
52	0x3d176a5f	0.036966678
53	0x3be08093	0.0068512647
54	0xbb09fccf	-0.0021055227
55	0x3d4fc3df	0.050723907
56	0x3d90959b	0.07059785
57	0xbd1eb37b	-0.038745385
58	0x3c254829	0.010088005
59	0x3e20c0ba	0.1569852
60	0x3d256f27	0.040389206
61	0xbd0eb2c5	-0.034838457
62	0x3c009732	0.007848548
63	0x3d0da084	0.034576908
64	0x3d1133ad	0.035449672
65	0x3ddb9812	0.107223645
66	0xbdd00752	-0.10157646
67	0xbcb16be6	-0.021657895
68	0x3ce30743	0.027713424
69	0xbd076454	-0.033054665
70	0x3bf20e05	0.007386925
71	0x3d68f6b7	0.05687591
72	0x3ced18d8	0.02894251
73	0x3d5a8ff1	0.05335993
74	0x3cca8366	0.024720859
75	0xbd85bbfb	-0.06529995
76	0xbe0d1b76	-0.13780007
77	0xbda56f64	-0.08077887
78	0xbd638839	-0.055549834
79	0x3d434f9d	0.047683347
80	0x3d88b6c0	0.06675482
81	0x3c851766	0.016246509
82	0x39aedbbf	0.0003335159
83	0x3d159ac8	0.036524564
84	0x3db510f3	0.088411234
85	0xbd9247ce	-0.07142602
86	0x3d2feaa0	0.042948365
87	0x3ac47bb2	0.0014990477
88	0x3d873f73	0.06603899
89	0x3ce924a3	0.028459853
90	0xbd2f90ea	-0.04286281
91	0xbd7bc9e1	-0.061471824
92	0x3cb62464	0.02223415
93	0xbd64a4a3	-0.055821072
94	0x3d90048a	0.07032116
95	0x3b66c1c9	0.003521072
96	0x3c859f30	0.016311258
97	0x3db2d794	0.087325245
98	0xba5e4751	-0.0008479255
99	0xbde3459c	-0.11097261
100	0x3d7d1a74	0.061792806
101	0x3d67b99b	0.05657349
102	0x3d86cb53	0.0658175
103	0x3ccb314d	0.024803782
104	0xbe1fa3f3	-0.15589885
105	0x3ccd7865	0.025081823
106	0x3d50a424	0.050937787
107	0xbc80fa45	-0.015744338
108	0xbd8c5347	-0.068518214
109	0xbd26d720	-0.040732503
110	0x3c3b3d35	0.011428167
111	0x3c22cedd	0.009937015
112	0xbd37a6c4	-0.044836774
113	0x3d919292	0.07108034
114	0x3b174bb1	0.0023085887
115	0xbd4523e2	-0.048129924
116	0x3d0f3428	0.03496185
117	0xbc85f7e9	-0.016353564
118	0x3c3c21b7	0.011482648
119	0x3caac172	0.020844195
120	0x3d47a14e	0.048737817
121	0x3d9e877d	0.07740686
122	0xbe275c0d	-0.16343708
123	0xbd02bc25	-0.03191771
124	0xbd205010	-0.039138854
125	0x3cb86a74	0.022511698
126	0x3c76b6e3	0.015058252
127	0x3d4fc9f4	0.050729707
128	0x3c1ac979	0.009447449
129	0xbdb24a42	-0.0870557
130	0xbd3b1131	-0.045670692
131	0xbd30227a	-0.04300163
132	0xbcc33738	-0.023830041
133	0xbc518bae	-0.01278965
134	0xbcdb6593	-0.026781833
135	0x3c209bb9	0.009802752
136	0x3be0a7f2	0.006855958
137	0x3c146a08	0.009058483
138	0x3d7ad805	0.06124117
139	0xbdba2af8	-0.09090227
140	0xbd84dcc9	-0.06487424
141	0xbdb69487	-0.08915048
142	0xbdc7d067	-0.097565465
143	0xbd181fce	-0.037139706
144	0xbd4e609c	-0.050385103
145	0x3d79bbe2	0.060970195
146	0x3ca8dacc	0.020612143
147	0x3cb46874	0.022022463
148	0x3e57e537	0.21083532
149	0xbd320375	-0.043460328
150	0x3d8a7bfe	0.06761931
151	0xbdc68d45	-0.09694914
152	0xbdc91760	-0.098189116
153	0xbea44300	-0.32082367
154	0x3d7e1a9d	0.0620371
155	0x3b68ae16	0.0035504154
156	0x3da0c651	0.07850326
157	0xbd073bc7	-0.033015992
158	0x3d18c514	0.037297323
159	0x3c05a76c	0.008157592
160	0x3c8d4fd7	0.017249985
161	0x3d896f62	0.06710698
162	0xbd1cc5a1	-0.03827441
163	0xbd447e5e	-0.047972076
164	0x3c435943	0.011923137
165	0xbd97bcdd	-0.0740907
166	0xbd9fdc63	-0.07805707
167	0x3bd1d07a	0.006403026
168	0x3d50a7ad	0.050941158
169	0xbc69ee15	-0.014277955
170	0xbc09b9fe	-0.00840616
171	0xbe14a489	-0.1451589
172	0x3beb2289	0.007175748
173	0xbccdea6d	-0.025136197
174	0xbd2c0139	-0.041993354
175	0xbda0a490	-0.07843888
176	0xbdd499dc	-0.10380909
177	0xbdf31f64	-0.11871222
178	0x3d84f9d1	0.06492961
179	0xbd4b6ddd	-0.04966532
180	0xbd8c2c98	-0.06844443
181	0xbc8ec601	-0.0174284
182	0x3cf9768c	0.030452035
183	0x3d6df2fb	0.058093052
184	0x3dc540c5	0.096314944
185	0xbddfb428	-0.10923034
186	0x3ccf2dae	0.025290336
187	0xbd40dab8	-0.047083586
188	0x3d306269	0.0430626
189	0xbc18a52e	-0.009316726
190	0x3d09797a	0.033563115
191	0x3cc1314f	0.023583082
192	0xbda50f49	-0.08059556
193	0xbcb4171e	-0.02198368
194	0xbc87e28c	-0.016587518
195	0xbd1d862b	-0.03845803
196	0x3b32b627	0.0027269216
197	0xbd973dbb	-0.07384821
198	0xbd9a9c50	-0.075493455
199	0x3d1b765f	0.037954684
200	0xbce27f9f	-0.027648745
201	0xbe1ef24e	-0.1552212
202	0xbd480849	-0.048836026
203	0xbd8c739c	-0.06857988
204	0x3d314e53	0.043287586
205	0x3d007fde	0.031371944
206	0x3c79e20d	0.015251649
207	0xbc3059b1	-0.010763572
208	0xbd907c58	-0.07054967
209	0x3d9a2fa2	0.075286165
210	0x3c453980	0.012037635
211	0xbc59c74d	-0.013292146
212	0x3e040d66	0.12895736
213	0x3d765428	0.06013885
214	0x3d61f836	0.055168353
215	0xbce195ba	-0.027537216
216	0x3d834e00	0.06411362
217	0x3d187b38	0.037226886
218	0xbe184a57	-0.14872108
219	0x3dae9a0d	0.085254766
220	0x3d4bec2f	0.04978579
221	0x3d8ef334	0.06979981
222	0xbcf877ab	-0.0303305
223	0x3d6e4d7e	0.05817937
224	0x3d7ccffb	0.061721783
225	0x3cec66e1	0.02885765
226	0xbd98a14b	-0.07452639
227	0xbcd90971	-0.02649376
228	0xbd28e9be	-0.04123854
229	0x3a49c880	0.00076974183
230	0x3d478ad3	0.048716377
231	0xbbb0640c	-0.0053830203
232	0x3cea7afe	0.0286231
233	0x3d8d6de3	0.06905725
234	0xbe353c1a	-0.17698708
235	0x3ddff205	0.109348334
236	0x3d31650d	0.04330926
237	0xbd197e00	-0.03747368
238	0xbd02b956	-0.03191503
239	0x3d0697cd	0.032859612
240	0xbdba7adc	-0.09105465
241	0xbdd45a1e	-0.10368751
242	0xbcecd110	-0.028908283
243	0x3bbede6d	0.005824855
244	0xbc451b5b	-0.012030448
245	0x3d16b3ea	0.036792673
246	0xbdc19d5e	-0.094538435
247	0xbc30630c	-0.010765802
248	0x3dbaeb91	0.09126962
249	0xbce171cd	-0.027520085
250	0xbe082fee	-0.13299534
251	0x3d5f5029	0.054519806
252	0x3dd74587	0.10511308
253	0x3bfa4e32	0.007638716
254	0x3c961cf2	0.01832435
255	0x3c44173e	0.011968432

FCNet.0.bias f4 [400]
0	0x3b6a167c	0.0035718968
1	0xbb77a909	-0.0037789962
2	0x3daf326b	0.08554538
3	0x3e7cf464	0.24702603
4	0xbd71d03d	-0.059036482
5	0x3ceb719c	0.028740697
6	0x3d736c43	0.05942942
7	0x3d358dca	0.044324674
8	0x3cadd51a	0.021219779
9	0xbda89df3	-0.082332514
10	0xbc35b80d	-0.011091244
11	0x3b463377	0.0030243078
12	0xbd05e9f3	-0.032693814
13	0x3bb8f048	0.005643878
14	0x3d983fed	0.07434068
15	0x3da59fec	0.08087143
16	0x3d7994aa	0.060932793
17	0xbb1b74c8	-0.002372073
18	0x3d0d4e83	0.034498703
19	0x3d498625	0.049200196
20	0x3d1f4506	0.038884185
21	0x3ce558c6	0.027996432
22	0x3d2f6d45	0.042828817
23	0xbd00f820	-0.03148663
24	0x3d69caca	0.05707816
25	0x3cc1c36d	0.023652757
26	0x3cb71210	0.02234748
27	0x3c4dc52a	0.012559215
28	0x3cb95181	0.022621872
29	0x3d0fa283	0.035067093
30	0x3d97577d	0.07389734
31	0x3d950257	0.07275837
32	0xbb75ca39	-0.0037504567
33	0x3d39c3bc	0.045352682
34	0x3d1e7444	0.0386851
35	0xbce96a52	-0.02849308
36	0x3d5e54e4	0.054280177
37	0x3d231647	0.039816167
38	0xbd78ed53	-0.060773205
39	0xbd103d7f	-0.035214897
40	0xbd2113d1	-0.03932554
41	0xbcea5ea2	-0.028609578
42	0x3b37ec72	0.0028064516
43	0x3d9ff34c	0.07810077
44	0x3d5975ab	0.053090733
45	0xbd205637	-0.03914472
46	0xbcbe1ea1	-0.023207964
47	0x3dc2d3d7	0.095130615
48	0x3d02f8ea	0.031975664
49	0x3d4db7b4	0.05022402
50	0x3d365077	0.04451033
51	0x3d73c8ab	0.059517544
52	0x3d869111	0.06570638
53	0x3d9171a4	0.07101753
54	0xbd0f5dec	-0.03500168
55	0xbccbac20	-0.024862349
56	0x3c0517c3	0.008123341
57	0x3d4a980b	0.049461406
58	0xbdafe5a1	-0.0858872
59	0xbc33677e	-0.010949967
60	0x3c9d248e	0.01918247
61	0x3d588bef	0.052867826
62	0x3cfe834e	0.03106847
63	0x3d1a5b86	0.03768494
64	0x3df6833d	0.120367505
65	0x3d0b4d6d	0.034009386
66	0x3d96a8a5	0.07356385
67	0xbc912f67	-0.017722799
68	0x3ccc3242	0.024926309
69	0x3cd69e66	0.026198577
70	0x3dc436b0	0.09580743
71	0xbad9e633	-0.0016624391
72	0x3d96bd0e	0.07360278
73	0x3d2d9803	0.042381298
74	0xbd087179	-0.03331134
75	0x3d6634ae	0.056202583
76	0x3d0f6865	0.035011668
77	0x3de59450	0.11209929
78	0x3d82216f	0.06354033
79	0xbbedff23	-0.0072630807
80	0x3d8e2bde	0.06941961
81	0x3d32b8ea	0.04363338
82	0x3d8b354b	0.06797274
83	0x3d68ef6b	0.05686895
84	0x3c29520c	0.010334503
85	0x3f3ea133	0.7446472
86	0xbc2c21a2	-0.010506066
87	0xbd229983	-0.03969718
88	0xbc80de61	-0.015731039
89	0xbd3f0a2d	-0.046640564
90	0xbc93c06b	-0.018036088
91	0x3dbb337e	0.09140681
92	0x3d539426	0.051654957
93	0x3d66e57d	0.0563712
94	0x3cc40483	0.023927933
95	0x3c42469c	0.011857655
96	0x3d15a569	0.0365347
97	0xbd8bc195	-0.06824032
98	0x3db780cf	0.08960115
99	0xbd1e010b	-0.038575213
100	0x3d8706ce	0.06593095
101	0x3d4ca38f	0.04996067
102	0x3bbf4cae	0.0058379984
103	0x3d4c654a	0.049901284
104	0xbcc6204d	-0.024185324
105	0x3d0a56ca	0.033774175
106	0xbb8a39d8	-0.0042183213
107	0x3b0f910a	0.0021906518
108	0x3f02c78c	0.51085734
109	0xbd833564	-0.06406668
110	0xbcc23ae7	-0.023709727
111	0xbd3b4c47	-0.04572704
112	0x3d82f1ca	0.06393774
113	0xbd5c183d	-0.053734053
114	0x3dc6d932	0.097093955
115	0x3d4521c4	0.048127905
116	0x3cc1115a	0.023567844
117	0x3dabc26b	0.08386692
118	0x3d38110c	0.044938132
119	0x3d73da02	0.05953408
120	0xbd1a3d9c	-0.03765641
121	0x3d074464	0.033024207
122	0x3d112a2d	0.035440613
123	0x3d11fc1f	0.035640832
124	0xbc133f1f	-0.008987217
125	0x3d69344f	0.05693465
126	0x3dad201b	0.08453389
127	0x3e488921	0.1958356
128	0x3d84724a	0.064671114
129	0x3d26f070	0.040756643
130	0x3d319bd7	0.04336151
131	0x3e3ae3e6	0.18250999
132	0xbc842a29	-0.016133385
133	0x3db4949f	0.0881741
134	0x3c8f0fc1	0.017463567
135	0x3d11cfcf	0.035598572
136	0x3d19534e	0.03743296
137	0x3adcc13b	0.0016842255
138	0x3c9e0da9	0.019293623
139	0xbcccf9a5	-0.025021384
140	0x3d35858f	0.044316825
141	0xbd2046cf	-0.03913003
142	0x3d83c8ba	0.0643477
143	0x3e34d6a0	0.17659998
144	0x3a8af171	0.001060052
145	0xbc82cdde	-0.015967306
146	0x3c4753e5	0.012165998
147	0x3d9e87fa	0.07740779
148	0xbc0a13b0	-0.008427545
149	0x3d7c7fdb	0.06164537
150	0x3d86b0c5	0.06576685
151	0xbc243995	-0.010023494
152	0x3d90c1ad	0.07068191
153	0x3c8e6799	0.017383384
154	0x3e53234a	0.2061893
155	0x3c79db49	0.015250036
156	0x3cb78d3e	0.022406217
157	0x3d9ba88a	0.07600506
158	0x3e09fa25	0.13474329
159	0xbd252e6f	-0.040327486
160	0x3c311ba2	0.010809811
161	0x3c9d52bb	0.019204488
162	0x3d944920	0.0724051
163	0x3c99da7f	0.018780945
164	0xbc1f2630	-0.009713694
165	0x3c8650c8	0.016395941
166	0x3d882c01	0.06649018
167	0x3d9cbe81	0.07653523
168	0x3cb55934	0.022137262
169	0x3b1dcbf4	0.0024077864
170	0xba9c22d0	-0.001191223
171	0x3cc95715	0.024577657
172	0xbcd61e86	-0.026137602
173	0x3b364d5a	0.0027817101
174	0x3d5949e4	0.053048983
175	0x3ad88b35	0.0016520979
176	0x3d5193a5	0.051166195
177	0x3e4111cf	0.1885445
178	0xbd790c93	-0.060803007
179	0xbcc2c721	-0.023776593
180	0xbd97e462	-0.074166074
181	0x3d61ebc1	0.055156473
182	0x3d28b34c	0.041186616
183	0x3d3bd134	0.04585381
184	0x3cb24eca	0.021766085
185	0x3d3b8b73	0.045787286
186	0x3d26694a	0.040627755
187	0xbd3f93b8	-0.046771735
188	0x3c738780	0.014863849
189	0x3d8913ba	0.06693216
190	0x3d02689a	0.031838037
191	0x3df9df35	0.122007765
192	0x3d930c83	0.07180121
193	0x3d61ef6f	0.055159982
194	0xba51ecf8	-0.00080080284
195	0x3cc9d2eb	0.024636706
196	0x3d97d96b	0.07414516
197	0x3d93a8a4	0.072099
198	0x3d71ce31	0.05903453
199	0x3d9c07a9	0.076186486
200	0x3d9aef3b	0.07565161
201	0x3d8dba1d	0.06920264
202	0x3d3d4e45	0.04621722
203	0x3d8561b4	0.06512776
204	0x3c4665a6	0.012109196
205	0xbc6d8faa	-0.014499584
206	0x3d9f94e4	0.077920705
207	0x3d0a85e5	0.033819098
208	0x3d32cec4	0.04365422
209	0x3d2c2ad5	0.042033035
210	0x3dc9627b	0.09833237
211	0x3ce4d663	0.027934259
212	0x3c0f8447	0.008759565
213	0x3ca2f56e	0.01989242
214	0xbd249110	-0.040177405
215	0xbbe23432	-0.006903195
216	0x3d563f2c	0.05230634
217	0x3e1cd793	0.1531661
218	0x3d5b36fc	0.053519234
219	0xbd46fe5e	-0.048582427
220	0xbd329bb2	-0.043605514
221	0xbc08ef46	-0.0083578285
222	0x3c95d426	0.018289637
223	0x3d895343	0.06705334
224	0x3d46275a	0.048377372
225	0x3d1e8ef6	0.038710557
226	0xbdc363dd	-0.09540532
227	0x3c2e8b1d	0.010653284
228	0x3cb3df25	0.02195699
229	0xbd841509	-0.06449325
230	0x3b428fd4	0.002968778
231	0x3d9d04fe	0.07666968
232	0xbd2fdf64	-0.04293765
233	0x3cc323ef	0.023820845
234	0x3d150ad9	0.0363873
235	0xbb933ca0	-0.004493311
236	0x3b5d8ca7	0.003380576
237	0xbcbef840	-0.023311734
238	0x3d28f8c7	0.041252878
239	0x3d1b25b2	0.037877746
240	0x3bb8e2a2	0.005642251
241	0x3d17fbe3	0.037105452
242	0xbd611c44	-0.054958597
243	0x3da00831	0.078140624
244	0x3d598a63	0.05311049
245	0x3cb867a5	0.022510359
246	0x3d5a6940	0.05332303
247	0xbda503ae	-0.080573425
248	0xbd046802	-0.032325752
249	0x3dcc6f8e	0.09982215
250	0xbceef9c3	-0.02917183
251	0xbcd10da2	-0.025519196
252	0x3e0ed5d8	0.13948762
253	0x3d3d2c72	0.046184964
254	0x3c83d272	0.01609156
255	0xbbc85932	-0.0061141485

FCNet.1.weight f4 [400]
0	0x3f861741	1.0475847
1	0x3f83f12f	1.0307978
2	0x3f2fee93	0.6872341
3	0x3e9847a3	0.29742154
4	0x3fa01f36	1.2509525
5	0x3f6d212d	0.9262875
6	0x3f433b1d	0.76262075
7	0x3f84c08d	1.0371262
8	0x3f62a926	0.8853935
9	0x3fa677fa	1.3005364
10	0x3f853b50	1.0408726
11	0x3f79e28f	0.97611326
12	0x3f79ce45	0.9758037
13	0x3f7158e5	0.9427627
14	0x3f294dc6	0.661343
15	0x3f144ee5	0.57932884
16	0x3f7a601c	0.978029
17	0x3f8b81ad	1.0898949
18	0x3f896b58	1.0735884
19	0x3faa5a7a	1.3308861
20	0x3f5c65ac	0.8609264
21	0x3f751e7e	0.9574965
22	0x3f862d1e	1.0482519
23	0x3fa141b7	1.259818
24	0x3f689a77	0.90860695
25	0x3f92e2de	1.1475484
26	0x3f81762f	1.0114192
27	0x3f9126a6	1.133992
28	0x3f4dcdaa	0.80391943
29	0x3f8185b1	1.0118924
30	0x3f8f8a28	1.1214037
31	0x3f7823a3	0.9692938
32	0x3f7c1885	0.98474914
33	0x3f6e941e	0.9319476
34	0x3f485b6c	0.782645
35	0x3f965ff7	1.1748036
36	0x3f36daaf	0.71427435
37	0x3fa10183	1.2578586
38	0x3fa16b4e	1.2610872
39	0x3f889a12	1.0672019
40	0x3fa2569b	1.268268
41	0x3f88b084	1.0678868
42	0x3f8d7264	1.1050534
43	0x3f623e64	0.8837645
44	0x3f79b899	0.975473
45	0x3f9c687d	1.2219387
46	0x3f9afec6	1.2109001
47	0x3f1fd840	0.62439346
48	0x3f692eab	0.91086835
49	0x3f949a0f	1.1609515
50	0x3f949bc5	1.1610037
51	0x3f3e9f67	0.7446198
52	0x3f642892	0.89124405
53	0x3f4216dc	0.7581613
54	0x3f949fea	1.1611302
55	0x3f8f6b98	1.120471
56	0x3f8ff52a	1.1246693
57	0x3f44ac4e	0.76825416
58	0x3fab6075	1.3388811
59	0x3f8aabcf	1.0833682
60	0x3f4e7816	0.80651987
61	0x3f5142ba	0.8174244
62	0x3f6d9011	0.9279795
63	0x3f7f4275	0.9971078
64	0x3eddbb99	0.43307188
65	0x3f5d5465	0.864569
66	0x3f96e037	1.1787175
67	0x3fbc408c	1.4707198
68	0x3f443755	0.7664693
69	0x3f888315	1.0665003
70	0x3efe57fb	0.496765
71	0x3f93b443	1.1539387
72	0x3f36585f	0.71228594
73	0x3f5502c4	0.83207345
74	0x3f96b4ac	1.1773887
75	0x3f5dbc91	0.86615855
76	0x3f71319a	0.9421631
77	0x3f18bf30	0.5966673
78	0x3f2c2fc5	0.6726039
79	0x3f93954d	1.1529938
80	0x3f3f31c3	0.74685305
81	0x3fb440f9	1.4082328
82	0x3f7a5f30	0.97801495
83	0x3f85cf66	1.0453918
84	0x3f7cc5dc	0.9873941
85	0x3db61ded	0.08892427
86	0x3f5cbe48	0.86227846
87	0x3f90a56a	1.130048
88	0x3f78599f	0.9701175
89	0x3fa641ec	1.2988868
90	0x3fa26f25	1.2690169
91	0x3f4202fc	0.75785804
92	0x3fac2c0d	1.3450943
93	0x3f6d1339	0.92607456
94	0x3f42914b	0.7600295
95	0x3f78b9cb	0.971585
96	0x3f887730	1.0661373
97	0x3f9a6618	1.2062407
98	0x3f16da85	0.58927184
99	0x3f9fb68d	1.2477585
100	0x3f6c21be	0.92238986
101	0x3f35fbcc	0.71087337
102	0x3f7c47d8	0.98547125
103	0x3f5010fa	0.81275904
104	0x3f8d1f42	1.1025164
105	0x3f543d66	0.82906187
106	0x3f859a98	1.0437803
107	0x3f90e6d9	1.1320449
108	0x3e129fd4	0.14318782
109	0x3f94a023	1.161137
110	0x3f9b68b9	1.2141334
111	0x3f94e560	1.16325
112	0x3f89f65e	1.077831
113	0x3fa4d830	1.2878475
114	0x3f2a992e	0.66639984
115	0x3f93bbe6	1.1541717
116	0x3fa50ddf	1.2894858
117	0x3f0ef63e	0.55844486
118	0x3f9f9866	1.2468383
119	0x3f87affc	1.0600581
120	0x3f92ce9a	1.14693
121	0x3f5783de	0.8418559
122	0x3f8d80d9	1.1054946
123	0x3f6d0157	0.9258017
124	0x3f6fdd5a	0.9369713
125	0x3f5d86f5	0.86534053
126	0x3f278ffe	0.6545409
127	0x3ec00e8c	0.37511098
128	0x3f72a399	0.9478088
129	0x3f371ca3	0.7152807
130	0x3f5a36e6	0.8524002
131	0x3ed2ff7f	0.41210553
132	0x3f9cb92e	1.2244012
133	0x3f21e07e	0.6323317
134	0x3f907e58	1.1288557
135	0x3f7510ab	0.9572856
136	0x3f836e6e	1.0268075
137	0x3f88b911	1.0681478
138	0x3f3eef47	0.7458386
139	0x3f918a39	1.1370307
140	0x3f249b0a	0.6429907
141	0x3f92c1ac	1.1465354
142	0x3f7e52ce	0.993451
143	0x3eb381c4	0.3505994
144	0x3f5dc574	0.86629415
145	0x3fa01322	1.2505839
146	0x3f78f647	0.9725079
147	0x3f522e74	0.8210213
148	0x3f983eab	1.1894125
149	0x3f5838b7	0.8446154
150	0x3f9c30ff	1.2202452
151	0x3f8c5683	1.0963901
152	0x3f300a46	0.68765676
153	0x3f722463	0.9458677
154	0x3eae7b66	0.3407852
155	0x3f7950e3	0.9738905
156	0x3fba596b	1.4558538
157	0x3f59f786	0.85143316
158	0x3eea2966	0.4573471
159	0x3f87ffe5	1.0624968
160	0x3f6da8f5	0.9283593
161	0x3f7cefec	0.9880359
162	0x3f7cc9cb	0.9874541
163	0x3f8625ab	1.0480245
164	0x3f97b5f1	1.1852399
165	0x3f53a976	0.8268045
166	0x3f5db06a	0.8659731
167	0x3f182c8e	0.59442985
168	0x3f774f5c	0.9660547
169	0x3f8a1264	1.0786862
170	0x3f831f4b	1.0243925
171	0x3f3c625e	0.73587596
172	0x3f9f270c	1.2433791
173	0x3f82d217	1.0220364
174	0x3f65142a	0.8948389
175	0x3f8c66ff	1.0968932
176	0x3f739a1b	0.9515702
177	0x3eac4047	0.3364279
178	0x3fb85df6	1.4403675
179	0x3f7a5d48	0.97798586
180	0x3fa24961	1.2678643
181	0x3f474a74	0.7784798
182	0x3f55bc4f	0.8349046
183	0x3f89a2e3	1.0752834
184	0x3f70d419	0.94073635
185	0x3f61822f	0.8808927
186	0x3f83eb68	1.0306215
187	0x3fa71463	1.3053097
188	0x3f80f3c5	1.0074393
189	0x3f3de3f9	0.74175984
190	0x3f51815e	0.81838024
191	0x3eda7cc5	0.42673317
192	0x3f2ce9f7	0.675445
193	0x3f7997c7	0.9749722
194	0x3f87d661	1.0612298
195	0x3f782749	0.96934944
196	0x3f5499c1	0.8304711
197	0x3f79c27e	0.97562397
198	0x3f3c4487	0.73542064
199	0x3f2ceaf8	0.67546034
200	0x3f1b60c4	0.6069453
201	0x3f212f3b	0.6296269
202	0x3f6e9124	0.93190217
203	0x3f4ec089	0.80762535
204	0x3f8d0ada	1.1018937
205	0x3f817e81	1.0116731
206	0x3f916572	1.1359084
207	0x3f842a2d	1.0325371
208	0x3f81b226	1.0132492
209	0x3f603558	0.87581396
210	0x3f089235	0.53348094
211	0x3f73dc16	0.952577
212	0x3f859e5b	1.0438951
213	0x3f4adbf0	0.7924185
214	0x3f94a57e	1.1613004
215	0x3f75d1ef	0.9602346
216	0x3f690799	0.9102722
217	0x3eefda01	0.4684601
218	0x3f59a5a5	0.8501838
219	0x3f9ea71e	1.239475
220	0x3f8b5c79	1.0887595
221	0x3f59015b	0.84767693
222	0x3f78550e	0.97004783
223	0x3f49b898	0.7879729
224	0x3f9b9169	1.2153751
225	0x3f5fe78a	0.87462676
226	0x3fbba796	1.4660518
227	0x3f8db37c	1.1070399
228	0x3f6becb1	0.9215804
229	0x3fbb4101	1.4629213
230	0x3f90b30d	1.1304642
231	0x3f13a31b	0.57670754
232	0x3fb4cfab	1.4125875
233	0x3f68e65e	0.9097651
234	0x3f670cf3	0.90254134
235	0x3f56c6e2	0.8389722
236	0x3f6c7b54	0.92375684
237	0x3f9b5647	1.2135705
238	0x3f4eb210	0.8074045
239	0x3f68169b	0.90659493
240	0x3f844c00	1.0335693
241	0x3f81c302	1.0137637
242	0x3fa28802	1.2697756
243	0x3f45222e	0.7700528
244	0x3f3aaf14	0.729234
245	0x3f6c24f4	0.92243886
246	0x3f645139	0.89186436
247	0x3fb2e283	1.3975376
248	0x3fad2927	1.3528184
249	0x3f143089	0.5788656
250	0x3f88dca2	1.0692332
251	0x3fa1774b	1.261453
252	0x3ef1b391	0.4720731
253	0x3f4ce81c	0.8004167
254	0x3f81a110	1.0127277
255	0x3f8f2993	1.1184562

FCNet.1.bias f4 [400]
0	0xbe803947	-0.250437
1	0xbe89133e	-0.26772493
2	0xbeac0208	-0.335953
3	0xbf2ff30f	-0.68730253
4	0xbdc4585f	-0.09587168
5	0xbe993ca9	-0.29929093
6	0xbea4e7b3	-0.32208022
7	0xbdf67937	-0.12034839
8	0xbe6bf5bd	-0.2304296
9	0xbe1290eb	-0.14313094
10	0xbe46e317	-0.19422565
11	0xbe31be09	-0.17357649
12	0xbe7fc1d8	-0.2497629
13	0xbe8a3c82	-0.2699929
14	0xbebccf58	-0.3687694
15	0xbf05e088	-0.5229573
16	0xbe0d0f5c	-0.1377539
17	0xbd627d54	-0.055295303
18	0xbe0cd46a	-0.13752905
19	0xbb5699ff	-0.0032745597
20	0xbe3e824a	-0.18604389
21	0xbe6f22ed	-0.23353167
22	0xbe16c8e8	-0.14725077
23	0xba3068a5	-0.00067294604
24	0xbe92b5d8	-0.2865436
25	0xbc3fef34	-0.011714745
26	0xbe6d7f5d	-0.23193116
27	0xbdda29b7	-0.10652488
28	0xbe765022	-0.24054006
29	0xbe3f8503	-0.18703084
30	0xbe2cdedd	-0.1688189
31	0xbe5afd79	-0.21385755
32	0xbea45e9a	-0.32103425
33	0xbe78e374	-0.24305516
34	0xbe95c050	-0.29248285
35	0xbe2d7095	-0.16937478
36	0xbecf3571	-0.4047046
37	0x3b061c5b	0.0020463679
38	0xbe10ed6a	-0.14153066
39	0xbe48f790	-0.19625688
40	0xbd432e59	-0.047651622
41	0xbe413098	-0.18866193
42	0xbe1f700c	-0.15570086
43	0xbe890c67	-0.26767275
44	0xbe84860b	-0.25883517
45	0xbe1eb17b	-0.15497391
46	0xbda58e3c	-0.0808377
47	0xbede0eb2	-0.43370587
48	0xbe0af824	-0.1357122
49	0xbd8cfbe9	-0.068839855
50	0xbe0a68aa	-0.13516489
51	0xbed0eb70	-0.40804625
52	0xbe65488b	-0.22390954
53	0xbec5a307	-0.38600942
54	0xbe061073	-0.13092212
55	0xbd4cdf4f	-0.05001765
56	0xbe01d81f	-0.126801
57	0xbeaa65a6	-0.33280677
58	0xbd74911a	-0.059708692
59	0xbddf030a	-0.108892515
60	0xbea2b0e2	-0.31775576
61	0xbebd4d93	-0.36973247
62	0xbe2e2b3e	-0.17008683
63	0xbe40d891	-0.18832614
64	0xbf23d367	-0.6399445
65	0xbe8c00c2	-0.27344328
66	0xbd473cda	-0.048642017
67	0x3c2197d9	0.009862863
68	0xbe9284b5	-0.28616872
69	0xbdee36c9	-0.11631543
70	0xbf0c3670	-0.54770565
71	0xbe3f1661	-0.1866088
72	0xbef8725d	-0.48524752
73	0xbeaabff9	-0.3334959
74	0xbe0b06be	-0.1357679
75	0xbead6410	-0.33865404
76	0xbe70fa94	-0.23533088
77	0xbf02604d	-0.50928193
78	0xbed64ce6	-0.41855544
79	0xbe222b48	-0.15836823
80	0xbeb3061f	-0.34965608
81	0x3cb1ae09	0.021689432
82	0xbe3849a4	-0.17996842
83	0xbe5ab70a	-0.21358886
84	0xbdfc5511	-0.12320913
85	0xbf633929	-0.88759094
86	0xbeb1daac	-0.34737146
87	0xbe2ec6cd	-0.17068024
88	0xbe4be1a9	-0.19910301
89	0xbdfd98e1	-0.12382675
90	0xbc7ad4f3	-0.01530956
91	0xbee07415	-0.43838564
92	0xbe3138a9	-0.1730677
93	0xbe533f5a	-0.20629635
94	0xbec20835	-0.37896886
95	0xbe5fe196	-0.21863398
96	0xbe6c8e5a	-0.23101178
97	0xbe02ad65	-0.12761457
98	0xbed4a703	-0.4153367
99	0xbe4e6cc6	-0.20158681
100	0xbe85cc40	-0.26132393
101	0xbef76220	-0.4831705
102	0xbdf9c7c5	-0.12196306
103	0xbe8ea56c	-0.27860582
104	0xbd9b1f0f	-0.07574283
105	0xbe6cf6b0	-0.23140979
106	0xbe218c1e	-0.15776107
107	0xbe5048f0	-0.20340323
108	0xbf5dbb69	-0.8661409
109	0xbe09d938	-0.13461769
110	0xbda4e6bf	-0.08051824
111	0xbe12b6fe	-0.14327618
112	0xbe53a1b9	-0.20667161
113	0xbd98927a	-0.07449813
114	0xbee21b0a	-0.44161254
115	0xbd50d52b	-0.050984543
116	0xbe27fa3b	-0.16404049
117	0xbf071645	-0.52768356
118	0xbe34f886	-0.17672929
119	0xbddffd19	-0.109369464
120	0xbdde3373	-0.10849657
121	0xbe8f814c	-0.28028333
122	0xbe74c70b	-0.23904054
123	0xbe360413	-0.17774992
124	0xbe920158	-0.2851665
125	0xbe99d7e5	-0.30047527
126	0xbef1ea69	-0.47249153
127	0xbf274655	-0.65341693
128	0xbe1dbe8b	-0.15404718
129	0xbee349f5	-0.44392362
130	0xbe7708d0	-0.24124455
131	0xbf23bb1f	-0.639574
132	0xbd856af5	-0.06514541
133	0xbed2661c	-0.41093528
134	0xbe45cee2	-0.19317201
135	0xbe91da71	-0.2848697
136	0xbe3ba5ca	-0.18324962
137	0xbdfe6dc5	-0.124232806
138	0xbebdcda6	-0.3707096
139	0xbd649a2f	-0.055811103
140	0xbee14941	-0.440012
141	0xbe48a6a9	-0.19594826
142	0xbe712996	-0.2355102
143	0xbf2c6bc2	-0.67351925
144	0xbe6dab34	-0.2320984
145	0xbdd58206	-0.10425191
146	0xbe55bcca	-0.20872799
147	0xbe9e9c28	-0.30978513
148	0xbd9f2280	-0.07770252
149	0xbe809149	-0.25110844
150	0xbe3092ae	-0.17243454
151	0xbe6880f1	-0.22705437
152	0xbed1a907	-0.4094927
153	0xbe8c766f	-0.27434108
154	0xbf269fc5	-0.6508754
155	0xbe862cbe	-0.2620601
156	0xbcc7fd9d	-0.024412924
157	0xbeb6c30b	-0.3569568
158	0xbf15b3d6	-0.5847753
159	0xbdeed6da	-0.116620734
160	0xbe9628f3	-0.29328117
161	0xbe6137d0	-0.21993947
162	0xbe679d01	-0.22618486
163	0xbe1ea783	-0.15493588
164	0xbdc2b7b5	-0.095076956
165	0xbea29165	-0.31751552
166	0xbe984f25	-0.29747882
167	0xbee3ab82	-0.44466788
168	0xbe9315bf	-0.28727528
169	0xbe07ba4a	-0.13254657
170	0xbe67fbd7	-0.22654663
171	0xbe96cc13	-0.2945257
172	0xbe1f148c	-0.15535182
173	0xbe37fd93	-0.17967825
174	0xbe70f9d8	-0.23532808
175	0xbe71c391	-0.23609759
176	0xbdf7909e	-0.120881304
177	0xbf200f21	-0.62523085
178	0xbdd93192	-0.10605158
179	0xbe46420c	-0.19361132
180	0xbd0bf525	-0.034169335
181	0xbebb3cb8	-0.36569762
182	0xbe9e8ab6	-0.30965203
183	0xbe5728f2	-0.21011713
184	0xbea7372c	-0.3265928
185	0xbe278fa2	-0.16363385
186	0xbe2e5b7d	-0.17027088
187	0xbd6ab8c6	-0.05730512
188	0xbe2b9590	-0.16756272
189	0xbe91d5fd	-0.28483573
190	0xbeb2b831	-0.34906152
191	0xbf0f7f8f	-0.56054014
192	0xbecab881	-0.3959389
193	0xbe972e01	-0.29527286
194	0xbd8a1aa0	-0.067433596
195	0xbe5eb2e2	-0.21747926
196	0xbe93f407	-0.28897116
197	0xbe72b1db	-0.23700659
198	0xbeb278d1	-0.348578
199	0xbeb6fe70	-0.35740995
200	0xbed99d94	-0.42503035
201	0xbee747bd	-0.4517192
202	0xbe997169	-0.29969338
203	0xbebfe915	-0.37482515
204	0xbe297b3f	-0.16550921
205	0xbe66e711	-0.22549082
206	0xbd04fdd1	-0.03246862
207	0xbdcd7cec	-0.100335926
208	0xbe30f4fd	-0.17280956
209	0xbeb04dd1	-0.3443437
210	0xbef17d05	-0.47165695
211	0xbe4e271f	-0.20132111
212	0xbe147c3c	-0.14500517
213	0xbecbbe6a	-0.39793712
214	0xbd3f10b1	-0.046646778
215	0xbe851731	-0.25994256
216	0xbe791b48	-0.24326813
217	0xbf19b2cd	-0.60038453
218	0xbe6a1bda	-0.22862187
219	0xbe702a55	-0.23453648
220	0xbe529ea3	-0.20568328
221	0xbeb795d9	-0.35856512
222	0xbe316515	-0.17323716
223	0xbe964d6d	-0.29355946
224	0xbd9d07ee	-0.07667528
225	0xbe4d7e48	-0.20067704
226	0xbcd5022d	-0.026002014
227	0xbe0325f2	-0.12807444
228	0xbdcde8da	-0.100541785
229	0xbde069de	-0.109576926
230	0xbdbda39e	-0.09259723
231	0xbefaabe0	-0.48959255
232	0xbd6d65a4	-0.05795826
233	0xbe822d1d	-0.25425044
234	0xbe633f2b	-0.22192065
235	0xbe998414	-0.2998358
236	0xbe55eaf7	-0.20890413
237	0xbd332128	-0.043732792
238	0xbeb7fada	-0.35933572
239	0xbe6e081c	-0.23245281
240	0xbe534e3f	-0.20635317
241	0xbe0b3ab5	-0.13596614
242	0xbe114476	-0.14186272
243	0xbeb66b92	-0.35628945
244	0xbeb8a3d6	-0.36062497
245	0xbe715cf0	-0.23570609
246	0xbeab62f7	-0.33473942
247	0xbd7969d2	-0.060891934
248	0xbdfec2ef	-0.124395244
249	0xbef853d9	-0.4850147
250	0xbe064456	-0.13112006
251	0xbd9ed655	-0.07755724
252	0xbf199b7d	-0.6000288
253	0xbeb4f897	-0.3534591
254	0xbe0684f3	-0.13136654
255	0xbd2c6840	-0.042091608

FCNet.3.weight f4 [300, 400]
0	0xbd4c3dea	-0.049863733
1	0x3d23f05b	0.040024143
2	0x3de22deb	0.110439144
3	0x3dbf3cd3	0.09337773
4	0x3bd0e537	0.006374981
5	0x3d3a8e08	0.045545608
6	0x3d941394	0.07230297
7	0x3bfb6577	0.0076720077
8	0x3db9293b	0.09041067
9	0xbe4b9235	-0.19879992
10	0x3da4ba17	0.08043306
11	0x3db026ad	0.08601127
12	0x3d98511b	0.07437345
13	0x3da58e96	0.08083837
14	0x3baafb6c	0.00521796
15	0x3e021719	0.12704124
16	0x3d1fd5ce	0.03902226
17	0xbc12abe2	-0.008952113
18	0xbb3ae429	-0.0028517342
19	0xbde9d6f4	-0.11417952
20	0x3e1789ac	0.14798611
21	0x3d127445	0.035755415
22	0x3d5c5a0b	0.05379681
23	0xbd4c7f80	-0.04992628
24	0x3dae2272	0.08502664
25	0x3d4d070f	0.05005556
26	0x3d04d033	0.032425117
27	0x3d922c40	0.07137346
28	0xbd31fc97	-0.04345378
29	0x3d906f6e	0.070525035
30	0x3dc3cf07	0.09560972
31	0xbd7ec916	-0.06220349
32	0x3cf9beb0	0.030486435
33	0x3d413b41	0.04717565
34	0x3d9d91de	0.076938376
35	0xbca409a5	-0.02002413
36	0x3c7782d8	0.015106879
37	0x3d9ded16	0.07711236
38	0xbdb84527	-0.08997565
39	0x3d8a85bd	0.0676379
40	0x3d9ba1e4	0.075992376
41	0x3c59c596	0.013291737
42	0x3cc4fdb1	0.02404675
43	0x3e13943d	0.14412017
44	0xbd62b4b0	-0.0553481
45	0x3d30982f	0.043113884
46	0xbd9a6b0d	-0.075399496
47	0x3d773873	0.06035657
48	0x3d2b19e2	0.04177273
49	0x3d7593ed	0.059955526
50	0x3dda16ba	0.10648866
51	0x3c424a3a	0.011858517
52	0x3ddcc818	0.10780352
53	0x3d383242	0.044969805
54	0x3d83d112	0.06436361
55	0xbe157e53	-0.1459897
56	0x3e010181	0.1259823
57	0x3d7ff4d7	0.062489357
58	0x3cf4dcc0	0.029890418
59	0x3dbf1459	0.09330053
60	0x3d92b287	0.07162958
61	0x3dbc7fb7	0.09204047
62	0x3d32150d	0.043477107
63	0xbca0d9bd	-0.019635076
64	0x3caf35c2	0.021387938
65	0x3d2e93f1	0.042621557
66	0x3c96d03e	0.018409844
67	0x3e1bb119	0.15204276
68	0x3dbb5c4e	0.09148465
69	0xbce52ab1	-0.027974458
70	0x3cd5ebbf	0.026113389
71	0xbc0d1a8b	-0.008612285
72	0x3d29993c	0.0414059
73	0x3cdc9bc1	0.026929738
74	0x3d7e0571	0.062016908
75	0x3d6c0c4b	0.05762891
76	0xbcb145f4	-0.021639802
77	0x3de20639	0.11036343
78	0x3e2cd460	0.1687789
79	0x3e18e9e3	0.1493297
80	0x3d5512a6	0.052019738
81	0x3d4c1bd9	0.049831245
82	0x3db3024b	0.08740672
83	0x3d6c3dd1	0.05767614
84	0x3d887c9b	0.066643916
85	0x3d9dec6b	0.07711109
86	0xbcfb91ce	-0.030709174
87	0x3d26af4c	0.04069452
88	0x3c355ca6	0.011069452
89	0x3e7c5c30	0.24644542
90	0x3d85620b	0.06512841
91	0x3df69b63	0.120413564
92	0xbd7ea352	-0.062167473
93	0x3d82f77f	0.063948624
94	0x3d5d0255	0.053957302
95	0x3df09a24	0.1174815
96	0x3dc180aa	0.09448369
97	0xbcce1e56	-0.02516095
98	0x3e2379b4	0.15964395
99	0x3d818d75	0.06325809
100	0xbd584ddd	-0.05280863
101	0x3cf7d5e2	0.030253354
102	0x3d39881c	0.04529582
103	0x3d78f0db	0.060776573
104	0x3ea7ee15	0.3279883
105	0x3d9c978d	0.076460935
106	0x3e0611da	0.13092747
107	0xbca095cf	-0.019602684
108	0x3da8919a	0.08230896
109	0x3d7f4ffa	0.06233213
110	0x3dc463df	0.095893614
111	0x3e1d93d3	0.15388422
112	0x3cfceaa1	0.030873599
113	0x3db46c4e	0.0880972
114	0x3d4bea8c	0.04978423
115	0x3d7ec291	0.06219727
116	0x3c328289	0.01089538
117	0x3c11d87e	0.008901713
118	0x3d8d95d5	0.06913344
119	0x3dc53970	0.09630096
120	0x3e5be0cb	0.2147247
121	0x3dfde5ce	0.123973474
122	0x3dc0b923	0.09410312
123	0x3dbec072	0.0931405
124	0xbc928bd7	-0.017888946
125	0x3d5a9908	0.0533686
126	0x3e03ec04	0.12883002
127	0x3d2533e6	0.040332697
128	0x3dc1cbc1	0.09462691
129	0xbd1dd28f	-0.038530882
130	0x3dc53290	0.09628785
131	0x3da6602b	0.08123811
132	0x3dbcc5b7	0.092173986
133	0x3cb89afc	0.02253484
134	0x3de9d4f8	0.11417574
135	0x3de26c02	0.11055757
136	0x3dafa1a8	0.08575755
137	0x3dafce84	0.085843116
138	0xbc05b2a7	-0.00816027
139	0x3e3a8592	0.18215016
140	0x3cd7dc6f	0.026350228
141	0x3e03e0e0	0.12878752
142	0x3bdb0403	0.006683828
143	0x3d6b1622	0.057394154
144	0x3cd15b8a	0.025556345
145	0xbd6b470b	-0.0574408
146	0x3d244bb0	0.040111244
147	0x3d554cd5	0.052075226
148	0x3d03de89	0.032194648
149	0xbd4d9ee2	-0.05020035
150	0xbd245450	-0.04011947
151	0xbc7b6b51	-0.01534541
152	0x3d6af9c8	0.057367116
153	0x3e16474e	0.14675638
154	0x3dbfb30b	0.093603216
155	0x3dd69b8e	0.104788885
156	0x3e0344cc	0.12819213
157	0x3db8b2aa	0.090184525
158	0x3db42924	0.087969095
159	0x3d9468d9	0.072465606
160	0xbde27f2e	-0.11059414
161	0x3cdd52c3	0.027017003
162	0x3d8b364c	0.06797466
163	0x3d0b0c4a	0.033947267
164	0x3c2448f1	0.010027156
165	0x3d5dac62	0.054119475
166	0x3daacc32	0.083397284
167	0x3d4830b9	0.04887459
168	0x3d27c6a2	0.040960915
169	0x3e3df813	0.18551664
170	0x3d8aa88b	0.06770428
171	0x3d560754	0.052253082
172	0x3cbec09f	0.023285208
173	0x3e1d3ed6	0.15356001
174	0xbd54cafd	-0.051951397
175	0x3db4aa09	0.08821494
176	0x3d64411d	0.05572616
177	0xbc05df0f	-0.008170857
178	0x3e0a49e7	0.13504754
179	0xbe4ad363	-0.198072
180	0x3da8ea97	0.082478695
181	0x3dac4a64	0.084126264
182	0x3da32041	0.07965136
183	0xbd146e1f	-0.036237832
184	0x3d447ca1	0.047970418
185	0x3de4f7bd	0.11180065
186	0xbd098af3	-0.033579778
187	0xbd17c9ef	-0.037057813
188	0x3c05e984	0.00817335
189	0x3e09141d	0.13386579
190	0x3e0e0c58	0.13871896
191	0x3ce1b8e7	0.027553989
192	0xbc66ce79	-0.014087313
193	0x3d4dee53	0.05027611
194	0x3d301362	0.042987235
195	0x3dffb0e4	0.12484911
196	0x3d9f78b7	0.077866964
197	0xbbe9b46a	-0.0071321027
198	0x3db454ad	0.08805213
199	0x3dd88455	0.10572115
200	0x3deefa67	0.11668854
201	0x3cc1a49f	0.023638068
202	0x3dad9e62	0.08477475
203	0x3dadc2e7	0.0848444
204	0xbdcecfa1	-0.10098196
205	0x3bc2d37d	0.0059456215
206	0x3df01b05	0.117239036
207	0x3d0235af	0.031789478
208	0x3db2bf8b	0.0872794
209	0xbc295633	-0.010335493
210	0xbc2f2e5e	-0.010692207
211	0x3cd25035	0.025673011
212	0x3cf4ca8c	0.029881738
213	0x3d87c0dc	0.06628582
214	0x3ce0754b	0.02739968
215	0xbe449666	-0.19197997
216	0xbc0ee540	-0.00872165
217	0x3d50e287	0.050997283
218	0x3dae0c44	0.08498433
219	0xbdbb993c	-0.091600865
220	0x3de1908c	0.11013898
221	0x3dbb1196	0.091342136
222	0x3d712cab	0.05888049
223	0x3d9ca712	0.07649054
224	0xbe0c2ffc	-0.1369018
225	0x3d0d2f4a	0.034468926
226	0x3e0d7ec3	0.13817887
227	0xbd5adcb7	-0.053433146
228	0xbc20de93	-0.009818691
229	0xbe02b041	-0.12762548
230	0xbd236835	-0.0398943
231	0x3d5526e8	0.052039057
232	0xbd807c37	-0.06273692
233	0xbe4132fc	-0.18867105
234	0x3d6d0217	0.05786332
235	0x3dd35553	0.10319009
236	0x3c96ef47	0.018424643
237	0x3d90eb6c	0.07076153
238	0x3ce2c575	0.027682045
239	0x3cd4842f	0.025941936
240	0x3d8a95c7	0.06766849
241	0x3d9c31fa	0.0762672
242	0x3d8e7f71	0.06957901
243	0x3ca1ab4b	0.019735
244	0xbb1a4b6f	-0.0023543497
245	0x3dc982b9	0.098393865
246	0x3c76039f	0.015015512
247	0xbe58fee6	-0.21190986
248	0xbdee0daf	-0.11623704
249	0x3d36f8d4	0.044670895
250	0x3d12a3a7	0.035800602
251	0xbd5275b1	-0.05138177
252	0x3d2ec402	0.042667396
253	0x3e39f307	0.18159114
254	0x3d383650	0.04497367
255	0x3e21bf17	0.15795551

FCNet.3.bias f4 [300]
0	0x3d5faef0	0.054610193
1	0x3c172821	0.009225876
2	0x3d3ce1cd	0.046113778
3	0x3d4d46b0	0.05011624
4	0x3d4d7c85	0.05016758
5	0x3cef8973	0.029240346
6	0x3d158558	0.03650412
7	0x3be02a8a	0.0068410086
8	0x3ccf1f9f	0.025283633
9	0x3c777d91	0.015105621
10	0xbb0b93ea	-0.002129788
11	0x3d4476d5	0.04796489
12	0x3c32275c	0.010873642
13	0x3cb44d76	0.022009593
14	0x3cfe2c2a	0.031026918
15	0x3cd84354	0.026399292
16	0x3ce23a8e	0.027615812
17	0x3d60362f	0.054739174
18	0x3c889d8d	0.016676689
19	0x3c9a5ec2	0.018844012
20	0x3c02ec6f	0.0079909405
21	0x3d29dca1	0.041470174
22	0x3d51f213	0.05125625
23	0x3c6a51c3	0.01430172
24	0x3d149470	0.036274374
25	0x3c8b1a84	0.016980417
26	0x3c88f2f8	0.016717419
27	0x3b98fb4f	0.00466863
28	0x3d8292d2	0.0637566
29	0x3d15c721	0.036566857
30	0x3d3f7a58	0.046747535
31	0x3d507df6	0.050901376
32	0x3d09f519	0.03368101
33	0x3d134369	0.03595296
34	0x3c906908	0.017628208
35	0x3d2f06c1	0.04273105
36	0x3d12cbba	0.03583882
37	0x3cfee6dd	0.031115944
38	0x3d3e903c	0.04652427
39	0x3cb2e2af	0.021836607
40	0x3d7ac9b7	0.061227527
41	0x3d1a4800	0.03766632
42	0x3ca92067	0.020645333
43	0x3d811216	0.06302278
44	0x3d3051f8	0.04304692
45	0x3d2c2b5b	0.042033534
46	0xbb56c5dc	-0.0032771742
47	0x3aa417fd	0.0012519356
48	0x3d740515	0.05957516
49	0x3d76e25f	0.060274478
50	0x3d244f6d	0.04011481
51	0x3c525033	0.012836504
52	0x3d3b01d1	0.04565603
53	0x3d855b6e	0.065115795
54	0x3d425172	0.047440954
55	0x3cdf0e1d	0.02722841
56	0x3d01c514	0.03168209
57	0x3c33ce2e	0.01097445
58	0x3d3f99fe	0.046777718
59	0x3c96cda5	0.018408606
60	0x3d600e42	0.054701097
61	0x3d4dffc2	0.050292738
62	0x3d215420	0.03938687
63	0x3d016324	0.03158869
64	0x3c8336f2	0.01601741
65	0x3d21e4bf	0.03952479
66	0x3ce1f3ee	0.027582135
67	0x3c98cfaa	0.01865371
68	0x3d221e39	0.039579604
69	0x3d17fefd	0.03710841
70	0x3cc77c9e	0.024351414
71	0x3d823ac6	0.063588664
72	0x3c1a3871	0.009412871
73	0x3ce8210d	0.028336072
74	0x3b74bbda	0.0037343414
75	0x3d2a9afe	0.04165172
76	0x3d6ba373	0.057528924
77	0x3d864d23	0.065576814
78	0x3d15bd4d	0.036557484
79	0x3d05857f	0.032598015
80	0x3cf0fd56	0.029417675
81	0x3db7e265	0.08978728
82	0x3d5399e4	0.051660433
83	0x3d81d7f9	0.06340022
84	0x3cf70202	0.030152325
85	0x3d7bd8f0	0.061486185
86	0x3d0a57e1	0.033775214
87	0x3d3da7e2	0.046302684
88	0x3d1bd085	0.038040657
89	0x3d247355	0.04014905
90	0x3d5d2c36	0.05399724
91	0x3d915e3c	0.07098052
92	0x3cd50477	0.026003106
93	0x3caecdfa	0.021338452
94	0x3d221049	0.039566312
95	0x3d50ef4b	0.051009458
96	0x3d87aec5	0.066251315
97	0x3d148ce8	0.03626719
98	0x3da29458	0.079384506
99	0x3d49621a	0.049165823
100	0x3d31c14a	0.043397225
101	0x3cd037a9	0.025417166
102	0x3cb4e1da	0.02208035
103	0x3d7e1b5d	0.062037814
104	0x3d70adf8	0.05875966
105	0x3d1353b0	0.035968482
106	0x3d11f572	0.035634466
107	0x3c724d8f	0.014788999
108	0x3d8b5c72	0.06804742
109	0x3d13c92d	0.036080528
110	0x3cca8dcd	0.024725819
111	0x3c998667	0.018740846
112	0x3cc01077	0.023445351
113	0x3d9631e1	0.073337324
114	0x3d87cde9	0.06631071
115	0x3d3823ac	0.044955894
116	0x3d7a86a1	0.06116355
117	0x3d2588a4	0.040413514
118	0x3cd93717	0.026515527
119	0x3cbb5bce	0.022870924
120	0x3da4dffd	0.08050535
121	0x3d8457dc	0.0646207
122	0x3d406a8b	0.046976607
123	0x3d738fee	0.059463434
124	0x3d36d479	0.044636223
125	0x3d1ae02b	0.03781144
126	0x3bdb05b7	0.006684031
127	0x3d54ae08	0.05192378
128	0x3da6fbca	0.08153494
129	0x3d2f07e0	0.04273212
130	0x3d2c749b	0.04210339
131	0x3cd48b3c	0.025945298
132	0x3d6ef2d1	0.058337037
133	0x3cbe1611	0.023203881
134	0x3cc269bb	0.023732057
135	0x3c76ccee	0.0150635075
136	0x3d0347af	0.032050785
137	0x3cb7ef53	0.022452986
138	0x3cb99006	0.022651684
139	0x3d4dbf7f	0.050231453
140	0x3cdabe6f	0.026702134
141	0x3d1ba796	0.03800162
142	0x3d625c27	0.055263665
143	0x3d0ec867	0.034859087
144	0x3d323b83	0.043513786
145	0x3bad36f3	0.0052860915
146	0x3d4141c9	0.04718188
147	0x3d647fe5	0.055786032
148	0x3d955a03	0.07292559
149	0x3ab30354	0.0013657608
150	0x3d6bb8e2	0.057549365
151	0x3cb2b5e0	0.02181524
152	0x3cbf296d	0.023335183
153	0xbc328937	-0.010896972
154	0x3d2eae03	0.04264642
155	0x3d11de98	0.035612673
156	0x3d6af226	0.057359837
157	0x3cb93f09	0.022613065
158	0x3d569291	0.05238587
159	0x3d5dc40d	0.054142047
160	0x3d2a6b8d	0.041606475
161	0x3d4bcf86	0.049758457
162	0x3bb53d37	0.005530979
163	0xba92306d	-0.0011153348
164	0x3d44307d	0.047897805
165	0x3d99a516	0.07502191
166	0x3d4a6ef6	0.049422227
167	0x3cb584a1	0.022157969
168	0x3d82512e	0.0636314
169	0x3d6f6775	0.058448274
170	0x3c8f0fdf	0.017463623
171	0x3d22c67f	0.039740082
172	0x3d62a27b	0.055330735
173	0x3cbe1ab3	0.02320609
174	0x3d73e997	0.05954894
175	0x3d16d353	0.03682263
176	0x3c06d944	0.008230511
177	0x3d5bf5fd	0.05370139
178	0x3cb2535c	0.021768264
179	0x3d36903a	0.04457114
180	0x3bd9bec5	0.006645056
181	0x3cb9ec6d	0.022695744
182	0x3d7ba37b	0.061435204
183	0x3d386724	0.045020238
184	0x3d8852bf	0.066564076
185	0x3d5d41c3	0.054017793
186	0x3d042389	0.03226045
187	0x3cb4547b	0.02201294
188	0x3d16d7b2	0.036826797
189	0x3d6e0278	0.058107823
190	0x3d591521	0.052998666
191	0x3d366103	0.04452611
192	0x3d1573dc	0.036487445
193	0x3c995aed	0.018720115
194	0x3d8332f9	0.06406207
195	0x3d27395e	0.040826194
196	0x3cecb001	0.028892519
197	0x3d75e651	0.0600341
198	0x3d369918	0.044579595
199	0x3d20d045	0.03926112
200	0x3d494e6e	0.049147062
201	0x3d60eb1b	0.054911714
202	0x3ce90ca5	0.028448412
203	0xbbbb8a41	-0.0057232683
204	0x3d65f71f	0.056143876
205	0x3ccdf000	0.025138855
206	0x3d53274d	0.051551152
207	0x3d4b4d3f	0.049634214
208	0x3d04873b	0.03235553
209	0x3d8d2f71	0.06893814
210	0x3c93ccf6	0.018042069
211	0x3d8a522d	0.06753955
212	0x3d1e28f0	0.03861326
213	0x3d8a0b33	0.06740417
214	0x3d89a041	0.06720019
215	0x3d540b95	0.051768858
216	0x3d23d52f	0.03999823
217	0x3d0a909d	0.03382932
218	0x3cef4d1f	0.029211579
219	0x3d03dde3	0.03219403
220	0x3c25685d	0.010095683
221	0x3d374ceb	0.04475109
222	0x3d132c8d	0.03593116
223	0x3d13a1d7	0.036043014
224	0x3d672bd0	0.056438267
225	0x3d8713ee	0.06595598
226	0x3d5181bc	0.051149115
227	0x3d6f95cb	0.058492463
228	0x3d53230e	0.051547103
229	0x3d85f9c4	0.0654178
230	0x3d8525ba	0.065013364
231	0x3d8c33ee	0.06845842
232	0x3d6fd500	0.058552742
233	0x3d5986e2	0.05310715
234	0x3d15aa33	0.036539268
235	0x3ca5332a	0.020165998
236	0x3d75705c	0.059921607
237	0x3d2ec955	0.042672474
238	0x3d30bed2	0.04315073
239	0x3d5b92d1	0.053606812
240	0x3d9fc0f1	0.078004725
241	0x3d0d2c75	0.034466226
242	0x3cd09a49	0.025464194
243	0x3cc3909e	0.02387267
244	0x3cd8720b	0.026421567
245	0x3d761690	0.06008011
246	0x3d52c088	0.051453143
247	0x3d783ea1	0.060606603
248	0x399d0c77	0.0002995466
249	0x3d17c05d	0.037048686
250	0x3d287852	0.04113037
251	0x3d3381f5	0.04382511
252	0x3d11a7bb	0.03556035
253	0x3d03f34b	0.032214444
254	0x3c470b36	0.012148669
255	0x3d4e1427	0.050312188

FCNet.4.weight f4 [300]
0	0x3f9cf69f	1.2262763
1	0x3fc11311	1.5083944
2	0x3fa9e633	1.3273376
3	0x3f0224a1	0.5083714
4	0x3ea00107	0.31250784
5	0x3fb9a85d	1.4504505
6	0x3fb26cb0	1.3939419
7	0x3ef726ae	0.48271698
8	0x3f98167b	1.188186
9	0x3ef0df1c	0.4704522
10	0x3fb7f383	1.4371189
11	0x3ee12b01	0.43978122
12	0x3fc7fe0d	1.5624405
13	0x3fb99b07	1.4500436
14	0x3fcf7b4b	1.6209501
15	0x3fa41bf6	1.2821033
16	0x3fc30ba6	1.523793
17	0x3eb05e79	0.34447077
18	0x3fd734e0	1.6813011
19	0x3fb0b6cd	1.3805786
20	0x3fcad5b7	1.584647
21	0x3fb16944	1.386025
22	0x3f8ada20	1.0847816
23	0x3fbe0b25	1.4847151
24	0x3faeafc2	1.3647387
25	0x3fe1fd50	1.765543
26	0x3effe57d	0.49979773
27	0x3fce4aef	1.6116618
28	0x3f959618	1.168643
29	0x3ee10f57	0.43957016
30	0x3eb9abf0	0.3626399
31	0x3f7eb0aa	0.9948832
32	0x3fb74bcd	1.4320008
33	0x3fa391c8	1.2778864
34	0x3fc33b24	1.5252423
35	0x3f17760b	0.59164494
36	0x3faf8647	1.3712853
37	0x3fafdd23	1.373936
38	0x3fb07857	1.3786725
39	0x3fafc977	1.3733357
40	0x3eca12f3	0.39467582
41	0x3fd15770	1.6354809
42	0x3fa65e24	1.299748
43	0x3f04d8dc	0.518934
44	0x3f9a3b58	1.204936
45	0x3efd2e0e	0.494492
46	0x3fed3ff2	1.853514
47	0x3fbaaff6	1.4584949
48	0x3f207744	0.62681985
49	0x3ed67963	0.41889486
50	0x3fab6af8	1.3392019
51	0x3fe4e1a5	1.7881361
52	0x3fa22e3d	1.2670361
53	0x3f74849d	0.9551485
54	0x3fb3bde0	1.404232
55	0x3fc298b9	1.5202857
56	0x3fc20a8a	1.5159466
57	0x4017a519	2.3694518
58	0x3fae123f	1.3599318
59	0x3fbc0302	1.4688418
60	0x3face172	1.35063
61	0x3ed9fa1b	0.42573628
62	0x3ec4bedc	0.38426864
63	0x3fe271b9	1.7690955
64	0x3fd093a4	1.6295056
65	0x3fa52d12	1.2904379
66	0x3ed36b07	0.41292593
67	0x3fcab253	1.583567
68	0x3ff46493	1.9093193
69	0x3ed209fd	0.41023245
70	0x3fc27775	1.5192705
71	0x3ef11de2	0.4709311
72	0x3fc09786	1.5046241
73	0x3fda53bd	1.7056805
74	0x3fdaab83	1.7083591
75	0x3fcdd9c7	1.6082085
76	0x3f1148fb	0.56751984
77	0x3fb93b61	1.4471246
78	0x3ec39583	0.38200006
79	0x3fbce2ae	1.4756677
80	0x3ece5ad2	0.40303665
81	0x3f968a5f	1.1760978
82	0x3fad4f8f	1.3539904
83	0x3f8420ad	1.0322472
84	0x3fc5dd32	1.5458128
85	0x3ecfb3e5	0.40566936
86	0x3fefa18b	1.8721174
87	0x3eca6c8f	0.3953595
88	0x3ee8152c	0.45328653
89	0x3fa80cd3	1.3128914
90	0x3fa96c3b	1.3236154
91	0x3ee2c4e8	0.44290853
92	0x3fe436ce	1.7829225
93	0x3eeef524	0.46671402
94	0x3fa60f51	1.2973424
95	0x3eb34dd8	0.35020328
96	0x3f9e31fa	1.2359002
97	0x3faec34c	1.365335
98	0x3f8ed2f8	1.1158133
99	0x3f9fb164	1.247601
100	0x3f07d9ee	0.5306691
101	0x3fdc4122	1.7207377
102	0x3fb826c3	1.4386829
103	0x3fa455de	1.2838705
104	0x3f8384fe	1.0274961
105	0x3fb3f52d	1.4059197
106	0x3fd1d309	1.6392528
107	0x3fb9b1e6	1.4507415
108	0x3f8ec576	1.115401
109	0x3fc1e934	1.5149293
110	0x3fb6ef43	1.4291767
111	0x3ef6e854	0.48224127
112	0x3edcd223	0.43129072
113	0x3f7ee3ba	0.99566233
114	0x3ed26a3c	0.41096675
115	0x3fa421a2	1.2822764
116	0x3f9c6d75	1.2220904
117	0x3fa59fba	1.293937
118	0x3fce4fbb	1.6118082
119	0x3fd235c5	1.6422659
120	0x3f9e7e90	1.2382374
121	0x3f6a817b	0.9160382
122	0x3fac29f8	1.3450308
123	0x3f8a059d	1.0782963
124	0x3fa1c594	1.2638421
125	0x3fc560f1	1.5420209
126	0x3f05253a	0.5200993
127	0x3fa1ea8d	1.2649704
128	0x3f957281	1.1675569
129	0x3fbf50df	1.4946555
130	0x3fb701e5	1.4297453
131	0x3f9e1ea8	1.2353106
132	0x3fc494fc	1.5357966
133	0x3fe1bea7	1.7636307
134	0x3fad66d6	1.3547008
135	0x3fdb2d0c	1.7123122
136	0x3fb56f6b	1.4174627
137	0x3ecd0a2a	0.40046817
138	0x3f9a6ed5	1.2065073
139	0x3fc89567	1.5670594
140	0x3fad6c4e	1.3548677
141	0x3fde31e1	1.7358972
142	0x3eaed515	0.34146944
143	0x3fb3617e	1.4014127
144	0x3f9d2b8b	1.2278913
145	0x3fd75168	1.6821718
146	0x3f99a5bd	1.2003704
147	0x3f8a5ef2	1.0810225
148	0x3f7ad441	0.97980124
149	0x3fcf87a5	1.621327
150	0x3eca8c22	0.39560038
151	0x3ee63c96	0.44968098
152	0x3fb609bf	1.4221724
153	0x3fc2e180	1.5225067
154	0x3f8b19f0	1.086729
155	0x3faa7e61	1.3319818
156	0x3ec0b123	0.37635145
157	0x3f990f0b	1.1957716
158	0x3f8bb723	1.0915264
159	0x3f96f391	1.179308
160	0x3fdf9263	1.7466549
161	0x3fcbfdf6	1.5936878
162	0x3fcef012	1.6167014
163	0x3fed9481	1.8560945
164	0x3f9d553f	1.229164
165	0x3f0125e6	0.50448453
166	0x3fc3a61f	1.5285071
167	0x3fc948fe	1.57254
168	0x3ee7f311	0.45302632
169	0x3eb5742c	0.35440195
170	0x3ec90888	0.3926432
171	0x3fbf8bb6	1.4964511
172	0x3eabe9fd	0.33576956
173	0x3fd734ee	1.6813028
174	0x3ed6d88d	0.4196209
175	0x3ed2b334	0.41152346
176	0x3fbfcb3d	1.4983898
177	0x3ebef060	0.37292767
178	0x3fb6a440	1.4268875
179	0x3eb7ec9f	0.35922715
180	0x3fb54078	1.4160299
181	0x3fe01a12	1.7507956
182	0x3ed5697b	0.41682038
183	0x3ee2945c	0.44253814
184	0x3f8b1f8f	1.0869006
185	0x3fa7b8e4	1.3103299
186	0x3fd27805	1.6442877
187	0x3fc978cf	1.5739993
188	0x3f9912a3	1.1958812
189	0x3efaa1d1	0.4895158
190	0x3fb82600	1.4386597
191	0x3fb2de9a	1.3974183
192	0x3fb55495	1.4166437
193	0x3fae1b06	1.3601997
194	0x3f9c4d9a	1.2211182
195	0x3fcd5f89	1.604478
196	0x3fb9a39a	1.4503052
197	0x3f04d85b	0.5189263
198	0x3f8a1b99	1.0789672
199	0x3fd116a7	1.6335038
200	0x3ed70bc6	0.4200117
201	0x3ec8cf8c	0.39220846
202	0x3fc65a78	1.5496359
203	0x3fdd3aa8	1.7283525
204	0x3f92609a	1.143573
205	0x3fec56f5	1.8464037
206	0x3eb9fa37	0.3632371
207	0x3fa84f72	1.3149245
208	0x3ed47e00	0.4150238
209	0x3fa8825c	1.3164783
210	0x3fb13aa9	1.3846027
211	0x3f100b5d	0.5626734
212	0x3fb9b462	1.4508173
213	0x3f1b2bd4	0.6061375
214	0x3f0a3f45	0.5400279
215	0x3eb90169	0.36133888
216	0x3ecf3d22	0.40476328
217	0x3fa5aa84	1.2942662
218	0x3fc65f57	1.5497845
219	0x3fe19b79	1.7625571
220	0x3fd45d2f	1.6590937
221	0x3fad61df	1.3545493
222	0x3febb043	1.8413166
223	0x3f925edc	1.1435199
224	0x3fa294be	1.2701643
225	0x3f0e5a13	0.5560619
226	0x3ebf380c	0.37347448
227	0x3fadc4a2	1.3575633
228	0x3ecbcf81	0.3980675
229	0x3fae1dd3	1.3602852
230	0x3ee627a7	0.44952127
231	0x3f441c1e	0.76605403
232	0x3f880a41	1.0628129
233	0x3fbfbaf6	1.4978931
234	0x3fb4b67a	1.4118187
235	0x3fc9d961	1.5769464
236	0x3fbb7a11	1.4646627
237	0x3fb9d482	1.4517977
238	0x3ed551ac	0.41663873
239	0x3fd88eee	1.6918619
240	0x3fbe7dc6	1.4882133
241	0x3fa463ee	1.2842996
242	0x3fbf586c	1.4948859
243	0x3ec74af6	0.38924378
244	0x3fea75ac	1.8317161
245	0x3eb8aaba	0.36067754
246	0x3ee339da	0.44380075
247	0x3f86997a	1.0515587
248	0x3fe0a133	1.7549194
249	0x3fba8ba5	1.4573866
250	0x3fcdbfeb	1.6074194
251	0x3fab753a	1.339515
252	0x3ebb724e	0.36610645
253	0x3fbcdc44	1.475472
254	0x3fadda90	1.3582325
255	0x3eb6b411	0.35684255
