DDPG/model/MountainCarContinuous-v0_critic.pt (torch, 497919 bytes, 9 tensors)

FCNet.0.weight f4 [400, 3]
00000000: f20f 663d a928 b2bc c047 003d 1eab f03c
00000010: 7990 b9bf 0f60 023d ce2a 4f3e 3355 4f3f
00000020: 4177 363d f79e 73be f10f 953f 9f3f fe3c
00000030: c0ae ee3d 7fe5 483f bddb 313d 8ff2 e13d
00000040: fb2f 9dbd 1c23 063d 28b7 553c ccef 893d
00000050: e478 e83c 45ca cebc fe90 3e3d d160 d63c
00000060: 924f e73c 330b bc3d a46c 073d b42a 13bd
00000070: 8c11 0c3e 60b8 bb3c e740 a23d fd96 323d
00000080: a2b7 093d 1c87 5d3c f577 1f3c 5f66 e33c
00000090: b6a6 60bd b47d 993d 726b c03c 902f 163e
000000a0: 1a60 12c0 b112 d33c 50c5 6f3b 6d2a f7bd
000000b0: 9eea 043d 4787 8bbd 7f75 b4be dc8b 133d
000000c0: 7bce 4ebb 63d8 6dbe 7504 193d d1bb fb3c
000000d0: bec5 5fbd 5280 dc3c 24c0 82be a439 e7bf
000000e0: 97ce f33c 4f37 d3be d148 2bbf a227 f83c
000000f0: f4ea 06ba 2d4f d6bc 4a65 d13c e91c d5bc
00000100: c118 483d 6a1a e03c a87e 2d3d 7aee 1ebf
00000110: 40e4 ff3c b17b b53e 8fc0 cd3f 20fc f43c
00000120: 9879 80bd 9262 e7bc db85 f03c 3ff7 edbb
00000130: eccd 68bd d58c cd3c 774d 98bc e609 2cbe
00000140: 9d72 e53c 1a10 683e e9af 763f 01ba 683d
00000150: 996c b03d 2d7c 3dbe b693 173d c3fa 13bb
00000160: 7dc7 1f3d cf5b d43c 8c52 46bd e241 7d3d
00000170: dcc8 b23c 70b5 293d 2eba 7d3d 3711 e53c
00000180: f827 963d e417 0340 7813 ae3c e550 4bbd
00000190: aef4 7f3d 948d cf3c 786c 8bbb 36d6 253d
000001a0: 6d0d 003d 4399 533d ddaf 943d 0eef cd3c
000001b0: 1068 1c3f be37 be3d 928d 593d 2a7b 5e3d
000001c0: 852c ba3d 7fc1 ef3c 4095 98bd d092 d9bc
000001d0: be59 fa3c a50e 8cbb a634 df3d 3ceb ce3c
000001e0: a9f7 5b3c 182e 183d bd71 df3c 1057 843d
000001f0: 516e 083f fb03 003d 4e03 f23b 81c0 5cbe
00000200: 4f98 163d c2af 933d 7582 a3bd f6f6 fa3c
00000210: 2d46 ca3c f669 eb3c 2b41 e73c 6f84 973c
00000220: d173 843f ff60 073d 57f3 e63c bef0 ce3d
00000230: 4597 f33c 5cc6 763d 24b5 0fbf 09cb 573d
00000240: 3f9c 093d 3167 73bd 6b22 0d3d cbdb a13d
00000250: 6f73 b8bf 1c75 f43c 2685 b8be 3570 a9bf
00000260: 241e 0c3d 9e94 a03c 1078 343f 8887 0f3d
00000270: 1932 293d 5ffc 623e 0603 0b3c eba5 c4bc
00000280: 0e65 86bc ba92 c73c 1616 d8bc de5d e53d
00000290: c075 db3c 65fc 313d e171 9c3d 5dd9 013d
000002a0: fd0a 0bbc c076 61bd 7104 d83c e831 0fbe
000002b0: daf3 8ebf 3441 0c3d fe67 bebd d787 2f3e
000002c0: 7893 ef3c 4c0d df3c 7b5c 40bd e915 e43c
000002d0: b201 233d 53ae bd3c 2cbb e93c f447 fc3b
000002e0: 0c21 2f3d 117e ed3c 44fa 123e 04a7 f6bb
000002f0: 72d5 0d3d c6a3 933e 660a b83a 106b 183d
00000300: 7e40 f13b a43e 64be 9d1e f83c 9a28 843c
00000310: 01a8 dbbd f07f d83c 9dfb 073f 7751 4c3f
00000320: 01b1 083d 292d 56be 6b03 8cbf cc07 093d
00000330: 6930 103d 6f68 98bd f8b3 d63c d8d4 0e3e
00000340: db60 803f 0665 323d b005 8fbe cf9e c63f
00000350: e5ff fa3c 4e62 143d 509d 0dbe 42bf e73c
00000360: dfd1 433d 08e9 52bf 5639 243d a642 dc3e
00000370: 881f c63f b92a 653d 136a 43bb be1a d33d
00000380: 258d cc3c 9de7 8f3b 52e6 0abd 56bc ef3c
00000390: 71f1 b0ba a257 f33d 9e56 ff3c 9676 3f3d
000003a0: a4c2 a7bf 129f f93c 6264 b0bb 7de0 d33d
000003b0: 01ae fd3c e013 08bb ae1c 203e 318c f03c
000003c0: fc65 09bd b8ab 89bf 2650 f73c e9c2 273d
000003d0: b745 a83d ee1c ff3c 39ec 1dbd e40b 51be
000003e0: 6394 c03c cc60 bf3e 779f 183f 148a 393d
000003f0: 4b4e f53c a8a0 033e fc43 d23c cda8 1abb
0.05616755 -0.021747904 0.031318426 0.02937847 -1.4497215 0.03182989 0.20231172 0.8098938
0.044547323 -0.23791109 1.164549 0.031036196 0.11654425 0.78475183 0.04342245 0.110325925
-0.07675167 0.032748327 0.013044156 0.06735191 0.028377958 -0.025242934 0.046524994 0.026169213
0.028236184 0.091818236 0.033062592 -0.035929397 0.13678569 0.022915065 0.079225354 0.043601025
0.03362239 0.013520982 0.00973319 0.027758775 -0.054846488 0.07494679 0.023488734 0.14666581
-2.2871156 0.025765749 0.0036586113 -0.12068639 0.03245031 -0.068129115 -0.35245892 0.036022052
-0.0031556177 -0.23227076 0.037357766 0.030729206 -0.05463194 0.026916657 -0.25537217 -1.8064466
0.029761596 -0.41253135 -0.66907984 0.030292336 -0.0005146705 -0.0261608 0.025560994 -0.026014762
0.048851732 0.027356345 0.042357117 -0.62082636 0.031236768 0.35445932 1.6074389 0.029905379
-0.06273192 -0.028245244 0.029360702 -0.00726214 -0.056837007 0.025091568 -0.018591626 -0.16800651
0.028008753 0.22662392 0.9636217 0.056818012 0.08614463 -0.185044 0.037006103 -0.0022579886
0.039008606 0.025922684 -0.048418567 0.06183041 0.021824293 0.041432798 0.061945133 0.02796231
0.07331842 2.0483332 0.021249518 -0.049637694 0.062489204 0.025336064 -0.004254874 0.04048749
0.031262804 0.051659834 0.07260106 0.025138404 0.61096287 0.09287976 0.053113528 0.054316677
0.09090523 0.02926707 -0.07450342 -0.026559263 0.03056037 -0.0042742067 0.10898714 0.025258653
0.013425746 0.037153333 0.027275914 0.06461918 0.5329333 0.031253796 0.007385648 -0.2155781
0.036766347 0.072112575 -0.07983867 0.030635338 0.024691666 0.02873705 0.028229317 0.018495766
1.0347844 0.033051487 0.028192205 0.10104512 0.029735217 0.060247764 -0.56135774 0.052683864
0.033596274 -0.059424583 0.03445665 0.0790325 -1.4410228 0.029840998 -0.36039084 -1.3237368
0.03420843 0.019602116 0.704957 0.035041362 0.041307542 0.22166584 0.008484608 -0.024004897
-0.016405609 0.024361957 -0.026377719 0.11199544 0.026789546 0.043453593 0.07638908 0.031701434
-0.0084865065 -0.05504489 0.026369305 -0.13983881 -1.1168168 0.03424187 -0.09297179 0.17141663
0.029245123 0.02722802 -0.046963196 0.027842479 0.03979654 0.023154413 0.028531633 0.007699007
0.042756125 0.028990777 0.14353281 -0.007527234 0.034627385 0.28835887 0.0014041185 0.037211478
0.0073624244 -0.2228952 0.030288035 0.016132642 -0.107254036 0.026428193 0.53118306 0.79811805
0.03337193 -0.20915665 -1.0938543 0.0334547 0.035202418 -0.07441794 0.026208863 0.13948381
1.0029558 0.043553375 -0.27934027 1.5517215 0.030639598 0.036226563 -0.13829541 0.028289441
0.04780757 -0.8238683 0.040093742 0.430196 1.5478373 0.055948947 -0.0029817864 0.10307835
0.024969647 0.004391624 -0.033911057 0.02926461 -0.001349969 0.11881949 0.031169232 0.04674395
-1.3106275 0.030471358 -0.0053830603 0.10345552 0.03096676 -0.00207638 0.1563594 0.029363723
-0.033544526 -1.0755529 0.030189585 0.040957365 0.08216422 0.031141724 -0.038555358 -0.20414692
0.023508256 0.37378538 0.59618324 0.045297697 0.02994456 0.12854254 0.025667183 -0.0023599148

FCNet.0.bias f4 [400]
00000000: 1ccd 0c3e 3f42 1d3e 45c0 a4bd 8ffb cabc
00000010: 6cbe fe3d f440 033e fe1d 103e 1501 0e3e
00000020: 8c74 003e 9c00 183e a029 0d3e 4a91 f63d
00000030: 62bb 113e ca43 893e dbd8 bb3d 8526 793d
00000040: aea1 df3d 20ab 133e ed96 48be b440 20be
00000050: 39f7 123e f2a1 0b3e 7c04 c23d 827c 953d
00000060: 7270 f73d 9841 123e 05cd 053e 837c b3bd
00000070: 7a90 003e 3946 133e 3720 173e 312d 153e
00000080: 52f4 153d 716d 0c3e baac 053e a941 1f3e
00000090: b641 48bd ae60 143e 9d35 e73d d55c f33d
000000a0: 2ff7 113e 3460 003e 1448 cb3d 46da 0f3e
000000b0: eab0 103e ca54 183e 46d5 d03d 25a7 9e3d
000000c0: 708a 023e ffb9 f63d ec4d 08be 2af8 c53d
000000d0: 83c1 bc3d b465 123e a8e4 0d3e 92e2 0c3e
000000e0: bceb 0e3e 1917 2d3e fb6b f93d 358f 103e
000000f0: 254a 123e 04f2 0a3e 9daf 003e 4314 3ebd
00000100: ae6a 023e 3fc2 113e 03bc 26be aeaa 3abe
00000110: b253 163e f37b 963d 2a6c 84bd ad1c 103e
00000120: a7cb 6b3d 7171 fe3d b5ad 163e d083 0a3e
00000130: f912 fa3d ef88 173e d7b4 043e 4e83 f03d
00000140: b3d9 153e ed3f 0e3e 2659 0e3e 1aba 10be
00000150: 7de0 1a3e b7ac e43b 782b 8e3d 6b4f 203e
00000160: 76bc 9dba 5f6f 163e cf0b 053e c9f1 f13c
00000170: ec58 ae3d b80d ee3d 4b75 023e 5268 3e3e
00000180: 8be1 0a3e e291 0c3e 2b5e 183e 2274 1e3e
00000190: d651 0e3e 157b 943d e126 8cbb 4068 ec3d
000001a0: b92d 0c3e ee83 3f3c e012 0e3e 1b32 173e
000001b0: 8a00 a13d c54d 183e 1941 153e e470 143e
000001c0: fa91 17be e1cc 0d3e 6d2c 173e 781d 133e
000001d0: ef47 003e 2db1 593e d169 033e 7b27 0cbd
000001e0: b9e1 153e cb54 133e ddd0 fa3d 41ab 0b3e
000001f0: 1d82 993d fdc8 c83d bfba e83d 10a7 ee3d
00000200: add7 853d fe29 1f3e 16ad 193e 88af 673d
00000210: c9d5 573d 1f6c e03d 59f7 b13d c1f3 5dbd
00000220: d3ed 0f3e a725 213e 9ea2 b8bd 4277 b63d
00000230: fa9b 05be 53b6 083e 9f26 123e b542 5a3d
00000240: 0031 fd3d 724d de3c 39e2 1e3d 91b6 033e
00000250: d7a2 0a3e 0cae 3fbe a47d 1b3e ac0b 11be
00000260: bf4c 1a3e 2db2 083e 154a 06be 8ce6 0f3e
00000270: f5d3 143e 6d8e 403d b070 c43d 2883 d83d
00000280: 8ce0 1b3e 712d 893d 613e 0c3e 9108 46be
00000290: ce29 fdbd ec08 0bbe 357c 083e 1370 043e
000002a0: c64b 053e 4469 b23d 7974 ebbc 8055 c93d
000002b0: ed15 123e bfd6 da3d 5d19 113e 19e6 043e
000002c0: bc7f 103e d199 0b3e f40d bb3d bab3 cdba
000002d0: 314e 0cbe 6f40 073e d22a 0f3e da1b 053e
000002e0: 797d 073e adc5 f43d 28e9 c43d 5cdf e03d
000002f0: 378f 0f3e 0551 183e ff14 e43d 4d1c 073e
00000300: 5017 683d 9ffc 093e be6e 0e3e 3ccc 213e
00000310: 395c 193e 5da2 373b 38a9 033e ecbe fd3d
00000320: 113d 0b3e 099f 163e a3ae 103e 4e7e 023e
00000330: ac65 de3c 3ea6 c13d 6cdb 0e3e 7e4e fb3d
00000340: 10bc 113e 46dc ec3d 3f7c 0d3e 4210 0e3e
00000350: 3ec9 133e 1e15 0b3e 2891 dbbc c20a 8b3d
00000360: b6fb 29bd 9952 113e 8842 193e 18eb f13d
00000370: 765d 093e 277b 113e 8dad 143e 553b 073e
00000380: b11c 0b3e 5feb 3f3d 162e 993d 5d18 043e
00000390: cc9e 0e3e 6724 e6bd 7ec6 f63d d2e5 073e
000003a0: c88c fc3d adad fb3d 5961 113e 2691 50bd
000003b0: 161b 123e 2ba1 0c3e 2592 0a3e 0ef6 103e
000003c0: c0c3 193e 9b8f fa3c d936 40bc b0bb a43d
000003d0: 582d 193e 0428 133e 1e73 163e c37b 0c3e
000003e0: 1772 163e 562c d33d 1423 0e3e 6458 093e
000003f0: a372 0b3e 08bc 103e 1c0c c43c d636 083e
0.13750118 0.15357302 -0.08044485 -0.024778156 0.12438664 0.12817746 0.14073941 0.138676
0.12544459 0.14843982 0.1378541 0.120394304 0.14231637 0.2680953 0.09172221 0.06082775
0.1091951 0.14420748 -0.19588824 -0.15649682 0.1435212 0.13635996 0.094735116 0.072991386
0.12081994 0.14282835 0.1306649 -0.08763983 0.12555113 0.14382257 0.14758383 0.1456802
0.036609955 0.13713624 0.13054171 0.15552391 -0.04889079 0.14490005 0.11289523 0.11882941
0.1425445 0.12536699 0.09925857 0.14048108 0.14129987 0.14876094 0.10196929 0.07746724
0.12748122 0.12047195 -0.13310975 0.09666474 0.09216597 0.14296609 0.13856757 0.13758305
0.13957113 0.16903342 0.12178799 0.14117129 0.14286096 0.13568884 0.12566991 -0.04640604
0.12736008 0.14234255 -0.16282658 -0.18229172 0.14680365 0.0734786 -0.06465943 0.14073439
0.057567265 0.12423981 0.14714701 0.13526845 0.1221065 0.1479833 0.1295961 0.117437944
0.14633827 0.13891573 0.13901195 -0.14133492 0.15124698 0.006978597 0.06941885 0.15655296
-0.0012034315 0.14690922 0.12992786 0.029534237 0.08513054 0.116237104 0.12740056 0.18594483
0.135626 0.13727525 0.14879672 0.15473989 0.13898405 0.072500385 -0.0042770957 0.115433216
0.13689317 0.011689169 0.13874388 0.14765207 0.07861431 0.14873417 0.14575614 0.1449619
-0.1480178 0.13847686 0.14763041 0.1436671 0.1252744 0.21258993 0.12833335 -0.03421734
0.14636888 0.14387815 0.12246869 0.13639547 0.0749552 0.098039605 0.11363744 0.116529584
0.065352775 0.15543362 0.15007433 0.056563884 0.052694116 0.109581225 0.08689756 -0.05418754
0.14055566 0.1573702 -0.09015392 0.089094654 -0.13047782 0.13350801 0.14272545 0.053286273
0.12362862 0.027136538 0.03878996 0.12862612 0.13538681 -0.18718737 0.15184647 -0.14164609
0.15068339 0.13349219 -0.13114198 0.1405279 0.1453398 0.047010828 0.09591806 0.10571891
0.15222377 0.066981204 0.1369567 -0.19339205 -0.12361489 -0.13577622 0.13328631 0.12933378
0.13017187 0.08711484 -0.028742062 0.09830761 0.14266177 0.10685491 0.14169832 0.129784
0.14111227 0.13632895 0.09133521 -0.0015693821 -0.13701703 0.13208173 0.13981178 0.12998906
0.13231458 0.11951766 0.096147835 0.109801024 0.14019476 0.14874656 0.11136817 0.1319439
0.056662858 0.13475274 0.13909432 0.15800565 0.14976586 0.002802036 0.1285752 0.12389931
0.13597514 0.14709105 0.14129119 0.12743494 0.02714809 0.09455536 0.1395089 0.122708306
0.14231896 0.11565451 0.13816927 0.1387339 0.14432237 0.13582274 -0.026802614 0.06789161
-0.041499816 0.14191665 0.14966786 0.11812419 0.13414559 0.14207135 0.1451933 0.13206227
0.13585164 0.046855327 0.07479493 0.12899919 0.13927764 -0.11237412 0.12049578 0.13271263
0.123315394 0.122889854 0.14197291 -0.050919674 0.14268145 0.13733356 0.13532312 0.14156362
0.15016079 0.030586055 -0.011731827 0.08043611 0.14958704 0.14370733 0.14692351 0.13719086
0.1469196 0.10311191 0.13880569 0.13412625 0.13617949 0.14134228 0.023931555 0.13302168

FCNet.1.weight f4 [400]
00000000: 61ee fd3e 7e44 6f3f 15fa 943f 5b77 3c3f
00000010: d3de f33e a837 133f 0cd1 fb3e 7005 c93e
00000020: bd7c 163f 619c da3e 44b0 053f ea0b 273f
00000030: 26e6 ea3e 01e8 f33f 1b39 2a3f 69d2 153f
00000040: 375e 043f e64b 113f fec9 b33f 43ab 7a3f
00000050: ee38 0e3f 74aa 9e3e 796d 133f d6b7 6a3f
00000060: 686d f53e 1f8c 113f 08ff 013f cdae 8a3f
00000070: 21cc 1f3f 8ef0 0e3f d036 d83e 7a04 173f
00000080: 02d7 b03f 1150 033f b5a6 1b3f c8d1 cc3e
00000090: 8d87 753f 5975 103f fb70 013f 7a8d 133f
000000a0: 5ee8 1c3f f8cd 1b3f 8b88 113f 43e3 053f
000000b0: 8d79 1a3f 1851 c03e 8e6d 283f 3184 323f
000000c0: 865c 273f 2b59 513f 8fa9 7b3f 0e84 f23e
000000d0: 980d 273f 56d9 083f 1bcf 183f 9416 203f
000000e0: 6765 243f 3888 743f 98f1 ea3e 336b 173f
000000f0: fec8 033f 6218 133f 3f30 0a3f 89a6 683f
00000100: b0b8 0d3f 0750 f73e 10b1 ca3f cdbb 9a3f
00000110: a766 123f 6e7e 013f 8dbe a43f a120 0f3f
00000120: eb7e 543f 0106 903f ef33 f23e 52cc 183f
00000130: b4e7 1f3f 08b4 373f 2f2c 123f 2099 153f
00000140: 0c41 473f b745 173f 054c d33e a332 c43f
00000150: 9b7f f43e e9e4 3e3f bb5b b03f 4f53 ff3e
00000160: 6efb 543f 474d c43e bcdd 0e3f 6799 ae3f
00000170: 5631 1f3f 3c40 193f 88f5 183f f206 803f
00000180: f1bb 133f b62e 173f 9878 103f 78c8 743f
00000190: b1dd f43e 1577 293f 1f38 5e3f 9f5a ae3f
000001a0: cacd 243f b3b8 943f 6229 1d3f 7a92 0f3f
000001b0: 33fb 393f bdd7 8a3f 1000 1e3f a2e1 0d3f
000001c0: 6582 e93f 29ab 0a3f 9542 433f ccfb 023f
000001d0: e586 0f3f 45fa 223f 784e 303f ccf1 763f
000001e0: b490 143f adbf ea3e af62 2f3f 6e74 173f
000001f0: b8d2 1b3f ed5c 063f 6750 0a3f 88fb 113f
00000200: c401 cb3f 6b54 833f f724 0d3f 2a92 243f
00000210: d043 2a3f bd6f 183f 9a79 0540 171a fe3e
00000220: 37aa c03e 0896 7d3f 3f95 a63f 5aed 113f
00000230: 7782 7e3f 0967 fa3e 491f f83e f4f8 383f
00000240: 95e9 033f a194 953f 66ff 1d3f d910 e93e
00000250: ce9f 153f 53fd a13f dd07 eb3e db57 dd3f
00000260: 863c 5d3f 03b1 e83e 24d2 783f eb32 163f
00000270: 37ce 0a3f 78a3 0a3f fa59 3c3f 8c5e 0c3f
00000280: 053d ec3e 0561 5b3f 8463 003f 16a4 b83f
00000290: 9aa3 ca3f ce5f bc3f aa45 093f 587e 093f
000002a0: 13e3 213f 19d8 343f d237 0d3f 6953 303f
000002b0: e8f0 f53e d0ec 293f 8fed 1e3f 5fb6 133f
000002c0: 097c ed3e 5756 193f 7d16 0b3f 9428 c03f
000002d0: ebb4 d53f 7e34 043f 9bed 1d3f 8974 e73e
000002e0: 63fa 223f 5784 2e3f debe 863f 940b 193f
000002f0: 9cb7 c43e 9ce7 0c3f cc61 933f 3301 2c3f
00000300: 2812 593f 6ac3 fa3e 4012 e53e e2fc f03e
00000310: f973 f73e 3b96 1e3f d589 083f 8fbf 013f
00000320: 1d63 073f c013 083f e73e 143f d627 083f
00000330: 59de 4b3f 34dc 913f c955 163f b318 fa3e
00000340: ed64 023f 6a99 df3e 0657 123f 6def 073f
00000350: a858 ed3e 1fa4 c23e 9a85 8f3f f739 603f
00000360: 6632 783f b6ca 1b3f 62a4 6f3f 19b5 093f
00000370: 4796 1a3f c991 ff3e f733 083f 141f 253f
00000380: fd88 fe3e 4df9 6a3f 8152 833f e667 213f
00000390: 2e8a 133f 7e61 933f 604d 213f abd2 0e3f
000003a0: b688 1c3f 609e 143f b3c2 da3e 0bb6 603f
000003b0: 25cc 123f 3085 063f 57f5 0f3f 5fcd 003f
000003c0: d00e f43e 2e05 173f d68a 9a3f d2d3 383f
000003d0: 766d f23e 8f58 0b3f 0c23 0c3f c65c 233f
000003e0: 4bb6 2b3f 24ca 153f 56c7 213f 30cd 0f3f
000003f0: 57f0 213f 464b 063f 21df 703f 7156 1a3f
0.4959593 0.93463886 1.1638819 0.7361962 0.4763094 0.575068 0.49182928 0.3926196
0.58784086 0.42697433 0.52222085 0.65252554 0.45878714 1.9055177 0.66493386 0.58524185
0.5170626 0.56756437 1.4046018 0.97917575 0.5555562 0.3098942 0.57588917 0.9168676
0.47935033 0.5685443 0.5077977 1.0834595 0.6242085 0.5583581 0.4222932 0.58991206
1.3815615 0.51294047 0.6080125 0.400038 0.9590996 0.5642906 0.5056302 0.5763775
0.61292064 0.6086116 0.56848973 0.522999 0.6034172 0.3756187 0.6579217 0.6973296
0.65375555 0.81776685 0.983056 0.47366375 0.6525512 0.5345663 0.5969102 0.6253445
0.6421723 0.95520353 0.45887446 0.5914795 0.51478565 0.5745908 0.5397987 0.9087911
0.55359936 0.48303244 1.5835285 1.2088562 0.57187885 0.5058354 1.2870651 0.5590916
0.8300616 1.1251832 0.47305247 0.5968677 0.62462926 0.7175908 0.5709867 0.58436775
0.7783363 0.5909075 0.41268936 1.5327953 0.47753605 0.7456804 1.3777994 0.49868247
0.8319615 0.38340208 0.5580709 1.3640565 0.62184656 0.5986364 0.5974965 1.000212
0.5770865 0.5905565 0.5643401 0.9561839 0.47825387 0.6619733 0.86804384 1.3621405
0.6437651 1.1618866 0.6139127 0.5608288 0.72648925 1.0847088 0.61718845 0.55422413
1.8242918 0.5416742 0.7627347 0.5116546 0.5606521 0.6366313 0.68869734 0.964627
0.580333 0.45849362 0.68509954 0.5916203 0.60868406 0.52485543 0.54028934 0.5702443
1.5859914 1.0260137 0.5513453 0.6428553 0.66509724 0.595455 2.085547 0.4962928
0.37629864 0.99057055 1.3014296 0.57002795 0.99417824 0.48906735 0.4846137 0.7225487
0.5152829 1.1685983 0.6171783 0.45520666 0.5844697 1.2655433 0.45904437 1.7292436
0.86420476 0.4544755 0.9719565 0.58671445 0.5422091 0.54155684 0.73574793 0.5483177
0.46140304 0.85694915 0.5015185 1.4425075 1.5831177 1.4716737 0.53621924 0.5370841
0.6323711 0.7064224 0.551633 0.68877274 0.4803536 0.6637697 0.62081236 0.5770015
0.46383694 0.5989737 0.5433119 1.5012383 1.6695837 0.51642597 0.6169068 0.45206097
0.6366331 0.68170685 1.0526998 0.5978329 0.38421333 0.5504091 1.151422 0.6718933
0.8479333 0.48977214 0.44740486 0.47067934 0.48330668 0.61947984 0.53335315 0.5068292
0.5288561 0.53155136 0.5790848 0.53185785 0.7963615 1.1395326 0.5872465 0.4884697
0.5093525 0.43671733 0.5716404 0.5309971 0.46356702 0.3801584 1.1212647 0.8758845
0.969519 0.6085619 0.93610203 0.5379196 0.60385555 0.49915913 0.5320429 0.64500546
0.4971389 0.9178665 1.0259553 0.6304916 0.5763272 1.1514127 0.6300869 0.55790204
0.61146104 0.5805416 0.4272667 0.87777776 0.5734275 0.5254698 0.56233734 0.5031337
0.4766755 0.5899228 1.2073619 0.7219821 0.47349137 0.54432005 0.5474098 0.63813436
0.6707503 0.5851157 0.6319479 0.56172466 0.63257354 0.5245861 0.9409047 0.6028815

FCNet.1.bias f4 [400]
00000000: 4737 9ebe 9a54 a6bd a41f 58bd 94e5 77be
00000010: 4a7f 12bf 92bf e4be 671f b2be b038 a8be
00000020: a1a0 9ebe 1f49 1fbf bfd8 e3be c7d5 b3be
00000030: 9795 0bbf 1e34 053e 74df 94be 9af2 e9be
00000040: c895 abbe a6c5 ddbe 8d47 efbc c050 cebd
00000050: 6f4d f4be a9d4 88be c4a8 51be 845a dc3c
00000060: 15a9 c4be bcfc eebe 06cf babe d2a1 e2bc
00000070: 4628 c1be dce5 f0be 778f 1cbf 0a58 e9be
00000080: 62c9 753e d03d fdbe c300 ccbe b556 18bf
00000090: 4b39 e1bd e7d2 dbbe 3691 e2be ca14 c8be
000000a0: b78f d2be b92a e9be e72d 87be 117f fcbe
000000b0: 7a10 d7be a15b 0dbf d8a1 8cbe b224 34be
000000c0: 2f31 aabe 647b 33be 0e5d 38be e466 95be
000000d0: 4da1 98be 0d68 febe 2aff 04bf 9f6a babe
000000e0: 5020 f8be ae49 16be 2a99 fbbe f1c7 e0be
000000f0: edc5 fbbe 658d ccbe d0f2 dcbe 11bc 5cbe
00000100: 4cef 99be fde6 c2be 901c 963b 098f b8bd
00000110: f6f8 08bf 8c60 debe d8ac dbbd 2882 f0be
00000120: 010e 00be ddbc 013e 32e1 fabe cf95 d9be
00000130: a221 b1be f25e eabd 6146 aebe 9b63 bcbe
00000140: 822e 1bbe 5a47 c9be 593d 01bf 80dd 63bc
00000150: 0154 fdbe e53f 903d eaf5 723e 5295 10bf
00000160: c5bb 6dbe ed91 12bf 6eae c9be 43ca 853e
00000170: a032 cfbe 9da0 9fbe 7206 b2be a7f6 f8bd
00000180: c45b ddbe 1191 e9be 2973 01bf d75a bebd
00000190: 4927 ffbe 2f57 efbd 947b 24be 6322 843e
000001a0: 8201 cebe eaa5 903b e206 d0be 9d0e d4be
000001b0: e0eb 25be ac7d c8bd c0d7 eabe edf4 f9be
000001c0: 8eca 0d3e 5e69 c8be f096 06be 6dd7 08bf
000001d0: 808e a8be 7db1 cabe b529 bbbe 9b96 4fbe
000001e0: 15f7 d8be 46c2 efbe e2a0 a8be 9558 efbe
000001f0: e346 8bbe 7623 62be 7f41 a6be 9203 f9be
00000200: 883f dc3d afb6 c5bd 9667 f8be cd97 8abe
00000210: 0175 a3be ca33 a7be 6a80 083d cac5 6bbe
00000220: 18fe 9abe e624 dfbd da24 193d 548a a5be
00000230: 0904 ecbd 765f b0be 5bd4 e6be 39bd b7be
00000240: 6626 c9be 5426 873e add1 b3be 95ad b4be
00000250: 7052 bebe d64b 72bc 68ae f1be 9dfc 1a3e
00000260: 9602 f7bd 8df9 00bf 5b48 57be 82d0 babe
00000270: aed3 0abf 7ce6 babe 15c6 86be b25e 8fbe
00000280: 8cfc 0cbf 7e01 40be 62f8 9dbe 1d6c 96bd
00000290: b25e c43d 9ba7 a73c fc27 00bf 5244 9fbe
000002a0: 9118 c7be 9096 a4be e601 efbe 0de5 38be
000002b0: f68f 05bf 217a babe 55dc e7be a622 ccbe
000002c0: 2a14 14bf 2f08 bbbe 727f a5be 04f9 893e
000002d0: 18d7 f53d 3fb8 09bf 395f e3be 7f47 9fbe
000002e0: 1cf7 d0be a722 adbe 6da9 6e3d 5d4a 7bbe
000002f0: ed85 98be 291a f6be 47c1 cb3d 2ea9 c0be
00000300: 51d7 3fbd d233 c1be c508 0fbf 491c 06bf
00000310: 65f8 02bf 2886 93be 1d1c c3be bb1f 9bbe
00000320: a10d 08bf 8ac6 08bf 5ad0 efbe 86b0 98be
00000330: 1950 32be 9d96 d93d a2d9 ddbe 0011 e7be
00000340: ca11 09bf e5ec ebbe 36f5 c3be c110 e6be
00000350: 6d6e fbbe 4eb8 1ebf 3e38 01be f55e 23bc
00000360: 6ca2 a4bd e41d cdbe 3d84 e4bd 8a31 91be
00000370: 10e2 c7be 7b8e f1be c8a1 f1be f61b bcbe
00000380: 7e30 a5be 2f48 bdbd 94c8 e73d 1933 bcbe
00000390: 1c98 c2be 9a32 3abd d337 b1be 5fb2 c3be
000003a0: c591 f3be 1114 a6be facc 10bf 7221 3dbd
000003b0: 5ff5 ddbe 99ba 02bf 7285 c1be 53cc d8be
000003c0: ddd6 f0be 5660 a1bc b8fc cd3d 940c 36be
000003d0: 05c8 ffbe 5ac1 e8be 9c07 e3be fa27 ccbe
000003e0: 989b 37be 568c 92be e909 d0be e240 a8be
000003f0: f6b3 c9be 142a f3be 0151 55be 7f7a b7be
-0.30901548 -0.08121605 -0.05276455 -0.24208671 -0.5722548 -0.44677407 -0.34789583 -0.3285575
-0.30981925 -0.6222095 -0.44501302 -0.35124037 -0.5452513 0.13008162 -0.2907673 -0.45692903
-0.33512712 -0.43314856 -0.029208923 -0.100739956 -0.47715327 -0.26724747 -0.20474535 0.02689863
-0.3841025 -0.46677196 -0.3648607 -0.027665053 -0.3772604 -0.4705037 -0.6115641 -0.4557498
0.24002603 -0.49461222 -0.3984433 -0.59507304 -0.10997256 -0.42934343 -0.44251412 -0.3907836
-0.4112527 -0.45540407 -0.26402208 -0.49315694 -0.42004758 -0.5521794 -0.27467227 -0.17592123
-0.3324065 -0.17527539 -0.18004248 -0.29180062 -0.29810563 -0.4968876 -0.5195185 -0.3640947
-0.48462152 -0.14676544 -0.49140292 -0.43902543 -0.49174443 -0.39951625 -0.43154 -0.21556117
-0.30065382 -0.38066855 0.0045810416 -0.09011657 -0.53504884 -0.43433034 -0.10726327 -0.469743
-0.12505342 0.12669702 -0.48999935 -0.42497107 -0.34595972 -0.11443891 -0.3403807 -0.36794743
-0.1515446 -0.3931225 -0.50484234 -0.01390779 -0.49478152 0.07043437 0.23726621 -0.56477845
-0.2321616 -0.57253915 -0.39390892 0.26130876 -0.4046831 -0.31177226 -0.34770542 -0.1215642
-0.43234074 -0.4561849 -0.50566345 -0.0929467 -0.4983466 -0.11686551 -0.16062766 0.25807485
-0.40235525 0.0044143097 -0.4063025 -0.414174 -0.1620326 -0.09789595 -0.4586773 -0.48819676
0.138468 -0.3914289 -0.13143516 -0.53453714 -0.3292122 -0.39588538 -0.36555257 -0.20272295
-0.4237601 -0.46827906 -0.32935244 -0.4674727 -0.2720252 -0.2208384 -0.32471845 -0.48635536
0.10754305 -0.09653985 -0.4851653 -0.2706894 -0.31925204 -0.326567 0.03332559 -0.2302467
-0.30271983 -0.1089571 0.03738866 -0.32332098 -0.11524207 -0.3444783 -0.4508389 -0.35886553
-0.39287108 0.2639643 -0.35120907 -0.35288683 -0.3717227 -0.0147885885 -0.47203374 0.15135427
-0.1206104 -0.50380784 -0.21023695 -0.36487204 -0.5422925 -0.3650397 -0.26323 -0.28001934
-0.55072856 -0.18750569 -0.30853564 -0.0734484 0.09588374 0.020465663 -0.5006101 -0.31106812
-0.3888593 -0.3214612 -0.46681136 -0.18056126 -0.5217279 -0.36421302 -0.45285287 -0.39870185
-0.5784327 -0.3652968 -0.32323796 0.26947796 0.120039165 -0.5379676 -0.44408587 -0.31109235
-0.4081353 -0.338155 0.058267046 -0.24540086 -0.29789677 -0.48066834 0.09948974 -0.37629074
-0.0468362 -0.37734848 -0.55872756 -0.5238691 -0.5116027 -0.2881329 -0.38107386 -0.30297646
-0.53145796 -0.53427947 -0.46838647 -0.29822177 -0.17413367 0.1062443 -0.43330103 -0.45130157
-0.5354277 -0.46079174 -0.3827302 -0.44934657 -0.49107686 -0.61999977 -0.12619111 -0.00997137
-0.08038792 -0.40061867 -0.11158035 -0.28358108 -0.3903966 -0.47179016 -0.47193742 -0.36740083
-0.3226356 -0.092422836 0.11317554 -0.36757734 -0.38006675 -0.045458414 -0.34612903 -0.38222024
-0.4757215 -0.32437184 -0.5656277 -0.046174474 -0.43351266 -0.51065975 -0.37797123 -0.42343387
-0.47038928 -0.019699257 0.10057968 -0.17778236 -0.4995729 -0.45460016 -0.44341743 -0.3987425
-0.17930448 -0.28622693 -0.4063256 -0.32862002 -0.39395112 -0.4749304 -0.20831682 -0.35835645

FCNet.3.weight f4 [300, 400]
00000000: d836 b13c 3e84 1e3e 7bb6 d1be 75c3 34bd
00000010: 4da1 48be cfaa 58bd 1bbd ac3d 9e3b eaba
00000020: c135 97bc ad0f 313d d2ec d13c 1fcb a1bb
00000030: c15d ff3c c4f6 1d3f 9f8b c43c e373 aa3d
00000040: 34dd 923d 06e9 93bc fb60 4e3e bbe4 2ebe
00000050: de99 c43d 51fe c23d d237 533d c3f4 6bbe
00000060: 8972 b83c 7cce 16bd 9c03 9c3d b04e a3be
00000070: 4ca4 b53c 669e 1b3d 639a 683c 138a 5abd
00000080: 680e c0be 1208 abbd 9077 2e3a 6dc1 46bd
00000090: 8db8 13be 333a 013c c38c 183d 626c 7a3d
000000a0: 7334 f0bc 4267 1ebe 7c1f 663d 4a21 de3d
000000b0: 4d45 4239 45b5 e63b 9c81 cb3c 0c32 6d3e
000000c0: 4ccb 3e3d c4fd 343d 4655 44be cbaa 883c
000000d0: 95de 59bc 3ad9 db3c 2263 63bd ea0c f13c
000000e0: 8b3a 803c 3baf 753d c530 ba3c 0ca5 02bd
000000f0: 4e93 cb3d 65af 753a b3be cd3c 5a14 73be
00000100: 2009 683d 0e21 903c fd39 40bf 2a76 9c3d
00000110: e6aa 15bd 3ae6 a9bd 7b15 a9be 999e 16bd
00000120: ff36 b73c afcd acbe b0e3 9bbc 982d 6abb
00000130: 66a1 963a a427 963d ab69 273d 994c 8cbd
00000140: a289 c33c 52ab 05bd 0596 8a3d 0db0 51bf
00000150: 3a5b ffbc 35e3 93bd 3635 32bd ead7 d3bb
00000160: f3a3 88be 5786 90bc 1aea 753b 8359 9cbe
00000170: 0b08 913d e1fc 523d 368d d83d 9f02 713d
00000180: 765b 863c 10ef 5a3d 1ee0 f7bb 37f6 223e
00000190: f9af ab3d c58c 9abc b618 3a3d 3be3 dbbd
000001a0: 9ffa 2b3e 1f8a 0cbd f55c ce3c cc42 863d
000001b0: e574 783d 46d9 003e 24cf 95bd eccf e7bc
000001c0: e6c6 70bf 8dd8 503c e909 323d 8c22 093d
000001d0: 81ad 593d c53b 7c3e 0d03 42bd 29ac 07bf
000001e0: d99b 1dbd 78c7 013e 4398 b5bb 037b 2e3c
000001f0: afd7 ec3c 3f33 cbbc b767 04bd b00a a73a
00000200: 1569 d1be 65e4 2f3e 33a4 6fbc 0e30 2d3d
00000210: 9854 cc3c 8266 953d 6b4c de3d 37d8 cebc
00000220: 3c35 aa3c 74ae 313e 84c1 09bf 3087 003e
00000230: bf28 513b dfad fa3c 32e8 3e3d bcb8 dd3c
00000240: 6265 303a 4fff 7ebe f454 c8bd 19c0 0b3d
00000250: b0ef 413c 56a6 053e 9ba8 33bd 5cbe e8be
00000260: 5186 f33c 2d4f 5c3d 245d 11bd 87b5 8a3b
00000270: 5e42 6ebc d930 bb3c 6c89 a53d 3978 fdba
00000280: 725b 53bc 43e9 903d 85d9 b23c 8f85 483e
00000290: 423b f4be 8ab7 38bf dc01 323d 804c 9c3c
000002a0: 1318 f33d 8906 07bd d8d6 9c3c 4b98 b93d
000002b0: 113a 173e 9f3e ab3c 90af 7dbc 8a36 223b
000002c0: 38bd 7fbc e8e3 cbbc 2938 2d3c 8f26 48bd
000002d0: 5aa7 5cbf e611 c4bc f793 b0bb 0f2c 293d
000002e0: 96ab 0f3d 689c f93d fc4b 70be 4dfd 863b
000002f0: 89c5 cd3c cf0e a0bc 85c2 94be 9cfc 1abd
00000300: ae88 3cbe 31f0 843d a308 9cbd 20b3 09bd
00000310: 8691 8b3d 33a8 453e d337 073c 6e08 a13d
00000320: 1b98 d6bc e419 173d f056 1d3d 5196 013d
00000330: eb28 653d bdd8 aebe 94f9 083c e0a4 833d
00000340: 7f91 9b3d e36e 123d d701 783d 9bcb c73c
00000350: 54ec 9c3d 99c6 6d3d b998 90be 0f01 60be
00000360: b00a 093e f40e a1bc 07b2 803d b3b3 b73b
00000370: ba72 17bd ff97 27bd 35d8 18be 851f 32bd
00000380: cff9 163d 5533 6b3e 1bdf a9be abb2 363d
00000390: 0816 183d d0d2 04bf 779c e1bc 6462 64bb
000003a0: 2ad2 c83b 4e6c 9c3c d021 93bd 94c1 7bbe
000003b0: 7c1a 08bd 3503 f43b ca1f 643d 4ac2 913d
000003c0: fc4e 9abd cdfd c5bd 75e6 10be 602a babd
000003d0: aa65 883b e4ac 553c 2c36 1e3d c1c3 24bd
000003e0: c87c 2c3e 20bb a53d 6e68 9c3c babe 9e39
000003f0: e369 183d a034 8ebb 1acf 833e c3b5 e03d
0.021632597 0.15480134 -0.40959534 -0.044131715 -0.19592781 -0.05289727 0.084345065 -0.001787055
-0.018458249 0.04322784 0.02562562 -0.004937544 0.031172635 0.6170466 0.023992358 0.08322885
0.071710974 -0.01805545 0.20154183 -0.17079441 0.0959966 0.09521163 0.051566906 -0.23042588
0.022515552 -0.036818013 0.07617876 -0.3189597 0.02217307 0.037992857 0.014196965 -0.053354334
-0.3751099 -0.08351149 0.00066553894 -0.04852431 -0.1442587 0.007887411 0.037243616 0.06113852
-0.029321885 -0.15469077 0.05618237 0.10846193 0.00018527098 0.007040652 0.024842076 0.23163623
0.046580598 0.044187322 -0.19173154 0.016683003 -0.013297697 0.02683698 -0.055514462 0.029425103
0.015652915 0.059981566 0.022728333 -0.031895682 0.099402055 0.0009372144 0.025115347 -0.23738232
0.056649327 0.017593887 -0.75088483 0.076397255 -0.036539935 -0.08295865 -0.330242 -0.036772344
0.022365091 -0.33750674 -0.019029468 -0.0035732742 0.0011492192 0.073317796 0.040872257 -0.06850547
0.02386934 -0.032634087 0.06766895 -0.8190926 -0.03117143 -0.07221071 -0.043507777 -0.006464948
-0.26687583 -0.017642183 0.0037523569 -0.30537042 0.07081612 0.051510695 0.10573809 0.05884039
0.016401034 0.053450644 -0.0075645586 0.15914236 0.083831735 -0.018865952 0.045433722 -0.107367
0.16794823 -0.03431141 0.02519081 0.06555709 0.060658354 0.12582883 -0.073148996 -0.028297387
-0.94053495 0.012746942 0.043466482 0.033480212 0.05314398 0.24632175 -0.04736619 -0.5299707
-0.038478706 0.12673748 -0.0055418327 0.0106494455 0.02891144 -0.02480471 -0.032325473 0.0012744274
-0.40900484 0.1717697 -0.0146265505 0.042282157 0.024942681 0.072949424 0.10854419 -0.025249584
0.020777337 0.17351705 -0.53810906 0.1255157 0.0031915156 0.030600486 0.046608157 0.027065627
0.00067289744 -0.2490208 -0.097818285 0.034118745 0.011836931 0.13051733 -0.043861967 -0.45457733
0.029727133 0.053786445 -0.035489216 0.0042330655 -0.01454219 0.02285044 0.08082852 -0.0019338197
-0.01290022 0.07075741 0.021832237 0.19582199 -0.4770146 -0.7215506 0.043458804 0.019079447
0.11869826 -0.032965217 0.019145414 0.09062251 0.14768244 0.020903884 -0.015483752 0.0024751746
-0.015609078 -0.024888948 0.010572472 -0.048864897 -0.8619286 -0.023934316 -0.0053887325 0.041301783
0.035075746 0.12188035 -0.23466486 0.0041195513 0.025118606 -0.019538311 -0.29054657 -0.037838563
-0.18411514 0.064911254 -0.07618835 -0.033618093 0.06814866 0.19302444 0.008253056 0.07862936
-0.026195576 0.036889926 0.03841299 0.031637494 0.055947226 -0.34149733 0.008360285 0.06427932
0.075961106 0.03575028 0.06054863 0.024389079 0.076622635 0.058050726 -0.28241518 -0.21875404
0.13382983 -0.01966045 0.06283956 0.0056061386 -0.036974646 -0.04091644 -0.14926226 -0.04348709
0.03685933 0.229688 -0.33178028 0.044603985 0.037130386 -0.51884174 -0.027540429 -0.0034848684
0.006128569 0.019094612 -0.071841836 -0.24585563 -0.033228382 0.0074466714 0.05569438 0.07117136
-0.07534596 -0.09667549 -0.14150412 -0.09090114 0.00416251 0.013041709 0.03862588 -0.040225748
0.16844475 0.08092332 0.019092765 0.0003027821 0.037210356 -0.0043397695 0.25743943 0.10972168

FCNet.3.bias f4 [300]
00000000: a44a 60bd 4447 1f3e cb67 8dbe 7278 0cbe
00000010: ce51 c6bc 00f8 1fbd 2100 abbc 082e 65be
00000020: a670 b9bd eb7d 293d e91e ccbd 38ed c9bc
00000030: 1c92 52bd 9216 b5bd 9fc1 e9bd e81b b5bd
00000040: 59be 8bbd 73ae a4be b688 243c 4c88 15bd
00000050: 4a05 d0bd dbdf 943e 3599 29bd fa90 cb3c
00000060: 43a8 a3bc 3dff d0bd f19a 3dbc 28d4 4abd
00000070: e452 45be 47b7 f4bc d747 73bd 3503 92bd
00000080: 9f06 c2bc c48b 31be 45f8 40bd 7fe4 21be
00000090: 233f 3abd 8169 c03d e449 3abb f224 58bd
000000a0: c062 b7bc 4ecc 653d 5c74 e53c 8e10 d2bd
000000b0: 34bc 753d 6c7b 073e 5906 aabd 8e28 e03d
000000c0: a6e5 463c f1aa 0ebe 0c5d 94ba 87a3 cc3b
000000d0: 5be6 33bd fbea 9fbd 16c1 753d 8a03 a8bd
000000e0: e8fc a7bd 470d dabc 9340 ddbd 03a3 fcbd
000000f0: df24 8cbd de5b db3d 650f e93d dd94 e8bd
00000100: 0a0f 5bbc 1fc2 c53c 9a4f a8bc 1333 0abe
00000110: 6808 dcbc 402d d73c 8363 adbc f07f 77be
00000120: aa62 03be b8cd 16bd 7d39 d0bd 8e62 e2bd
00000130: 9126 b43d 65cf 5a3d 8689 f23b ad29 583c
00000140: d417 76bd 8541 33bc a884 02bd 9b4e aabd
00000150: d33b abba 1904 22bd 37da 0a3d 9f92 e9bd
00000160: d114 b3bd 5381 81bd fdc4 9cbd ad2b 96bd
00000170: 7a3f 7b3d 1eab abbd fb19 90bd 67e2 9d3c
00000180: adb6 863c 889a 86be d44d 39be 0f76 28bd
00000190: 7dd2 9bba a320 a6bd 86af 4dbe 48cc f5bd
000001a0: 3b8a 773c ccdc 3cbe dba0 11be 19e1 edbd
000001b0: 6f11 8d3e 798c 843c 8050 92bd b04f b7bc
000001c0: 5799 033e 0344 24b8 c6ae 4fbe 8502 42bc
000001d0: ef01 dfb8 1ecd d8ba 2a6c db3d d380 98bd
000001e0: 961e 9dbd 5f2b d4bd 1ac6 94bd 6057 37bd
000001f0: 3f50 993d ec1f 64be fc9d 113e a290 89bd
00000200: 6d57 00be d016 b6bd 1b99 b0bd efe2 4cbd
00000210: 4333 d0bd ed76 44be 52be a8bc bb12 36bd
00000220: 4b43 e6bd bf1e b73d 977e c93c d830 cebd
00000230: ac03 283e 4e14 b93d 5a04 833e 9d27 77bd
00000240: 8c0e 29bd 9930 073d 4ec3 afbd 4875 a73c
00000250: bda8 2e3d 8417 a6bd cf3d 64bd d017 58bd
00000260: 5e35 44be d50c 88bd 7316 04be 31de fcbc
00000270: 8121 77bb af27 79bd 5a55 b3bc 3a9a 243e
00000280: 92c6 3ebd fb64 fcbc 6d62 27bd 8c97 8c3c
00000290: 33d3 93bd 6470 c9bd d329 04bd 3800 633d
000002a0: 13b6 293d 45ad e73c b9fb d4bd 1567 06be
000002b0: dfef 8abb b66f 3abc c64d 10be dc80 58bd
000002c0: 2c81 8a3c 6b82 fd3d 84ed c2bb 1fb7 09bd
000002d0: 575b 73bc 3548 d2bd 5762 cebc d488 1a3d
000002e0: 2c96 de3d 68b7 083e edd2 033c 7036 e4bd
000002f0: 06df 13be e4c5 0a3c 60ac 03be 8a5b 37bd
00000300: 4c0d 91bd d43b 23bd d589 c53b 1447 163e
00000310: 1800 0cbd f366 953d a38d e2bc 119c f9bd
00000320: be79 003d 4639 d0bb 9580 0a3e e1b1 a9bd
00000330: 78c6 8ebe 915e 5cba 11cc 34bd 475b 023e
00000340: 780b bbbc 5198 0cbe dbd9 09be 915a c6bd
00000350: 7898 e53d a421 b83b 6f1a 5dbd 8fa1 b7bd
00000360: ec9e 9e3b 7dfb 4d3b 4565 70bc 7111 ae3b
00000370: 2e5e 5ebd 4fa2 a8bd aea6 b03d df3a fe3d
00000380: 048f 6d3d cf4c fc3c 645b d73c 80d7 e3bd
00000390: 259b 72bb 9435 cfbd 0ee7 54be a0c0 5dbd
000003a0: 8b30 4f3c 5496 c0bd c884 883c f61d b9bd
000003b0: b4b7 9fbd 5481 e1bd 1113 e53c 887c 90be
000003c0: 134a cabd ba3c 6c3d 9c85 163e 3211 cbbd
000003d0: d941 873c 9c26 aebb 8729 553c c59e e1bd
000003e0: 98e9 9cbe 647c d2bd f123 63bc 2144 043c
000003f0: 84f9 3bbd 8b9d 103e 59f6 ab3d f39b 0c3e
-0.054758683 0.1555453 -0.2761825 -0.13717821 -0.02420893 -0.03905487 -0.020874085 -0.22380841
-0.09054689 0.04137985 -0.09966833 -0.024649248 -0.051408872 -0.088421956 -0.114138834 -0.08843213
-0.06823415 -0.32164344 0.01004236 -0.036506936 -0.10157259 0.29077038 -0.041405875 0.024849404
-0.019977694 -0.10204933 -0.011572585 -0.049518734 -0.19269902 -0.02987255 -0.059394684 -0.07129518
-0.023684798 -0.17338473 -0.04711177 -0.1580982 -0.045470368 0.09395123 -0.002842539 -0.05276961
-0.022385955 0.056103043 0.028009586 -0.10257064 0.059993938 0.13230675 -0.08301992 0.10945235
0.012139713 -0.13932396 -0.0011319234 0.00624508 -0.043920856 -0.07808491 0.059998594 -0.082038
-0.08202535 -0.02661766 -0.10803332 -0.123357795 -0.0684297 0.10710882 0.113798894 -0.113565184
-0.013370285 0.024140416 -0.02054577 -0.13496046 -0.026859477 0.026266694 -0.021165615 -0.24169898
-0.12830606 -0.036817282 -0.10167215 -0.11053954 0.087964185 0.053420443 0.007401648 0.01319353
-0.060081318 -0.010940914 -0.031864792 -0.08315774 -0.0013064094 -0.03955469 0.033899512 -0.11404919
-0.08744205 -0.06323495 -0.0765476 -0.07332549 0.061339833 -0.083822474 -0.070362054 0.019272996
0.016444528 -0.26289773 -0.18096095 -0.041128214 -0.0011888292 -0.08111694 -0.20086488 -0.12001854
0.01510864 -0.18443602 -0.14221518 -0.116151996 0.27552363 0.016180264 -0.071442604 -0.022376865
0.12851463 -3.9163988e-05 -0.20281515 -0.011841421 -0.00010633829 -0.0016540622 0.1071399 -0.07446446
-0.076718494 -0.10359835 -0.072643474 -0.04476106 0.07486009 -0.22277802 0.14220423 -0.0671704
-0.1253335 -0.0889107 -0.086229526 -0.05002111 -0.101660274 -0.19185992 -0.020598564 -0.044451457
-0.11243304 0.08941411 0.024596496 -0.1006791 0.1640765 0.09037076 0.25589257 -0.060340513
-0.04127364 0.03300533 -0.08582173 0.020441666 0.04264139 -0.08109954 -0.055723008 -0.052757084
-0.19160983 -0.066430725 -0.12899189 -0.030867668 -0.003770918 -0.06082886 -0.021891285 0.16074458
-0.04657609 -0.03080987 -0.04086535 0.017162107 -0.072180174 -0.0983589 -0.03226645 0.05542013
0.041433405 0.028280864 -0.10399575 -0.1312526 -0.0042400206 -0.011379173 -0.14092168 -0.052857265
0.016907297 0.12378391 -0.005948724 -0.033621904 -0.01485332 -0.10267679 -0.025193376 0.037728146
0.10868487 0.13351214 0.008045894 -0.11143196 -0.14440545 0.008470032 -0.12858725 -0.044765033
-0.07082614 -0.03985198 0.0060283937 0.14675552 -0.034179777 0.07295027 -0.027655428 -0.121879704
0.031366102 -0.006354484 0.13525613 -0.08285881 -0.27885795 -0.00084064255 -0.044139925 0.12730132
-0.022832617 -0.13729979 -0.13462012 -0.09685243 0.11210722 0.0056192447 -0.053980287 -0.08966362
0.0048407223 0.0031430416 -0.014672582 0.005312138 -0.054289035 -0.08234083 0.086255416 0.124135725
0.05799772 0.030798344 0.026288696 -0.11125088 -0.0037018743 -0.10117641 -0.20791265 -0.05413878
0.012645851 -0.09403673 0.016664878 -0.09038918 -0.077987105 -0.110109955 0.027963193 -0.2822001
-0.0987741 0.0576751 0.14699405 -0.09915389 0.01651089 -0.005314661 0.013010389 -0.11016611
-0.30646968 -0.10277632 -0.01386355 0.008072884 -0.045892254 0.14122598 0.083965965 0.13731365

FCNet.4.weight f4 [300]
00000000: 2935 083f e6ca a63e b139 543f 1d97 e13e
00000010: f198 e63e 208e 053f ac2e 493f 360c 4b3f
00000020: e7b5 fe3e 7c21 4d3f 07af 103f 9631 0b3f
00000030: bc5d 193f 338a 193f b0d0 e13e a2cf 013f
00000040: e475 e83e 9c3b 533f 2cfd f03e 9119 da3e
00000050: e2ce fe3e e051 603f 6789 df3e 6b01 743f
00000060: 170d a23e 7753 f13e bccb 2d3f 67ae 123f
00000070: 36c1 7a3f 9192 ab3e 2762 1a3f 2ce5 843f
00000080: a85f 023f 89cf 793f ad99 523f ad16 603f
00000090: 28b5 fb3e 064b 473f dc42 3d3f 9104 ff3e
000000a0: 46ed f03e 788e 733f 15f3 ae3e 0c2b 643f
000000b0: 1f1f 3e3f d6ee 3f3f d303 123f 8b55 523f
000000c0: 6c88 f83e 7bd6 563f 3492 f03e 39e7 223f
000000d0: 5b95 033f efb6 063f d7a1 3b3f bad5 273f
000000e0: 52d3 e13e 1f0e fc3e 5505 033f 78f3 353f
000000f0: f1ef fa3e b70c 463f e77f 4e3f 59cd 363f
00000100: c683 f13e ed35 8d3e 2e65 273f 08f4 0f3f
00000110: c970 a23e 65d0 6e3f ec8d 013f 7b65 8c3f
00000120: e387 373f 8d1e 2a3f dd95 d63e 5c3a 2a3f
00000130: a66b 3b3f a2d8 d43e 5a71 043f ef74 133f
00000140: 10af 143f 8f34 1c3f be4c e03e a86e 003f
00000150: 140e 953e 8e28 ea3e 3ec3 a43e c3b9 0c3f
00000160: 93d3 013f c89a 3d3f 6743 f53e 1eaa 013f
00000170: 1f20 683f a346 043f e3b4 0b3f 1cbd 8b3e
00000180: fd8b 273f adf0 893f 14d0 5b3f 2b76 bd3e
00000190: 34fa 213f b357 0f3f d40b 853f 5f05 453f
000001a0: 30c1 fc3e 0113 e43e 1d8e 4c3f d4c6 253f
000001b0: a43b 7a3f d176 e93e 85d2 223f eeac 263f
000001c0: 429e b73e be32 b83e ffdf a43f 102e c63e
000001d0: ea89 073f 5da4 dc3e f93a d53e 3d68 ea3e
000001e0: 6970 333f fd45 063f a214 013f 43a9 203f
000001f0: 33db 623f b90b b23f d309 b43e e2b0 123f
00000200: d8ea 563f 91c6 1c3f 867e 113f 44b0 f23e
00000210: 8fad 203f 0430 2b3f 0bcc 103f f110 ed3e
00000220: 3a3e 2a3f d959 553f d405 973f 6716 033f
00000230: 6951 623f 8a35 e53e b933 653f 36f4 f03e
00000240: e6b1 453f 8ecd c23e 74e4 613f a66d 163f
00000250: 095f e33e 6448 7e3f 16e1 ea3e a57f 083f
00000260: ff9d 1b3f 3f92 023f 3cd9 333f 7099 4a3f
00000270: f85b ce3e cb33 2d3f cb9c fe3e 138f 0b3f
00000280: 714a b13e 5a89 b43e a756 853e 91eb a33e
00000290: 33ed 5b3f 6242 c13e fbb9 9e3e 95b0 db3e
000002a0: cf4f 633f db5a e43e 201e 083f c107 243f
000002b0: b86b cd3e afa1 f53e 2b26 7d3f 80ed 003f
000002c0: 8d67 e53e 1904 013f d2bb c73e 71f0 213f
000002d0: 5db8 fe3e 60a1 0d3f 7a63 1a3f af3b 1a3f
000002e0: 9fb4 543f 4f72 5b3f c5fb 273f 3016 2f3f
000002f0: eba5 373f a680 893f 014b e03e 861b e23e
00000300: da7f e43e 7a84 343f 6835 d83e 2854 f03e
00000310: 9220 b63e 5845 403f c426 b93e d50d e23e
00000320: 0ae4 6a3f d0c6 033f d985 b43e aa1d 553f
00000330: 0066 723f 905f a23f 3254 d33e 410f 623f
00000340: 45c1 f43e f653 253f 2364 6c3f ba6c 463f
00000350: 1471 3e3f d997 cc3e 661c 153f e61a 203f
00000360: 4887 053f 4d86 533f 0e1a cb3e dbae 683f
00000370: 648e 313f e20d 0b3f 284f 583f 3270 503f
00000380: 47e7 3e3f 6015 673f 7cae 013f ae5b f93e
00000390: 262c b23e 91ac 243f 5aee 403f c5fb 143f
000003a0: e2fb 343f 4d50 003f 4795 c43e 6a56 193f
000003b0: f786 153f 099d 033f 7f45 9f3f 263e 913f
000003c0: fa00 2c3f 723e 663f e875 ae3e ccb8 173f
000003d0: 3e8a b13e cbfa 9d3e 71b3 f13e b14c f03e
000003e0: 5ab2 d63f a8de 163f c4d3 ca3e 381d 573f
000003f0: 9a5c ef3e df3e 5e3f cb46 733f 714c b63e
0.53206116 0.32576674 0.8290053 0.44060603 0.4503856 0.5216999 0.7858684 0.7931551
0.49748155 0.8012922 0.5651707 0.5437254 0.5990865 0.599765 0.44104528 0.5070745
0.45402443 0.8251283 0.47068155 0.4259763 0.49767214 0.8762493 0.43659517 0.95314664
0.31650612 0.4713399 0.67889 0.57297367 0.97951066 0.3351026 0.6030602 1.0382438
0.5092721 0.975823 0.8226574 0.875346 0.4916165 0.7784885 0.73930144 0.4980817
0.47056025 0.95139265 0.34169832 0.89128184 0.7426624 0.7497381 0.57037085 0.8216178
0.48541582 0.8392102 0.46986544 0.6363407 0.51399773 0.52622885 0.73293823 0.65560496
0.44106537 0.49229524 0.5118001 0.7107463 0.49011186 0.7736315 0.80663913 0.71407086
0.47170848 0.27580205 0.6538876 0.5623174 0.31726673 0.93286735 0.5060718 1.0968469
0.7169172 0.66452867 0.41911212 0.664953 0.73211133 0.41571528 0.5173546 0.576003
0.58079624 0.610177 0.4380855 0.5016885 0.29112303 0.45734066 0.32180208 0.5497095
0.5071346 0.740643 0.47902986 0.50650203 0.9067401 0.51670283 0.54572886 0.27292717
0.6544798 1.0776573 0.8586438 0.37004218 0.63272405 0.55993193 1.0394235 0.7696132
0.4936614 0.4454575 0.7990435 0.6475651 0.97747254 0.45598462 0.6360248 0.6510762
0.3586293 0.35976213 1.2880858 0.38707018 0.52944815 0.4309415 0.41646555 0.45782652
0.700934 0.52450544 0.5042211 0.6275827 0.8861572 1.3909827 0.35163745 0.5730115
0.83952093 0.6124049 0.56833684 0.47400105 0.6276483 0.6687014 0.56561345 0.46301988
0.665012 0.8334022 1.1798654 0.5120606 0.8840547 0.4476741 0.8953205 0.47061318
0.77224576 0.3804745 0.88239217 0.5876106 0.44408444 0.9932921 0.45874852 0.5331977
0.6078796 0.51004404 0.7025335 0.7914038 0.40304542 0.67657155 0.49729 0.5451519
0.34627107 0.3526104 0.26042673 0.3201566 0.8590881 0.3774596 0.31001267 0.4290816
0.88793653 0.44600567 0.5317097 0.6407433 0.40121245 0.47974917 0.98886365 0.50362396
0.44805565 0.5039688 0.39010483 0.6325751 0.49750033 0.55324364 0.6030804 0.6024732
0.83088106 0.85721296 0.65618545 0.6839323 0.71737546 1.0742385 0.43807223 0.44161624
0.44628793 0.70514643 0.42228246 0.46939206 0.35571724 0.7510581 0.36162388 0.44151178
0.9175421 0.5147524 0.35258368 0.8324839 0.9468689 1.2685413 0.41275173 0.88304526
0.47803703 0.6458124 0.92340297 0.77509654 0.74391294 0.399596 0.5824646 0.62541044
0.5215955 0.826268 0.39668316 0.9089181 0.69357896 0.5431806 0.8449578 0.81421196
0.7457165 0.9026699 0.5065687 0.4870276 0.34799308 0.64325815 0.75363696 0.5819667
0.7069684 0.5012253 0.3839514 0.5989748 0.58409065 0.5141149 1.2443084 1.1347091
0.6718899 0.89939034 0.3407433 0.5926635 0.34675783 0.30855402 0.47207215 0.4693351
1.6773179 0.58933496 0.3961469 0.8402896 0.46750337 0.86814684 0.95029896 0.35605195

FCNet.4.bias f4 [300]
00000000: 130a f1be 613c 1bbf 0057 48be 63ea 0bbf
00000010: 6cb9 15bf 17cd f7be 1f36 0abf 7052 d4be
00000020: c890 fabe a5be b4be 8667 cdbe 3631 03bf
00000030: 08db eabe 53ac a2be b7bc 06bf 658c f1be
00000040: 188c 07bf 142d a2be 3b97 07bf 63d3 01bf
00000050: db38 dfbe 6bb9 94bd 6473 f6be 0c64 82bd
00000060: 4641 25bf 308a 00bf f281 c1be daf7 e6be
00000070: e772 67be 0d62 14bf cae8 b3be fa31 ffbd
00000080: 7660 e7be 0e6e a8bd d7aa cdbe d032 b7be
00000090: 10b0 febe 52f5 f5be fa4a 94be b5c3 03bf
000000a0: 372f 25bf 42b0 63bd 161a 0dbf 7239 d9bd
000000b0: 86f9 82be e7e6 f0bd 0e93 ffbe 10f8 09be
000000c0: d1ee efbe 6dd9 a7be 2348 fabe e69c c0be
000000d0: 1d1e d8be 4045 fcbe c3bc 92be ccf4 e2be
000000e0: 4528 fbbe 82b7 0ebf 26ef f3be 9f23 c7be
000000f0: 14d4 04bf 8b64 0ebe 4d34 fbbd a44f 9abe
00000100: d751 06bf beb4 08bf f591 9dbe 4cbb 00bf
00000110: be58 45bf fdc8 06be 8659 f2be a4b8 9cbe
00000120: 0fae cebe 7508 44be de12 14bf db7e e6be
00000130: d634 29be 59a4 14bf fef3 fabe 457f 00bf
00000140: 4159 cabe 4339 d2be c9d4 08bf e66c 00bf
00000150: 0736 1dbf a3bf d7be a7cd 22bf b7ab d7be
00000160: 5e20 06bf 0c1f 28be 35aa e7be c054 08bf
00000170: d515 9dbd d864 e2be d64a afbe 5e45 2cbf
00000180: 1c90 05bf 2d2f 97bd 7a22 15be 67d6 0cbf
00000190: 9b34 d0be 5294 c4be ad74 dfbd a55e b2be
000001a0: 4606 e1be 57b5 11bf 59c4 96be a7b8 acbe
000001b0: 8e5d d93c d2aa febe efe2 ecbe 6abb 8fbe
000001c0: 3399 0ebf 80a9 09bf 2ac2 ee3c a0bc 09bf
000001d0: 34f2 e5be 3bdf 0cbf d382 22bf 3412 10bf
000001e0: fe84 5dbe 4703 f7be 26aa 14bf 3a30 c2be
000001f0: 0d7a e8bd 08a5 03be c01d 17bf 6d05 edbe
00000200: 6eda 65be 7c03 05bf 0ce8 f0be 734f 1abf
00000210: ba46 c6be c0ad d6be 6041 e5be 2f56 04bf
00000220: e691 b1be 6e2c fcbd 3b1d 3f3e 8ec5 f8be
00000230: 7877 9bbd 0574 2abf a6a4 18bd 7b99 09bf
00000240: 3edd 7fbe 5abb 10bf f13f d0bd 6ef1 e5be
00000250: 6efa 10bf dad0 b2bd f27c f5be c222 d2be
00000260: a69a fbbe 4c9e 04bf 0794 acbe c355 3dbe
00000270: 90dd 17bf c07c c5be 1b52 debe 1f72 c2be
00000280: 6fc2 15bf 4bc5 1bbf c72f 23bf 6663 17bf
00000290: 9420 c9bd 3e4c 0cbf 194b 1dbf e734 ffbe
000002a0: cb80 fcbd e43b 04bf 1749 dcbe 9e82 debe
000002b0: 8104 1dbf 9754 e8be a871 54be 161c e3be
000002c0: 390f 03bf 8faa cfbe 1e9b 10bf 5477 e5be
000002d0: daf9 efbe dd7c e6be a039 dcbe 5dfb d1be
000002e0: db83 0dbe 1c34 a7bd 8a7a a3be d9cb c3be
000002f0: 313a d2be 98a4 b43d a076 05bf 5ff0 fcbe
00000300: b04e 01bf 0ff8 83be e875 03bf e08e cabe
00000310: 215c 0bbf 0d8e 79be 4392 febe 3da4 07bf
00000320: 6027 d1bd 035c d8be fa73 13bf f970 59be
00000330: a5c8 7abe 61a8 8a3e 8726 0dbf 8c08 9bbd
00000340: 3183 06bf c941 f9be 592e a1be 6fb2 ebbd
00000350: 3ab7 47be fece 1abf a890 b7be db2e c1be
00000360: edd9 e4be 17e1 e1bd d811 02bf 2e80 cfbe
00000370: b5c4 b4be 5a2b 0abf 67dc d7bd 6c4d edbd
00000380: cec1 61be b192 d4bd 7ed1 f2be d02e 03bf
00000390: cd50 0bbf 8c65 aabe 940a 73be ca3c e2be
000003a0: f754 63be 9c1d f0be d063 06bf e0e8 cdbe
000003b0: b3cf e1be be65 f7be 70f8 543e 4d86 2cbe
000003c0: 8b5b a4be 7314 e6bd 283f 18bf 184f 90be
000003d0: 0a0e 1cbf f77c 1cbf 8a8d e1be b0d4 04bf
000003e0: 41c9 8bbd 08c4 dbbe 3101 09bf 0b8a 8abe
000003f0: f9cf 0abf abf3 a7bd ac20 54bd 902c 12bf
-0.47078 -0.60639006 -0.19564438 -0.5465452 -0.58486056 -0.4839866 -0.5398883 -0.41469145
-0.48938584 -0.353017 -0.40118045 -0.51246965 -0.45870233 -0.31772098 -0.52631706 -0.47177425
-0.5294814 -0.31675017 -0.52965134 -0.50713176 -0.43598065 -0.07261928 -0.4813491 -0.06366739
-0.64552724 -0.5021086 -0.37794453 -0.4511097 -0.22602426 -0.57962114 -0.3513854 -0.12460704
-0.4519078 -0.08224116 -0.40169403 -0.35780954 -0.497437 -0.48038727 -0.28963453 -0.514705
-0.6452517 -0.055588014 -0.5511793 -0.1060666 -0.25580996 -0.11762791 -0.4991688 -0.13473535
-0.4686189 -0.3278307 -0.4888316 -0.37619704 -0.42210475 -0.49271584 -0.2865964 -0.4432739
-0.4905416 -0.5574876 -0.47643393 -0.38894364 -0.51886106 -0.13905542 -0.12265835 -0.30138886
-0.5246863 -0.5340079 -0.3077542 -0.5028579 -0.77088535 -0.13162608 -0.47333926 -0.3060962
-0.4036717 -0.19143851 -0.5784129 -0.45018658 -0.16524062 -0.58063275 -0.49014276 -0.501942
-0.3952122 -0.41059312 -0.53449684 -0.50166166 -0.61410564 -0.42138395 -0.6359505 -0.42123196
-0.5239314 -0.16418093 -0.45247045 -0.5325432 -0.0767018 -0.44217563 -0.34236783 -0.67293346
-0.5217302 -0.07382045 -0.14563933 -0.5501465 -0.40665135 -0.3839441 -0.10910926 -0.34837833
-0.439501 -0.5691733 -0.29446676 -0.3373463 0.026533868 -0.497397 -0.46266887 -0.28072673
-0.55702513 -0.5377426 0.029145319 -0.53803444 -0.4491135 -0.5502812 -0.6348087 -0.56277776
-0.21632764 -0.48244688 -0.58072126 -0.3792742 -0.11351404 -0.12855923 -0.5902977 -0.46293202
-0.22446606 -0.5195844 -0.47052038 -0.6027748 -0.38725835 -0.41929436 -0.4477644 -0.51694006
-0.34681624 -0.12313162 0.18663494 -0.48588222 -0.07591146 -0.6658328 -0.037266396 -0.5374982
-0.24986741 -0.56535876 -0.10168446 -0.4491076 -0.56632125 -0.087312415 -0.47946888 -0.41042143
-0.49141425 -0.5180404 -0.33706686 -0.18489747 -0.5932245 -0.3857174 -0.43422017 -0.37977692
-0.5849981 -0.6084792 -0.6374478 -0.59136045 -0.09820667 -0.54803836 -0.61442715 -0.4984505
-0.12329253 -0.51653886 -0.43024513 -0.43459028 -0.61335 -0.45377037 -0.20746481 -0.44357365
-0.511951 -0.40559813 -0.5648669 -0.44817603 -0.4687031 -0.45017138 -0.43012714 -0.41012087
-0.1381983 -0.08164236 -0.31929427 -0.3824146 -0.41060022 0.08820456 -0.5213413 -0.4940214
-0.5051069 -0.2577519 -0.51351786 -0.3956213 -0.5443745 -0.24370594 -0.49720964 -0.5298498
-0.10212588 -0.422577 -0.5759884 -0.21234502 -0.24490602 0.27081588 -0.55136913 -0.075699896
-0.5254393 -0.48683003 -0.31480673 -0.11508643 -0.19503489 -0.60472095 -0.3585255 -0.3773106
-0.44697514 -0.110292606 -0.5080848 -0.4052748 -0.35306326 -0.539724 -0.10540085 -0.11587033
-0.22046587 -0.10379542 -0.47425455 -0.51243305 -0.5442017 -0.332806 -0.23734504 -0.44187003
-0.2220038 -0.4689759 -0.5249605 -0.40216732 -0.44103774 -0.4831981 0.20797896 -0.16848107
-0.32101092 -0.11234369 -0.5947137 -0.28185344 -0.6095892 -0.6112818 -0.44053298 -0.51887035
-0.068254955 -0.42922997 -0.5351744 -0.27058443 -0.5422359 -0.08200773 -0.05178897 -0.57099247
