DDPG/model/Pendulum-v0_actor.pt (torch, 497919 bytes, 9 tensors)

FCNet.0.weight f4 [400, 3]
00000000: 7ed1 b3bc 92a1 883b 9ee5 31bc df0a d9bb
00000010: 20b2 313e 315b b63c 3cca 0cbd fc27 a43d
00000020: 814e 483d 4c42 4abc 21db dcbd 1df4 1a3d
00000030: 03b1 a9bc 0193 95bb 4ab8 48bc 8c46 98bc
00000040: 545b f4bb 39e1 20bc e3e5 bbbc 130f 9f3c
00000050: 06b3 143c 0765 babc 9117 ec3c bc2b 1cbc
00000060: abc4 66bc 7665 58bd 8330 d1bc 2747 a13d
00000070: ab34 623d 2b37 be3c e9f2 c9bc f175 f5bb
00000080: b777 bfbc d643 0bbd ad85 49be 1de1 36bb
00000090: 45c1 95bc 4d16 0dbe 2062 a4bc 17c2 cdbc
000000a0: 1127 993d fa8a 153d 06e4 b4bc 39f8 c33b
000000b0: 23b3 5bbc 068a 8abc 4fd4 d0bc 64d9 9ebc
000000c0: 6ff7 04bd 87c6 34be 9ea0 35bb 9368 5c3d
000000d0: 0414 003e c296 da3c e78d 30bc 38af adbc
000000e0: 030a 65bc 62a4 ef3c b5d7 063e 2a1a 503c
000000f0: 209a 0a3d d717 413d f7d2 14bc 6bc0 7bbc
00000100: 5f23 d2bc f36d 31bc 7df2 323c 21ea be3d
00000110: c5cf 213c fd44 b2bc e4d5 c3bc 01b5 9bbc
00000120: 0a97 84bc f9f7 77bd c04f e1bc 249e b1bc
00000130: ab72 e8bc ff5e babc 9ab7 b4bc 9a54 63bc
00000140: 08c2 3239 2695 f9bc 35b1 083d d276 b03a
00000150: 97f7 98bc 82fc a23b f1f7 31bc eaf5 e5bc
00000160: 31c6 ae3d f1aa 1039 0ed9 7fbc eb9c 023e
00000170: ca0a 86bd f04c a4bc 3fa6 00bd 0d88 95bc
00000180: 0ce3 c13a 165f 853d 5272 e439 bfe4 2dbd
00000190: ceee 503d c99f 3f3b 86f6 26bd 0402 123e
000001a0: d6a9 f73c c377 a3bc da11 783c bbba 98bc
000001b0: 3d74 7b3b 6f2b 1e3c 9e9b 04bc 9ad6 3fbd
000001c0: 8ff0 8c3b 69c1 463c 7307 3fbd 1478 12bd
000001d0: eb70 51bc 4b5a 443d 2297 f23d e437 cb3c
000001e0: fd39 023b 4880 ba3d bcf6 873b 4308 7f3b
000001f0: 57c5 a03d 471e 203b 3da0 39bc 4d1b 003d
00000200: f4a4 16bc 117d c2bc 191a fabb bde6 0abd
00000210: c96c 04bb 00fc 74bd 30d8 9ebc 76d8 c9bc
00000220: 627f 82bc 4e3d 9ebc dd66 e3bc 3735 b9bd
00000230: 59d1 c6bc 64db b63b 03d1 41bc 0f80 71bc
00000240: 306e c23d bc48 4a3d a56c 183d 636c 503d
00000250: 3a65 f13d 0280 ca3c be74 053d 1bd9 abbd
00000260: 097f f2b9 a3bb fcbb 39c7 6dbd eb4f f4bc
00000270: a28f 8fbc d742 29bd 81b7 d6bc 405e c2bc
00000280: 315d 11bc 5c1a afbc bf17 8d3d 83e3 083e
00000290: d9b0 f23c 3a89 96bc 397b 783c 391c 00bc
000002a0: 6ede 6cbd f4a3 143e 8137 3d3d 1e92 ac3d
000002b0: 14d5 da3c 7a87 0f3d abb8 46bc 0dad 1cb6
000002c0: f448 d1bb d3d1 453c cd02 6bbc 77b4 18bc
000002d0: b228 07bd bfa3 fbbd 851f a9bc 415d babc
000002e0: 298b ef3b ec82 1abc 1e92 7cbd da35 8e3b
000002f0: 933f 453d 9868 2b3d d81a adbd 9372 2f3c
00000300: 908c e2bb f7c6 2f3e be87 ad3c c7cf a6bc
00000310: 354b 4bbc 7f5b a33b 6346 dfbc a9d2 a9bd
00000320: 2346 99bc 2c20 0dbd 14ee 2ebe 53fc 533d
00000330: 69fd 7fbd eca9 833d 5942 58bd 9bd7 2ebd
00000340: 53c0 15bc 9341 6bbc 5b90 dabc d09c 9cbc
00000350: 8b43 85bc 9f28 afbc 6e0b b339 9a28 50bc
00000360: 8396 143d 6ab9 00be cee2 93bc 5784 5fbd
00000370: b180 a3bd 069b 0abd 7526 e53b a60a 8f3d
00000380: 17d4 c43b 6a55 96bc c702 703c a3a6 83bc
00000390: 53df 8ebc 1b2b 2ebd 3593 79bc c0df 8cbc
000003a0: 059c 833d ebbf d93c 699b b3bc f275 4c3c
000003b0: c8f3 f4bb 76d5 27bd 83d5 a13d 569e 10bc
000003c0: 71ea 86ba 4095 bebd 8344 64bc 56c5 c4bc
000003d0: 49ec 37bc ef96 21bd dc90 aabc 590a bcbc
000003e0: ef21 b2bc 1c8e a4bc d919 e7bc c885 c7bc
000003f0: ac99 9c3c 65e0 1bbe 9f7e 45bd 85e9 f6bc
-0.02195048 0.0041696513 -0.010857968 -0.0066236104 0.17353106 0.02226028 -0.034372553 0.08015439
0.048902992 -0.012344908 -0.10783983 0.03783046 -0.020714289 -0.0045646434 -0.012250969 -0.018588327
-0.007457176 -0.009819322 -0.022936767 0.019416368 0.009075886 -0.022753252 0.028819831 -0.009531911
-0.014084975 -0.052831136 -0.025535828 0.07874899 0.05522601 0.023219666 -0.024651961 -0.0074908664
-0.023372514 -0.03400024 -0.196799 -0.0027905174 -0.018280635 -0.13778038 -0.02006632 -0.025116963
0.074781545 0.03650949 -0.022081386 0.005980518 -0.013409409 -0.016911518 -0.025491862 -0.01939077
-0.032462534 -0.17653857 -0.0027714144 0.053810667 0.12507635 0.026683215 -0.01077602 -0.021201715
-0.013979438 0.029253189 0.13168223 0.0127015505 0.03383839 0.047141876 -0.009083501 -0.0153657
-0.025651632 -0.010829437 0.0109220715 0.09322 0.009876196 -0.021761412 -0.023905702 -0.019007208
-0.016185302 -0.06053922 -0.027503848 -0.021681853 -0.02837499 -0.022750376 -0.022060204 -0.013875151
0.00017047685 -0.030466627 0.033372123 0.0013463146 -0.018672748 0.004973949 -0.0108623365 -0.028071363
0.08533896 0.00013796591 -0.015615715 0.12755172 -0.065450266 -0.020056218 -0.031408545 -0.01825335
0.0014792397 0.06512277 0.00043572724 -0.042454477 0.051008992 0.0029239526 -0.040762447 0.14258581
0.030232351 -0.019954568 0.015140975 -0.018643728 0.0038368844 0.00965391 -0.008093743 -0.04683552
0.0043011378 0.0121310735 -0.046637964 -0.035759047 -0.012783269 0.047937673 0.118452325 0.024806924
0.001987099 0.09106499 0.004149286 0.0038914836 0.078501396 0.002443211 -0.011329708 0.031276036
-0.009194601 -0.023741277 -0.0076325056 -0.033911455 -0.0020206443 -0.05981064 -0.019390196 -0.02463935
-0.015929881 -0.019316342 -0.02775901 -0.09043353 -0.024269747 0.0055803526 -0.011829617 -0.014740004
0.09493673 0.04938577 0.037212986 0.050884616 0.117868856 0.024719242 0.032582037 -0.08391019
-0.00046252485 -0.0077127977 -0.05805132 -0.029823264 -0.017524544 -0.04132351 -0.026210548 -0.023726583
-0.008872316 -0.021374874 0.06889295 0.13368039 0.029625343 -0.018375982 0.015166097 -0.007819229
-0.057829313 0.14515668 0.04619551 0.08426307 0.026712932 0.03504131 -0.012128989 -2.334654e-06
-0.0063868705 0.012073952 -0.0143439295 -0.00932037 -0.032997794 -0.122870915 -0.020644912 -0.022749545
0.0073102904 -0.009430628 -0.061662786 0.0043399157 0.048156332 0.041847795 -0.08452386 0.010708469
-0.006913729 0.17165743 0.021182891 -0.020362748 -0.0124080675 0.0049852724 -0.027255243 -0.08292133
-0.018710202 -0.03445451 -0.17083007 0.051754307 -0.06249753 0.064288944 -0.05279765 -0.042686086
-0.009140092 -0.014358896 -0.026680162 -0.019117743 -0.016267559 -0.021381674 0.00034150056 -0.012704993
0.03627635 -0.1257073 -0.018052485 -0.05456957 -0.0798353 -0.033839248 0.00699311 0.06984453
0.0060067284 -0.018351275 0.0146491 -0.01607067 -0.017440474 -0.042521577 -0.015232851 -0.017196536
0.06426243 0.026580771 -0.021924691 0.012479292 -0.00747535 -0.040975057 0.07902052 -0.008826813
-0.0010293258 -0.09305811 -0.01393235 -0.024019878 -0.011225768 -0.039450582 -0.020821027 -0.022954153
-0.021744696 -0.020087294 -0.028210567 -0.024355784 0.019116245 -0.15222318 -0.04821646 -0.030140648

FCNet.0.bias f4 [400]
00000000: 30f6 6d3d 0c5c ca3c da41 043d 0268 8f3d
00000010: 2a0e 643d 74f2 5a3d e2df a23d 14cf a13c
00000020: 8825 e33c ab71 41bd fc0c a33d 478c 0c3c
00000030: c9fc f53c fdae 583d f9c3 683d b2e5 863d
00000040: c84e 583c 80a5 b3bb e539 6d3d 6090 903b
00000050: ca4a 083c 9712 443d 2a1f 6dbb cfd6 843d
00000060: bd51 903d 0c46 923d 5c97 983d 5ba1 8a3d
00000070: eadd 6c3d a406 653d 0e23 613d de2a 7b3d
00000080: 6ec4 d73c f918 953d 24e7 75bc 78e3 903d
00000090: a0eb d43c 7cc6 f13c 6bef 9a3d 70f6 11bb
000000a0: 3eca b53c 9e29 ef3c 7e14 3e3d 3ef4 a73d
000000b0: 41bf e23c 73fb 983d 90b8 353d e9e2 c03c
000000c0: 7ce6 97bd 4a30 81bb 9061 e4bc 8018 e63c
000000d0: 7e62 953d 2dda 853d 66cb 77bc f37f 5c3d
000000e0: e5bf 813c 3456 fbbd cc62 593d 5f5b c13c
000000f0: 4f30 5d3d 342a 763d f211 f83c 4ac7 293c
00000100: 1a7e d43c 9d3a 043d 5457 7c3d 2dfe e73a
00000110: f54c 5ebc f6ab a73d 8d2c 8f3d b6bf 843d
00000120: 172b 943c 5b2a 313d abd9 323c 10c7 8b3d
00000130: 3a0f 613d 650e 7a3d e50f 863d 09e6 d03c
00000140: 040b a43c 4725 ae3d 16ca 923d e460 923d
00000150: 31b7 14bc 634f 493c 9940 513d 9e4e 753d
00000160: 2c6e 6f3d fef9 223c 7431 24bc 293f 953d
00000170: 6c78 46bd 7f04 813d ee69 363c 2457 bebc
00000180: fd7f 163d 3a36 8a3d 8f38 543c ea0f 8a3d
00000190: adc9 1d3d d680 81bc 3d7a 823d 6038 8e3d
000001a0: 5ad3 5d3c 0e8d 7a3c e2a1 4c3d cbdd 983d
000001b0: 6795 8ebd b4fc 503d 0dee 8e3d 7a16 943d
000001c0: ba4c 453d 02bc 353d 7601 3f3c 7f71 c3bc
000001d0: 2ac4 993c 5331 543d 88a4 7a3d 4b7f 653d
000001e0: ef26 643d 0625 bbbd b8dd 673d 96b7 c23c
000001f0: 7115 f0bc 43ee 573d f8ac d23c a86b 4f3d
00000200: 529a de3b 5443 703d dccf 293d 38f2 973d
00000210: da33 9c3c 79a7 803d 2b80 b33d 59c9 7b3d
00000220: 9d82 023d cf4d 67bc 932a 8f3d f74b e4bb
00000230: 3060 a23d 2230 3f3d d7cd 643d 4750 013d
00000240: 2228 913d b48d 8dbd 489e d03d 0c6d 1d3c
00000250: f7f2 593d 3b71 903d 0d61 883d d78c 943d
00000260: f733 fc3c ffe5 833c 4d7c 073b ffcc 973c
00000270: b3f7 923d 92f9 ec3c e23c d53c cd37 9d3d
00000280: febc a63d 229a 7b3d 1197 753d 1af1 563d
00000290: 3c5f 33bc 0187 af3d fad7 b63c 84c5 b33c
000002a0: 39dd 58bb 243f ae3c 537f 863d aad5 a53d
000002b0: a717 9a3d be59 9a3d 52be 4c3d 54a0 f9bb
000002c0: 390b 323d 213b 993d ac2d 5b3d 85c0 883d
000002d0: f7b7 033c 65bb 4e3d 31b2 193d df49 9a3d
000002e0: c3d1 513d 95fd 773c 3faa f43c a3b0 5d3d
000002f0: 6b55 ef3c 25db 3d3d a6de 1a3d 7078 b03c
00000300: e465 f13c d395 433c 5b12 773c e308 cf3c
00000310: d822 c23c d939 793d 71db e8bd 2e37 1a3d
00000320: 558a 913d 0eb5 77bd a6d7 923d 3835 fc3c
00000330: 61fb 823d d692 be3d 79a7 9a3c bf1e 7e3b
00000340: add1 673d 95b0 6d3d 9a3a 5a3d 65d6 83bd
00000350: dd38 373a b306 913d 8a73 7f3d e9a0 923d
00000360: fbbe b83d a53d 96bd 103c 823d 5a17 bcbd
00000370: 3a4e 83bc 19dd 81bc d6dc 113d 6cd2 903d
00000380: 6a6b 653c 6890 923d a10c 813d 1775 99bc
00000390: 92ee a0bd a59f cfbc a9b7 9c3d cadf 8f3d
000003a0: 116a 0d3d ed16 5b3d e6eb 953d 432a 8d3d
000003b0: 00d6 903c 779a 513d 6e85 ee3c b2a9 c2bc
000003c0: 85ba 953d d804 973d 82dd 9b3d fd2a 4c3c
000003d0: 1fad 863d 5dd7 b03d d7ff 4a3d 85b3 0d3d
000003e0: c148 563d 0f87 7b3d b16a 9f3d 1893 113d
000003f0: 1d05 6b3d a2c5 893d aedf b43c e14a 8d3d
0.05809611 0.024702094 0.032289363 0.0700226 0.05567757 0.053453878 0.079528585 0.019752063
0.027727857 -0.047227543 0.07961461 0.008578367 0.030027764 0.052901257 0.05682752 0.0658678
0.013202377 -0.0054823756 0.05791654 0.004411742 0.008318612 0.04786929 -0.0036181905 0.06486284
0.0704684 0.07142267 0.074507445 0.06769057 0.05782882 0.055914536 0.05496507 0.06132018
0.026338782 0.07280154 -0.0150087215 0.07074636 0.025991261 0.02951359 0.075651966 -0.0022272132
0.022191163 0.02919465 0.04640626 0.082008824 0.027679088 0.07469835 0.044365466 0.0235457
-0.07417008 -0.003942524 -0.027878553 0.028087854 0.072941765 0.06535754 -0.015124178 0.05383296
0.015838573 -0.12272301 0.053072736 0.02360314 0.05400115 0.06009884 0.030281994 0.010362456
0.025939036 0.03228246 0.06160672 0.0017699652 -0.013568153 0.08187096 0.06990919 0.064818785
0.018086953 0.043253284 0.010916154 0.068250775 0.05494616 0.061048884 0.065460004 0.025500314
0.020024784 0.08503204 0.07167451 0.07147387 -0.009076879 0.012286994 0.051086996 0.05988943
0.058454677 0.009947298 -0.010021556 0.072874375 -0.048454687 0.06299686 0.011133654 -0.023234911
0.036743153 0.06748624 0.012952938 0.067413166 0.03852241 -0.015808504 0.06370971 0.069443464
0.01353916 0.015292419 0.04995907 0.07464179 -0.0696209 0.051022246 0.06978998 0.072308496
0.048168875 0.04436875 0.011658063 -0.02385783 0.018770296 0.05180485 0.061192065 0.0560296
0.055701192 -0.09137921 0.05660793 0.023769181 -0.029307099 0.05271746 0.025717244 0.05063978
0.0067932988 0.05865796 0.041457996 0.074192464 0.019067694 0.06281943 0.087646805 0.061471317
0.031862844 -0.014117672 0.06990542 -0.0069670635 0.079285026 0.046676762 0.055860367 0.0315707
0.07087733 -0.06911793 0.1018644 0.009608518 0.053210225 0.07052847 0.06659136 0.072534256
0.030786498 0.016100882 0.0020673454 0.018530367 0.07176151 0.028927598 0.026030008 0.07676659
0.08141516 0.06142629 0.05995852 0.052476026 -0.010947999 0.08570672 0.022319783 0.021944769
-0.0033090843 0.021270342 0.06567254 0.08097394 0.075240426 0.07536648 0.04998619 -0.0076179896
0.043467734 0.07481981 0.053510353 0.06677345 0.008039466 0.050471682 0.037523452 0.07533621
0.051225435 0.015136142 0.029866336 0.054123532 0.029215535 0.04635157 0.03780999 0.021541804
0.02946753 0.011937576 0.01508006 0.025272792 0.023698255 0.060846183 -0.1136998 0.03765028
0.07106463 -0.0604754 0.07170038 0.030787095 0.06395603 0.093053505 0.018878685 0.003877565
0.056596447 0.05802973 0.053278543 -0.06437377 0.0006989369 0.07081356 0.062366046 0.071595974
0.09020802 -0.073359765 0.06359112 -0.091841415 -0.016028512 -0.015852498 0.035610996 0.07071385
0.01400266 0.071564496 0.06301237 -0.01873259 -0.07858004 -0.02534468 0.07652218 0.07025106
0.03452498 0.05348866 0.07320385 0.068928264 0.017680168 0.0511727 0.029116359 -0.023762558
0.073109664 0.07373971 0.07610609 0.012461421 0.06575989 0.08634827 0.049560394 0.03459503
0.052315477 0.0614081 0.07784022 0.03554067 0.057377923 0.067271486 0.022079315 0.06899048

FCNet.1.weight f4 [400]
00000000: 8a03 3a3f 6a53 883f 3ab9 5a3f c0e0 783f
00000010: 8165 413f 768e 493f 96e2 0d3f 8943 723f
00000020: 5aff 5a3f 660a 8e3f 8cb9 213f 8428 8f3f
00000030: 6697 7b3f e778 573f 517d 443f a092 183f
00000040: e2c0 8b3f 191d 8b3f fcbe 363f 70df 853f
00000050: e43b 673f 0637 4d3f bf08 763f 2e98 203f
00000060: a2e6 203f ad31 183f 5216 193f a204 383f
00000070: 0158 2c3f bb7f 783f 6ea3 823f 3f5f 273f
00000080: 9dd0 733f a58a 543f 021d 873f dc45 0c3f
00000090: 4395 583f 047f 6e3f 8676 553f 57fe 873f
000000a0: 7013 6a3f 8e6c 583f 0ec1 323f c268 203f
000000b0: c023 723f dab6 123f 2de5 623f a9c5 533f
000000c0: 680f 983f e81c 8a3f 2ce0 813f 5ba5 643f
000000d0: 9370 263f a4b8 233f 04cd 8f3f 2eb7 3d3f
000000e0: b661 853f 900a a33f 0a79 443f e4f0 533f
000000f0: c73d 723f 996e 1b3f 5f23 7d3f 8322 7a3f
00000100: ed82 863f 262f 513f 7cf8 663f 36fa 8a3f
00000110: 8b50 803f eaf6 3e3f a73d 193f 0dd0 1b3f
00000120: 8cf9 853f 63bf 7e3f b616 673f c4b1 1b3f
00000130: 9a98 393f f29e 483f ce30 1a3f 2fd6 6e3f
00000140: e6fe 743f 5a5e 213f c064 1a3f 9297 1b3f
00000150: 115a 8f3f 1c1b 7f3f 358d 6d3f 12a1 2f3f
00000160: 8db1 723f 43ee 6e3f f163 723f 2f04 103f
00000170: a06f 823f 857b 5e3f be24 8b3f 31aa 943f
00000180: b246 443f c040 503f 050c 8c3f 759f 213f
00000190: 90cf 8b3f d696 863f 029a 1a3f aa60 123f
000001a0: c08c 693f 0e25 873f 75f8 423f c9e9 263f
000001b0: 8015 973f de4f 493f 23f7 313f 6add 1a3f
000001c0: 3386 3b3f 07e3 473f a302 783f 47e1 7f3f
000001d0: 3e5d 813f 8197 343f a7b9 2c3f efaf 2c3f
000001e0: 9c35 403f 6176 9d3f 80cd 3a3f 0968 623f
000001f0: 7f94 7d3f c70e 453f b7a4 723f 3a50 793f
00000200: 7056 7d3f 20f1 363f 2930 663f 212c 203f
00000210: fc49 6d3f 4e99 173f 4dde 563f b31d 2f3f
00000220: b6d8 543f 8d3a 7a3f 14f9 143f 06f6 7f3f
00000230: daf0 223f 27c7 443f ddad 433f ff5a 563f
00000240: 0360 1f3f 94f1 933f 5b7f 2b3f 6998 823f
00000250: 5ea6 5b3f 1aa0 1f3f fbf8 1a3f 1c5d 2c3f
00000260: 5d2f 803f dcae 6f3f 349d 623f 1520 833f
00000270: dca0 193f 76bf 653f cbab 803f 0bc7 143f
00000280: 9206 1f3f c3f1 1e3f 1f89 4a3f 060f 363f
00000290: 1ffe 8e3f c91c 2b3f ba65 653f 7c6f 733f
000002a0: 176a 963f 709f 663f e052 253f 927a 243f
000002b0: 1b69 133f e17f 173f 0bc1 493f 6d38 6f3f
000002c0: a4a4 693f 1ae1 263f 7595 3c3f 8136 123f
000002d0: fee2 7a3f 32a9 683f 96e3 373f 19cd 1d3f
000002e0: f91f 793f a076 653f 9ae4 693f 6081 473f
000002f0: c16f 803f d1dc 823f e20b 5e3f 24f8 723f
00000300: 8f6a 893f 89ef 753f bf8a 813f 05cb 613f
00000310: f744 5b3f a05c 193f 30ac a53f de4d 533f
00000320: 0429 203f 38a1 8a3f 8fb5 1a3f 350b 643f
00000330: ded6 263f 9ff8 6e3f 1a74 523f 59df 7a3f
00000340: cec4 6a3f 83b3 3f3f f44f 3a3f 2a57 953f
00000350: 96bc 813f 02af 153f 15f6 213f aaed 163f
00000360: e768 fd3e 8aea 963f d699 193f ffd4 973f
00000370: 2ffa 943f 54b0 873f b1f4 6e3f 65de 1e3f
00000380: 2c6e 713f d405 243f 8a7a 433f 1210 973f
00000390: 0a2f 963f f800 823f b46d 273f eda4 163f
000003a0: 887a 593f 3e5b 3b3f 18bd 273f 9e72 143f
000003b0: 6fe1 783f 77e3 693f 2f3f 6b3f db09 983f
000003c0: d472 553f b564 173f 0222 133f 94e3 5b3f
000003d0: 8c61 323f af1b 553f e860 823f 68fc 803f
000003e0: fdf6 513f ca61 343f a919 153f adb5 573f
000003f0: 6d66 813f c7b3 1a3f b47d 943f 654d 213f
0.7266165 1.0650456 0.85438883 0.9721794 0.7554551 0.78733003 0.5542387 0.946343
0.85545886 1.1096923 0.6317375 1.1184239 0.9827789 0.8416886 0.7675372 0.5959873
1.0918238 1.0868255 0.7138517 1.0458813 0.9032576 0.80162084 0.96107095 0.6273221
0.6285192 0.594508 0.59799683 0.7188207 0.67321783 0.970699 1.0206125 0.6537971
0.95240194 0.83024055 1.0555727 0.54794097 0.84602755 0.9316256 0.8338398 1.0624493
0.9143591 0.8454064 0.6982583 0.6265985 0.945858 0.5731026 0.88630944 0.8272348
1.1879702 1.0790071 1.0146537 0.8931481 0.65015525 0.63953614 1.1234441 0.74107635
1.0420444 1.2737598 0.7674719 0.82789445 0.94625515 0.60715634 0.98882097 0.9770891
1.0508705 0.8171257 0.9022291 1.0857608 1.002458 0.7459551 0.598597 0.60864335
1.0466781 0.9951078 0.9026903 0.60818124 0.72498477 0.7836753 0.6023072 0.9329557
0.95701444 0.63034594 0.6030998 0.6077815 1.1199361 0.9965074 0.9279359 0.6860515
0.9480217 0.9333231 0.9468375 0.56256384 1.0190315 0.86907226 1.0870588 1.1614438
0.7667037 0.813488 1.0941168 0.6313394 1.0922718 1.0514781 0.6039125 0.5717875
0.9123039 1.0558183 0.76160365 0.6520048 1.1803436 0.7863749 0.69517726 0.604941
0.73251647 0.7808079 0.96879023 0.9995312 1.010658 0.70543677 0.67470783 0.67455953
0.750818 1.2301751 0.7296982 0.88439995 0.9905471 0.76975673 0.94782585 0.9738804
0.9896002 0.7146168 0.89917237 0.62567335 0.92691016 0.592183 0.83932954 0.6840469
0.83143175 0.9774559 0.58192563 0.99984777 0.6364876 0.7686638 0.7643717 0.837326
0.6225588 1.1558099 0.66991204 1.0202762 0.8580073 0.6235367 0.60536164 0.67329574
1.0014454 0.9362619 0.8852112 1.0244166 0.60011077 0.8974527 1.0052427 0.58116215
0.621194 0.6208765 0.7911548 0.71116674 1.1171302 0.668408 0.8960835 0.95091987
1.1751126 0.9008703 0.6457958 0.6424953 0.57582253 0.591795 0.78810185 0.93445474
0.91266847 0.6518723 0.73665553 0.57114416 0.9800261 0.9088317 0.71831644 0.6164108
0.9731441 0.8963413 0.91364443 0.77931786 1.0034105 1.0223638 0.8673688 0.9490988
1.0735644 0.96068627 1.0120467 0.8820041 0.85652107 0.5990696 1.2943172 0.8254069
0.62562585 1.083045 0.60433286 0.890796 0.6517161 0.93348116 0.82208407 0.9799705
0.9170655 0.7488329 0.7277825 1.1667225 1.0135677 0.58470166 0.63266116 0.58956397
0.49494097 1.1790326 0.6000036 1.1861876 1.163885 1.0600686 0.9334212 0.620581
0.94308734 0.64071393 0.76358855 1.1801779 1.1733105 1.0156546 0.6540177 0.58845407
0.8495259 0.731861 0.6552291 0.5798739 0.97218984 0.9136271 0.91893286 1.1878008
0.8337834 0.5913804 0.57473767 0.8589413 0.69680095 0.83245367 1.0185823 1.0077028
0.820175 0.70461714 0.5824228 0.8426159 1.0109383 0.6043057 1.1600862 0.6300872

FCNet.1.bias f4 [400]
00000000: 7bdf 78be f1b2 0cbd 538c 1fbe b942 cfbc
00000010: 093f 69be ebbd 40be fe55 cebe 3b3c ddbd
00000020: b611 51be 9b0c b1bc 8731 a7be 6f06 5cbd
00000030: ee87 ecbd 90de 75be 8845 78be f047 b5be
00000040: 87f5 b1bd 0844 03bd 7bd8 6fbe eaad e3bc
00000050: 7a7d 5cbe 25ed 8fbe f4e4 39be 066c c7be
00000060: 3b26 c5be d237 c5be 7fc1 adbe 7118 acbe
00000070: bab0 9dbe 2f3b 9ebd f373 11bd 32d3 a7be
00000080: 883b ccbd 63fd 83be bf34 10be 1cfd cbbe
00000090: 7cb5 18be 88e9 fdbd b223 24be be5c fcbc
000000a0: b6ef d8bd 3ea6 04be e83e 87be 316c 99be
000000b0: da92 57be 584f c6be 6c1e 55be 7e2a 4cbe
000000c0: cbce 85bc a72c b9bc 7093 31be a7e6 20be
000000d0: b99d c0be 7c5c adbe a1e3 c13c 86f7 87be
000000e0: 6a75 e3bd 6d4c 79bc 4a0a 68be 10ed 73be
000000f0: bc6c 16be 8119 a7be 9bb6 81bd a78d 08be
00000100: 75a5 4dbd 861d 3cbe 10b5 39be c64e 36bd
00000110: e01c 34bd f63f 81be fbe7 b1be 543c bebe
00000120: 0473 bdbd 0215 31be 6c80 5fbe 3ee7 c7be
00000130: 25cb 8fbe 3a96 88be ef1b c5be eea0 3fbe
00000140: a955 2abe 9791 a1be a362 b8be b1b2 c0be
00000150: 1c02 1dbc 287d c3bd 68cd 32be c455 9bbe
00000160: b72c 90bd 20e6 59be e7cc 0bbe 21ba d1be
00000170: d5f7 24be 72da 31be 7133 85bd e899 c43c
00000180: 3b30 4bbe cd85 51be 808d ff3c c117 c4be
00000190: 8348 ac3d 475a d7bd e5ce babe 4039 d3be
000001a0: 1a7f 55be 81e0 e5bb 673c 93be 2512 c4be
000001b0: 47f2 273c 3d3c 8ebe 3f6a 8abe 2382 c9be
000001c0: e447 babe 5b60 47be 0762 53be 99a1 20be
000001d0: b429 89bd 6dac 67be 3b46 84be 067f b2be
000001e0: a2e6 7ebe b58c a33b eddc 97be c4c5 71be
000001f0: 7afd 2dbe 6c20 4abe 85d1 6cbe b58a 9fbd
00000200: e343 11be 4a29 98be 04e6 00be 4f28 a0be
00000210: 7186 5bbe 5428 cdbe 5940 02be cc23 abbe
00000220: 5f37 83be b593 1fbe bfe2 b9be da44 23be
00000230: a90f a0be fb66 51be 6394 9ebe 1aef 0abe
00000240: 3adc b6be 1f1e 02bd a558 9bbe d912 5cbd
00000250: b01f 12be 5ad7 c0be 6ab3 c3be 8d8e aabe
00000260: bc4e f1bd b664 42be 812d 59be 0f31 d1bd
00000270: b152 b3be 9eaa 2ebe 4980 24be c117 d1be
00000280: f733 a7be a545 b1be 13cc 60be 34ae 7dbe
00000290: fe5d 1f3b 02c0 93be 0882 6dbe be04 3cbe
000002a0: 9106 ef3c 79fd 6ebe c505 a6be cec4 aebe
000002b0: 5f0e c9be 43d9 bcbe 3e14 57be 1323 0ebe
000002c0: 98af 44be 04d6 94be d408 8bbe 9086 bdbe
000002d0: 158b e0bd 0c92 53bd ba6e 98be b9b8 c2be
000002e0: d2ae 1dbe f3f6 76be 2937 2ebe 57c4 3cbe
000002f0: 1582 c8bd 5ba0 86bd b376 edbd 9899 abbd
00000300: d757 9abd d4a2 5bbe 3c53 28be c0ab 30be
00000310: 0166 82be 20a4 99be e10e f33b a769 1ebe
00000320: 0f87 c5be 95e0 16be 23f6 bcbe 0be1 69be
00000330: 60f4 b1be 661b 1ebe 1ee2 84be feab 30be
00000340: 1b95 48be c64c 5dbe 8839 8abe 39f0 9cbc
00000350: 18cb 19be 5793 d3be 6b1c b2be fd18 b4be
00000360: f8ba e9be 3ff4 1e3c 053d aebe 4266 09bc
00000370: afb3 cbbd 6c58 e6bd 0b94 18be 923d bbbe
00000380: a076 9abd 2399 b1be 70c3 9abe 44d8 abbd
00000390: fcc7 69bc 6ebf 1ebe 803b a6be 4063 b9be
000003a0: d780 1bbe 38dd 96be ab6e c0be 8479 d1be
000003b0: eedd 14be 01d6 d0bd 8a56 69be 08e6 f0bd
000003c0: 9a36 7dbe e584 c3be 471d bcbe 0268 74be
000003d0: 9541 a3be cb51 48be 8b17 27be e077 d3bd
000003e0: 4e2e 56be 53cb 9bbe e9ca d2be 368f 7bbe
000003f0: 72b4 40bd 8df4 c5be fbbc b3bd c96b bdbe
-0.24304001 -0.03435034 -0.15580873 -0.02530037 -0.22777952 -0.18822448 -0.40299982 -0.10802504
-0.20416912 -0.021612456 -0.32654974 -0.053717073 -0.11549364 -0.24010682 -0.24245274 -0.35406446
-0.08689409 -0.0320473 -0.23422424 -0.02779289 -0.2153224 -0.28110614 -0.18153745 -0.38949603
-0.3850573 -0.3851915 -0.33936688 -0.33612397 -0.30798894 -0.07726132 -0.03551097 -0.32778317
-0.09972292 -0.25779256 -0.14082621 -0.39841545 -0.14912981 -0.12398058 -0.16029242 -0.030805942
-0.10592596 -0.12954041 -0.2641518 -0.29965356 -0.21052113 -0.3873241 -0.20812386 -0.19938084
-0.016333958 -0.0226043 -0.17341399 -0.15712987 -0.37620333 -0.33859622 0.023668112 -0.26556033
-0.11106379 -0.015215975 -0.22660175 -0.23820901 -0.14689916 -0.32636645 -0.06333657 -0.13335286
-0.05020662 -0.18370637 -0.18135476 -0.044508718 -0.04397285 -0.2524411 -0.347473 -0.37155402
-0.09250453 -0.1729317 -0.21826333 -0.3904361 -0.28084674 -0.26677114 -0.38497874 -0.18713734
-0.1663424 -0.3155639 -0.36012754 -0.3763633 -0.009583022 -0.09545356 -0.17461169 -0.3033887
-0.07039779 -0.21279192 -0.13652383 -0.40962318 -0.16110165 -0.17368487 -0.06503952 0.02399917
-0.19842617 -0.20461197 0.031195402 -0.38299373 0.08412268 -0.10515266 -0.36485973 -0.41254616
-0.20849267 -0.0070152883 -0.2875702 -0.38295093 0.0102506345 -0.27780333 -0.27034184 -0.393571
-0.36382973 -0.1947035 -0.20642863 -0.15686645 -0.06697407 -0.22624369 -0.25834832 -0.34862536
-0.24892667 0.004991139 -0.2966074 -0.23610598 -0.16991225 -0.1973893 -0.231268 -0.07790128
-0.14186053 -0.29719 -0.12587744 -0.31280753 -0.21438004 -0.4006983 -0.12719859 -0.33425748
-0.25628182 -0.1558369 -0.36305806 -0.15944234 -0.31261948 -0.2044944 -0.30972585 -0.13567773
-0.35714895 -0.031767007 -0.30341068 -0.053728912 -0.142699 -0.376643 -0.3822282 -0.33311883
-0.117825955 -0.1898373 -0.21208765 -0.10214435 -0.35024026 -0.17057273 -0.16064562 -0.40838435
-0.32656834 -0.34623447 -0.21952848 -0.24773484 0.0024317498 -0.28857428 -0.23194134 -0.18361184
0.029177936 -0.2333888 -0.32426277 -0.34134525 -0.39268777 -0.36884508 -0.21003816 -0.13880567
-0.19207609 -0.2906953 -0.27155173 -0.37016726 -0.10964028 -0.051652953 -0.29771978 -0.38031557
-0.1539872 -0.24117641 -0.1701323 -0.18434273 -0.09790436 -0.06573554 -0.11594906 -0.08378905
-0.07536285 -0.21448833 -0.16438001 -0.17253017 -0.25468448 -0.3000803 0.007417545 -0.1546999
-0.38579604 -0.14734109 -0.36906537 -0.22839753 -0.34756756 -0.15440139 -0.25953764 -0.1725311
-0.19588129 -0.21611318 -0.26997018 -0.019157516 -0.1501888 -0.4132335 -0.34787306 -0.35175315
-0.45650458 0.0097017875 -0.3403093 -0.008386197 -0.09946381 -0.11247334 -0.14900224 -0.36570412
-0.07542157 -0.34687147 -0.30227232 -0.08390859 -0.014268871 -0.15502712 -0.3246727 -0.36208534
-0.15185867 -0.29465652 -0.37584433 -0.40913022 -0.14537784 -0.10197068 -0.22786918 -0.11762625
-0.2472786 -0.38187328 -0.36741087 -0.23867801 -0.31885973 -0.19562452 -0.16317575 -0.10325599
-0.20916101 -0.30428562 -0.41170433 -0.2456635 -0.047047086 -0.3866314 -0.087762795 -0.36996296

FCNet.3.weight f4 [300, 400]
00000000: 8f55 1d3a a3a4 da3c 33aa fd3c 24f1 0c3d
00000010: 4fab 0a3d 8707 a4bc b221 e53c 287e d23b
00000020: 6b28 003c d666 323d 3016 a9bc 9112 173b
00000030: 63ec 36bd 88ba 113d 5ff5 4eba 51eb 09bc
00000040: 9bdc d23c a51a 2dbd 48cd d6bd ee62 4dbd
00000050: 3bfc dcbd 64af 403c 53c9 993d 9d78 2ebd
00000060: b64c f6bc a913 433c 4f40 523d acfe 933c
00000070: 323d cdbb 697b cbbd 6590 4d3c 5766 40bd
00000080: c594 5abd 0987 a53c bf9f b13c 9146 4f3c
00000090: 73dc ffbd 954f 6d3d b9f0 903c d15c 19bd
000000a0: 887e 79bd 8cb4 16bd c548 9e3c d0f1 05bd
000000b0: 01dc 463d fa88 473b 1c6d 653c 9c04 13be
000000c0: e49f 9abd ec9c 77bd e620 1f3d 5a84 033b
000000d0: 3ae4 3bbd 0470 1dbd 8622 d13d 3420 5fbc
000000e0: 11cb 913d cf1e b6bd a89a 5b3c a445 933c
000000f0: c7ae f2bd 66c1 123c a63a 5f3d 0ab5 853c
00000100: 101f 5a3c b17a 0ebe 24b4 e7bd d1f9 a9bc
00000110: 4ed6 433d a3e4 f7bc dcfc a33c 4034 4a3c
00000120: c7b2 833d 4f95 5c3b f791 b93c 98b0 a3bc
00000130: c4c5 44bd 4c47 ae3c 7f92 cd3c 5fe1 e13c
00000140: 89a6 c63c dd98 41bc 4083 a83c 78fe 99bb
00000150: 0808 cb3c 6bf4 843b 6f14 463c 4c76 193d
00000160: 7285 cabd 3f91 03bd dbab babd 9a1b 933b
00000170: 0807 2bbe 0e7b d9bc e593 e83b 8bec fc3d
00000180: 35cf 11bd 0870 18bc 10d4 cb3c 34a6 d8bc
00000190: f4aa 483c 80bb d13d 8e53 c4bc 8e9d ddbc
000001a0: 044c 283d 78f0 19bd d8fa 7c3d a3dd 5ebd
000001b0: cd84 083e d916 563d dc22 d5bc 1971 25bc
000001c0: 068a 133d d3fd 04be bdee 613d cc46 edbd
000001d0: 29d4 e03c 190e a1bd 73f0 48bc a4b7 9abd
000001e0: 8eca 113c cce3 723e 682d 8a3c c39f 5d3d
000001f0: 21af febd 8205 de3b a776 813d f3d9 4ebd
00000200: a46d 8a3d fc2b dcbb 3925 223d 8d83 ad3d
00000210: b96f 293d 380f 8b3c ae9a 0fbd c169 fcbb
00000220: 8656 7a3d eb8c 8f3d efcf 033a aea9 053d
00000230: 7135 77bd 01c4 18bd 3e9a 893c a840 17bd
00000240: 8128 d9bb 73f6 b4bd 375a 7bbc fc3c 39bc
00000250: 27e8 66bd 3d19 4bbd efee 923d 3f5e 913b
00000260: 514a 1ebd a26f 843d aeb1 f3bd 14a5 3a3d
00000270: 83c5 d7bb 7595 87bd 15c8 133d c23d 31bb
00000280: 51f1 b6bc c7ff e4bc 6bcc 0abc 0a55 8abc
00000290: 5bd6 893c c7c9 cfbc f1b1 683d 9ebc d13c
000002a0: cec8 093e 18d2 443d 137c 4f3a a1fe 04bd
000002b0: d85f be3b 3c9a 3cbc abae 42bd 1091 a5bd
000002c0: df0c f43b a4b0 aebc 0e0c b9bb 4431 e33c
000002d0: 3e36 933c c716 b4ba 87cc 373d 5b44 f1bc
000002e0: 29bc bf3c 0afc 0b3d 489f d03d a422 473d
000002f0: 5a45 203d ac60 8639 b4f5 a5bc db71 a73c
00000300: 875e 5fbd aa08 d23c 3855 bb3c 4193 fdbc
00000310: 4cde 303d 5041 1ebd 36ce 843e 258d fd3c
00000320: 2d66 653d a1f5 afbd d624 fabb cb91 3339
00000330: b754 cdbc 4403 afbc e40e 93bd c9ea 623d
00000340: c43e 3e3c c193 90bc 430d d63c c14d 0bbd
00000350: 4926 f13b 2a25 c93c 16de 2dbd eb8f 8bbb
00000360: 3cad ce3d bf25 0b3e 5763 d43c 5556 84bd
00000370: 118f b93d fc17 513c 7d56 1c3d 019f 9b3b
00000380: abac 3c3d c5e3 9dbc 8347 a73c bb17 8b3e
00000390: a461 d0bd a571 a63d 7c69 21bd 6ca1 083d
000003a0: a366 ab3c cb74 df3c 2014 3abd dddb e9bc
000003b0: e5e6 563c aef3 443d 207e 513d 8d88 913e
000003c0: fc7a 983c f868 123c 1f77 183d 7bfa 363d
000003d0: f717 6c3d 4bf2 b7bd e19a d83b 7b71 513d
000003e0: fb83 e5bc 9fbd 4abc 38af 863b 2c7a 153d
000003f0: 1c56 233c 4a49 99bc dda0 ee3d ffb1 90bc
0.0006001824 0.026689833 0.030964946 0.034409657 0.03385478 -0.02002312 0.027970169 0.0064237304
0.007822136 0.043555103 -0.020640463 0.0023051838 -0.04465903 0.03557828 -0.00078948395 -0.00841792
0.025739959 -0.04226174 -0.10488373 -0.050143175 -0.10790297 0.011760566 0.07509103 -0.042595495
-0.030065876 0.011906543 0.05133086 0.018065773 -0.0062633986 -0.09935648 0.012546633 -0.0469726
-0.053364534 0.020205991 0.021682618 0.012651102 -0.12493219 0.057937223 0.01769291 -0.037442032
-0.060911685 -0.036793277 0.019321809 -0.032701313 0.048549656 0.0030446635 0.0140030645 -0.14357227
-0.07550028 -0.060452387 0.038849734 0.0020067901 -0.04587195 -0.038436905 0.10211663 -0.013618518
0.0711881 -0.08892595 0.013403572 0.017977543 -0.118497424 0.008957243 0.05449929 0.016321678
0.01331307 -0.1391399 -0.11313656 -0.020749005 0.0478118 -0.03026039 0.020018034 0.012341559
0.064305834 0.003365833 0.02265261 -0.019981667 -0.048040166 0.021274231 0.025094269 0.027573286
0.024249332 -0.011816231 0.020570397 -0.0046995245 0.024784103 0.004057457 0.012089833 0.037466332
-0.09888734 -0.03212094 -0.0911481 0.0044893743 -0.16701901 -0.026547935 0.0070977085 0.123498045
-0.035598 -0.009304054 0.024881393 -0.02644644 0.01224779 0.10240841 -0.023965623 -0.027052667
0.04108812 -0.037582844 0.06176266 -0.054410588 0.1333191 0.052267883 -0.026017599 -0.010097765
0.0360203 -0.12987451 0.05515932 -0.11585769 0.027444916 -0.07864017 -0.012264359 -0.07554558
0.00889839 0.2371971 0.016867355 0.05410744 -0.12435747 0.006775559 0.06321459 -0.05050082
0.067591935 -0.0067191105 0.03958628 0.08472357 0.041366313 0.01697503 -0.035059623 -0.0077030365
0.06111767 0.070093 0.0005028238 0.032632522 -0.0603537 -0.0372963 0.016797181 -0.036926895
-0.006627143 -0.08836069 -0.015341333 -0.011306044 -0.05637374 -0.049584616 0.07174479 0.004436284
-0.038645092 0.06466605 -0.11899124 0.045567587 -0.0065848245 -0.066203035 0.036079485 -0.0027044867
-0.022331866 -0.027953995 -0.008471589 -0.016886253 0.016825845 -0.02536477 0.056810323 0.025602635
0.13455507 0.048051924 0.0007914912 -0.032469396 0.0058097653 -0.011511382 -0.047529858 -0.08084309
0.0074478234 -0.021324463 -0.005647189 0.027733453 0.0179702 -0.0013739698 0.044872787 -0.02945154
0.023405151 0.03417591 0.101866305 0.04861702 0.03912864 0.00025630498 -0.020258762 0.020440033
-0.054533508 0.025638897 0.022867784 -0.030954005 0.04318075 -0.038636506 0.25938576 0.030951092
0.056005646 -0.08591772 -0.0076337857 0.00017125082 -0.02506481 -0.021363862 -0.071805745 0.05539969
0.011611644 -0.01764858 0.02612937 -0.0340097 0.0073593003 0.024553854 -0.042448126 -0.0042590997
0.100916356 0.13588618 0.025926275 -0.06461779 0.09060491 0.012762066 0.03816842 0.0047491794
0.046063107 -0.019273648 0.020419842 0.27166542 -0.101748735 0.08127145 -0.03940724 0.03335707
0.020922964 0.02727737 -0.04542935 -0.028547222 0.013116573 0.048083954 0.051145673 0.28424492
0.018613331 0.008936159 0.037222978 0.04467247 0.057640042 -0.089817606 0.00661026 0.051133614
-0.028017035 -0.012374311 0.004110243 0.036493465 0.009969261 -0.018711705 0.11651776 -0.017663

FCNet.3.bias f4 [300]
00000000: e76a 39bc 8a28 b8bb c232 343b 124c b6bb
00000010: c8ec a33c 860a 713c 6be9 1938 22f7 823c
00000020: ab69 6dbb ec78 c4b8 5aa7 bcba 7c5a 42bc
00000030: 1809 1cbc 4248 0a3c 13ce ca3b e01b 57bc
00000040: f01b 21ba a499 81bc 9dab d2bc 89f8 98bb
00000050: ee4e f6bb f961 2dbb b78a 1ebb 761a 45bc
00000060: edf2 5e3c 839e 563b 03e2 9cbb c22c 01bc
00000070: 8058 22bb 70e8 63bb 2561 23bb 6f8f e4bb
00000080: 8f06 0ebc 521c 8dbc 3281 1abc 3aaf 36bc
00000090: a7c7 fbb9 020c 423b 98d6 a2bb cf10 e43b
000000a0: d66a 23ba 32c5 f23b 0598 7fbc bad1 653c
000000b0: 9706 a13c 1a2d 163c 505d c23b 2c1e ac3b
000000c0: 6ffb aebb c5a6 213b bec2 893c 8c6c 4d3c
000000d0: 081d 243b ab7a 29bb bc7a cbbb 4084 923c
000000e0: b261 a738 dba5 993b 05ca c539 b71c c73b
000000f0: b397 d6bb 760d 0a3c e210 f3bb 08cf 36bb
00000100: 0b97 c73b a688 ab3c 6d2c 9e3c 09b3 1fbc
00000110: 0c4c c83c 9428 f53b 2562 8d3b 2de2 88bc
00000120: 5d7a 803c 4215 08ba a9e0 03bc fd28 06bd
00000130: 0a5b 88bb 4a2c c53b c85c a6b9 2c33 093d
00000140: eeec f3bb 9f90 0b3c 85f8 04bb 4af4 a4bb
00000150: 154a b63b 829c b03c 5d17 10ba 6df8 d5bb
00000160: 9846 6fbb ac79 d9bb a28f aa3b 1d88 0fbc
00000170: e880 a83c a828 103c 03ba 5dbc 8eab 4abc
00000180: 2d4a f7bb e386 08b9 fd56 d3bb 8c0d bc3b
00000190: a002 34bb 60ab 2b3c 85d5 2abc 6947 ba3b
000001a0: 10d0 4dba df3e e7bb e3ee eb3b a33d 0f3b
000001b0: 505a 503c aea8 c93c 29b8 b4bb 1e7f 3dbc
000001c0: b8dc 6bbb e314 08bc 2369 22bb 19b5 cebb
000001d0: 05e2 98bc 1dd2 fa3b 0c8f 16bc 316a ec3b
000001e0: 3d70 2abc 0610 87bb dca4 8f3c 2643 403a
000001f0: 339f d33b 055f 773c ef6d 0c3c 5f64 ec3b
00000200: 4ed0 333c 5c66 fbbb 8f4f e9ba ed34 1e3c
00000210: 0401 b5bb fa70 623b 4f0a c53a e725 a03b
00000220: 9fdb 9e3c 0839 373c 7fa6 01bc 1124 593c
00000230: 4564 e13a 66c3 72bc be0e 243c 0cb6 c9bb
00000240: d233 f73a 4dd5 a53c e15b a23c eb05 43bc
00000250: 1637 fe3b 579b f33c 8aff 8a3b 8cc2 9e3c
00000260: 5c88 0cbc 2ce6 3abc 3bc0 8f3b 03ed a63b
00000270: 849e 7cb9 10c0 903c 0c89 b63c a2eb 993c
00000280: 5949 fbbb c827 ca3a feb3 d73b eeeb 743c
00000290: b805 0cbd 8d27 f8bb 7003 f93b 463c 67bc
000002a0: 9b9f 89bc 6ea7 81bb 77b8 a0bb 8cce fcbb
000002b0: efb8 423d e7e3 52bc 125e 2fbc 7cb1 dcbb
000002c0: cacf 9c3c cf72 323b 2a82 8abb c59c 49bc
000002d0: 1668 793c f616 66bc b5f7 dabc 2033 8d3c
000002e0: 6c62 14bc 0ffc fa3b 4abc ad3c 5e88 0e3b
000002f0: acec c13b 884c 7c3b d2b7 933c 3332 36bb
00000300: d7dd 1e3a 60ab 9d39 646a 963c 4301 a43c
00000310: 35ba 733c a06f 8d3c 9db3 25bc 0dd0 95bb
00000320: 4546 2a3c 4154 31bc 1960 bdbb 60bf d0ba
00000330: 9a55 853b 010b a5bc 22d9 8dbb 4d95 8e3c
00000340: 2db9 943c de3d cdba 9a39 06bc 4963 e93b
00000350: c84e f6bb fc58 723a e888 b4bc 2c74 533b
00000360: df6f 34bc 4bc1 803c 8e18 16bc 23be 6e3c
00000370: 2989 a8bb 4426 903c 51a5 073d 6e33 01bc
00000380: c951 2dbb dbf0 a03b e237 90bb d0cb 603b
00000390: d06d 043c 68bd 90bb a73c a83c 0da8 833c
000003a0: 119e 29bc 7d6a a7bc 50c0 cf3c a3b0 01bc
000003b0: 83e6 93bc de04 0cbb ca06 973c bcca f23a
000003c0: 1294 c63b 9a54 c6bb eb16 52ba e682 76bb
000003d0: f8cb 00bc 0f5f 963c 1f5b 0e3c 38cf 18bc
000003e0: 4093 70bc 7df2 563c 8bf5 09bc 2dbb ffba
000003f0: 0efd e9bb 19fe c23c b5dd 633a 4329 3abc
-0.011316991 -0.005620067 0.0027496074 -0.0055632675 0.020010367 0.014711982 3.669543e-05 0.015986983
-0.0036226313 -9.368532e-05 -0.0014393136 -0.0118623935 -0.0095236525 0.008440079 0.0061891167 -0.0131292045
-0.00061458256 -0.015820332 -0.025716597 -0.0046682996 -0.0075167334 -0.0026456101 -0.0024191567 -0.012030235
0.013607723 0.003274829 -0.004787685 -0.007884206 -0.0024771988 -0.0034775995 -0.0024929729 -0.0069751064
-0.008668556 -0.017225418 -0.009430217 -0.011150176 -0.00048023203 0.0029609208 -0.004969429 0.0069600116
-0.00062338763 0.0074087614 -0.015600209 0.0140270535 0.019656463 0.0091660265 0.005931534 0.00525262
-0.005340032 0.0024666053 0.016816493 0.012538087 0.0025041718 -0.002586047 -0.0062096994 0.017885327
7.981378e-05 0.004688961 0.00037725284 0.006076421 -0.0065488457 0.008426061 -0.007417784 -0.0027894396
0.006091004 0.020939182 0.019308293 -0.009747275 0.024450324 0.007481644 0.0043146783 -0.016709412
0.015683347 -0.0005191156 -0.008049169 -0.032753933 -0.0041612433 0.0060172426 -0.00031731115 0.033496067
-0.0074440157 0.008518367 -0.002028973 -0.0050340043 0.0055630305 0.021559004 -0.00054966455 -0.006529859
-0.0036510583 -0.006636819 0.0052051106 -0.008760479 0.02056928 0.008798756 -0.013533118 -0.012370003
-0.0075466842 -0.0001302022 -0.006449579 0.0057389196 -0.0027467385 0.010477871 -0.010426884 0.0056847823
-0.0007851133 -0.0070570554 0.0072001084 0.0021856807 0.012716845 0.024616566 -0.0055151177 -0.011565952
-0.0035989713 -0.008305761 -0.0024781905 -0.0063082096 -0.018662462 0.007654442 -0.0091893785 0.0072148074
-0.010402736 -0.004121783 0.017534666 0.00073342246 0.006458187 0.015098338 0.008571132 0.0072141136
0.010974957 -0.0076721143 -0.00178002 0.009656173 -0.0055238027 0.0034552203 0.001503298 0.004887331
0.019391833 0.011183031 -0.007913231 0.013253228 0.001719602 -0.014817094 0.01001328 -0.006155735
0.0018860048 0.020243311 0.019819202 -0.011903266 0.0077580316 0.029737158 0.0042418884 0.019379877
-0.0085774325 -0.011407416 0.0043869293 0.005094172 -0.00024091644 0.017669708 0.022282146 0.018789116
-0.007668656 0.0015423233 0.006582736 0.014948828 -0.03418514 -0.007573074 0.0075992867 -0.014113491
-0.016799739 -0.0039567268 -0.0049048024 -0.007715052 0.047539648 -0.012871719 -0.01070358 -0.006735025
0.01914205 0.0027229076 -0.0042269425 -0.012305443 0.01522257 -0.01404356 -0.026729444 0.017236292
-0.009056669 0.0076594423 0.021207947 0.0021748762 0.005918106 0.0038497765 0.018031988 -0.0027800917
0.00060602784 0.00030073058 0.018361278 0.020020133 0.014875938 0.017265141 -0.010113624 -0.0045719207
0.01039273 -0.01082331 -0.005779278 -0.0015926175 0.0040690424 -0.020146849 -0.0043288628 0.017405177
0.018154705 -0.0015658697 -0.008192444 0.0071224314 -0.0075167157 0.0009244827 -0.022037938 0.0032265289
-0.011013 0.01571717 -0.009161128 0.014571699 -0.005143304 0.017596371 0.033116642 -0.007885797
-0.0026446453 0.0049115247 -0.004401193 0.003430117 0.008082822 -0.0044171102 0.020536734 0.016071344
-0.010352627 -0.02043652 0.025360256 -0.007915649 -0.018054252 -0.0021365206 0.018435854 0.0018523554
0.006060132 -0.0060525658 -0.00080142793 -0.0037614643 -0.00786113 0.018355874 0.008688717 -0.009326749
-0.014683545 0.013119337 -0.008420358 -0.0019510739 -0.007140762 0.023802804 0.00086924 -0.011362377

FCNet.4.weight f4 [300]
00000000: dd8d 973f fd7f 7a3f 2d5a a03f 7f32 8f3f
00000010: f1ea 953f 47d1 a03f b022 4f3f ce9d 683f
00000020: 7f8f 3f3f f0ec 653f 12f4 3b3f d8a7 573f
00000030: 1f06 503f f982 a03f 3a37 c43e debb 8b3f
00000040: 54aa 723f 5fbd 913f 61d0 8b3f e9c7 363f
00000050: 05c1 3e3f f546 5e3f 9b63 853f 3ba6 993f
00000060: 6f83 a03f 67ec 933f 99a6 693f 5a90 943f
00000070: 9549 3a3f 668e 233f 1212 8c3f 1725 393f
00000080: 2894 7c3f 6303 bd3f 836e 7a3f f8d5 6c3f
00000090: 8f19 803f a39a 933f 5b42 8f3f 5835 f53e
000000a0: 2442 4e3f 671d 803f 7a45 9d3f 2ca0 9f3f
000000b0: 8015 a63f 12ad 163f a57d c73e 17d0 483f
000000c0: 6cab 3c3f d62a 7d3f 0b00 9e3f 08b0 9f3f
000000d0: e36a f83e 9c9d 0e3f be9e 9d3f f064 a33f
000000e0: e51c 483f e0ee a43f a990 053f 2e34 843f
000000f0: f6a4 5b3f 4607 9a3f 54a5 623f 2530 773f
00000100: c3b7 803f 447c 893f addd a63f 8a01 903f
00000110: a922 8e3f 74d4 ca3e c5be 883f d779 563f
00000120: c3cf 9d3f d754 0f3f 254c 873f 8eaf 953f
00000130: 1e72 373f deba 6f3f 5560 9b3f e54c 823f
00000140: 045d 5a3f 7dc4 403f 608f 893f dd42 653f
00000150: e38d a53f 2c4d 8b3f 1201 853f efab 773f
00000160: 2ddb 133f d733 8d3f 4f3f 0a3f 624f 853f
00000170: 78a2 a43f 082f a33f 44e6 9f3f 7c3d 053f
00000180: 9a20 a63f e285 ff3e 8517 6f3f 691c 993f
00000190: 7433 173f 15a9 9a3f 6d56 563f ee79 823f
000001a0: da08 433f 7641 f43e 045c 8b3f 92e3 d73e
000001b0: 683a 803f b9f6 cd3f 7aba 7a3f cea1 9f3f
000001c0: 5297 6b3f 2611 963f 05c0 943f 6c6a 903f
000001d0: eab8 833f 7326 ce3e 3a95 963f 8d6b 6a3f
000001e0: 42ee 243f bda4 3c3f 9a63 a33f 6a99 433f
000001f0: 5207 403f 11e3 a23f 0ded 413f b7cb 633f
00000200: 392a a83f 6249 583f 2674 6f3f e0c8 cc3f
00000210: 991b 9c3f ded2 df3e 57bb 783f 9ef0 ca3e
00000220: 139b 9d3f c46a 963f 7582 6b3f 4027 823f
00000230: 8cdf 7b3f 03f0 8e3f 9223 8a3f 877c 3d3f
00000240: 41c0 373f 39e7 a33f ad80 a33f 5357 0e3f
00000250: 7432 c33e 1c75 da3f d85c 803f 098e a13f
00000260: 0a35 853f bc0f 933f 4091 1f3f 7f18 cf3f
00000270: b5b7 1a3f 4669 a13f 897f 5b3f 63ab a03f
00000280: 8f3f 3d3f 3e2a 7e3f dd2b c83e daed 803f
00000290: 4ec3 943f f8a5 513f 607a 823f d3d7 5f3f
000002a0: fa8c 983f 98c6 d63f 3d71 283f 3cd3 423f
000002b0: 80f2 113f 4a3d 573f d93e 973f 8cc4 333f
000002c0: 7412 9b3f 4450 b63f b802 923f 0516 943f
000002d0: 4ca1 a13f dadd 723f f2dc 953f 3e15 a33f
000002e0: f42c 583f d188 843f 120a 273f aa4c 7c3f
000002f0: ed2a 813f 54a2 7c3f 0b69 a73f 5ce7 383f
00000300: 19ad 363f 8129 013f f555 913f a61f a33f
00000310: 420d 9e3f 0c45 323f 9668 943f 7889 7d3f
00000320: 7f3f 833f 875f 5a3f 51cb 613f 1744 743f
00000330: 1085 723f d893 943f e42a 883f b0d5 a33f
00000340: 767a a23f 890f c63f cc53 993f 21fd c93e
00000350: 713b a03f 3c2a e53e 238d 993f 8f17 3c3f
00000360: 7f12 793f 4776 a23f 6d3e 593f d836 5c3f
00000370: f41d 803f cc01 a13f db40 8b3f 9322 523f
00000380: efc9 953f 4166 e03e eaeb 183f 9906 ba3f
00000390: effb 523f 0786 a73f 7ff1 a13f 38b2 a53f
000003a0: 6a55 9a3f 711a 913f 0cd0 8e3f 3ad4 243f
000003b0: 4822 723f 3f19 773f 8ec9 ca3f 36b2 813f
000003c0: f706 ae3f 8b92 753f 25aa 353f 20fe 963f
000003d0: 0088 863f 87a5 a23f a0b0 903f ac69 343f
000003e0: 85da 813f 6159 643f 0e39 623f 9c9b 9a3f
000003f0: d044 1d3f a080 573f daed 753f b541 5b3f
1.1840168 0.97851545 1.252752 1.1187285 1.1712323 1.2563866 0.80912304 0.9086579
0.7482833 0.8981466 0.73419297 0.84240484 0.8125934 1.253997 0.38323385 1.0916708
0.9479115 1.1385916 1.0922967 0.7139879 0.74513274 0.8682702 1.0421022 1.2003855
1.254011 1.1556519 0.9126983 1.1606553 0.7276853 0.6388916 1.0943015 0.7232222
0.9866357 1.4766659 0.9782488 0.9251399 1.00078 1.1531566 1.1192125 0.4789226
0.8056967 1.0008973 1.2286828 1.2470756 1.2975311 0.58857834 0.38963047 0.7844252
0.7369907 0.9889349 1.2343763 1.2475595 0.48519048 0.5570924 1.2314069 1.2765179
0.7816909 1.2885399 0.5217386 1.0328424 0.85798585 1.203347 0.8853352 0.9655784
1.005608 1.0741048 1.30364 1.125047 1.1104327 0.39615214 1.0683218 0.8377966
1.2329029 0.5598883 1.0570112 1.16942 0.71658504 0.9364451 1.2138773 1.0179716
0.8529818 0.7529982 1.074688 0.8955515 1.2933925 1.0882926 1.0390952 0.96746725
0.5775631 1.1031445 0.5400285 1.0414851 1.2862082 1.2748728 1.2492146 0.5204694
1.2978699 0.49906832 0.9339526 1.1961795 0.59062886 1.208285 0.83725625 1.019346
0.7618538 0.47706193 1.0887456 0.4216581 1.0017824 1.6090919 0.9794079 1.2471254
0.9202777 1.1723983 1.16211 1.1282477 1.0290806 0.4026371 1.176429 0.9157036
0.6442605 0.7368887 1.2764771 0.76405966 0.7501117 1.2725545 0.75752336 0.8898272
1.3137885 0.84486973 0.93536603 1.5998802 1.2195922 0.43715566 0.9716086 0.396367
1.231295 1.1751332 0.91995937 1.0168228 0.9838798 1.1166996 1.0792105 0.7401814
0.7177773 1.2804939 1.2773644 0.55601996 0.3812443 1.7066989 1.0028334 1.2621471
1.0406811 1.1489177 0.6233101 1.6179351 0.60436565 1.2610252 0.8574148 1.2552303
0.7392511 0.99283206 0.39095965 1.0072587 1.1622102 0.81893873 1.0193596 0.87438697
1.1918023 1.6779356 0.6579779 0.7610357 0.5701065 0.84077895 1.1816055 0.7022178
1.2115006 1.4243245 1.140708 1.156922 1.2627349 0.9486977 1.1708052 1.2740858
0.84443593 1.0354253 0.6524974 0.9855448 1.0091225 0.98685193 1.3078932 0.72228026
0.71357876 0.50453955 1.1354357 1.2744033 1.2347796 0.6963661 1.1594417 0.99037886
1.0253752 0.85302013 0.8820086 0.95416397 0.9473429 1.1607618 1.0638089 1.2799587
1.2693622 1.5473491 1.1978698 0.39450935 1.251814 0.44758785 1.1996197 0.7347345
0.9729385 1.2692345 0.8486088 0.86021185 1.0009141 1.2578673 1.0879167 0.82084006
1.170225 0.43828014 0.59734976 1.4533263 0.8241567 1.3087777 1.2651824 1.2945013
1.2057316 1.1336194 1.1157241 0.6438633 0.9458356 0.965229 1.584276 1.0132511
1.3595876 0.9592673 0.70962745 1.1796303 1.0510254 1.2706765 1.1303902 0.7047374
1.0144812 0.8919888 0.8836831 1.2078738 0.61433125 0.8418064 0.9606606 0.85647136

FCNet.4.bias f4 [300]
00000000: d454 22bd 484b 8abd b945 99bc 22e3 3ebc
00000010: a852 f03c 7dfc ec3c 6187 41be 061f 1bbd
00000020: f10f 88be de2b 3fbd 6681 89be 3993 fabd
00000030: 96cb 52be 3c6c 623c 8da6 08bf b689 36bd
00000040: 37d6 d2bd d1b0 53bd acdb 68bd 852a 95be
00000050: 84a4 7ebe df12 30be 5488 4cbd 8c11 24bd
00000060: bee5 9c3c 33eb 29bd 9918 26be b55d f1bb
00000070: 1a07 8abe ea73 a8be 5511 7abd 70af adbe
00000080: e615 bbbd a59b acbd c2bf b9bd 4707 cabd
00000090: 2f2e 5ebd 51d4 a0bb 93a5 873b c0a2 d9be
000000a0: 3764 52be 62c0 b3bc b1ff 1fbb 19a3 a23b
000000b0: 3006 a23c ed54 a7be 613d 06bf e269 66be
000000c0: c613 8ebe 66d1 2bbd bdba 3c3c 15aa 943b
000000d0: 7ffd 00bf 7d11 cbbe d1dd 8d3b a019 853c
000000e0: 522e 5ebe 003d b43b bc4a d7be 3524 44bc
000000f0: 0b82 2cbe 1625 bd3c 23eb 0ebe ce52 02bd
00000100: 5d13 6fbd 2826 c53c 6772 903c a2ea 63bd
00000110: 0524 c93c da49 02bf fa14 58bd 7928 78be
00000120: 4669 e33b e1b1 ecbe 032d 88bd d6a2 c8bd
00000130: 6f05 96be fe53 33bd f746 173b 7d62 253d
00000140: a5c9 30be 8c78 71be a5a4 babc 19f3 bfbd
00000150: e27f 8b3c 91f5 af3c e684 71bd 2817 dbbd
00000160: fce2 c4be b6ca 683b e06b bebe 171a 3cbd
00000170: 9857 823c c48e 0fbd 2754 73bd 12f6 eabe
00000180: e923 2fbd b729 e5be a5f3 ffbd 94d8 ad3a
00000190: 4b43 bcbe df9e b23c d717 34be 07bf c7bc
000001a0: 3929 70be 1cbc 04bf 1fa3 5b3c a90f 01bf
000001b0: dd6f a5bc 9afc b9bc f60a b3bd a02a dcbb
000001c0: 005d 10be 0ed0 7abd 9178 873b db9e 57bd
000001d0: f0ca d9bd e251 00bf 6b37 7cbd d575 68bd
000001e0: 40d7 c2be a0a5 8dbe 3972 833c 65c8 66be
000001f0: fa30 5fbe 7235 953c ff4c 65be 1a34 e2bd
00000200: cf8f ec3c d5dd 37be 68f6 08be fa5c f23c
00000210: 356a 31bd bb7a f8be 34d6 5ebd 22d3 06bf
00000220: e18f 513c 4bbc 99bc f7b2 41be 82ed 5c3c
00000230: c005 4cbd e24c 91bc a4af c3bc e209 8cbe
00000240: 4256 87be fc90 783c cdab 9e3c f7de dfbe
00000250: 04f0 07bf 1d2e d0bc 57e3 54bd 07b9 853c
00000260: 90f3 39bd 99d8 7abd 3a37 b0be 1a03 5abd
00000270: cfad b3be f133 5d3c 1a51 91bd cee0 0b3c
00000280: 330d 9fbe a8dd 12bd 5ad7 06bf 70cc 5a3c
00000290: b5d2 b6bd bed9 2cbe 39a6 b2bc 99b8 26be
000002a0: 957a c5bd ecc5 253c c5ef a8be c3d2 86be
000002b0: 5378 afbe 9bc0 08be 5f66 75bd c229 94be
000002c0: 9773 78bc 3922 8dbc 69ab 83bd d731 6cbd
000002d0: ec84 8a3c 0306 0abe 6d98 45bd 3e86 ab3c
000002e0: e42f 39be bb08 8b3c 8531 97be cb5b 3bbd
000002f0: 5f5b ebbc 3aee 4cbd 4fe7 c23c 0f33 90be
00000300: 2213 89be 9089 e3be 73e7 6abb 4ac0 8e3c
00000310: 064d f83c 9d9c afbe 6384 8fbc 510a bebd
00000320: 021f f3ba 6c79 1abe 00f6 33be b837 93bd
00000330: ec9f 80bd 1da0 87bd 6c32 72bd 05cb 3f3c
00000340: 79fc 543c 78f5 6fbd a1df 033c 7029 04bf
00000350: e7e9 113b a5f6 f6be c4df 7abd 6d12 8ebe
00000360: 00f8 dbbd 1f87 6f3c 3509 37be 0b85 debd
00000370: e609 b5bd 8125 aa3c 781f 1f3d 54c0 0dbe
00000380: 506a d9bb 0319 12bf 73b6 d3be ba77 20bd
00000390: 51be 37be d42e afbb c966 213d a15d 16bd
000003a0: 666e 4fbd 5b3a 92bd 3c96 ed3c 1247 b2be
000003b0: b017 d2bd aa33 05bd 0733 cdbc 0648 29bd
000003c0: 3535 d7bb a004 dbbd 6975 8cbe a525 87bd
000003d0: 059b 34bd c390 693c 318a da3c dcf9 a0be
000003e0: 7c5f 76bd 90ae 3bbd d837 07be b517 873a
000003f0: d83c d5be 292f bdbd 3bfc b4bd 1161 e0bd
-0.03963168 -0.0675264 -0.018710004 -0.011650832 0.029336289 0.02892899 -0.18899299 -0.037871383
-0.26574662 -0.046672694 -0.26856536 -0.12235112 -0.20585474 0.01381975 -0.53379136 -0.044564925
-0.102947645 -0.051682297 -0.05685012 -0.29134002 -0.24867445 -0.17194699 -0.0499347 -0.040055797
0.019152518 -0.04148407 -0.16220321 -0.007365907 -0.26958543 -0.32900935 -0.061051685 -0.3392291
-0.09135036 -0.08428124 -0.09069778 -0.09864669 -0.054243263 -0.0049081226 0.004139611 -0.4250698
-0.20546041 -0.021942321 -0.0024413879 0.0049632904 0.019778341 -0.3268198 -0.52437407 -0.22501329
-0.2774946 -0.041947745 0.011519131 0.004536877 -0.50386804 -0.3966178 0.004329421 0.01624757
-0.21697357 0.005500436 -0.42049205 -0.011971523 -0.16846482 0.023088973 -0.13956885 -0.03181725
-0.058368076 0.024066046 0.017632676 -0.055643685 0.024553308 -0.5089394 -0.05275438 -0.24234189
0.00694004 -0.4622946 -0.0664921 -0.097966835 -0.2930102 -0.043781273 0.002308307 0.04037713
-0.17264421 -0.23581141 -0.022783587 -0.09372539 0.017028753 0.0214794 -0.058964632 -0.10697776
-0.38454425 0.0035521216 -0.37191677 -0.04592332 0.015910909 -0.03504826 -0.059406426 -0.45890862
-0.042758856 -0.44758388 -0.124976434 0.0013263398 -0.3677009 0.021804271 -0.17587219 -0.024383081
-0.23453225 -0.5184953 0.01340559 -0.5041452 -0.020194942 -0.022703458 -0.08742325 -0.0067189485
-0.14097977 -0.061233573 0.0041342457 -0.05264173 -0.106344104 -0.50124943 -0.06157629 -0.056753
-0.38054848 -0.27665424 0.016045677 -0.22537382 -0.21796027 0.018213961 -0.22392653 -0.11045094
0.028877167 -0.17955716 -0.13375247 0.02958535 -0.043314178 -0.48531136 -0.0544035 -0.52665913
0.012790651 -0.018766543 -0.18915926 0.013484361 -0.04981017 -0.017736856 -0.023887463 -0.2735129
-0.26432997 0.015171286 0.01936903 -0.43724796 -0.5310061 -0.025412614 -0.05197462 0.01632358
-0.045398295 -0.06124172 -0.34417135 -0.053225614 -0.35093543 0.013501153 -0.07095547 0.008537484
-0.31064758 -0.03585592 -0.5267235 0.013354406 -0.08926908 -0.16879937 -0.021807777 -0.16281356
-0.09642521 0.010117989 -0.3299543 -0.26332673 -0.34271488 -0.13354723 -0.05991208 -0.2893811
-0.0151642775 -0.017228233 -0.06429178 -0.05766472 0.016909085 -0.13478856 -0.048241068 0.020938035
-0.18084675 0.016971936 -0.29529968 -0.045741837 -0.028730093 -0.050031878 0.023791937 -0.28163955
-0.2677241 -0.4444089 -0.003584352 0.017425675 0.030310165 -0.34299174 -0.017519182 -0.092793114
-0.001854867 -0.15085381 -0.1757431 -0.07188362 -0.06280503 -0.06622336 -0.059130117 0.0117061185
0.012999647 -0.058583707 0.008048923 -0.5162573 0.002226466 -0.4823505 -0.061248556 -0.27748433
-0.107406616 0.014619618 -0.17874606 -0.1086522 -0.088397786 0.020769836 0.03884837 -0.13842899
-0.006634988 -0.57069415 -0.41350135 -0.03917668 -0.17943694 -0.0053461585 0.039404664 -0.036710385
-0.050642394 -0.07140037 0.029002301 -0.34819847 -0.10258424 -0.032519974 -0.025048746 -0.041328453
-0.006567622 -0.106942415 -0.27433327 -0.06598977 -0.04409315 0.014255705 0.026677223 -0.31440628
-0.060149655 -0.045820773 -0.13204896 0.0010306748 -0.41647983 -0.09237511 -0.08837172 -0.10956014
