DDPG/model/Pendulum-v0_critic.pt (torch, 499519 bytes, 9 tensors)

FCNet.0.weight f4 [400, 4]
0	0xbdae2206	-0.08502583
1	0xbcd54432	-0.026033495
2	0xbcdc3a10	-0.026883155
3	0x3ba76b99	0.005109262
4	0x3c53499a	0.012895966
5	0xbd80f3f9	-0.06296534
6	0x3c344382	0.011002423
7	0x3bc6e747	0.006070051
8	0xbcb64c6e	-0.022253241
9	0xbde4ad7c	-0.11165902
10	0xbb865475	-0.0040994235
11	0x3aa47a99	0.0012548744
12	0xbb209ebd	-0.0024508678
13	0xbd249af8	-0.040186852
14	0x3c128a4c	0.008944105
15	0xbb6d77b0	-0.003623467
16	0x3cec9c87	0.028883232
17	0x3dcfc559	0.10145063
18	0xbbcebb14	-0.0063089225
19	0xbc4a991d	-0.012365607
20	0xbcb97403	-0.022638327
21	0xbd8030b6	-0.06259291
22	0xbca1b6b1	-0.019740434
23	0xbc7e361a	-0.0155158285
24	0x3e138a02	0.14408115
25	0x3d3270db	0.04356466
26	0x3c5de48a	0.0135432575
27	0x3cafd774	0.02146504
28	0xbd46a54a	-0.048497476
29	0xbd64c024	-0.055847302
30	0xb9dc936f	-0.00042071517
31	0xbc384567	-0.011247016
32	0xb9831c0f	-0.00025007172
33	0x3b52e9d3	0.0032182827
34	0xba88f3a0	-0.0010448582
35	0xbc25152c	-0.010075849
36	0x3d7f0b12	0.062266417
37	0xbe2360b4	-0.15954858
38	0x3bf5a1a5	0.007496076
39	0xba28f047	-0.00064444955
40	0xbcf56e18	-0.029959723
41	0xbdbe859b	-0.09302827
42	0xbd0e5d36	-0.03475686
43	0xbcc08e0e	-0.023505237
44	0xbdb50882	-0.08839513
45	0xbcd29da0	-0.025709927
46	0xbce9898b	-0.028507968
47	0x39e934fc	0.000444807
48	0xbb702cda	-0.0036647827
49	0xbb9968fd	-0.004681705
50	0x39410542	0.00018407873
51	0xbbc7981f	-0.0060911323
52	0x3c6994da	0.01425668
53	0xbd882294	-0.0664722
54	0x3ab59b86	0.0013855554
55	0xbd5b9f36	-0.053618632
56	0xbd031bfa	-0.032009102
57	0xbcc9b50d	-0.024622465
58	0xbbc32eb1	-0.005956494
59	0x3bdd1b12	0.006747612
60	0x3b17a24c	0.0023137508
61	0xbd2795f9	-0.04091451
62	0xbcff74ba	-0.03118359
63	0xbc417458	-0.011807524
64	0xbc172850	-0.00922592
65	0x3d696ace	0.056986623
66	0x3ce0ceab	0.027442297
67	0x3bfa512c	0.007639071
68	0x3bce8e6b	0.0063035986
69	0xbcdf4979	-0.027256714
70	0xbcd2302f	-0.025657741
71	0xbb5bf5a1	-0.0033563154
72	0xbc9a7b36	-0.01885758
73	0xbc2ebeaf	-0.01066558
74	0x3bcd532c	0.0062660184
75	0x3c04d19e	0.008106617
76	0x3c91a1bd	0.017777318
77	0x3e083609	0.13301863
78	0xbc5ee9bf	-0.013605534
79	0xbbe7d6df	-0.007075175
80	0xbb650607	-0.003494622
81	0xbd42857d	-0.047490586
82	0xbceffa5d	-0.029294187
83	0x3bd0d22f	0.006372712
84	0xbd5641bc	-0.052308783
85	0x3ab7aa4e	0.0014012547
86	0xbb0c25e5	-0.0021384892
87	0xbbf51ec4	-0.007480474
88	0xbc9a0fca	-0.018806357
89	0xbd1d0fcc	-0.038345143
90	0xbc3f5b6d	-0.011679512
91	0xbc34e519	-0.011040949
92	0xbc74c5b6	-0.014939716
93	0x3c3ede89	0.011649736
94	0x3a947cff	0.0011328756
95	0x3b10bca9	0.0022085106
96	0xbb825006	-0.0039768247
97	0xbbde5cda	-0.006785971
98	0x3aae3aed	0.0013292708
99	0xbb0174db	-0.001975349
100	0xbcf29d0e	-0.029615905
101	0xbdcdbaf4	-0.10045424
102	0xb8c93dfc	-9.5959724e-05
103	0xbc0de380	-0.008660197
104	0xbbdc9b77	-0.0067324
105	0x3c69782a	0.014249841
106	0x3c2fdbee	0.010733588
107	0xbad0af87	-0.0015921452
108	0xbcb49750	-0.022044808
109	0xbd99f9fb	-0.07518383
110	0x398c6df2	0.00026784797
111	0xbc58a99a	-0.01322403
112	0xbd092ba5	-0.03348889
113	0xbd3f4d1d	-0.0467044
114	0x3c92788a	0.017879743
115	0x3c592e53	0.013255673
116	0xbb057579	-0.0020364209
117	0xbd21866a	-0.039434828
118	0x3b8e8bbb	0.0043501533
119	0x3bdca565	0.0067335838
120	0x3c2b0951	0.010439233
121	0xbd7b98a2	-0.06142486
122	0xbd225525	-0.03963198
123	0xbd2aaa12	-0.041666098
124	0x3b551b45	0.0032517475
125	0x3c4293bc	0.011876043
126	0x3c35749a	0.011075163
127	0xbc320def	-0.01086758
128	0xbba7a4ba	-0.0051160725
129	0xbcfab3a1	-0.030603232
130	0xbcb32ecd	-0.021872902
131	0x3b5b9bd3	0.0033509627
132	0xbd04bdd4	-0.032407597
133	0xbe00dcdf	-0.12584256
134	0xbb129214	-0.0022364901
135	0xbbc64b6a	-0.0060514705
136	0x3bdc3a3d	0.0067208097
137	0x3ba68477	0.005081709
138	0x3c48fe99	0.012267732
139	0xbc25792f	-0.010099693
140	0xbd289dfb	-0.041166287
141	0xbdf44211	-0.11926664
142	0xbb2a30f8	-0.002596913
143	0xbb128012	-0.0022354168
144	0xbb71f7ec	-0.0036921455
145	0xbd0ed075	-0.03486677
146	0x3a2efd57	0.0006675324
147	0x3bbfe454	0.0058560763
148	0xbc6cf571	-0.014462815
149	0x3d343a7f	0.0440011
150	0xbba4d6c2	-0.005030484
151	0x3d00e582	0.031468876
152	0xbc22a38a	-0.009926686
153	0x3bac5c69	0.0052600396
154	0x3c115c91	0.008872167
155	0xbae4ecfb	-0.0017465645
156	0xbd2edd9e	-0.04269182
157	0xbd00428a	-0.031313457
158	0xbba621a2	-0.0050699273
159	0x3bd8c01a	0.006614697
160	0xbb22a29e	-0.0024816166
161	0x3bd29ae6	0.0064271567
162	0x3c73f9ac	0.014891069
163	0xbc1cd6a1	-0.009572656
164	0x3b293997	0.002582168
165	0xbbf5649e	-0.007488801
166	0x3ae36629	0.0017349172
167	0x3a07fec4	0.00051878043
168	0xbb61a96c	-0.0034433259
169	0x3bde601d	0.00678636
170	0x3cab9541	0.020945193
171	0xbb8f35d0	-0.0043704286
172	0xbc915ac9	-0.017743485
173	0xbd17cc99	-0.037060354
174	0x3be934c2	0.007116885
175	0x3b0da4d8	0.0021613147
176	0xbc192c8c	-0.009349
177	0x3c1ed4a1	0.009694249
178	0x3aed2213	0.001809182
179	0x3b05e4e3	0.0020430617
180	0xbda06b4c	-0.07832965
181	0x3cd90252	0.026490364
182	0x3cfa4690	0.030551225
183	0xbaecd33c	-0.0018068324
184	0xbc396c48	-0.01131732
185	0xbcb177d4	-0.021663584
186	0xbba105e4	-0.0049140323
187	0x3b46008b	0.0030212726
188	0x3a7f77c4	0.00097453245
189	0xbd2ef566	-0.0427145
190	0x3c11b599	0.008893394
191	0x3bd6644d	0.0065427185
192	0xba8b1ab6	-0.0010612819
193	0xbd496d82	-0.0491767
194	0x3c185d56	0.009299597
195	0x3c39909e	0.011325983
196	0xbba16f9e	-0.004926636
197	0x3cf0a078	0.029373392
198	0x3b9f6d20	0.0048653036
199	0x3b5b0713	0.0033420965
200	0xba4e8256	-0.0007877698
201	0xbabe50e0	-0.0014519952
202	0x3b27efb4	0.0025625052
203	0x3b08cff8	0.0020875912
204	0x3d88aad0	0.06673205
205	0xbda08f27	-0.07839804
206	0x3b2d9018	0.0026483592
207	0x3ce70a2d	0.028203094
208	0xb9315125	-0.00016910264
209	0x3ccafa12	0.024777446
210	0x3c9cbca0	0.019132912
211	0x3b805a99	0.00391705
212	0xbd075e73	-0.03304906
213	0x3cb23a2e	0.021756258
214	0xbc2f3a4c	-0.010695051
215	0xbb22ae87	-0.0024823265
216	0x3d3560ce	0.044281773
217	0x3dea455a	0.11439009
218	0xbc5c8047	-0.013458318
219	0x39695d9a	0.00022255481
220	0xbbffc5d5	-0.007805566
221	0xbbc56e92	-0.006025144
222	0x3c007e06	0.007842546
223	0x3a45f742	0.0007551798
224	0xbc2d00c0	-0.010559261
225	0xbd540ae0	-0.051768184
226	0xbc89c359	-0.016816782
227	0xbbca8369	-0.006180216
228	0xbc1cdb41	-0.009573759
229	0x39e5e4a9	0.0004384865
230	0x3b9ffb6a	0.004882266
231	0xbbcc523f	-0.0062353904
232	0xbcb4e131	-0.022080036
233	0xbd3af438	-0.04564306
234	0xbc7c26a6	-0.015390074
235	0xbcdf05e7	-0.027224494
236	0xbc7d6a61	-0.015467257
237	0x3c03af9d	0.008037475
238	0x3c67d1a9	0.014149108
239	0xb96fcb4e	-0.00022868553
240	0xbc717764	-0.014737938
241	0xbd3efcb0	-0.0466277
242	0x3c0c098c	0.008547198
243	0x3c71b464	0.014752481
244	0xbd625acd	-0.055262376
245	0x3d1565fe	0.03647422
246	0x3c38b35a	0.0112732295
247	0xba331112	-0.0006830852
248	0xbc850bb4	-0.016240932
249	0xbd80e67d	-0.06293962
250	0x3c9060b9	0.017624246
251	0x3b0e09a5	0.002167323
252	0xbd50ef91	-0.05100972
253	0x3d3141ce	0.043275647
254	0x3ca65a15	0.020306626
255	0xbc7b064f	-0.015321328

FCNet.0.bias f4 [400]
0	0x3cb4ae68	0.02205582
1	0x3c8217b5	0.015880445
2	0xba6f0c9c	-0.00091190054
3	0x3ab08134	0.001346624
4	0x3d028db1	0.03187341
5	0xbc6436c5	-0.013929074
6	0xbb7b4aa3	-0.0038344047
7	0x3c240484	0.010010842
8	0xbb8e7bd1	-0.004348256
9	0x3d68badc	0.056818828
10	0xbc8c1a6a	-0.017102439
11	0x3ca2daf5	0.019879797
12	0xbbe987b1	-0.0071267714
13	0xbc129127	-0.00894574
14	0xbb11ec89	-0.002226623
15	0xbd9706a4	-0.073743135
16	0xbd1c3479	-0.03813598
17	0xbd74e356	-0.059787117
18	0xbb465ef3	-0.0030268996
19	0x3ca238da	0.0198025
20	0xbd4092ec	-0.047015116
21	0xbc50fed1	-0.012756065
22	0xbc40168e	-0.011724127
23	0xbc6f5e85	-0.014609938
24	0xba5a6d1b	-0.0008332298
25	0x3c6bec83	0.0143996505
26	0xbd7786e0	-0.06043136
27	0x3bec7a69	0.007216741
28	0x3c6f8e90	0.014621392
29	0x3b7f3a87	0.0038944797
30	0xbd794988	-0.06086114
31	0xbd704994	-0.05866392
32	0xbd2342c2	-0.039858587
33	0x3ce2e56c	0.027697287
34	0xbd62f141	-0.05540586
35	0x3c9a46cd	0.018832589
36	0xbc39ac2e	-0.011332555
37	0xbc520474	-0.0128184445
38	0xbd47135d	-0.04860245
39	0x3ae67d4a	0.0017584946
40	0xbd953264	-0.07285002
41	0xbb16e0cf	-0.002302218
42	0xbdaee694	-0.08540073
43	0x3bdd6866	0.00675683
44	0xbc3c9ec9	-0.011512467
45	0x3c8c214b	0.01710572
46	0xbc1c231c	-0.009529855
47	0x3b882d26	0.0041557727
48	0x3bd4c66a	0.0064933794
49	0xbcbe5a9f	-0.02323657
50	0xbc1d5100	-0.009601831
51	0x3cc9dede	0.024642404
52	0xbd4d8e19	-0.050184343
53	0xbc43d665	-0.011952971
54	0x3d4d1740	0.050071
55	0xbbb13fbb	-0.0054092086
56	0xbcb4b0f3	-0.022057032
57	0xbce2c1cc	-0.0276803
58	0xbc3d659a	-0.011559868
59	0xbd5bffc9	-0.053710733
60	0x3b73ab7b	0.0037181068
61	0x3c7427f8	0.014902107
62	0x3cb8f006	0.02257539
63	0x3c9bb640	0.019007802
64	0xbb24be37	-0.002513779
65	0xbc5ae668	-0.013360597
66	0x3a404387	0.0007334281
67	0x3c3821eb	0.011238555
68	0xbcb4ea25	-0.022084305
69	0x3b91d6ef	0.004450671
70	0x3cb4c888	0.022068277
71	0x3d35666e	0.044287138
72	0x3cb7534e	0.02237859
73	0x3ca8e164	0.020615287
74	0x3c25a222	0.010109456
75	0xbae5131e	-0.0017477011
76	0xbb92cc79	-0.0044799414
77	0x3d2d87dc	0.042365894
78	0x3d030da2	0.031995423
79	0xba59d2f6	-0.00083093287
80	0x3ca781b6	0.020447593
81	0x3d01dbdc	0.031703815
82	0xbd115d0c	-0.035489127
83	0xbac5f887	-0.0015103974
84	0xbba0bdf0	-0.004905455
85	0x3d08a109	0.0333567
86	0x3d1b009b	0.037842374
87	0xbb044cd0	-0.0020187385
88	0x3d920afb	0.071310006
89	0xbd8cc3e2	-0.06873299
90	0xbc9a53e1	-0.018838825
91	0x3c8d0482	0.017214064
92	0xbccf4b97	-0.025304599
93	0x3d2c9845	0.042137403
94	0x3c2e4742	0.010637106
95	0xbc0bfa26	-0.008543527
96	0x3ced1764	0.028941818
97	0xbdad2780	-0.084548
98	0x3b61cec9	0.003445553
99	0xbcb8a7eb	-0.022541007
100	0xbda6419d	-0.081179835
101	0x3c18b6eb	0.009320955
102	0x3d3dc1ed	0.04632752
103	0x3b192480	0.0023367703
104	0xbcd5207d	-0.026016468
105	0xbbbca06e	-0.0057564294
106	0xba54fe91	-0.00081250916
107	0xbdcb383b	-0.099228345
108	0xba722135	-0.00092365156
109	0x3d567b99	0.052363966
110	0xbc9fbdc9	-0.019499676
111	0xbb9744de	-0.004616364
112	0x3d3179d0	0.04332906
113	0xbc5bfaaf	-0.013426467
114	0x3c3dd7e9	0.0115871215
115	0xbda56a82	-0.080769554
116	0xbd92381c	-0.07139608
117	0xbd00630d	-0.031344462
118	0xbd316873	-0.0433125
119	0x3c9e36d0	0.019313246
120	0xbc4e91a2	-0.012607964
121	0xbb42e899	-0.002974069
122	0xba85f65e	-0.0010220518
123	0xbc6877d4	-0.0141887255
124	0x3c677336	0.0141265895
125	0x3b1fb75a	0.002437076
126	0xbd9a16a7	-0.07523852
127	0x3a4c3b3c	0.0007790809
128	0xbd33d610	-0.043905318
129	0x3d262d6e	0.04057067
130	0xbb340734	-0.0027470114
131	0xbc0f149b	-0.00873294
132	0x3d3a4d88	0.045484096
133	0xbd349120	-0.044083714
134	0x3d251f94	0.04031332
135	0xbd40c5ef	-0.047063764
136	0xbce93653	-0.028468287
137	0x3d35e26c	0.044405386
138	0xbd6556eb	-0.055991095
139	0xbc15cd79	-0.009143227
140	0x3ac1a6a0	0.001477439
141	0xbd3ef70b	-0.046622317
142	0x3d21e69e	0.039526574
143	0x3c3353b1	0.010945247
144	0xbb18a7e5	-0.0023293432
145	0xba5c0d46	-0.0008394312
146	0x3a41cc63	0.0007392822
147	0x3b6905fb	0.0035556543
148	0x3c8570cd	0.01628914
149	0xbd0e0c04	-0.034679428
150	0xbbdbdb07	-0.0067094597
151	0xbcc80632	-0.024417017
152	0x3c0a919d	0.0084575685
153	0xbd2e379c	-0.042533502
154	0xbd3d7fd1	-0.046264473
155	0x3ca6a30b	0.020341417
156	0x3bca4eae	0.00617393
157	0xbdda1bf5	-0.10649864
158	0xbc388309	-0.01126171
159	0x3a9f48a4	0.0012152386
160	0x3d1efb71	0.038814012
161	0x3d036094	0.032074526
162	0x3d838153	0.06421151
163	0x3b06a3fa	0.0020544515
164	0xbd036894	-0.032082155
165	0x3c62f1b9	0.0138515765
166	0x3cca7a60	0.024716556
167	0xbd43f648	-0.047842294
168	0xbc2a0861	-0.010377974
169	0xbde61621	-0.112346895
170	0x3cc340fe	0.023834702
171	0xbc585023	-0.0132027
172	0xbc0f4ebc	-0.008746799
173	0x3cf75701	0.030192854
174	0x3b86fa7e	0.0041192165
175	0xbbd5af77	-0.006521161
176	0xba75dccc	-0.00093789096
177	0xbc0cd9d0	-0.008596852
178	0xbd5a16b2	-0.0532443
179	0xbc49a5d7	-0.012307606
180	0xbcd09eaf	-0.025466291
181	0xbd41502e	-0.047195606
182	0x3cce377d	0.025172943
183	0xbc92eba6	-0.017934632
184	0x3d000bec	0.03126137
185	0xbd5a47e8	-0.05329123
186	0xbcd2e1f8	-0.025742516
187	0xbaea806a	-0.0017891054
188	0xbe03c839	-0.12869348
189	0x3de7b041	0.11312915
190	0x3c8f193f	0.017468093
191	0x3b71807e	0.003685027
192	0x3d071ab0	0.032984436
193	0x3a2adcdb	0.00065178954
194	0x3c025662	0.007955166
195	0xba045631	-0.0005048244
196	0x3d4c8715	0.04993351
197	0x3ce4f20f	0.027947454
198	0xbb53c45c	-0.0032313084
199	0x3b12f134	0.00224216
200	0xbc15a1c1	-0.009132803
201	0xbd2de987	-0.042459037
202	0xbb504e4c	-0.003178495
203	0x3b0d2f99	0.0021543263
204	0xbd32e017	-0.04367074
205	0xbd1def22	-0.038558133
206	0x3bcaf245	0.0061934316
207	0xbaf2944b	-0.001850733
208	0x3d1afbc0	0.037837744
209	0xbd2eb77c	-0.042655453
210	0xbbe927fe	-0.007115363
211	0xb9b00bbb	-0.00033578076
212	0xbd2b48e9	-0.04181758
213	0xbb940de7	-0.004518259
214	0x3b55eee1	0.0032643604
215	0x3caf381e	0.021389063
216	0x3d1019e4	0.03518094
217	0x3d496c40	0.0491755
218	0xbc3efa76	-0.011656394
219	0xbc161bf6	-0.00916194
220	0xbc91ca13	-0.017796552
221	0xbd29513a	-0.04133723
222	0x3b4b0ef4	0.0030984255
223	0xbd395451	-0.045246426
224	0xbd8bef37	-0.06832736
225	0xbd149847	-0.036278035
226	0xbd84d411	-0.06485761
227	0xbde563d1	-0.11200679
228	0xbca6929b	-0.020333579
229	0xbd18f78d	-0.037345458
230	0x3d964877	0.0733804
231	0xbc77174e	-0.01508124
232	0x3cfde971	0.030995103
233	0x3c733899	0.014845037
234	0x3d4488d8	0.047982067
235	0x3d2ce2fd	0.04220866
236	0xbbb13442	-0.005407841
237	0x3d25bcbc	0.040463194
238	0x3b8943c5	0.004188987
239	0xbc3c576e	-0.011495454
240	0xbcb77338	-0.022393808
241	0xbd0397f7	-0.032127347
242	0x3ba76b8e	0.005109257
243	0x3d008606	0.031377815
244	0x3b46b5c0	0.0030320734
245	0x3c87fc57	0.016599817
246	0xbcd7db62	-0.026349727
247	0x3c381113	0.01123454
248	0xbc061b1d	-0.008185175
249	0xbc40e7c2	-0.011774005
250	0xbc4c9d19	-0.012488627
251	0xbb4e6dea	-0.003149862
252	0xbc7f8861	-0.01559648
253	0x3d01fb04	0.031733528
254	0x3dd3b977	0.10338109
255	0xba5e7874	-0.0008486577

FCNet.1.weight f4 [400]
0	0x3f83c295	1.0293757
1	0x3f6dda1b	0.9291093
2	0x3f6ba89e	0.92054164
3	0x3f659e33	0.8969452
4	0x3f7cd0c8	0.98756075
5	0x3f72ca4d	0.94839936
6	0x3f8508f0	1.0393353
7	0x3f7391a0	0.9514408
8	0x3f61ad2f	0.8815488
9	0x3f8c9c5b	1.0985216
10	0x3f83b974	1.0290971
11	0x3f805f5b	1.00291
12	0x3f76a2c7	0.9634213
13	0x3f6829f8	0.9068904
14	0x3f6c506f	0.9231023
15	0x3f8db1c3	1.1069874
16	0x3f818094	1.0117364
17	0x3f8675ad	1.0504662
18	0x3f68e378	0.9097209
19	0x3f835a9b	1.0262026
20	0x3f81b333	1.0132812
21	0x3f6d8fae	0.9279736
22	0x3f718501	0.9434357
23	0x3f6b7b65	0.9198516
24	0x3f69537a	0.91143
25	0x3f7b29c6	0.98110616
26	0x3f76f056	0.96460474
27	0x3f6697cd	0.9007538
28	0x3f695deb	0.9115893
29	0x3f5fb9e3	0.87393016
30	0x3f8cdca6	1.1004837
31	0x3f780c3e	0.9689368
32	0x3f81415f	1.0098075
33	0x3f81dd19	1.0145599
34	0x3f7f7f9a	0.9980408
35	0x3f81ab3e	1.0130384
36	0x3f64f103	0.89430255
37	0x3f6b9d58	0.9203696
38	0x3f75e3af	0.9605054
39	0x3f731109	0.9494787
40	0x3f80d0bb	1.00637
41	0x3f673208	0.90310717
42	0x3f824a9f	1.0179023
43	0x3f63aedd	0.88938695
44	0x3f715113	0.94264334
45	0x3f82ec9e	1.022846
46	0x3f742465	0.95368034
47	0x3f631de3	0.8871748
48	0x3f678ebd	0.90452176
49	0x3f6abe73	0.9169685
50	0x3f71db08	0.9447484
51	0x3f7e8d41	0.99434286
52	0x3f7b9281	0.9827042
53	0x3f75e68c	0.9605491
54	0x3f872afb	1.0559992
55	0x3f66e4e5	0.90193015
56	0x3f7be141	0.98390585
57	0x3f754848	0.9581342
58	0x3f74ff0c	0.9570167
59	0x3f78348c	0.9695518
60	0x3f66304c	0.89917445
61	0x3f6a76db	0.9158761
62	0x3f6e8bb6	0.9318193
63	0x3f6ee7c4	0.93322396
64	0x3f71c758	0.944448
65	0x3f8457ef	1.0339335
66	0x3f7223b7	0.94585747
67	0x3f6f02e4	0.93363786
68	0x3f7a4d4f	0.97774214
69	0x3f7d61a8	0.98977137
70	0x3f79cfae	0.9758252
71	0x3f8281bb	1.0195841
72	0x3f79f183	0.9763414
73	0x3f81397a	1.0095665
74	0x3f6ac7b7	0.9171099
75	0x3f668796	0.9005064
76	0x3f5f53e7	0.872374
77	0x3f7d16a5	0.9886268
78	0x3f82caca	1.0218136
79	0x3f7270b9	0.9470325
80	0x3f7e4be6	0.9933456
81	0x3f87b0cc	1.0600829
82	0x3f7b07a1	0.98058516
83	0x3f6bae50	0.92062855
84	0x3f665704	0.89976525
85	0x3f886aee	1.0657632
86	0x3f7eb37a	0.9949261
87	0x3f64011d	0.890642
88	0x3f88f551	1.0699865
89	0x3f813ca2	1.0096629
90	0x3f7b8b43	0.9825937
91	0x3f7f8305	0.99809295
92	0x3f75c950	0.96010303
93	0x3f867edb	1.0507463
94	0x3f70a2c4	0.9399836
95	0x3f8091f8	1.0044546
96	0x3f74105f	0.9533748
97	0x3f83a922	1.028599
98	0x3f6d8f7b	0.9279706
99	0x3f6c804a	0.92383254
100	0x3f7e5921	0.9935475
101	0x3f6088bd	0.87708646
102	0x3f7e54cf	0.9934816
103	0x3f649891	0.892953
104	0x3f750836	0.95715654
105	0x3f70b347	0.94023556
106	0x3f65d143	0.89772433
107	0x3f8fae4e	1.1225069
108	0x3f6e96f1	0.9319907
109	0x3f86a4f1	1.0519086
110	0x3f732c31	0.94989306
111	0x3f68cc76	0.9093698
112	0x3f8985b6	1.074393
113	0x3f67f731	0.9061156
114	0x3f701e32	0.93796074
115	0x3f812648	1.0089808
116	0x3f89e955	1.0774332
117	0x3f746853	0.95471686
118	0x3f860c30	1.0472469
119	0x3f78c425	0.9717429
120	0x3f7d9115	0.990495
121	0x3f6681be	0.9004172
122	0x3f6e9bc0	0.93206406
123	0x3f6dda4b	0.92911214
124	0x3f6ed0f4	0.9328759
125	0x3f7042e9	0.93852097
126	0x3f84d88d	1.0378586
127	0x3f619c98	0.8812957
128	0x3f83c401	1.0294191
129	0x3f879b4e	1.059427
130	0x3f63d6f3	0.8899986
131	0x3f7658a3	0.96229
132	0x3f846784	1.034409
133	0x3f793ebf	0.9736137
134	0x3f7d7cfb	0.9901883
135	0x3f7b2ac7	0.9811215
136	0x3f7e7537	0.99397606
137	0x3f8b9338	1.0904303
138	0x3f84ddef	1.0380229
139	0x3f6f4502	0.9346467
140	0x3f679bd6	0.9047216
141	0x3f7f4950	0.9972124
142	0x3f8067d9	1.0031692
143	0x3f6946bc	0.9112356
144	0x3f674562	0.90340245
145	0x3f7e2ef9	0.99290425
146	0x3f6dddbc	0.92916465
147	0x3f71772a	0.94322455
148	0x3f671d72	0.90279305
149	0x3f816d37	1.0111455
150	0x3f684f26	0.9074577
151	0x3f79e006	0.9760746
152	0x3f69a3dd	0.9126566
153	0x3f7f3bba	0.9970051
154	0x3f795e48	0.97409487
155	0x3f73ac50	0.95184803
156	0x3f6e378e	0.9305352
157	0x3f882906	1.0637519
158	0x3f7481b1	0.95510393
159	0x3f6f110d	0.9338539
160	0x3f841aa9	1.0320636
161	0x3f8596fa	1.0436699
162	0x3f8683ab	1.0508932
163	0x3f72bee7	0.94822544
164	0x3f85659f	1.0421637
165	0x3f71e3ae	0.94488037
166	0x3f6aa884	0.91663384
167	0x3f7978ee	0.9745015
168	0x3f633493	0.88752097
169	0x3f8cb411	1.0992452
170	0x3f7c1aa2	0.9847814
171	0x3f639f7b	0.8891522
172	0x3f6a7c8f	0.9159631
173	0x3f7a522b	0.9778163
174	0x3f6f3228	0.9343591
175	0x3f6c9db4	0.92428136
176	0x3f6d9887	0.92810863
177	0x3f6eeb98	0.9332824
178	0x3f7bbd7e	0.9833602
179	0x3f7550c8	0.9582639
180	0x3f74f080	0.95679474
181	0x3f851198	1.0395994
182	0x3f80a77f	1.0051116
183	0x3f81c8de	1.0139425
184	0x3f83dcc6	1.030175
185	0x3f7ae3f5	0.98004085
186	0x3f7d6aef	0.9899129
187	0x3f6cdb80	0.9252243
188	0x3f9538aa	1.1657917
189	0x3f8d45e7	1.1036958
190	0x3f776790	0.966424
191	0x3f6069dd	0.87661535
192	0x3f841e6c	1.0321784
193	0x3f5f3df7	0.87203926
194	0x3f6cd68e	0.92514884
195	0x3f60f420	0.87872505
196	0x3f823f91	1.0175649
197	0x3f7ef159	0.9958702
198	0x3f6b885c	0.9200494
199	0x3f6ea6ac	0.9322307
200	0x3f734892	0.9503261
201	0x3f7bf50f	0.98420805
202	0x3f644963	0.8917448
203	0x3f61288f	0.8795251
204	0x3f75ac5b	0.9596612
205	0x3f7983ac	0.9746654
206	0x3f66e250	0.90189075
207	0x3f6248d8	0.883924
208	0x3f825d5f	1.0184745
209	0x3f7e26a5	0.99277717
210	0x3f641511	0.89094645
211	0x3f68986b	0.9085757
212	0x3f833728	1.0251207
213	0x3f6d6064	0.92725205
214	0x3f5db51c	0.86604476
215	0x3f802512	1.0011313
216	0x3f82b223	1.0210613
217	0x3f7f7ea0	0.9980259
218	0x3f701367	0.93779606
219	0x3f6a1a94	0.91446805
220	0x3f75f95b	0.9608361
221	0x3f8136e2	1.0094874
222	0x3f69040a	0.9102179
223	0x3f784aca	0.9698912
224	0x3f94682c	1.1594291
225	0x3f7d8372	0.99028695
226	0x3f81bea6	1.0136306
227	0x3f90435c	1.1270556
228	0x3f80be36	1.0058048
229	0x3f847b48	1.0350122
230	0x3f854f60	1.0414848
231	0x3f73326b	0.94998807
232	0x3f849d01	1.0360414
233	0x3f679595	0.9046262
234	0x3f7fcb5b	0.9991967
235	0x3f87911e	1.0591161
236	0x3f5d9fea	0.86572134
237	0x3f731964	0.9496062
238	0x3f6799df	0.90469164
239	0x3f6b6caa	0.91962683
240	0x3f80bf08	1.0058298
241	0x3f86fc7e	1.0545805
242	0x3f5dd846	0.8665813
243	0x3f8565c7	1.0421685
244	0x3f617669	0.88071305
245	0x3f77561e	0.9661578
246	0x3f7eca88	0.9952779
247	0x3f6beb94	0.9215634
248	0x3f6de390	0.9292536
249	0x3f70f425	0.94122535
250	0x3f7392fb	0.9514615
251	0x3f5355d4	0.8255284
252	0x3f7756f5	0.9661706
253	0x3f831846	1.0241783
254	0x3f8db158	1.1069746
255	0x3f588495	0.84577304

FCNet.1.bias f4 [400]
0	0x3bd6a03c	0.006549863
1	0xbd51efed	-0.0512542
2	0xbd8a2fff	-0.06747436
3	0xbd6b5378	-0.05745265
4	0xbccc1496	-0.02491216
5	0xbd868480	-0.06568241
6	0xbd8b792f	-0.06810223
7	0xbd3ab264	-0.045580283
8	0xbdec0628	-0.11524612
9	0xbc4eea22	-0.012629064
10	0xbcf362fe	-0.02971029
11	0xbc277664	-0.010221098
12	0xbd891e80	-0.066952705
13	0xbd97ceae	-0.07412468
14	0xbd3abb99	-0.045589063
15	0xbd5a42b0	-0.053286254
16	0xbc9111f5	-0.017708758
17	0xbd58d351	-0.052935902
18	0xbd48470a	-0.048895873
19	0xbc62c53e	-0.0138409715
20	0xbd4e9ad8	-0.05044064
21	0xbd9867e2	-0.07441689
22	0xbd37c112	-0.04486186
23	0xbd8ae662	-0.06782223
24	0xbda36cf9	-0.07979769
25	0xbd181c88	-0.037136585
26	0xbd6a73f7	-0.0572395
27	0xbd78414d	-0.06060915
28	0xbd0aa2f1	-0.0338468
29	0xbd8ce69a	-0.06879921
30	0xbd4b712d	-0.04966848
31	0xbd8fedcf	-0.0702778
32	0xbd343c81	-0.044003014
33	0xbce25949	-0.027630465
34	0xbd33436f	-0.04376548
35	0xbd085f67	-0.033294108
36	0xbd857d16	-0.06517999
37	0xbd81826f	-0.06323706
38	0xbd6e94c5	-0.058247346
39	0xbd08afa7	-0.03337064
40	0xbd5e506e	-0.054275922
41	0xbdb01605	-0.0859795
42	0xbd6be626	-0.057592534
43	0xbd2f7c64	-0.042843238
44	0xbd883123	-0.06649997
45	0x3c1a22cb	0.009407709
46	0xbd58467b	-0.05280159
47	0xbd833dbd	-0.0640826
48	0xbd59055a	-0.05298362
49	0xbd8c2e54	-0.06844774
50	0xbd97a601	-0.074047096
51	0xbd08114b	-0.033219617
52	0xbcc53ce1	-0.02407688
53	0xbd4e9c31	-0.050441924
54	0x3c9e7f35	0.019347766
55	0xbd7675d9	-0.060170982
56	0xbd332737	-0.04373857
57	0xbd5d224e	-0.053987794
58	0xbd41eeb1	-0.047346774
59	0xbd2bd392	-0.041949816
60	0xbd63729c	-0.055529222
61	0xbd177f04	-0.036986366
62	0xbcc2c106	-0.023773681
63	0xbd2b47b7	-0.04181644
64	0xbde15e46	-0.11004309
65	0xb998b2c8	-0.00029124902
66	0xbd01b6cf	-0.03166848
67	0xbd596536	-0.053075038
68	0xbd5987e6	-0.05310812
69	0xbc56d47e	-0.0131121855
70	0xbcf0176b	-0.029308042
71	0xbc884457	-0.01663415
72	0xbd086c95	-0.033306677
73	0xbcfa9308	-0.030587688
74	0xbd3a20b2	-0.045441337
75	0xbe12904d	-0.14312859
76	0xbd7dc321	-0.061953668
77	0xbc9219c9	-0.017834561
78	0xbcd9d6c2	-0.026591662
79	0xbd1c921c	-0.03822528
80	0xbd3c587a	-0.045982815
81	0xbd8cffe1	-0.068847425
82	0xbd40f0d2	-0.047104664
83	0xbdf3cf7d	-0.119048096
84	0xbd825fcd	-0.06365929
85	0xbd50e3dc	-0.050998554
86	0x3b45cfc4	0.0030183652
87	0xbdb4b7f0	-0.08824146
88	0x3d2745a9	0.040837917
89	0xbd35d54f	-0.04439288
90	0xbd32980d	-0.04360204
91	0x3b410672	0.0029453305
92	0xbd2fc264	-0.042909995
93	0xbd20c13a	-0.039246775
94	0xbd3c9de9	-0.046049032
95	0xbd5577fc	-0.05211638
96	0xbca59c38	-0.020216092
97	0xbd4d36f4	-0.050101236
98	0xbdfbe627	-0.122997575
99	0xbd70efda	-0.05882249
100	0xbd883573	-0.0665082
101	0xbd668acf	-0.056284722
102	0x3b4f6f1e	0.0031651924
103	0xbd45704a	-0.04820279
104	0xbd68a239	-0.056795333
105	0xbde43ed3	-0.11144795
106	0xbd3d4bde	-0.04621493
107	0xbd3ee05d	-0.04660069
108	0xbd17fa4a	-0.03710393
109	0x3c9ff227	0.019524647
110	0xbd9735e5	-0.073833264
111	0xbd9c8da2	-0.07644202
112	0x3c90d12c	0.017677866
113	0xbd733081	-0.05937243
114	0xbd752174	-0.059846357
115	0xbd700131	-0.058594886
116	0xbd56e951	-0.0524686
117	0xbcf738c5	-0.030178437
118	0xbca735dd	-0.020411426
119	0xbcc6113c	-0.02417814
120	0xbcfc3069	-0.030784803
121	0xbd531931	-0.051537696
122	0xbdfad079	-0.12246794
123	0xbd891300	-0.06693077
124	0xbd65007e	-0.055908673
125	0xbd05623d	-0.03256439
126	0xbdb5a771	-0.088698275
127	0xbd860ad6	-0.065450355
128	0xbd9ef2df	-0.07761168
129	0x3b50f9a9	0.003188709
130	0xbd552fa9	-0.052047405
131	0xbd7fab97	-0.0624195
132	0x3c34b44b	0.011029313
133	0xbd6d8c66	-0.057995223
134	0xb9a2095f	-0.0003090603
135	0xbd4c79d9	-0.04992089
136	0xbd504f11	-0.050856654
137	0xbd3b5b7e	-0.04574155
138	0xbd4e914a	-0.050431527
139	0xbd97bba7	-0.07408839
140	0xbd3c3af4	-0.04595466
141	0xbd61249e	-0.05496656
142	0xbb9bc275	-0.0047534057
143	0xbd30d13b	-0.043168288
144	0xbd63f52f	-0.055653747
145	0xbcb7f8b8	-0.022457466
146	0xbd8653ee	-0.06558977
147	0xbd686ebc	-0.05674623
148	0xbd843ebb	-0.064572774
149	0xbca63c49	-0.020292418
150	0xbd7ddb06	-0.061976455
151	0xbd5244cd	-0.051335145
152	0xbd3eef5f	-0.046615
153	0xbd60a4ea	-0.054844774
154	0xbd0b57f7	-0.034019437
155	0xbd35a409	-0.04434589
156	0xbd0f9b3a	-0.035060145
157	0xbd3bf754	-0.045890167
158	0xbce99e33	-0.028517818
159	0xbd13e538	-0.036107272
160	0x3beaa697	0.0071609723
161	0x3c711df8	0.014716618
162	0x3c1eb646	0.009687012
163	0xbd43168a	-0.047628917
164	0xbd6e99b5	-0.058252055
165	0xbd2b8d95	-0.04188307
166	0xbd625068	-0.055252463
167	0xbd05566c	-0.03255312
168	0xbdb528da	-0.088456824
169	0xbd758abf	-0.05994677
170	0xbc8fb24b	-0.017541071
171	0xbd875555	-0.06608073
172	0xbdab0fa2	-0.08352591
173	0xbc7327db	-0.014841045
174	0xbddde3f9	-0.10834498
175	0xbd40eb05	-0.047099132
176	0xbdba7d92	-0.09105982
177	0xbd25f327	-0.04051509
178	0xbd085e0e	-0.033292823
179	0xbd46eaf6	-0.04856392
180	0xbcfe04d3	-0.03100816
181	0xbd5eff96	-0.054442964
182	0xbc2b9e23	-0.010474714
183	0xbd9535ac	-0.07285628
184	0x3c5d9040	0.013523161
185	0xbd1a2c61	-0.03763998
186	0xbd138ad1	-0.036021058
187	0xbd89f3b3	-0.06735935
188	0xbd83aa30	-0.06428945
189	0x3da6dfd3	0.0814816
190	0xbd537288	-0.051622897
191	0xbe0c4973	-0.13699894
192	0xbd23f4e5	-0.04002847
193	0xbdc769c8	-0.09736973
194	0xbd72a7e4	-0.059242144
195	0xbd9e8fca	-0.07742269
196	0x3c219a47	0.009863443
197	0xbcd973ff	-0.026544569
198	0xbdaaa8f7	-0.08333009
199	0xbded38d8	-0.11583108
200	0xbd9672c5	-0.07346109
201	0xbd42f520	-0.04759705
202	0xbe006819	-0.1253971
203	0xbdd941bc	-0.10608241
204	0xbd10fcd7	-0.035397377
205	0xbd648e00	-0.055799484
206	0xbd7ce953	-0.061745953
207	0xbd9ebd54	-0.07750955
208	0xbb17ff64	-0.0023192996
209	0xbd5eb68f	-0.05437332
210	0xbd995a9d	-0.07487986
211	0xbe030d01	-0.1279793
212	0xbd4f2f5a	-0.050582267
213	0xbdb46a96	-0.08809392
214	0xbd784adb	-0.060618263
215	0xbcd8e5e0	-0.0264768
216	0xbbd5ed7e	-0.0065285554
217	0xbb9be660	-0.0047576874
218	0xbd80c8af	-0.06288277
219	0xbd823d4a	-0.06359346
220	0xbd407036	-0.046982013
221	0xbd3df660	-0.04637754
222	0xbd52a123	-0.051423203
223	0xbd5a0939	-0.05323145
224	0xbd67ba18	-0.056573957
225	0xbd555fd8	-0.052093357
226	0xbd2640e9	-0.040589247
227	0xbd45736c	-0.048205778
228	0xbcfc27d8	-0.030780718
229	0xbc8480d0	-0.016174704
230	0x3cb10231	0.02160749
231	0xbd7319b7	-0.059350695
232	0xbd773a0f	-0.060358103
233	0xbd531f8c	-0.051543757
234	0xbba66abf	-0.005078643
235	0x3b3df82c	0.0028987033
236	0xbdaf9525	-0.08573369
237	0xbcb2e58a	-0.021837968
238	0xbd926dd4	-0.07149854
239	0xbd570692	-0.0524965
240	0xbd6c6232	-0.057710834
241	0xbd4d4a89	-0.05011991
242	0xbd7c23ac	-0.061557457
243	0x3cdc20c9	0.026871102
244	0xbd48b651	-0.049001995
245	0xbcf79a99	-0.030225085
246	0xbd58be72	-0.052915998
247	0xbd1ed980	-0.038781643
248	0xbd8e061f	-0.06934761
249	0xbda3b432	-0.07993354
250	0xbd5c1023	-0.053726327
251	0xbe281af0	-0.16416526
252	0xbd457a57	-0.048212375
253	0x381b3e92	3.7013153e-05
254	0x3d746e58	0.059675545
255	0xbdc117f2	-0.09428395

FCNet.3.weight f4 [300, 400]
0	0x3ae59e38	0.0017518466
1	0x3c3681b5	0.011139323
2	0x3c10a6aa	0.008828798
3	0x3bc28472	0.005936199
4	0x3bf9af2d	0.0076197595
5	0x3bdb0012	0.006683358
6	0x3cedbc44	0.029020436
7	0x3be3c209	0.006950621
8	0x3b442332	0.0029928205
9	0x3d36d2d6	0.044634663
10	0x3be5d7bf	0.0070142443
11	0x3bb7b472	0.0056062276
12	0xbba96f98	-0.0051707737
13	0xbcc6339d	-0.024194533
14	0x3b089fcc	0.00208472
15	0x3ba5347d	0.0050416575
16	0x3c917508	0.017756
17	0x3b08edda	0.0020893724
18	0x3bf86ca5	0.007581311
19	0x3cdf5c8f	0.027265815
20	0x3bae4fb3	0.0053195595
21	0xbac6577e	-0.0015132276
22	0x3bd5318d	0.006506151
23	0x3b8c1ecf	0.0042761336
24	0x3bc56b2d	0.0060247392
25	0x3ba79480	0.005114138
26	0xbd2e6da5	-0.042585034
27	0x3b5c689a	0.0033631683
28	0x3bcdc8a6	0.0062800227
29	0x3bc5e7fb	0.006039617
30	0xbc1424d1	-0.009041981
31	0xbd6b0d2d	-0.057385612
32	0x3b2353b6	0.0024921722
33	0x3bf647e3	0.007515894
34	0xbd9c7256	-0.07638995
35	0x3c05edbe	0.008174358
36	0xbbadec93	-0.005307743
37	0x3b1cca3b	0.002392425
38	0xbd288d40	-0.04115033
39	0x3ba99fad	0.0051765055
40	0xbda68fda	-0.08132906
41	0x3c0f6b9b	0.0087536825
42	0xbd8f1825	-0.06987027
43	0x3bed529f	0.007242515
44	0x3c048220	0.008087665
45	0x3d1d3b00	0.038386345
46	0x3c0f56c6	0.008748716
47	0x3b8475b3	0.004042351
48	0x3c01d075	0.007923235
49	0x3bdeec5d	0.006803079
50	0x3c07be34	0.008285094
51	0x3c176de0	0.009242505
52	0xbd00934b	-0.03139047
53	0xbbaeb6dd	-0.0053318576
54	0x3bca12c6	0.0061667887
55	0x3b644ce4	0.003483587
56	0x3c18cec3	0.00932664
57	0xbcab054a	-0.020876545
58	0x3bb35103	0.005472304
59	0x3b940186	0.004516783
60	0x3b7e29e0	0.0038782284
61	0x3c1aecf8	0.009455912
62	0x3c0fcb20	0.008776456
63	0x3c25d27c	0.010120984
64	0x3bd90f4e	0.006624139
65	0x3c812d2f	0.015768616
66	0x3c01399f	0.007887273
67	0x3c2568a7	0.010095752
68	0x3bef08f2	0.0072947675
69	0xba53959f	-0.00080713065
70	0x3b6b74ee	0.003592785
71	0x3c12066a	0.008912662
72	0x3b8546c9	0.004067276
73	0x3c048fc1	0.008090914
74	0x3c47f172	0.012203561
75	0x3c59a977	0.0132850325
76	0xbb8f13a9	-0.0043663573
77	0x3b900e59	0.0043962416
78	0x3b8e3561	0.0043398594
79	0xb84eddb2	-4.9320697e-05
80	0xbc14dc8a	-0.009085784
81	0x3d01c94d	0.031686116
82	0x3c0756aa	0.008260408
83	0x3c32eb07	0.010920293
84	0x3b34fb09	0.002761545
85	0x3d0bc6a8	0.034125
86	0xbc84b45f	-0.016199289
87	0x3bb0cc2b	0.0053954325
88	0xbcd15bce	-0.025556471
89	0xbd94ffb2	-0.072753325
90	0x3b905765	0.0044049495
91	0x3c00f7c8	0.007871576
92	0xbcab5744	-0.020915635
93	0x3cf3ad36	0.02974568
94	0x3bcd3634	0.006262565
95	0x3bb7d271	0.0056098034
96	0x3c56fd8b	0.013121973
97	0xbda17adc	-0.07884762
98	0x3b613ae7	0.0034367384
99	0x3c0d1775	0.00861155
100	0xbd47f716	-0.048819624
101	0x3bb43e7d	0.0055006132
102	0xbc269353	-0.010166961
103	0x3b09b8e9	0.0021014756
104	0x3be0f3db	0.0068650073
105	0xbbbf96e2	-0.005846844
106	0x3b8e0e99	0.0043352363
107	0xbe4fc0b0	-0.20288348
108	0x3aecf3ca	0.0018078026
109	0xbb0a13f2	-0.0021069017
110	0x3bf01f2c	0.0073279347
111	0x3bd90747	0.006623182
112	0x3c92409f	0.01785308
113	0x3b3e2334	0.0029012682
114	0x3b0b1e51	0.0021227787
115	0xbdc112d3	-0.094274186
116	0xbc93433f	-0.017976401
117	0xbcb656dc	-0.022258215
118	0x3bdfebc7	0.006833527
119	0x3b7e05aa	0.00387607
120	0x3be57f35	0.0070036897
121	0x3b972635	0.004612709
122	0x3bdacfa7	0.006677586
123	0x3bb70adc	0.0055860113
124	0x3af7c67b	0.0018903756
125	0x3bd2cce4	0.0064331163
126	0x3ba4c74d	0.0050286413
127	0x3bd2f30c	0.006437665
128	0x3b295a11	0.0025841037
129	0x3caed76c	0.021342956
130	0x3bb07d06	0.0053859977
131	0xbc2b1700	-0.010442495
132	0x3b7cfa3e	0.0038601304
133	0xbd1a2fee	-0.037643366
134	0xbc91af5a	-0.01778381
135	0xbd60d4f3	-0.054890584
136	0x3ae9a616	0.0017825987
137	0x3d01cdb4	0.031690314
138	0xbd3e2c87	-0.046429183
139	0x3ba315da	0.00497697
140	0x3c0d4ded	0.008624536
141	0x3ad83624	0.0016495627
142	0xbb26003c	-0.002532973
143	0x3c122e88	0.008922227
144	0x3c094600	0.008378506
145	0x3c3a92fc	0.011387583
146	0x3bcc4756	0.00623409
147	0x3b88aeb6	0.004171218
148	0xbc6ee87a	-0.014581794
149	0xbc8aaefa	-0.016929138
150	0x3b537708	0.0032266993
151	0x3bb17fc1	0.005416841
152	0x3bd01d8a	0.0063511776
153	0x3aaecad6	0.0013335596
154	0xbd29dc22	-0.0414697
155	0x3c0748a9	0.00825707
156	0x3bd9bede	0.0066450676
157	0xbcc4af24	-0.024009295
158	0x3bd92653	0.006626883
159	0x3b7ab87f	0.003825694
160	0xbba8f834	-0.0051565412
161	0x3bcea439	0.006306198
162	0xbc502dd2	-0.012706237
163	0x3bfcd139	0.007715371
164	0xba821178	-0.0009923419
165	0x3a936517	0.0011245337
166	0x3b6d7c46	0.0036237403
167	0xbd2081f8	-0.039186448
168	0x3baf0666	0.005341339
169	0xbc423d2c	-0.011855405
170	0x3b9b3457	0.004736464
171	0x3bb8ffc0	0.005645722
172	0x3b84fefb	0.0040587164
173	0x3c836e4d	0.016043806
174	0x3c88441f	0.016634045
175	0x3bc505a0	0.0060126334
176	0x3ba91d2d	0.0051609487
177	0x3b0c906a	0.0021448382
178	0xbd5620e5	-0.052277464
179	0xbc0ae417	-0.008477232
180	0xbb56752a	-0.0032723644
181	0x3b02ca28	0.001995692
182	0x3cc422b4	0.023942329
183	0xbd20ff14	-0.03930576
184	0x3c6f5370	0.014607295
185	0xbd66b909	-0.056328807
186	0x3bb75779	0.0055951444
187	0x3bebf123	0.0072003766
188	0xbe1e14cb	-0.1543762
189	0xbd093f32	-0.033507533
190	0xbb9ad06b	-0.0047245524
191	0x3b40ee64	0.0029438967
192	0x3cab4fec	0.020912133
193	0xbc1fa385	-0.009743576
194	0x3b86c1c4	0.004112454
195	0x3bed2332	0.0072368616
196	0xbc640d6e	-0.0139192175
197	0x38ed7a44	0.000113238144
198	0x3be58ab6	0.007005061
199	0x3c10995d	0.008825627
200	0x3bc9be1a	0.006156695
201	0x3bd12859	0.0063829836
202	0x3c0337ec	0.008008938
203	0x3b9f7bd1	0.004867055
204	0xbd317dc3	-0.043332826
205	0x3be77b39	0.00706425
206	0x3ba0c84b	0.0049066893
207	0x3c06f8bb	0.008238013
208	0xbb498b71	-0.003075328
209	0xbd7cf98e	-0.06176143
210	0x3b6971c9	0.00356208
211	0x3c44b8c2	0.01200694
212	0x3b63e571	0.003477421
213	0x3bbcb7f1	0.005759232
214	0x3be4bfc9	0.0069808704
215	0x3afc3fd0	0.0019245092
216	0x3c89e985	0.016834984
217	0xbc02169f	-0.007939964
218	0x3beb0ae8	0.007172931
219	0x3bd26b23	0.006421463
220	0x3b71f255	0.0036918123
221	0x3bbe6561	0.005810425
222	0x3b10bf70	0.0022086762
223	0x3b725092	0.0036974293
224	0xbccef827	-0.025264813
225	0x3b4916e0	0.00306838
226	0xbd7a692c	-0.061135456
227	0xbe0d2e4e	-0.13787195
228	0x3bbc797f	0.005751788
229	0x3b11dd52	0.0022257161
230	0xbc6f452a	-0.014603892
231	0x3bae50d0	0.005319692
232	0x3cefcc68	0.029272273
233	0x3b8da2be	0.004322379
234	0xbc048a9d	-0.008089689
235	0x3ca95a8d	0.02067306
236	0x3b30c724	0.0026974166
237	0xbbc73f1c	-0.0060805213
238	0x3b99ead1	0.0046971818
239	0x3b985c61	0.0046496843
240	0x3b0c26c9	0.0021385422
241	0xb992cdf5	-0.0002800074
242	0x3b9c3dfa	0.0047681304
243	0x3cedc68d	0.02902534
244	0x3b6b837a	0.003593652
245	0x3a75b14a	0.00093724264
246	0x3b771be9	0.0037705845
247	0x3bcb44bb	0.0062032617
248	0x3b8b8100	0.0042573214
249	0x3b528a3e	0.0032125856
250	0x3bef69dc	0.0073063206
251	0x3bca6e84	0.0061777253
252	0x3aa757d2	0.0012767261
253	0xbc7527e8	-0.014963128
254	0xbd108ad4	-0.035288647
255	0x3b8e2f71	0.0043391516

FCNet.3.bias f4 [300]
0	0x3b940cc1	0.004518122
1	0xbbff5dd3	-0.007793167
2	0xbba69823	-0.005084054
3	0xbbf793e7	-0.007555473
4	0xbc20a772	-0.009805547
5	0xbc74819d	-0.01492348
6	0xbc1f1b4e	-0.0097111
7	0xbc10bea1	-0.008834512
8	0xbc04b6fb	-0.008100267
9	0x3b6b9b94	0.0035950886
10	0x3b572bdc	0.0032832539
11	0xbcd3a5c2	-0.025835875
12	0x3b9715b1	0.00461074
13	0xbbc933b7	-0.006140198
14	0xb98e650f	-0.00027159645
15	0x3bd026f3	0.0063522994
16	0x3c6acaf7	0.014330617
17	0x3b86176d	0.004092148
18	0xbc189477	-0.0093127405
19	0xbb8706ef	-0.0041206996
20	0xbc0c6454	-0.008568842
21	0xbc02333d	-0.0079467865
22	0x39b55563	0.00034586628
23	0xbc23307a	-0.009960288
24	0x3c0638c0	0.008192241
25	0xbbf38e0e	-0.0074327057
26	0x3bc4b9e5	0.0060036057
27	0x3b8bc5bf	0.0042655165
28	0x3c875a8d	0.01652267
29	0x3b0a09d9	0.0021062999
30	0x3a5752ef	0.0008213957
31	0xbc44f91c	-0.012022283
32	0xbb4f0588	-0.003158899
33	0x3b0cbd7c	0.0021475246
34	0xbcfd2a40	-0.030903935
35	0x3ba9405a	0.005165142
36	0xbbfde6d7	-0.0077484655
37	0x3c3f6088	0.01168073
38	0x3b9ac943	0.0047236993
39	0xbbf9ca4d	-0.007622993
40	0xbbfe65ab	-0.0077635846
41	0xbbfda03f	-0.00774005
42	0xbbfef0b3	-0.0077801584
43	0x3bcc18ac	0.006228527
44	0xbc842e1d	-0.01613527
45	0xbc076165	-0.008262967
46	0x3b5e85b6	0.003395421
47	0xbc123df6	-0.008925905
48	0xbce28546	-0.02765144
49	0xbc04126c	-0.008061033
50	0x3bfc4631	0.007698797
51	0x3b930cf9	0.0044876304
52	0x3c0f1a0b	0.0087342365
53	0xbc059827	-0.008153952
54	0x37aa89b4	2.0329702e-05
55	0x3c6e1ef3	0.014533746
56	0xbc048e40	-0.008090556
57	0xbc0fdd1b	-0.008780743
58	0xbcb78cdf	-0.02240604
59	0x3baa035f	0.00518839
60	0x3b3d3c7b	0.002887516
61	0x3b571cb1	0.0032823498
62	0xbc2f8e15	-0.010715027
63	0xbc94d42d	-0.01816758
64	0x3c2736fc	0.01020598
65	0xbbffda01	-0.0078079705
66	0x3bb2719e	0.005445673
67	0x3b958e72	0.0045641
68	0xbc033069	-0.008007147
69	0x3c59cc9b	0.013293411
70	0xbc0ed519	-0.008717799
71	0xbc01c54c	-0.007920574
72	0xbc673d17	-0.014113686
73	0x3c2accce	0.010424806
74	0xbbe1dcdc	-0.0068927836
75	0xbc746b1d	-0.014918116
76	0x3bd1fee4	0.006408559
77	0xbc20ebdb	-0.009821857
78	0xbc04473d	-0.008073625
79	0x39085b5d	0.00013004006
80	0x3ba3b618	0.0049960725
81	0xbc0a6c36	-0.008448651
82	0x3b88f87e	0.004180013
83	0xbb78477e	-0.003788441
84	0xbc7c8157	-0.015411696
85	0xbc1dc990	-0.009630576
86	0x3b55aa9c	0.0032602912
87	0xbc32c04d	-0.010910106
88	0xbbeca3b9	-0.0072216657
89	0xbba14313	-0.004921326
90	0x3ba15e53	0.0049245744
91	0x3bc4b006	0.006002429
92	0x3b7b37e0	0.0038332865
93	0xbc0e7e50	-0.008697107
94	0xbc80cd98	-0.015723035
95	0x3b8ff4a4	0.004393177
96	0xbc0bad7e	-0.0085252505
97	0x3bd3c39c	0.0064625274
98	0xbc10a6af	-0.008828803
99	0xbc016be5	-0.007899259
100	0xbc05f891	-0.008176939
101	0xbc3f17ae	-0.0116633605
102	0xb8557b1c	-5.0897812e-05
103	0xbc17f8b5	-0.009275605
104	0xbbed4895	-0.0072413185
105	0xbc023a7c	-0.007948514
106	0x3b967620	0.0045917183
107	0xbbed2bfc	-0.0072379094
108	0xbbacb4f8	-0.0052705966
109	0xbc146165	-0.009056424
110	0xbbfc399c	-0.0076972973
111	0x3bc456c6	0.0059917895
112	0xbc71bb54	-0.014754135
113	0x3b0dd16f	0.0021639725
114	0xbbe69087	-0.007036272
115	0xbc59c24d	-0.013290954
116	0x3b82c91b	0.003991259
117	0x3bb1c730	0.0054253563
118	0xbbfbc33c	-0.007683186
119	0xbc08bf7f	-0.0083464375
120	0xbcdc9152	-0.026924763
121	0xbc063bb5	-0.008192946
122	0xbc050a1a	-0.008120084
123	0xbb90bf5f	-0.0044173445
124	0x3b3276a3	0.0027231358
125	0x3a532905	0.00080551236
126	0xbbeecb17	-0.007287394
127	0x3b924b3d	0.0044645355
128	0xbce2b916	-0.027676146
129	0xbc115a7d	-0.008871672
130	0x3c101d0e	0.00879599
131	0x3ca0ef28	0.019645289
132	0xbc7b3c4e	-0.015334202
133	0x3b90a070	0.004413657
134	0xbc9b8678	-0.018985018
135	0xbbf96a19	-0.007611525
136	0xbbf9bc69	-0.007621337
137	0x3c3feb87	0.011713869
138	0xbc0132d6	-0.007885655
139	0xbc03dc12	-0.008048074
140	0x3b905c95	0.004405568
141	0xbbaf4e68	-0.005349923
142	0x3b8a0657	0.0042121815
143	0x3b80a118	0.003925454
144	0x3c3d8969	0.011568406
145	0x3c5a99b1	0.013342307
146	0xbc00507d	-0.00783169
147	0xbbfed738	-0.007777121
148	0x3d240737	0.040045943
149	0xbc00d52d	-0.007863325
150	0xbbf5543d	-0.0074868486
151	0xbc8b0ba7	-0.01697333
152	0xbc19592a	-0.009359637
153	0x3bac0113	0.0052491515
154	0xbc03ceba	-0.008044893
155	0xbd017264	-0.031603232
156	0x3bec780b	0.0072164587
157	0xbc0da1c9	-0.00864453
158	0xbb5a6c65	-0.0033328768
159	0xbc16cf05	-0.009204631
160	0x3c8a8ae2	0.016911928
161	0xbc1e564f	-0.009664132
162	0xbcd91444	-0.026498921
163	0x3cbce890	0.023060113
164	0x3bee487e	0.0072718253
165	0x3c86106b	0.01636525
166	0xbc08a7c0	-0.008340776
167	0xbc018334	-0.007904816
168	0xbc0908dd	-0.00836393
169	0x3cbca970	0.023030013
170	0xbc2cf633	-0.010556745
171	0x3ced35a2	0.028956238
172	0xbc13e6e0	-0.009027213
173	0x3c00524a	0.007832119
174	0xba220717	-0.0006180866
175	0x3af04eb1	0.0018333999
176	0xba499dbe	-0.0007691047
177	0x3b81f6c5	0.003966185
178	0x3c5b19c0	0.0133728385
179	0xbbb18364	-0.0054172743
180	0x3bdd7d93	0.0067593544
181	0xbc080eef	-0.008304342
182	0x3afec52f	0.0019437427
183	0xbc16cc0c	-0.009203922
184	0xba94b108	-0.0011344263
185	0xbc403cce	-0.011733247
186	0x3bed2817	0.007237445
187	0x3c78a3c9	0.015175768
188	0xbc131b90	-0.008978739
189	0x3b9958bc	0.0046797674
190	0x3b350f1e	0.0027627419
191	0x3c9eab19	0.019368695
192	0xbc01d549	-0.007924386
193	0x3b966742	0.004589946
194	0xbce3d0f2	-0.027809594
195	0xbc8ae579	-0.016955124
196	0xbbf6126b	-0.00750952
197	0x3c90f7af	0.01769623
198	0xbc9e491e	-0.019321974
199	0x3bcfe111	0.0063439687
200	0x3bc89790	0.0061215833
201	0x3b6d118e	0.0036173793
202	0x3b23ed95	0.0025013436
203	0x3c1a4492	0.0094157625
204	0xbb8e403a	-0.0043411525
205	0x3b644d8c	0.003483626
206	0xbc22688b	-0.00991262
207	0x3b8e3bd8	0.00434063
208	0x3b6088a1	0.0034261125
209	0xbbf9b1b8	-0.0076200627
210	0x3b76be4d	0.003765005
211	0xbc9bfaa6	-0.019040417
212	0xbd018bae	-0.03162735
213	0xbc1e3038	-0.009655051
214	0xbc49f33b	-0.012326057
215	0x3bca90a5	0.0061817938
216	0xbc0da786	-0.008645898
217	0x3cb5c3c7	0.02218808
218	0xbb244e30	-0.0025071017
219	0xbbac3e31	-0.005256437
220	0xbbf31c25	-0.0074191266
221	0xbcdeb25c	-0.027184658
222	0x3c49541c	0.01228812
223	0x3be392a4	0.006944971
224	0x3c177de9	0.009246328
225	0xbc3ca863	-0.011514756
226	0x3c820da4	0.015875645
227	0x3ba658d8	0.005076509
228	0xbbeb4c38	-0.007180717
229	0x3c3665dd	0.011132685
230	0xbbec71de	-0.0072157225
231	0xbb58ab01	-0.003306091
232	0xbc83f6d6	-0.016108911
233	0x3b86e509	0.0041166586
234	0xbc8489dd	-0.01617902
235	0xbc664b13	-0.014055985
236	0x3b86aa82	0.0041096816
237	0x3cc40a1b	0.0239306
238	0x3c18f665	0.009336089
239	0x3b8a1075	0.0042133876
240	0x3cef5e6a	0.029219825
241	0xbc07cea7	-0.008289016
242	0x3c7a01f1	0.015259252
243	0xbbf59d97	-0.007495593
244	0x3bd99327	0.0066398564
245	0x3ca8a28f	0.020585326
246	0xbc00bd0a	-0.00785757
247	0xbc0acddc	-0.008471932
248	0x3bb9a020	0.0056648403
249	0xbc008715	-0.007844706
250	0x3b8244a8	0.0039754696
251	0xbc01f5e5	-0.007932161
252	0xbcf66e81	-0.03008199
253	0xbba379c4	-0.004988881
254	0x3baff1a9	0.0053693843
255	0x3b9dbcc5	0.004813763

FCNet.4.weight f4 [300]
0	0x3f91f2bd	1.1402203
1	0x3f680147	0.9062695
2	0x3f752d22	0.9577199
3	0x3f7afe40	0.98044205
4	0x3f6f63cb	0.93511647
5	0x3f768e70	0.9631109
6	0x3f5cb519	0.86213833
7	0x3f984379	1.1895591
8	0x3f7e23f6	0.9927362
9	0x3fba3fc9	1.4550716
10	0x3f937e30	1.1522884
11	0x3f7e93b6	0.9944414
12	0x3f92ae69	1.1459476
13	0x3f6677df	0.9002666
14	0x3f58ed3c	0.8473699
15	0x3f93031b	1.1485323
16	0x3f97f85f	1.1872672
17	0x3f92dd7a	1.1473839
18	0x3f801b91	1.0008413
19	0x3f989b65	1.1922423
20	0x3fbf868c	1.4962935
21	0x3f742bce	0.9537934
22	0x3f9ac673	1.2091812
23	0x3f7c4478	0.98541975
24	0x3fabe215	1.342837
25	0x3f7cdf26	0.98778
26	0x3f9a186e	1.2038705
27	0x3f91ae96	1.1381404
28	0x3fa7867b	1.3087915
29	0x3f992542	1.1964495
30	0x3fb8463f	1.4396437
31	0x3f7ea564	0.99471116
32	0x3f6ad1d6	0.91726434
33	0x3f8f04eb	1.1173376
34	0x3f80ffa5	1.0078017
35	0x3f9ce156	1.2256267
36	0x3f7c77d1	0.98620325
37	0x3fa2639b	1.2686647
38	0x3f91c17d	1.1387173
39	0x3f7cb2ee	0.98710525
40	0x3f7c61e3	0.98586863
41	0x3f7de30b	0.99174565
42	0x3f75be39	0.9599338
43	0x3fa0449b	1.2520937
44	0x3f64a505	0.893143
45	0x3f7cb86a	0.98718894
46	0x3f94d42c	1.162725
47	0x3f6d7fc9	0.9277311
48	0x3f77c9be	0.9679221
49	0x3f6dc451	0.9287768
50	0x3f9cd4d9	1.2252456
51	0x3f941755	1.156962
52	0x3fabf7e4	1.3435025
53	0x3f6cfc0f	0.9257211
54	0x3f7564b3	0.9585678
55	0x3f7661ab	0.9624278
56	0x3f7ca49b	0.9868867
57	0x3f747755	0.95494586
58	0x3f80b626	1.0055587
59	0x3f9574ad	1.1676232
60	0x3f97559c	1.1823001
61	0x3f93e93e	1.1555555
62	0x3f7050ac	0.93873096
63	0x3f80bcb8	1.0057592
64	0x3fa0268e	1.2511766
65	0x3f73f66c	0.95297885
66	0x3f9c5a41	1.2215043
67	0x3f93ed6c	1.155683
68	0x3f740f52	0.95335877
69	0x3f8567fb	1.0422357
70	0x3f7c71f2	0.98611367
71	0x3f7a3821	0.97741896
72	0x3f69a679	0.9126964
73	0x3fb846c3	1.4396595
74	0x3f7b4c30	0.9816313
75	0x3f811628	1.0084887
76	0x3f9e5cd3	1.2372078
77	0x3f7dfd97	0.9921507
78	0x3f6fefab	0.9372508
79	0x3f920ce3	1.1410183
80	0x3f9324e5	1.1495634
81	0x3f7b8842	0.9825479
82	0x3f97a040	1.184578
83	0x3f824c39	1.0179511
84	0x3f8dd730	1.1081295
85	0x3f94eae1	1.1634179
86	0x3f9350d3	1.150904
87	0x3f7a9e5e	0.978979
88	0x3f736263	0.95072
89	0x3fae951c	1.3639255
90	0x3f9484d5	1.1603037
91	0x3f92319e	1.1421392
92	0x3f9356db	1.1510881
93	0x3f7adabd	0.9799002
94	0x3f80cfea	1.006345
95	0x3f961c6b	1.1727422
96	0x3f6d3cfe	0.9267119
97	0x3f81cc7a	1.0140526
98	0x3f7904b3	0.97272795
99	0x3f6b939f	0.92022127
100	0x3f6d392a	0.9266535
101	0x3f92eee9	1.147916
102	0x3fbcc897	1.4748715
103	0x3f76f5f2	0.9646903
104	0x3f76754a	0.9627272
105	0x3f7c045f	0.9844417
106	0x3f8d5597	1.1041745
107	0x3f766529	0.9624811
108	0x3f9d3590	1.2281971
109	0x3f677c61	0.9042416
110	0x3f7109f9	0.9415584
111	0x3f98a073	1.1923965
112	0x3fb354c7	1.4010247
113	0x3f90c939	1.1311408
114	0x3f564ba8	0.8370919
115	0x3f74a985	0.95571166
116	0x3f94ff0b	1.1640333
117	0x3fa70b01	1.3050233
118	0x3f6ca5ae	0.9244031
119	0x3f6723da	0.9028908
120	0x3f7e2f19	0.99290615
121	0x3f7ce124	0.9878104
122	0x3f7ccbd1	0.987485
123	0x3f846ab3	1.0345062
124	0x3f9b6561	1.2140313
125	0x3f79bdc3	0.9755518
126	0x3f7de589	0.9917837
127	0x3f92f846	1.1482017
128	0x3f80dd20	1.0067482
129	0x3f756fd9	0.9587379
130	0x3fa144cd	1.2599121
131	0x3fd3a9be	1.6536176
132	0x3f80cf6b	1.0063299
133	0x3f9706db	1.1798967
134	0x3fb9e58e	1.452318
135	0x3f7ceb2c	0.98796344
136	0x3f6de687	0.9292988
137	0x3fc6cef2	1.5531905
138	0x3f7c9a82	0.9867326
139	0x3f778262	0.96683323
140	0x3f97c756	1.1857708
141	0x3f9247c9	1.1428157
142	0x3f9310cf	1.1489505
143	0x3f997f26	1.1991928
144	0x3fa41a4b	1.2820524
145	0x3f7b468c	0.9815452
146	0x3f706320	0.9390125
147	0x3f7d6411	0.98980814
148	0x3fb994ba	1.4498513
149	0x3f749fa7	0.9555611
150	0x3f6d0d6c	0.92598605
151	0x3f833be3	1.0252651
152	0x3f5fca9d	0.8741854
153	0x3f949a0d	1.1609513
154	0x3f7cb03d	0.9870642
155	0x3f86cc4b	1.0531095
156	0x3fa30a42	1.2737505
157	0x3f79b9ba	0.9754902
158	0x3f6de6b8	0.92930174
159	0x3f7b6e87	0.98215526
160	0x3f9d863b	1.2306589
161	0x3f971668	1.1803713
162	0x3f6f5e52	0.93503296
163	0x3fbccd8d	1.4750229
164	0x3f9d5da7	1.2294205
165	0x3fa7c204	1.3106084
166	0x3f75f4d0	0.9607668
167	0x3f7cc95c	0.9874475
168	0x3f7c2dfd	0.9850767
169	0x3fb68197	1.4258298
170	0x3f81841e	1.0118444
171	0x3fc6d2c5	1.5533072
172	0x3f7c8d18	0.9865279
173	0x3fb493fc	1.4107661
174	0x3f9ee493	1.2413505
175	0x3f923ed8	1.1425428
176	0x3fb4cf4b	1.4125761
177	0x3f93c93c	1.1545787
178	0x3fa36186	1.2764137
179	0x3f7cbfe7	0.9873032
180	0x3f9ee50f	1.2413653
181	0x3f77c922	0.9679128
182	0x3f922192	1.1416495
183	0x3f7e7693	0.9939968
184	0x3f9147d7	1.1350049
185	0x3f801012	1.0004904
186	0x3f9a8ea5	1.2074782
187	0x3fa19555	1.2623698
188	0x3f76651a	0.9624802
189	0x3f937486	1.1519935
190	0x3f917ac0	1.1365585
191	0x3facec27	1.3509568
192	0x3f7ce0a1	0.98780257
193	0x3f951656	1.1647441
194	0x3f7e847a	0.99420893
195	0x3f5c9684	0.8616717
196	0x3f850cec	1.0394568
197	0x3f7e3e49	0.9931379
198	0x3f933f1e	1.1503637
199	0x3f947262	1.1597407
200	0x3f99a527	1.2003525
201	0x3f93d198	1.1548338
202	0x3f966f3a	1.1752694
203	0x3f83b1df	1.0288657
204	0x3f84303d	1.0327221
205	0x3f9478a8	1.1599321
206	0x3fbe71d2	1.4878485
207	0x3f992057	1.1962994
208	0x3f926964	1.1438413
209	0x3f7ca238	0.98685026
210	0x3f91ad0a	1.1380932
211	0x3f91c20f	1.1387347
212	0x3f80b165	1.0054137
213	0x3f78da2b	0.972079
214	0x3f824571	1.0177442
215	0x3f92ebc4	1.14782
216	0x3f7a0b3c	0.9767339
217	0x3fb5fed5	1.4218394
218	0x3f82e094	1.0224786
219	0x3f80654f	1.0030917
220	0x3f7d3d8e	0.9892205
221	0x3f7e367e	0.993019
222	0x3fe85207	1.8150033
223	0x3fa330c1	1.2749254
224	0x3f7425c1	0.9537011
225	0x3f7f62df	0.9976024
226	0x3fb175eb	1.3864111
227	0x3f996b00	1.1985779
228	0x3f735f27	0.95067066
229	0x3fad5a84	1.3543248
230	0x3f7344d4	0.950269
231	0x3f98a52c	1.1925406
232	0x3f76d1ed	0.9641407
233	0x3f9523f6	1.16516
234	0x3f811625	1.0084883
235	0x3f78b620	0.971529
236	0x3f93020b	1.1484998
237	0x3fbd46b5	1.4787203
238	0x3f95086f	1.1643199
239	0x3f94dc80	1.1629791
240	0x3f80c727	1.0060776
241	0x3f7d4937	0.9893984
242	0x3fa07323	1.2535137
243	0x3f7da7ce	0.99084175
244	0x3f9d7f24	1.2304425
245	0x3f827b5b	1.0193895
246	0x3f7e0b7b	0.9923627
247	0x3f775b0c	0.966233
248	0x3f9e7281	1.2378694
249	0x3f7d9ef5	0.99070674
250	0x3f960f45	1.172341
251	0x3f6a3d23	0.9149954
252	0x3f8867ff	1.0656737
253	0x3f83dad1	1.0301152
254	0x3f97a43e	1.1846998
255	0x3f922ffa	1.1420891
