DDPG/model/Pendulum-v0_critic_target.pt (torch, 499519 bytes, 9 tensors)

FCNet.0.weight f4 [400, 4]
000000 50 1b 80 bd 67 2d 0a bc 3f f4 9b bc 6f 97 4c 3b
       -0.062552094 -0.008433676 -0.019037364 0.003121819
000010 76 66 ad 3b 51 f9 36 bd 54 ab dc 3b 7e 1b 8f 3b
       0.0052917553 -0.04467136 0.006734291 0.004367291
000020 c1 e9 88 bc 71 93 92 bd 62 36 dd ba 01 78 a0 ba
       -0.016713025 -0.071570285 -0.0016877169 -0.0012242795
000030 ff 64 81 bb 2b d5 01 bd a1 3d b3 3b ad 3e 6b 3b
       -0.0039488073 -0.031697433 0.005469993 0.0035895512
000040 2e 61 ab 3c 76 41 8d 3d f8 05 02 bb 66 76 54 bc
       0.020920362 0.06897251 -0.0019839983 -0.0129676815
000050 58 23 4b bc e6 ba 17 bd 58 f1 4f bc 32 51 2b bc
       -0.012398563 -0.037043475 -0.012691818 -0.01045637
000060 d1 4a b6 3d df e0 cf 3c 7e f3 04 3c 1f 19 5f 3b
       0.08900989 0.025375782 0.008114694 0.0034042073
000070 76 d1 07 bd e1 89 1f bd 27 20 83 ba 92 c8 85 bc
       -0.033158742 -0.03894985 -0.0010004089 -0.016330991
000080 07 21 42 bb ba ca 83 ba 4a ec 13 39 64 39 95 3a
       -0.0029621737 -0.0010054924 0.00014107037 0.0011384902
000090 0d aa 44 3d 83 39 e5 bd e6 49 68 3b 4c cb 09 bb
       0.048013736 -0.1119261 0.0035444438 -0.0021025715
0000a0 47 3f 89 bc 9b 01 54 bd d0 d5 b2 bc 2e 0e b3 bc
       -0.016753806 -0.051759344 -0.02183047 -0.021857347
0000b0 b6 37 84 bd 25 bf 05 bc 39 7a 8e bc bd b7 3f bb
       -0.064559385 -0.008163248 -0.017392265 -0.0029253804
0000c0 a0 50 20 39 32 38 8d b8 4b 16 12 3b d9 32 d2 bb
       0.00015288824 -6.733871e-05 0.002229112 -0.006414753
0000d0 b5 09 5a 3c 7d c1 1d bd b2 e0 60 3b f9 d0 06 bd
       0.013307978 -0.038514603 0.0034313616 -0.032914136
0000e0 d6 28 cb bc 91 5d 87 bc c5 72 0e bb de 10 8c 3b
       -0.024799746 -0.016524108 -0.0021735888 0.0042744717
0000f0 78 ae 59 3b 6c 69 e2 bc a1 cf 9e bc fa c0 44 bc
       0.0033215564 -0.02763816 -0.019386115 -0.0120089
000100 b4 49 56 bc 15 c8 0a 3d 89 a7 ac 3c 88 cf 47 3c
       -0.013079096 0.03388222 0.02107598 0.012195475
000110 f4 84 14 3b 8f 50 a3 bc 21 2b 94 bc e6 4e 5d ba
       0.0022662254 -0.019935874 -0.018086972 -0.0008442238
000120 2b db 88 bc bc 95 11 bc ea 9e b2 3b 21 cc f5 3a
       -0.01670607 -0.008885797 0.005451073 0.0018752852
000130 51 70 5f 3c df a6 c3 3d 8d 4c d3 bb 33 ed af bb
       0.013637618 0.095533125 -0.0064483345 -0.0053688525
000140 ff 2e 23 bb 16 ea e2 bc 7d 74 90 bc d3 d8 19 3a
       -0.0024899838 -0.027699511 -0.017633671 0.0005868796
000150 e2 d9 14 bd a6 da cb 3b 9a 34 02 bb d8 39 81 bc
       -0.0363406 0.0062211333 -0.0019867779 -0.015774652
000160 f7 47 4e bc 38 4f bf bc bc 7f 07 bc d2 69 4e bb
       -0.0125904 -0.023353204 -0.0082702 -0.003149618
000170 cf ca 37 bc 1c 18 5b 3c 20 91 78 3b 1e e2 9d 3b
       -0.011217787 0.013372447 0.0037928298 0.004818215
000180 70 05 86 39 ca ad 85 bb 90 65 6f 3b bd 1e 99 bb
       0.00025562523 -0.004079555 0.0036529042 -0.0046728537
000190 a1 67 ad bc df 44 8a bd 40 e3 c3 ba 89 67 f3 bb
       -0.021167578 -0.06751417 -0.0014945045 -0.007428114
0001a0 ae fa e3 ba 7e 2c fe 3b c7 43 20 3c e6 ad cf bb
       -0.0017393434 0.0077567687 0.009781784 -0.006337869
0001b0 03 05 7c bc fc 3f 59 bd f7 40 f1 b7 31 0b 21 bc
       -0.015382054 -0.053039536 -2.875969e-05 -0.009829328
0001c0 cf af ce bc 8e 5e f6 bc cf 04 24 3c e1 6a 09 3c
       -0.025230316 -0.030074384 0.010010912 0.008387298
0001d0 1c 4e cd bb 94 ce fa bc c1 62 9e 3b 93 b5 49 3b
       -0.006265415 -0.030616082 0.0048335497 0.0030778393
0001e0 90 a1 d6 3b a7 a4 1b bd 25 06 dc bc 1b 05 cf bc
       0.0065500215 -0.03799882 -0.026858399 -0.02527099
0001f0 60 c9 d9 3b 03 bf 36 3b 65 be 2c 3c 9f 9a 22 bc
       0.00664632 0.0027884848 0.0105434405 -0.00992456
000200 27 a1 82 ba 2a 00 a5 bc 00 44 70 bc df 9f b5 3a
       -0.000996624 -0.02014168 -0.01466465 0.0013856849
000210 b3 99 b4 bc 7f d5 b1 bd fb 2a 6a bb 1c 6b e4 bb
       -0.022045946 -0.08683299 -0.0035731185 -0.0069707762
000220 18 80 91 3b 3b 69 b5 ba db 7d 1f 3c 19 92 d9 bb
       0.004440319 -0.0013840565 0.009734596 -0.0066397307
000230 3e 8b f6 bc c4 b4 a4 bd e8 53 50 bb 2b 87 ba bb
       -0.030095693 -0.08042291 -0.0031788293 -0.005692383
000240 c2 48 2c bc 83 7f dc bc e6 c6 0d bb 32 2e a8 3b
       -0.010515394 -0.026916271 -0.0021633445 0.00513246
000250 b0 72 50 bc 4a 5a c3 3c 81 8e 10 bb a9 6a eb 3c
       -0.012722656 0.023846764 -0.0022057595 0.028737383
000260 97 f0 d4 ba 9e 83 89 3a eb bd 03 3c 15 32 89 bb
       -0.0016246018 0.0010491495 0.008040885 -0.0041868784
000270 30 86 01 bd 5e 95 a1 bc c4 39 51 bb 1b 4c a2 3b
       -0.03162211 -0.019724544 -0.00319253 0.00495292
000280 33 eb 17 ba be a5 74 bb 23 97 44 3c 93 29 9a bb
       -0.000579524 -0.0037330235 0.011998924 -0.004704663
000290 37 39 e2 3a e0 ba b1 bb 34 e0 63 3b 46 83 bf bb
       0.0017259483 -0.0054238886 0.0034771087 -0.0058445064
0002a0 83 b4 ff ba 40 2a 89 bb 9d 42 7c 3c 12 28 93 bb
       -0.0019508753 -0.004185945 0.015396741 -0.0044908607
0002b0 09 9a 59 bc 66 f1 d1 bc 1a 17 b1 3b 55 30 e9 3a
       -0.013281354 -0.025627803 0.0054043652 0.0017790893
0002c0 74 fc e3 bb 1a 4e 30 3c 21 6f 91 3b 00 3a 93 3a
       -0.006957585 0.010760808 0.0044382964 0.0011232495
0002d0 b0 ba 63 bd 26 e1 93 3c b1 36 ae 3c ab ca aa 3a
       -0.05559796 0.018051695 0.021266313 0.001303037
0002e0 86 33 df bb 3c fe 81 bc 06 24 85 bb a8 71 c9 ba
       -0.006811562 -0.015868299 -0.004063132 -0.0015368955
0002f0 48 0f a9 bb 08 2e 03 bd 0b 38 b6 3b b8 bc 84 3b
       -0.0051592924 -0.03202632 0.00556088 0.0040508173
000300 62 e8 bc bb 24 f5 0d bd 01 e7 d7 3b e3 57 dd 3b
       -0.005765007 -0.034657612 0.006588817 0.0067548617
000310 ae 25 19 bc f9 a4 b5 3c 1c 79 7c 3b 3a 2e 52 3c
       -0.009347362 0.022173392 0.0038524335 0.012828404
000320 88 4a 84 3a 4e f9 3e 3b ea 58 63 3b 59 d5 13 3b
       0.0010093013 0.0029140296 0.0034690448 0.0022557585
000330 4e 3b 31 3d 1e c1 61 bd 9b 0c 0d bb e7 56 c5 3c
       0.043269448 -0.05511581 -0.0021522406 0.02408929
000340 36 2c ae b8 8c 81 a5 3c 12 cd 61 3c 6f 13 15 3b
       -8.3052015e-05 0.020203374 0.013781803 0.002274718
000350 5a c7 cd bc b6 27 a9 3c bb 84 8c bb 20 13 21 bc
       -0.025119472 0.020648818 -0.0042882836 -0.00983122
000360 1a 7a 04 3d 6b a2 a7 3d 49 91 06 bc a6 6e 78 3b
       0.032343008 0.08185276 -0.00821335 0.0037907748
000370 00 49 9e bb a8 68 aa bb 04 2b 0b 3c e1 3c 8c ba
       -0.0048304796 -0.0052004643 0.008494142 -0.0010699296
000380 c2 34 d2 bb d0 69 f4 bc 6f 51 44 bc 22 77 d1 bb
       -0.0064149806 -0.029835612 -0.011982306 -0.0063923756
000390 dd 06 d7 ba dd 58 7b ba d0 89 b5 3b aa 5f b4 bb
       -0.0016405244 -0.0009588132 0.00554011 -0.005504568
0003a0 15 fc 43 bb 4d 1c 01 bd ad 69 31 bc 49 9f c7 bb
       -0.0029904891 -0.03152113 -0.010828418 -0.0060919863
0003b0 c5 b6 0b bc 0f 38 32 bb a2 a6 45 3c 66 9f 21 ba
       -0.008527462 -0.0027194058 0.012063654 -0.0006165415
0003c0 40 14 71 bc af 62 fd bc d0 e6 e6 3b e4 57 cc 3b
       -0.014714301 -0.030930845 0.007046558 0.0062360633
0003d0 70 72 1f bd 92 ed ac 3c 26 da 29 3c 53 6d 9c bb
       -0.038927495 0.021109376 0.010366952 -0.0047737746
0003e0 ff fd 2b bc 19 9d 2c bd 77 0b 18 3c 18 10 8e 3b
       -0.010497569 -0.042142007 0.009280077 0.0043354146
0003f0 1e 65 0e bd 07 28 d0 3c 6c 7b 72 3c 92 61 77 bc
       -0.0347644 0.025409712 0.014799934 -0.015098946

FCNet.0.bias f4 [400]
000000 44 ab 7b 3c 6e 9a 9c 3c c1 65 41 b9 32 61 cc 3b
       0.015360657 0.019116607 -0.0001844382 0.0062371725
000010 88 18 ee 3c 4f 1b 09 bc f3 54 45 bb a3 37 e8 3b
       0.029064432 -0.008368327 -0.0030110448 0.0070867105
000020 e3 d5 ea ba 85 a7 38 3d b5 dc 79 bc 88 d9 59 3c
       -0.0017916526 0.045081634 -0.015250375 0.013296492
000030 82 c5 06 bc 7f fc 3e bc 7b 7f 20 3b 1a bf 4b bd
       -0.0082258005 -0.011656879 0.0024490047 -0.049742796
000040 df 2e cd bc 5a 9e 21 bd dc 97 ff 3a 42 e5 76 3c
       -0.025046764 -0.039457656 0.0019500214 0.015069308
000050 55 f4 fa bc 69 c5 44 bc 12 b5 0e bc 51 26 75 bc
       -0.030634085 -0.012009957 -0.008710163 -0.014962749
000060 ea 46 73 bb 5b 6a 36 3c 74 fd 25 bd 36 67 d0 3b
       -0.0037121125 0.011133756 -0.040524915 0.00635996
000070 79 d8 6b 3c 6b 53 15 3c 4f 30 29 bd 79 c2 23 bd
       0.014394873 0.009114127 -0.041305836 -0.039980385
000080 f2 1e f0 bc 8f 6b a5 3c 0a 99 16 bd 71 6f 64 3c
       -0.02931163 0.02019289 -0.036767043 0.013942585
000090 46 a4 1c 3a ff 5e f0 bb d2 6a 0c bd b1 5b 9a 3b
       0.00059754064 -0.007335543 -0.03428156 0.0047106375
0000a0 13 f6 46 bd 39 a1 d7 ba 62 a3 72 bd c1 31 04 3c
       -0.04857452 -0.0016451246 -0.059237845 0.008068503
0000b0 c9 a1 1c bc 31 ca 02 3c fc c1 cb bb da 03 3a 3c
       -0.009560057 0.0079827765 -0.006218193 0.011353457
0000c0 57 4e 52 3c a3 29 65 bc 0f 9a 4b bc d7 51 8d 3c
       0.0128360605 -0.013986978 -0.012426867 0.017250938
0000d0 03 80 0f bd cd eb ce bb cd 07 3b 3d 4f 61 e9 ba
       -0.03503419 -0.0063147307 0.045661736 -0.001780549
0000e0 e3 f8 79 bc 17 ae b5 bc 6d f3 85 bc e1 41 21 bd
       -0.015257093 -0.02217774 -0.016351426 -0.039369468
0000f0 6e b4 0a 3c 15 19 32 3c 22 cd 9c 3c 4a 5b 7a 3c
       0.008465869 0.010870238 0.019140784 0.015280554
000100 42 b1 85 bb 0b d7 84 bc 62 cb 41 3b 07 4d 06 3c
       -0.0040799687 -0.016215822 0.0029570688 0.008197076
000110 97 bc a2 bc ee 21 0a 3b cc 20 91 3c 53 3b 13 3d
       -0.019865317 0.0021077353 0.017715834 0.035945248
000120 b5 66 7f 3c 65 64 71 3c 3f 45 34 3c fd 2a 29 bb
       0.015588452 0.014733409 0.011002838 -0.0025812977
000130 d3 28 18 3a 5e d8 ec 3c c8 9c c3 3c 13 dc 18 3b
       0.0005804423 0.028911766 0.02387847 0.0023324534
000140 3e 2d 94 3c 9b e3 c7 3c 68 ed cf bc a5 6b 95 bb
       0.01808798 0.024400523 -0.025381759 -0.0045599514
000150 d3 7d b8 bb 05 2e d7 3c 69 50 f6 3c d6 9b a6 ba
       -0.005630234 0.026267061 0.03006764 -0.0012711238
000160 d1 e5 61 3d f0 3d 3f bd 73 42 7f bc 0f 35 2c 3c
       0.05515081 -0.046689928 -0.015579808 0.010510697
000170 4c 39 a6 bc 10 a1 02 3d df fe 03 3c da b4 8e bc
       -0.020290993 0.031891882 0.0080563715 -0.017420221
000180 70 dc b4 3c 88 18 70 bd a1 e9 08 bb 34 6c 8d bc
       0.022077769 -0.058617145 -0.0020891207 -0.01726351
000190 b3 ea 62 bd 08 13 17 3c 7d a0 f6 3c 0c 37 90 3b
       -0.055399608 0.009220846 0.030105824 0.0044010933
0001a0 b0 22 97 bc 6c b3 4b bc 4e f5 21 3b 42 ae 88 bd
       -0.018449157 -0.012432914 0.0024712863 -0.06673862
0001b0 34 a1 1a 3b d5 03 3d 3d 82 cf 63 bc 64 69 91 3b
       0.002359462 0.046146233 -0.013904454 0.0044376124
0001c0 38 ba 19 3d cc a5 04 bc d6 72 2f 3c 5f 1c 60 bd
       0.037531108 -0.00809617 0.010708531 -0.054714557
0001d0 19 8c 3b bd 7f 3b ad bc 52 d4 07 bd 11 dd 70 3c
       -0.045787904 -0.021146534 -0.03316147 0.014701144
0001e0 45 77 05 bc ca 60 89 3a 25 0f 6f bb 5f 99 3d bc
       -0.008146112 0.0010481116 -0.0036477533 -0.011572211
0001f0 a1 39 4b 3c 45 1e 76 3b 06 de 47 bd 1f de ce 3b
       0.0124038765 0.0037554663 -0.048795722 0.0063131
000200 47 90 f5 bc 71 4c 08 3d 09 82 14 3b 26 76 3e bc
       -0.029976023 0.033276025 0.0022660515 -0.0116248485
000210 17 47 2b 3d 71 7d fd bc a4 4c 05 3d 52 71 01 bd
       0.041815843 -0.030943604 0.032543793 -0.03160221
000220 0c 20 b1 bc cf e8 11 3d 93 ca 23 bd e9 46 10 bc
       -0.021621726 0.035622414 -0.03998811 -0.008805969
000230 e3 5f e0 3b f8 8e 10 bd cf 67 17 3d 0a c0 24 3c
       0.006847368 -0.035292596 0.036964234 0.010055551
000240 f3 1b 86 3a 98 11 cc ba c3 3f 01 3c a5 6a 99 3b
       0.0010231718 -0.0015569208 0.007888737 0.0046819025
000250 13 01 67 3c 2d 40 fd bc 87 ad e5 bb 4a 2c ad bc
       0.014099377 -0.03091439 -0.0070092115 -0.021139283
000260 30 ea 09 3c 5d 21 07 bd 24 ce fe bc 4d 0f 9a 3c
       0.008417651 -0.032990802 -0.031104155 0.018806124
000270 b9 89 a3 3b 45 ec 9b bd 73 ba 41 bc fd 26 11 3b
       0.004990783 -0.07613424 -0.011824238 0.0022148483
000280 e6 0c 15 3d c1 4c ec 3c fd d6 2f 3d 7e 52 8f 3b
       0.036389254 0.028845193 0.04292964 0.0043738475
000290 ad 2e f3 bc 57 f7 56 3c ab 8b 9d 3c e2 89 00 bd
       -0.029685343 0.013120494 0.019231638 -0.031381495
0002a0 28 9e 3a bc d8 63 9d bd 31 a1 80 3c f9 ee bf bb
       -0.011390246 -0.07685059 0.015701862 -0.005857345
0002b0 a5 ca b1 bb 39 de d8 3c 4f 5b 1e bb c9 57 62 bb
       -0.0054257684 0.026473152 -0.002416331 -0.0034537187
0002c0 68 d8 72 bb 13 02 96 bb ab 7a 0f bd 73 df 3a bc
       -0.0037055258 -0.004577884 -0.035029095 -0.0114058135
0002d0 e9 27 8e bc 80 06 0a bd 08 5d a4 3c 80 2c 53 bc
       -0.017353015 -0.033697605 0.020063892 -0.012889028
0002e0 3a 96 b3 3c da bd 10 bd a2 49 96 bc 50 95 27 3b
       0.02192222 -0.035337307 -0.018345658 0.0025571175
0002f0 62 6d b3 bd 3c ce 9b 3d c7 a5 1d 3c 02 17 5b ba
       -0.087610975 0.076076955 0.009622044 -0.00083576154
000300 a2 79 d0 3c d9 25 ca 3a ac d5 4e 3c ab 39 12 ba
       0.025448624 0.0015422656 0.0126241855 -0.0005578051
000310 39 b1 2a 3d 2c 2b c5 3c c4 cb 69 ba c1 6a 74 bb
       0.04167292 0.024068438 -0.0008918608 -0.0037295076
000320 39 1d 22 bc 7d f7 fd bc c4 ea 2e bb 28 30 3d 3b
       -0.009894663 -0.0310018 -0.0026690224 0.0028867815
000330 d7 7d e6 bc dd 52 e7 bc 3a 39 3f 3c bd 80 52 3b
       -0.028136177 -0.028237754 0.011671359 0.003212019
000340 3a cd 0b 3d ae ce f6 bc db ac ef bb 30 98 a5 bb
       0.034131266 -0.03012785 -0.007314307 -0.0050535426
000350 16 fe c6 bc f5 30 1e bc a2 5e f3 3b f6 e4 7a 3c
       -0.02429108 -0.009655227 0.0074270526 0.015313378
000360 3a 3a f4 3c 1b 9b 13 3d f1 b0 07 bc 6f 0c ee ba
       0.02981292 0.036036592 -0.008281932 -0.0018161664
000370 72 c5 68 bc b2 ec ec bc 7c 4b 22 3c b4 fa 06 bd
       -0.014207231 -0.028921459 0.009905692 -0.032953933
000380 f5 64 3f bd 70 85 cb bc 1e f3 30 bd 84 b9 9a bd
       -0.04672714 -0.024843901 -0.043200605 -0.075549155
000390 d1 87 8e bc 58 75 ef bc a1 45 35 3d e4 6f 47 bc
       -0.017398747 -0.029230759 0.044255856 -0.012172673
0003a0 22 78 c4 3c 8d 39 74 3c 27 51 13 3d fb 06 0e 3d
       0.023983065 0.014906299 0.035966065 0.034674626
0003b0 22 3f 9c ba b0 7e f1 3c ef b0 00 3c 52 94 a0 bb
       -0.001192067 0.029479355 0.007854684 -0.0049004937
0003c0 41 be ac bc e8 2a de bc 37 a9 fc 3b 8d 1e b8 3c
       -0.021086814 -0.027120069 0.0077106017 0.022475505
0003d0 3b a6 d4 3b ac 10 4e 3c 06 0e b3 bc d9 f4 13 3c
       0.006489543 0.012577217 -0.021857273 0.009030544
0003e0 20 e1 f9 bb 27 9b 1c bc aa 04 d4 bb 47 b9 24 39
       -0.007625714 -0.009558476 -0.0064702826 0.0001570928
0003f0 a5 85 25 bc ed 1d ea 3c 2b 6c 9d 3d 74 ec 11 3b
       -0.010102664 0.028578723 0.07686647 0.0022266181

FCNet.1.weight f4 [400]
000000 2f c2 82 3f cb 48 76 3f 6b 8c 73 3f 86 b3 71 3f
       1.021551 0.96204823 0.95136136 0.94414556
000010 95 d8 7d 3f c1 8f 78 3f 77 a6 81 3f 46 b6 78 3f
       0.991586 0.9709435 1.0128926 0.9715313
000020 08 ae 70 3f 95 90 89 3f 00 ba 82 3f d6 b4 7f 3f
       0.9401555 1.0747248 1.0213013 0.9988531
000030 f8 13 7b 3f 87 b3 71 3f c8 ea 75 3f 19 a3 89 3f
       0.98077345 0.9441456 0.9606137 1.0752898
000040 f2 7b 81 3f cd 33 84 3f f7 83 73 3f 32 24 82 3f
       1.011595 1.0328308 0.9512324 1.0167296
000050 4e 5a 81 3f af 87 78 3f 3d 7f 78 3f 13 a3 73 3f
       1.0105684 0.97082037 0.9706915 0.95170707
000060 6a d1 71 3f 56 b5 7e 3f c2 4c 79 3f f9 a0 70 3f
       0.94460166 0.99495447 0.9738275 0.93995625
000070 c4 93 71 3f 00 3f 6d 3f cd 79 88 3f 24 9f 79 3f
       0.943661 0.92674255 1.0662171 0.97508454
000080 64 1b 81 3f 8a de 81 3f aa 75 7f 3f ac 90 81 3f
       1.0086484 1.0146039 0.99788916 1.0122275
000090 d0 0f 71 3f 0d e8 76 3f 5a e8 79 3f f6 4a 79 3f
       0.9416475 0.9644783 0.97620165 0.97380006
0000a0 fc 0e 80 3f 0d cb 6f 3f ce 1c 81 3f 21 bf 71 3f
       1.0004573 0.93669206 1.0086915 0.94432265
0000b0 e5 b2 77 3f 97 e2 81 3f 14 cc 79 3f 15 aa 6f 3f
       0.96757346 1.0147275 0.97577024 0.936189
0000c0 aa 90 72 3f 8e 99 74 3f ea 22 78 3f 87 67 80 3f
       0.9475199 0.95546806 0.96928275 1.0031594
0000d0 f0 b3 7d 3f 40 fb 7c 3f 51 af 85 3f 1b fd 6f 3f
       0.9910269 0.9882088 1.0444127 0.93745583
0000e0 c6 67 7f 3f 5a 9d 7a 3f ed 65 7c 3f e7 61 7b 3f
       0.9976772 0.9789635 0.98593026 0.9819626
0000f0 e1 f6 70 3f fb 13 72 3f f3 bd 76 3f 71 03 75 3f
       0.9412671 0.9456174 0.9638359 0.95708376
000100 46 0e 79 3f e0 5f 83 3f e0 0e 79 3f 63 1e 76 3f
       0.97287405 1.0263634 0.9728832 0.96140116
000110 6a 84 7e 3f 2b ac 7e 3f b3 89 7d 3f ca 4c 82 3f
       0.994208 0.9948146 0.9903824 1.0179684
000120 08 8b 7d 3f 41 7d 81 3f f0 50 73 3f 43 72 74 3f
       0.9904027 1.011635 0.95045376 0.9548685
000130 36 88 6f 3f 93 40 7f 3f e5 05 83 3f 29 00 79 3f
       0.93567216 0.9970791 1.0236174 0.9726587
000140 0e 7b 7f 3f 39 0b 86 3f b2 87 7e 3f 35 83 75 3f
       0.9979714 1.0472175 0.99425805 0.9590333
000150 4a 0d 73 3f c8 2f 86 3f 7d af 7f 3f da 46 71 3f
       0.9494215 1.0483332 0.9987715 0.94248736
000160 7e 49 86 3f 2d e2 80 3f 7a 66 7e 3f cf 01 80 3f
       1.0491178 1.0069023 0.99375117 1.0000552
000170 90 03 7a 3f 7c 3c 85 3f 0b b4 75 3f d6 fa 80 3f
       0.97661686 1.0409083 0.9597785 1.0076549
000180 ff ca 79 3f 00 0f 81 3f ee cd 76 3f 56 04 75 3f
       0.9757537 1.0082703 0.96407974 0.9570974
000190 35 35 7e 3f ea d5 6f 3f 63 2e 80 3f 68 7b 70 3f
       0.9929994 0.9368578 1.0014156 0.93938303
0001a0 12 16 7a 3f 26 43 76 3f c1 7f 71 3f b0 33 89 3f
       0.97689927 0.9619621 0.9433556 1.0718899
0001b0 db 81 76 3f 81 2f 85 3f 23 b1 7a 3f 8d 90 70 3f
       0.96291894 1.0405122 0.9792654 0.93970567
0001c0 72 18 87 3f 24 1e 75 3f b3 34 77 3f a6 69 7e 3f
       1.0554335 0.95749116 0.9656479 0.99379957
0001d0 7f 51 86 3f 98 4b 78 3f 99 5a 84 3f 78 d9 7c 3f
       1.0493621 0.96990347 1.0340148 0.9876933
0001e0 b8 2f 7e 3f bc 70 71 3f 8a 97 78 3f 2b 6b 76 3f
       0.99291563 0.94312644 0.9710623 0.96257275
0001f0 6f 93 77 3f c4 3e 78 3f 2d df 86 3f 24 b5 6f 3f
       0.9670934 0.9697077 1.0536858 0.93635774
000200 12 81 83 3f 31 a7 85 3f cf 59 70 3f f3 30 7a 3f
       1.0273764 1.0441648 0.9388704 0.9773094
000210 39 88 83 3f 51 30 7c 3f dc ee 7e 3f bf 0f 7d 3f
       1.0275947 0.98511225 0.9958322 0.9885215
000220 16 86 7f 3f 96 e3 88 3f 5d 4d 83 3f ba 1a 7a 3f
       0.99813974 1.0694454 1.0257984 0.9769703
000230 94 f1 73 3f 3e d2 7f 3f a0 96 80 3f ad 16 72 3f
       0.95290494 0.9993018 1.0045967 0.9456585
000240 cd 03 72 3f 7e 2f 80 3f 08 c4 73 3f e2 01 78 3f
       0.9453705 1.0014493 0.95220995 0.9687787
000250 ee 75 73 3f 67 1f 81 3f ec e6 6f 3f c6 03 7d 3f
       0.9510182 1.0087708 0.93711734 0.9883388
000260 59 a4 71 3f 62 85 7f 3f 31 34 7c 3f 96 bd 77 3f
       0.943914 0.998129 0.9851714 0.9677366
000270 ae 2d 75 3f be 72 85 3f 03 80 78 3f 34 9d 77 3f
       0.95772827 1.0425642 0.9707033 0.9672425
000280 5e 4e 83 3f 55 5d 84 3f fe 7f 84 3f e0 34 78 3f
       1.0258291 1.0340983 1.035156 0.9695568
000290 f0 04 85 3f 74 ad 75 3f b2 82 74 3f e0 be 7c 3f
       1.0392132 0.95967793 0.95511925 0.9872875
0002a0 dd 24 6f 3f ba 0c 88 3f 2f ea 7e 3f 10 24 70 3f
       0.93415624 1.0628884 0.99576086 0.93805027
0002b0 43 67 74 3f 5f a9 7b 3f a6 6a 78 3f 6e e1 74 3f
       0.95470065 0.98305315 0.9703773 0.9565648
0002c0 68 d7 77 3f 68 fd 76 3f 92 1d 7d 3f ab 9f 79 3f
       0.9681306 0.9648042 0.98873246 0.9750926
0002d0 0f 68 78 3f ff d4 83 3f f8 a1 80 3f 41 e2 7c 3f
       0.9703378 1.0299376 1.0049429 0.98782736
0002e0 30 a5 82 3f 39 53 7c 3f 3b 59 80 3f d6 de 75 3f
       1.0206661 0.9856449 1.0027231 0.96043146
0002f0 f7 01 8d 3f 90 62 88 3f 98 4e 79 3f a2 a4 6e 3f
       1.1016225 1.0655079 0.9738555 0.9321996
000300 cc 33 83 3f 80 b2 71 3f fd a4 75 3f ac 8c 6b 3f
       1.0250182 0.94412994 0.9595488 0.92011523
000310 dd 0e 82 3f 4a 8d 7d 3f 82 d2 72 3f 23 01 76 3f
       1.0160786 0.99043715 0.9485246 0.96095484
000320 5a 6f 79 3f 01 37 7d 3f 78 95 73 3f 77 81 70 3f
       0.97435534 0.98912054 0.95149946 0.9394755
000330 8e d0 7a 3f bd 94 7c 3f 91 d8 71 3f a8 87 6d 3f
       0.9797448 0.98664457 0.9447108 0.9278512
000340 cc 28 82 3f 9a 4c 7e 3f ae 8a 74 3f 3f cb 73 3f
       1.01687 0.99335635 0.9552411 0.95232004
000350 ec 84 82 3f 21 03 74 3f f8 f9 6c 3f ab f9 80 3f
       1.0196815 0.95317274 0.9256892 1.0076193
000360 c5 be 81 3f 04 6a 80 3f b0 db 75 3f f6 b9 71 3f
       1.0136343 1.0032353 0.9603834 0.9442438
000370 13 42 7c 3f 71 c5 80 3f 96 c8 73 3f 60 84 79 3f
       0.9853832 1.0060254 0.95227945 0.97467613
000380 f2 dd 8b 3f 0f 60 7e 3f 60 da 80 3f af 0c 89 3f
       1.0927107 0.99365324 1.0066643 1.0706996
000390 97 0f 81 3f 4b f7 82 3f c3 11 83 3f 0e 82 78 3f
       1.0082883 1.0231718 1.0239795 0.9707345
0003a0 05 b0 83 3f 47 15 71 3f 04 b2 80 3f 3d 9c 85 3f
       1.0288092 0.9417309 1.0054326 1.0438305
0003b0 48 50 6a 3f 66 2c 79 3f ed ee 70 3f b4 8d 74 3f
       0.9152875 0.9733337 0.9411457 0.9552872
0003c0 02 ee 82 3f d8 9e 85 3f ce 22 6d 3f 00 2a 84 3f
       1.0228884 1.04391 0.9263123 1.0325317
0003d0 9c 02 70 3f f1 e0 7b 3f 00 b4 80 3f a1 99 72 3f
       0.9375398 0.9839011 1.0054932 0.9476567
0003e0 6f 94 76 3f 02 d4 78 3f 05 8d 79 3f fc b6 69 3f
       0.9632024 0.971985 0.97480804 0.91294837
0003f0 75 cd 7b 3f 7e dc 82 3f 6a bb 89 3f f5 9e 6a 3f
       0.9836038 1.0223539 1.0760319 0.916488

FCNet.1.bias f4 [400]
000000 ea a0 09 3c 11 1d d9 bc ae d0 46 bd 2d e4 f5 bc
       0.008400181 -0.026503118 -0.048538856 -0.03001603
000010 fc 76 89 bc 52 17 30 bd 6d 3e 46 bd 9d a6 ff bc
       -0.016780369 -0.04299099 -0.048399378 -0.031207377
000020 d2 7f 7a bd b9 e8 d8 bb 42 74 a3 bc d6 f8 bc bb
       -0.061157055 -0.0066195396 -0.019952897 -0.0057669682
000030 c1 38 19 bd 22 62 6a bd 79 c6 b1 bc 0f ac 14 bd
       -0.03740764 -0.057222493 -0.021701084 -0.0362969
000040 66 0b 08 bc 63 f4 0c bd b1 8c dc bc bf a2 6c bc
       -0.008303499 -0.034412753 -0.026922556 -0.014443099
000050 b0 17 fb bc c4 00 3c bd 8e 62 d7 bc 35 f0 20 bd
       -0.030650944 -0.045899168 -0.026292112 -0.03929158
000060 bb 39 40 bd 37 85 b7 bc 0b 38 24 bd 8f 5a 1d bd
       -0.046930056 -0.022402389 -0.04009251 -0.03841644
000070 43 98 8f bc 2f 38 1f bd 09 15 09 bd 21 22 53 bd
       -0.017528659 -0.03887194 -0.033467326 -0.05154622
000080 ff 32 f1 bc 44 a9 98 bc 1f a7 03 bd 48 1a ae bc
       -0.029443262 -0.0186354 -0.0321418 -0.021252766
000090 e3 1d 05 bd fc 6f 0a bd b7 40 28 bd 43 51 6f bc
       -0.032499205 -0.033798203 -0.041077342 -0.014606777
0000a0 61 f4 26 bd 3b 9a 44 bd 38 aa 3b bd c2 7a b3 bc
       -0.0407604 -0.047998648 -0.04581663 -0.021909121
0000b0 4e a6 2c bd a0 6a 8a 3b ca 8d e4 bc 40 74 0c bd
       -0.042150788 0.0042241365 -0.027899642 -0.034290552
0000c0 51 43 d6 bc 84 bf 26 bd 5f a7 45 bd f8 ab c1 bc
       -0.026155146 -0.040709987 -0.04825532 -0.023641571
0000d0 c7 85 86 bc e8 90 c7 bc 8c 68 92 3c b2 39 09 bd
       -0.016421212 -0.024361089 0.017872117 -0.03350229
0000e0 96 5e de bc 9a ae 15 bd b2 03 1b bd b3 42 ea bc
       -0.027144711 -0.036543466 -0.03784532 -0.028596258
0000f0 98 cc 03 bd b8 61 d8 bc 64 8b 21 bc 00 67 ec bc
       -0.032177538 -0.026413783 -0.0098598935 -0.028857708
000100 3e da 7d bd c3 eb 8e ba b9 58 8b bc 99 8e 04 bd
       -0.06197571 -0.0010904003 -0.01701008 -0.032362554
000110 00 ea 1e bd 0a 4b 99 bb 1f 34 80 bc b3 67 fb bb
       -0.03879738 -0.004678135 -0.015649853 -0.007672274
000120 2f 17 b5 bc 57 c5 9f bc ee 3c b8 bc 40 5d a0 bd
       -0.022105781 -0.019503279 -0.022489991 -0.07830286
000130 25 ba fd bc 08 9a 73 bc 53 d3 88 bc 1e 1d 9b bc
       -0.03097255 -0.014868267 -0.01670233 -0.018934783
000140 5e 24 f0 bc 25 b2 51 bd 3a d6 f4 bc 8b dd 90 bd
       -0.029314216 -0.051195282 -0.029887307 -0.07073506
000150 e8 e6 1a bd 46 38 10 bd d0 29 f3 3a e9 1c 78 bd
       -0.037817866 -0.035209917 0.001855189 -0.060574446
000160 de 43 b9 3c 0f 0f 0b bd 46 1c f6 bc d8 74 5e 3b
       0.02261537 -0.033949908 -0.030042779 0.0033944156
000170 53 63 d1 bc 09 9f f2 bc fa c0 fa bc 50 f8 23 bd
       -0.025560057 -0.02961685 -0.030609597 -0.04003173
000180 f4 3e 33 bc 96 a0 24 bd 40 b7 94 bd e8 e6 13 bd
       -0.010940302 -0.04019221 -0.07261515 -0.03610888
000190 1d eb 4b bd b0 cf 02 bd 4b cb b6 b9 e9 0a f1 bc
       -0.04978477 -0.031936347 -0.0003486521 -0.029424148
0001a0 27 28 0d bd 85 d0 9c bd 75 b5 de bc 1f 6f 13 bd
       -0.03446212 -0.076569594 -0.027186135 -0.035994645
0001b0 d7 9e 92 bc 1e 76 73 3c f6 36 32 bd 80 fa 40 bd
       -0.017898006 0.014859704 -0.043509446 -0.047113895
0001c0 35 61 4a 3c 11 d5 09 bd b0 97 14 bd a5 79 3f bd
       0.0123522775 -0.03365046 -0.036277473 -0.04674687
0001d0 d5 a1 02 bd eb 89 a3 bc 95 92 66 bc 20 c0 49 bc
       -0.031892616 -0.019963225 -0.014073034 -0.012313873
0001e0 34 fc 83 bc 93 9a f2 bc 83 bf 8e bd eb c9 1b bd
       -0.01611147 -0.029614722 -0.06970122 -0.03803436
0001f0 5f 98 15 bd 94 c7 96 bc 58 7b 4c bd 27 70 13 bd
       -0.036522266 -0.018405713 -0.049922317 -0.03599563
000200 c6 6f 3d bd f9 a6 97 38 9b 42 e2 bc 52 42 24 bd
       -0.046249174 7.231342e-05 -0.02761965 -0.04010231
000210 89 e8 3a 3c fd f0 28 bd 77 ce b3 b9 19 0f 0c bd
       0.01140798 -0.04124545 -0.0003429537 -0.034194086
000220 55 9a 00 bd 19 94 03 bd 81 4b 1e bd d5 13 27 bd
       -0.031397182 -0.03212366 -0.038646225 -0.040790398
000230 ed b9 b0 bc 32 d7 29 bd a1 3e 80 3a 18 a5 e6 bc
       -0.021573031 -0.041464992 0.000978429 -0.028154895
000240 f4 9a 03 bd 66 15 6b bc 1d a1 23 bd d6 0d 0f bd
       -0.032130197 -0.0143483635 -0.03994857 -0.034925304
000250 96 6a 0b bd 83 48 92 bc 6e cc 1c bd c3 53 09 bd
       -0.034037195 -0.017856842 -0.038280897 -0.033527147
000260 71 a4 f8 bc 9c bd 20 bd c9 5a b0 bc fd 70 f7 bc
       -0.03035185 -0.039243326 -0.021527665 -0.030205244
000270 bb d2 bd bc 87 71 22 bd 1a 58 ab bc fb a8 a4 bc
       -0.023171773 -0.03965905 -0.020916034 -0.020100107
000280 44 9f 16 3c ad 9d 4c 3c 4f 9e 9c ba 5a f4 cb bc
       0.009193245 0.012488765 -0.0011949035 -0.02489679
000290 01 d0 3a bd 6b 8e e2 bc f6 b2 08 bd 8f a0 a5 bc
       -0.045608524 -0.0276558 -0.033373795 -0.020218162
0002a0 6a 1d 61 bd 53 af 3a bd ac cf 31 bc 8e 98 18 bd
       -0.054959692 -0.04557736 -0.0108527355 -0.037254862
0002b0 51 ed 48 bd 7d eb 48 bc 5f b4 81 bd 9b ab ea bc
       -0.049054448 -0.012263176 -0.06333231 -0.028646281
0002c0 16 09 52 bd 55 88 a7 bc 6c 42 b2 bc ab f4 ea bc
       -0.051278196 -0.02045075 -0.021760188 -0.02868112
0002d0 3d f2 aa bc e9 7d 17 bd b6 10 05 bb 4c f1 57 bd
       -0.020867461 -0.03698531 -0.002030415 -0.052720353
0002e0 d7 2e 51 3c 8f cb bb bc 96 7e a7 bc 01 69 35 bd
       0.012767515 -0.022924213 -0.020446103 -0.044289593
0002f0 3a 27 5b bd 0f d5 4d 3d cb 64 0d bd f4 02 9f bd
       -0.053504206 0.050252017 -0.03451995 -0.07764235
000300 2e c2 d9 bc 70 5b 47 bd 2e c7 04 bd 49 03 31 bd
       -0.02658185 -0.048671186 -0.032416515 -0.043216024
000310 25 01 f6 3b 61 45 8b bc 0a a0 6d bd 0b 33 91 bd
       0.0075074607 -0.017000856 -0.058013953 -0.07089814
000320 c6 15 26 bd 55 3c 10 bd 06 e6 8b bd ea e1 6f bd
       -0.04054811 -0.035213787 -0.06830983 -0.058565058
000330 47 75 af bc d3 b8 22 bd 50 07 0d bd 3b 4f 44 bd
       -0.021418227 -0.039727043 -0.034430802 -0.047927123
000340 94 9a e5 3a 45 ec 1a bd 4e 16 31 bd b5 6f 9f bd
       0.0017517381 -0.03782298 -0.043234162 -0.07784978
000350 f6 9d ed bc 52 e9 51 bd 45 82 07 bd 13 b0 8a bc
       -0.029005986 -0.051247902 -0.03308322 -0.016929662
000360 7d 53 0f bc 35 f0 4c bb fb f7 22 bd 45 10 16 bd
       -0.0087479325 -0.0031271104 -0.039787274 -0.03663661
000370 50 97 f2 bc 7e 1a e9 bc a1 a3 cf bc ae f5 23 bd
       -0.029613167 -0.028455015 -0.025346579 -0.04002922
000380 50 1e 27 bd aa be 07 bd d6 4d f2 bc 93 cd 19 bd
       -0.040800393 -0.033140816 -0.02957813 -0.037549566
000390 90 ba a1 bc ba 9e 2b bc 5c 51 e7 3b 5b 2c 10 bd
       -0.01974228 -0.010474855 0.0070592593 -0.03519855
0003a0 41 09 2e bd a0 3b 04 bd 9a 71 21 bb b1 0a c6 b9
       -0.042489294 -0.032283425 -0.0024634362 -0.0003777347
0003b0 47 1b 4c bd 0a 33 48 bc 51 76 2b bd a3 d1 e2 bc
       -0.0498307 -0.0122192 -0.041860882 -0.027687853
0003c0 87 f3 2d bd 9a 0b 1d bd d4 e7 0a bd d2 55 c9 3c
       -0.042468574 -0.038341142 -0.033912495 0.024577055
0003d0 8f de cf bc 6b 89 93 bc 53 bc 16 bd 96 f7 d1 bc
       -0.025374679 -0.018009862 -0.036800694 -0.025630753
0003e0 16 72 2d bd bd 01 32 bd 74 d9 03 bd 61 fc b9 bd
       -0.04234513 -0.04345869 -0.0321898 -0.090813406
0003f0 ba 3b bf bc 3c a6 91 3b a5 60 0a 3d b4 81 3c bd
       -0.02334391 0.0044448655 0.033783574 -0.046022132

FCNet.3.weight f4 [300, 400]
000000 36 7f 67 3b 14 13 50 3c 2b 60 f8 3b e3 d7 00 3c
       0.0035323626 0.012699861 0.0075798235 0.007863971
000010 f3 78 a3 3b 3c b0 da 3b 20 b1 75 3c a6 9e 05 3c
       0.0049887835 0.006673841 0.014995843 0.0081555005
000020 df 06 2d 3b 8e 83 da 3c 99 bf 85 3b 98 0d f9 3b
       0.00264018 0.026674058 0.004081678 0.0076004975
000030 f1 3c 8b bb 38 54 64 bc 35 8e b6 3b 80 82 aa 3b
       -0.004249208 -0.013936095 0.0055711516 0.005203545
000040 bf 4e 66 3c 2c 9f 37 3b 5b a5 05 3c eb e6 30 3c
       0.0140568605 0.0028018458 0.0081571 0.010797243
000050 72 50 9b 3b 3a b7 50 3b a4 3b be 3b 3b f4 78 3b
       0.0047398144 0.0031847493 0.0058054496 0.003798737
000060 0f 7b b4 3b a7 17 03 3c 57 4e ad bc f3 5c 99 3b
       0.005507834 0.008001245 -0.02115552 0.00468027
000070 ec 0c ec 3b a3 4b 2e 3c 2c ed d8 bb 12 9f f7 bc
       0.007203689 0.01063815 -0.00662007 -0.030227218
000080 85 18 03 3b ff 8e 23 3c 97 c2 27 bd 66 7c 1c 3c
       0.0020003628 0.009982823 -0.04095706 0.009551143
000090 b7 fe 0a bb a7 45 01 3b 6c 92 8d bc e9 4e 01 3c
       -0.002120895 0.0019725354 -0.017281733 0.007892349
0000a0 de 32 32 bd 8a c6 05 3c 8d d5 12 bd e7 52 08 3c
       -0.043505542 0.008165011 -0.03584819 0.008320547
0000b0 00 dd 02 3c 0b 38 09 3d ab c8 04 3c 67 08 a1 3b
       0.007987261 0.033500712 0.008104484 0.0049143317
0000c0 1b e0 11 3c f5 79 ce 3b a3 de f6 3b fe 37 f5 3a
       0.008903529 0.0063011595 0.0075338646 0.0018708704
0000d0 01 b6 87 bc 5a f5 c8 3a f2 eb f9 ba 65 ce 67 3b
       -0.016566278 0.001533191 -0.001906751 0.0035370823
0000e0 4d a7 fc 3b c9 ec 49 bc 6b d7 95 3b 3a c7 9a 3b
       0.0077103735 -0.01232452 0.004572799 0.0047234567
0000f0 60 81 ca 3b 9f 09 4f 3c 28 7c 1c 3c 0d c4 48 3c
       0.0061799735 0.012636571 0.0095510855 0.012253773
000100 55 28 b5 3b ae 19 75 3c f2 85 ff 3b 56 46 34 3c
       0.0055284896 0.014959736 0.00779795 0.0110030975
000110 f8 fe cb 3b 92 3e a7 3a 8b b9 de 3b c9 26 17 3c
       0.006225463 0.0012759736 0.006797021 0.009225556
000120 92 f6 e7 3b 5e ae 25 3c a3 b7 43 3c 03 ea 3b 3c
       0.007078954 0.010112373 0.011945638 0.011469367
000130 b4 0b 41 3b c7 39 49 3b 93 4b f5 3b 6d b8 38 3b
       0.0029456438 0.0030704604 0.007485816 0.0028186098
000140 aa 86 2c bb 61 ad 82 3c 5c e8 ed 3b 1d 62 1d 3c
       -0.0026325383 0.015951814 0.0072603654 0.009605912
000150 b4 1b 1d 3b 09 64 84 3c c5 d5 b8 bb 76 0a b5 3b
       0.0023972811 0.016160982 -0.0056407177 0.0055249287
000160 12 65 cf bc 6a c0 1b bd db 2f 7c 3b ec d3 06 3c
       -0.025316749 -0.038025297 0.0038480673 0.008229237
000170 5c 6b 16 bc ee 76 70 3c 81 67 11 3c 1a 34 ad 3b
       -0.00918087 0.014676793 0.008874775 0.005285752
000180 c4 53 69 3c e4 eb 25 bd a8 d7 85 3b 4e 56 05 3c
       0.014241163 -0.040508166 0.004084546 0.008138252
000190 39 75 a0 bc a3 03 d4 3b 8e 3f de ba 8f b6 ae 3b
       -0.019587146 0.00647016 -0.0016956197 0.0053318213
0001a0 8c a9 db 3b fd e2 81 bb f1 d0 a5 3b 28 45 e5 bd
       0.006703561 -0.0039638267 0.005060308 -0.11194831
0001b0 e3 43 9f 3b 76 24 22 bc 1b a0 d8 3b 60 a4 e9 3b
       0.0048603876 -0.009896388 0.006610883 0.0071301907
0001c0 e7 a0 9c 3b 99 5b 4e 3b 90 ab a3 3b 58 dd 52 bd
       0.0047799232 0.0031487702 0.004994817 -0.05148062
0001d0 84 17 7a bc 78 ae 3b bc b2 23 4a 3c 0a ff cf 3b
       -0.015264396 -0.011455171 0.012337612 0.0063475417
0001e0 5d cf e9 3b a2 85 b6 3b 38 d4 c7 3b f3 33 a3 3b
       0.0071353153 0.0055701295 0.0060982965 0.004980558
0001f0 19 22 1c bb 09 6f d8 3b 44 55 97 3b 17 93 d4 3b
       -0.0023824035 0.0066050333 0.0046183188 0.006487261
000200 de 56 34 3b f0 ef f3 3b a3 49 d5 3b 66 06 40 bc
       0.0027517597 0.0074443743 0.0065090223 -0.0117202755
000210 5d 43 2f bb 40 1c aa bc 52 af e9 bb 1b 27 d9 bc
       -0.0026743033 -0.020765424 -0.0071314955 -0.026507905
000220 e8 9c d6 3a 82 7c 70 3c 14 69 fd bc 9e 7b 93 3b
       0.0016373666 0.0146781225 -0.030933894 0.0045008203
000230 86 b5 12 3c a7 b2 02 3b 86 98 59 bb 5c 06 45 3c
       0.008954411 0.001994291 -0.0033202483 0.012025442
000240 e6 a9 0f 3c ce 5f 48 3c e5 16 f6 3b b4 03 a3 3b
       0.008768534 0.012229873 0.0075100535 0.0049748067
000250 1d 3b 11 bc 7f 64 31 bc 13 e9 35 3b 87 3c 9e 3b
       -0.008864191 -0.010827183 0.0027757331 0.0048289928
000260 cb c8 f1 3b e7 9e b0 3a be 38 a1 bc 7d b3 d6 3b
       0.0073786727 0.0013475091 -0.019680377 0.0065521584
000270 60 d0 fe 3b 2c 25 1c bc c7 09 d6 3b b3 02 ca 3b
       0.007776305 -0.009530347 0.0065319273 0.0061648726
000280 c4 73 f3 bb 55 2b 81 bb 69 8a 71 bc 7d 26 35 3c
       -0.007429572 -0.003941933 -0.014742472 0.01105654
000290 90 81 60 3a ec 31 91 ba f1 8f 29 3b d7 8a 99 bc
       0.0008564228 -0.00110775 0.002587315 -0.018742962
0002a0 92 ea a2 3b 85 57 6f bb 7b e0 00 3c f4 74 d1 3b
       0.0049718106 -0.0036520672 0.00786602 0.0063921157
0002b0 a4 8f 5b 3b 06 30 f0 3b 76 b2 37 3c f0 ae c7 3b
       0.0033502365 0.0073299436 0.011211982 0.006093852
0002c0 af 40 97 3b db 4b 16 3b 70 5b f1 bc 33 10 8b bb
       0.004615865 0.0022933397 -0.029462546 -0.0042438745
0002d0 da 78 1f 3b 28 14 e6 3a bc 5d aa 3c 21 89 aa bc
       0.0024333508 0.0017553614 0.02079665 -0.020817341
0002e0 04 1d 6b 3c d2 00 11 bd 36 a7 63 3b f9 89 b6 3b
       0.01435018 -0.035401173 0.0034737117 0.005570647
0002f0 13 83 a6 bd 9f 5c 05 bd df 74 18 bb bb b7 16 3b
       -0.08130469 -0.032559033 -0.002326302 0.0022997695
000300 d0 1f 03 3c a3 a1 97 bb 03 2c 05 3c 21 e6 e4 3b
       0.00800319 -0.004627423 0.008128169 0.0069854413
000310 f2 e4 8c bb 6a 72 f6 3a c9 d5 f0 3b e6 f9 0e 3c
       -0.0042997533 0.0018802409 0.007349704 0.008726573
000320 3e 5e ba 3b 53 7a e1 3b 9a 44 f8 3b 72 ee 8a 3b
       0.005687504 0.0068810373 0.0075765373 0.0042398507
000330 8a a6 bb bc cc 5e ea 3b db 33 ae 3b f5 48 16 3c
       -0.02290656 0.007152414 0.0053162402 0.009172668
000340 18 71 75 bb 0b 29 08 bd 52 1a 69 3b c0 cd e4 3b
       -0.0037451442 -0.033242267 0.0035568667 0.006982535
000350 ac 75 39 3b 9c 57 b1 3b e1 13 f2 3b 2d 86 98 3b
       0.0028298898 0.005412055 0.0073876237 0.004654667
000360 7a 6f 78 3b 6e 07 2c 39 33 63 e2 3b f0 29 e0 3b
       0.0037908242 0.00016405966 0.006908798 0.006840937
000370 fd 11 37 3b 09 47 ad 3b d4 45 45 3b 0c 86 7f 3b
       0.0027934306 0.005288009 0.0030101435 0.003898981
000380 93 dc ab bc 7f f1 28 3b 57 ef 0b bd 65 dd 84 bd
       -0.020979201 0.0025778709 -0.0341638 -0.0648754
000390 08 c4 ac 3a e9 13 05 3c 76 f0 95 bc 0b b1 a5 3b
       0.001318098 0.008122423 -0.018303137 0.0050565056
0003a0 9a b2 79 3c 00 ff d1 3b 1c d0 02 3a 01 f8 ec 3b
       0.015240336 0.006408572 0.0004990117 0.007231713
0003b0 5e f2 d9 3b a2 43 65 3a 26 ec 8b 3b 91 f6 88 3b
       0.006651207 0.0008745735 0.0042700944 0.0041797836
0003c0 f4 bb f1 3a a2 08 0e b9 08 20 aa 3b 2c 63 cc 3c
       0.0018442855 -0.00013545391 0.0051918067 0.024949633
0003d0 b0 41 97 3b a6 96 5b 3b a3 31 53 3b 2f d3 e5 3b
       0.004615985 0.0033506542 0.003222563 0.0070137004
0003e0 70 4a 72 3b 2f 4a 37 3b 3f 30 cf 3b 13 3e 48 3b
       0.0036970638 0.00279678 0.00632289 0.0030554577
0003f0 02 cc 16 3b 48 ea ea bb 4c a8 03 bd ba d6 a1 3a
       0.0023009782 -0.007169042 -0.032142922 0.0012347319

FCNet.3.bias f4 [300]
000000 ba ca a4 3b 4b 56 a0 bb 80 3a 27 bb 29 df b3 bb
       0.0050290497 -0.0048930994 -0.0025517046 -0.0054892492
000010 24 0d c6 bb 78 98 37 bc 1f a6 b9 bb f1 12 bc bb
       -0.006044047 -0.011205785 -0.005665555 -0.0057395627
000020 2c f0 c2 bb 8b a1 91 3b 41 7f 89 3b 02 9c a8 bc
       -0.005949041 0.0044443063 0.004196078 -0.020582203
000030 bf cd 96 3b c1 46 81 bb 5c 38 ec 3a ad 93 be 3b
       0.0046021636 -0.003945202 0.0018022167 0.005815944
000040 02 38 41 3c 1b 67 86 3b 79 23 cf bb 6c 68 40 ba
       0.011793138 0.0041016466 -0.0063213673 -0.0007339779
000050 bc 17 3b bb 36 5c ba bb b0 50 5e 3b b7 3d d0 bb
       -0.0028548082 -0.005687262 0.0033922605 -0.006355013
000060 b3 f0 85 3b 5a bf 8d bb 7c 7b a7 3b 65 01 b1 3b
       0.0040875315 -0.0043257894 0.005111156 0.0054017776
000070 d4 a5 19 3c 5c 56 f8 39 6c 1f 80 3b a3 9f 07 bc
       0.009377915 0.0004736659 0.003909996 -0.008277806
000080 61 58 65 39 e1 ba 7c 3b 0a ab bd bc 6e f1 be 3a
       0.00021872066 0.0038563537 -0.023152847 0.0014567801
000090 15 55 bd bb 74 f1 02 3c 19 b8 aa 3b f0 a4 b8 bb
       -0.005777965 0.007992137 0.0052099344 -0.0056348965
0000a0 8c 69 bc bb 32 dd be bb 6a e5 b3 bb ea 0d b1 3b
       -0.005749887 -0.0058247084 -0.005489995 0.00540327
0000b0 26 b1 36 bc e3 a0 be bb 8c 2c 57 3b ed e4 b5 bb
       -0.011150634 -0.005817519 0.0032832948 -0.0055509717
0000c0 bb 11 a9 bc fb bc b2 bb 23 0b a2 3b c0 53 8c 3b
       -0.020638337 -0.005454657 0.0049451753 0.0042824447
0000d0 54 41 af 3b b2 38 af bb b7 a5 1d 3b aa 0e 5c 3c
       0.005348364 -0.005347335 0.0024055073 0.013431231
0000e0 54 7e b6 bb 72 10 d4 bb 3b 38 8c bc 07 fc 95 3b
       -0.0055692587 -0.006471687 -0.017116657 0.004577163
0000f0 72 21 64 3b 15 c8 7e 3b 2f 0a f5 bb ca 8b 76 bc
       0.0034809974 0.0038876582 -0.0074780206 -0.015047977
000100 84 8f d9 3b 31 5d b3 bb f6 0d a1 3b 0e 07 95 3b
       0.006639423 -0.0054737558 0.0049149944 0.00454796
000110 ae 10 bf bb ca f3 4e 3c a0 b7 b8 bb 02 70 bf bb
       -0.005830846 0.012631366 -0.005637124 -0.00584221
000120 fc e1 2b bc b3 1f b6 3a 72 ee 89 bb 5b 88 1e bc
       -0.010490891 0.0013894945 -0.004209333 -0.009676064
000130 b6 0a a3 3b d5 6b de bb 63 d0 bc bb f5 3f 31 3b
       0.004975642 -0.006787757 -0.0057621463 0.0027046178
000140 d6 01 94 3b 54 e2 b8 bb 5e da 87 3b 3e c1 a8 ba
       0.0045168204 -0.005642215 0.0041459044 -0.0012874973
000150 2f bb 2b bc 3b 96 39 bb 4f b5 74 3b 3c 11 e7 bb
       -0.01048164 -0.0028318304 0.0037339514 -0.007051615
000160 58 05 a9 bb 06 3d 3f bb 53 e0 95 3b a0 02 b3 3b
       -0.0051581077 -0.002918066 0.0045738607 0.0054629594
000170 42 2d 8a 3b 6f 33 d4 bb f5 27 4e bc b9 29 99 3b
       0.004216821 -0.006475858 -0.012582769 0.004674163
000180 70 69 b1 bb db 01 cf 3b 3e f6 d0 bb 5e d3 b0 bb
       -0.0054141805 0.00631736 -0.0063770106 -0.0053962907
000190 8b 42 b2 bb 27 0a 9c bb 28 bf 59 ba 2b f0 d0 bb
       -0.0054400614 -0.0047619524 -0.00083063776 -0.0063762865
0001a0 40 ce 95 bb c9 68 b5 bb c8 6d a0 3b 43 83 91 bb
       -0.004571706 -0.005536173 0.0048958994 -0.0044406964
0001b0 74 28 15 3a 0e a5 bf bb 64 08 b0 bb af 76 aa 3b
       0.0005689927 -0.0058485335 -0.005372094 0.0052021365
0001c0 39 81 0c bc 66 98 81 3b 20 e4 62 bb 5c c1 12 bc
       -0.008575731 0.003954935 -0.0034620836 -0.008957233
0001d0 cb 82 84 3b 7c 9a 2f 3b a4 12 a8 bb bc 9b b0 bb
       0.004043912 0.002679496 -0.0051291753 -0.0053896587
0001e0 2d 22 a6 bc 9d 00 c8 bb da 71 c1 bb 73 ba 12 bb
       -0.020279968 -0.0061035887 -0.0059034647 -0.0022388964
0001f0 30 da 90 3b 61 76 12 3b c2 21 b2 bb 09 d5 8e 3b
       0.004420541 0.0022348391 -0.005436153 0.004358892
000200 1e 43 b7 bc b0 dc bd bb 84 b5 d3 3b fe dd 42 3c
       -0.022370871 -0.0057941303 0.0064608473 0.011893747
000210 93 cd 49 bc cf 94 89 3b 5d 85 15 bc 8e 01 b8 bb
       -0.012317079 0.0041986476 -0.009126035 -0.0056154197
000220 30 38 8e bb 1f 81 fb 3b 4a 58 c0 bb 83 e0 c1 bb
       -0.004340194 0.0076753045 -0.0058699 -0.0059166565
000230 d5 61 91 3b 3a 15 d1 b8 ee e8 84 3b c7 48 78 3b
       0.0044367113 -9.96985e-05 0.0040560877 0.0037885176
000240 a8 d3 03 3c 22 1e 57 3c ab 15 a6 bb 48 e3 bd bb
       0.008046068 0.013129743 -0.005068501 -0.0057949163
000250 29 8e d9 3c 8c 78 b5 bb e8 eb a8 bb d2 4d 41 bc
       0.026557045 -0.005538052 -0.0051550753 -0.011798339
000260 72 27 c9 bb b1 e1 96 3b 5b e1 bc bb 6e dc cc bc
       -0.0061387355 0.004604541 -0.005764169 -0.025007453
000270 ad d6 8c 3b 80 e1 c4 bb 33 20 83 ba 23 ea d7 bb
       0.0042980523 -0.006008327 -0.0010004103 -0.0065891906
000280 5a 61 41 3c 15 54 ba bb 3b 97 a0 bc 06 00 53 3c
       0.011802996 -0.005686293 -0.019603362 0.012878424
000290 31 9f cb 3b db 26 fd 3b 46 a9 bb bb ab 53 bf bb
       0.0062140455 0.007725579 -0.005726966 -0.0058388314
0002a0 b2 f8 c7 bb 7b 88 51 3c 1c 98 bf bb 03 b9 8a 3c
       -0.006102645 0.012788887 -0.0058469903 0.016933924
0002b0 44 eb ca bb 76 54 81 3b a5 df 03 3b f6 3c 13 3b
       -0.0061925966 0.003946836 0.0020122316 0.0022466755
0002c0 23 4f a5 ba 0a bd 85 3b ed f5 10 3c c8 d7 5d bb
       -0.0012612086 0.004081373 0.008847696 -0.003385054
0002d0 27 71 c0 3b 3c 24 b9 bb dc 1d 1e 3b c9 a2 cb bb
       0.005872864 -0.0056500714 0.0024126684 -0.006214474
0002e0 9d a8 7e 39 71 c4 ee bb 38 ac b0 3b 48 9a d5 3b
       0.00024286141 -0.0072866012 0.005391624 0.006518636
0002f0 fc b7 c4 bb bf 87 9d 3b 53 29 87 3b 0a 0a 0f 3c
       -0.006003378 0.004807442 0.0041247993 0.008730421
000300 d8 53 bc bb 0b 48 9a 3b 26 44 b0 bc 7e cd 39 bc
       -0.0057472996 0.004708295 -0.02151687 -0.011340497
000310 f8 d5 92 bb 14 4c 86 3c 31 75 33 bc ce 02 b8 3b
       -0.0044810735 0.016393699 -0.010953234 0.0056155687
000320 a5 c1 99 3b eb 08 8a 3b c3 4a 70 3b c8 ae 16 3c
       0.0046922737 0.004212489 0.0036665655 0.009196945
000330 02 ee 2b bb 67 af 86 3b 88 a3 d4 bb df bc 32 3b
       -0.0026234393 0.004110265 -0.006489221 0.002727322
000340 bd 7e 81 3b 18 67 b1 bb 82 70 80 3b e7 75 c5 bb
       0.003951876 -0.005413901 0.003919662 -0.006026018
000350 b0 43 c8 bc fe 08 bf bb d9 5d ec bb 96 95 b5 3b
       -0.024446338 -0.0058299294 -0.007213336 0.0055415137
000360 69 b0 d4 bb 0c 08 46 3c 3e 37 2f ba f3 03 3f bb
       -0.0064907563 0.012086879 -0.0006683952 -0.002914664
000370 d5 29 b6 bb c0 4f b3 bc 8c 75 0a 3c 04 6c a9 3b
       -0.005559186 -0.021888614 0.008450877 0.005170347
000380 9d fc 1d 3c 99 08 02 bc f2 c0 fc 3b 4b e3 8d 3b
       0.009642747 -0.00793662 0.0077134306 0.004330074
000390 5d 71 a3 bb 75 0b bd 3b 47 bf a7 bb 1c 93 65 ba
       -0.004987879 0.005769188 -0.0051192376 -0.0008757578
0003a0 21 e3 44 bc 75 9a 92 3b 20 d9 5b bc 2a 4b 12 bc
       -0.012017042 0.004473979 -0.013418466 -0.008929053
0003b0 53 b4 8b 3b 73 0f 4d 3c 12 f5 ca 3b c9 c8 8a 3b
       0.0042634397 0.01251589 0.0061937654 0.0042353612
0003c0 ba aa dc 3c d0 a7 bc bb ea 41 ed 3b 07 f5 b3 bb
       0.026936878 -0.0057573095 0.0072405236 -0.005491856
0003d0 ae 18 a8 3b 78 3a a6 3c be 4a c2 bb 93 de b7 bb
       0.005129895 0.020291552 -0.00592932 -0.0056112497
0003e0 7e 7c 65 3b 73 e5 bb bb 91 61 84 3b 98 cc af bb
       0.003501683 -0.0057341396 0.004039951 -0.0053649656
0003f0 f4 85 c1 bc 52 c3 08 bb 30 0b 9f 3b 1d 69 90 3b
       -0.023623444 -0.0020868373 0.0048536286 0.0044070617

FCNet.4.weight f4 [300]
000000 ac da 8e 3f 0b bd 74 3f 22 f5 78 3f 09 5b 7d 3f
       1.1160483 0.95600957 0.97249043 0.98967034
000010 d8 db 76 3f e0 80 7a 3f 65 b8 6f 3f e1 85 93 3f
       0.96429205 0.978529 0.9364074 1.1525232
000020 00 64 7e 3f f3 fd a7 3f 01 da 8f 3f 26 b8 7e 3f
       0.9937134 1.3124374 1.1238405 0.9949974
000030 bd 3f 8f 3f 66 4e 70 3f 60 70 68 3f 9c 7e 8f 3f
       1.1191326 0.93869627 0.9079647 1.1210513
000040 89 a0 93 3f 2f 5c 8f 3f 3c 34 7f 3f 77 f9 93 3f
       1.1533366 1.1200007 0.9968908 1.1560506
000050 28 56 aa 3f ad 52 7a 3f 0b 92 95 3f f5 7e 7d 3f
       1.3307543 0.97782403 1.1685194 0.99021846
000060 e3 1c a2 3f 0d 73 7c 3f 6b 20 95 3f 80 7c 8e 3f
       1.2665066 0.98613054 1.1650518 1.1131744
000070 b8 a3 9f 3f 8b bb 93 3f c8 a8 a6 3f 0c b3 7e 3f
       1.2471838 1.1541609 1.3020258 0.99491954
000080 88 62 72 3f 79 4f 8c 3f c4 32 81 3f 1a 5e 96 3f
       0.94681597 1.0961753 1.0093617 1.1747468
000090 5e a7 7d 3f 5c 9e 9b 3f 81 b4 8e 3f 34 cd 7d 3f
       0.9908351 1.2157702 1.1148835 0.9914124
0000a0 e8 bd 7d 3f dd 50 7e 3f 11 40 7b 3f 18 f4 99 3f
       0.991179 0.9934214 0.9814463 1.2027617
0000b0 b7 74 70 3f 5a de 7d 3f 7a fa 90 3f df 64 77 3f
       0.9392809 0.99167407 1.1326439 0.9663829
0000c0 d4 1b 7c 3f 62 de 76 3f 97 31 97 3f 76 57 90 3f
       0.9847996 0.9643308 1.1812009 1.1276691
0000d0 2d 92 a2 3f 2d 94 77 3f 89 dc 77 3f 9f bc 79 3f
       1.2700859 0.96710473 0.96820885 0.9755344
0000e0 17 49 7d 3f 3b e8 7a 3f fe a3 80 3f b5 6b 91 3f
       0.9893965 0.98010606 1.0050046 1.1360995
0000f0 c1 ed 92 3f 2d 37 90 3f aa d1 76 3f e7 aa 80 3f
       1.1478807 1.1266838 0.9641367 1.0052155
000100 79 cb 99 3f 25 ea 7a 3f 04 db 96 3f f1 3f 90 3f
       1.201522 0.98013526 1.1785588 1.1269513
000110 37 16 7b 3f 1c dd 84 3f 31 1d 7d 3f 45 f8 7c 3f
       0.9808077 1.0379977 0.9887267 0.9881633
000120 92 2e 73 3f b5 0f a8 3f 03 95 7d 3f 7c 9d 7f 3f
       0.94992936 1.3129793 0.990555 0.9984968
000130 69 80 98 3f 46 7d 7e 3f 16 12 79 3f c1 f2 8e 3f
       1.1914188 0.994099 0.9729322 1.1167833
000140 7b ac 8f 3f 4a 40 7d 3f f1 16 93 3f 8f b0 81 3f
       1.1224512 0.9892622 1.1491376 1.0132006
000150 73 3b 8c 3f c8 df 90 3f a0 ba 8f 3f 56 66 7d 3f
       1.0955642 1.1318293 1.1228828 0.9898428
000160 d0 24 7b 3f a7 5c a0 3f 5f 9f 90 3f 16 db 8e 3f
       0.98103046 1.2528275 1.1298636 1.116061
000170 f6 c7 8f 3f 12 4c 7d 3f 86 bc 80 3f aa df 91 3f
       1.1232898 0.989442 1.0057533 1.1396382
000180 0b f6 77 3f 5f b3 81 3f 85 98 7c 3f b1 11 75 3f
       0.96859807 1.0132865 0.98670226 0.9573012
000190 09 2b 78 3f 33 54 90 3f 1e ac a8 3f e2 fc 7b 3f
       0.96940666 1.1275696 1.3177526 0.98432744
0001a0 34 48 7b 3f e8 25 7d 3f 15 df 8a 3f f7 52 79 3f
       0.9815705 0.98885965 1.0849329 0.9739222
0001b0 69 86 97 3f 6a 9e 71 3f db 77 79 3f b4 e1 93 3f
       1.1837894 0.94382346 0.9744851 1.1553254
0001c0 2f 57 a3 3f ca 20 8e 3f ed 26 69 3f 19 a5 77 3f
       1.2760981 1.1103756 0.9107502 0.96736294
0001d0 1a 06 91 3f 61 00 9f 3f b2 84 76 3f a8 27 73 3f
       1.1329987 1.2421991 0.96296227 0.94982386
0001e0 c2 4f 7e 3f 38 d7 7d 3f 82 d5 7d 3f c4 ad 82 3f
       0.9934045 0.9915652 0.9915391 1.0209279
0001f0 f2 2e 96 3f 01 a0 7b 3f d9 55 7e 3f 65 74 8f 3f
       1.1733077 0.9829102 0.99349743 1.1207396
000200 46 c7 80 3f 92 77 7b 3f 12 bd 9a 3f 0c 5a c0 3f
       1.0060813 0.98229325 1.208895 1.502748
000210 85 bc 80 3f 6e ac 92 3f 81 56 a7 3f 94 eb 7d 3f
       1.0057532 1.1458871 1.3073274 0.9918759
000220 4e c6 74 3f 4a 83 b0 3f 13 c4 7d 3f 0d 42 7c 3f
       0.9561509 1.3790066 0.9912731 0.98538285
000230 16 38 93 3f 45 44 8f 3f 1f a0 8f 3f 42 9d 94 3f
       1.1501491 1.1192709 1.122074 1.1610491
000240 bf f7 9c 3f b4 ba 7d 3f 11 44 79 3f 3d 18 7e 3f
       1.2263106 0.9911301 0.97369486 0.99255735
000250 33 28 ae 3f a3 4c 7b 3f a1 04 78 3f c9 5d 81 3f
       1.3606018 0.98163813 0.96882063 1.0106746
000260 39 fb 72 3f a6 c8 90 3f 30 df 7d 3f 27 09 82 3f
       0.94914585 1.1311233 0.9916868 1.0159043
000270 3d 24 9c 3f 22 ef 7c 3f a7 5c 71 3f 64 68 7d 3f
       1.2198559 0.9880239 0.94282 0.9898741
000280 4a f6 97 3f e7 cc 92 3f 5f 87 77 3f 92 6c af 3f
       1.1872036 1.1468781 0.96690935 1.3705008
000290 97 93 97 3f ea 78 9f 3f ea 5f 7b 3f 4b ce 7d 3f
       1.1841916 1.2458775 0.9819323 0.99142903
0002a0 36 7a 7d 3f d4 d4 aa 3f 86 fd 80 3f d1 42 b7 3f
       0.99014604 1.33462 1.0077369 1.4317266
0002b0 74 a9 7d 3f 02 9c a8 3f 63 4f 97 3f 13 f5 8e 3f
       0.9908669 1.317261 1.1821102 1.1168541
0002c0 3a c6 a5 3f b5 25 90 3f 68 6f 9c 3f 51 96 7e 3f
       1.2951119 1.1261507 1.2221498 0.99448115
0002d0 34 e0 98 3f e2 75 7b 3f 06 e2 8e 3f ec a5 7e 3f
       1.1943421 0.9822675 1.1162727 0.99471927
0002e0 5d 7d 8e 3f 3f 0e 7f 3f 8c 60 95 3f 74 6a 9a 3f
       1.1132008 0.9963111 1.1670089 1.2063737
0002f0 f3 c5 7b 3f d8 d4 8f 3f 9c 69 8e 3f 17 6b a3 3f
       0.9834892 1.123683 1.112598 1.2767056
000300 58 b0 7d 3f 3a 1f 91 3f fd a9 7e 3f da 68 6e 3f
       0.99097204 1.1337655 0.9947813 0.9312874
000310 65 77 83 3f 68 de 7e 3f 01 5f 90 3f ad 9a 90 3f
       1.0270811 0.99558115 1.1278993 1.1297203
000320 e6 a7 94 3f 2f 25 90 3f 51 08 92 3f ff 66 83 3f
       1.1613739 1.1261348 1.1408788 1.0265807
000330 9a 8d 82 3f 80 9f 90 3f 68 9b a9 3f b8 5e 94 3f
       1.0199463 1.1298676 1.3250551 1.1591406
000340 cc 0c 8f 3f 8e a5 7d 3f b0 8b 8e 3f 5d 6a 8f 3f
       1.117578 0.9908074 1.1136379 1.1204334
000350 be 39 80 3f 6f 75 7b 3f f6 b5 80 3f 96 69 8f 3f
       1.0017622 0.98226064 1.005553 1.1204097
000360 48 05 7d 3f 61 7c aa 3f 90 17 82 3f ac 76 80 3f
       0.98836184 1.3319207 1.0163441 1.0036216
000370 bf 16 7e 3f 72 63 7e 3f bf 5c c3 3f c5 fc 9b 3f
       0.9925346 0.9937049 1.5262679 1.2186514
000380 e2 ac 77 3f 19 b4 7f 3f c9 c8 a6 3f 5c 78 94 3f
       0.96748173 0.9988418 1.3030025 1.1599231
000390 8a 2b 78 3f ad aa a3 3f 0d 72 77 3f 5d ad 93 3f
       0.96941435 1.2786461 0.966584 1.1537281
0003a0 05 3f 7b 3f a2 28 91 3f 0d fc 80 3f a2 fe 7a 3f
       0.98143035 1.1340525 1.007692 0.9804479
0003b0 77 7c 8f 3f ec b8 af 3f 9a a2 91 3f d8 ec 90 3f
       1.1209859 1.3728309 1.1377747 1.1322279
0003c0 62 74 81 3f c0 ea 7d 3f d6 08 9a 3f 07 2d 7e 3f
       1.0113642 0.99186325 1.2033947 0.99287456
0003d0 cb bc 97 3f 7a 99 82 3f a4 64 7e 3f 2e 8b 7b 3f
       1.185449 1.0203087 0.99372315 0.98259246
0003e0 2b dc 97 3f 3a 1c 7e 3f 99 e8 91 3f e6 5b 75 3f
       1.1864065 0.9926182 1.1399108 0.9584335
0003f0 09 57 82 3f 6d 56 82 3f fb 13 93 3f c5 ed 8e 3f
       1.0182811 1.0182625 1.1490473 1.1166312
