DDPG/model/Pendulum-v0_actor.pt (torch, 497919 bytes, 9 tensors)

FCNet.0.weight f4 [400, 3]
00000000: fe52 8abb d43b 0e3c 3796 50ba 8f26 aaba
00000010: 3de6 6d3b 34fa de3a 142f 19ba b79e 4b3c
00000020: 6af9 c03a 0acf 97bb fb94 663c b6e2 623b
00000030: d188 9c39 6a9e 65bc f38e 03bc 5979 98bb
00000040: b5ae 09bb e2fc 133a a98e 02bc 7ac2 1d3c
00000050: c2b1 973b 53e7 65bb 6b3e 95bb a309 693a
00000060: 6575 dbbb 508a 313c a7b4 973b 7984 5fbb
00000070: 517a 803b 2efe a23a b284 d23b 9ac6 023c
00000080: 1b39 ffba 0318 4f3c 8a1b 23bc c5e0 2c3c
00000090: 06ec 8abb 865b 483b 0d64 6a3a 13bd b93b
000000a0: 21d2 03bb 74e2 a13a 1f0c ed3b f9ac abbb
000000b0: 653c 023b 148a 6c37 061d bdba 944b 813a
000000c0: 6777 9ebb 8e4a 2c3c 3bde 813b 035d 1e3b
000000d0: 6c3d 24bc 30d1 5bba 3dba d93a bcb8 8cbc
000000e0: 5f9c 993a 07b6 2fbc 5598 103c 344b 993b
000000f0: 8c2d a3bb 6b22 3dbc ab76 2fbb fe0b a13a
00000100: 5090 feb8 310c e739 339b 493a b5d6 453b
00000110: 5b09 453a 648c ef3b 75cf 9dbc 6d59 05bc
00000120: 779b bdbb 4847 383c e998 8d3b d4c3 43bb
00000130: 6d63 0e3d f583 5dbb d995 a2bb 7465 283c
00000140: cf31 793b d3cc 2b3c 0412 abbb a6cb 083b
00000150: fbf3 efbb 8b20 e4ba cf33 ec38 18b3 db3b
00000160: 3b67 85bc 6c6f eebb f3a8 913a a9dd 193c
00000170: 0510 ec3a 3750 8cbb 3dcc f73b 3be7 4c3a
00000180: 8787 ceb8 1cc4 0d3c 760d f73a f02a 263b
00000190: ac80 25bc 0b7b abba c340 bf3b 7e4c 0dbb
000001a0: 2fa7 b93a 52a0 a6bb a1f7 6d3a 445f 6c3a
000001b0: 8a4f 263c 7e3c 92bc aa42 c53b cd09 ce3a
000001c0: bf5b 12bc c8cf 4ebb 7f7c e03b 699e 27bc
000001d0: fdca 62bb 3838 1abb c7ce e93b 4321 153b
000001e0: 2cd3 0abc 70de fe3b be7d 763b 47ee 36bc
000001f0: c5b5 143c 8b5c 603b 0c20 a0ba 44db 89b9
00000200: c7eb 3039 8fca 20bc f135 363c b197 f23b
00000210: 6020 57bb 7027 95bb e943 4639 22b3 b1bb
00000220: 91c9 d73a 6c2d 853a 89c6 82b9 8348 ce3b
00000230: df76 023b a1cd 5cbb 7602 e23b 6f82 483b
00000240: d3aa 123c 45c8 9abb 0dfa f63a 98c5 08bb
00000250: ab86 373b eb0f 7aba 46a2 7bbb 4d83 e9bc
00000260: 4fbc cdb9 c6a7 493c 108b 94bc 3a07 ffbb
00000270: f2a9 4b3c 50a0 36bc 7dce 21bb 5913 3a3a
00000280: 775e 9fbc 1c4a 7d3a 35e1 4e3c f3fb 1abc
00000290: 699e 36bb 1ebc f7bb 14b3 fc3b 18f9 673b
000002a0: 91de 04bb f819 f9b9 b6f1 6438 e5f4 54bb
000002b0: b069 03bd cea6 2c3b c13c 0abb 5f8c b63a
000002c0: 3978 353a 44a0 8dbb b794 2d3c 6f60 823b
000002d0: ee77 69ba e4ed 133d 5588 d0bb 2e97 63bb
000002e0: 088e 09bb 8c52 493a 1ae7 c0b9 1e24 083b
000002f0: f12f ccb9 42ca 2fbb e234 dfba fc90 9f3a
00000300: 0bba c13b 7adb 963c d3e2 f0bb 3e38 6fbb
00000310: 452e ecbc 6f0b bb3a 3170 c23a 5e47 1f3d
00000320: 707e 0ebc a4a5 313c cd62 d7bc 4475 5f3b
00000330: 8ee2 10bc 6a71 143c 7292 9a3b 1d66 8f3b
00000340: e2d2 e0ba 6784 17b9 2dad 39ba c58e 333b
00000350: 0d2a 223b 6842 6cba c67e a93b e57d 053b
00000360: 08b1 ed3a 82f0 57bc fe91 133b 6c18 f7bb
00000370: 9c65 493c 2721 9f3b ef12 10bc e358 173c
00000380: ef12 a33b 0f22 39ba 76a1 15bb f86c 103b
00000390: 9ccb 613c e74a 70bc 07b5 5f3c 26f8 64bb
000003a0: 41c9 043c 5c2a 133b bad9 0fbc a24b 0e3c
000003b0: 09be 443b 83d5 903a e222 6eba b6ba 093a
000003c0: 3acd 383a 76a6 18bc 70b7 35bb 3284 e53a
000003d0: c578 0a3d cfc7 06bc fa1a 1ebb 9715 033c
000003e0: ad3f f83a 6125 9cba b0ec 8339 b0f6 d439
000003f0: efe8 003c 9870 82bb 640c f1ba e1e3 043c
-0.004221319 0.008681256 -0.0007956954 -0.0012981462 0.0036300563 0.0017011822 -0.0005843502 0.012427977
0.0014722769 -0.0046328353 0.014073606 0.0034619994 0.00029856575 -0.01401482 -0.008029687 -0.0046531376
-0.0021008675 0.00056452875 -0.007968583 0.009628886 0.0046293447 -0.0035080507 -0.00455456 0.00088896806
-0.006697344 0.010836199 0.0046296897 -0.003410606 0.0039208313 0.0012435371 0.00642451 0.007981921
-0.0019471975 0.012640002 -0.009955296 0.010551636 -0.004239562 0.003057213 0.00089413003 0.0056682914
-0.002011426 0.0012350813 0.007234111 -0.005239126 0.0019872424 1.4098845e-05 -0.0014428205 0.0009864443
-0.004836011 0.010515822 0.0039632595 0.0024164326 -0.01002441 -0.00083853584 0.001661129 -0.017177932
0.0011719576 -0.010724551 0.008825381 0.0046781544 -0.004979795 -0.01154385 -0.0026773612 0.0012286899
-0.00012138544 0.00044068837 0.0007690668 0.003018779 0.00075163477 0.007310437 -0.019263962 -0.008138997
-0.005786355 0.0112474635 0.004321207 -0.0029871361 0.03476279 -0.0033800576 -0.004961711 0.010278095
0.0038024073 0.010485846 -0.0052206535 0.0020873337 -0.007322786 -0.0017404718 0.00011263007 0.0067046992
-0.016284576 -0.007276466 0.0011112973 0.009391227 0.0018010145 -0.0042820233 0.007562189 0.00078164384
-9.8480894e-05 0.008652713 0.0018848616 0.0025355183 -0.010101479 -0.0013082934 0.0058365776 -0.0021560485
0.0014164204 -0.0050850296 0.0009077732 0.0009016881 0.0101507995 -0.01785111 0.00601991 0.0015719474
-0.008933007 -0.0031556953 0.0068507786 -0.010230639 -0.0034605854 -0.0023532044 0.0071352455 0.0022755421
-0.008473199 0.0077779815 0.003761157 -0.011165208 0.00907654 0.0034234847 -0.0012216582 -0.00026294042
0.00016872502 -0.009813919 0.011121259 0.007403337 -0.0032825693 -0.0045518205 0.0001890805 -0.0054229656
0.001646327 0.0010160632 -0.00024943452 0.006295265 0.0019907278 -0.00336919 0.006897266 0.0030595323
0.0089518605 -0.004723581 0.0018842831 -0.0020869728 0.0028003852 -0.0009539115 -0.0038396283 -0.028504992
-0.00039240948 0.012308067 -0.018132716 -0.007782844 0.012430655 -0.01114662 -0.0024689727 0.000709822
-0.019454224 0.0009662227 0.012626936 -0.009459483 -0.0027865416 -0.007560267 0.0077117775 0.0035396274
-0.0020274261 -0.0004751233 5.4584547e-05 -0.0032494601 -0.032083213 0.002634454 -0.002109334 0.0013927332
0.00069225166 -0.0043220837 0.010594538 0.003978781 -0.00089061155 0.036115542 -0.0063639083 -0.0034727561
-0.0020989198 0.0007679842 -0.00036793278 0.002077348 -0.0003894563 -0.0026823436 -0.001702931 0.0012173946
0.0059120706 0.018415201 -0.0073512583 -0.0036502029 -0.028830657 0.0014270375 0.0014834461 0.03888642
-0.008697137 0.010842714 -0.02629223 0.0034096995 -0.008843077 0.009060243 0.0047171647 0.0043761865
-0.0017152692 -0.00014449806 -0.0007082995 0.002739833 0.0024744303 -0.0009012581 0.0051725833 0.0020369228
0.0018134424 -0.0131799 0.0022517438 -0.007540753 0.012292292 0.004856247 -0.008793577 0.009237501
0.0049766223 -0.0007062265 -0.0022831834 0.0022037607 0.013781454 -0.014666296 0.013654 -0.0034937947
0.008104623 0.0022455668 -0.008779937 0.008685024 0.0030020496 0.001104996 -0.00090841774 0.00052539574
0.0007049624 -0.009317031 -0.0027727745 0.0017510711 0.03380658 -0.008226349 -0.0024124966 0.008000753
0.0018939875 -0.0011912995 0.00025162613 0.00040619588 0.007868036 -0.0039807074 -0.0018390534 0.008110971

FCNet.0.bias f4 [400]
00000000: 1ce6 62bb 2d7a e639 c233 6a3a dcc2 89bb
00000010: 1737 0a3b 489a 97bb 7e39 5ebb 917a 77bb
00000020: 70ad 12bb f812 33bb feda 903b e887 ffbb
00000030: f01a 30bb aa9f 973b dec9 023c 33e7 02ba
00000040: 1fa2 1ebb 161f 133b c14c 8b3b 4245 bdbb
00000050: ca58 04bb cb29 a9b7 34e5 143a 12dd 20bc
00000060: b9b2 2ebb 649f d73b 72e2 43bb cbd3 2a3c
00000070: 7a98 6dbb c199 d0bb c80b b93a 1010 4bbb
00000080: bbd6 e739 817f fe3a 5a6c 933b 0ce1 bdbb
00000090: ea54 46bb 62d6 a9bb 8c93 e83b c76f 6bba
000000a0: d16d b5bb 0b85 36bb 6d64 7e3a 1ad4 ad39
000000b0: 59f5 edba 2af4 c3bb 77fe d73a a067 a1ba
000000c0: ff61 2b3c 5e5e b4b9 5306 d63b 8aeb 07bb
000000d0: 5c6d ae3b 09a2 8f3b 0085 c03b 7d7b 96bb
000000e0: ffea cfbb 7e54 bb3b 8fb7 fdba cb69 11bb
000000f0: c4b9 3f3c d231 78bb 16d2 a3ba 7223 68bb
00000100: a98f 583c 3614 a63b c15c 833c c37b 323b
00000110: 41bf 76bb a626 ca3b 54c5 113b 30c2 493a
00000120: c02c 123b a566 91bb 516c 5fbb 7b15 073b
00000130: 50a9 6dbc f63b 4cbb 7cf5 c2ba 66d9 a7b9
00000140: e4cf 72bb b259 6a3c 8696 eeba b79c c4ba
00000150: b360 093c 7335 083c d30f 0bbb 0573 f1bb
00000160: 2ac1 76bb 2ebe e9ba d38e 68bb d137 8cbb
00000170: a249 85bb ecaa 473c 1d90 7eba 64c5 41bb
00000180: 20b5 44bb 5423 7dbb eb3c 6cbb 90f1 20bb
00000190: 854e 7bbb a3c5 be3b f1f3 ccba ee70 6fba
000001a0: 418d 09bc 8a10 ab3b 5b74 e7ba 8dea a2bb
000001b0: fedc 9abb a2e0 abbb 2e2b 803a 3fc4 9f3b
000001c0: c9c4 ad3b 35ee 0fbb 6f22 803a 25a9 463b
000001d0: 1b5b aeb9 c489 a13b 20a0 aabb bae4 153a
000001e0: 33c7 45bb ae82 1fbb 59a7 a83b bbec 903b
000001f0: da37 49bb 2201 283c ec10 413c fb82 393b
00000200: cdaa 2e3c af08 73bb a231 31bb 7603 45bb
00000210: 45ce 0d3c f2da 0bbb 5dc2 01bb 5069 bc3b
00000220: b6c6 16bb b300 a8bb a868 acbb c656 613b
00000230: bb04 043c ee33 04bb 9821 b33b 9b5f 85ba
00000240: dc0d b83b 8e98 613a 80b5 b83a 3a8f ce3a
00000250: 697e 3cbb 3dc0 073c f139 bdbb bc3f 65bb
00000260: f904 87bb bc25 e13a 3ce9 43bb 3fa5 afbb
00000270: e371 243b 84fc aabb 7cb4 aaba 83f0 5dbb
00000280: b30a 1bbb b34d ebbb 29a0 253c a66d ebba
00000290: 6622 2abb 78ff 0dbb c151 0bbb f3fb 0ebb
000002a0: ab45 59bb aa83 a5bb 84f1 16bb 145e 53bb
000002b0: 6525 10bb 115e 92bb 4860 0bbb 3de3 34bc
000002c0: fc0f 9038 564f 33bb 2505 92bb 6fb7 3fba
000002d0: 6bb7 bebb 6d22 1d3c e7f1 ebb9 3c13 c6b9
000002e0: 2af9 76bb a5c3 41bb 0327 c6ba 5e2b 48bb
000002f0: a4ce 48bb 7d61 30ba b689 56bc fb65 f83a
00000300: e77d 29ba fd6c 21bb 13f9 5d3a c900 b0bb
00000310: c665 4abb f5fe 96bb f77d 2ebc ae0b c6ba
00000320: 3861 4a3b 3e4f 5ebb 985e 2d3c 3f12 963b
00000330: 02cb bf3b c610 4d3b d93f aa3b cba7 95ba
00000340: 04da 0fbb ef84 cdba 3184 ba3a ca1b 3fbb
00000350: 0230 913b 3b08 b83a 5c5a 22bc a0f6 163b
00000360: 4db7 1f3b 965d 9e3a 6a68 9abb 037e 133a
00000370: c297 97bb 031f 2ebb d3cc 37ba b405 aebb
00000380: ca4c 1b3b 08cd 11bb f7c8 dc3a b9eb cd39
00000390: ec71 b63b 4929 673a b6d0 513b 153f 1fbb
000003a0: 08e4 ac3b 2329 b23b 0e01 4bbb a7a4 0cbb
000003b0: e6b3 adbb 129f 553b 4c1b 203b 680b 0fbb
000003c0: d7d6 7e3b 04fa 953b d2a4 15bb cf99 b5bb
000003d0: 0f1d f3ba 37ca cabb 8360 33bb 43b7 81ba
000003e0: 6001 073c 628a e13a e0de 83bb 5c02 96ba
000003f0: 1562 363c 1347 94bb fb50 f83b 5619 403b
-0.003462202 0.00043960047 0.0008934104 -0.0042041373 0.0021089965 -0.004626546 -0.003390878 -0.0037762264
-0.002238121 -0.0027324539 0.004420637 -0.0077981837 -0.0026871525 0.0046271877 0.007982699 -0.0004993558
-0.0024205518 0.0022448949 0.004251093 -0.0057760784 -0.0020194524 -2.0165831e-05 0.0005679906 -0.009818332
-0.002665682 0.00658028 -0.002988961 0.010426472 -0.0036254213 -0.006365985 0.0014117891 -0.0030984916
0.0004421974 0.0019416661 0.0044990005 -0.00579465 -0.0030263015 -0.005183027 0.007097667 -0.00089811947
-0.005536773 -0.0027850296 0.00097042957 0.0003315516 -0.0018154784 -0.0059800344 0.0016479035 -0.0012314208
0.010460376 -0.00034402584 0.0065315156 -0.0020739757 0.0053230952 0.00438333 0.00587523 -0.0045923577
-0.0063451524 0.0057168594 -0.0019357073 -0.0022188302 0.011702005 -0.0037871492 -0.0012498524 -0.0035421518
0.013217845 0.0050683273 0.01603544 0.0027234412 -0.0037650617 0.006169158 0.002224286 0.00076964777
0.0022304505 -0.004437285 -0.0034091661 0.0020612169 -0.014505699 -0.003116367 -0.0014874185 -0.00032014697
-0.0037050182 0.014303612 -0.0018202818 -0.0015000318 0.008384871 0.008313525 -0.0021219149 -0.0073684477
-0.0037651756 -0.0017833167 -0.003548552 -0.004279115 -0.0040676156 0.012186747 -0.00097108056 -0.0029567117
-0.0030015185 -0.0038625794 -0.0036047052 -0.0024558045 -0.0038346362 0.0058219 -0.0015636665 -0.00091339543
-0.008395494 0.0052204775 -0.0017658578 -0.0049718083 -0.0047260514 -0.005245284 0.0009778494 0.0048756893
0.0053029996 -0.002196205 0.0009775887 0.003031322 -0.00033255745 0.004929753 -0.0052070767 0.0005717982
-0.0030178546 -0.0024339366 0.0051469025 0.0044227517 -0.0030703456 0.010254176 0.01178382 0.002830683
0.010660839 -0.0037084033 -0.002703764 -0.0030061877 0.0086551355 -0.0021340218 -0.0019799687 0.005749859
-0.0023006625 -0.0051270365 -0.0052614994 0.0034383996 0.008057768 -0.0020172554 0.005466651 -0.0010175587
0.0056168865 0.0008605801 0.0014092177 0.0015759238 -0.002876187 0.008285579 -0.0057747294 -0.0034980616
-0.004120466 0.0017177383 -0.0029893657 -0.005360275 0.0025092296 -0.0052180905 -0.0013023759 -0.003386528
-0.00236575 -0.0071808933 0.010108986 -0.0017961755 -0.0025960444 -0.0021667164 -0.0021258446 -0.0021817654
-0.0033153098 -0.005051096 -0.0023032138 -0.003225212 -0.0021994945 -0.00446678 -0.0021267105 -0.011040506
6.8694324e-05 -0.002736052 -0.0044561797 -0.00073134055 -0.005820205 0.009590727 -0.00045002924 -0.00037779834
-0.0037685134 -0.0029566076 -0.0015117828 -0.0030543427 -0.0030640746 -0.0006728394 -0.013094356 0.0018951291
-0.0006465599 -0.0024631612 0.0008467596 -0.0053711873 -0.0030883416 -0.00460803 -0.01065015 -0.0015109682
0.00308807 -0.0033921744 0.010581635 0.004579812 0.005853058 0.0031290515 0.0051955995 -0.0011417804
-0.0021950016 -0.0015679876 0.001423007 -0.002916085 0.004430772 0.0014040539 -0.009909239 0.0023035184
0.002437073 0.0012082334 -0.004712154 0.0005626382 -0.0046262452 -0.0026568777 -0.0007011417 -0.0053107385
0.0023696893 -0.0022247452 0.001684456 0.00039276274 0.0055677798 0.00088181027 0.003201527 -0.0024299074
0.005276207 0.005437033 -0.003097597 -0.0021460445 -0.0053009866 0.0032596034 0.0024430333 -0.0021826867
0.0038885379 0.0045769233 -0.0022833836 -0.005542017 -0.0018548089 -0.0061886567 -0.0027370758 -0.0009896535
0.008240074 0.0017207379 -0.0040243715 -0.0011444795 0.011131783 -0.0045250743 0.007578013 0.0029311976

FCNet.1.weight f4 [400]
00000000: 37fc 793f 9495 7c3f de2b 7b3f 22c4 7d3f
00000010: 11ee 803f 0544 783f b755 7f3f e47f 7e3f
00000020: 42ae 7e3f a6f1 773f 26d3 803f dada 823f
00000030: 29a0 7b3f 90d3 7d3f 3741 803f bf5c 7e3f
00000040: 0095 7b3f 045a 7b3f 75b6 7c3f 2c14 803f
00000050: de61 7b3f 4e8e 7d3f de8f 7d3f 7a57 843f
00000060: e8ef 7e3f 2ac8 7e3f 4ecc 7e3f dbcd 803f
00000070: 586a 773f 6ffd 813f 2869 7c3f 5bb9 7c3f
00000080: 7d3e 7d3f e1b0 7a3f 6f07 7e3f 328e 793f
00000090: b15b 833f 265b 803f 38ab 7e3f c01d 7d3f
000000a0: 1727 7e3f 37a2 7f3f 1529 793f 33f2 7e3f
000000b0: ffc1 7e3f 9380 793f 97ff 793f ed52 7c3f
000000c0: e3d4 803f 0876 793f 2277 813f f982 833f
000000d0: 5727 823f 32d5 7d3f ec7a 823f 8b98 7e3f
000000e0: d81d 793f 7e0b 823f 82b2 7c3f 9ffe 7d3f
000000f0: 04b8 813f e076 783f 318f 793f 8ae9 7d3f
00000100: e466 803f a36a 813f 50a5 823f 9f04 833f
00000110: 5086 7f3f c375 7d3f aab8 7c3f 9690 7c3f
00000120: c43d 7f3f 040c 7f3f fec8 7f3f 15c6 7f3f
00000130: 691d 853f 1598 7d3f 756a 7e3f 80b8 7d3f
00000140: 3ff4 7f3f 68f8 813f 2a58 7d3f a31d 7a3f
00000150: f046 7f3f 0385 803f bf27 7a3f 78a0 823f
00000160: 71ec 803f f806 7e3f c9d6 7a3f 8368 7e3f
00000170: 87af 7c3f 5a45 813f d32d 7d3f 6558 7f3f
00000180: a179 793f 7b13 803f c1aa 7e3f b2f1 7d3f
00000190: 8671 7c3f 6ac4 803f 1332 7c3f a3ec 7c3f
000001a0: bbc9 823f 6cf3 7f3f c868 7b3f 97c8 7d3f
000001b0: 5038 7e3f dad0 7d3f 40d2 7b3f 6374 7c3f
000001c0: 9fe8 7c3f 8e9b 7e3f 79d9 7b3f 6aa1 833f
000001d0: f6c0 7f3f f662 7a3f 2927 803f 3d11 7b3f
000001e0: d991 833f c63b 7d3f a3da 7b3f 569f 803f
000001f0: f62f 793f a6f8 803f a8c4 823f 338e 7e3f
00000200: 8d8b 813f 27be 7d3f a309 7b3f 8bcb 7f3f
00000210: 2a56 7f3f e9e8 7c3f 2c09 7c3f 4f26 7e3f
00000220: 1200 7c3f 10bc 7f3f 89f6 773f ea7b 7b3f
00000230: 0b2e 803f 5819 7e3f 2748 7e3f e715 7a3f
00000240: fb07 813f 6291 833f ec7e 803f c143 783f
00000250: 125a 7e3f 42d8 7f3f b807 813f 198d 783f
00000260: b927 7e3f ccc1 7f3f fd45 7f3f b459 7f3f
00000270: d498 7e3f fad8 7f3f 05d9 7a3f 47a9 7f3f
00000280: dd7c 7d3f 8049 823f a211 813f 6d28 7d3f
00000290: 40e9 7d3f 23a6 7c3f ca7e 7d3f 3d7b 7f3f
000002a0: a8d3 763f 39bc 833f bbb0 7e3f 4e37 7f3f
000002b0: bfb0 7b3f 2965 7e3f c927 7d3f d998 813f
000002c0: e24b 783f 0ba9 7e3f 1dd5 7e3f 8d1d 7a3f
000002d0: 3f11 813f d3ea 7f3f 3c8c 813f 63c5 793f
000002e0: 3ec0 7f3f 3c59 7c3f cd4f 7a3f 0d12 7b3f
000002f0: 7316 7c3f 42b4 7b3f 2934 853f f4a0 7b3f
00000300: 52a1 813f f70e 7f3f 6c04 7d3f 776c 7e3f
00000310: 73cb 7e3f ea59 793f 3085 843f b08d 823f
00000320: 217b 7b3f 2757 7d3f c50f 813f f697 7f3f
00000330: 9439 813f c230 7c3f d6e6 7e3f 60a4 7a3f
00000340: 7e26 7b3f 6c26 7a3f c8eb 7f3f 8727 763f
00000350: 0279 7e3f c2de 7d3f 0790 833f 15d1 7c3f
00000360: 0d79 7d3f 0954 7a3f 85ae 783f fdb8 793f
00000370: 1294 7d3f fb45 813f de00 803f 03ba 773f
00000380: ce10 803f 3b31 7c3f c768 7d3f 9a26 7e3f
00000390: 4b89 813f d7a6 7b3f 483d 803f 42d6 7a3f
000003a0: 0298 823f 54d0 813f eed2 7e3f 896c 7c3f
000003b0: c6fc 7d3f 9ee8 7d3f ccbc 7e3f 9d25 7e3f
000003c0: fe40 7f3f 4e9a 813f dd58 7a3f 48e3 7d3f
000003d0: 8dde 7e3f fe20 843f eb47 7f3f c86e 7b3f
000003e0: d6fa 7f3f 9182 7c3f 9013 7e3f 7629 7c3f
000003f0: 0f10 813f ed8f 7d3f 9fce 7c3f e50c 7b3f
0.97650474 0.9866574 0.9811381 0.991274 1.0072652 0.9697879 0.99740165 0.99413896
0.99484646 0.968531 1.0064437 1.0223038 0.9829126 0.99150944 1.0019902 0.9936027
0.9827423 0.9818423 0.9871591 1.0006156 0.9819621 0.99045265 0.9904765 1.0339196
0.9958482 0.99524176 0.99530494 1.0062822 0.9664664 1.0155467 0.98597956 0.9872033
0.98923475 0.97926146 0.9923009 0.974826 1.0262357 1.0027816 0.9948001 0.9887352
0.99278396 0.99856895 0.9732831 0.99588317 0.99514765 0.97461814 0.97655624 0.98564035
1.0064968 0.97445726 1.0114481 1.0274345 1.0168256 0.99153435 1.0193763 0.9945151
0.9731116 1.0159757 0.9870988 0.99216646 1.0134282 0.9705639 0.9748412 0.9918448
1.00314 1.0110668 1.0206699 1.0235785 0.9981432 0.99007815 0.98719275 0.9865812
0.9970362 0.9962771 0.99916065 0.99911624 1.03996 0.99060184 0.9938119 0.9910965
0.99982065 1.0153933 0.9896265 0.9770147 0.9971762 1.0040592 0.977169 1.0205221
1.0072156 0.99229383 0.97983986 0.9937822 0.98705333 1.009929 0.9889805 0.99744254
0.97451216 1.0005945 0.994793 0.9919692 0.98610723 1.0059941 0.9851391 0.9879858
1.0217813 0.9998081 0.9820676 0.991342 0.99304676 0.9914681 0.9836769 0.9861509
0.9879245 0.9945611 0.9837871 1.0283635 0.9990381 0.9780725 1.0011951 0.9807318
1.0278884 0.9891933 0.9838049 1.0048625 0.9733881 1.0075881 1.0216265 0.9943573
1.0120713 0.99118274 0.9806158 0.99919957 0.9974085 0.9879289 0.98451495 0.99277204
0.9843761 0.99896336 0.9686056 0.9823595 1.0014051 0.9925742 0.99328846 0.9768967
1.008056 1.0278742 1.0038733 0.96978384 0.99356186 0.9993936 1.008048 0.970903
0.9927936 0.99905086 0.9971617 0.9974625 0.9945195 0.99940455 0.97987396 0.9986767
0.9901865 1.017868 1.0083506 0.9888981 0.99184036 0.98691005 0.9902159 0.9979742
0.9641671 1.0291816 0.9948842 0.99693763 0.9831657 0.9937311 0.9888883 1.012477
0.9699079 0.9947669 0.99543935 0.9770134 1.0083388 0.9996769 1.0120921 0.97566813
0.99902713 0.9857366 0.97778016 0.9807442 0.98471755 0.98321927 1.0406543 0.9829247
1.0127356 0.9963221 0.9883487 0.99384254 0.9952919 0.9740282 1.0353146 1.019949
0.98234755 0.9896111 1.0082937 0.9984125 1.0095696 0.985119 0.9957098 0.97907066
0.9810561 0.9771488 0.9996915 0.96154064 0.99403393 0.99168026 1.0278329 0.98756534
0.99012834 0.9778448 0.97141296 0.97547895 0.9905406 1.0099481 1.0000265 0.96768206
1.0005128 0.9851262 0.98988 0.9927765 1.0120023 0.9830145 1.0018702 0.9798318
1.0202639 1.0141702 0.99540603 0.9860311 0.99213827 0.9918307 0.9950683 0.99276143
0.99708545 1.0125215 0.97791845 0.9917493 0.99558336 1.0322568 0.99719113 0.98215914
0.9999212 0.9863673 0.992486 0.98500764 1.0083026 0.9904774 0.9875278 0.9806655

FCNet.1.bias f4 [400]
00000000: 7e33 b5bc d4a0 9cbc ab61 cfbc 4345 41bc
00000010: 497d 0abb 9030 ffbc 2431 31bb 07fc 2abc
00000020: 2ebe d3ba bbb7 05bd 8673 b7bb 4163 6cbb
00000030: 14ca b0bc 1898 39bc 55b1 bdbb da3c a1bc
00000040: 4ee1 44bc 0e85 92bc 1f1e 51bc 2c2f 60bb
00000050: 0e8b aabc be80 8dbc 7a4f 9ebc 0e97 f2bb
00000060: 9b12 59bb 75ff 40bc 9034 71bb e333 5abb
00000070: 7f8d e0bc ecba 7bbb 42e3 acbc 4716 90bc
00000080: 56f2 abbc c157 a3bc 345f 48bc 0963 a5bc
00000090: 4a67 b5bb 3e96 d1bb ba51 aebb 0029 8ebc
000000a0: 6d3a 16bc eee2 ae39 79f2 d3bc 684b aabb
000000b0: 1410 44bc a70d b1bc 25a7 e4bc 0290 0bbc
000000c0: a8c0 0bbb 103f e8bc db8a 3eba 8004 313b
000000d0: 5936 02bb aef5 2dbc fbcf 003c 6a52 f8bb
000000e0: 464d f8bc f6cd 12bb 382a 05bd 8b5b b6bb
000000f0: 3da0 edbb d8db 17bd 14aa d0bc 6337 4fbc
00000100: 659b b9bb 890e 88bb c866 2dbb 89fb 5ebb
00000110: d074 16bb 0da2 79bc 3853 62bc 0642 b4bc
00000120: 8111 7dbc 56ee aebb 2794 34ba b63a 32bc
00000130: db9a a5ba 58da 2abc fa82 c9ba 7d41 aebc
00000140: 7edc debb 49d4 41bb 9ce9 7cbc 1bd6 d1bc
00000150: 1aca 01bc bd33 aabb ea22 d5bc 3638 3bbb
00000160: 833a 0bbc 3ace c1bc 2c94 b1bc 9e9b aebb
00000170: d0f7 13bc 0fba 0fbc d471 94bc 6d11 f7bb
00000180: ddad eebc eae1 76ba 1878 04bc 9fdb bcbb
00000190: 6fc0 54bc 8694 8ebb d389 6cbc 0be7 1abc
000001a0: 89f3 bebb 458c 76bc 1615 f5bc 8821 33bc
000001b0: a55c 14bc f668 49bc c568 cbbc 89a7 93bc
000001c0: 9aa1 4cbc e0e8 efba 4656 b0bc 2c33 82bb
000001d0: 501d bdbb dc4f 85bc 0eae 4bbb 8914 d4bc
000001e0: 13ac 5c38 04d4 62bc 7a58 85bc 5d86 dabb
000001f0: 57c2 0bbd 8aeb 1dbb 9938 53bb c546 78bc
00000200: bc66 b8bb a870 67bc 9dfd 1cbc 0b0f 09bb
00000210: 593e ccbb d1bf 87bc ef54 87bc 3dd8 4abc
00000220: 03b6 9abc 23a7 67bb 1791 f6bc a42e 49bc
00000230: 5274 cabb 990b 9aba 8bfd 58bc fc18 c9bc
00000240: bb41 18bb ece7 b8bb aeca ceb9 d6f6 c0bc
00000250: 6d64 20bc 1048 a5bb baad 1fbc e05b e5bc
00000260: baf5 d1bb 71e7 1cbc 070d cfba ed3b a8bb
00000270: 47ef 79bc da74 15bc 7b01 91bc 1c9f 84bc
00000280: efe5 54bc 56be 96bb a550 10bb 4ab5 4bbc
00000290: 50a5 a6bb e4d0 b6bc 8b6f 3bbc 0aa3 0239
000002a0: e04a 11bd 0e65 acb9 0906 a5bb 9bf7 10bc
000002b0: b0d8 7bbc 6389 d7bb 32da c9bb a725 aebb
000002c0: 1a17 cebc 20c8 6dbc 8361 c0bb 24be cfbc
000002d0: 0157 02bc e3f1 05bc 9a22 9b39 c77f dfbc
000002e0: f9e9 26bb eb66 a9bc 089e 05bd 50ee a4bc
000002f0: a95c a0bc 6203 dcbc 06c0 cfbb accc a1bc
00000300: 3c07 593a ec57 febb 8029 94bc 394a fbbb
00000310: 6a05 e7bb 5f70 87bc 53db 5ebb 7ef3 19ba
00000320: 44c4 9cbc b7c5 54bc 109a 52bb 50ec ecbb
00000330: 77cb 26bb 2da4 4abc 945a 40bc 38e3 d4bc
00000340: cd72 eabc be77 f2bc 5192 48bc b2a7 0abd
00000350: bde2 38bc c71b abbc 1644 26bb 348b 9cbc
00000360: cba9 8bbc 0a85 b9bc b5f0 b7bc 786a f2bc
00000370: bac6 18bc 903c 37bb 0243 03bc 0e35 06bd
00000380: 4111 1bbc 5739 6cbc 26c7 abbc 8bd8 67bc
00000390: a8f1 11bb 0671 d2bc 36d5 2bbc d81d e8bc
000003a0: 30a1 66bb 54ce 42bb 4743 28bb 9900 cbbc
000003b0: 3eb3 07bc 65c8 85bc be47 a1bc c0dd c5bc
000003c0: d355 f8bb 5c29 893b 821c f7bc a505 9bbc
000003d0: 5831 86bc d080 d9ba bb35 6ebc 7170 01bd
000003e0: 1580 e8bb 02ad bebc 2470 83bc 7bec 89bc
000003f0: 8bf2 42bb 3891 84bc 21de 62bc d21a 89bc
-0.02211928 -0.019119658 -0.025315126 -0.011796298 -0.0021131805 -0.031151086 -0.0027037347 -0.010436065
-0.00161547 -0.032645922 -0.0055984883 -0.0036069902 -0.021580733 -0.011327766 -0.005788962 -0.019682337
-0.012016607 -0.017885711 -0.012763529 -0.0034207804 -0.02081826 -0.017273303 -0.019325007 -0.007403261
-0.0033122662 -0.011779656 -0.0036805011 -0.0033295087 -0.02741122 -0.0038410975 -0.021104459 -0.017588748
-0.020989578 -0.019939305 -0.012229729 -0.020188825 -0.0055359947 -0.006396084 -0.005319801 -0.017353535
-0.009169203 0.00033356942 -0.025872456 -0.0051969774 -0.011966724 -0.021612955 -0.027911732 -0.008518221
-0.002132455 -0.028350383 -0.0007268616 0.002701074 -0.001986882 -0.010617657 0.007862086 -0.007578184
-0.030310284 -0.0022400594 -0.032510966 -0.005565112 -0.007251768 -0.037074894 -0.025471725 -0.012647483
-0.0056642764 -0.0041521234 -0.0026458967 -0.0034024438 -0.002295781 -0.01523639 -0.013813786 -0.022004139
-0.015446068 -0.0053384705 -0.00068885315 -0.010878256 -0.0012634652 -0.010428034 -0.0015374117 -0.021271462
-0.006801187 -0.0029575995 -0.015436556 -0.025614789 -0.00792172 -0.005194156 -0.026017625 -0.002856744
-0.008497837 -0.023657907 -0.0216771 -0.0053286096 -0.009031251 -0.008772387 -0.018120684 -0.007539919
-0.029135639 -0.0009417819 -0.008085273 -0.0057634856 -0.012985333 -0.0043512015 -0.014437157 -0.009454499
-0.0058273715 -0.015048091 -0.029917281 -0.010933287 -0.009055291 -0.012293091 -0.024830231 -0.018024223
-0.012489701 -0.0018303655 -0.021525513 -0.0039733853 -0.0057713166 -0.016273431 -0.0031079086 -0.025888698
5.2612344e-05 -0.013844494 -0.01627754 -0.0066688494 -0.034120884 -0.002409669 -0.003222978 -0.0151535915
-0.0056274813 -0.01412598 -0.0095819505 -0.0020913507 -0.0062330184 -0.016570957 -0.016519992 -0.012380657
-0.018885618 -0.0035347424 -0.030098481 -0.012279186 -0.0061784172 -0.0011752724 -0.013244043 -0.024548046
-0.0023232538 -0.0056428816 -0.0003944239 -0.0235552 -0.009789568 -0.005043991 -0.0097460095 -0.027997911
-0.0064074667 -0.009576664 -0.0015796729 -0.005134097 -0.015254802 -0.009122098 -0.017700901 -0.01618915
-0.012994274 -0.0046003265 -0.0022020724 -0.012433359 -0.0050856248 -0.022316404 -0.011440168 0.00012458503
-0.035471797 -0.00032881688 -0.00503612 -0.008848096 -0.015371487 -0.006577657 -0.006160044 -0.005314547
-0.0251575 -0.014513046 -0.0058709993 -0.02535922 -0.007955314 -0.008175346 0.00029589684 -0.027282609
-0.0025469048 -0.020678958 -0.032621413 -0.020133168 -0.019575434 -0.026857082 -0.0063400296 -0.019750915
0.0008278971 -0.007761946 -0.018086195 -0.00766876 -0.007050206 -0.016533075 -0.003400524 -0.000587277
-0.019136555 -0.012986592 -0.0032135285 -0.007230319 -0.0025450864 -0.012368244 -0.0117403455 -0.025987253
-0.028619194 -0.029598113 -0.012241916 -0.033851333 -0.011284527 -0.020887269 -0.0025370172 -0.019109346
-0.017048737 -0.022646446 -0.022453645 -0.029591784 -0.009324724 -0.0027959682 -0.008011581 -0.03276544
-0.009464563 -0.014417968 -0.020968985 -0.014150749 -0.0022269282 -0.02568866 -0.010487845 -0.028334543
-0.003519129 -0.0029725032 -0.0025674866 -0.024780558 -0.008282481 -0.016330907 -0.01968753 -0.02415359
-0.0075785904 0.0041858386 -0.03016496 -0.01892359 -0.01638095 -0.0016594175 -0.0145391775 -0.031601373
-0.0070953467 -0.023275856 -0.016044684 -0.016836395 -0.0029746618 -0.016182527 -0.013846905 -0.016736422

FCNet.3.weight f4 [300, 400]
00000000: 48ac 7dbb 4044 e3bb d6bc 72bb e32a babb
00000010: 18a6 8f3c 5499 e1ba a382 2bbc 684e 3c3a
00000020: f233 dabb e734 1dbb 8a44 6d3c f22a cebb
00000030: 2fae 18bb 4050 d5bb 592a 87bb 6af0 9fbb
00000040: 56de 66bb b280 b23a 46c7 473b f719 33bc
00000050: eb89 363b a65a a0ba 3acc 063a f4a8 14bd
00000060: 9717 ddbb ba51 fdba 77a8 13bc cd0a 8dbb
00000070: f695 51bb 1a2b 6fbc a084 fabb a5af 22ba
00000080: bfab 7ebb 63f2 9ebb 50fc 2cbc db6c 26bb
00000090: acd4 02bc c976 ccbb fd2a ac3b 6672 c2bb
000000a0: 3230 3abb ebfe 94bb 9d95 a1bb 49b8 6dbc
000000b0: 2f59 c439 578f 003a 1627 88bb aedf 4ebb
000000c0: 8cef fbbb 20aa 1abb 7a2f 953c 6936 dabc
000000d0: 9c45 0bbc 86c5 3b3b adb3 83bc 0bfc e9bb
000000e0: 4be5 983b 84b0 9d3c 5a9e c1ba 573b e2bb
000000f0: ab8e 533c bc90 77bb 7687 1dba 44b8 6f3a
00000100: a102 f43b 141f 9a3c 068e b63c a5f1 bbbc
00000110: 1127 f4bb cccd f2ba 6e43 d9bb d5b3 9abb
00000120: b8d0 24bc 9022 1ebc 36ea 0bbc 573d 2e3b
00000130: 042e 22bc 7eb6 c5bb b782 3ebb aa13 a3b9
00000140: 95e0 07bb cf70 6e3c beb2 bfbb b5b5 abba
00000150: e223 b33a ecc4 edbb 5f86 46bb 10b6 103b
00000160: b5fc a5bb 1d7e 71bc ecab 2b3a f182 09bc
00000170: bfe3 d9bb 75cc 843c 8476 57bb da96 9eb9
00000180: 1d5f 9abb 68ec e6bb 18c9 5cbb fb42 06bc
00000190: 34a3 0ebb c0e6 293c a91b c6bb 4beb 19bc
000001a0: d8ee 2a3a 84a7 9cbb fc9c 03bb 4464 12bc
000001b0: f9fe 92bb 0a1a 4cbb cffb a3bb da38 c2b9
000001c0: a589 10bb e3a6 f8bb b435 c8bb 8d2a afbc
000001d0: 9e3b 78bb 9dc8 273b cc82 4abc 8d3f 9e3a
000001e0: 54e8 efbc 361c a0bb a0aa 32bb f4de 793c
000001f0: 8ba5 1abb dfd7 0ebc 2e40 cc3a 8494 68bc
00000200: f242 bc3b 0e7d 64bb aafd 3dbc 748c e1bb
00000210: 181d efba 354d c9ba e2bd 58ba d3c8 a8ba
00000220: f839 5dba 21f7 f6bb 6873 2a3a ad6a bb3a
00000230: 839c a4bb dbb1 bebb 56db 6aba 2722 21bb
00000240: 5f21 833c 3f20 60bc 23c0 423b 1f07 01bc
00000250: 1340 cfbb 276d 183c 1e1a f7ba 5009 823b
00000260: 84fe bebb 72cf 2d3b cef7 a4bb 477c 28bc
00000270: 3329 a3bb c3d8 78ba 73a9 7cbb ae6a 93ba
00000280: 415c b2bb 682d a838 263b ebbb 0682 03bb
00000290: a262 0abc b7e5 b23a 4bdd 29bc be42 49bb
000002a0: 5e5c c4bb 72cc b8bc df03 1cbc 972b 08bc
000002b0: 3165 77bb b056 c1bb 6f15 c8bb 3210 023a
000002c0: ee79 e7ba 8c53 183b 6d2a 08bc 8c7b a7bb
000002d0: 8e31 703b 55e2 003c f31b 1ebb 1e51 93bb
000002e0: 8293 f4bb 492c 443a 8c25 b7ba 53d0 963a
000002f0: 87df 053a e95b 40ba 81ed 24bd 5900 cdb9
00000300: d303 0dbb 76b9 23bb 9ce0 5dbc 237b a9bb
00000310: 3d52 a3bb 18ed eabb 0e2c 07bd d5dc b0bc
00000320: 4525 06bb 3ebd a1bb ef91 2cbc 5c3e 033c
00000330: 56ee e4bb 213e 7f3b 512c 0cbc e9d9 563a
00000340: a2bd 97bb 3e68 3238 9517 323b 84f8 5eb9
00000350: af78 b7ba 82ff 3fbc 6b8b 963b 8fe6 e6bb
00000360: 597c d2bb efcc c0bb 95c6 7238 d530 11bc
00000370: 5c5d bcbb 69df 8dbb 804e 3c3b 7405 99bb
00000380: 79c0 a139 df3c ccbb 3ea4 afbb 2307 ba3a
00000390: c6f9 963c 89e8 43bb fa1a 8cbb d735 1d3b
000003a0: 2dc7 98bc c207 a23c 18cd 31bc b9c0 b9bb
000003b0: 936f 9ebb 40fa bcbb 0710 2abc d74d 6c3a
000003c0: 8869 99ba de26 69bc 784e debb 7b8b 083c
000003d0: a445 3bbb 465b c1bc bd76 453a cda8 ec39
000003e0: 1b10 09bc 7eee cebb 96bf 91bb 9d32 babb
000003f0: 411c f7bb b8d1 a3bb a7a9 3d3b 5cc9 b9bb
-0.0038707424 -0.0069356263 -0.0037038825 -0.005681382 0.017535254 -0.0017211833 -0.010468158 0.00071833143
-0.0066590244 -0.002398783 0.014481673 -0.0062917406 -0.002329718 -0.0065098107 -0.0041249213 -0.0048809545
-0.0035227737 0.0013618676 0.0030483766 -0.0109314835 0.0027853202 -0.0012234047 0.00051421265 -0.03629394
-0.006747197 -0.0019326725 -0.009012333 -0.004304266 -0.0031980253 -0.014597679 -0.0076452047 -0.00062059826
-0.0038859693 -0.004850672 -0.010558203 -0.0025394473 -0.007985275 -0.006239746 0.005254148 -0.0059340475
-0.0028410074 -0.00454699 -0.0049311654 -0.014509269 0.0003745048 0.0004904172 -0.00415505 -0.003156643
-0.0076884683 -0.0023599938 0.018211115 -0.026637273 -0.008500483 0.0028651669 -0.016076887 -0.0071406416
0.0046660057 0.019249208 -0.0014771924 -0.0069040465 0.012912433 -0.0037775477 -0.000600926 0.0009144584
0.0074466025 0.018813647 0.022284519 -0.022942374 -0.007450946 -0.0018524467 -0.0066303527 -0.0047211447
-0.010059528 -0.009651795 -0.008539727 0.0026586854 -0.009898666 -0.0060337177 -0.0029069611 -0.00031104434
-0.0020733227 0.014553263 -0.005850165 -0.0013100418 0.001366731 -0.007256141 -0.0030292494 0.0022081174
-0.0050655254 -0.01473954 0.00065487507 -0.008393035 -0.006649464 0.016210774 -0.0032877037 -0.00030248502
-0.0047110454 -0.007047225 -0.0033689197 -0.00819468 -0.0021764757 0.0103699565 -0.006045778 -0.009394477
0.0006520576 -0.0047807116 -0.0020082584 -0.008935038 -0.0044859615 -0.003114345 -0.005004383 -0.0003704492
-0.0022054699 -0.007588254 -0.0061099175 -0.021382594 -0.0037877331 0.0025601753 -0.012360286 0.0012073383
-0.029285587 -0.0048861755 -0.0027262345 0.01525091 -0.0023597206 -0.00871846 0.0015583092 -0.014195565
0.005745285 -0.0034864577 -0.011596123 -0.0068831984 -0.0018242924 -0.0015358092 -0.0008268041 -0.0012877233
-0.0008439119 -0.0075367843 0.0006502182 0.001429876 -0.0050235405 -0.005819542 -0.0008959075 -0.0024587007
0.016007124 -0.013679563 0.0029716573 -0.007875233 -0.006324777 0.009303368 -0.0018852388 0.0039683953
-0.0058286805 0.0026521352 -0.0050344234 -0.010283536 -0.0049792766 -0.0009492749 -0.0038553148 -0.0011247003
-0.0054431264 8.019322e-05 -0.007178682 -0.0020066514 -0.008446367 0.0013648783 -0.010367702 -0.0030709947
-0.0059924563 -0.022558425 -0.009522407 -0.008311174 -0.0037749524 -0.0059002265 -0.0061060707 0.000496152
-0.0017660239 0.0023243157 -0.008310896 -0.0051111635 0.003665063 0.007866462 -0.0024125546 -0.004495754
-0.0074638734 0.00074834056 -0.0013972982 0.0011506177 0.00051068555 -0.00073379144 -0.040265564 -0.00039100906
-0.0021517172 -0.002498237 -0.013542321 -0.0051721497 -0.004984169 -0.007169377 -0.033001 -0.021589676
-0.0020468992 -0.0049358895 -0.01053284 0.008010473 -0.0069864197 0.0038946944 -0.008555488 0.00081959233
-0.0046307603 4.253559e-05 0.00271747 -0.00021264149 -0.0013997759 -0.011718633 0.0045942566 -0.0070465277
-0.006423515 -0.005883805 5.788224e-05 -0.00886174 -0.005748434 -0.004329611 0.0028733313 -0.0046698395
0.00030851716 -0.0062328423 -0.0053601554 0.0014192801 0.018429648 -0.002989324 -0.004275677 0.002398839
-0.018649662 0.01977909 -0.010852121 -0.0056687263 -0.004835078 -0.005767137 -0.010379798 0.00090142846
-0.0011704424 -0.014230458 -0.0067842565 0.008334036 -0.0028575445 -0.023603093 0.0007532647 0.00045139194
-0.008365656 -0.0063150516 -0.0044478877 -0.005682303 -0.00754121 -0.0049993657 0.0028940232 -0.005669756

FCNet.3.bias f4 [300]
00000000: 752e 68bb a9c4 963b 0fdf e439 332d 213a
00000010: c07e 16b9 091a 90bb 437c f538 c89a cebb
00000020: 7305 67bb bfbe d23a cfb3 25ba d9a2 373b
00000030: 9c45 853a a49c b53b ae03 063b 650c bc3a
00000040: f6c3 503a f7ac 6339 a00a de3a 9d9f cd37
00000050: 3374 263a 6f4a 8139 a176 06bb 3426 f6ba
00000060: 28ba 3ebb 1e43 45bb 68fe 213b 0049 0a3b
00000070: dfe0 89bb 7e6a 28bb db91 d93a 1a25 cb3b
00000080: ae6b 8eba b5f0 81ba f3aa 323a 8c34 2bbb
00000090: 50fb 953a 5f69 b6b9 fd01 8eba d856 a53a
000000a0: d24a f9ba 28cf 21bb 8213 0939 2645 5239
000000b0: 2872 cbb9 d69e 263b 869c 6539 1ef7 053a
000000c0: 472e 653a ff1f eeba 0f75 15bb 33bc 2b39
000000d0: 248c 1c3a afda f1ba 7928 123b 72d0 763a
000000e0: 96a3 9939 7a83 48bb 051e c2bb e6e9 c139
000000f0: 6d8f f0ba b7f1 973a ce40 6fbb 541c 0ab9
00000100: 4d6c 89bb 737c 6b3b 9eac ceba 920e 6d39
00000110: 6af4 e939 39c9 243a bd84 493b 0bf4 683a
00000120: 1b97 753a 6ed3 9239 45ed 5dbb ba41 383a
00000130: f747 84bb f232 d136 2bcd 163a e664 8a3a
00000140: ed4c dbba 019d 433a 05be 343b 8478 bebb
00000150: 7ec6 333a 6bab 8c3b 080e 01bb 98f4 4cbb
00000160: b9a1 0a3b d6ef 343b 01d3 2d3b ca6d 8c3a
00000170: 6279 84bb 5598 1b3b e84c 66bb 901e a038
00000180: 3885 cfbb 96b5 813b 2fe5 6ab9 08a8 18bb
00000190: 2c2d 0e3a cce1 8eba 3207 0e3a 1332 dcbb
000001a0: 664a 863b 9338 373b 9398 98bb fc04 d73b
000001b0: 9571 6d3a fced 233b 0679 023b a983 2e3b
000001c0: a994 34b7 8b47 393a 3a42 26bb 0f1c 6d3a
000001d0: c339 203a e566 f7ba d5a2 213a 244f ed3a
000001e0: 79ca 3d3a a2a0 0dbb 414c 3fbb 4cf2 0abb
000001f0: 4a78 dc3a b1fb 183b 994d 083a 319d 0a3b
00000200: fcbc 0c3a e1b7 f5ba 8a14 6dbb b185 f039
00000210: c5c7 c33a ef4f e3bb 91cb 94ba dfe0 eaba
00000220: f395 813a 67e8 cd3a c978 153b 0b90 adbb
00000230: ac53 223a 4e5b 26ba 0a26 c83a 3aae d73a
00000240: 67a4 53bb ced7 b6ba 4fde bc3a 8cdc fe39
00000250: 838d 79bb b3b6 eb39 7ebf d4ba 3355 c8ba
00000260: b2c7 77bb b492 363a 3008 d6ba c31f bebb
00000270: 2a83 513a f966 dcba 5e20 293a f857 16bb
00000280: f2d6 c5ba 87fc 65ba a381 bb39 93bc fd39
00000290: b572 98bb 23ab 1d3a 2844 473a 4b6f c63a
000002a0: fe1b d838 b087 213a 67f0 6c3a 37f2 82bb
000002b0: 0fb7 213a 7bc8 0f3b 5ed1 b438 1bad bc3a
000002c0: 14ea 073b 77b2 9bbb 55ff 83ba cbc7 b2ba
000002d0: a5bd c63a d218 2e3a 182d 18b9 26af 8039
000002e0: b6a5 dbbb c388 933a 9233 133b 7ba1 5d3b
000002f0: 5fb3 54bb 9e07 8139 e74b 723a da36 17ba
00000300: 4148 c23a cb83 f5b7 9ddb 30bb 44e8 4f3b
00000310: 3dc5 c03a 2841 ffba 7a96 0a39 609a 913b
00000320: 03ce 293b 0518 aebb 9492 853a c053 5e3a
00000330: be54 2d3a ec19 36bb 4a2a 3839 200a 813a
00000340: 2c9c 68bb d81b 163b 5fe4 87ba 04de ac3a
00000350: 54bb baba a1ae 63bb 6add 2dba cb94 873b
00000360: b227 bcbb e0f5 fdba 4f93 c6bb bfd0 a639
00000370: 9872 de3b fa9e 63bb 1bf7 8dbb 8850 48ba
00000380: 8284 b23a 89dc dbba bdf8 f3b9 eac8 5e3a
00000390: 7eba a93a ab22 9e3a 9459 b0ba e206 263b
000003a0: b687 f9ba 6bd0 483b af46 b2bb 47a9 073a
000003b0: 94aa a1bb 9057 7db8 302b e6ba 7317 be37
000003c0: 4c0e 433a ad1a c3bb 075f e63a 2daa efba
000003d0: e487 623a f199 083b 1635 a13a 4de4 d3b9
000003e0: d377 0a3b 6a71 5fba d41c da39 6530 093a
000003f0: f7b2 4bbb 569d 98bb 3be7 92bb c44f f039
-0.0035428081 0.0046010804 0.0004365374 0.0006148398 -0.00014352333 -0.004397635 0.00011705656 -0.0063050725
-0.003525105 0.0016078575 -0.0006321044 0.0028020649 0.001016784 0.0055423547 0.002044897 0.0014346956
0.0007963771 0.00021712841 0.0016940422 2.451223e-05 0.00063497125 0.00024660255 -0.0020517486 -0.0018779696
-0.0029102657 -0.003009982 0.0024718288 0.002110064 -0.004207715 -0.002569824 0.0016599254 0.006199491
-0.0010865831 -0.0009913655 0.00068156346 -0.002612385 0.0011442695 -0.00034792253 -0.0010834333 0.0012614382
-0.001901949 -0.0024690125 0.00013072605 0.0002005292 -0.0003880423 0.0025424263 0.00021897451 0.00051103707
0.00087425526 -0.0018167495 -0.0022805368 0.0001637794 0.00059718103 -0.0018452014 0.0022301956 0.0009415216
0.00029304315 -0.0030595944 -0.0059239888 0.00036986097 -0.0018353291 0.0011592422 -0.0036507132 -0.00013171259
-0.0041938187 0.0035932332 -0.0015767997 0.00022607509 0.00044623326 0.0006286088 0.0030749284 0.0008886463
0.0009368525 0.00028004817 -0.0033863347 0.0007028837 -0.004036899 6.234616e-06 0.00057526183 0.0010558635
-0.00167313 0.0007462055 0.002757908 -0.0058127064 0.0006857886 0.0042928956 -0.0019692201 -0.003127372
0.0021153523 0.0027608774 0.0026523473 0.0010713872 -0.0040427903 0.002374192 -0.0035141055 7.635087e-05
-0.0063330196 0.0039584143 -0.00022401357 -0.0023293514 0.0005423601 -0.0010901033 0.00054179423 -0.0067198365
0.0040982245 0.0027957305 -0.00465686 0.0065618735 0.00090577576 0.0025013676 0.0019908561 0.0026628769
-1.0763449e-05 0.00070678507 -0.0025369064 0.00090450136 0.0006112123 -0.001887527 0.00061659265 0.0018105251
0.00072399486 -0.0021610637 -0.0029189738 -0.002120155 0.0016820517 0.002334338 0.0005199551 0.0021150822
0.0005368737 -0.0018746817 -0.0036175572 0.00045875975 0.0014936855 -0.006937019 -0.0011352171 -0.00179198
0.0009886607 0.001570952 0.002280759 -0.0052967123 0.00061922777 -0.0006346003 0.0015270126 0.0016455122
-0.0032294036 -0.0013949813 0.0014409515 0.00048610976 -0.0038078732 0.00044958814 -0.0016231386 -0.001528418
-0.0037808237 0.00069646095 -0.0016329344 -0.005802126 0.0007992262 -0.0016815356 0.00064516615 -0.0022940617
-0.0015093966 -0.0008773286 0.00035764006 0.0004839642 -0.004652346 0.0006014576 0.00076014036 0.0015139369
0.000103048966 0.00061618816 0.0009038508 -0.0039961594 0.00061689405 0.0021939564 8.6220665e-05 0.0014394851
0.0020738887 -0.0047514993 -0.0010070602 -0.0013639865 0.001516272 0.0006641272 -0.00014512648 0.00024544558
-0.006703104 0.0011255968 0.0022461158 0.0033818174 -0.0032455546 0.00024610473 0.0009242878 -0.00057683664
0.0014822559 -2.9267647e-05 -0.0026986368 0.0031724134 0.0014707219 -0.0019474374 0.00013216762 0.0044434518
0.0025910146 -0.005312922 0.0010190778 0.00084811077 0.0006612054 -0.0027786447 0.00017563361 0.0009844936
-0.0035493476 0.002290478 -0.0010367743 0.0013188724 -0.0014246502 -0.0034741538 -0.00066324195 0.0041376106
-0.0057420367 -0.0019375645 -0.006060041 0.00031817515 0.006788563 -0.0034732209 -0.004332436 -0.00076413946
0.0013619813 -0.0016774099 -0.00046533896 0.00084985665 0.0012949256 0.0012064775 -0.0013454431 0.0025333692
-0.0019037637 0.0030641805 -0.005440555 0.00051750656 -0.0049336646 -6.040145e-05 -0.0017560478 2.2660684e-05
0.000744079 -0.0059541077 0.0017575928 -0.0018284969 0.0008641465 0.002084371 0.0012299146 -0.00040415153
0.002112855 -0.0008523675 0.0004160168 0.00052333466 -0.0031082013 -0.004657428 -0.004483131 0.00045835797

FCNet.4.weight f4 [300]
00000000: 9a5b 793f 5cc4 833f 99b9 843f a016 853f
00000010: bc5f 833f 03ae 803f 8b11 843f 38b5 803f
00000020: 71b6 7a3f 2b5d 823f 4a4c 843f 36f3 803f
00000030: bb10 833f 8a59 843f 500d 833f c66f 823f
00000040: d359 823f f344 843f 2531 843f 46cb 7e3f
00000050: d03b 823f 3f69 843f c1ab 783f ba58 853f
00000060: 77ec 823f 98e9 793f f06c 803f 1f43 843f
00000070: dac9 7c3f e5bb 823f 67d6 7d3f 1fd7 843f
00000080: 1a45 823f 345a 7c3f 8061 843f 1658 773f
00000090: 683e 843f bbbe 833f 2636 843f d971 843f
000000a0: 71bf 823f d18d 843f 841d 823f d05e 823f
000000b0: 6bac 7a3f ced2 823f 5494 843f 7175 843f
000000c0: c2c7 833f 45a6 773f beab 823f 6a5d 823f
000000d0: 4aa7 7f3f 27b5 823f 3935 833f 8a89 843f
000000e0: 35a0 833f fb7d 823f eaff 803f 1cae 843f
000000f0: 1a64 793f f40f 843f 890f 813f 8219 833f
00000100: f7ad 833f f438 833f efe4 823f e244 843f
00000110: 06e0 833f 1dbd 833f 8c73 833f 7e36 7f3f
00000120: a1ff 853f 0340 843f 07c7 743f 0905 803f
00000130: f851 763f 6f46 823f 5711 853f e867 823f
00000140: 682e 7a3f b605 853f 305d 883f 7e13 813f
00000150: 9389 843f 4ed8 833f 0ddf 823f d869 7e3f
00000160: 7e51 843f d4dd 823f c5d2 843f 5408 803f
00000170: 17f6 753f 6a01 8a3f dd12 763f ccb1 833f
00000180: 0c8d 803f 5d4d 833f bcd3 843f e8fe 783f
00000190: d5b5 843f d64f 7d3f edec 783f 4446 803f
000001a0: c393 833f d822 833f 12c0 7c3f c05a 843f
000001b0: 70da 843f e44a 833f 58d0 8a3f d010 813f
000001c0: a838 843f 54cd 843f 95bf 823f 9416 853f
000001d0: a214 853f d83c 843f 6fbf 843f bb29 833f
000001e0: 0585 7f3f c508 7a3f fb1a 833f 1ff3 773f
000001f0: bc22 803f 2d66 823f 8745 813f 35c6 833f
00000200: 8f4a 843f a683 833f 4885 753f d2d5 833f
00000210: 8b5a 823f 74ba 803f d25a 823f 59a0 833f
00000220: 91b6 7f3f da69 853f ed44 823f 15a2 803f
00000230: f4b0 853f 9666 7e3f 1cbb 823f fb0b 803f
00000240: bb88 7e3f 081e 833f 17d8 833f 7c8d 843f
00000250: d01e 8b3f f7fb 833f 5e8f 7b3f 353e 7a3f
00000260: fe88 803f 55a0 843f 4cd7 783f fdb7 7b3f
00000270: af50 813f 5d12 843f cfb5 843f 856f 823f
00000280: 349c 823f a506 803f 8805 7f3f 15c3 853f
00000290: a9a1 803f 5f20 843f dfe0 833f f30e 803f
000002a0: 30e2 7e3f 9092 843f 20c3 833f 7f7e 803f
000002b0: cb84 843f 4df9 833f 5351 823f d34f 803f
000002c0: 8d47 823f 6f5b 7e3f a504 7c3f 06a0 7b3f
000002d0: 6835 803f c23c 843f 23cc 843f e352 843f
000002e0: 2083 803f ab2b 843f 3922 843f bd5e 833f
000002f0: 2188 833f 3260 843f 70e3 833f 0c9a 843f
00000300: d961 823f 44ca 823f bd31 833f afdb 823f
00000310: 5a39 823f 5569 823f a092 7e3f e25a 843f
00000320: 16c8 833f 6dcb 803f 1445 823f cfd6 833f
00000330: 2c6a 823f 9fcc 823f 628e 843f 2730 853f
00000340: cc64 783f 2384 833f a65b 833f 442e 863f
00000350: 19ed 803f a81f 843f 7261 793f 7cc0 833f
00000360: 6568 803f eb8e 823f 8e43 803f cb34 7f3f
00000370: 4ccf 843f f7a2 833f 55e6 7d3f ad50 843f
00000380: fcd8 7f3f f0f0 823f e2b8 7a3f bb3f 823f
00000390: b2d5 8c3f 854f 803f fd9c 823f cb7c 823f
000003a0: c4e6 823f b4d2 833f 1d15 7f3f 1737 843f
000003b0: 7092 7e3f 47bf 833f 4628 833f ddba 823f
000003c0: 4b56 823f 96d7 7f3f f819 863f d272 823f
000003d0: aa04 843f c560 843f 57f8 7f3f b053 7e3f
000003e0: 5170 823f b55f 7d3f 4d47 843f df73 843f
000003f0: 95ba 793f f4c7 7e3f f724 783f 7acf 7e3f
0.974054 1.0294299 1.036914 1.039753 1.0263591 1.0053104 1.0317854 1.0055304
0.97934633 1.0184683 1.0335782 1.0074222 1.0239481 1.0339825 1.0238438 1.019036
1.0183662 1.0333542 1.0327498 0.9952892 1.0174503 1.0344619 0.97137076 1.0417702
1.0228413 0.9762206 1.0033245 1.0332984 0.987455 1.0213591 0.99155277 1.037815
1.0177338 0.9857514 1.0342255 0.96618783 1.0331545 1.0292581 1.0329025 1.0347244
1.0214673 1.0355779 1.0165257 1.0185184 0.9791934 1.0220582 1.0357766 1.034834
1.0295336 0.9673808 1.0208662 1.0184758 0.9986464 1.0211533 1.0250617 1.0354474
1.0283266 1.0194696 1.0078099 1.0365634 0.9741837 1.0317369 1.0082866 1.0242159
1.0287465 1.0251756 1.0226115 1.0333521 1.0302742 1.0292088 1.0269637 0.99692523
1.0468637 1.0332035 0.9561619 1.0001537 0.96218824 1.0177745 1.0395917 1.018796
0.9772706 1.0392368 1.0653439 1.0084074 1.0354484 1.0300386 1.022432 0.99380255
1.033737 1.0223947 1.0376822 1.0002542 0.9607863 1.0781682 0.96122533 1.0288634
1.0043044 1.0257984 1.0377116 0.97263956 1.0367991 0.98949945 0.9723652 1.0021443
1.0279468 1.0245008 0.98730576 1.0340195 1.0379162 1.025723 1.0844831 1.0083256
1.032979 1.0375161 1.0214716 1.0397515 1.0396922 1.0331068 1.0370921 1.024711
0.99812347 0.9766963 1.0242609 0.9685535 1.00106 1.0187432 1.0099343 1.0294863
1.0335253 1.0274551 0.95906496 1.0299628 1.0183882 1.0056901 1.0183966 1.0283309
0.9988795 1.0422928 1.0177284 1.0049464 1.0444627 0.99375284 1.0213351 1.0003656
0.99427384 1.024354 1.030032 1.0355678 1.0868778 1.0311269 0.98265636 0.9775117
1.0041807 1.036143 0.97203517 0.9832762 1.0102748 1.0318104 1.0367984 1.0190283
1.020392 1.0002028 0.99617815 1.0450159 1.0049335 1.0322379 1.0303 1.0004562
0.99563885 1.0357227 1.0293922 1.0038604 1.0353025 1.0310456 1.0181068 1.002436
1.0178086 0.99358267 0.98444587 0.9829105 1.0016298 1.0331042 1.0374798 1.0337795
1.0040016 1.0325826 1.0322944 1.0263287 1.0275918 1.0341856 1.0303783 1.0359511
1.0186111 1.0217977 1.0249554 1.0223292 1.0173752 1.0188395 0.9944248 1.0340235
1.0295436 1.0062081 1.0177331 1.0299929 1.0188651 1.0218695 1.0355952 1.040532
0.97028804 1.02747 1.0262344 1.0482869 1.0072356 1.0322161 0.97414315 1.0293117
1.0031859 1.0199865 1.0020616 0.9968993 1.0375762 1.0284108 0.99179584 1.033712
0.99940467 1.0229778 0.9793836 1.0175699 1.1002715 1.0024267 1.0204159 1.0194334
1.0226674 1.0298676 0.9964159 1.0329312 0.99442196 1.0292748 1.0246665 1.0213276
1.0182585 0.99938333 1.0476675 1.019129 1.0313923 1.0342032 0.9998831 0.99346447
1.0190526 0.9897416 1.0334259 1.0347861 0.97550327 0.99523854 0.96931404 0.99535334
