DDPG/model/Pendulum-v0_critic_target.pt (torch, 499519 bytes, 9 tensors)

FCNet.0.weight f4 [400, 4]
-0.25573003 -1.3194245 -0.30185452 -0.06749089 -0.500543 0.10788649 -0.021669144 0.4608103
-0.29936427 0.58512384 -0.08801913 -0.3256913 0.03706474 -0.18702652 -0.16972464 -0.066362545
-0.43186322 0.11856011 0.013685357 0.013965138 -0.4760919 0.12388587 -0.023291454 0.13738166
-0.45427343 0.09992102 0.009282066 -0.0013997426 -0.3793456 0.050485104 -0.0009254397 -0.022327183
-0.009263222 1.020055 0.14442067 0.3570415 -0.39505085 0.09279858 0.00025658426 0.025901297
-0.2986153 0.60572135 0.20316646 -0.0035313675 -0.46679616 0.1057392 0.009500139 0.004720536
-0.37950256 0.056852598 0.003928958 -0.04817189 -0.47371534 -0.029978728 0.022382153 -0.35915822
-0.4837062 0.11094417 0.014581575 0.009009877 -0.36410543 -0.0010699024 -0.0136613725 -0.05331262
-0.441057 0.040938005 0.0009025238 -0.024133325 -0.4971688 -0.63837546 -0.006788207 -0.3453622
0.5786141 -1.0327997 -0.23479405 -0.094316304 -0.49929094 0.4468637 -0.006028727 0.16880026
-0.38754472 0.046834707 -0.0035388428 -0.027914185 -0.40545967 0.08308151 -0.0002673016 0.0014402152
-0.42630094 0.039221413 -0.0021730326 -0.03307214 -0.44871917 0.07981402 0.0077393944 0.007825427
-0.34822756 0.048270468 0.009997275 -0.01825524 -0.47889757 0.05051956 0.002368923 -0.030241989
-0.44460785 0.28130022 0.0006239568 0.0765718 -0.38591683 0.06624838 0.0006560242 -0.02106638
0.091454275 -0.8127466 -0.09143964 -0.123869516 -0.14015694 0.2712671 0.038340043 0.020043306
-0.4372858 0.10420012 0.014118808 -0.011198809 -0.45707113 0.105900995 0.013986137 -0.002702328
-0.34885505 0.13721183 0.005859056 0.018214097 -0.43004033 0.063935734 0.008878284 -0.024486331
-0.45906278 0.048421156 0.0016170761 -0.026541539 -0.45197034 0.04249373 -0.0030349595 -0.03663106
-0.29256693 1.2914022 0.017040871 -0.006259318 -0.48784408 0.07652881 0.006915294 -0.01183397
-0.4938814 0.10072647 0.012076582 0.004606375 -0.37599438 0.025736507 -0.0039642453 0.020244777
-0.32397637 -0.56803745 -0.0037003316 0.07284631 -0.48087192 0.110187806 0.017122071 -0.0013269475
-1.0140504 0.03991246 -0.064475924 0.016604645 -0.3939496 0.051822398 0.0053890604 -0.040788673
-0.46349594 0.112659745 0.014014545 0.0066766245 -0.47593522 0.22565039 0.15380883 -0.30071193
-0.49659047 0.06793747 0.008420075 -0.022936832 -0.42860854 0.12874466 0.0071026464 0.050506156
-0.4516565 0.08577479 0.0030251304 0.005891967 -0.4443717 0.11653036 0.012747056 0.004378524
-0.43679807 0.22023328 0.056126628 -0.025584657 -0.07085089 0.8936673 -0.004922227 0.017327223
0.09535542 0.29976776 -0.23798409 0.026516201 -0.3519796 0.022453561 -0.009392637 -0.04702455
-0.12524213 -0.3688817 -0.31797555 -0.042057164 -0.23835932 -0.033451907 -0.035409145 -0.06208264
0.5635332 -0.3478732 -0.34642506 -0.049278613 -0.83348536 -0.64106154 -0.055409864 -0.0671284
-0.09305509 -0.11473154 -0.057840224 -0.04784381 -0.17774197 -0.043524906 -0.021642901 -0.042314474
-0.44267386 0.09145723 0.0044878433 -0.003583298 -0.4826954 0.087492734 0.011404906 -0.008975406
-0.48622072 0.108576804 0.013573496 0.005327107 -0.40068713 0.07896142 0.008551478 -0.06798888
00000000: 0cef 82be e7e2 a8bf ad8c 9abe aa38 8abd
00000010: 9623 00bf 98f3 dc3d 7d83 b1bc 54ef eb3e
00000020: 4646 99be adca 153f 6043 b4bd 03c1 a6be
00000030: 32d1 173d e183 3fbe 4ccc 2dbe 16e9 87bd
00000040: 2d1d ddbe a5cf f23d 8c38 603c 09ce 643c
00000050: 51c2 f3be e0b7 fd3d b8cd bebc c7ad 0c3e
00000060: 8796 e8be 64a3 cc3d ce13 183c 9177 b7ba
00000070: 9639 c2be 78c9 4e3d 3599 72ba 7fe7 b6bc
00000080: c5c4 17bc 2a91 823f 03e3 133e 25ce b63e
00000090: 1b44 cabe 2f0d be3d 2886 8639 f52e d43c
000000a0: 1be4 98be 8e10 1b3f de0a 503e 846e 67bb
000000b0: e8ff eebe cb8d d83d 79a6 1b3c baae 9a3b
000000c0: 294e c2be 45de 683d 7dbe 803b e34f 45bd
000000d0: d18a f2be f395 f5bc c75a b73c 96e3 b7be
000000e0: 57a8 f7be b236 e33d 8fe7 6e3c 2a9e 133c
000000f0: 076c babe f83b 8cba f3d3 5fbc 555e 5abd
00000100: 39d2 e1be 9cae 273d 5997 6c3a 40b3 c5bc
00000110: e98c febe 936c 23bf 9c6f debb 50d3 b0be
00000120: 0e20 143f c832 84bf da6d 70be e828 c1bd
00000130: 10a3 ffbe 52cb e43e a18c c5bb fad9 2c3e
00000140: 436c c6be c0d5 3f3d eeeb 67bb 4aac e4bc
00000150: 6998 cfbe a426 aa3d 9d24 8cb9 9ac5 bc3a
00000160: 1e44 dabe a2a6 203d 7069 0ebb a776 07bd
00000170: 85be e5be 8875 a33d bf9a fd3b 3836 003c
00000180: e24a b2be 41b7 453d 9ccb 233c 038c 95bc
00000190: 1032 f5be 99ed 4e3d ef3f 1b3b 0cbe f7bc
000001a0: a4a3 e3be 9506 903e 0891 233a add1 9c3d
000001b0: e496 c5be 3bad 873d 0af9 2b3a 6793 acbc
000001c0: 614c bb3d 2910 50bf b544 bbbd 4daf fdbd
000001d0: 4d85 0fbe 85e3 8a3e 730a 1d3d dc31 a43c
000001e0: ede3 dfbe df66 d53d 9352 673c 367b 37bc
000001f0: 3a05 eabe 9fe2 d83d 1c26 653c 8a19 31bb
00000200: 219d b2be 4281 0c3e 53fd bf3b bb35 953c
00000210: 3f2e dcbe bdf0 823d 3976 113c 8f97 c8bc
00000220: 470a ebbe 4355 463d 12f4 d33a a46d d9bc
00000230: a868 e7be e80d 2e3d 2ce6 46bb 730a 16bd
00000240: 55cb 95be ab4c a53f 4c99 8b3c f71a cdbb
00000250: b3c6 f9be 23bb 9c3d b199 e23b 45e3 41bc
00000260: 06de fcbe ae49 ce3d dbdc 453c 13f1 963b
00000270: 5682 c0be 5ed5 d23c 80e6 81bb 60d8 a53c
00000280: 3be0 a5be e76a 11bf 4381 72bb 7230 953d
00000290: d834 f6be 25aa e13d 9643 8c3c f8ec adba
000002a0: 67cc 81bf 3f7b 233d f40b 84bd 7706 883c
000002b0: c3b3 c9be b943 543d b796 b03b 0612 27bd
000002c0: 574f edbe 27ba e63d 439d 653c 96c7 da3b
000002d0: c8ad f3be e510 673e 1080 1d3e eaf6 99be
000002e0: 1b41 febe cd22 8b3d 5bf4 093c 06e6 bbbc
000002f0: 9472 dbbe a4d5 033e 51bd e83b 8bdf 4e3d
00000300: 853f e7be b1aa af3d 4441 463b 6711 c13b
00000310: b084 e3be 78a7 ee3d 07d9 503c b979 8f3b
00000320: ffa3 dfbe d584 613e 09e5 653d ea96 d1bc
00000330: 451a 91bd 61c7 643f a24a a1bb d2f1 8d3c
00000340: b449 c33d 297b 993e 1ab2 73be 8138 d93c
00000350: ac36 b4be 88f0 b73c 93e3 19bc d19c 40bd
00000360: 793f 00be 10de bcbe b1cd a2be 2244 2cbd
00000370: 7714 74be de04 09bd 2e09 11bd 5e4a 7ebd
00000380: b643 103f 701c b2be a05e b1be 5fd8 49bd
00000390: 4c5f 55bf 9c1c 24bf 74f5 62bd 9d7a 89bd
000003a0: ab93 bebd 5ff8 eabd dfe9 6cbd dff7 43bd
000003b0: fe01 36be 2c47 32bd 744c b1bc f151 2dbd
000003c0: 26a6 e2be ee4d bb3d c20e 933b c4d5 6abb
000003d0: da23 f7be 642f b33d a5db 3a3c 950d 13bc
000003e0: ecf1 f8be 845d de3d 5e63 5e3c 038f ae3b
000003f0: dd26 cdbe 86b6 a13d 801b 0c3c c13d 8bbd

FCNet.0.bias f4 [400]
0.08665175 0.3322681 -0.1472793 -0.3594406 0.720365 0.59658164 0.76662004 0.64833367
0.13756081 0.6775516 0.060611676 0.78803504 0.65874875 0.32543433 0.80468816 0.66921145
0.7360615 0.17526264 -0.2938658 0.44992054 0.6794808 0.70254 0.7329636 0.6390418
0.5841857 0.7881225 0.4486777 0.66225 0.1359494 0.24757989 0.7366695 0.77552396
0.67724943 0.7129477 0.74903476 0.7690323 0.28110293 0.8048455 0.805129 0.60169035
0.19923162 0.7874279 0.4709864 0.672642 0.7574021 0.1304176 0.8126065 0.7030679
0.7602774 0.764343 0.64816827 0.14668329 0.07610512 0.6395228 -0.6198424 0.5889329
-0.8314564 0.03066095 0.46120667 0.5154535 0.75239056 0.8090668 0.80997956 0.63726985
0.66357946 -0.012069506 0.47628343 -0.58516675 0.32018766 -0.044788525 0.41870627 0.7383479
0.7716401 0.76383823 0.058822118 0.70473635 0.42535976 0.49051416 0.6894739 -0.13420774
0.76828945 0.3698013 0.022387955 0.80785567 0.6857921 0.49093443 0.1854244 0.04931802
0.7586395 0.3032997 0.19849283 -0.53151315 0.75288665 0.07295794 -0.05527703 0.6561519
0.7446101 0.2547783 0.6159273 0.77958333 0.4093569 0.4173587 0.39283994 -0.13789432
0.39690876 -0.19244471 0.67388356 0.5304038 0.55924666 0.58603835 0.11745783 0.510813
0.77983457 -0.6357678 0.7966281 0.76710904 -0.082052946 0.48778307 0.5969416 0.8215869
-0.3823965 0.67458475 0.66759026 0.8158405 0.8119944 0.78586125 0.8309261 0.19132276
0.6729286 0.5740809 0.7303919 0.5938678 0.3752286 0.55917853 -0.08776051 0.673225
-0.05970884 -0.36242068 0.7692753 0.781566 0.720675 0.7183966 0.23595019 0.69238
-0.13169709 0.7292939 0.69278705 0.81220555 0.77504486 0.11425813 0.79821205 0.64715695
0.17141639 0.80039954 0.40209118 0.4103105 0.6793124 0.11103235 0.25497577 -0.4745996
0.26456124 0.7991336 0.70629656 0.32868934 0.17464127 0.67085326 -0.5916634 0.5553504
0.7000517 -0.30767295 0.7883365 0.74912155 0.79460067 0.7193434 -0.25936526 0.6582185
0.3800161 -0.72257686 -0.10107483 -0.614843 0.69515973 0.751558 0.73369575 0.804545
0.75351226 0.8160242 0.73816466 0.67104095 0.64879745 0.6150013 0.75954247 0.13563694
-0.6268774 0.7351078 0.7808498 0.219749 0.7612794 0.8216108 0.6234335 0.5960036
0.762057 0.774107 0.37659115 0.0569676 0.17860967 0.2505237 -0.71524006 0.6365291
0.6930478 0.5578592 -0.39393467 -0.71743417 0.6813092 0.2472973 0.7905873 0.7058749
0.65915644 0.66833895 0.7602192 0.70273966 0.69848925 -0.5872051 -0.3452308 0.642151
-0.93994904 -0.46319416 0.15734084 0.74175304 0.7446477 0.74576867 0.6305435 0.27061817
0.682339 0.112137035 0.70961577 -0.24755085 -0.8087401 0.7662001 -0.14915116 0.74813235
0.48191237 -0.29584962 0.37211147 0.613398 -0.597523 0.80393493 0.33476332 0.77059156
0.21036457 0.17811619 0.53689957 0.07598267 0.6158686 0.7140371 0.36433616 0.29937765
00000000: 7976 b13d 0b1f aa3e 63d0 16be 9908 b8be
00000010: d769 383f 93b9 183f 3641 443f 32f9 253f
00000020: bedc 0c3e 0674 2d3f f343 783d aabc 493f
00000030: c2a3 283f 549f a63e 0b00 4e3f 7151 2b3f
00000040: 876e 3c3f 0d78 333e 9475 96be fc5b e63e
00000050: 74f2 2d3f a9d9 333f 81a3 3b3f 3e98 233f
00000060: 328d 153f 65c2 493f 15b9 e53e 3789 293f
00000070: 5236 0b3e 9585 7d3e 5f96 3c3f bd88 463f
00000080: 3860 2d3f be83 363f bec0 3f3f 4ddf 443f
00000090: b9ec 8f3e 5b0a 4e3f ef1c 4e3f 6108 1a3f
000000a0: 6003 4c3e e094 493f 2125 f13e 4432 2c3f
000000b0: 1be5 413f 318c 053e fb06 503f 42fc 333f
000000c0: 8aa1 423f fcab 433f 5bee 253f 2534 163e
000000d0: 00dd 9b3d c4b7 233f fead 1ebf 4ec4 163f
000000e0: 54da 54bf ac2c fb3c 4823 ec3e c3f4 033f
000000f0: ab9c 403f 001f 4f3f d25a 4f3f 1e24 233f
00000100: 58e0 293f 2dbf 45bc 6cdb f33e 7dcd 15bf
00000110: a3ef a33e 2c74 37bd ab60 d63e 5e04 3d3f
00000120: 358a 453f e78a 433f 76ef 703d 9a69 343f
00000130: c1c8 d93e ac24 fb3e 5d81 303f c16d 09be
00000140: 9eae 443f 9956 bd3e f266 b73c a1cf 4e3f
00000150: 1290 2f3f c25b fb3e e5df 3d3e b101 4a3d
00000160: 3336 423f 194a 9b3e b441 4b3e 3f11 08bf
00000170: 2ebd 403f f96a 953d 2b6a 62bd 92f9 273f
00000180: c49e 3e3f 4d72 823e 69ad 1d3f c692 473f
00000190: 3a97 d13e 0ab0 d53e 5122 c93e 2b34 0dbe
000001a0: a037 cb3e 3a10 45be a283 2c3f 8bc8 073f
000001b0: ca2a 0f3f 9c06 163f bb8d f03d a4c4 023f
000001c0: 3da3 473f aec1 22bf d2ef 4b3f 4261 443f
000001d0: 600b a8bd b4be f93e 2ad1 183f 8553 523f
000001e0: 79c9 c3be 96b1 2c3f 32e7 2a3f ecda 503f
000001f0: ddde 4f3f 342e 493f 93b7 543f 1dea 433e
00000200: 0c45 2c3f f7f6 123f f7fa 3a3f b807 183f
00000210: f71d c03e 5326 0f3f c8bb b3bd 7958 2c3f
00000220: 4291 74bd 348f b9be 3aef 443f b614 483f
00000230: 287e 383f d7e8 373f ed9c 713e d13f 313f
00000240: 9adb 06be 01b3 3a3f 7e5a 313f b4ec 4f3f
00000250: 5769 463f 2b00 ea3d a057 4c3f 14ac 253f
00000260: c787 2f3e fce6 4c3f e5de cd3e 3814 d23e
00000270: 6be7 2d3f ee64 e33d 2f8c 823e b8fe f2be
00000280: 9274 873e 0594 4c3f dacf 343f f849 a83e
00000290: 29d5 323e 0abd 2b3f 4177 17bf 722b 0e3f
000002a0: 9736 333f 4f87 9dbe 6cd0 493f 6ec6 3f3f
000002b0: f36a 4b3f e426 383f 86cb 84be 0281 283f
000002c0: 7891 c23e ccfa 38bf 5200 cfbd 5a66 1dbf
000002d0: fdf5 313f 1b66 403f 7cd3 3b3f a9f6 4d3f
000002e0: 2ee6 403f f6e6 503f 5cf8 3c3f 57c9 2b3f
000002f0: 9717 263f ba70 1d3f 6071 423f 69e4 0a3e
00000300: 0a7b 20bf 0630 3c3f c6e5 473f e205 613e
00000310: 35e3 423f 1655 523f 5699 1f3f b193 183f
00000320: 2b16 433f e02b 463f 8ed0 c03e dc56 693d
00000330: 74e5 363e a444 803e f919 37bf 92f3 223f
00000340: 956b 313f dccf 0e3f ceb1 c9be c4a9 37bf
00000350: 486a 2e3f 813b 7d3e ee63 4a3f 38b4 343f
00000360: 7abe 283f 4318 2b3f ba9d 423f bfe6 333f
00000370: 31d0 323f 1353 16bf 17c2 b0be 0264 243f
00000380: 80a0 70bf c927 edbe f51d 213e 87e3 3d3f
00000390: 3ba1 3e3f b2ea 3e3f 4c6b 213f 778e 8a3e
000003a0: c5ad 2e3f 1aa8 e53d 61a9 353f f87d 7dbe
000003b0: 9709 4fbf b125 443f 15bb 18be 9a85 3f3f
000003c0: 38bd f63e 9a79 97be 6585 be3e a707 1d3f
000003d0: 44f7 18bf aece 4d3f 1966 ab3e 7d45 453f
000003e0: cf69 573e 1764 363e 4072 093f cd9c 9b3d
000003f0: 91a9 1d3f 23cb 363f 458a ba3e 0748 993e

FCNet.1.weight f4 [400]
0.7429317 0.51837504 0.6425408 0.6747287 0.55370444 0.57382274 0.5112058 0.56020147
1.1853882 0.5187161 0.5966927 0.45557904 0.5962627 0.41382545 0.4010699 0.37436667
0.5761161 0.76988125 1.5639555 0.52571374 0.57110924 0.55102223 0.5096561 0.48296773
0.59715676 0.47998747 0.5494798 0.5621088 0.76389396 0.7347509 0.5487572 0.42246825
0.34089825 0.5591881 0.5210407 0.47945103 1.0412291 0.47951064 0.5126959 0.5228884
0.5920219 0.51478213 0.9834434 0.54690945 0.48654407 0.49937797 0.4218424 0.4889283
0.46642724 0.49065682 0.44815817 0.73588824 0.444388 0.4924152 1.2911037 0.3204834
2.9054658 0.98445636 0.32373187 0.29911485 0.57015556 0.42342192 0.40405017 0.54065084
0.6006735 1.106448 0.46282196 1.515879 0.52519655 1.0087785 0.5757091 0.52086186
0.4804345 0.49193835 0.74852425 0.4890475 0.7350024 0.33440125 0.5705728 1.5292665
0.46675506 0.6080646 0.9221171 0.46451986 0.31139356 0.38020802 0.79505676 0.7837762
0.46642724 0.6840868 0.6272403 2.10364 0.49605113 0.7850205 1.06783 0.5316504
0.46416223 0.7137543 0.6007331 0.5544197 0.64384717 0.5009062 0.5819053 1.1527091
0.29267746 2.102134 0.5966799 0.3680485 0.564493 0.4421082 0.7526143 0.4592448
0.49947843 1.8902167 0.4570692 0.49196815 1.3256066 0.34977946 0.4273857 0.4442242
1.6932478 0.45861894 0.513888 0.45021456 0.4463998 0.45641354 0.44243607 0.8646537
0.490329 0.46532455 0.533081 0.39960957 0.41343802 0.53171 1.263486 0.563599
1.444029 1.4842055 0.45689037 0.45134705 0.55364484 0.5228288 0.5335144 0.38822493
1.1108124 0.5485188 0.5564463 0.43254155 0.4892263 1.1375185 0.45668176 0.62064135
0.77626663 0.4801663 0.48945457 0.68333644 0.5084043 0.8653877 0.7936343 1.7455976
0.6581195 0.4738779 0.54524046 0.46323043 0.76410216 0.5648507 1.1267748 0.5584615
0.50613934 1.7088784 0.45408893 0.51955056 0.46106276 0.5529892 1.6242871 0.5836102
0.24915177 1.6017935 0.7026053 1.9294814 0.52306724 0.52062345 0.5543601 0.4595726
0.47968945 0.44321093 0.45492342 0.55966496 0.603773 0.4616886 0.5430351 0.41902098
1.8296995 0.5371342 0.46615902 0.6900085 0.48117957 0.43695235 0.45432734 0.6408569
0.4880342 0.5178816 0.60516095 0.8410246 0.80019027 0.54962367 1.6622522 0.59590507
0.52574944 0.57283777 1.6563808 1.9197283 0.46070513 0.52367586 0.4131698 0.517226
0.5231865 0.57677174 0.5085831 0.5446444 0.52628595 1.5402385 1.1047431 0.4913125
2.8374367 2.1640737 0.7444323 0.48120937 0.5156166 0.4672915 0.5823758 0.44107
0.47909337 0.6595414 0.5222924 1.4193077 2.222717 0.46106276 1.0976077 0.5068546
0.4903828 1.5404693 0.35326636 0.564195 1.8308619 0.42515048 0.7979849 0.41594145
0.5063432 0.8230994 0.6017464 0.64758295 0.54673064 0.5222924 0.25698578 0.62334186
00000000: c630 3e3f 3ab4 043f 8e7d 243f 05bb 2c3f
00000010: 93bf 0d3f 0ce6 123f 62de 023f 5d69 0f3f
00000020: cdba 973f 94ca 043f dac0 183f a841 e93e
00000030: aca4 183f eee0 d33e 0959 cd3e fdac bf3e
00000040: 587c 133f f016 453f b22f c83f 2d95 063f
00000050: 3734 123f cb0f 0d3f d278 023f 8c47 f73e
00000060: 44df 183f ebc0 f53e b5aa 0c3f 5de6 0f3f
00000070: 8e8e 433f a318 3c3f 5a7b 0c3f c24d d83e
00000080: 378a ae3e f426 0f3f ec62 053f 9b7a f53e
00000090: ff46 853f 6b82 f53e 0a40 033f 04dc 053f
000000a0: bf8e 173f c3c8 033f f2c2 7b3f 4202 0c3f
000000b0: 4e1c f93e 78ae ff3e bafb d73e cf54 fa3e
000000c0: 8dcf ee3e 5f37 fb3e fd74 e53e 2c63 3c3f
000000d0: d386 e33e d81d fc3e e342 a53f 6616 a43e
000000e0: 27f3 3940 5505 7c3f 2fc0 a53e 9525 993e
000000f0: b7f5 113f c2ca d83e aadf ce3e 1868 0a3f
00000100: bdc5 193f 17a0 8d3f 00f7 ec3e 5308 c23f
00000110: 4873 063f a71f 813f ac61 133f 3457 053f
00000120: 83fb f53e 58df fb3e 499f 3f3f 6f64 fa3e
00000130: 1e29 3c3f a436 ab3e 0f11 123f 01bf c33f
00000140: 85fa ee3e 1faa 1b3f de0f 6c3f 8cd5 ed3e
00000150: fa6e 9f3e a0aa c23e d788 4b3f 8fa5 483f
00000160: 8dcf ee3e 5020 2f3f d292 203f 0aa2 0640
00000170: 6afa fd3e 1af7 483f a7ae 883f 3e1a 083f
00000180: aca6 ed3e 9ab8 363f a5c9 193f 73ee 0d3f
00000190: 2bd3 243f 643b 003f bff7 143f f98b 933f
000001a0: d2d9 953e 5d89 0640 04c0 183f da70 bc3e
000001b0: 9d82 103f 025c e23e 55ab 403f 2222 eb3e
000001c0: a3bb ff3e 9ff2 f13f f904 ea3e 40e3 fb3e
000001d0: 7aad a93f 4b16 b33e 4cd2 da3e 5b71 e33e
000001e0: 58bc d83f 1ad0 ea3e 2a8e 033f 8682 e63e
000001f0: 848e e43e 09af e93e fb86 e23e f259 5d3f
00000200: 670c fb3e 053f ee3e ff77 083f a099 cc3e
00000210: 26ae d33e 261e 083f e9b9 a13f 0648 103f
00000220: f1d5 b83f 72fa bd3f 89ed e93e f616 e73e
00000230: abbb 0d3f 1cd8 053f 6694 083f 6bc5 c63e
00000240: 1a2f 8e3f ba6b 0c3f 4473 0e3f 1676 dd3e
00000250: df7b fa3e 359a 913f 31d2 e93e 5ae2 1e3f
00000260: 69b9 463f 5bd8 f53e ca99 fa3e 23ef 2e3f
00000270: c926 023f 0c8a 5d3f 9e2b 4b3f be6f df3f
00000280: 857a 283f 20a0 f23e e194 0b3f 8a2c ed3e
00000290: 339c 433f 0e9a 103f 283a 903f 55f7 0e3f
000002a0: 5992 013f 87bc da3f 587e e83e 4401 053f
000002b0: 6b10 ec3e b390 0d3f a4e8 cf3f 7a67 153f
000002c0: a421 7f3e 9207 cd3f f1dd 333f 3ff9 f63f
000002d0: bce7 053f 9447 053f 8bea 0d3f 1a4d eb3e
000002e0: db99 f53e 8bec e23e b9eb e83e 3446 0f3f
000002f0: de90 1a3f 7362 ec3e 5904 0b3f eb89 d63e
00000300: 9833 ea3f a081 093f 65ac ee3e 66a4 303f
00000310: 2b5d f63e 38b8 df3e 989d e83e 330f 243f
00000320: 9edf f93e e393 043f d4eb 1a3f 634d 573f
00000330: 45d9 4c3f 23b4 0c3f aec4 d43f 3c8d 183f
00000340: 8497 063f 7fa5 123f 4904 d43f a8b9 f53f
00000350: 8be1 eb3e 9f0f 063f fe8a d33e ec68 043f
00000360: 8def 053f 50a7 133f 8132 023f d16d 0b3f
00000370: adba 063f 8926 c53f 3968 8d3f 508d fb3e
00000380: 9098 3540 2f80 0a40 1d93 3e3f 1361 f63e
00000390: 73ff 033f d540 ef3e 9516 153f edd3 e13e
000003a0: ba4b f53e b5d7 283f f4b4 053f e0ab b53f
000003b0: ff40 0e40 6b10 ec3e 697e 8c3f 39c1 013f
000003c0: 7413 fb3e 192e c53f 54df b43e 156f 103f
000003d0: af59 ea3f 53ad d93e bd48 4c3f 47f6 d43e
000003e0: b59f 013f a4b6 523f 0d0c 1a3f ffc7 253f
000003f0: 8af6 0b3f f4b4 053f a493 833e 5593 1f3f

FCNet.1.bias f4 [400]
0.23968418 -0.37961376 -0.43935996 -0.2921189 -0.40378198 -0.28159103 -0.43209454 -0.37943316
-0.07618257 -0.40351376 0.013775182 -0.45730764 -0.43307805 -0.47694764 -0.47220898 -0.33005008
-0.4567116 -0.31281018 -0.5650889 -0.30772755 -0.406047 -0.39031115 -0.4127228 -0.30003875
-0.29166418 -0.47208977 -0.24778663 -0.35022652 -0.025920674 -0.125425 -0.4480092 -0.4503934
-0.30868155 -0.38792694 -0.4415718 -0.42348155 0.11949099 -0.4536121 -0.48734877 -0.3217053
-0.31552133 -0.4886899 0.01271737 -0.37538 -0.40449724 -0.2032196 -0.42091852 -0.390937
-0.395169 -0.44833702 -0.38172796 -0.519969 -0.50365853 -0.4016958 -0.14668263 -0.37347263
-0.21712963 -0.23172386 -0.34721643 -0.33991477 -0.430515 -0.51227874 -0.4876468 -0.37114802
-0.38992372 -0.27715704 -0.3379503 -0.16795404 -0.48891768 -0.26232496 -0.27143526 -0.42771354
-0.43179652 -0.44514814 0.20437281 -0.4027985 -0.35017926 -0.2519968 -0.40151697 0.031863082
-0.44124398 -0.39668894 0.19256888 -0.47736487 -0.28308102 -0.42556775 0.008334666 -0.4299149
-0.45772487 -0.42772424 -0.34875134 -0.41587725 -0.42434585 -0.3982068 -0.70203745 -0.34802112
-0.44082674 0.1664156 -0.32972226 -0.49190858 -0.46633005 -0.3440344 -0.06509409 -0.18139997
-0.55197597 -0.046270184 -0.37034333 -0.44565478 -0.3015885 -0.35177624 -0.001170416 -0.21887852
-0.44964835 -0.6117271 -0.41865352 -0.44729394 -0.1464939 -0.37681052 -0.25247365 -0.4754873
-0.46364868 -0.32179475 -0.38068488 -0.42836922 -0.45972165 -0.45158553 -0.49414378 -0.4033549
-0.3204238 -0.32996067 -0.43862134 -0.26439473 -0.41978604 -0.23546374 -0.25452596 -0.3680485
0.11937344 -0.5373121 -0.4647285 -0.49828637 -0.4051231 -0.3707308 0.044002052 -0.26826906
-0.15039816 -0.39907315 -0.40434822 -0.45882758 -0.50232464 0.24789847 -0.4314091 -0.3729362
-0.45674655 -0.43343568 -0.3452225 -0.46303013 -0.44672766 -0.35259634 -0.23385559 -0.33238035
-0.44833282 -0.4732223 -0.38017824 -0.30180547 -0.030383987 -0.355442 -0.36763775 -0.46232188
-0.41892174 -0.16709639 -0.4415122 -0.4184449 -0.44648924 -0.39588428 -0.3663603 -0.39854375
-0.2525703 -0.5518068 -0.23774318 -0.34857538 -0.33374563 -0.41203734 -0.43331647 -0.4692287
-0.40893784 -0.47158313 -0.36101505 -0.35863087 -0.3842314 -0.25041726 -0.45867857 -0.46708992
-0.4479749 -0.419339 -0.42211065 -0.430436 -0.41689518 -0.46407285 -0.31225786 -0.32142162
-0.42476308 -0.47712645 -0.351412 -0.10158668 -0.50752324 -0.29755864 -0.16970886 -0.36536628
-0.37895632 -0.3057013 -0.27935123 -0.12922142 -0.38020805 -0.10593323 -0.47259644 -0.37234008
-0.3347291 -0.38414198 -0.41150087 -0.3679889 -0.40491447 -0.20827392 -0.73970723 -0.46830484
-0.37047267 -0.21500736 -0.5276756 -0.45531085 -0.4095935 -0.4348662 -0.33899343 -0.05478026
-0.32879838 -0.27240017 -0.38691366 -0.10071774 -0.20730251 -0.4236902 -0.62415653 -0.41537523
-0.2543715 -0.47726274 -0.41585207 -0.32271862 -0.3822985 -0.45417836 -0.3885504 -0.5119211
-0.5968081 0.17416696 -0.26466295 -0.6156941 -0.34733567 -0.38727129 -0.11046259 -0.18131508
00000000: c56f 753e bc5c c2be caf3 e0be 9c90 95be
00000010: 83bc cebe b32c 90be 7f3b ddbe 1045 c2be
00000020: 9b05 9cbd 5b99 cebe 4db1 613c 3a24 eabe
00000030: 68bc ddbe 7b32 f4be 60c5 f1be 53fc a8be
00000040: 1ad6 e9be a828 a0be aba9 10bf 778e 9dbe
00000050: 64e5 cfbe ddd6 c7be 6750 d3be ae9e 99be
00000060: 0255 95be c0b5 f1be c7bb 7dbe e450 b3be
00000070: 9857 d4bc 696f 00be 7661 e5be f799 e6be
00000080: 820b 9ebe 5c9e c6be b315 e2be 93d2 d8be
00000090: b1b7 f43d d83f e8be c785 f9be 8fb6 a4be
000000a0: 038c a1be 9035 fabe 845c 503c cf31 c0be
000000b0: 431a cfbe cc18 50be a282 d7be e528 c8be
000000c0: 9753 cabe 6e8c e5be d971 c3be b01c 05bf
000000d0: c4ef 00bf 12ab cdbe f933 16be ce37 bfbe
000000e0: 3b57 5ebe 0549 6dbe 5ac6 b1be 4f09 aebe
000000f0: 766c dcbe b324 03bf d7ac f9be 1d07 bebe
00000100: 15a4 c7be 87e7 8dbe d207 adbe 25fc 2bbe
00000110: 6b53 fabe 754f 86be 90f9 8abe 45fd dabe
00000120: 6f14 ddbe 75ea e3be 1b47 513e 9b3b cebe
00000130: b24a b3be b905 81be a293 cdbe dd82 023d
00000140: bbea e1be d01a cbbe c730 453e 2b69 f4be
00000150: ffef 90be 04e4 d9be 1f8e 083c ce1d dcbe
00000160: ea5a eabe acfe dabe 898f b2be dded d4be
00000170: dc43 d9be c3e1 cbbe bab8 33bf d32f b2be
00000180: 0bb4 e1be da68 2a3e 5bd1 a8be 71db fbbe
00000190: d0c2 eebe 4725 b0be 0d50 85bd eac0 39be
000001a0: 4c4e 0dbf ce85 3dbd a49d bdbe dd2c e4be
000001b0: cf69 9abe 041c b4be a568 99ba b121 60be
000001c0: 4f38 e6be 269a 1cbf c159 d6be b603 e5be
000001d0: 7f02 16be 4fed c0be 3a44 81be 1273 f3be
000001e0: 5c63 edbe 48c2 a4be 21e9 c2be 3653 dbbe
000001f0: a360 ebbe 3836 e7be 6a00 fdbe 8984 cebe
00000200: 970e a4be 9bf0 a8be fa92 e0be bf5e 87be
00000210: 32ee d6be 681d 71be 3a51 82be da70 bcbe
00000220: 107a f43d 498d 09bf e5f0 edbe 641f ffbe
00000230: 4c6c cfbe 6dd0 bdbe 7f3b 343d 905a 89be
00000240: fa01 1abe 5153 ccbe bb06 cfbe 73eb eabe
00000250: 5998 00bf 19d9 7d3e a7e1 dcbe 7ef1 bebe
00000260: afda e9be 48eb ddbe 01c1 b0be 4912 edbe
00000270: 7db9 e4be 8287 b4be d777 6fbe c22d aabe
00000280: e18b e5be 314a f2be b9a6 c2be 3f86 9abe
00000290: d7e7 f8bc 7efc b5be 043b bcbe 74b5 ecbe
000002a0: e97c d6be 511b 2bbe e30d e2be 693e d6be
000002b0: 3d9a e4be 58b1 cabe 9493 bbbe ed0d ccbe
000002c0: e550 81be 3643 0dbf f372 73be 7978 b2be
000002d0: b5e0 aabe 8ff6 d2be a8db ddbe bf3e f0be
000002e0: 4d60 d1be 5873 f1be f7d6 b8be 779e b7be
000002f0: fab9 c4be b136 80be ebd7 eabe 6926 efbe
00000300: f75c e5be 9ab3 d6be e31e d8be 1b62 dcbe
00000310: 4973 d5be f59a edbe 43e0 9fbe 6091 a4be
00000320: 8c7a d9be eb49 f4be 46ec b3be ad0c d0bd
00000330: 0bed 01bf 9b59 98be 29c8 2dbe 4a11 bbbe
00000340: 9006 c2be e184 9cbe 2007 8fbe 9f52 04be
00000350: a1aa c2be 85f3 d8bd 29f8 f1be 5ca3 bebe
00000360: 9d61 abbe 42ae c4be 3eb0 d2be 0b69 bcbe
00000370: f350 cfbe c245 55be 745d 3dbf a7c5 efbe
00000380: 98ae bdbe e42a 5cbe c015 07bf 811e e9be
00000390: 3db6 d1be c8a6 debe 8c90 adbe 4461 60bd
000003a0: 4358 a8be 0978 8bbe 8c19 c6be 1a45 cebd
000003b0: 1c47 54be eced d8be b9c8 1fbf 10ac d4be
000003c0: fb3c 82be c85b f4be 90ea d4be 603b a5be
000003d0: a1bc c3be 118a e8be 14f0 c6be 430d 03bf
000003e0: 6ac8 18bf d358 323e e781 87be 219e 1dbf
000003f0: fbd5 b1be 6c48 c6be 363a e2bd a9aa 39be

FCNet.3.weight f4 [300, 400]
0.3579225 0.14563395 0.44346395 -0.083079465 0.09350227 0.073189355 -0.15606932 0.11575744
-0.44987288 0.08696057 -0.20420636 0.06044175 0.040507466 0.041066263 -0.0010841317 0.035780013
0.024818435 -0.5226451 0.3583106 0.2013809 0.12999196 -0.0767904 0.057886172 -0.022708729
-0.12850183 -0.041196655 0.36650896 0.09507436 0.15063964 0.2591745 -0.031477243 0.06525675
0.02654024 0.08676685 0.051556822 -0.058322035 0.04705756 -0.045048654 -0.04554785 0.020948507
0.28440532 -0.016351443 -0.45629975 -0.09323404 -0.03789973 -0.2289558 -0.07615709 -0.0021263533
-0.00792426 0.006918186 -0.15235889 0.09442398 0.2367566 -0.00043447682 -0.26888832 0.056079376
-0.19089133 -0.4278803 -0.046453107 -0.12803988 -0.10999807 0.091445886 -0.029207584 -0.059756286
0.015360967 -0.812779 -0.05663774 -0.5244097 0.11138784 -0.3045109 0.56008655 -0.11471435
-0.042731494 0.04094333 0.32727894 0.108925164 0.9048824 -0.018404104 0.13614622 -0.8914866
0.008827656 -0.09701898 0.07031515 0.05716718 0.045298252 0.05332263 0.09506994 -0.10530072
0.05810224 0.008447763 0.33131433 1.1414047 0.039374962 -0.18598129 0.31599286 -0.007600854
-0.07214118 -0.10804767 0.09564806 0.05430239 0.2690062 0.058618322 -0.24982408 0.83006567
-0.028252034 -0.057749487 0.1810291 -0.1382324 -0.0011127703 0.055099618 0.11504908 -0.13997586
-0.014692269 1.1273474 -0.00936131 0.13325536 -0.9940175 -0.011405589 -0.008645113 0.014941866
0.21469006 -0.10239092 0.07378778 0.023908291 0.0065591563 0.010037458 -0.065696344 -0.040556323
0.14998956 -0.061537 0.07965146 -0.021579955 -0.30018774 0.029351007 -0.81820357 -0.031046038
0.45267725 0.17858762 0.025640571 0.101362735 0.028356344 0.04513061 0.36664054 -0.02815145
-0.32298383 0.020765968 0.10312854 -0.027657842 -0.036007255 0.3934639 0.090142004 -0.040220615
-1.173219 0.01026936 -0.05093962 -0.01588631 0.033239327 -0.107824236 -0.44727835 1.3447268
-0.32946265 -0.01398818 -0.0001351672 -0.24960043 -0.5536903 -0.013498297 0.16109206 0.38265717
0.09843461 -0.027560089 -0.005964965 -0.101072155 -0.03293013 0.034539476 -0.29399556 -0.11579347
0.18955357 0.26919162 0.06026492 0.9984225 -0.12320811 -0.022352962 0.027208941 0.032177612
-0.021986015 -0.0618015 0.059361402 -0.064154044 0.10838127 0.22863892 -0.038980078 0.41511
0.549162 0.023310374 0.006377081 -0.4444312 0.12485471 -0.011237018 0.206421 0.09792223
0.03961711 0.028704664 -0.20916936 -0.33237576 0.29515502 -0.07450535 -0.08744573 0.06669473
-0.027480887 -0.034066353 0.9797954 -0.4956905 0.038749103 0.50191355 0.06439248 -0.004405911
0.09254858 0.16852684 -0.0069121327 0.014676435 0.12784617 -0.29739428 -0.51322037 0.054820217
1.8219209 1.0552013 0.5478114 0.031607635 -0.040902354 0.015721858 -0.2254984 0.050550647
-0.036729973 -0.023446437 0.22534572 -0.6688892 -0.6026316 0.069794215 0.19164221 0.06489167
0.1776836 0.728536 0.12656465 0.15554778 0.47906014 -0.050282754 0.3065464 -0.055647243
-0.0042855353 -0.36179808 -0.12501119 0.07794525 0.078064464 0.18022442 0.17512776 -0.15141793
00000000: 9e41 b73e 1121 153e b50d e33e 9125 aabd
00000010: 1e7e bf3d 4de4 953d a3d0 1fbe 3d12 ed3d
00000020: bd55 e6be 6218 b23d 791b 51be c591 773d
00000030: 28eb 253d 1935 283d 6c19 8eba 108e 123d
00000040: 0850 cb3c 12cc 05bf 7d74 b73e cb36 4e3e
00000050: 9d1c 053e 4944 9dbd 0d1a 6d3d a807 babc
00000060: fc95 03be d3bd 28bd 10a7 bb3e 59b6 c23d
00000070: 4741 1a3e 85b2 843e 48ee 00bd 55a5 853d
00000080: eb6a d93c d1b2 b13d 3f2d 533d 16e3 6ebd
00000090: 6ebf 403d f084 38bd 6290 3abd 349c ab3c
000000a0: 939d 913e 76f3 85bc 1fa0 e9be 7df1 bebd
000000b0: bf3c 1bbd 6473 6abe 40f8 9bbd 4a5a 0bbb
000000c0: c1d4 01bc f3b1 e23b f803 1cbe 5c61 c13d
000000d0: 5270 723e 7eca e3b9 bbab 89be 7db3 653d
000000e0: 0479 43be 2013 dbbe 9d45 3ebd e31c 03be
000000f0: ab46 e1bd fb47 bb3d be44 efbc 02c3 74bd
00000100: 91ac 7b3c 4912 50bf fafc 67bd b73f 06bf
00000110: 4f1f e43d dae8 9bbe d561 0f3f 5bef eabd
00000120: 3807 2fbd 31b4 273d 1b91 a73e 2814 df3d
00000130: 5fa6 673f 34c4 96bc ea69 0b3e 7738 64bf
00000140: dfa1 103c e3b1 c6bd 6401 903d 2228 6a3d
00000150: a98a 393d d468 5a3d 07b4 c23d e7a7 d7bd
00000160: 9dfc 6d3d 7c68 0a3c 08a2 a93e 8d19 923f
00000170: a447 213d e171 3ebe d1c9 a13e 9610 f9bb
00000180: c1be 93bd 1948 ddbd 21e3 c33d 2f6c 5e3d
00000190: 2ebb 893e c419 703d e2d1 7fbe 2f7f 543f
000001a0: cf70 e7bc ba8a 6cbd b15f 393e cb8c 0dbe
000001b0: 60da 91ba 23b0 613d da9e eb3d d555 0fbe
000001c0: d8b7 70bc eb4c 903f 2e60 19bc 1874 083e
000001d0: ee77 7ebf 82de 3abc 3ba4 0dbc bace 743c
000001e0: b6d7 5b3e 55b2 d1bd 0c1e 973d 52db c33c
000001f0: 31ee d63b 2674 243c ce8b 86bd 631e 26bd
00000200: dd96 193e 390e 7cbd 4e20 a33d 72c8 b0bc
00000210: 35b2 99be 8671 f03c ca75 51bf 4354 febc
00000220: 50c5 e73e acdf 363e 2d0c d23c 4497 cf3d
00000230: 904b e83c e0da 383d 4fb8 bb3e df9d e6bc
00000240: 235e a5be 641d aa3c 0e35 d33d b392 e2bc
00000250: 587c 13bd 1a74 c93e 5f9c b83d 5fbe 24bd
00000260: 0a2c 96bf d140 283c 10a6 50bd 0224 82bc
00000270: f625 083d f4d2 dcbd ab01 e5be 0220 ac3f
00000280: 54af a8be ae2e 65bc abbb 0db9 4197 7fbe
00000290: a6be 0dbf f627 5dbc 51f5 243e a4eb c33e
000002a0: 1698 c93d b2c5 e1bc c175 c3bb ebfe cebd
000002b0: bee1 06bd 4479 0d3d 9686 96be 2025 edbd
000002c0: 551a 423e 7cd3 893e 59d8 763d 9e98 7f3f
000002d0: 8954 fcbd 8f1d b7bc 49e5 de3c accc 033d
000002e0: 041c b4bc 9223 7dbd f124 733d 3263 83bd
000002f0: 00f7 dd3d 5220 6a3e 93a9 1fbd 4c89 d43e
00000300: e195 0c3f 66f5 be3c d5f6 d03b 7c8c e3be
00000310: d4b3 ff3d 781b 38bc 0760 533e 738b c83d
00000320: 8d45 223d 0b26 eb3c 7e30 56be 282d aabe
00000330: 8f1e 973e 4396 98bd bf16 b3bd 3f97 883d
00000340: 991f e1bc 2989 0bbd dfd3 7a3f 25cb fdbe
00000350: 61b7 1e3d 687d 003f 34e0 833d 765f 90bb
00000360: 1c8a bd3d 4d92 2c3e 2c7f e2bb 6e75 703c
00000370: 1bea 023e 1044 98be 6962 03bf 2a8b 603d
00000380: b434 e93f d610 873f 5e3d 0c3f 0277 013d
00000390: 3a89 27bd 20cb 803c 0de9 66be 320e 4f3d
000003a0: 2b72 16bd be12 c0bc 07c1 663e 533c 2bbf
000003b0: 1146 1abf 45f0 8e3d db3d 443e ede5 843d
000003c0: b1f2 353e 5681 3a3f 2a9a 013e eb47 1f3e
000003d0: 5f47 f53e 4af5 4dbd a6f3 9c3e 5dee 63bd
000003e0: ad6d 8cbb 993d b9be ef02 00be c2a1 9f3d
000003f0: 43e0 9f3d c08c 383e b154 333e 4d0d 1bbe

FCNet.3.bias f4 [300]
0.0437521 -0.011849218 -0.094110325 -0.0777749 -0.1575205 0.016760457 -0.0049837506 -0.14475018
-0.21490996 0.05234022 -0.29641077 -0.29484227 -0.17010215 -0.049942322 -0.1098367 -0.053691424
0.17328124 -0.19155854 -0.26761818 0.058519464 -0.08824236 -0.21267515 -0.26383483 0.30949712
-0.24631868 -0.2659422 0.24259214 -0.25414225 -0.1467607 -0.25859421 -0.26675197 -0.032428585
-0.2524409 -0.24326637 0.1001253 -0.16857219 -0.34827778 -0.122308396 -0.30676863 -0.13184372
-0.21063061 0.16705732 0.3595313 -0.12372291 0.09967752 0.43655053 -0.049553532 0.5353404
0.040137213 -0.284703 -0.2673465 -0.23795435 0.06293951 -0.29262763 -0.27115515 -0.20025648
0.03742268 0.057793707 -0.24004783 -0.18411721 -0.115931526 -0.10011894 -0.29792777 0.30637014
-0.18176484 -0.14575881 -0.27568397 -0.20822662 0.49729013 0.2138037 -0.19526994 -0.05664999
-0.2644727 -0.065973595 0.21973589 -0.26091197 -0.28652444 -0.13207312 -0.35427973 0.0144219175
-0.0091177905 -0.1896903 -0.21750677 -0.18594715 0.120181225 0.0647036 0.08709955 -0.12901244
-0.026708225 -0.044828918 -0.1750932 -0.100826 -0.269376 -0.058936752 -0.09585726 -0.2113494
0.022976642 -0.1597379 -0.2118392 0.04981284 0.045635294 -0.2966203 -0.20525624 -0.160008
-0.13082159 0.1619632 -0.2571603 0.4658776 0.45033085 -0.06739812 -0.19257507 0.051079545
-0.20771484 -0.22645925 -0.1894926 -0.15869671 -0.2101179 0.063122086 -0.17051694 -0.13967426
-0.15278591 -0.27070493 -0.16733097 0.28537038 -0.25768855 -0.1720392 0.12766258 -0.047271475
-0.21356069 0.07609387 -0.15160985 0.082208306 -0.0982881 0.43079162 0.03242957 -0.06861187
0.43597186 0.14286594 0.3259248 -0.27004504 0.16757062 -0.25177717 -0.030143263 -0.11059446
0.19635557 -0.24094892 0.44206628 0.08090933 -0.21415628 0.5138047 -0.21970665 0.025332863
-0.033671647 -0.17927916 0.23192042 -0.16768108 -0.23529999 0.16179688 0.21776986 -0.060040873
-0.27320975 -0.29262742 0.30235285 -0.22993499 -0.09163912 -0.20612583 -0.02112486 -0.10339262
-0.14323732 -0.291801 0.13764656 -0.23312236 -0.20816849 0.16806827 0.30559558 -0.12654899
-0.2549251 -0.16409452 -0.109359376 -0.18903671 0.0010046789 -0.1298934 0.010354038 0.022690617
-0.25880736 -0.01588353 -0.27396768 -0.28707573 -0.052190658 0.3123358 0.17200825 -0.2957358
-0.1677578 0.22721341 -0.1235059 -0.22465241 -0.2783965 -0.14172591 -0.22174627 -0.11096116
0.17771891 -0.26345184 -0.20033139 -0.29895347 -0.1645479 -0.26669514 -0.13961974 -0.23670104
-0.20968112 -0.045328148 -0.2894674 -0.25040135 -0.23875254 -0.26144886 -0.1461269 -0.10420239
-0.21321173 0.034977823 0.21341333 0.016514506 -0.10156876 0.25237486 -0.12938301 -0.28986403
-0.009428184 -0.22426319 -0.25402278 -0.28941318 0.07329799 -0.25069484 0.041372795 0.078031585
-0.1884862 0.6162452 -0.10649444 -0.14925635 -0.26670417 -0.16369204 0.33873886 -0.08851829
0.13440804 -0.22135721 0.104896225 -0.21804793 -0.04967053 -0.29752 -0.20485488 0.13953209
0.03138208 -0.100401275 -0.1892699 -0.07131142 -0.2124675 -0.20736684 -0.08064245 0.31519806
00000000: 6735 333d 3923 42bc eabc c0bd 7248 9fbd
00000010: 0e4d 21be 3a4d 893c bb4e a3bb 6439 14be
00000020: 5b11 5cbe b362 563d 27c3 97be 91f5 96be
00000030: 422f 2ebe 5290 4cbd 10f2 e0bd 8aeb 5bbd
00000040: a370 313e ec27 44be 4005 89be 1bb2 6f3d
00000050: 69b8 b4bd 84c7 59be 5c15 87be 6876 9e3e
00000060: f73a 7cbe 9329 88be 136a 783e ef1e 82be
00000070: 7048 16be 7666 84be b793 88be d6d3 04bd
00000080: ef3f 81be d21a 79be 7e0e cd3d 309e 2cbe
00000090: 7751 b2be d37c fabd c710 9dbe 0a02 07be
000000a0: 8daf 57be 1311 2b3e 7d14 b83e 7062 fdbd
000000b0: ba23 cc3d 8d83 df3e a5f8 4abd 120c 093f
000000c0: eb66 243d 97c4 91be a4e1 88be 4eaa 73be
000000d0: 6ee6 803d 4ad3 95be d9d4 8abe 0910 4dbe
000000e0: 8648 193d 18b9 6c3d 19cf 75be 3989 3cbe
000000f0: 826d edbd 290b cdbd fd89 98be 8cdc 9c3e
00000100: 9020 3abe cc41 15be 7326 8dbe 5c39 55be
00000110: d09c fe3e 5bef 5a3e d8f4 47be d209 68bd
00000120: f768 87be 2a1d 87bd 7202 613e 4196 85be
00000130: 55b3 92be 2d3e 07be 2764 b5be e849 6c3c
00000140: c962 15bc 2d3e 42be 18ba 5ebe ee68 3ebe
00000150: 9321 f63d 5283 843d 4061 b23d d61b 04be
00000160: 35cb dabc 879e 37bd a24b 33be dd7d cebd
00000170: a7eb 89be aa67 71bd d050 c4bd fa6b 58be
00000180: 8339 bc3c 5592 23be 60ec 58be 8c08 4c3d
00000190: 13ec 3a3d 9ede 97be b12e 52be 23d9 23be
000001a0: 18f6 05be aed9 253e 84aa 83be 8287 ee3e
000001b0: c491 e63e 0708 8abd 6632 45be c938 513d
000001c0: 33b3 54be efe4 67be 590a 42be 6481 22be
000001d0: 2629 57be 2746 813d fe9b 2ebe c506 0fbe
000001e0: e973 1cbe d699 8abe cf58 2bbe 111c 923e
000001f0: c1ef 83be 0b2b 30be fbb9 023e bc9f 41bd
00000200: a7af 5abe 1ad7 9b3d 9d3f 1bbe d45c a83d
00000210: 454b c9bd b890 dc3e ded4 043d 6184 8cbd
00000220: b437 df3e 734b 123e 9edf a63e 5843 8abe
00000230: a297 2b3e f0e8 80be 01ef f6bc 597f e2bd
00000240: 6f11 493e 50bb 76be 8356 e23e cab3 a53d
00000250: c94b 5bbe b488 033f c8fa 60be dd86 cf3c
00000260: 48eb 09bd f594 37be 8c7c 6d3e 97b4 2bbe
00000270: 7bf2 70be 15ae 253e 10ff 5e3e 6bed 75bd
00000280: 26e2 8bbe 43d3 95be fecd 9a3e 1474 6bbe
00000290: 4aad bbbd a612 53be 0b0e adbc 83bf d3bd
000002a0: ceac 12be f166 95be 38f3 0c3e a1b7 6ebe
000002b0: 1f2a 55be 171a 2c3e 0677 9c3e 0f96 01be
000002c0: 8b85 82be 6508 28be cff7 dfbd d792 41be
000002d0: 6eaf 833a c702 05be fca3 293c ace1 b93c
000002e0: 6682 84be 2d1e 82bc 7e45 8cbe 97fb 92be
000002f0: dfc5 55bd 7aea 9f3e ee22 303e af6a 97be
00000300: b3c8 2bbe a2aa 683e a9f0 fcbd 480b 66be
00000310: fc89 8ebe 9920 11be 7411 63be 9b3f e3bd
00000320: f2fb 353e 29e3 86be ac23 4dbe 6e10 99be
00000330: 3f7f 28be 448c 88be 7af8 0ebe c261 72be
00000340: a6b6 56be 02aa 39bd 1235 94be 9b34 80be
00000350: 8c7b 74be a0dc 85be 4aa2 15be 1068 d5bd
00000360: 2d54 5abe e844 0f3d 0689 5a3e 6e49 873c
00000370: 4803 d0bd 4737 813e fb7c 04be 0f69 94be
00000380: ab78 1abc 40a5 65be 460f 82be f72d 94be
00000390: 421d 963d 135b 80be 8576 293d 06cf 9f3d
000003a0: 8702 41be 3fc2 1d3f c219 dabd a8d6 18be
000003b0: 738d 88be e39e 27be 2e6f ad3e 1449 b5bd
000003c0: 43a2 093e 77ab 62be d5d3 d63d f547 5fbe
000003d0: 5373 4bbd 8b54 98be 7ac5 51be 80e1 0e3e
000003e0: 7f8a 003d 2f9f cdbd f8cf 41be b90b 92bd
000003f0: 1591 59be f957 54be de27 a5bd a461 a13e

FCNet.4.weight f4 [300]
1.4143604 1.0919222 1.6450448 1.6587273 1.5936681 5.945751 1.2020217 1.0704645
1.0833133 1.262204 0.24583507 0.23789264 1.2232081 1.6780282 1.2683017 1.6639035
2.1256669 1.2987922 0.70188445 1.2537647 1.5158736 0.9588482 0.41927937 2.2067409
0.3792543 0.50506645 2.26038 0.97481847 1.4045683 0.7908819 0.34563687 1.3235313
1.0991719 1.3082083 1.6649516 1.2951512 0.9295302 1.473633 1.2340809 1.2699656
0.8982853 2.1531456 2.4040232 1.5729295 1.9920952 3.3229418 1.3993605 2.7434087
1.2677443 0.64627165 0.37523097 1.2308438 1.9710026 0.7022951 1.439405 1.2832407
0.33055404 1.6193109 0.7939937 1.580415 1.1025254 1.1105081 0.24993293 2.2368908
1.100441 0.9476019 0.43367407 1.2138318 3.0147552 2.6803002 0.92495024 1.602664
0.3085921 1.5371937 2.1022139 0.38044643 0.31571496 1.1921914 0.8319202 1.6255717
1.6021202 1.3985597 0.60116047 1.0959699 1.7713034 2.02326 1.3268461 1.0992166
1.8075248 4.1333127 0.50239366 1.6623425 0.322957 1.6217717 1.7235265 0.4593044
1.4916903 0.58804643 0.4188323 1.282297 1.5806198 0.24437474 2.2276843 1.2581799
1.0785776 2.036689 1.1580206 2.9528553 3.2261913 1.6383244 1.5304943 1.5407361
0.62531805 1.154477 0.8977317 1.398039 1.2082769 1.46708 0.61269975 1.0537268
1.2867669 0.49667698 1.2822299 2.725583 1.2162508 0.981052 1.4876113 1.5731663
1.0467858 1.4909656 1.0119069 1.7950214 0.9791703 4.1696 1.2478987 2.939777
2.57848 2.1390846 2.3119824 0.77276236 1.8598462 0.4385319 1.1489192 1.552693
2.3931022 0.8809158 2.5668707 2.1486301 0.5440431 2.8357656 1.3705733 1.6795914
1.1714859 0.35901892 2.2199948 1.8679469 0.3464534 1.9642504 2.2827637 1.0908015
0.43736959 1.157717 2.6154172 1.0531607 1.6797818 0.852695 1.751371 1.2617965
1.0043508 0.24464296 1.6837568 1.4763577 0.9154775 3.1050382 2.2482216 1.370148
0.36202836 1.314382 1.6470082 2.1515954 1.1501616 1.039065 1.7384404 1.613598
1.072455 1.6120231 0.6810947 0.26311317 1.6505152 2.312705 1.5986316 0.24245246
1.1008984 2.0814934 1.525896 0.71381605 0.9235927 0.6490058 1.3208337 1.3050835
1.9927104 0.30695295 1.1108836 0.24719109 1.0349692 0.34989867 1.11198 0.382324
0.918218 1.7495797 0.68689024 1.0961204 0.84433645 0.3944239 1.2334796 1.6498268
0.45352265 1.555743 2.1826205 0.93160176 1.3403339 2.679325 1.0583827 0.24386808
1.1774695 1.124515 1.9637835 0.6637907 1.5585809 1.215602 0.67339176 2.427186
0.9483978 3.9471633 1.6730802 1.0292206 1.1381444 1.1612391 2.259207 1.6976327
1.9957196 0.38039985 1.6078879 1.0311425 1.4917799 0.8427014 0.9144069 1.7629975
1.2843333 1.7519008 1.202764 1.5439111 0.81536007 1.5924528 1.3399144 2.3666155
00000000: c309 b53f 1bc4 8b3f d490 d23f 2d51 d43f
00000010: 51fd cb3f 9843 be40 d9db 993f fb04 893f
00000020: 03aa 8a3f e78f a13f 30bc 7b3e 219a 733e
00000030: 1592 9c3f a1c9 d63f b657 a23f cafa d43f
00000040: ed0a 0840 d33e a63f b3ae 333f 5d7b a03f
00000050: 2508 c23f 1377 753f c9ab d63e 3e3b 0d40
00000060: 9f2d c23e 094c 013f 11aa 1040 b48d 793f
00000070: e5c8 b33f 3c77 4a3f 51f7 b03e 7969 a93f
00000080: aab1 8c3f 5f73 a73f 221d d53f 84c7 a53f
00000090: b1f5 6d3f 02a0 bc3f 5df6 9d3f 3c8e a23f
000000a0: 07f6 653f 23cd 0940 84db 1940 c155 c93f
000000b0: fafc fe3f 14ab 5440 3f1e b33f 0294 2f40
000000c0: 7245 a23f 0f72 253f 461e c03e 4a8c 9d3f
000000d0: d049 fc3f 9dc9 333f 6c3e b83f 3b41 a43f
000000e0: 613e a93e 9445 cf3f 2c43 4b3f 0a4b ca3f
000000f0: 8d1f 8d3f 2125 8e3f 6bee 7f3e 3829 0f40
00000100: 40db 8c3f 0a96 723f 870a de3e d75e 9b3f
00000110: c0f1 4040 0a8a 2b40 8ac9 6c3f 1824 cd3f
00000120: c9ff 9d3e c3c2 c43f ac8a 0640 e0c9 c23e
00000130: 64a5 a13e ba99 983f b9f8 543f bc12 d03f
00000140: 4612 cd3f 0104 b33f a7e5 193f be48 8c3f
00000150: 12ba e23f 187d 0140 18d6 a93f 21b3 8c3f
00000160: f95c e73f 1944 8440 df9c 003f a4c7 d43f
00000170: 9f5a a53e 3796 cf3f 849c dc3f f229 eb3e
00000180: b5ef be3f 368a 163f 3071 d63e 4f22 a43f
00000190: c051 ca3f 5f3d 7a3e 6192 0e40 0a0c a13f
000001a0: d50e 8a3f 1d59 0240 053a 943f 95fb 3c40
000001b0: eb79 4e40 9db4 d13f 3de7 c33f d736 c53f
000001c0: d814 203f e7c5 933f bfd1 653f f1f2 b23f
000001d0: d1a8 9a3f 47c9 bb3f e4d9 1c3f 85e0 863f
000001e0: c7b4 a43f 724c fe3e 1c20 a43f f46f 2e40
000001f0: 1bae 9b3f 3926 7b3f 0c6a be3f 835d c93f
00000200: 14fd 853f f6d7 be3f 2a86 813f 43c3 e53f
00000210: e8aa 7a3f 5d6d 8540 25bb 9f3f 4e25 3c40
00000220: d105 2540 c3e6 0840 85f7 1340 c1d3 453f
00000230: 710f ee3f 4187 e03e c90f 933f a5be c63f
00000240: 9628 1940 b383 613f 9c47 2440 2883 0940
00000250: 6946 0b3f 2f7d 3540 f26e af3f dafc d63f
00000260: 40f3 953f 54d1 b73e 6514 0e40 e218 ef3f
00000270: 5762 b13e 8f6c fb3f cd18 1240 629f 8b3f
00000280: e8ee df3e 1230 943f ff62 2740 f8cd 863f
00000290: 1703 d73f 384a 5a3f ed2c e03f 8c82 a13f
000002a0: 918e 803f af83 7a3e 5885 d73f 4af9 bc3f
000002b0: bc5c 6a3f f2b8 4640 dde2 0f40 0261 af3f
000002c0: c85b b93e ab3d a83f 2ad1 d23f bdb3 0940
000002d0: 7f38 933f 1500 853f 3785 de3f 618a ce3f
000002e0: 3546 893f c656 ce3f 395c 2e3f c5b6 863e
000002f0: 1544 d33f 5c03 1440 f69f cc3f 7545 783e
00000300: 3dea 8c3f 3037 0540 8f50 c33f a6bc 363f
00000310: 9270 6c3f 3e25 263f 1411 a93f fa0c a73f
00000320: 2211 ff3f f028 9d3e 6f31 8e3f a91f 7d3e
00000330: df79 843f eb25 b33e 5c55 8e3f f9bf c33e
00000340: 5610 6b3f 3af2 df3f 0ad8 2f3f ac4d 8c3f
00000350: 6f26 583f eef1 c93e a9e2 9d3f 862d d33f
00000360: 1f34 e83e 9622 c73f 0eb0 0b40 747d 6e3f
00000370: 1090 ab3f 107a 2b40 1679 873f 8eb8 793e
00000380: 52b7 963f 1cf0 8f3f 425d fb3f 30ee 293f
00000390: 947f c73f d998 9b3f 6763 2c3f 0457 1b40
000003a0: 33ca 723f 539e 7c40 7e27 d63f 80bd 833f
000003b0: b7ae 913f 7ca3 943f d996 1040 074c d93f
000003c0: bd73 ff3f c5c3 c23e 45cf cd3f 7afc 833f
000003d0: a5f2 be3f 47bb 573f 9216 6a3f e7a9 e13f
000003e0: 0965 a43f 493e e03f 2cf4 993f e19e c53f
000003f0: 70bb 503f 7ed5 cb3f 5182 ab3f a176 1740

FCNet.4.bias f4 [300]
0.19457267 0.042329296 -0.694393 0.015386213 -0.62212765 -0.08041245 0.08106936 -0.50118434
-0.5281623 0.13696988 -0.3542201 -0.3707606 -0.58680356 -0.42681566 -0.5866313 -0.26147732
0.0749797 -0.42269337 -0.30702272 -0.0024706288 -0.6621852 -0.3561362 -0.46851346 0.08502069
-0.4843983 -0.5304584 -0.027514892 -0.05022809 -0.013305699 -0.44544372 -0.4558473 0.20689139
-0.44395766 -0.8805833 0.25345144 -0.63077307 -0.3668214 -0.6374066 -0.4703968 -0.5988579
-0.47687757 0.03707183 0.08573696 -0.6688474 0.01672676 0.5906507 -0.09700543 0.30005372
0.13607593 -0.5192526 -0.46636766 -0.0021609492 0.14725271 -0.582123 -0.28470826 -0.018554943
-0.61147505 -0.54320604 -0.65654546 -0.5039537 -0.58918554 0.57336456 -0.34369972 0.38806224
-0.5688563 -0.5117671 -0.47498065 -0.2876377 0.6374478 0.67297786 -0.039716735 -0.37897223
-0.4381147 0.0065019596 -0.08068477 -0.97934675 -0.44079694 -0.58018404 -0.41915113 -0.23791425
0.11280064 -0.3216293 -1.056376 -0.5250405 0.49948448 0.027631283 0.051363222 -0.3689447
0.32443464 0.28722483 -0.6548683 -0.62380445 -0.47241762 -0.75436985 -0.7048927 -0.64966923
-0.103740536 -0.44589722 -0.4943226 -0.023858737 0.1187532 -0.36599216 -0.9146959 -0.13960662
-0.55258626 -0.0039184703 -0.31144083 0.5215927 0.44289896 -0.6935567 -0.67540103 -0.1675999
-0.4714128 -0.51066273 -0.42073274 -0.43545336 0.20223297 0.1438284 -0.74402404 -0.5333818
-0.44682688 -0.574328 -0.4588034 0.68490416 -0.40870333 -0.35621133 0.21211542 0.04288211
-0.49734893 -0.14487274 -0.5180115 0.013950589 -0.50915873 0.5168254 0.0625483 -0.7069146
0.41879544 0.026949473 0.6260646 -0.38355663 0.09427028 -0.48815343 -0.026226882 -0.623526
0.3559215 -0.35400227 0.29151177 0.1761582 -0.26030844 0.30673632 -0.3865898 0.14502202
0.060373906 -0.5896152 0.01584662 -0.8951446 -0.56336516 0.22410743 0.007559188 0.34583998
-0.46854326 -0.10977466 0.3289357 -0.49878028 -0.6208068 -0.33964214 -0.54619145 -0.60875523
-0.5534593 -0.38715208 0.034355897 -0.4748592 -0.36141142 -0.3826167 0.35558552 -0.6279132
-0.3896257 -0.3438715 -0.57909036 -0.7159741 -0.1239602 -0.33455327 0.12496665 -0.518601
-0.8926274 -0.42334318 -0.5488968 -0.39662933 -0.34721884 0.086354114 0.06872425 -0.37606546
-0.6448654 0.2124165 -0.6419533 -0.947003 -0.32175988 -0.37370098 0.23039334 -0.62987834
0.3876803 -0.49509746 0.09076049 -0.393202 -0.508712 -0.46940753 -0.55216825 -0.9687966
-0.2525357 -0.6612504 -0.47907355 -0.033283405 -0.6003227 -0.44878405 -0.5962511 -0.66900367
-0.6458545 -0.04146021 -0.007116852 -0.34020898 -0.6576152 0.8267096 -0.56404763 -0.3810723
0.5393013 -0.7813854 -0.9105156 -0.4385994 0.18696563 -0.48538342 0.34738168 0.11025364
0.04322231 0.6975391 -0.68168813 -0.47057828 -0.18441896 -0.23590572 0.06814127 -0.75038916
0.88850087 -0.6081542 0.13076848 -0.09555793 0.10667972 -0.24842164 0.014602262 0.2554432
-0.04027374 -0.6806045 -0.35150492 0.1731298 -0.6926784 -0.34449816 0.097280316 0.66785526
00000000: 0f3e 473e 7c61 2d3d bdc3 31bf 7416 7c3c
00000010: c243 1fbf 48af a4bd b107 a63d 9e4d 00bf
00000020: a535 07bf d541 0c3e 565c b5be 55d4 bdbe
00000030: c238 16bf 9587 dabe 782d 16bf 5be0 85be
00000040: f58e 993d 446b d8be 1532 9dbe 46ea 21bb
00000050: f884 29bf 7c57 b6be ffe0 efbe 541f ae3d
00000060: 0e03 f8be 1fcc 07bf e966 e1bc f8bb 4dbd
00000070: 2600 5abc 3311 e4be d164 e9be 56db 533e
00000080: 6b4e e3be e86d 61bf 63c4 813e 587a 21bf
00000090: 04d0 bbbe 142d 23bf d9d7 f0be c04e 19bf
000000a0: 4c29 f4be a2d8 173d dc96 af3d 9539 2bbf
000000b0: 8f06 893c e234 173f c8aa c6bd a4a0 993e
000000c0: 7d57 0b3e bded 04bf bec7 eebe b69e 0dbb
000000d0: 6ac9 163e 0306 15bf 48c5 91be 8900 98bc
000000e0: a189 1cbf 8d0f 0bbf 5d13 28bf 1c03 01bf
000000f0: ddd4 16bf 05c8 123f 69f9 afbe 18b0 c63e
00000100: 91a0 11bf 2b03 03bf aa30 f3be 4045 93be
00000110: c72f 233f 4748 2c3f 04ae 22bd a608 c2be
00000120: 9250 e0be 640e d53b 0f3e a5bd 78b6 7abf
00000130: 23b0 e1be f186 14bf fa9a d6be cb9f 73be
00000140: 0604 e73d 98ac a4be 5437 87bf 0e69 06bf
00000150: 6ebc ff3e 005b e23c 3e62 523d 52e6 bcbe
00000160: 4c1c a63e 220f 933e 73a5 27bf a6b1 1fbf
00000170: b9e0 f1be 621e 41bf d973 34bf b950 26bf
00000180: eb75 d4bd a44c e4be da17 fdbe 6673 c3bc
00000190: e134 f33d 5363 bbbe 8329 6abf 0af5 0ebe
000001a0: 4b76 0dbf 8366 80bb 2c75 9fbe 1987 053f
000001b0: a7c3 e23e ef8c 31bf 15e7 2cbf 4f9f 2bbe
000001c0: 055d f1be cbba 02bf 486a d7be bef3 debe
000001d0: 2916 4f3e c147 133e 5c78 3ebf b68b 08bf
000001e0: 7ec6 e4be 2907 13bf 47e8 eabe e155 2f3f
000001f0: 9041 d1be 5561 b6be c934 593e 27a5 2f3d
00000200: 85a4 febe 8559 14be 679c 04bf 0391 643c
00000210: 3a58 02bf ab4e 043f 5319 803d 5bf8 34bf
00000220: 5b6c d63e 24c5 dc3c c545 203f 8961 c4be
00000230: c710 c13d 3fef f9be c2d9 d6bc 669f 1fbf
00000240: 583b b63e c93f b5be 0841 953e d162 343e
00000250: 2647 85be 8b0c 9d3e 19ef c5be a780 143e
00000260: a14a 773d 06f1 16bf c5d0 813c 3228 65bf
00000270: b338 10bf 6b7c 653e 11b3 f73b f011 b13e
00000280: e7e4 efbe 89d1 e0bd 436a a83e 2160 ffbe
00000290: 32ed 1ebf 93e5 adbe 34d3 0bbf 62d7 1bbf
000002a0: 82af 0dbf cc38 c6be c5b8 0c3d bf20 f3be
000002b0: eb0a b9be 56e6 c3be 4e0f b63e ebbe 20bf
000002c0: 057d c7be ed0f b0be 443f 14bf 144a 37bf
000002d0: d8de fdbd 914a abbe 84ee ff3d 09c3 04bf
000002e0: 3b83 64bf 70c0 d8be 8084 0cbf 0013 cbbe
000002f0: abc6 b1be 6dda b03d 4dbf 8c3d a78b c0be
00000300: e615 25bf b683 593e 0d57 24bf ca6e 72bf
00000310: b6bd a4be bc55 bfbe 3bec 6b3e b53f 21bf
00000320: 087e c63e 6a7d fdbe a3e0 b93d c651 c9be
00000330: f33a 02bf 2f56 f0be e65a 0dbf 0e03 78bf
00000340: 5c4c 81be b547 29bf 2149 f5be 2e54 08bd
00000350: c0ae 19bf 06c7 e5be e9a3 18bf d343 2bbf
00000360: b856 25bf 2ed2 29bd 7b34 e9bb df2f aebe
00000370: 7859 28bf 3ea3 533f 6d65 10bf e91b c3be
00000380: a60f 0a3f e008 48bf 8d17 69bf 1a90 e0be
00000390: eb73 3f3e 2d84 f8be 03dc b13e a9cc e13d
000003a0: e009 313d ec91 323f 1d83 2ebf a3ef f0be
000003b0: 53d8 3cbe 4591 71be a68d 8b3d 8119 40bf
000003c0: cb74 633f feaf 1bbf 2ce8 053e e0b3 c3bd
000003d0: e67a da3d 3e62 7ebe 533e 6f3c 73c9 823e
000003e0: 14f6 24bd 193c 2ebf 74f8 b3be f048 313e
000003f0: 5f53 31bf 1062 b0be e73a c73d 90f8 2a3f
