DDPG/model/Pendulum-v0_actor.pt (torch, 497919 bytes, 9 tensors)

FCNet.0.weight f4 [400, 3]
0	0x3c8cfd72	0.017210696
1	0xbe73f85b	-0.23825209
2	0xbd6d7ab7	-0.057978358
3	0x3d98b9ff	0.07457351
4	0x3e1fe981	0.15616418
5	0x3cb706bc	0.022342078
6	0xbd84225c	-0.06451866
7	0x3da4aad2	0.08040394
8	0x3cf911b5	0.030403951
9	0xbd10b8f4	-0.035332635
10	0xbd329ffa	-0.043609597
11	0xbc121676	-0.008916488
12	0xbd15d2c2	-0.036577947
13	0xbd840e41	-0.06448031
14	0xbd683823	-0.05669416
15	0xbc8dec72	-0.01732466
16	0xbe0f3524	-0.13985115
17	0xbc342038	-0.01099401
18	0xbb6bcf1e	-0.0035981606
19	0xbe07c0b8	-0.1325711
20	0x3c13cc06	0.009020811
21	0x3b0a630c	0.0021116165
22	0x3c5efa3b	0.013609464
23	0x3d001e50	0.03127891
24	0xbc7311bf	-0.014835774
25	0x3a45e985	0.0007549751
26	0xbb78ba54	-0.0037952857
27	0x3d9465a5	0.0724595
28	0x3e1e2490	0.15443635
29	0x3d2dd314	0.042437628
30	0xbba5aabb	-0.005055753
31	0xbcac90cc	-0.021065138
32	0xbab1f2db	-0.0013576405
33	0xbd81f3fb	-0.06345364
34	0x3e06b7c2	0.13156036
35	0x3cda74d7	0.026667042
36	0x3db722f2	0.08942212
37	0xbd03b281	-0.032152656
38	0x3d422200	0.047395706
39	0xbd89f72f	-0.067366
40	0xbce9ad4a	-0.028525013
41	0xbc9ba91e	-0.01900154
42	0xbd5912d8	-0.052996486
43	0xbc76ad80	-0.015056014
44	0x3ca92b09	0.020650404
45	0x3dad72dd	0.08469174
46	0xbe190671	-0.14943863
47	0xbd7dca28	-0.06196037
48	0xbc91dcab	-0.017805418
49	0xbd542103	-0.051789295
50	0xbd110729	-0.03540722
51	0x3be53ce8	0.006995786
52	0x3dbe1675	0.09281627
53	0xbd04da55	-0.03243478
54	0xbd83ebe2	-0.064414755
55	0x3d0adb88	0.033900768
56	0x3bdbb4e3	0.006704913
57	0x3d86adf5	0.065761484
58	0x3dcaa5fd	0.09894941
59	0x3d1a3136	0.037644587
60	0xbd205f2b	-0.03915326
61	0x3da3bad8	0.07994622
62	0x3c940f8d	0.018073821
63	0x3b771c3c	0.0037706038
64	0xbe824506	-0.25443286
65	0xbd7de07b	-0.06198166
66	0xbd4e1cb3	-0.05032034
67	0xbd4c40de	-0.04986655
68	0xbc101346	-0.008793658
69	0x3c2f9c83	0.010718468
70	0xbdb7d1d3	-0.08975568
71	0x3d19c64a	0.03754262
72	0xbd4a67af	-0.049415287
73	0xbddda9a2	-0.108233705
74	0xbd0bec4e	-0.034160905
75	0x3e27870b	0.16360109
76	0xbd947722	-0.07249285
77	0xbd970f09	-0.073759146
78	0x3c228ecb	0.00992174
79	0xbe18b7ca	-0.1491386
80	0xbb96669d	-0.004589869
81	0xbd0df803	-0.03466035
82	0xbd212b7e	-0.039348118
83	0xbbd655e0	-0.006540999
84	0xbd34cc79	-0.044140313
85	0xbd13c374	-0.03607507
86	0xbc2bf93c	-0.010496434
87	0x3d72c24b	0.059267323
88	0x3e3b6063	0.18298487
89	0x3d294287	0.04132321
90	0x3c8cfe94	0.017211236
91	0x3e696448	0.2279216
92	0x3d5f9cb1	0.054592792
93	0xbc11ac71	-0.008891211
94	0x3c8da0db	0.017288616
95	0x3acabac7	0.0015467041
96	0xbd031e2b	-0.032011192
97	0x3c472e43	0.012157026
98	0x3a84079c	0.0010073069
99	0xbdc49fcc	-0.09600791
100	0x3d37f679	0.04491279
101	0xbd38c124	-0.04510607
102	0x3de2b785	0.1107016
103	0x3dea4470	0.11438835
104	0x3d126628	0.035741955
105	0xbd5ea39f	-0.05435526
106	0xbcf6753e	-0.030085202
107	0xbbfac844	-0.007653268
108	0x3c190a42	0.009340825
109	0x3db4fed0	0.08837664
110	0xbc27831a	-0.010224128
111	0xbc9b0a45	-0.018925795
112	0xbd9a5644	-0.07535985
113	0xbcc83935	-0.024441341
114	0xbca56e9f	-0.02019435
115	0xbd96cabb	-0.073628865
116	0x3d228bef	0.039684232
117	0x3d20b6b8	0.039236754
118	0x3e255c94	0.16148597
119	0xbcb3be5b	-0.021941354
120	0xbd7bc8d0	-0.061470807
121	0xbbb23c09	-0.0054392857
122	0x3d0214b9	0.031758044
123	0xbdc45f27	-0.09588461
124	0xbd820f26	-0.063505456
125	0xbcbebf6d	-0.023284638
126	0xbc9d77c0	-0.01922214
127	0x3c9acf5c	0.018897705
128	0x3a9ea7a6	0.0012104406
129	0x3c1d8c1d	0.009615925
130	0xbdbcb8c6	-0.0921493
131	0x3cf500af	0.029907553
132	0xbd1b1034	-0.03785725
133	0xbca87c24	-0.020567007
134	0x3a103ec6	0.0005502518
135	0xbd4d50cc	-0.050125882
136	0xbd18329c	-0.03715764
137	0xbc018a77	-0.007906548
138	0x3d4402b3	0.047854137
139	0xbd648d22	-0.055798657
140	0x3d75e0cd	0.06002884
141	0xbd710444	-0.05884196
142	0x3c280c17	0.010256789
143	0x3aedab87	0.0018132784
144	0x3ace1177	0.0015721758
145	0x3e121667	0.14266358
146	0x3cdbf808	0.026851669
147	0x3e2a45e0	0.16628218
148	0xbd657563	-0.05602015
149	0xbd7eac11	-0.062175814
150	0xbb760dd5	-0.0037544866
151	0xbc453771	-0.012037144
152	0xbd3de73a	-0.046363093
153	0xbd3541bb	-0.04425214
154	0xbc4e21d4	-0.012581307
155	0x3b533e38	0.003223313
156	0xbcf29ebc	-0.029616706
157	0xbd55310b	-0.052048724
158	0xbd24a2cc	-0.040194318
159	0xbdb2a1cd	-0.08722267
160	0xbd7059a4	-0.058679238
161	0xbca3a93c	-0.019978158
162	0xbce37b1f	-0.02776867
163	0xbdb894c2	-0.09012748
164	0xbc8f9b20	-0.017530024
165	0xbd534adb	-0.05158506
166	0x3e016c3f	0.12638949
167	0x3ccc9856	0.024974983
168	0x3c77c43c	0.0151224695
169	0xbe267882	-0.16256908
170	0xbd4ab55e	-0.04948937
171	0x3d97f7d1	0.07420314
172	0x3df0b42b	0.11753114
173	0x3d3a131e	0.045428388
174	0xbb2d59d8	-0.0026451256
175	0xbd59f6a2	-0.053213723
176	0xbd2e4c04	-0.042552963
177	0x3d559446	0.052143358
178	0xbe2852d6	-0.1643785
179	0xbd312d7c	-0.043256268
180	0xbd1ad8f9	-0.037804577
181	0xbb83fa8b	-0.00402767
182	0x3b371b12	0.002793972
183	0xbd75f78d	-0.060050536
184	0x3dfe86b9	0.1242804
185	0x3ccee98d	0.02525785
186	0xbd4dfd74	-0.05029054
187	0xbc76b89e	-0.015058665
188	0xbd20c40f	-0.039249476
189	0xbd728184	-0.059205547
190	0xbc706d98	-0.014674567
191	0x3bacf3cc	0.0052780863
192	0xbd71c261	-0.059023265
193	0x3dff7589	0.1247359
194	0x3cd3ba85	0.025845775
195	0x39f12f38	0.00046002283
196	0x3d9452c3	0.07242348
197	0xbbb41eaf	-0.005496822
198	0x3db0193b	0.08598562
199	0xbdd38b3b	-0.103292905
200	0xbd33ddb5	-0.04391261
201	0xbe418602	-0.18898776
202	0x3c45877e	0.01205623
203	0x3d3d8780	0.0462718
204	0xbd4e0a04	-0.05030252
205	0xbc473acf	-0.012160017
206	0xbb95e460	-0.0045743436
207	0xbcedf86c	-0.02904912
208	0xbd89bb2b	-0.067251526
209	0xbc1735d9	-0.009229147
210	0xbdc3886e	-0.09547506
211	0xbc44d68b	-0.012014042
212	0xbd23a5bc	-0.03995298
213	0x3d960963	0.07326009
214	0x3e2c3ec6	0.16820821
215	0x3d546d1b	0.051861864
216	0x3c321b9a	0.010870839
217	0x3cce40b5	0.02517734
218	0x3bc8ecd3	0.0061317473
219	0x3bdf5409	0.0068154377
220	0x3cb8c41e	0.022554453
221	0x3cc9ec04	0.024648674
222	0xbd81f349	-0.06345231
223	0xbb4f552b	-0.0031636457
224	0x3d99da8c	0.07512388
225	0xbd52c441	-0.051456694
226	0xbd5520de	-0.052033298
227	0xbc42a4a3	-0.011880073
228	0xbdd3d4c3	-0.103433155
229	0xbd870bdc	-0.06594059
230	0xbcd13214	-0.025536574
231	0x3cebee63	0.028800195
232	0x3dd0faca	0.10204084
233	0x3cd7a8e9	0.02632566
234	0x3d8f2e70	0.06991279
235	0x3dbeeeb7	0.09322875
236	0x3d3061ff	0.043062206
237	0xbd4e1ad2	-0.050318547
238	0xbcde6331	-0.027146908
239	0x3b6eeae0	0.0036455914
240	0xbcf3d37d	-0.029763931
241	0xbde95845	-0.11393789
242	0xbcfab776	-0.03060506
243	0xbc960c75	-0.018316487
244	0xbcd3108a	-0.025764722
245	0xbc1a9ae0	-0.009436339
246	0x3d8a5131	0.06753767
247	0x3e3d3bff	0.18479918
248	0x3d42fda0	0.047605157
249	0x3d586ecc	0.05284004
250	0xbe4373bb	-0.19087116
251	0xbd0f499b	-0.034982305
252	0xbd2ceed4	-0.04221995
253	0xbce52bdd	-0.027975017
254	0xbbb5aa7f	-0.0055440064
255	0xbcb39f79	-0.021926628

FCNet.0.bias f4 [400]
0	0xbc7d9115	-0.015476485
1	0xbbe78ec4	-0.0070665795
2	0x3d716cab	0.058941524
3	0x3de89fb4	0.11358586
4	0x3d7c5e82	0.061613567
5	0x3c87b311	0.016564878
6	0x3d0fe92a	0.035134472
7	0x3d4f1915	0.05056103
8	0x3d842521	0.06452394
9	0x3c033406	0.008008009
10	0x3daf0aab	0.08546957
11	0x3d339c99	0.043850515
12	0xbdbe8c18	-0.093040645
13	0x3e02223d	0.12708373
14	0x3dcbcc8f	0.09951126
15	0xbd795609	-0.060873065
16	0x3d9edfcb	0.07757529
17	0x3d6b3019	0.057418916
18	0x3ddb1089	0.10696513
19	0xbc60b062	-0.013713928
20	0x3d7a8370	0.061160505
21	0xbba3644e	-0.0049863225
22	0x3dd31f56	0.10308711
23	0x3d54eb38	0.051982135
24	0x3d2b7fa4	0.041869774
25	0xbdad6fa4	-0.084685594
26	0x3d31ba0b	0.043390315
27	0x3db0a36c	0.0862492
28	0x3dfa0f5c	0.12209961
29	0x3c9b88c0	0.018986106
30	0xbb12e454	-0.0022413926
31	0x3dc9f62a	0.09861405
32	0x3dc1931d	0.09451888
33	0x39e47d85	0.00043581068
34	0xbc99ad3d	-0.018759364
35	0x3deeaadf	0.11653685
36	0x3d804c31	0.06264532
37	0x3d7f6526	0.062352322
38	0x3da2c0c9	0.07946927
39	0xbd03b2e4	-0.032153025
40	0x3d72ce1a	0.059278585
41	0x3ddcba9c	0.107777804
42	0x3d965990	0.073413014
43	0x3d5638ed	0.052300382
44	0x3dc5f16e	0.0966519
45	0x3de9706e	0.113983974
46	0xbd9d27fa	-0.076736405
47	0x3de302ef	0.11084544
48	0x3d0700c6	0.032959722
49	0xbdadefd7	-0.084930114
50	0xbdf942ae	-0.12170921
51	0x3de76fe4	0.11300638
52	0x3d8bd80e	0.068283185
53	0x3dc51e4b	0.096249186
54	0x3d7c9791	0.061667982
55	0x3d1ef8b5	0.038811404
56	0xbc0bf54c	-0.00854237
57	0xbca69725	-0.020335743
58	0x3cdba2f4	0.0268111
59	0xbd1fe54c	-0.039037034
60	0x3dcc7206	0.09982686
61	0x3d3dcbe0	0.04633701
62	0x3dbbc801	0.09169007
63	0x3dd4b18a	0.103854254
64	0x3d554e0d	0.05207639
65	0x3d5e62dd	0.054293502
66	0xbd297563	-0.041371714
67	0xbd543dd8	-0.05181679
68	0x3df01b66	0.11723976
69	0x3d8c969c	0.06864664
70	0x3d15e0f8	0.0365915
71	0xbd5b579f	-0.05355036
72	0x3d07180a	0.03298191
73	0x3d38b438	0.045093745
74	0x3d66af61	0.056319598
75	0x3e02309d	0.12713857
76	0x3dd23786	0.102644965
77	0x3cc92792	0.024555001
78	0xbd18e383	-0.037326347
79	0x3defb623	0.11704662
80	0x3d6a4881	0.05719805
81	0x3d87ea67	0.066365056
82	0x3c4639a3	0.012098703
83	0x3be3807b	0.0069428063
84	0x3ddae10e	0.10687457
85	0x3d5e6550	0.054295838
86	0x3de0a2c9	0.10968549
87	0x3d95e1da	0.073184684
88	0x3d1c18f6	0.038109742
89	0x3dcbc40d	0.09949503
90	0xbd0ac852	-0.033882447
91	0x3e008173	0.12549381
92	0x3d717fc8	0.058959752
93	0x3dd89c13	0.10576644
94	0x3df426a5	0.11921433
95	0x3c2b8325	0.010468279
96	0x3dae3ee9	0.08508093
97	0x3dcf5924	0.10124424
98	0x3d8201de	0.063480124
99	0x3d2f0b06	0.042735122
100	0x3dc3a26e	0.095524654
101	0x3dcb7fe2	0.09936501
102	0x3dcefeb6	0.10107176
103	0x3dd8eae5	0.105916776
104	0x3d6893aa	0.05678145
105	0x3ddb5d08	0.10711104
106	0x3d9c126a	0.076207
107	0xbc87a8c6	-0.01655997
108	0x3c8661d2	0.016404066
109	0x3d2b519a	0.04182587
110	0xbd493259	-0.04912028
111	0x3da42d82	0.080164924
112	0x3d41a88f	0.04727989
113	0x3d59af5d	0.053145755
114	0x3df53351	0.119726785
115	0x3d8399a0	0.06425786
116	0x3d74976d	0.059714723
117	0xbd06bf6f	-0.03289741
118	0x3dfea5e3	0.12433984
119	0x3da82a1e	0.08211158
120	0x3ddb0f9f	0.10696339
121	0xbbd595e9	-0.006518115
122	0xbddb2a9e	-0.10701488
123	0x3deba682	0.11506368
124	0x3d040161	0.032227878
125	0x3dbcc5f1	0.09217442
126	0x3dcbea9d	0.09956858
127	0x3d4e0f6a	0.05030767
128	0x3dcba21a	0.09943028
129	0x3ddb5d90	0.10711205
130	0x3deb6af1	0.11495007
131	0x3ddf08f4	0.108903795
132	0x3d9ac6d0	0.07557452
133	0xbc72bff5	-0.014816274
134	0xbd84dec3	-0.06487801
135	0x3d22e455	0.039768536
136	0x3d7108c3	0.058846246
137	0xbd1c306e	-0.038132124
138	0x3dd97f74	0.10620013
139	0x3db0f45d	0.086403586
140	0xbc26c57f	-0.010178923
141	0xbd90b380	-0.07065487
142	0x3dae6050	0.08514464
143	0xbc0ce0b5	-0.008598496
144	0x3da26ebf	0.079312794
145	0x3d261bdc	0.040553913
146	0x3d8034cf	0.062600724
147	0x3d445a89	0.047937904
148	0x3db62b70	0.08895004
149	0x3d43e21b	0.047823053
150	0x3dcf621c	0.10126135
151	0x3dae7b74	0.085196406
152	0xbd496bad	-0.049174953
153	0x3d9624be	0.07331227
154	0xbb0e741a	-0.0021736682
155	0x3dbb98ed	0.09160028
156	0xbd3c2cac	-0.04594104
157	0xbbd5dd9b	-0.0065266616
158	0x3d29da35	0.041467864
159	0x3d3d6660	0.04624021
160	0xbcbdd884	-0.023174532
161	0x3d3bbfce	0.045837216
162	0x3dd6d801	0.10490418
163	0xbb6df087	-0.0036306696
164	0x3d178cb4	0.03699942
165	0x3d3b92b5	0.045794208
166	0x3dc6faa4	0.09715775
167	0x3d9bdba2	0.07610251
168	0x3c906baf	0.017629473
169	0x3d35b589	0.04436258
170	0x3dcce83e	0.10005234
171	0x3c2e9d23	0.0106575815
172	0x3d9e3f83	0.07726958
173	0x3d180113	0.0371104
174	0x3da9a5ba	0.08283563
175	0x3d83bac3	0.06432106
176	0x3de7d7f8	0.1132049
177	0x3ddf6792	0.10908426
178	0x3cfe7b0a	0.031064529
179	0x3d7d59a0	0.06185305
180	0x3a4b8829	0.0007764125
181	0x3d3b332a	0.04570309
182	0xbc1c06f2	-0.00952314
183	0x3de10df8	0.109889925
184	0x3dd87df6	0.105709
185	0x3d43812b	0.047730606
186	0xbc3f40f9	-0.0116732055
187	0x3d65404c	0.05596952
188	0x3d65aa8c	0.05607085
189	0x3d51a807	0.051185634
190	0xbd29feff	-0.04150295
191	0x3d8e95e5	0.06962184
192	0x3d2de4a8	0.04245439
193	0x3d88730e	0.0666257
194	0xbdf8bcd9	-0.12145395
195	0xbb8b54ee	-0.0042520678
196	0x3d73b393	0.059497427
197	0xba6540f1	-0.0008745334
198	0x3d942f79	0.07235617
199	0x3d9a72d0	0.0754143
200	0x3dcd30b3	0.10019054
201	0x3d9077e1	0.07054115
202	0x3dccfbd7	0.10008972
203	0x3d6469a5	0.055764813
204	0x3de5672e	0.112013206
205	0x3da1a436	0.07892649
206	0xbcc967f0	-0.024585694
207	0x3bec6b06	0.0072149066
208	0x3dcf26f2	0.1011485
209	0xbd5a5830	-0.05330676
210	0x3de78d77	0.11306279
211	0x3d9d364d	0.07676373
212	0x3d81d4bd	0.06339405
213	0x3da0502c	0.078277916
214	0x3dd989c7	0.10621982
215	0x3d5259ec	0.051355287
216	0x3dda074c	0.10645923
217	0x3d7b993a	0.061425425
218	0xbdd9c478	-0.106331766
219	0x3d8ca908	0.06868178
220	0x3df94ad2	0.12172474
221	0xbca82edb	-0.020530155
222	0x3d3967f7	0.045265164
223	0x3d5e4f21	0.054274682
224	0x3d8765a4	0.06611183
225	0x3dadb8f7	0.08482545
226	0xbc4f619d	-0.01265755
227	0xbc93777d	-0.018001312
228	0x3d4f5df3	0.050626706
229	0x3d4a8e93	0.049452376
230	0xbd9e233c	-0.07721564
231	0x3d548b87	0.051890876
232	0xbd2bbb0b	-0.041926425
233	0x3d808e45	0.06277136
234	0x3de7ad9c	0.1131241
235	0x3c172c50	0.0092268735
236	0xbcc34769	-0.023837762
237	0x3d33c548	0.043889314
238	0xbc0dd5fa	-0.008656973
239	0x3cbfa64e	0.02339473
240	0x3db96269	0.090519734
241	0x3c34f656	0.011045059
242	0x3de1803f	0.11010789
243	0x3d68f345	0.056872625
244	0xbc1ebae2	-0.009688111
245	0x3d225b55	0.039637882
246	0x3d4a57ea	0.049400248
247	0x3d9eba20	0.07750344
248	0xbd50e815	-0.05100258
249	0x3c2e456d	0.01063667
250	0x3de48a3f	0.11159181
251	0x3dcdc2f1	0.10046948
252	0x3e0253df	0.12727307
253	0x3d895b42	0.06706859
254	0x3dae4d45	0.08510832
255	0xbd049e55	-0.03237756

FCNet.1.weight f4 [400]
0	0x3f9d21c5	1.2275931
1	0x3f91b8c1	1.1384507
2	0x3f74606e	0.9545964
3	0x3f3a875a	0.7286278
4	0x3f629c65	0.8851989
5	0x3f80014c	1.0000396
6	0x3f710691	0.94150645
7	0x3f635abc	0.88810325
8	0x3f4282d0	0.75980854
9	0x3f811553	1.0084633
10	0x3f3a8ded	0.7287281
11	0x3f8054b6	1.0025852
12	0x3f8ef1d9	1.1167556
13	0x3f17c19b	0.59279794
14	0x3f69ab42	0.91276944
15	0x3faa9c4a	1.3328946
16	0x3f5a2f2f	0.85228246
17	0x3f6de989	0.9293447
18	0x3f618c74	0.8810494
19	0x3f6db9b6	0.928615
20	0x3f60aaf4	0.87760854
21	0x3fa3b627	1.2789963
22	0x3f2a24a3	0.66462153
23	0x3f76d9d7	0.9642615
24	0x3f6b63a4	0.91948915
25	0x3fa0e63e	1.2570264
26	0x3f7ce22d	0.98782617
27	0x3f36c99c	0.7140138
28	0x3f190aef	0.5978231
29	0x3f8afb30	1.0857906
30	0x3f910858	1.1330671
31	0x3f3bd316	0.73368967
32	0x3f1cb45d	0.6121271
33	0x3f81cbcd	1.014032
34	0x3f8d4855	1.1037699
35	0x3f2571c9	0.6462675
36	0x3f64e727	0.8941521
37	0x3f50cadb	0.8155953
38	0x3f73bb8c	0.9520805
39	0x3f99ca36	1.2014835
40	0x3f693427	0.91095203
41	0x3f488cec	0.7834003
42	0x3f522a8a	0.8209616
43	0x3f731f97	0.9497008
44	0x3f1b16dc	0.60581756
45	0x3f2c87e0	0.6739483
46	0x3f87ad72	1.0599806
47	0x3f3c4e12	0.73556626
48	0x3f644cde	0.8917979
49	0x3f9c5c77	1.2215718
50	0x3fa407b2	1.2814848
51	0x3f1ae6ee	0.6050862
52	0x3f5e3a7f	0.8680801
53	0x3f514b1d	0.8175524
54	0x3f4cdece	0.8002747
55	0x3f860a83	1.0471958
56	0x3f810a86	1.0081336
57	0x3f7bfc9d	0.9843233
58	0x3f7a704d	0.9782761
59	0x3f92942c	1.1451468
60	0x3f221918	0.6331954
61	0x3f7c9ad5	0.98673755
62	0x3f626c36	0.88446367
63	0x3f434aeb	0.7628619
64	0x3f73c39c	0.9522035
65	0x3f5b2a25	0.8561118
66	0x3f8b0830	1.0861874
67	0x3f9a520c	1.2056289
68	0x3f1c9502	0.6116487
69	0x3f4675d3	0.77523535
70	0x3f72b67b	0.94809693
71	0x3f9eab57	1.2396039
72	0x3f3d6f7b	0.7399823
73	0x3f56b3ef	0.83868307
74	0x3f79fae5	0.9764846
75	0x3f2abf58	0.6669822
76	0x3f4eb3a1	0.8074284
77	0x3f537b27	0.8260979
78	0x3f8fb844	1.1228108
79	0x3f1b3e41	0.60641867
80	0x3f5a8c9e	0.85370815
81	0x3f38c635	0.7217744
82	0x3f8ad9d3	1.0847725
83	0x3f85a334	1.0440431
84	0x3f0fb5a4	0.56136537
85	0x3f63feef	0.8906087
86	0x3f2bbf51	0.670888
87	0x3f3846b4	0.71982884
88	0x3f709257	0.93973297
89	0x3f4cbe09	0.7997747
90	0x3f94e2ea	1.1631749
91	0x3f352b45	0.7076915
92	0x3f6675f6	0.90023744
93	0x3f4d32c8	0.8015561
94	0x3f228c7f	0.6349563
95	0x3f8421d4	1.0322824
96	0x3f4afa83	0.792885
97	0x3f4b06e1	0.7930737
98	0x3f497d14	0.7870648
99	0x3f6c88e7	0.92396396
100	0x3f8089ce	1.0042055
101	0x3f4986e4	0.7872145
102	0x3f44b8ba	0.7684437
103	0x3f4e589e	0.8060397
104	0x3f607657	0.8768057
105	0x3f3d4653	0.7393543
106	0x3f39d1c3	0.72585696
107	0x3f8ef895	1.1169611
108	0x3f8b6781	1.0890962
109	0x3f627d15	0.8847211
110	0x3f8e5108	1.1118479
111	0x3f3e8bcc	0.74432063
112	0x3f62cd69	0.8859468
113	0x3f6dcd06	0.92890966
114	0x3f30ac0d	0.6901253
115	0x3f4afe52	0.7929431
116	0x3f54575c	0.829458
117	0x3f8fd151	1.1235753
118	0x3f15c9d6	0.585111
119	0x3f261477	0.64874977
120	0x3f302f7c	0.68822455
121	0x3f821659	1.016307
122	0x3f93cec8	1.154748
123	0x3f21f6e7	0.6326737
124	0x3f696518	0.9116988
125	0x3f2c77d7	0.6737036
126	0x3f4aa17d	0.7915266
127	0x3f81fc39	1.0155097
128	0x3f230068	0.63672495
129	0x3f27ba3e	0.6551856
130	0x3f24ef16	0.64427316
131	0x3f795b80	0.9740524
132	0x3f6c212d	0.9223812
133	0x3f8d65b0	1.1046658
134	0x3fb2055f	1.3907889
135	0x3f7d0740	0.9883919
136	0x3f4d2eaa	0.8014933
137	0x3fa4a18d	1.2861801
138	0x3f5d37e4	0.8641341
139	0x3f321596	0.6956419
140	0x3f878cff	1.0589904
141	0x3f91f35c	1.1402392
142	0x3f23247b	0.6372754
143	0x3f9642f0	1.1739178
144	0x3f4d92bc	0.80302024
145	0x3f459208	0.7717595
146	0x3f761590	0.9612665
147	0x3f4e4fa4	0.8059027
148	0x3f24a28e	0.6431054
149	0x3f55ede2	0.83566105
150	0x3f171fc4	0.59032845
151	0x3f2a107b	0.664314
152	0x3f8dbfc9	1.1074153
153	0x3f31ec0b	0.695008
154	0x3fa3c690	1.2794971
155	0x3f23298a	0.6373526
156	0x3f934609	1.1505748
157	0x3f9ddb81	1.2332612
158	0x3f83d74a	1.0300076
159	0x3f9c0ab8	1.2190771
160	0x3f8cd5be	1.1002729
161	0x3f51be01	0.8193055
162	0x3f255d1c	0.645952
163	0x3f690b63	0.91033
164	0x3f89130e	1.070894
165	0x3f782b02	0.96940625
166	0x3f58c78f	0.846795
167	0x3f461d2c	0.7738826
168	0x3f87f107	1.0620431
169	0x3f791f90	0.97313786
170	0x3f19728b	0.59940404
171	0x3f90ce43	1.1312946
172	0x3f51d5cb	0.8196685
173	0x3f699684	0.91245294
174	0x3f294b5a	0.661306
175	0x3f5e8d22	0.869341
176	0x3f3235dc	0.6961343
177	0x3f7bbd98	0.9833617
178	0x3f71b9fc	0.94424415
179	0x3f72adb4	0.947963
180	0x3f7f3d84	0.9970324
181	0x3f879438	1.0592108
182	0x3f701580	0.93782806
183	0x3f30410d	0.6884926
184	0x3f477442	0.7791177
185	0x3f790db0	0.9728651
186	0x3f8a77e8	1.0817842
187	0x3f6b70a0	0.9196873
188	0x3f68a023	0.9086935
189	0x3f50aea4	0.8151648
190	0x3f9060ca	1.1279538
191	0x3f441fca	0.76611006
192	0x3f79d7e4	0.9759505
193	0x3f4e1d46	0.8051342
194	0x3f9c907e	1.2231596
195	0x3f943f76	1.1581867
196	0x3f79607a	0.97412837
197	0x3f7ceff2	0.9880363
198	0x3f4275fe	0.7596129
199	0x3f6d41bd	0.92678434
200	0x3f1e796f	0.6190404
201	0x3f3aa6f9	0.7291103
202	0x3f25be36	0.64743364
203	0x3f73de83	0.952614
204	0x3f5a3c50	0.8524828
205	0x3f20bf67	0.62792057
206	0x3f85ac5d	1.0443226
207	0x3f896455	1.0733744
208	0x3f4304dc	0.7617929
209	0x3f9eedbb	1.24163
210	0x3f203e54	0.62595105
211	0x3f6e04a2	0.9297582
212	0x3f702e25	0.9382041
213	0x3f611ea5	0.87937385
214	0x3f4be69f	0.79648775
215	0x3f87108a	1.0551922
216	0x3f3cb5f1	0.7371512
217	0x3f568b54	0.8380635
218	0x3fa4879f	1.2853888
219	0x3f408549	0.75203377
220	0x3f4459c6	0.76699483
221	0x3f66e984	0.90200067
222	0x3f3d2a2f	0.7389249
223	0x3f78864f	0.9707994
224	0x3f62ca78	0.8859019
225	0x3f533d47	0.82515377
226	0x3f948504	1.1603093
227	0x3f9cb23b	1.2241892
228	0x3f6a1c5a	0.9144951
229	0x3f8672f5	1.0503832
230	0x3f962b05	1.1731879
231	0x3f85f853	1.0466408
232	0x3f8f4f12	1.1196005
233	0x3f710879	0.94153553
234	0x3f1ffc28	0.62494135
235	0x3f8720a5	1.0556837
236	0x3f8ee593	1.116381
237	0x3f567889	0.8377767
238	0x3f688277	0.90824074
239	0x3f7ae8a5	0.9801124
240	0x3f53420b	0.8252265
241	0x3f9eb8d2	1.2400153
242	0x3f2772ab	0.65409344
243	0x3f6e7770	0.93151
244	0x3f7b2c85	0.98114806
245	0x3f692891	0.91077524
246	0x3f6155e5	0.8802169
247	0x3f48513a	0.7824894
248	0x3f810a77	1.0081319
249	0x3f905ece	1.1278932
250	0x3f2fb7ff	0.6864013
251	0x3f4f4279	0.80960804
252	0x3f1be301	0.60893255
253	0x3f5f4417	0.8721327
254	0x3f738811	0.95129496
255	0x3f95a774	1.1691728

FCNet.1.bias f4 [400]
0	0xbd4802d1	-0.04883081
1	0xbe38e047	-0.18054305
2	0xbe473d20	-0.19456911
3	0xbe8e702d	-0.27819958
4	0xbe10c3eb	-0.14137237
5	0xbe07e38b	-0.13270395
6	0xbe27fda9	-0.16405357
7	0xbe466fa2	-0.19378522
8	0xbe918150	-0.2841897
9	0xbd9ffcc9	-0.07811887
10	0xbe8f5f36	-0.28002328
11	0xbe6168e1	-0.22012664
12	0xbdfa7987	-0.12230211
13	0xbed75b64	-0.42061913
14	0xbe07ac06	-0.13249215
15	0xbb45feb5	-0.0030211632
16	0xbe136200	-0.14392853
17	0xbe363afc	-0.17795938
18	0xbe3ff025	-0.18743952
19	0xbd82155d	-0.06351731
20	0xbe60ac76	-0.21940789
21	0xbd7d5629	-0.061849747
22	0xbeaa2d17	-0.33237526
23	0xbd660a59	-0.056162212
24	0xbe56dc7f	-0.2098255
25	0xbd4ddefe	-0.05026149
26	0xbdf2192f	-0.1182121
27	0xbe83ccd6	-0.25742215
28	0xbebc7e53	-0.36815128
29	0xbd8c6640	-0.0685544
30	0xbd411f2b	-0.047148865
31	0xbec372d3	-0.3817354
32	0xbec74307	-0.38918325
33	0xbe284343	-0.16431908
34	0xba11ab1c	-0.00055568083
35	0xbeb4dd9e	-0.3532533
36	0xbe3375ce	-0.17525408
37	0xbe3b15a9	-0.18269981
38	0xbc4d3985	-0.012525921
39	0xbe180174	-0.14844304
40	0xbe1aceb7	-0.15117918
41	0xbea0517a	-0.31312162
42	0xbe5e7022	-0.21722463
43	0xbd7513b8	-0.05983326
44	0xbeb96937	-0.36213085
45	0xbeacfdd1	-0.33787397
46	0xbd43aeea	-0.047774233
47	0xbe9abbd4	-0.30221426
48	0xbe201467	-0.15632783
49	0xbd79e7a9	-0.061011944
50	0xbda7ea79	-0.08199019
51	0xbef5771f	-0.47942445
52	0xbe12d962	-0.14340737
53	0xbe789509	-0.24275602
54	0xbe4a3ae7	-0.19749032
55	0xbdf4d709	-0.11955077
56	0xbd02e74b	-0.03195886
57	0xbdd7c853	-0.10536256
58	0xbe1c82c3	-0.15284257
59	0xbd966441	-0.07343341
60	0xbed54cd3	-0.41660175
61	0xbe616502	-0.22011188
62	0xbdee58ae	-0.11638008
63	0xbe9287cf	-0.2861924
64	0xbe82b22f	-0.25526568
65	0xbe42c26a	-0.19019476
66	0xbd84ee11	-0.0649072
67	0xbd8f48ac	-0.06996283
68	0xbef954af	-0.4869742
69	0xbe73c801	-0.23806764
70	0xbe2b9519	-0.16756095
71	0xb88a4c66	-6.594583e-05
72	0xbe2a054b	-0.16603582
73	0xbe7e9752	-0.24862412
74	0xbda77646	-0.08176856
75	0xbeb3b813	-0.35101375
76	0xbe9658c8	-0.2936461
77	0xbe32838b	-0.17432992
78	0x3b36c109	0.0027886054
79	0xbef1ad73	-0.47202644
80	0xbe4e1e25	-0.20128687
81	0xbe8ae3e9	-0.27127007
82	0xbaba8518	-0.0014230339
83	0x3a2596f9	0.0006316747
84	0xbecd2ab6	-0.40071648
85	0xbe022213	-0.12708311
86	0xbed0a4cf	-0.4075074
87	0xbeaf21cd	-0.34205475
88	0xbe3449dd	-0.17606302
89	0xbe7225f5	-0.23647292
90	0xbc99902a	-0.0187455
91	0xbe913f54	-0.28368628
92	0xbe36006a	-0.17773595
93	0xbe9fd904	-0.31220257
94	0xbed5cf1e	-0.4175958
95	0xbd9c0865	-0.07618789
96	0xbe985b0f	-0.29756972
97	0xbe7a6848	-0.24453843
98	0xbe558f53	-0.20855455
99	0xbe593482	-0.21211436
100	0xbbf85898	-0.0075789206
101	0xbe7f86c7	-0.24953757
102	0xbeb1e297	-0.34743187
103	0xbe8a1da7	-0.26975748
104	0xbe4412c1	-0.19147779
105	0xbea27328	-0.31728482
106	0xbe9ee3a0	-0.3103304
107	0x3a9fab22	0.0012181739
108	0x3c85cddb	0.016333511
109	0xbe81f6d9	-0.25383642
110	0xbd1d12c8	-0.03834799
111	0xbe7ea564	-0.24867779
112	0xbe613fec	-0.2199704
113	0xbdc2b0d4	-0.095063835
114	0xbec444c9	-0.3833373
115	0xbe4c45ec	-0.19948548
116	0xbe81bc84	-0.25339139
117	0xbdfdec8d	-0.12398634
118	0xbec46da2	-0.38364893
119	0xbeb3fc87	-0.351536
120	0xbe9d5f46	-0.3073675
121	0xbccfab19	-0.02535014
122	0xbd767168	-0.060166746
123	0xbeb3b1fd	-0.35096732
124	0xbe4d6471	-0.20057847
125	0xbec0c38c	-0.3764919
126	0xbe83cd3b	-0.25742516
127	0xbe017f75	-0.12646277
128	0xbeb681b1	-0.35645822
129	0xbed7e565	-0.42167202
130	0xbeb24bf9	-0.34823588
131	0xbd9a61a9	-0.075381584
132	0xbd9f2b8b	-0.07771977
133	0xbc232dc2	-0.00995964
134	0x387581d1	5.8533453e-05
135	0xbdf14479	-0.11780638
136	0xbe86f793	-0.2636076
137	0x3bed63dc	0.00724457
138	0xbe446183	-0.19177823
139	0xbea09404	-0.31362927
140	0xbcbdb64a	-0.023158211
141	0xbd57bfdb	-0.052673202
142	0xbeb176d9	-0.34660986
143	0xbcab057d	-0.02087664
144	0xbe929329	-0.286279
145	0xbe1a8b4b	-0.15092199
146	0xbdeea593	-0.116526745
147	0xbe7342ca	-0.23755947
148	0xbeaf19eb	-0.3419946
149	0xbe879893	-0.26483592
150	0xbec819f9	-0.39082316
151	0xbeb4fd59	-0.3534954
152	0xbd170033	-0.036865424
153	0xbeb6b076	-0.35681504
154	0x3af2f394	0.0018535727
155	0xbebdec09	-0.37094143
156	0xbd294475	-0.04132505
157	0x39f8b9c8	0.00047440664
158	0xbdcefaf1	-0.10106457
159	0xba8450c3	-0.001009487
160	0xbe31a305	-0.17347343
161	0xbe954df0	-0.29161024
162	0xbee3b4c4	-0.4447385
163	0xbdf76bb5	-0.1208109
164	0xbe27d1e4	-0.1638866
165	0xbe5ebd5e	-0.21751925
166	0xbe2d7a6e	-0.16941234
167	0xbe506b14	-0.20353347
168	0xbdc519a8	-0.09624034
169	0xbe000cc6	-0.12504873
170	0xbebd4453	-0.3696619
171	0x3c452ecc	0.012035083
172	0xbe8dca1c	-0.2769326
173	0xbe3f6b3a	-0.18693247
174	0xbead901c	-0.3389901
175	0xbe56d190	-0.20978379
176	0xbeb4e4df	-0.35330865
177	0xbc71abb7	-0.014750413
178	0xbdc2f058	-0.09518498
179	0xbdf082e6	-0.11743717
180	0xbda21fd0	-0.07916224
181	0xbdbd387f	-0.092392914
182	0xbdffc966	-0.124895856
183	0xbeac0974	-0.33600962
184	0xbe9841bb	-0.29737648
185	0xbe62331e	-0.22089812
186	0xbe3895a7	-0.18025838
187	0xbdc5949b	-0.09647485
188	0xbdd499b8	-0.10380882
189	0xbe6f0d6a	-0.23344961
190	0xbe0a1637	-0.13485037
191	0xbe8a9422	-0.2706614
192	0xbe500f9c	-0.20318455
193	0xbe5bd690	-0.21468568
194	0xbd6ce117	-0.05783185
195	0xbaf6ce89	-0.0018829863
196	0xbe294167	-0.16528855
197	0xbe29476e	-0.16531155
198	0xbea465d2	-0.32108933
199	0xbdae1c55	-0.08501498
200	0xbec7c3aa	-0.39016467
201	0xbe80b330	-0.2513671
202	0xbebc0ae5	-0.36727062
203	0xbd730d3b	-0.05933879
204	0xbe596325	-0.21229227
205	0xbec268f9	-0.37970713
206	0xbde71d80	-0.112849236
207	0xbdd37cd0	-0.103265405
208	0xbea65509	-0.32486752
209	0xbb0460fb	-0.0020199406
210	0xbeb70172	-0.3574329
211	0xbd325b63	-0.043544184
212	0xbe0551ef	-0.13019536
213	0xbdc5719c	-0.0964081
214	0xbea5ee08	-0.32408166
215	0xbe0438f8	-0.12912357
216	0xbebd95b1	-0.37028268
217	0xbe3ad160	-0.18243933
218	0xbcc87fa3	-0.024474924
219	0xbe8cc46b	-0.27493605
220	0xbe823988	-0.25434518
221	0xbe37c66b	-0.17946784
222	0xbe922276	-0.28541917
223	0xbd617932	-0.05504722
224	0xbe22c938	-0.15897071
225	0xbe685c33	-0.22691421
226	0xbe03ba47	-0.12864028
227	0xbe0f2fda	-0.13983098
228	0xbd9fc19c	-0.078006
229	0xbdd3039f	-0.10303425
230	0xbd198b02	-0.037486084
231	0xbde328d7	-0.11091774
232	0xbd648467	-0.05579033
233	0xbe04efb9	-0.12982072
234	0xbec8f337	-0.39248058
235	0xbc962dda	-0.01833241
236	0xbe34746a	-0.17622533
237	0xbe59c822	-0.21267751
238	0xbdfb9d56	-0.12285869
239	0xbe33954e	-0.17537424
240	0xbe129029	-0.14312805
241	0x3c9398f8	0.018017277
242	0xbeb2bb91	-0.34908727
243	0xbe372e7d	-0.17888828
244	0xbd85b658	-0.0652892
245	0xbe5f8375	-0.2182749
246	0xbe62e80a	-0.22158828
247	0xbe854cad	-0.2603506
248	0xbde7b6b6	-0.11314146
249	0xbdf55684	-0.11979392
250	0xbea5a481	-0.3235207
251	0xbe62c26d	-0.2214448
252	0xbec7b707	-0.39006826
253	0xbe4ca959	-0.19986476
254	0xbce81749	-0.028331416
255	0xbd61bc22	-0.055111058

FCNet.3.weight f4 [300, 400]
0	0x3c9707ed	0.018436396
1	0x3dcb3e80	0.0992403
2	0xbd7afb9d	-0.061275113
3	0x3d81928e	0.06326781
4	0x3d07ffed	0.033203054
5	0xbdc2f478	-0.09519285
6	0x3abb87ef	0.0014307479
7	0xbc47506d	-0.012165171
8	0x3b741858	0.0037245955
9	0x3d9c9dbd	0.07647274
10	0x3dd177ed	0.10227952
11	0xbdac54c9	-0.08414609
12	0x3d9a9e22	0.07549693
13	0xbc3997d9	-0.011327707
14	0xbc97a32c	-0.018510424
15	0xbe18a877	-0.14908014
16	0x3d7d2d72	0.06181092
17	0x3d328882	0.043587215
18	0xbcb70462	-0.022340957
19	0x3d44d275	0.04805227
20	0xbd4a0413	-0.04932029
21	0x3dc00e00	0.0937767
22	0x3cf8cc36	0.030370813
23	0x3d1877a2	0.037223466
24	0x3da82419	0.0821001
25	0xbdbb24cc	-0.09137878
26	0x3bf1fa03	0.00738454
27	0x3dd090f2	0.10183896
28	0xbb5377c2	-0.0032267426
29	0x3c8e1294	0.017342843
30	0x3d738346	0.059451364
31	0xbcc39cc9	-0.023878472
32	0xbd04f341	-0.032458548
33	0x3cbbb916	0.022915404
34	0x3df44bab	0.11928495
35	0x3c213672	0.009839641
36	0x3d63d1ac	0.05561988
37	0x3d73267d	0.059362877
38	0x3cda646a	0.02665921
39	0x3d2c4b28	0.042063862
40	0x3c69a7f6	0.014261236
41	0x3dee1748	0.11625534
42	0x3d649136	0.055802546
43	0x3d1cf2d6	0.038317524
44	0x3c62ba3e	0.013838349
45	0x3c08e81d	0.008356121
46	0x3dc2918a	0.095004156
47	0x3c837fa8	0.016052082
48	0x3d26375f	0.04058015
49	0xbd1b6c34	-0.037944987
50	0x3db489a9	0.08815319
51	0x3c3a4bd4	0.011370618
52	0x3d26faf1	0.04076666
53	0x3dd3317c	0.10312173
54	0x3d52da95	0.051477987
55	0xbcc09a89	-0.023511188
56	0xbdc5a3ee	-0.09650408
57	0x3d97ed6c	0.074183315
58	0x3cfe9df4	0.031081177
59	0xbdb1371a	-0.08653088
60	0x3d97cdcc	0.074122995
61	0xbd96c4ec	-0.073617786
62	0x3c831008	0.015998855
63	0xbc98623e	-0.018601533
64	0xbd8ae46b	-0.067818485
65	0x3d7963f9	0.060886357
66	0xbde32158	-0.11090344
67	0x3dae63cd	0.08515129
68	0xbc115fb0	-0.008872911
69	0x3da585d3	0.080821656
70	0x3d87c80b	0.06629952
71	0x3e136b28	0.14396346
72	0x3d03fbc4	0.032222524
73	0x3d2ffe09	0.042966876
74	0x3d102245	0.035188932
75	0x3dbc2c2b	0.09188112
76	0x3de0f101	0.10983468
77	0x3d7085dd	0.058721412
78	0x3d619879	0.05507705
79	0xbc1ea502	-0.009682896
80	0x3c2ee977	0.01067578
81	0x3d408445	0.047001142
82	0x3dd3697f	0.10322856
83	0xbd98a6b9	-0.07453675
84	0x3d046c04	0.032329574
85	0x3d5841fa	0.052797295
86	0xbcff7a06	-0.031186115
87	0x3c32208a	0.010872016
88	0x3d9ae577	0.07563298
89	0x3d843b73	0.064566515
90	0x3d689fd9	0.056793068
91	0xbcabd0eb	-0.020973643
92	0x3d0efbbd	0.034908045
93	0x3df17848	0.1179052
94	0xbbf9d8aa	-0.0076247053
95	0x3d8d4947	0.06898742
96	0xbd00843c	-0.03137611
97	0x3d6b4a85	0.057444114
98	0x3d71cf8a	0.059035815
99	0x3df1d573	0.1180829
100	0x3d581319	0.052752588
101	0x3d94b446	0.07260947
102	0xbd2059c9	-0.039148126
103	0xbd25f319	-0.04051504
104	0x3d86875d	0.06568787
105	0xbcc56f2c	-0.024100862
106	0x3c956d1f	0.01824051
107	0x3e01cd79	0.12676038
108	0x3dcbd582	0.09952833
109	0x3de91e4e	0.11382733
110	0x3d68f58d	0.0568748
111	0x3d4cc786	0.049994968
112	0x3c42d6da	0.011892045
113	0x3d0b8245	0.03405978
114	0x3ce96a0d	0.028492952
115	0x3d44e850	0.048073113
116	0x3da19b55	0.07890955
117	0x3d268d27	0.040661957
118	0x3d5bca4e	0.05365973
119	0x3d3249e4	0.0435275
120	0xbcc9f411	-0.024652513
121	0xbdc13614	-0.09434143
122	0x3dde8856	0.10865848
123	0x3d564bae	0.052318268
124	0x3cb7d676	0.02244113
125	0xbc0470bd	-0.0080835195
126	0x3d909bd6	0.07060973
127	0x3c286f5c	0.010280456
128	0x3cb35f02	0.02189589
129	0xbdabd899	-0.08390922
130	0x3c7c27ed	0.015390378
131	0xbc01ee84	-0.007930402
132	0x3d078193	0.033082556
133	0x3de9a81b	0.11409017
134	0xbe250af6	-0.16117463
135	0x3c7aea11	0.015314595
136	0xbc9b8c77	-0.018987877
137	0xbdfbf209	-0.12302024
138	0xbc8faa1d	-0.017537171
139	0x3c1d2e59	0.00959357
140	0x3df98701	0.12183953
141	0x3da46324	0.08026722
142	0xbba59b02	-0.0050538788
143	0x3d2f83cb	0.042850297
144	0xbd1bbbc2	-0.038020857
145	0x3d8bb176	0.06820957
146	0x3bef6232	0.007305407
147	0x3d80f816	0.06297319
148	0x3d7ce70c	0.06174378
149	0x3dcb0112	0.099123135
150	0x3d1e600c	0.038665816
151	0x3d468c25	0.048473496
152	0x3d6606af	0.056158718
153	0x3d57dbdd	0.052699912
154	0xbd866cc0	-0.06563711
155	0x3d8e344f	0.06943571
156	0x3d935bb7	0.071952276
157	0xbdc2afd7	-0.09506195
158	0xbc7c9933	-0.015417385
159	0x3ca4ea2b	0.020131191
160	0x3e2eaba9	0.1705767
161	0x3dbe4305	0.09290127
162	0xbd9281af	-0.071536414
163	0x3d09e2d9	0.033663604
164	0xbd753b1e	-0.05987083
165	0xbd9f18a5	-0.077683724
166	0x3d90c694	0.07069126
167	0x3ceec1fe	0.029145237
168	0xbcd63965	-0.026150415
169	0x3c41e5eb	0.011834602
170	0x3e015120	0.12628603
171	0xbe2436eb	-0.16036575
172	0xbd0e9a44	-0.034815088
173	0x3b8747a8	0.004128415
174	0x3e2b5bea	0.16734281
175	0x3cfa8b1d	0.030583913
176	0xbc4977bf	-0.012296616
177	0x3d9463f5	0.07245628
178	0x3c780c71	0.015139685
179	0x3c3b6fd4	0.011440236
180	0xbd0c1dfa	-0.034208275
181	0xbd10567e	-0.035238735
182	0x3d7bb9bb	0.061456423
183	0xbbf15d0d	-0.007365829
184	0xbcdff5c9	-0.02733888
185	0xbd9a646a	-0.07538684
186	0x3e665611	0.22493769
187	0x3d12e1d0	0.035859883
188	0x3d03f541	0.032216314
189	0x3d3f8260	0.046755195
190	0x3df30a72	0.11867227
191	0x3da0e1ab	0.07855543
192	0xbd87d17c	-0.06631753
193	0x3b786d68	0.0037907008
194	0x3dda58d7	0.10661476
195	0x3d6dd026	0.058059834
196	0x3d198f27	0.037490036
197	0x3e007313	0.12543897
198	0x3d1eb6d0	0.038748562
199	0x3d1dddbe	0.038541548
200	0x3cc6c877	0.024265511
201	0x3db270bb	0.08712908
202	0x3c3b4e87	0.011432297
203	0x3d218c9d	0.03944074
204	0xbb86ca0b	-0.004113441
205	0x3dedb0dc	0.11605999
206	0x3e175f5d	0.14782472
207	0xbb5bc19f	-0.0033532155
208	0xbb1e64b1	-0.0024168903
209	0x3df80f9f	0.121123545
210	0x3cc7e259	0.024399923
211	0x3d2bc6c8	0.04193762
212	0x3bef3431	0.007299923
213	0x3d4e4be0	0.05036533
214	0x3e0675b2	0.13130835
215	0xbd2094a4	-0.039204255
216	0xbd5bd808	-0.05367282
217	0x3d2cd9e9	0.042200003
218	0x3e9f8667	0.31157228
219	0x3c14e8b8	0.009088688
220	0xbd5d8e77	-0.054090943
221	0x3d2376c1	0.039908174
222	0x3dd2080d	0.10255442
223	0x3d1ffb5f	0.039058086
224	0x3bcb708f	0.0062084864
225	0xbc3699c2	-0.011145057
226	0x3ca65258	0.020302936
227	0x3daffe10	0.085933805
228	0x3d5131ce	0.051072888
229	0xbc948548	-0.01812996
230	0x3e2b67d9	0.16738833
231	0xbca9ee7c	-0.020743601
232	0xbd865a50	-0.065601945
233	0x3c4cfc16	0.012511274
234	0xbb74e12d	-0.003736566
235	0xbdc3ec4b	-0.09566554
236	0x3e11b011	0.1422732
237	0x3da203a9	0.07910854
238	0x3d5eed54	0.054425552
239	0x3ce968ab	0.028492292
240	0xbbc1c2d5	-0.0059131184
241	0xbcd04f30	-0.025428385
242	0x3c987406	0.018610012
243	0x3d48603b	0.048919898
244	0x3d26b30c	0.040698096
245	0x3daab13d	0.08334587
246	0x3d0e33ca	0.03471736
247	0x3e22f2c1	0.15912916
248	0x3d8973bb	0.06711527
249	0x3d66b1e4	0.056321993
250	0xbcb43a53	-0.022000467
251	0x3d564308	0.05231002
252	0x3c9e2fc5	0.019309888
253	0x3cf4504c	0.029823445
254	0x3cc9364f	0.02456203
255	0xbe05650d	-0.13026829

FCNet.3.bias f4 [300]
0	0x3c2724ad	0.010201615
1	0x3d287282	0.04112483
2	0x3c995f47	0.01872219
3	0x3d36f5b1	0.044667903
4	0x3d22da7e	0.03975915
5	0x3bace08a	0.0052757906
6	0x3d00e746	0.03147056
7	0x3d042e7e	0.0322709
8	0x3d58e06d	0.052948404
9	0x3d41ac2d	0.04728334
10	0x3cc10390	0.023561269
11	0x3d19a5f2	0.037511773
12	0x3cd8f57a	0.02648424
13	0x3cc52991	0.024067672
14	0x3d06c9bb	0.03290723
15	0x3d2a06bd	0.041510332
16	0x3d3a1c00	0.04543686
17	0x3cda9720	0.02668339
18	0x3ccee9ea	0.025258023
19	0xbbb57c2e	-0.005538485
20	0x3c7f919d	0.015598682
21	0x3cefdcb0	0.029280037
22	0xbb5bc3d0	-0.0033533461
23	0x3bc27206	0.005934003
24	0x3d62144f	0.05519515
25	0x3c143b78	0.009047382
26	0x3d440039	0.047851775
27	0x3c90bc9a	0.017668057
28	0x3c505138	0.012714677
29	0x3ca3ad02	0.019979957
30	0x3d08776a	0.033317007
31	0x3d10e1a8	0.035371453
32	0x3cd3a72b	0.025836548
33	0xbbd61acc	-0.006533956
34	0x3ca7b0ba	0.020470012
35	0x3d2b91bd	0.041887034
36	0x3d2f67a9	0.042823467
37	0x3c94b3d3	0.018152153
38	0x3db88adc	0.0901086
39	0x3d16c275	0.036806542
40	0x3cd28b57	0.025701208
41	0x3c59993d	0.013281164
42	0x3d1467b9	0.03623173
43	0x3d63c20a	0.055604972
44	0x3cfc5b0d	0.030805135
45	0xbc6aa715	-0.014322062
46	0x3ce96477	0.028490288
47	0x3d1f9cb2	0.038967796
48	0x3b258d08	0.0025261063
49	0x3d5a2919	0.05326185
50	0x3ce93ad1	0.028470429
51	0xbc20b0e8	-0.009807803
52	0x3c7091e0	0.014683217
53	0x3ced375f	0.028957067
54	0x3d023afe	0.03179454
55	0x3d2e5f58	0.042571396
56	0x3d514f53	0.05110104
57	0x3d15a5df	0.03653514
58	0x3d874e7c	0.066067666
59	0x3aa200bc	0.0012359838
60	0x3d0d4bf6	0.03449627
61	0x3d5748d6	0.052559696
62	0x3d0ada34	0.0338995
63	0x3c5b4671	0.013383494
64	0xbbc07f60	-0.0058745593
65	0x3c2d6156	0.010582289
66	0x3d43965d	0.04775082
67	0x3d350137	0.04419061
68	0x3d28027f	0.041018005
69	0x3d535b0a	0.051600493
70	0x38ba59e5	8.885915e-05
71	0x3cbf16bb	0.023326268
72	0xbc42fdb8	-0.011901312
73	0x3cfb1b45	0.030652652
74	0x3c8d8d15	0.017279187
75	0x3bf12ad2	0.007359841
76	0xbc437723	-0.01193026
77	0x3d2939da	0.041314937
78	0x3ba03c83	0.004890026
79	0x3d3f7ac1	0.046747927
80	0x3d3d8264	0.04626693
81	0x3d383455	0.044971783
82	0x3b820ff5	0.0039691874
83	0x3d0328c9	0.032021318
84	0x3d091881	0.033470634
85	0x3c3d870d	0.011567843
86	0x3d3fec89	0.046856437
87	0x3d12223b	0.035677176
88	0x3d2d2c63	0.04227866
89	0x3cf76441	0.030199172
90	0x3c96c364	0.018403716
91	0xbbce845a	-0.0063023986
92	0x3d286915	0.04111584
93	0x3d00c543	0.031438123
94	0x3c47653a	0.01217013
95	0x3c9b754b	0.018976828
96	0x3c4b7780	0.012418628
97	0x3c788ff8	0.015171044
98	0x3d0c8b4b	0.034312528
99	0xbacd4d57	-0.0015663308
100	0x3d169076	0.036758862
101	0x3d3d4a90	0.046213686
102	0x3cdc3157	0.026878996
103	0x3c4f2c53	0.012644845
104	0x3d44bd73	0.048032235
105	0xbbacdf64	-0.0052756537
106	0xbbb0480d	-0.005379683
107	0x3ca2a847	0.019855632
108	0xbb80df22	-0.0039328495
109	0x3c92ba18	0.017911002
110	0x3cca02ae	0.02465948
111	0x3cdec144	0.027191766
112	0x3a18a23d	0.0005822515
113	0x3d0b6ed9	0.03404126
114	0x3cdda7a4	0.027057476
115	0x3da7cfb1	0.08193911
116	0xbc832f66	-0.016013812
117	0x3d26655c	0.040624008
118	0x3c4254e1	0.011861057
119	0x3cdbfaa5	0.026852915
120	0x3c958daf	0.018256037
121	0x3c812ca8	0.015768364
122	0x3b407eea	0.0029372522
123	0x3b4c9d30	0.003122162
124	0x3cf34891	0.029697688
125	0x3d356049	0.044281278
126	0x3c0bdbc0	0.008536279
127	0x3d14d45c	0.036335334
128	0x3cbfa7f3	0.023395514
129	0x3d38c2b7	0.04510757
130	0x3d314703	0.043280613
131	0x3cfdc4f0	0.030977696
132	0x3d79f000	0.061019897
133	0x3d4d6c0b	0.050151866
134	0x3ce8e6bd	0.028430337
135	0xbbc17b4d	-0.005904591
136	0x3d478749	0.048713002
137	0x3cb20013	0.021728551
138	0x3d04a90c	0.03238778
139	0x3c050425	0.008118664
140	0x3c7b3580	0.01533258
141	0x3c954a6c	0.018223964
142	0x3b63d275	0.0034762893
143	0x3d244b32	0.040110774
144	0xbb9db168	-0.0048124082
145	0x3d490c33	0.0490839
146	0x3c9cc8de	0.01913875
147	0x3d3b5162	0.04573191
148	0x3cc33366	0.02382822
149	0x3d0e3d94	0.034726694
150	0x3c949276	0.018136244
151	0x3cba3909	0.022732275
152	0x3ce5a60e	0.028033283
153	0x3cf842ff	0.030305384
154	0x3d884e6e	0.06655584
155	0x3d0cb794	0.03435476
156	0x3bd4ce40	0.0064943135
157	0x3c782e0d	0.015147698
158	0xbca31f89	-0.019912498
159	0x3d18cf6c	0.037307188
160	0x3da629b8	0.08113426
161	0x3d9cdda1	0.0765946
162	0x3d17257d	0.036900986
163	0xb91edcab	-0.0001515026
164	0x3cccc75d	0.024997408
165	0x3c0be706	0.008538967
166	0x3cff1425	0.031137535
167	0x3c2f6184	0.010704402
168	0x3d054e17	0.032545175
169	0x3d66d84b	0.056358617
170	0x3d1e026f	0.03857654
171	0x3c2e863e	0.010652123
172	0x3d949469	0.072548695
173	0x3cef9d17	0.029249711
174	0x3d1e074e	0.038581185
175	0x3bd5eef5	0.00652873
176	0x3d1a39b7	0.037652697
177	0x3d04d8be	0.032433264
178	0x3be73a8c	0.00705654
179	0x3d08e712	0.03342349
180	0x3ce46119	0.027878331
181	0x3d41f4b8	0.047352523
182	0x3d0eb885	0.03484394
183	0x3acade85	0.0015477693
184	0xbc35e8e7	-0.0111028915
185	0x3d34bba3	0.044124257
186	0x3d064a7b	0.032785874
187	0x3d4d9968	0.050195128
188	0x3d186b52	0.037211724
189	0xbb895acd	-0.0041917325
190	0x3cda7984	0.026669271
191	0x3bd5ed40	0.0065285265
192	0x3c0eab7d	0.008707878
193	0x3d4b66a2	0.049658425
194	0x3cd3cafd	0.025853628
195	0xbc3172aa	-0.010830561
196	0x3a819ebd	0.0009889227
197	0x3c9c0532	0.019045446
198	0x3d13f39e	0.036121003
199	0x3c9a7b4e	0.018857624
200	0x3c3f5770	0.011678562
201	0x3c8c4b47	0.017125739
202	0x3d3cda6c	0.04610674
203	0x3d1d1199	0.03834686
204	0x3bc4de31	0.0060079326
205	0x3d05e99e	0.032693498
206	0x3c5a3603	0.013318541
207	0x3cfb02e2	0.030641023
208	0x3ce09aa8	0.027417496
209	0xba2bf2b9	-0.0006559301
210	0x3d24dffa	0.040252663
211	0x3d16f1da	0.03685174
212	0x3cd42a29	0.02589901
213	0x3d68bbb4	0.056819633
214	0xbbf51de6	-0.007480371
215	0x3d46989c	0.048485383
216	0x3d0d4f22	0.034499295
217	0x3d0679f0	0.032831132
218	0x3d5abc6d	0.053402353
219	0x3c7e6ca5	0.015528833
220	0x3d7c1ea6	0.061552666
221	0x3d233547	0.03984573
222	0x3b906f5b	0.004407806
223	0x3d15c89f	0.03656828
224	0x3c582f1b	0.013194825
225	0x3d206674	0.039160207
226	0x3d2715d2	0.040792294
227	0xbced3b0a	-0.028958816
228	0x3d57c8ba	0.052681662
229	0x3c01cd25	0.007922445
230	0x3b1fc37e	0.0024377997
231	0xbb038dc3	-0.002007351
232	0x3d473d11	0.04864222
233	0x3c806c44	0.015676625
234	0x3cc7014f	0.024292616
235	0x3d33a610	0.04385954
236	0x3d4a27dd	0.049354423
237	0x3d36e0ac	0.044647858
238	0x3cea5a98	0.028607652
239	0x3b8a8026	0.0042267023
240	0x3d27108e	0.040787272
241	0x3c33494f	0.010942771
242	0x3a51111b	0.0007975266
243	0x3bbfe9fc	0.0058567505
244	0x3d0fbaa9	0.035090122
245	0x3c665c5c	0.014060106
246	0x3b8fee31	0.0043924083
247	0x3d2d4f5b	0.042312007
248	0x3c3b8743	0.011445823
249	0x3c047b75	0.008086075
250	0x3d221fee	0.03958123
251	0x3c8c6246	0.017136704
252	0xbc618f6e	-0.013767106
253	0x3c925fdd	0.017867977
254	0x3d30d348	0.043170244
255	0x3d0dfafd	0.03466319

FCNet.4.weight f4 [300]
0	0x3f9a0714	1.203341
1	0x3e9c469b	0.30522618
2	0x3fc8e58a	1.569505
3	0x3f24879d	0.6426943
4	0x3f2f3c9b	0.6845185
5	0x3fe2a87b	1.7707666
6	0x3f2e72d1	0.68143946
7	0x3f35d82d	0.71032983
8	0x3f59da04	0.8509829
9	0x3f317ca8	0.69330835
10	0x3fa6519a	1.2993653
11	0x3f660d90	0.89864445
12	0x3f8b62a1	1.0889474
13	0x3f792e4c	0.9733627
14	0x3faa91ff	1.3325804
15	0x3f73100e	0.9494637
16	0x3ebd3ca5	0.3696033
17	0x3f5a8fa0	0.85375404
18	0x3f7122ef	0.9419393
19	0x3f8757b7	1.0573643
20	0x3f8fa548	1.1222315
21	0x3ebe303c	0.37146175
22	0x3f9d7c9f	1.2303656
23	0x3f8d9159	1.1059982
24	0x3f191c91	0.59809214
25	0x3f96ed37	1.1791142
26	0x3f503337	0.8132815
27	0x3fb0b925	1.3806502
28	0x3f84d880	1.037857
29	0x3f91f9c9	1.1404353
30	0x3ece547a	0.40298826
31	0x3f197dc4	0.5995753
32	0x3f91d28b	1.1392378
33	0x3f92268b	1.1418012
34	0x3f908dc6	1.1293266
35	0x3ec78b25	0.38973346
36	0x3fac393a	1.3454964
37	0x3facf52d	1.3512322
38	0x3ebab1d5	0.364638
39	0x3f693f61	0.91112334
40	0x3ef25d66	0.47336882
41	0x3fab5c55	1.3387552
42	0x3f55f0f6	0.835708
43	0x3ec9d0ed	0.3941721
44	0x3f739141	0.95143515
45	0x3fc275e0	1.5192223
46	0x3f6cd6be	0.9251517
47	0x3f2f3aa1	0.68448836
48	0x3f83ede6	1.0306976
49	0x3f773f95	0.96581393
50	0x3f29efc2	0.66381466
51	0x3f9605c2	1.1720507
52	0x3fb0d4f2	1.3814986
53	0x3fa9ea29	1.3274585
54	0x3f32ebdc	0.6989114
55	0x3f4233cb	0.7586028
56	0x3f1b7f44	0.60741067
57	0x3f5d8439	0.8652988
58	0x3f18f16c	0.5974338
59	0x3fa51546	1.2897117
60	0x3ee0fc84	0.43942654
61	0x3ebf6358	0.3738048
62	0x3ed01c25	0.40646473
63	0x3f9f8fb1	1.2465726
64	0x3f9855e9	1.1901218
65	0x3fa8fe19	1.3202544
66	0x3f7c1def	0.98483175
67	0x3f83d791	1.0300161
68	0x3f1ea3a0	0.6196842
69	0x3fc5974c	1.5436797
70	0x3f950e95	1.1645075
71	0x3f54d618	0.8313918
72	0x3f9f7f32	1.2460692
73	0x3f553b95	0.8329404
74	0x3fad9f3a	1.3564217
75	0x3f49b189	0.7878652
76	0x3f7d3726	0.98912275
77	0x3f17b558	0.59261084
78	0x3f99105b	1.1958116
79	0x3ed24518	0.4106834
80	0x3f40cb7f	0.7531051
81	0x3f883525	1.0641218
82	0x3fa54bdb	1.2913774
83	0x3eb130b8	0.34607482
84	0x3ea790fb	0.327278
85	0x3f99ebf0	1.2025127
86	0x3f1b0a19	0.6056228
87	0x3f2e4d9d	0.6808718
88	0x3f4e8b96	0.8068174
89	0x3f7f7db5	0.9980119
90	0x3fa0ca07	1.2561654
91	0x3f8d1e49	1.1024867
92	0x3ea2dc79	0.31808832
93	0x3f372397	0.7153868
94	0x3facc846	1.3498619
95	0x3f962b9b	1.1732057
96	0x3fb89fd1	1.4423772
97	0x3f5a5ad1	0.85294825
98	0x3ea7f963	0.32807454
99	0x3f934cb0	1.1507778
100	0x3e92d819	0.28680494
101	0x3ed3415a	0.41260797
102	0x3f50e678	0.8160167
103	0x3fa2709b	1.2690614
104	0x3f34723f	0.70486826
105	0x3f91c524	1.1388288
106	0x3f87e4d0	1.0616703
107	0x3fab76a2	1.3395579
108	0x3fb09a10	1.3797016
109	0x3fa84d00	1.3148499
110	0x3f17c37a	0.5928265
111	0x3fa6cc1b	1.3031038
112	0x3fb052a6	1.3775222
113	0x3f298f00	0.66233826
114	0x3f1f5488	0.6223836
115	0x3ec6f89f	0.38861558
116	0x3f8c57ae	1.0964258
117	0x3ef69966	0.4816391
118	0x3f94ab47	1.161477
119	0x3f79fda5	0.97652656
120	0x3f8887cc	1.0666442
121	0x3f766e6f	0.9626226
122	0x3fd585da	1.6681473
123	0x3fa741d2	1.3066962
124	0x3fb8c61c	1.4435458
125	0x3f95515a	1.1665452
126	0x3f844ebd	1.0336529
127	0x3fa7aaa6	1.3098953
128	0x3f5d8620	0.86532784
129	0x3f790bbf	0.9728355
130	0x3fb8d64e	1.4440401
131	0x3fa1eac4	1.264977
132	0x3f1c2032	0.60986626
133	0x3f53c210	0.8271799
134	0x3f9f41d8	1.2441969
135	0x3f924157	1.142619
136	0x3f3f9565	0.7483733
137	0x3f4ed511	0.80793864
138	0x3e94e9b6	0.29084557
139	0x3fe7723d	1.8081738
140	0x3fa4c649	1.2873012
141	0x3fa7e426	1.31165
142	0x3fa0ea18	1.257144
143	0x3f8c6482	1.0968173
144	0x3fb4d0ec	1.4126258
145	0x3f321369	0.6956087
146	0x3f851586	1.0397193
147	0x3f25dc03	0.64788836
148	0x3f93c4ff	1.1544493
149	0x3ecb4ade	0.39705557
150	0x3f2b6d6c	0.6696384
151	0x3f99202e	1.1962945
152	0x3edb8d3d	0.42881194
153	0x3f9b23b9	1.2120277
154	0x3f99d730	1.2018795
155	0x3e96aae5	0.29427257
156	0x3fa223d4	1.2667184
157	0x3f3c3fdd	0.7353495
158	0x3fbc1f01	1.4696962
159	0x3f6c2807	0.92248577
160	0x3eb94665	0.3618652
161	0x3ebe1a93	0.3712965
162	0x3f6f72bd	0.9353445
163	0x3fb2784c	1.3942962
164	0x3f8234e3	1.017239
165	0x3f872cff	1.0560607
166	0x3fa89c8e	1.3172777
167	0x3f9056be	1.1276472
168	0x3eb1856c	0.34672105
169	0x3f203e9c	0.62595534
170	0x3f862b1f	1.048191
171	0x3fa5d6f4	1.2956223
172	0x3ec8984e	0.391787
173	0x3fb3869d	1.4025456
174	0x3eb7a1dc	0.35865676
175	0x3f9a714d	1.2065827
176	0x3f4b235c	0.7935083
177	0x3f52f075	0.8239816
178	0x3f87d11a	1.0610688
179	0x3ea727ce	0.32647556
180	0x3f9e61d4	1.2373605
181	0x3ee42605	0.44560257
182	0x3f5dd172	0.86647713
183	0x3f61ece3	0.88252085
184	0x3f5eac5e	0.8698176
185	0x3f147414	0.5798962
186	0x3f78fe0c	0.97262645
187	0x3f514533	0.81746215
188	0x3f8a38a4	1.0798535
189	0x3fabd130	1.3423214
190	0x3fb87ab5	1.4412447
191	0x3fb0f18c	1.3823714
192	0x3fa4d74c	1.2878203
193	0x3ed9443c	0.4243487
194	0x3f305d0f	0.68891996
195	0x3f9e3d65	1.2362486
196	0x3fb24d0d	1.3929764
197	0x3f667ae6	0.9003128
198	0x3f5d9053	0.86548346
199	0x3fa11584	1.2584691
200	0x3fbd5f31	1.4794675
201	0x3f96560a	1.1745007
202	0x3ed766df	0.42070672
203	0x3ea37927	0.3192837
204	0x3f80acd0	1.0052738
205	0x3eb3cf4a	0.35119087
206	0x3fa5df34	1.2958741
207	0x3f1333e3	0.5750105
208	0x3ece26dd	0.40264025
209	0x3fbb8a80	1.4651642
210	0x3eef7113	0.46765956
211	0x3f589a94	0.8461087
212	0x3fabd824	1.3425336
213	0x3f979036	1.1840885
214	0x3f5c15a0	0.859705
215	0x3f8708f8	1.0549612
216	0x3ec9d0cc	0.39417112
217	0x3ed6ebc1	0.4197674
218	0x3fa6521b	1.2993807
219	0x3f6e7383	0.93145007
220	0x3f229e04	0.6352236
221	0x3f3dc4e6	0.7412857
222	0x3fb31b7a	1.399276
223	0x3eec6a52	0.46174866
224	0x3fb61e2f	1.4227961
225	0x3f68d263	0.90946025
226	0x3fa7699b	1.3079103
227	0x3fadac04	1.356812
228	0x3f20a306	0.62748754
229	0x3fafa509	1.372224
230	0x3fa64b34	1.29917
231	0x3f92478a	1.1428082
232	0x3f2911e0	0.660429
233	0x3f9c56bb	1.2213968
234	0x3fb7cba4	1.4359021
235	0x3eef67f8	0.4675901
236	0x3f829694	1.0202203
237	0x3efc6468	0.49295354
238	0x3f341e18	0.7035842
239	0x3fa3cf35	1.279761
240	0x3f662883	0.89905566
241	0x3f850a72	1.0393813
242	0x3faf5878	1.3698874
243	0x3f946a37	1.1594914
244	0x3e9e74c2	0.30948454
245	0x3fa22f52	1.2670691
246	0x3f98a005	1.1923834
247	0x3f1719d6	0.590238
248	0x3fac9987	1.3484353
249	0x3fdd31ab	1.7280782
250	0x3f9e268b	1.2355512
251	0x3fa2b328	1.2710924
252	0x3f87c075	1.0605608
253	0x3f309e64	0.68991685
254	0x3fba92bf	1.4576033
255	0x3f672ca6	0.90302503
