DQN/model/CartPole-v1_469.pt (torch, 2639 bytes, 4 tensors)

fc1.weight f4 [32, 4]
-1.2681333 0.5754234 -8.16854 -0.8400018 -0.32045034 -1.7507708 -4.9872594 -1.929073
0.7976282 1.7157956 1.9502558 1.2800695 -0.18652932 1.9515142 5.411515 2.8128293
3.4735143 0.92992455 -4.045538 -0.6498906 0.71191305 1.8365606 7.506495 3.0996027
0.23399438 -2.5938094 -3.3853333 -2.1160936 3.5610182 2.0881817 -0.3057857 0.7895409
-0.28230658 2.0639117 5.889726 2.9524307 0.0008810893 -0.8101375 0.16874132 -1.2342242
-1.4825429 2.3932865 2.997326 1.4979793 1.3792592 2.1755528 2.7153125 1.3796439
-1.014428 -1.2803209 -4.926503 -0.9260176 -0.11443564 -3.0107791 -0.26328284 -2.1032264
1.0019084 -1.5849137 -0.54593176 -0.6025267 -1.6943171 0.46205786 -8.165992 -0.98164755
3.268869 1.8126811 -0.922862 1.0415152 1.4776905 2.4598756 2.7240708 1.8374267
-0.9713978 0.399903 -9.925616 -1.3778666 4.463863 2.9927547 -1.5940704 1.2766267
1.1664579 2.864196 5.5773144 2.1261585 2.7459857 2.0668933 0.54506564 1.1443372
-0.23239753 0.21733898 -0.12613343 0.27433947 -1.0549661 0.084754035 -6.685476 -1.4019865
-0.25340146 0.52338475 -0.10610387 0.28162575 -1.440027 2.6166706 2.8443904 1.9854283
-1.1963785 0.06453483 -8.733023 -0.9730553 -0.07709925 1.9491633 6.0997033 2.966472
0.64087826 1.6429995 7.0563984 2.7244952 0.6444526 2.0502312 6.8350716 3.1246595
0.16307133 -0.26646197 -0.19511405 -0.16554467 -1.1357143 2.431959 2.7166228 1.7171911
00000000: 3152 a2bf f34e 133f 57b2 02c1 5c0a 57bf
00000010: 1112 a4be 4219 e0bf a197 9fc0 ddeb f6bf
00000020: 5d31 4c3f 319f db3f fba1 f93f 51d9 a33f
00000030: 8b01 3fbe 38cb f93f 222b ad40 6505 3440
00000040: 0f4e 5e40 890f 6e3f 0c75 81c0 3b5f 26bf
00000050: ef3f 363f 6b14 eb3f 3535 f040 e45f 4640
00000060: 399c 6f3e f900 26c0 4da9 58c0 146e 07c0
00000070: b9e7 6340 c5a4 0540 f18f 9cbe 5a1f 4a3f
00000080: 7d8a 90be 2117 0440 a378 bc40 a0f4 3c40
00000090: e7f8 663a 2c65 4fbf 86ca 2c3e 0ffb 9dbf
000000a0: f7c3 bdbf 9b2b 1940 30d4 3f40 c9bd bf3f
000000b0: 918b b03f 423c 0b40 aec7 2d40 2c98 b03f
000000c0: c7d8 81bf 8ee1 a3bf eaa5 9dc0 7d0f 6dbf
000000d0: 3c5d eabd 9bb0 40c0 02cd 86be 439b 06c0
000000e0: 893e 803f 74de cabf 2fc2 0bbf 313f 1abf
000000f0: 62df d8bf d992 ec3e e7a7 02c1 414d 7bbf
00000100: 2635 5140 ef05 e83f af40 6cbf 5f50 853f
00000110: f624 bd3f 9a6e 1d40 2d57 2e40 cc30 eb3f
00000120: 87ad 78bf 16c0 cc3e 53cf 1ec1 ef5d b0bf
00000130: f7d7 8e40 4b89 3f40 800a ccbf 8168 a33f
00000140: 7e4e 953f fd4e 3740 5c79 b240 fb12 0840
00000150: 3bbe 2f40 fb47 0440 6c89 0b3f a479 923f
00000160: 9ef9 6dbe 1c8e 5e3e 1f29 01be 3976 8c3e
00000170: 2109 87bf 8693 ad3d 6bef d5c0 4b74 b3bf
00000180: d6bd 81be 8bfc 053f fc4c d9bd 4031 903e
00000190: ce52 b8bf 8877 2740 7e0a 3640 8422 fe3f
000001a0: ee22 99bf d62a 843d 76ba 0bc1 271a 79bf
000001b0: 36e6 9dbd 2f7e f93f c530 c340 adda 3d40
000001c0: 9910 243f cf4d d23f 04ce e140 215e 2e40
000001d0: d8fa 243f fd36 0340 e8b8 da40 6cfa 4740
000001e0: 2cfc 263e b46d 88be facb 47be 8b84 29be
000001f0: 165f 91bf 37a5 1b40 26dd 2d40 ebcc db3f

fc1.bias f4 [32]
-1.1898686 0.06812355 -0.19723196 0.31522286 -0.83748543 -0.6376493 2.0785298 0.049815226
-0.32137612 5.8648825 -1.6277661 -0.3650723 -2.4027176 -0.59488004 6.575737 -2.1324117
-0.49243152 -0.29144987 -1.5726485 1.0070122 -0.46127877 -0.71732336 -0.61977893 -2.0897424
-0.59121424 -1.6860893 -1.2128726 -0.20722753 -0.5236076 -0.61952573 -0.39881817 -1.1144271
00000000: 9d4d 98bf 5c84 8b3d 2df7 49be e464 a13e
00000010: 7265 56bf fc3c 23bf a206 0540 0d0b 4c3d
00000020: 698b a4be 1ead bb40 a45a d0bf c2ea babe
00000030: 20c6 19c0 0f4a 18bf 706c d240 6f79 08c0
00000040: fc1f fcbe eb38 95be 8c4c c9bf c7e5 803f
00000050: bb2c ecbe 81a2 37bf d5a9 1ebf 57be 05c0
00000060: d159 17bf c6d1 d7bf 693f 9bbf 7433 54be
00000070: 260b 06bf 3d99 1ebf e531 ccbe 8ca5 8ebf

fc2.weight f4 [2, 32]
-1.6322687 0.07251588 -1.7445383 -5.776978 -2.6470711 -3.6152034 3.6052213 0.3609878
-3.4967527 4.3288584 -3.749265 -1.0528945 -3.7698555 -3.6299956 5.4264655 -3.6241086
-1.3722512 -2.3923826 -3.2994998 2.3130097 -3.3087325 -0.70543766 0.012673485 -3.682263
-0.06820132 -3.9103937 -2.0888913 -3.665385 -3.8095841 -3.735151 0.046984576 -3.532215
-3.5388143 -5.0321913 -1.5661635 -1.7979547 -2.3225048 -4.72807 4.878171 -3.1961696
-4.395949 3.8570478 -3.486989 -1.4357959 -3.5058918 -3.0741103 5.953618 -3.7957141
-1.052927 -2.4544487 -2.9404325 2.5090966 -1.8739296 -1.6693848 0.03975678 -2.4537117
0.021493867 -4.2718153 -3.4751468 -3.9775655 -3.5942705 -4.6255674 0.123958245 -2.3826005
00000000: 2eee d0bf 3583 943d 084d dfbf 01dd b8c0
00000010: 9d69 29c0 7e5f 67c0 f2bb 6640 65d3 b83e
00000020: ccca 5fc0 0286 8a40 f5f3 6fc0 3fc5 86bf
00000030: 5045 71c0 d951 68c0 9ba5 ad40 65f1 67c0
00000040: eda5 afbf cc1c 19c0 012b 53c0 5a08 1440
00000050: 46c2 53c0 9097 34bf 73a4 4f3c 32aa 6bc0
00000060: 22ad 8bbd e443 7ac0 65b0 05c0 ab95 6ac0
00000070: 3ad0 73c0 b70c 6fc0 e672 403d d00f 62c0
00000080: ef7b 62c0 b607 a1c0 0c78 c8bf 6123 e6bf
00000090: eba3 14c0 594c 97c0 fa19 9c40 0b8e 4cc0
000000a0: 9dab 8cc0 dfd9 7640 d42a 5fc0 29c8 b7bf
000000b0: 8860 60c0 39be 44c0 0a84 be40 fbec 72c0
000000c0: 50c6 86bf b015 1dc0 0c30 3cc0 0a95 2040
000000d0: eddc efbf 67ae d5bf 01d8 223d 9d09 1dc0
000000e0: e813 b03c b6b2 88c0 ce68 5ec0 6f90 7ec0
000000f0: 8708 66c0 a604 94c0 d2dd fd3d 877c 18c0

fc2.bias f4 [2]
3.959226 4.1836963
00000000: f563 7d40 d7e0 8540
