DQN/model/Pong-v0.pt (torch, 160495 bytes, 8 tensors)

ConvNet.0.weight f4 [64, 1, 4, 4]
-0.028494416 0.15989672 -0.041343667 0.14312802 0.05875614 0.014494757 0.048750628 0.14365982
-0.0837376 0.04794697 -0.024924379 -0.06499203 0.060638417 -0.21276297 0.024349313 0.23535042
0.02296456 0.005102404 -0.11441007 0.23374528 0.14324734 -0.04534602 -0.07037908 0.06236007
0.20159535 0.12560892 -0.1979616 0.176523 0.11450223 -0.064042464 -0.23800416 0.12603179
0.12341135 0.21684235 0.23978187 -0.17039643 -0.16916755 0.1631953 0.15884058 -0.09974917
-0.0066533606 -0.06084287 -0.24235627 0.20093496 0.04430633 -0.1000209 0.009486801 0.038043812
0.13052239 -0.18488826 -0.21566416 -0.12627062 0.21877454 0.10765469 -0.11488793 0.042407323
-0.19171661 0.040054377 0.014498181 0.045768928 -0.141746 -0.2029226 0.20458277 0.18495156
0.10243726 0.16684729 -0.23407878 -0.0785121 0.002669552 -0.07127616 0.07319357 0.1511737
0.18273059 -0.12539296 0.17432973 0.13538203 -0.09341404 0.037315264 0.16097765 -0.16763054
0.03545191 -0.22557887 -0.1940284 -0.0048781107 0.029267892 -0.11590767 0.08232699 -0.1632942
0.17325306 -0.09832182 0.13022657 -0.15216853 0.2010161 0.22689925 -0.23578951 -0.038067814
0.14361478 -0.24125205 -0.22588882 -0.117603175 -0.19750427 -0.15452282 0.06605229 0.14935872
0.15535514 0.20178467 -0.21414217 0.12437442 0.009591338 -0.12187186 -0.20673122 0.15818873
-0.19711232 -0.02877295 0.16252568 0.08200112 -0.16944791 -0.13359614 0.16710179 -0.18851872
-0.013271238 -0.14136466 -0.008922147 0.12789142 -0.22848146 -0.045683827 0.034909472 0.20000753
0.17672408 -0.11625489 0.16261438 -0.09319966 -0.02375374 0.055109788 -0.0094439 0.036837254
0.079058565 0.079350166 -0.18906474 0.20652404 -0.19320236 -0.1870064 0.15512638 -0.11200974
-0.02342394 0.11464229 0.031829283 0.0014797841 -0.10046495 -0.13176268 0.06771976 0.011636629
0.1978786 -0.0030050804 -0.17583035 0.23968136 -0.18925548 0.23506913 0.193017 0.16549884
0.043820947 0.065855466 0.034332473 0.24469782 0.07686714 0.14847907 0.0041545336 0.002516618
-0.23907928 0.052192155 -0.17052478 -0.15030637 0.19146858 -0.20191409 -0.007409767 -0.15244174
0.09283029 0.14105658 -0.12508833 0.1749981 -0.24843742 -0.1970997 -0.20293991 -0.12635867
0.0065865214 -0.2255298 -0.18995869 -0.054108944 -0.00721206 0.22011475 -0.20042011 -0.20631033
0.01144646 0.118752375 -0.05219005 0.18318772 0.10589121 -0.16642435 0.16153806 0.060031373
-0.053143613 -0.24611329 -0.19963282 0.21103476 0.06689128 0.10154358 0.23653136 -0.2362783
0.06514945 0.21171261 -0.21986365 -0.22792844 -0.06487371 0.052912463 0.053843345 0.22236088
-0.128793 0.22743364 -0.18490389 -0.062193 0.02538293 -0.1531425 0.1822427 -0.05225504
0.092297345 -0.08407977 0.22327036 -0.043789588 0.15112367 0.2260466 0.04198181 -0.0047632223
0.056817003 0.074797176 0.16879082 -0.19185933 0.08395896 -0.1678249 -0.24176042 0.18689238
0.2164202 -0.20818624 0.09873102 -0.13139425 -0.16004422 -0.15209597 -0.03635616 -0.052636787
0.16462015 0.08085001 -0.2363976 -0.20331278 -0.057053212 0.029093424 -0.14935872 0.012219133
00000000: 1f6d e9bc f7bb 233e fa57 29bd 2790 123e
00000010: 47aa 703d 6b7b 6d3c bdae 473d 8f1b 133e
00000020: 9e7e abbd 0b64 443d 362e ccbc 8b1a 85bd
00000030: fd5f 783d 89de 59be 3678 c73c b3ff 703e
00000040: 2c20 bc3c 1132 a73b d44f eabd ec5a 6f3e
00000050: 6eaf 123e c0bc 39bd e822 90bd 466d 7f3d
00000060: 036f 4e3e a09f 003e 72b6 4abe 72c2 343e
00000070: 2580 ea3d b228 83bd 5db7 73be 7a0e 013e
00000080: 17bf fc3d ec0b 5e3e 6189 753e 677c 2ebe
00000090: 423a 2dbe ab1c 273e 1ba7 223e 4b49 ccbd
000000a0: 6f04 dabb 6036 79bd 3e2c 78be e5c1 4d3e
000000b0: 8e7a 353d c2d7 ccbd 876e 1b3c d4d3 1b3d
000000c0: a9a7 053e 5953 3dbe 11d7 5cbe 164d 01be
000000d0: 6f06 603e 107a dc3d 5d4a ebbd 4db3 2d3d
000000e0: 5c51 44be 0f10 243d c789 6d3c 3378 3b3d
000000f0: dd25 11be f1ca 4fbe 257e 513e f163 3d3e
00000100: a0ca d13d 04da 2a3e 59b2 6fbe f4ca a0bd
00000110: a7f3 2e3b 3cf9 91bd 83e6 953d 47cd 1a3e
00000120: ba1d 3b3e 0367 00be 7e83 323e 96a1 0a3e
00000130: dc4f bfbd e4d7 183d 53d7 243e 57a7 2bbe
00000140: 0636 113d 26fe 66be 62af 46be 8fd8 9fbb
00000150: 38c3 ef3c 0061 edbd 0e9b a83d 9836 27be
00000160: 4069 313e f35c c9bd 1d5a 053e 11d2 1bbe
00000170: 2ad7 4d3e 4758 683e ce72 71be ffec 1bbd
00000180: c10f 133e c70a 77be 664f 67be efd9 f0bd
00000190: 8f3e 4abe 3b3b 1ebe 6c46 873d 7ef1 183e
000001a0: 6b15 1f3e a4a0 4e3e 1648 5bbe 04b8 fe3d
000001b0: fd24 1d3c f497 f9bd 59b1 53be 3afc 213e
000001c0: d0d7 49be 40b5 ebbc 226d 263e 34f0 a73d
000001d0: c183 2dbe 6dcd 08be bb1c 2b3e 0d0b 41be
000001e0: 9b6f 59bc e6c1 10be 322e 12bc f8f5 023e
000001f0: 0bf7 69be f71e 3bbd 3cfd 0e3d c6ce 4c3e
00000200: 28f7 343e 0b17 eebd 6284 263e 77df bebd
00000210: 3497 c2bc cdba 613d 96ba 1abc a9e2 163d
00000220: 75e9 a13d 5782 a23d 309a 41be 0a7b 533e
00000230: d7d6 45be 9b7e 3fbe 73d9 1e3e 5d65 e5bd
00000240: 90e3 bfbc 94c9 ea3d 6c5f 023d 51f5 c13a
00000250: 91c0 cdbd ccec 06be a8b0 8a3d 8fa7 3e3c
00000260: b0a0 4a3e e2f0 44bb df0c 34be 086f 753e
00000270: 30cc 41be f6b5 703e 40a6 453e 8778 293e
00000280: 987d 333d 3bdf 863d 35a0 0c3d 1192 7a3e
00000290: 856c 9d3d e60a 183e c122 883b d8ed 243b
000002a0: 33d1 74be 71c7 553d 0c9e 2ebe eae9 19be
000002b0: 5710 443e 91c2 4ebe a1cd f2bb b019 1cbe
000002c0: cf1d be3d 2371 103e 2817 00be b432 333e
000002d0: 6166 7ebe 81d4 49be 7bcf 4fbe 2b64 01be
000002e0: bfd3 d73b 49f1 66be 8884 42be 57a1 5dbd
000002f0: 2553 ecbb c365 613e ee3a 4dbe 0443 53be
00000300: ef89 3b3c 7234 f33d 3cc5 55bd 9095 3b3e
00000310: 7edd d83d 256b 2abe 3c6a 253e 75e3 753d
00000320: 1ead 59bd 1f05 7cbe 8c6c 4cbe 7f19 583e
00000330: 4cfe 883d 15f6 cf3d 4735 723e f0f2 71be
00000340: 136d 853d 31cb 583e f023 61be 1366 69be
00000350: 82dc 84bd bdba 583d d78a 5c3d 92b2 633e
00000360: 50e2 03be 5de4 683e 7257 3dbe 16be 7ebd
00000370: ddef cf3c 63d1 1cbe d59d 3a3e 6109 56bd
00000380: 6406 bd3d 0432 acbd fca0 643e b65c 33bd
00000390: 2ac0 1a3e c378 673e 1ef5 2b3d ce14 9cbb
000003a0: f2b8 683d 432f 993d 80d7 2c3e c676 44be
000003b0: adf2 ab3d 4ada 2bbe 0b90 77be b760 3f3e
000003c0: 429d 5d3e c62e 55be 7d33 ca3d 378c 06be
000003d0: a2e2 23be 0cbf 1bbe 32ea 14bd ac99 57bd
000003e0: 2f92 283e b194 a53d 3612 72be 3a31 50be
000003f0: a1b0 69bd 5555 ee3c 7ef1 18be c232 483c

ConvNet.0.bias f4 [64]
0.10585262 0.010874276 0.11550498 -0.09114219 -0.07955388 -0.11468265 0.12664127 -0.25382292
-0.062950075 0.1904044 0.090324625 0.019914446 0.032102183 -0.00020419426 -0.23203896 0.1959846
-0.09922473 0.020316781 0.15445559 -0.22518426 0.07184456 0.20081611 0.1808886 0.16366336
0.10928618 -0.093089305 0.028417775 0.044780895 0.2041914 0.13780655 -0.14238939 0.20376597
0.13906305 0.18744764 -0.21641715 -0.11276168 -0.045058828 0.203885 -0.13807309 0.15725172
-0.04461254 0.12452549 -0.23419122 -0.11120831 0.23285101 0.013433623 -0.23529676 -0.24275157
0.26257446 0.12645684 0.02612693 0.0153295705 -0.21732832 -0.16683392 -0.0019365259 0.17465217
-0.00035231572 0.12460189 -0.00022777537 -0.21763657 -0.20910989 -0.08954374 -0.08317625 0.02734337
00000000: 42c9 d83d 052a 323c e08d ec3d c2a8 babd
00000010: 25ed a2bd bdde eabd 40ae 013e 14f5 81be
00000020: f8eb 80bd 5ff9 423e 1efc b83d 9f23 a33c
00000030: 947d 033d fb1c 56b9 9f9b 6dbe 30b0 483e
00000040: 5636 cbbd 616f a63c 9b29 1e3e b496 66be
00000050: 3e23 933d bda2 4d3e dc3a 393e 5e97 273e
00000060: 6fd1 df3d 9ba5 bebd 65cc e83c 2c6c 373d
00000070: 8d17 513e 291d 0d3e 86ce 11be 07a8 503e
00000080: 8b66 0e3e 46f2 3f3e 759c 5dbe 98ef e6bd
00000090: 9b8f 38bd 3bc7 503e 0863 0dbe 9806 213e
000000a0: a4bb 36bd 3807 ff3d d3cf 6fbe 2fc1 e3bd
000000b0: 7f70 6e3e b318 5c3c a2f1 70be de93 78be
000000c0: 2970 863e e77d 013e 2508 d63c e128 7b3c
000000d0: 518b 5ebe 83d6 2abe 07d3 fdba 05d8 323e
000000e0: 04b7 b8b9 472f ff3d fcd6 6eb9 1fdc 5ebe
000000f0: e720 56be b562 b7bd 4f58 aabd 34ff df3c

ConvNet.2.weight f4 [32, 64, 4, 4]
0.001418501 -0.0201029 0.019866547 0.029954614 -0.013552958 -0.027479032 -0.0006389771 -0.008422445
-0.009285019 0.022279646 -0.007196878 -0.025195789 -0.019722616 -0.029472582 0.009379472 0.0008289393
-0.031673696 -0.0018879153 0.029428618 -0.005637394 -0.030116297 -0.0056694313 -0.01826017 0.028854115
-0.027711522 0.014435163 -0.0268837 -0.0075493953 -0.018626947 0.023666682 -0.025154486 0.0048205764
0.007487925 0.011773941 -0.006675632 -0.015020611 -0.023480192 0.007640806 0.0018908835 -0.029485092
0.0038539951 -0.03255279 0.012608132 0.017689142 0.014931999 -0.032012384 0.026997061 -0.031726424
0.028716294 0.0104876 -0.020861 -0.009042848 -0.025172044 0.025500638 -0.022191348 -0.018469159
-0.0012493065 0.027990878 -0.017862584 0.0316189 0.012475901 0.0011892755 -0.022240058 0.012318218
-0.005710448 -0.026278786 0.017558882 -0.028573327 -0.02335901 -0.02473955 -0.031246819 0.00035023002
0.008887496 0.010100398 -0.0143772345 -0.022796929 -0.010717474 -0.021032937 -0.019291593 0.012412719
0.024920221 -0.012855618 -0.018304959 0.022149095 0.031427 0.019776244 0.03306491 -0.0053826007
0.007420618 -0.011310259 -0.0052336864 0.013974196 -0.023744006 -0.013798748 -0.030737966 -0.012535658
0.014758747 0.0061107883 0.010633903 -0.003780166 0.009197111 -0.017157717 0.0048104683 -0.0112900855
0.017424123 -0.0058091846 0.004597815 -0.0039073233 0.0007000319 -0.017527135 0.006520512 -0.01503677
0.027373707 -0.025419265 0.022060502 -0.023606695 -0.019298516 -0.0005716349 -0.0019346842 0.0011538378
0.00030806975 0.008478369 -0.0018516803 0.0006070067 0.019131824 0.00798969 0.013292637 0.03405424
-0.0018719552 0.003811541 0.01799308 -0.0042774025 -0.03084704 -0.0043911114 0.003941119 -0.008579137
-0.0024069664 -0.024001462 0.010904326 -0.023029715 -0.004782168 -0.0007216324 0.023914872 0.00063764816
-0.019153923 -0.011715496 0.030219154 0.025850503 0.02046086 0.011101937 -0.0033945662 -0.026006103
-0.029209748 0.018769566 -0.023130275 -0.015379825 0.026074953 0.011658463 0.0048245094 -0.009392314
-0.030078359 0.017988637 0.021074723 0.037699714 -0.030255774 -0.017971557 0.025509926 -0.007819098
-0.016795062 0.0011795885 -0.009517845 -0.018191056 -0.010827874 0.001703767 0.019323219 0.021181721
-0.008812482 -0.01262417 -0.0034526552 -0.0011670323 0.029771375 -0.011990128 0.025616884 -0.019006072
-0.0038168095 -0.015508828 -0.014351704 -0.0031765758 0.02924701 0.011146778 -0.027205843 0.016268762
-0.029695267 0.028850617 -0.01216151 0.026752902 0.0011778849 -0.012466942 0.023218999 -0.029441511
-0.006574554 -0.013135021 -0.026324023 -0.0049466034 -0.019038605 -0.034200314 0.000913849 0.028106313
-0.010893693 -0.004644643 0.015536825 0.0041752434 0.009712544 -0.014346963 -0.0129865315 0.022502452
0.030918773 0.017262246 -0.01940128 0.016023459 0.028629638 -0.006402589 -0.027575767 0.003971952
0.02504556 0.010895778 0.01931956 0.029224755 -0.02398843 0.0066293 -0.024346527 0.0092963055
-0.0064360094 0.021926254 -0.029929416 -0.010947614 0.004367797 0.019198421 -0.0070375013 -0.007911939
-5.893267e-05 0.014266348 -0.03388312 0.0061353194 -0.0010189463 0.003983641 -0.0153066395 0.023033319
-0.0024006923 -0.005626035 -0.012215698 -0.029300097 -0.02016449 -0.0032292455 0.015958995 0.023728618
00000000: ffec b93a d6ae a4bc 2bbf a23c 6163 f53c
00000010: 3a0d 5ebc b51b e1bc 0781 27ba 4bfe 09bc
00000020: 3120 18bc ce83 b63c cad3 ebbb 6667 cebc
00000030: 5391 a1bc 7c70 f1bc 5bac 193c 2d4d 593a
00000040: 47bc 01bd ed73 f7ba 4914 f13c e3b9 b8bb
00000050: 74b6 f6bc a3c6 b9bb 5a96 95bc 775f ec3c
00000060: 4603 e3bc 7681 6c3c 353b dcbc eb60 f7bb
00000070: 8a97 98bc a1e0 c13c c810 cebc edf5 9d3b
00000080: 445d f53b 7de7 403c 43bf dabb 0219 76bc
00000090: 8859 c0bc ba5f fa3b 86d7 f73a b88a f1bc
000000a0: 4f93 7c3b 1356 05bd 5792 4e3c d2e8 903c
000000b0: 58a5 743c 6b1f 03bd f128 dd3c 91f3 01bd
000000c0: 6f3e eb3c 2fd4 2b3c b0e4 aabc 7428 14bc
000000d0: 9a35 cebc b7e6 d03c a1ca b5bc a24c 97bc
000000e0: c5bf a3ba 204d e53c 8e54 92bc d282 013d
000000f0: b967 4c3c 77e1 9b3a c830 b6bc 5ad2 493c
00000100: b61e bbbb 9c46 d7bc a5d7 8f3c 9c12 eabc
00000110: 655b bfbc 99aa cabc 54f9 ffbc 149f b739
00000120: dc9c 113c 247c 253c 7e8e 6bbc a0c0 babc
00000130: 5898 2fbc 444d acbc 6709 9ebc b85e 4b3c
00000140: 7e25 cc3c 5fa0 52bc 48f4 95bc 0572 b53c
00000150: 99b9 003d ca01 a23c 126f 073d 8760 b0bb
00000160: a828 f33b aa4e 39bc 587f abbb 07f4 643c
00000170: ca82 c2bc 2514 62bc 30ce fbbc 5c62 4dbc
00000180: acce 713c 023d c83b d239 2e3c a9bc 77bb
00000190: 7baf 163c 578e 8cbc 22a1 9d3b 0dfa 38bc
000001a0: 09bd 8e3c f95a bebb 45a9 963b 0109 80bb
000001b0: 5882 373a 1195 8fbc 05aa d53b c95c 76bc
000001c0: d33e e03c 103c d0bc 3ab8 b43c d462 c1bc
000001d0: ec17 9ebc c5d9 15ba 3b95 fdba 5f3c 973a
000001e0: 6c84 a139 dbe8 0a3c 15b4 f2ba 881f 1f3a
000001f0: 58ba 9c3c 30e7 023c 5cc9 593c 757c 0b3d
00000200: 655c f5ba 0ccb 793b 3966 933c 7429 8cbb
00000210: eeb2 fcbc 50e3 8fbb 8124 813b 828f 0cbc
00000220: 32be 1dbb b79e c4bc 0fa8 323c d0a8 bcbc
00000230: bcb3 9cbb ee2b 3dba 1fe9 c33c d827 273a
00000240: b0e8 9cbc 5af2 3fbc 298e f73c 6fc4 d33c
00000250: 899d a73c e6e4 353c 5f77 5ebb c00a d5bc
00000260: 4849 efbc a2c2 993c b47b bdbc a9fb 7bbc
00000270: 249b d53c 2303 3f3c eb16 9e3b 38e2 19bc
00000280: e466 f6bc e85c 933c e6a4 ac3c 046b 1a3d
00000290: f5da f7bc 1639 93bc 31fa d03c ad1b 00bc
000002a0: cc95 89bc 6c9c 9a3a bcf0 1bbc 6905 95bc
000002b0: 6567 31bc ef50 df3a ba4b 9e3c 4a85 ad3c
000002c0: 3a62 10bc 9bd5 4ebc f145 62bb 1bf7 98ba
000002d0: 19e3 f33c 3e72 44bc 80da d13c 9fb2 9bbc
000002e0: 7023 7abb bd18 7ebc 6923 6bbc 192e 50bb
000002f0: 6d97 ef3c faa0 363c cade debc 1146 853c
00000300: 7d43 f3bc 2158 ec3c 1241 47bc e728 db3c
00000310: 4263 9a3a 2542 4cbc c535 be3c 532f f1bc
00000320: 5b6f d7bb 4534 57bc 7aa5 d7bc 1e17 a2bb
00000330: d9f6 9bbc a115 0cbd 5e8f 6f3a 363f e63c
00000340: 767b 32bc 1732 98bb 2b8e 7e3c 7bd0 883b
00000350: 5d21 1f3c 860f 6bbc 76c5 54bc 1057 b83c
00000360: 5e49 fd3c 8e69 8d3c 6fef 9ebc a143 833c
00000370: b488 ea3c cfcc d1bb 93e6 e1bc 2627 823b
00000380: 592c cd3c 3584 323c 0e44 9e3c c168 ef3c
00000390: 6283 c4bc 993a d93b 5e72 c7bc 884f 183c
000003a0: 29e5 d2bb b09e b33c 892e f5bc 9f5d 33bc
000003b0: bd1f 8f3b 0246 9d3c d79a e6bb 14a1 01bc
000003c0: 792e 77b8 67bd 693c 07c9 0abd ca0a c93b
000003d0: 2a8e 85ba 3489 823b b3c8 7abc 5fb0 bc3c
000003e0: ef54 1dbb 9a5a b8bb 5a24 48bc c206 f0bc
000003f0: 0030 a5bc c0a1 53bb 70bc 823c 8562 c23c

ConvNet.2.bias f4 [32]
-0.010567559 -0.008775328 0.03315378 0.004285241 0.019161569 0.006347963 -0.0039894697 -0.025509851
-0.007890118 0.031778432 0.0010111349 -0.00032766996 -0.019617757 -0.0020645906 0.01088759 0.037656277
-0.028427366 -0.011207993 -0.0051030284 0.021278318 0.028494881 0.005384293 -0.009408174 0.015982484
0.006806354 0.0048600547 0.048140585 -0.0193704 -0.024377055 -0.009706698 0.01890801 0.001542519
00000000: 8e23 2dbc 65c6 0fbc 42cc 073d 356b 8c3b
00000010: b9f8 9c3c 9302 d03b 19ba 82bb 09fa d0bc
00000020: 8e45 01bc 1a2a 023d 0f88 843a 1ecb abb9
00000030: 6bb5 a0bc 154e 07bb dd61 323c 783d 1a3d
00000040: 82e0 e8bc bba1 37bc 4e37 a7bb de4f ae3c
00000050: 196e e93c b96e b03b be24 1abc b3ed 823c
00000060: d607 df3b 1841 9f3b 102f 453d acae 9ebc
00000070: 64b2 c7bc d808 1fbc f9e4 9a3c 592e ca3a

ConvNet.4.weight f4 [16, 32, 3, 3]
0.04454749 0.041393705 -0.034031175 -0.053638984 -0.050768655 -0.015233037 0.054923855 0.00826748
0.01739609 -0.057390824 -0.055509303 0.051557228 0.01171738 -0.03650448 0.05512139 0.047265716
0.033301383 -0.052672837 0.055959083 -0.03415741 0.026344212 0.012901829 0.007939828 0.05723985
0.011889019 0.018817792 0.040731873 -0.050357684 0.04032978 0.03378186 -0.0020674933 0.022085682
-0.0412372 -0.032510974 0.05840607 0.025822438 0.0036272616 -0.022376262 -0.0018353581 0.0473636
-0.0012359398 0.013672614 0.035788585 -0.012173559 0.05283596 0.018369006 -0.030704364 -0.00865393
-0.052591257 -0.003394835 0.04502353 0.016537951 0.0040397947 -0.034861453 0.051309854 -0.053331744
0.02483924 -0.020494007 0.02460791 -0.035489395 0.0137358 -0.009600883 0.016744949 0.001312834
-0.012038589 -0.049365584 0.0031503106 0.020804953 0.018961247 0.037786815 -0.014397031 -0.046200834
0.022986053 0.018463047 0.054712616 -0.03881208 0.042308964 0.04750959 -0.03098608 -0.05254022
0.04076491 0.0035638325 0.063940845 0.0097878175 -0.019467678 0.01771157 -0.02675992 -0.062986195
-0.03895788 0.009275674 -0.025630599 0.05265781 -0.0056866882 -0.029360034 -0.01840649 -0.01441135
0.012996968 -0.021949166 -0.022266515 0.003705129 0.0033484576 0.005622491 0.009531415 -0.045136105
-0.038769435 0.03052068 0.011258462 0.03778873 0.019412637 -0.024372341 -0.048797004 0.009173833
-0.06049771 -0.05883654 -0.030365888 0.032745026 0.03595955 0.018236922 0.047479935 0.06292324
-0.025210204 -0.055064347 0.017069133 -0.061873198 0.054499716 -0.042740498 0.051868193 -0.024406763
0.01461877 0.025621764 0.057337914 0.050063513 0.011668528 0.02311399 -0.02134709 -0.010446887
-0.037811734 0.0357042 0.056442797 0.027862784 -0.0014288642 0.022256052 0.057438288 -0.04258169
0.0034127603 0.025586026 -0.007401719 -0.016321905 -0.056841392 0.05627912 0.031124381 -0.049297698
0.030196158 0.013882265 0.05323888 0.031162841 0.007611359 -0.022421036 0.0439647 -0.028468614
-0.05287629 0.05337873 -0.011465225 -0.013892656 0.012337683 -0.018708708 -0.054313947 -0.046419524
0.030616093 0.035573922 0.05823137 0.03899881 0.038637374 0.03029616 0.011508991 0.004385551
0.039353788 -0.03721737 0.035716742 0.027743818 0.0034657365 0.036702733 -0.061223663 0.037527233
-0.054090604 0.011682258 -0.03837603 -0.007630971 -0.049538996 -0.015962189 -0.045289475 -0.028692823
-0.01563021 -0.022723218 -0.0090528475 0.0024904103 0.045247957 -0.008954632 0.031189036 -0.031214932
-0.0115196705 0.042713422 0.022893887 0.007471303 0.013936946 -0.017428374 0.01783199 0.00834799
-0.01903425 -0.03159095 -0.0007459875 0.050229616 -0.0006206959 0.01569485 -0.0056740423 -0.020398377
-0.024531083 0.022386821 0.004443622 -0.033724688 0.023658784 0.040553905 -0.01901049 -0.00154003
0.0010584901 0.009495164 0.044581395 0.038035594 -0.03880896 -0.007739967 -0.012468938 0.00013967983
-0.027559262 -0.026996067 0.025936756 0.0039606746 -0.01081563 -0.0115450425 0.04112774 0.00229207
0.018445974 -0.027285788 -0.03489969 0.044062153 -0.010566585 0.04286604 0.020423187 -0.054294314
0.02631582 0.03184275 0.039239194 -0.04256418 0.0050242636 0.02034666 -0.038669858 -0.038848512
00000000: 6e77 363d 728c 293d 4664 0bbd 8db4 5bbd
00000010: cbf2 4fbd fd93 79bc d6f7 603d 5374 073c
00000020: 3f82 8e3c a412 6bbd b95d 63bd ac2d 533d
00000030: 41fa 3f3c b985 15bd f7c6 613d b299 413d
00000040: 0867 083d 79bf 57bd 5a35 653d a4e8 0bbd
00000050: d1cf d73c 3162 533c 0d16 023c 5574 6a3d
00000060: 29ca 423c c527 9a3c 77d6 263d dc43 4ebd
00000070: d730 253d d95e 0a3d c87e 07bb 08ed b43c
00000080: 57e8 28bd 3a2a 05bd 343b 6f3d 9489 d33c
00000090: 5ab7 6d3b 6c4e b7bc 6690 f0ba 5600 423d
000000a0: 42ff a1ba 1903 603c 0d97 123d 9b73 47bc
000000b0: 856a 583d 997a 963c b887 fbbc 37c9 0dbc
000000c0: ee69 57bd e17b 5ebb 986a 383d 997a 873c
000000d0: 4160 843b e2ca 0ebd 482a 523d 6372 5abd
000000e0: a97b cb3c 0ce3 a7bc 8796 c93c 545d 11bd
000000f0: 1f0c 613c 064d 1dbc b42c 893c 6613 ac3a
00000100: 813d 45bc 9133 4abd 7175 4e3b 266f aa3c
00000110: 9e54 9b3c 59c6 1a3d 86e1 6bbc 163d 3dbd
00000120: 3f4d bc3c d13f 973c 561a 603d 6af9 1ebd
00000130: 2a4c 2d3d 6a99 423d 85d6 fdbc 6a34 57bd
00000140: 1bf9 263d 308f 693b 6bf3 823d 155d 203c
00000150: ae7a 9fbc db17 913c 9f37 dbbc e8fe 80bd
00000160: 4c92 1fbd fff8 173c 43f7 d1bc b7af 573d
00000170: 6657 babb 7484 f0bc 35c9 96bc 951d 6cbc
00000180: 3cf1 543c bdce b3bc 4468 b6bc c0d1 723b
00000190: cc71 5b3b df3c b83b a729 1c3c a3e0 38bd
000001a0: b3cc 1ebd 8106 fa3c 6a75 383c 5bc8 1a3d
000001b0: 4007 9f3c 81a8 c7bc 5edf 47bd d84d 163c
000001c0: 72cc 77bd 95fe 70bd e2c1 f8bc a61f 063d
000001d0: 524a 133d 9965 953c 527a 423d e6dd 803d
000001e0: a185 cebc 278b 61bd 91d4 8b3c c06e 7dbd
000001f0: 183b 5f3d a910 2fbd be73 543d b1f0 c7bc
00000200: 9183 6f3c bce4 d13c 29db 6a3d 660f 4d3d
00000210: 5b2d 3f3c 8d59 bd3c 18e0 aebc 6c29 2bbc
00000220: 7ae0 1abd 913e 123d 9030 673d 7e40 e43c
00000230: ba48 bbba 5352 b63c 6944 6b3d 236a 2ebd
00000240: 9ea8 5f3b c999 d13c 1f8a f2bb 84b5 85bc
00000250: 85d2 68bd ef84 663d 8ff8 fe3c 62ec 49bd
00000260: ef5d f73c 7172 633c 0311 5a3d 3749 ff3c
00000270: b568 f93b 52ac b7bc 5414 343d 0337 e9bc
00000280: cf94 58bd a8a3 5a3d a4d8 3bbc 069e 63bc
00000290: fe23 4a3c 0143 99bc 4d78 5ebd 6622 3ebd
000002a0: 9ace fa3c f6b5 113d 0484 6e3d 37bd 1f3d
000002b0: 3942 1e3d a72f f83c 3590 3c3c abb4 8f3b
000002c0: 7031 213d 3e71 18bd b84b 123d 0147 e33c
000002d0: 6921 633b 9b55 163d aac5 7abd 28b6 193d
000002e0: 1c8e 5dbd f166 3f3c 2f30 1dbd 390d fabb
000002f0: 67e9 4abd 23c3 82bc 7581 39bd 360d ebbc
00000300: ed0a 80bc 0b26 babc 6552 14bc 2736 233b
00000310: ec55 393d 73b6 12bc 2680 ff3c 75b6 ffbc
00000320: 00bd 3cbc 45f4 2e3d f68b bb3c d5d1 f43b
00000330: ca57 643c f3c5 8ebc 6514 923c 02c6 083c
00000340: b7ed 9bbc 8365 01bd 608e 43ba 92bd 4d3d
00000350: 32b6 22ba 7c92 803c 51ed b9bb 7f1a a7bc
00000360: 69f5 c8bc 9164 b73c ce9b 913b e622 0abd
00000370: 11d0 c13c da1b 263d e3bb 9bbc d5da c9ba
00000380: 09bd 8a3a 9b91 1b3c fb9a 363d 36cb 1b3d
00000390: 25f6 1ebd 8d9f fdbb 844a 4cbc 0577 1239
000003a0: f6c3 e1bc db26 ddbc 5279 d43c 8cc8 813b
000003b0: 0a34 31bc 6b27 3dbc 9075 283d 8e36 163b
000003c0: 031c 973c 7286 dfbc faf2 0ebd 847a 343d
000003d0: 781f 2dbc 4d94 2f3d 874e a73c b763 5ebd
000003e0: 4694 d73c 8b6d 023d 47b9 203d c757 2ebd
000003f0: 94a2 a43b 0aae a63c 4964 1ebd 9e1f 1fbd

ConvNet.4.bias f4 [16]
0.07055545 -0.0014415744 0.034987837 -0.045658987 0.02942342 0.0211979 -0.06489896 0.04259399
0.029834893 0.03709994 -0.019224096 0.029166412 0.07149037 0.037551556 -0.009149476 0.028202279
00000000: 607f 903d 36f3 bcba 684f 0f3d eb04 3bbd
00000010: 6209 f13c 38a7 ad3c bfe9 84bd 0977 2e3d
00000020: 4e68 f43c 1bf6 173d da7b 9dbc 66ee ee3c
00000030: 8b69 923d a9cf 193d afe7 15bc 7708 e73c

ConvNet.6.weight f4 [2, 16, 5, 5]
0.021443387 0.038092677 -0.045502782 -0.010251985 -0.027887097 0.0046463977 0.013203331 -0.02337844
-0.01657429 0.02250842 -0.0014707899 0.015887037 0.0050443695 0.0016785223 -0.0029089132 0.04694586
0.046640843 -0.034853093 0.026733225 -0.046174113 -0.029230705 0.048283216 -0.01928897 -0.03292774
0.015862957 0.02962364 -0.031132277 -0.04583121 -0.043774832 0.02407298 -0.035147034 0.027240358
-0.04502774 0.009559673 -0.045349 -0.043226376 0.041737072 0.00030549412 0.0019020959 -0.02075384
0.045530483 -0.018033862 -0.008447354 -0.015873369 -0.0005624523 -0.011006178 0.0012274856 0.04504334
0.041917328 0.016494108 0.040592127 -0.0048880624 0.035259083 0.04314767 -0.029109392 -0.005504775
0.025509972 0.03793518 0.031327337 -0.018133529 -0.03904505 -0.014921431 0.019737879 0.018844055
0.009529939 0.041818187 0.008530299 0.022785405 0.0016291913 0.0038538275 -0.0031258906 0.032304972
0.046415128 -0.03727062 0.025718348 0.024386166 0.041164536 -0.020372247 -0.048061017 0.027639093
-0.020569474 -0.046109628 0.04671754 0.04257003 -0.010374737 -0.0011892881 -0.023366122 -0.040900566
-0.0023399997 -0.005330751 0.02967605 0.04195815 -0.020076621 -0.022807127 0.017595543 -0.049743645
0.025239915 -0.042317912 -0.022213537 0.03376168 -0.021956073 -0.00070153986 -0.010880337 -0.0054244446
0.018738562 0.027610697 -0.03851977 0.038022388 -0.010506051 -0.0324067 -0.010549629 -0.014429678
-0.040740702 0.027881647 -0.020697838 -0.011397151 0.038293503 0.0061153444 -0.029345367 -0.021348538
-0.044329997 -0.039974578 -0.014900861 -0.018738192 -0.006028902 -0.04000934 0.026456682 0.008021174
0.04828664 -0.012470064 0.0087253535 -0.02136165 0.040452555 0.026928838 0.010299993 -0.021381916
-0.0060403687 0.03430415 0.026336506 -0.046706185 -0.036503486 0.02349319 0.038459778 0.018449621
0.02900338 -0.019207755 -0.025180824 0.022025993 -0.031089833 -0.027130084 -0.020610685 -0.025317905
0.015279126 -0.036698017 0.0052677193 -0.037443146 0.014253464 -0.027379991 -0.012168123 -0.014888365
0.0474933 -0.024598349 0.0023414653 0.03627869 0.007300472 0.045691196 0.015502528 0.022148658
-0.015853358 0.010429105 -0.01971336 -0.0014440196 -0.023448784 -0.024805417 -0.015862992 0.042552277
0.01957796 -0.0223771 -0.006074364 -0.013532123 0.028481275 0.034568902 0.02073464 0.042989798
0.040281236 -0.0048785703 0.061386622 -0.012963149 0.003519004 0.01504612 0.040737297 -0.023032742
0.049128182 0.047518402 0.03282942 -0.0044689784 0.032383785 -0.0121689 0.05234472 0.0544062
0.0049626147 0.021417465 -0.011177756 -0.010578204 -0.027729083 0.0051880004 0.04510122 0.04953002
-0.017543599 -0.031826667 0.026996385 -0.038711943 0.02713421 0.0030458455 0.018521465 0.020586932
-0.0036817803 0.025528086 0.045598544 0.031662796 0.014157546 0.013480538 -0.010909131 -0.031951737
-0.0068958434 -0.042105764 -0.044239335 -0.0065622595 0.017929101 -0.04701133 0.010246909 0.048822626
0.027648486 0.04261183 0.0030531979 -0.00935321 -0.04087845 0.03206685 0.043805074 -0.019995129
-0.022232173 -0.020902146 0.049730197 0.022472372 -0.0046938094 -0.007641691 0.016933193 0.024656491
0.01151208 -0.037433606 0.020567004 0.025912195 0.011293157 -0.038419854 0.03567619 -0.035400506
00000000: 0baa af3c 1107 1c3d 2061 3abd f1f7 27bc
00000010: 7b73 e4bc cf40 983b c952 583c 2484 bfbc
00000020: cec6 87bc 9463 b83c 85c7 c0ba 8825 823c
00000030: 3d4b a53b dd01 dc3a 77a3 3ebb 4d4a 403d
00000040: 780a 3f3d 1ec2 0ebd a3ff da3c 1121 3dbd
00000050: 3b75 efbc 9fc4 453d e703 9ebc 3ddf 06bd
00000060: 08f3 813c 47ad f23c 1e09 ffbc 82b9 3bbd
00000070: 3d4d 33bd b334 c53c 56f6 0fbd 2c27 df3c
00000080: 026f 38bd 2da0 1c3c dfbf 39bd 240e 31bd
00000090: 7ef4 2a3d ba2a a039 bf4f f93a f503 aabc
000000a0: 2c7e 3a3d c0bb 93bc c566 0abc de08 82bc
000000b0: 8971 13ba 4253 34bc 95e3 a03a 5e7f 383d
000000c0: 81b1 2b3d a71e 873c ee43 263d 0a2c a0bb
000000d0: d46b 103d 9cbb 303d d276 eebc 6661 b4bb
000000e0: 4afa d03c eb61 1b3d 1851 003d c48c 94bc
000000f0: b4ed 1fbd 0579 74bc 55b1 a13c d95e 9a3c
00000100: 7623 1c3c 8c49 2b3d abc2 0b3c 75a8 ba3c
00000110: 978a d53a 7f90 7c3b bedb 4cbb 3852 043d
00000120: ca1d 3e3d 14a9 18bd 49af d23c 7fc5 c73c
00000130: 259c 283d b3e3 a6bc a1db 44bd 616b e23c
00000140: 5081 a8bc 73dd 3cbd e45a 3f3d e95d 2e3d
00000150: cdfa 29bc e3e1 9bba 4f6a bfbc 5a87 27bd
00000160: ae5a 19bb 95ad aebb 301b f33c 4fdc 2b3d
00000170: ba77 a4bc 03d6 babc 8724 903c febf 4bbd
00000180: f0c3 ce3c 8c55 2dbd 2af9 b5bc b049 0a3d
00000190: 39dd b3bc 8be7 37ba 7143 32bc 8abf b1bb
000001a0: 9d81 993c d42f e23c e8c6 1dbd 5dbd 1b3d
000001b0: 9221 2cbc e3bc 04bd 5ad8 2cbc 756a 6cbc
000001c0: b9df 26bd 0d68 e43c 838e a9bc 1ebb 3abc
000001d0: a6d9 1c3d 3a63 c83b b265 f0bc 21e3 aebc
000001e0: 5f93 35bd 62bc 23bd be22 74bc d680 99bc
000001f0: 188e c5bb d5e0 23bd afbb d83c 3e6b 033c
00000200: 36c8 453d 3d4f 4cbc c9f4 0e3c a1fe aebc
00000210: 94b1 253d de99 dc3c 4dc1 283c 2129 afbc
00000220: 49ee c5bb 8282 0c3d a8bf d73c fc4e 3fbd
00000230: ae84 15bd ca74 c03c 0088 1d3d a923 973c
00000240: 7f98 ed3c 9559 9dbc 0448 cebc db6f b43c
00000250: 1bb0 febc e93f debc bdd7 a8bc 7f67 cfbc
00000260: 4d55 7a3c a950 16bd d59c ac3b fc5d 19bd
00000270: 5c87 693c 014c e0bc cf5c 47bc 54ee 73bc
00000280: 5688 423d 7a82 c9bc 4573 193b f798 143d
00000290: cc38 ef3b b126 3b3d 51fe 7d3c 1a71 b53c
000002a0: e7de 81bc d6de 2a3c ea7d a1bc 4245 bdba
000002b0: aa17 c0bc bb34 cbbc 1bf3 81bc 4c4b 2e3d
000002c0: f561 a03c 2e50 b7bc 750b c7bb d6b5 5dbc
000002d0: 9051 e93c 1f98 0d3d b1db a93c 1216 303d
000002e0: f0fd 243d 6adc 9fbb 8a70 7b3d 6363 54bc
000002f0: 179f 663b 0084 763c 27dc 263d 29af bcbc
00000300: a23a 493d a8a2 423d 2478 063d 8270 92bb
00000310: dca4 043d 1160 47bc 6b67 563d 09d9 5e3d
00000320: 6e9d a23b ae73 af3c e822 37bc 3450 2dbc
00000330: 1a28 e3bc 1a00 aa3b 0fbc 383d fedf 4a3d
00000340: 98b7 8fbc ae5c 02bd 8627 dd3c 6a90 1ebd
00000350: 9048 de3c cf9c 473b 54ba 973c eda5 a83c
00000360: 064a 71bb 4720 d13c 8ac5 3a3d d9b0 013d
00000370: 0df5 673c 79dd 5c3c 36bc 32bc d3df 02bd
00000380: 87f6 e1bb 1877 2cbd 4e34 35bd 3908 d7bb
00000390: 0de0 923c f48e 40bd a7e2 273c 3cfa 473d
000003a0: 147f e23c be89 2e3d 2918 483b 353e 19bc
000003b0: 2970 27bd 8858 033d f36c 333d d3cc a3bc
000003c0: 3f20 b6bc fa3a abbc e4b1 4b3d fb17 b83c
000003d0: 87ce 99bb 2667 fabb 7bb7 8a3c 69fc c93c
000003e0: 2a9d 3c3c fb53 19bd 227c a83c d045 d43c
000003f0: ef06 393c 235e 1dbd 3221 123d 1f00 11bd

ConvNet.6.bias f4 [2]
0.032609925 0.01656904
00000000: fc91 053d ccbb 873c
