DQN/model/Pong-v0.pt (torch, 160495 bytes, 8 tensors)

ConvNet.0.weight f4 [64, 1, 4, 4]
0.07226309 0.20801806 -0.24797884 -0.20790315 -0.21716678 0.11806178 -0.043687344 0.123184144
-0.23288989 0.05463761 -0.19817427 -0.23520067 -0.005451083 -0.1915113 0.15303174 0.10437384
-0.22278666 0.03424871 0.17812154 0.028960854 -0.049788237 -0.16196975 -0.052027524 -0.13424891
-0.020068705 -0.098765194 -0.24096817 -0.1209403 -0.108424455 -0.21431059 0.007932812 0.24271616
0.17680416 0.14196801 -0.15145731 0.056898475 0.01647079 -0.053999305 0.1938828 -0.2041978
-0.12525341 -0.018644094 -0.2235272 0.11693534 0.23762038 -0.19648042 0.17988247 -0.0068171024
0.018975466 0.15993342 -0.24849823 0.2006793 0.19509971 0.16114691 -0.20226386 -0.093153566
-0.16892567 -0.00875023 0.06342468 -0.20964772 0.07409012 0.14911798 0.24215949 -0.14235482
0.16241091 0.026758999 0.035580575 -0.19126752 0.21446076 -0.13557133 -0.197124 -0.03474772
0.15513787 0.24016371 0.0093150735 0.06230691 -0.14114833 0.1804026 0.0982002 0.20297661
0.08361292 -0.1660879 -0.20984009 -0.14911762 -0.02329588 -0.13481218 -0.07746145 -0.14118648
-0.20036295 0.23285756 0.045710534 0.07000297 0.17895561 0.10109925 -0.06353426 -0.1673153
0.060658604 0.097476274 -0.094707936 0.024631917 -0.06977612 -0.19376054 -0.1481773 -0.15653044
-0.072960645 -0.11873722 -0.17399019 -0.037403703 0.013076842 0.12924194 -0.13556617 0.17342582
0.047382385 -0.13620159 -0.049530745 -0.05254799 0.09430599 -0.2432386 -0.122484416 -0.17874822
-0.09911659 -0.22197095 0.046732455 0.05182886 0.035897017 -0.1782209 0.19687891 -0.017173499
0.074521065 0.11366126 0.19027284 0.22233629 -0.083560795 -0.015038192 0.13211289 0.12611929
0.07939267 0.24418202 -0.054682016 0.2050932 -0.06480083 -0.13469127 -0.17302722 0.005860418
-0.16620001 0.18564361 0.001303345 -0.24511945 -0.22235745 -0.20651442 0.006168872 -0.2334468
0.19693685 -0.21641612 -0.05451855 0.15239644 0.15477732 -0.086874396 0.19324967 0.17065081
-0.066851616 0.0015211105 0.16628954 -0.2415323 0.060194373 -0.065345824 0.1404821 -0.22751611
-0.2370485 0.011918694 0.18360418 -0.14821985 0.010280341 -0.2314817 0.04200968 -0.04615748
0.09399471 -0.16898793 0.04119411 0.17318329 -0.039856255 0.19408399 -0.108407706 0.12351489
-0.19797727 -0.08540404 -0.15738994 0.14299124 0.06041515 0.16296166 -0.084002495 0.06739214
-0.2261382 0.08426142 -0.22205538 -0.039333045 -0.02498439 0.11862424 0.1106433 0.089984596
0.092490196 -0.08905494 0.14770487 -0.13231 -0.1020014 -0.0719907 0.03920555 -0.027174562
0.18078253 -0.2333802 -0.09744874 0.06347135 -0.20881408 0.0832822 0.11259732 0.00035962462
-0.058755815 -0.2430701 -0.0027513504 0.11930719 -0.17811483 0.0049446523 0.20648885 0.14763096
0.04030165 -0.121377945 -0.1683059 -0.123722196 -0.22649923 0.09204039 0.09992051 -0.21990904
-0.23275402 -0.03394243 -0.083173156 -0.20208377 -0.16072497 0.18051139 0.046117872 0.087142676
-0.024952203 -0.17483619 0.1184552 -0.13379458 -0.22891584 0.053534776 0.091026366 -0.13248304
0.1538766 -0.1876699 0.11223969 0.030928195 -0.24747595 0.24829999 0.12694111 0.032675654
00000000: acfe 933d b002 553e 2aee 7dbe 90e4 54be
00000010: f860 5ebe 60ca f13d 80f1 32bd f847 fc3d
00000020: b07a 6ebe b0cb 5f3d 32ee 4abe 72d8 70be
00000030: 009f b2bb 8a1b 44be 5ab4 1c3e f4c1 d53d
00000040: 3022 64be 6048 0c3d 7e65 363e 503f ed3c
00000050: c0ee 4bbd 66db 25be d01a 55bd 8c78 09be
00000060: 2067 a4bc 6845 cabd 5cc0 76be 8caf f7bd
00000070: a40d debd 3c74 5bbe a0f8 013c 968a 783e
00000080: 260c 353e 1060 113e a017 1bbe 600e 693d
00000090: c0ed 863c 602e 5dbd 3689 463e 3a19 51be
000000a0: 6e42 00be 80bb 98bc 50e4 64be cc7b ef3d
000000b0: c252 733e 2a32 49be 1c33 383e 0062 dfbb
000000c0: 7072 9b3c 96c5 233e 5276 7ebe e07e 4d3e
000000d0: 38c8 473e b203 253e 421e 4fbe 4cc7 bebd
000000e0: dafa 2cbe 205d 0fbc cce4 813d e4ad 56be
000000f0: 90bc 973d 62b2 183e a8f8 773e 76c5 11be
00000100: 0c4f 263e b035 db3c f0bc 113d a2db 43be
00000110: 9a9b 5b3e 36d3 0abe e0da 49be a053 0ebd
00000120: 76dc 1e3e 7aed 753e 409e 183c 8835 7f3d
00000130: 3089 10be 76bb 383e 301d c93d 1ad9 4f3e
00000140: 403d ab3d f212 2abe 52e0 56be 4ab2 18be
00000150: 00d7 bebc 340c 0abe 1ca4 9ebd 3093 10be
00000160: f22b 4dbe 3672 6e3e f83a 3b3d b85d 8f3d
00000170: 2440 373e 200d cf3d 401e 82bd b454 2bbe
00000180: 2875 783d a4a1 c73d 3cf6 c1bd e0c8 c93c
00000190: c8e6 8ebd 2a69 46be cabb 17be 8449 20be
000001a0: 646c 95bd 802c f3bd 7c2a 32be a034 19bd
000001b0: 4040 563c 0058 043e dcd1 0abe 8a96 313e
000001c0: 0814 423d 6e78 0bbe c0e0 4abd 903c 57bd
000001d0: 8023 c13d 8a13 79be 1cd9 fabd c609 37be
000001e0: a4fd cabd 5a4c 63be 886a 3f3d 804a 543d
000001f0: c008 133d 8a7f 36be a09a 493e 70af 8cbc
00000200: 809e 983d 3cc7 e83d e2d6 423e 20ac 633e
00000210: ec21 abbd c062 76bc 9a48 073e 6a25 013e
00000220: a098 a23d da0a 7a3e 40fa 5fbd f403 523e
00000230: 4cb6 84bd 82ec 09be 0c2e 31be c008 c03b
00000240: 5630 2abe 5c19 3e3e 00d5 aa3a 9800 7bbe
00000250: acb1 63be 8478 53be 4024 ca3b ae0c 6fbe
00000260: d0a9 493e 309c 5dbe d84e 5fbd d00d 1c3e
00000270: f27d 1e3e 34eb b1bd 3ee3 453e 16bf 2e3e
00000280: 80e9 88bd 0060 c73a ce47 2a3e 3e54 77be
00000290: 608e 763d 08d4 85bd 8ada 0f3e fcf9 68be
000002a0: d8bc 72be a046 433c bc02 3c3e f2c6 17be
000002b0: e06e 283c 8a09 6dbe 5812 2c3d a00f 3dbd
000002c0: 4c80 c03d 2c0b 2dbe 28bb 283d f656 313e
000002d0: 5040 23bd f4bd 463e dc04 debd 60f5 fc3d
000002e0: 8eba 4abe 50e8 aebd d42a 21be 4c6c 123e
000002f0: e075 773d 6cdf 263e 8009 acbd e404 8a3d
00000300: c690 67be 4091 ac3d 7c62 63be b01b 21bd
00000310: 10ac ccbc 44f1 f23d f498 e23d d849 b83d
00000320: 806b bd3d 7062 b6bd f23f 173e 467c 07be
00000330: 1ce6 d0bd dc6f 93bd 0096 203d 309d debc
00000340: 0e1f 393e 38fb 6ebe 3493 c7bd 44fd 813d
00000350: 5cd3 55be dc8f aa3d 6c99 e63d 008c bc39
00000360: f0a9 70bd 5ee7 78be 0050 34bb 5457 f43d
00000370: bc63 36be c006 a23b d071 533e 922c 173e
00000380: 5813 253d 0095 f8bd 6258 2cbe 1062 fdbd
00000390: 6aef 67be ac7f bc3d 20a3 cc3d d62f 61be
000003a0: 1257 6ebe 3807 0bbd b056 aabd 0cef 4ebe
000003b0: 1695 24be fad7 383e 18e6 3c3d dc77 b23d
000003c0: 9068 ccbc 4208 33be a498 f23d 7201 09be
000003d0: ea68 6abe 4847 5b3d 086c ba3d a2a9 07be
000003e0: d491 1d3e 8a2c 40be ecdd e53d 205d fd3c
000003f0: 566a 7dbe 5a42 7e3e dafc 013e e8d6 053d

ConvNet.0.bias f4 [64]
-0.08287212 0.10638809 0.097877175 0.09145567 -0.016167909 -0.19039732 0.17611393 0.037024558
-0.23469839 -0.17366141 -0.11926511 -0.01418829 -0.07677889 -0.15793663 -0.2182545 -0.06362423
-0.23217085 0.03974244 0.11753619 0.14219096 -0.02774024 0.0070467293 0.20050296 -0.16587085
0.07347524 -0.20346493 0.120854706 0.019834131 0.15101352 0.19065714 -0.07494712 0.20166263
0.22700396 -0.020915061 -0.09567481 0.22008261 -0.021945536 -0.093788475 -0.07073751 0.024169207
-0.22899795 -0.2337046 -0.21703663 -0.13266742 -0.18062493 -0.008308619 0.08256027 -0.07193649
0.17931092 0.14640066 0.20996395 0.1874451 0.17142645 0.2375195 0.17594865 0.14765829
0.06697047 0.20219374 0.07203141 0.11531904 0.0505853 0.1286825 -0.21598989 -0.19684052
00000000: dcb8 a9bd 00e2 d93d d473 c83d 1c4d bb3d
00000010: 9072 84bc 84f7 42be 3657 343e 10a7 173d
00000020: c654 70be 4cd4 31be 4441 f4bd 0076 68bc
00000030: 403e 9dbd 24ba 21be 1c7e 5fbe 6c4d 82bd
00000040: 32be 6dbe f8c8 223d d0b6 f03d 829a 113e
00000050: 803f e3bc 40e8 e63b a650 4d3e 0cda 29be
00000060: 307a 963d 1c59 50be ac82 f73d 307b a23c
00000070: 4aa3 1a3e a03b 433e e07d 99bd a680 4e3e
00000080: ba73 683e 1056 abbc 28f1 c3bd 565d 613e
00000090: 20c7 b3bc 2c14 c0bd d4de 90bd 80fe c53c
000000a0: 707e 6abe 4250 6fbe da3e 5ebe f8d9 07be
000000b0: bef5 38be e020 08bc 5c15 a93d 7053 93bd
000000c0: 489d 373e 0eea 153e ca00 573e 9cf1 3f3e
000000d0: 6a8a 2f3e 5038 733e e22b 343e bc33 173e
000000e0: d027 893d e00b 4f3e 3485 933d 642c ec3d
000000f0: 8832 4f3d 58c5 033e 742c 5dbe 9090 49be

ConvNet.2.weight f4 [32, 64, 4, 4]
0.007875819 -0.0026196353 0.017555147 -0.011673067 0.0023649447 0.012565102 0.023846623 -0.01742353
0.008552626 -0.008876663 0.0060426146 0.014715143 -0.0001673922 0.028531209 -0.012568228 -0.009479195
0.023273755 0.0014774874 0.013264686 -0.019199852 -0.009244688 -0.025904931 0.013559751 -0.024196822
-0.013498485 0.016967658 0.0012785606 -0.015666466 0.030927856 0.0104074925 0.004189566 -0.018724527
-0.025824808 0.028970703 -0.0190444 0.02719294 0.012775682 0.030311897 0.020327996 -0.017657943
0.006393902 -0.0010952316 -0.010984659 -0.025050644 0.010136183 -0.019212306 0.008926056 0.0074225366
-0.017320432 0.005978711 -0.017796066 -0.024085589 -0.0037888512 0.013340421 -0.028057877 0.0104645565
-0.0032807253 -0.022843368 0.031122398 0.0059934333 -0.018003952 -0.011650175 0.017495066 -0.006483294
0.029139109 -0.024075694 -0.019567173 0.015655864 -0.013187714 0.0041498207 -0.009415492 -0.0074743256
-0.017002199 -0.030328888 0.026884958 -0.010875352 -0.008144081 0.0005765483 -0.00049733 0.0061520226
-0.024860159 0.001561325 -0.0062940978 0.016184013 0.009799421 -0.016671002 0.030473113 -0.024613678
0.028903961 -0.029524371 -0.0048954412 0.026277605 0.02151455 -0.011443011 0.025056314 0.0039048158
-0.027740002 -0.004949242 0.011994738 -0.030752618 -0.008461766 0.027381111 -0.021280188 -0.00663336
0.022924386 -0.0053870827 -0.017633703 0.010551266 -0.006234333 0.003694877 -0.0066169314 0.0277225
-0.0111555755 0.013438329 0.019403696 -0.0166348 -0.0077965893 0.019287683 0.023116373 -0.0031145737
0.004000962 0.0024167374 0.004928209 -0.010035038 0.023845732 0.0034190305 -0.006894361 0.015820764
0.005796261 0.006913729 0.028264489 -0.031052835 -0.017916363 -0.017997138 -0.014491845 -0.029410783
0.017106365 0.009735845 -0.0097258985 -0.0086562 -0.019591648 0.0065329634 0.019738954 -0.014759153
0.015738115 -0.019251898 0.02192903 0.022876065 -0.012461614 0.015633684 0.028625917 0.019364562
-0.013702713 0.029652715 0.009023707 -0.004483763 -0.030256275 0.005279187 -0.029786091 -0.011531372
-0.00071650743 0.021984838 -0.015200824 0.02163288 -0.025102474 0.025130149 -0.0044970773 0.008234698
-0.0023442134 0.022342976 -0.003121011 0.0093333535 0.017396208 -0.011418544 -0.028538272 0.02141904
0.011737641 0.0060063377 0.006876603 0.023371521 0.006885309 -0.009224188 -0.0050202943 0.010062814
0.007794112 0.024887994 -0.028463539 0.016048882 -0.017032947 0.0050179027 -0.010587264 0.028344933
0.025795102 -0.013854444 0.011884607 -0.005333703 -0.025899734 -0.005707741 -0.017198794 0.009430118
0.017657366 -0.0067086667 0.0041848905 0.012324579 -0.0034384727 0.016123597 -0.021701574 -0.027685307
-0.024852037 0.015969232 0.027511045 -0.00096515566 0.028436791 -0.030931234 0.012836501 -0.010774285
0.018385362 -0.030629538 0.0025839433 -0.005695883 -0.018603228 -0.0064116716 -0.0007351674 -0.02515519
0.021634437 0.02954229 -0.021123879 0.030763242 -0.007880427 0.025929518 0.0030538104 0.0014508106
-0.025361657 0.015277911 -0.023214068 -0.0043347627 -0.027366031 -0.007576585 -0.00083906204 0.014752418
0.014128998 0.030906804 -0.014296364 -0.009105887 0.013917696 0.018974345 -0.014873892 -0.011806499
0.009639695 -0.00018901005 0.020028375 -0.004659623 0.0043867305 0.015766326 -0.0025249422 0.025473718
00000000: 9409 013c 30ae 2bbb d0cf 8f3c 6440 3fbc
00000010: 30fd 1a3b dcdd 4d3c fe59 c33c cabb 8ebc
00000020: 5020 0c3c 6c6f 11bc 2001 c63b c817 713c
00000030: 0086 2fb9 48ba e93c f8ea 4dbc a04e 1bbc
00000040: 9aa8 be3c 40a8 c13a 2054 593c 0249 9dbc
00000050: 0877 17bc 9436 d4bc b829 5e3c 6a38 c6bc
00000060: c028 5dbc c2ff 8a3c 6095 a73a f656 80bc
00000070: 6a5c fd3c 3084 2a3c a048 893b 2e64 99bc
00000080: 8c8e d3bc f853 ed3c 0003 9cbc bac3 de3c
00000090: 1851 513c a850 f83c e686 a63c 64a7 90bc
000000a0: f083 d13b e08d 8fba 00f9 33bc 0237 cdbc
000000b0: 3c12 263c 2063 9dbc 983e 123c c038 f33b
000000c0: 94e3 8dbc 10e9 c33b 0ec9 91bc 244f c5bc
000000d0: 604e 78bb c891 5a3c a2d9 e5bc 8873 2b3c
000000e0: 7001 57bb 0422 bbbc 66f4 fe3c 9064 c43b
000000f0: 067d 93bc 60e0 3ebc d051 8f3c d071 d4bb
00000100: 24b5 ee3c 643a c5bc 564b a0bc ba40 803c
00000110: 4811 58bc 38fb 873b 7043 1abc 30eb f4bb
00000120: 3248 8bbc 4a74 f8bc d83d dc3c 882e 32bc
00000130: c06e 05bc 8023 173a 405f 02ba e896 c93b
00000140: 88a7 cbbc 60a5 cc3a b83e cebb 5694 843c
00000150: c08d 203c a091 88bc c0a2 f93c a0a2 c9bc
00000160: 00c8 ec3c 18dd f1bc f069 a0bb 2244 d73c
00000170: 483f b03c 787b 3bbc e642 cd3c f0e7 7f3b
00000180: 003f e3bc 402d a2bb 9485 443c eaec fbbc
00000190: 38a3 0abc 5a4e e03c ca53 aebc a85c d9bb
000001a0: eccb bb3c 2086 b0bb 8e74 90bc 38df 2c3c
000001b0: 6049 ccbb c025 723b d8d2 d8bb 4c1a e33c
000001c0: e0c5 36bc 702c 5c3c 80f4 9e3c b445 88bc
000001d0: 887a ffbb 3401 9e3c 8c5e bd3c e01d 4cbb
000001e0: 801a 833b 2062 1e3b d07c a13b 006a 24bc
000001f0: 2058 c33c d011 603b 18ea e1bb 8c9a 813c
00000200: 90ee bd3b 908c e23b ee8a e73c 8462 febc
00000210: 56c5 92bc bc6e 93bc 346f 6dbc e2ee f0bc
00000220: a622 8c3c 1883 1f3c 6059 1fbc bcd2 0dbc
00000230: aa7e a0bc 7812 d63b 96b3 a13c 60d0 71bc
00000240: 38ed 803c 28b6 9dbc 82a4 b33c 9666 bb3c
00000250: cc2b 4cbc 3612 803c e680 ea3c 6ea2 9e3c
00000260: 5881 60bc 40ea f23c 2cd8 133c 88ec 92bb
00000270: 02dc f7bc 08fd ac3b f601 f4bc 14ee 3cbc
00000280: 00d4 3bba 8c19 b43c e00c 79bc 7037 b13c
00000290: b4a3 cdbc bedd cd3c 385c 93bb d4ea 063c
000002a0: 60a1 19bb 9e08 b73c e089 4cbb ecea 183c
000002b0: 7e82 8e3c d814 3bbc 18c9 e9bc fc76 af3c
000002c0: 3c4f 403c d0d0 c43b 2055 e13b a275 bf3c
000002d0: 289e e13b 0c21 17bc 4881 a4bb 80de 243c
000002e0: c065 ff3b e8e1 cb3c 5e2c e9bc f278 833c
000002f0: ae88 8bbc 386d a43b 3476 2dbc a233 e83c
00000300: 4050 d33c c0fd 62bc a8b7 423c 58c6 aebb
00000310: ae2b d4bc 0008 bbbb 7ce4 8cbc c880 1a3c
00000320: 2ea6 903c 60d4 dbbb 6821 893b 08ed 493c
00000330: 0058 61bb a215 843c 80c7 b1bc 4ccc e2bc
00000340: 8096 cbbc e8d1 823c d85e e13c 8002 7dba
00000350: 46f4 e83c 8063 fdbc 3050 523c a086 30bc
00000360: e69c 963c ccea fabc 6057 293b 88a4 babb
00000370: cc65 98bc 0019 d2bb 40b8 40ba 4212 cebc
00000380: b43a b13c ac02 f23c fc0b adbc 3203 fc3c
00000390: e81c 01bc 246a d43c 7022 483b 2029 be3a
000003a0: 40c3 cfbc 3450 7a3c 6e2b bebc a00a 8ebb
000003b0: ba2e e0bc 0045 f8bb 80f4 5bba 20b4 713c
000003c0: 507d 673c 4430 fd3c 4c3b 6abc dc30 15bc
000003d0: 0c07 643c 1670 9b3c a0b1 73bc 0c70 41bc
000003e0: d0ef 1d3c 0031 46b9 8c12 a43c c0af 98bb
000003f0: 90be 8f3b 6228 813c 8079 25bb 42ae d03c

ConvNet.2.bias f4 [32]
-0.02108116 0.015499517 0.027141478 -0.02507697 -0.008191247 -0.020015009 0.0139559135 -0.013451923
-0.010992192 -0.0284108 -0.030657291 0.021048542 -0.018816888 0.012885839 0.0066237897 -0.010824323
-0.0038642175 -0.0039384253 -0.003456127 -0.016187906 0.021071717 0.003975272 0.027539983 -0.025844965
-0.013564926 -0.018725216 0.0040650554 -0.020726014 -0.019339856 -0.018141642 -0.026893739 0.020991247
00000000: 66b2 acbc b0f1 7d3c ce57 de3c 386e cdbc
00000010: 9434 06bc 84f6 a3bc 58a7 643c 7465 5cbc
00000020: 9818 34bc c4bd e8bc 0025 fbbc fe6d ac3c
00000030: e025 9abc 201f 533c 600c d93b 8058 31bc
00000040: d03e 7dbb e80d 81bb 3080 62bb 809c 84bc
00000050: 989e ac3c 0043 823b 889b e13c d2b8 d3bc
00000060: 6c3f 5ebc a065 99bc 2834 853b 9ac9 a9bc
00000070: 9e6e 9ebc c89d 94bc 4250 dcbc d6f5 ab3c

ConvNet.4.weight f4 [16, 32, 3, 3]
0.00041916594 -0.029244252 -0.046992984 0.016344424 0.001605086 -0.034660943 -0.03644401 0.04264402
-0.048407726 -0.010231864 -0.0061521046 0.057854 -0.03168364 -0.03533622 -0.030086739 -0.009463184
0.0037351064 -0.016113821 -0.025568724 0.044489156 -0.03172256 0.036025804 0.03916761 -0.042879395
0.026355144 0.013365146 0.025520165 0.049222354 -0.05280342 0.009699363 0.029698517 -0.024848223
-0.03496772 -0.051539864 0.05169868 0.032118235 -0.055571787 -0.01856707 0.0137408115 -0.041596066
0.039478403 -0.02719361 0.01033384 0.027175818 0.05509742 -0.04899375 0.018876176 0.010454591
0.017916646 -0.048792332 -0.012601584 0.03537837 -0.030632125 -0.033645086 0.048290472 0.022576686
-0.012105994 -0.026984315 0.02684715 0.024313059 0.012597803 0.003626544 -0.053910736 -0.013033982
-0.057755575 -0.0060950816 -0.042128354 0.044044968 0.020411212 0.035066497 -0.014957227 0.0048355125
-0.045661937 0.04615892 0.008673016 -0.038367126 -0.038362645 -0.044845168 -0.016813438 0.051991586
0.019659188 -0.044850063 -0.0011963509 0.027745146 -0.03162177 0.04884379 0.0187069 0.04124162
0.001728069 0.051920924 0.03257187 0.051337343 0.007003639 -0.03600511 -0.008446734 -0.022452988
-0.02414399 -0.04859861 0.011744011 0.022134941 0.045581315 0.009264749 0.020132486 -0.0088322945
-0.057694696 -0.0065418594 -0.05468871 0.006236244 -0.051440954 -0.04323732 0.032717716 0.035885636
-0.0020377524 0.043136355 0.026109729 -0.01669991 -0.031979427 -0.05691734 0.04709715 -0.025020517
0.013888095 -0.0066769123 0.035777066 0.03389206 -0.004049264 0.018970046 -0.014167275 -0.004649788
-0.030472578 -0.018030647 0.004788395 -0.03866566 0.049907688 -0.017246556 0.025309559 0.048875656
0.023378875 0.035470415 -0.022133298 -0.0004614815 0.023971107 -0.047641 0.05419076 -0.003001038
0.008085389 0.005117152 -0.029478615 0.019453216 -0.001302205 -0.03131232 0.033772793 0.0131508075
-0.038850486 0.0577907 -0.045736834 -0.024789289 -0.03089591 -0.036129482 -0.057648882 0.021249983
-0.009126794 0.055028204 0.026458334 0.01738071 -0.013139885 -0.0072122663 0.04518723 -0.010105528
-0.05288791 -0.003675513 0.038725484 0.045391846 0.028235484 0.05231492 -0.0018533021 0.04532108
-0.030281646 0.033869084 -0.014344778 0.04209881 0.05295646 0.015771281 -0.055284936 -0.054873105
0.029011544 -0.049442574 -0.033103336 0.037720453 -0.057254884 -0.0035420693 -0.006682206 0.0014283694
0.0073852204 0.047944736 -0.050911188 -0.024207808 0.051886056 0.025976773 -0.05483348 -0.00042504445
0.030175958 0.054663118 -0.016731441 -0.0240024 -0.049194258 0.032414984 0.024292286 -0.022142872
-0.0129135065 -0.030412829 0.029172119 -0.0016424283 -0.010864094 -0.021912426 -0.012831897 0.016231965
0.03416114 0.024666112 -0.04884255 -0.007768851 0.008324165 -0.037415266 0.056727063 0.019779507
0.023060847 0.011750352 0.028386544 0.019792128 -0.0111727305 0.024193984 0.017130423 0.047420796
0.0048306845 -0.05582377 -0.025880504 0.030102331 -0.04595235 0.025594797 -0.057729654 0.042603765
0.021585148 -0.055725053 -0.033220194 -0.013452128 0.005039934 0.02714857 0.04517803 0.010297198
-0.054797217 0.047461513 0.037849773 -0.028889824 0.04903074 0.002915524 0.034509998 0.03777003
00000000: 80c3 db39 a491 efbc b77b 40bd bee4 853c
00000010: c061 d23a a2f8 0dbd 5046 15bd 7fab 2e3d
00000020: 2e47 46bd 8ca3 27bc 9897 c9bb 51f8 6c3d
00000030: b4c6 01bd b6bc 10bd 7778 f6bc 780b 1bbc
00000040: b0c8 743b 2201 84bc 8075 d1bc 433a 363d
00000050: 84ef 01bd cb8f 133d 376e 203d 4ea2 2fbd
00000060: bee6 d73c 7cf9 5a3c aa0f d13c 619d 493d
00000070: 6648 58bd 14ea 1e3c 4e4a f33c 808e cbbc
00000080: 503a 0fbd 771b 53bd ffc1 533d 698e 033d
00000090: 3e9f 63bd f819 98bc 2421 613c a360 2abd
000000a0: 1bb4 213d 22c5 debc 444f 293c d29f de3c
000000b0: d5ad 613d acad 48bd 36a2 9a3c bc49 2b3c
000000c0: eec5 923c 78da 47bd e076 4ebc e9e8 103d
000000d0: 39f0 fabc 6ecf 09bd 3bcc 453d bef2 b83c
000000e0: 3858 46bc 360e ddbc 8eee db3c 2e2c c73c
000000f0: 0467 4e3c 50ab 6d3b 81d1 5cbd 7c8c 55bc
00000100: 1c91 6cbd 40b9 c7bb c88e 2cbd 7f68 343d
00000110: 6a35 a73c e3a1 0f3d 280f 75bc 3873 9e3b
00000120: 0308 3bbd 2311 3d3d 4419 0e3c d926 1dbd
00000130: 2622 1dbd 91af 37bd 56bc 89bc 21f5 543d
00000140: 4e0c a13c b3b4 37bd e0ce 9cba ca49 e33c
00000150: d485 01bd 6d10 483d 363f 993c f9ec 283d
00000160: 6080 e23a 09ab 543d 156a 053d 1b47 523d
00000170: c87e e53b 187a 13bd 2c64 0abc 54ef b7bc
00000180: 9ec9 c5bc 560f 47bd f469 403c 5654 b53c
00000190: 79b3 3a3d 2ccb 173c e2ec a43c 54b5 10bc
000001a0: 4651 6cbd 185d d6bb 4501 60bd 6859 cc3b
000001b0: c0b3 52bd 9e19 31bd 0303 063d d1fc 123d
000001c0: d08b 05bb bfaf 303d 12e4 d53c 40ce 88bc
000001d0: dcfc 02bd 2822 69bd f1e8 403d d4f7 ccbc
000001e0: e48a 633c 00ca dabb f98a 123d 67d2 0a3d
000001f0: b0af 84bb 1267 9b3c dc1d 68bc 405d 98bb
00000200: a1a1 f9bc 02b5 93bc f8e7 9c3b e25f 1ebd
00000210: 016c 4c3d a648 8dbc fe55 cf3c d731 483d
00000220: 0e85 bf3c 6d49 113d e450 b5bc 00f3 f1b9
00000230: 0e5f c43c 3623 43bd 21f7 5d3d 10ad 44bb
00000240: 9478 043c c8ad a73b 237d f1bc 5a5c 9f3c
00000250: c0ae aaba 5941 00bd 5755 0a3d 7c76 573c
00000260: b021 1fbd f1b5 6c3d 8c56 3bbd e812 cbbc
00000270: 6b19 fdbc 82fc 13bd 3c21 6cbd 7214 ae3c
00000280: 8c88 15bc 4165 613d 26bf d83c fe61 8e3c
00000290: ac48 57bc e054 ecbb 3f16 393d a891 25bc
000002a0: fea0 58bd e0e0 70bb 9d9e 1e3d cdec 393d
000002b0: 1a4e e73c 2b48 563d 80ea f2ba 99a2 393d
000002c0: 3711 f8bc 4fba 0a3d 5c06 6bbc cd6f 2c3d
000002d0: dfe8 583d c632 813c 7572 62bd 9fc2 60bd
000002e0: 9ea9 ed3c 4c84 4abd 5d97 07bd c380 1a3d
000002f0: 1984 6abd 1022 68bb 68f6 dabb 2038 bb3a
00000300: b8ff f13b b361 443d 4088 50bd 744f c6bc
00000310: 7986 543d 3ecd d43c 1299 60bd 80d8 deb9
00000320: 9233 f73c 6fe6 5f3d 6010 89bc aea0 c4bc
00000330: eb7f 49bd 93c5 043d 9e00 c73c f864 b5bc
00000340: 2c93 53bc 5324 f9bc 5efa ee3c c046 d7ba
00000350: 50ff 31bc b081 b3bc e03c 52bc e6f8 843c
00000360: 8dec 0b3d 9610 ca3c 200f 48bd d891 febb
00000370: 1462 083c c040 19bd a35a 683d a208 a23c
00000380: 1aea bc3c 8c84 403c e68a e83c 1a23 a23c
00000390: d40d 37bc 7632 c63c 1a55 8c3c 4f3c 423d
000003a0: b84a 9e3b 77a7 64bd 5a03 d4bc 2a99 f63c
000003b0: 8838 3cbd 2eac d13c ee75 6cbd 4981 2e3d
000003c0: 56d3 b03c f43f 64bd e611 08bd 5066 5cbc
000003d0: 0826 a53b ae66 de3c 990c 393d 94b5 283c
000003e0: 0c73 60bd 0167 423d 5d08 1b3d 5aaa ecbc
000003f0: 75d4 483d 6012 3f3b 5b5a 0d3d bfb4 1a3d

ConvNet.4.bias f4 [16]
0.052072365 -0.028934985 -0.014626805 -0.00031676143 -0.027828552 -0.040486813 -0.03824953 -0.024076171
0.045843247 0.047717903 -0.00045590103 -0.0533805 0.05321039 -0.015885253 0.010625523 0.035631213
00000000: d549 553d 1009 edbc 44a5 6fbc 0013 a6b9
00000010: b4f8 e3bc 80d5 25bd 8aab 1cbd 643b c5bc
00000020: 21c6 3b3d d973 433d 0006 efb9 83a5 5abd
00000030: 23f3 593d ca21 82bc ac16 2e3c 09f2 113d

ConvNet.6.weight f4 [2, 16, 5, 5]
0.026274417 0.021310735 0.01427995 -0.018529497 -0.044363547 -0.038223844 0.048727546 -0.046254154
0.0030013695 -0.022270108 0.034096505 -0.021794636 -0.005885076 -0.04945245 -0.00122872 0.03635684
-0.049109705 0.047255177 -0.0056822374 -0.007460028 -0.0015739426 0.0075541846 0.031381693 0.030363623
0.04571521 -0.043927487 -0.040654927 0.04005939 -0.038969845 0.021491159 0.038518693 0.013752621
0.04991052 -0.0038082711 -0.007681079 0.015903104 -0.03299319 0.047606315 0.029424343 0.025929768
-0.04037584 0.031061236 0.040765863 -0.03485351 0.0014344044 -0.009196989 -0.029359167 -0.011592694
-0.01105224 0.017451022 0.010839194 0.028982509 0.021707814 0.03453901 0.039614994 -0.036525704
-0.04479236 0.036782037 0.019772727 -0.018137693 1.8633902e-05 0.03847679 0.045662988 -0.044600338
0.04800317 -0.049007665 0.023853142 -0.03233259 -0.022517819 -0.032607183 -0.00397446 0.04826929
0.04162957 0.031762782 -0.046961676 0.014286507 0.026568647 -0.010267377 -0.039057422 -0.0017381683
-0.008032091 -0.00033790618 0.0005527958 0.026389424 -0.024435444 -0.03011455 0.00060587004 -0.033687726
-0.00022878498 -0.009114541 0.0013719685 -0.04651606 -0.012476973 0.027807746 0.033936102 0.035324212
-0.02115482 0.023917075 -0.045969754 0.033593345 0.047691207 -0.0013472252 0.049667884 -0.02884459
-0.013843201 -0.028540004 -0.023967916 -0.009774845 -0.022763062 0.02296492 0.020125221 0.008232545
0.043209087 0.033846203 -0.045753945 0.032869015 0.030017827 0.029445771 -0.0379846 0.010598399
0.018056948 0.046704445 0.007585317 -0.022235854 -0.029174848 0.034270827 0.023559246 -0.001597859
-0.028474046 0.0015845187 0.03754611 -0.023562998 -0.03840881 0.008184571 -0.046336025 -0.0470977
0.049377207 -0.015651107 -0.038769025 -0.0137209 -0.03862851 0.0015290678 -0.046688426 -0.019255335
-0.019834483 -0.030946178 -0.042226214 0.0056580827 -0.00791971 0.03805137 0.034773182 -0.0063359216
-0.03499707 0.021611158 -0.04826671 -0.036958348 0.04255591 -0.031728692 0.0060342923 -0.018995643
0.033698965 -0.02468816 0.007006556 0.017721388 -0.012614943 0.038430776 0.011719257 -0.044327088
0.028378647 -0.03445398 -0.00087589025 -0.03499368 0.028451722 0.01728506 -0.045547433 -0.04443882
0.027655374 -0.019800384 0.039110865 0.023107093 -0.0021260604 -0.008188982 -0.032338 0.04974932
-0.048261482 -0.038048577 -0.027772969 -0.010492332 -0.024441076 -0.001852952 0.008265335 -0.039912693
-0.036505796 -0.03532834 -0.048194297 0.011637997 -0.03895228 -0.037507128 -0.0112679005 -0.022112852
-0.005926691 0.04514358 0.047176186 0.039091203 0.048539016 -0.014149189 -0.038340718 -0.04162972
0.040818665 0.02242041 0.011755288 -0.03625258 -0.015439678 0.034059357 -0.03380096 0.033243272
0.04982618 -0.047343668 0.030640129 0.04096425 0.036723796 0.043971468 0.025842045 0.04869147
-0.014190733 0.026160512 0.03307805 0.0029788427 -0.020238293 0.043146756 0.021614123 -0.03657987
0.021631543 0.04224619 0.015719723 0.029347632 -0.0019837506 0.048299085 -0.012755699 0.0148643665
-0.022588087 0.02220035 0.011940457 0.036639754 0.02207819 -0.03615893 -0.029715462 0.028335635
0.009212125 0.042068947 0.03735439 0.024959859 -0.036804926 -0.047782447 -0.018384717 0.03691585
00000000: 723d d73c da93 ae3c 74f6 693c 2ccb 97bc
00000010: 8db6 35bd 9b90 1cbd 8996 473d ff74 3dbd
00000020: a0b2 443b cd6f b6bc c7a8 0b3d aa8a b2bc
00000030: 98d7 c0bb a78e 4abd 000d a1ba e9ea 143d
00000040: 4227 49bd a58e 413d 1032 babb 4073 f4bb
00000050: c04c ceba 1889 f73b 178a 003d 22bd f83c
00000060: df3f 3b3d 4fed 33bd c885 26bd 5115 243d
00000070: d89e 1fbd 3a0e b03c c7c5 1d3d ac52 613c
00000080: f96e 4c3d 3094 79bb 90b1 fbbb 3a47 823c
00000090: de23 07bd d7fe 423d 520b f13c aa6a d43c
000000a0: 2361 25bd 2274 fe3c 1bfa 263d 8ec2 0ebd
000000b0: a002 bc3a f8ae 16bc a382 f0bc 48ef 3dbc
000000c0: 7414 35bc 72f5 8e3c e096 313c ba6c ed3c
000000d0: 96d4 b13c c778 0d3d 5543 223d fa9b 15bd
000000e0: 3278 37bd c3a8 163d 6afa a13c 8095 94bc
000000f0: 0050 9c37 d799 1d3d 1d09 3b3d d8ae 36bd
00000100: f99e 443d 43bc 48bd aa67 c33c 2e6f 04bd
00000110: 4a77 b8bc 1c8f 05bd 303c 82bb 05b6 453d
00000120: c583 2a3d b119 023d e35a 40bd f411 6a3c
00000130: 7ea6 d93c 8038 28bc adfa 1fbd 40d3 e3ba
00000140: 0899 03bc 0029 b1b9 80e9 103a a22e d83c
00000150: d72c c8bc cab2 f6bc 40d3 1e3a 24fc 09bd
00000160: 00e6 6fb9 2855 15bc a0d3 b33a a087 3ebd
00000170: 386c 4cbc 12cd e33c 9500 0b3d 1fb0 103d
00000180: e04c adbc beed c33c c84a 3cbd 2d99 093d
00000190: db57 433d 6095 b0ba 8d70 4b3d 7d4b ecbc
000001a0: 98ce 62bc bacc e9bc 5d58 c4bc ac26 20bc
000001b0: 9a79 babc ee20 bc3c a6dd a43c cce1 063c
000001c0: 03fc 303d 51a2 0a3d 7d68 3bbd a9a1 063d
000001d0: f2e7 f53c 4238 f13c bd95 1bbd e8a4 2d3c
000001e0: 2aec 933c 294d 3f3d 408e f83b f727 b6bc
000001f0: 1700 efbc 915f 0c3d 52ff c03c 406f d1ba
00000200: 6742 e9bc a0af cf3a f3c9 193d 3007 c1bc
00000210: 8e52 1dbd 9418 063c d8ca 3dbd 85e9 40bd
00000220: c13f 4a3d c036 80bc 45cc 1ebd a0cd 60bc
00000230: ee38 1ebd 006b c83a 5d3c 3fbd 5dbd 9dbc
00000240: ed7b a2bc d782 fdbc 65f5 2cbd 7067 b93b
00000250: acc1 01bc c1db 1b3d 536e 0e3d 909d cfbb
00000260: 1659 0fbd e209 b13c 50b3 45bd a361 17bd
00000270: 1b4f 2e3d f2f5 01bd 50bb c53b c09c 9bbc
00000280: ed07 0a3d d33e cabc 4097 e53b 722c 913c
00000290: e8ae 4ebc 9769 1d3d 2002 403c 5290 35bd
000002a0: 567a e83c 9e1f 0dbd 009c 65ba 8855 0fbd
000002b0: 9613 e93c 6699 8d3c f28f 3abd 7b05 36bd
000002c0: 868d e23c 6a34 a2bc b732 203d 164b bd3c
000002d0: 6055 0bbb 142b 06bc da74 04bd f1c5 4b3d
000002e0: d5ad 45bd d3d8 1bbd 2384 e3bc 08e8 2bbc
000002f0: a738 c8bc c0de f2ba 546b 073c 7e7b 23bd
00000300: 1a87 15bd 73b4 10bd 6267 45bd 4cad 3e3c
00000310: 6d8c 1fbd 13a1 19bd 009d 38bc 0326 b5bc
00000320: b034 c2bb 79e8 383d d13b 413d 191e 203d
00000330: d9d0 463d 00d2 67bc 280b 1dbd ed83 2abd
00000340: 7931 273d 02ab b73c 4099 403c 967d 14bd
00000350: b4f6 7cbc d381 0b3d e072 0abd 192a 083d
00000360: 8916 4c3d 6feb 41bd 0201 fb3c 21ca 273d
00000370: b16b 163d 6d1b 343d b2b2 d33c b570 473d
00000380: 4080 68bc 924e d63c d97c 073d b038 433b
00000390: c7ca a5bc a7ba 303d 1a10 b13c c6d4 15bd
000003a0: a234 b13c 570a 2d3d a6c6 803c 726a f03c
000003b0: d001 02bb 43d5 453d 48fd 50bc ac89 733c
000003c0: a70a b9bc 82dd b53c e8a1 433c 9113 163d
000003d0: 52dd b43c 631b 14bd d76d f3bc 2220 e83c
000003e0: 74ee 163c 7d50 2c3d eb00 193d 9e78 cc3c
000003f0: c3c0 16bd 87b7 43bd 8c9b 96bc 1335 173d

ConvNet.6.bias f4 [2]
0.007003825 0.042877797
00000000: 5880 e53b a1a0 2f3d
