2048-Project/DQN/2048-Project/model/2048_DQN.pt (torch, 317551 bytes, 8 tensors)

ConvNet.0.weight f4 [64, 1, 3, 3]
00000000: a941 773e 5032 853e 1eec 5dbe 184d aabe
00000010: 21de cd3d 69cf 9f3e 1941 5abe dae2 b4be
00000020: 1fc1 b63e 7856 96be 2d42 aa3e 3df7 483e
00000030: add8 85bd e835 293e 2fb4 89be d586 23be
00000040: 9d58 78be d388 753e b825 7fbe 0840 863d
00000050: ac31 beba b95a 413e ef7a c93d 2d82 593d
00000060: 4905 60be d1a0 3d3e 1faf 56be 6608 c23d
00000070: 9136 083e 4fa5 d4be c5be 3a3e d7df 92bc
00000080: 9e3d cf3e e238 b03b f930 ca3c 1ce2 8a3d
00000090: ff6a 99be 84df aa3e 4a16 313b 968e 04bf
000000a0: 5e51 00bf e99d 143d b7d4 cbbd f402 14bf
000000b0: 4057 78be 8641 25bd 42dd 1fbf 77df 8abe
000000c0: a3f4 aebd f0b7 2e3e b42b 8cbe f852 c63d
000000d0: d93d 013e cb52 7d3e b77f e7bd a8db 093e
000000e0: e389 31be 6871 693d 6ca3 b5bd 4134 cd3e
000000f0: 8615 563b 9197 863e c3a8 2dbe 6c2b b9bd
00000100: 004e 2d3b 161e 81be e391 35be 5df9 5abe
00000110: b58a 8e3e 9e4b 7fbe 4fb5 e63d 9226 85be
00000120: fbac eebe bfc8 173e 1c7a 933e 7e55 92be
00000130: 76ff c13d d069 813e a038 293e 6d57 51bd
00000140: d317 33be b105 2d3e 6438 0cbe 30d7 95bd
00000150: f9a7 af3e 757f 063e ce67 79bd a8dc d23d
00000160: 8b2d a9be a78b 4dbc 6cdb 82be fa7d 773e
00000170: 8874 bb3e 061d 373d e496 823e f373 4bbe
00000180: b123 353d 8897 3c3e 499f 233e a42e 033d
00000190: 52c0 843e da50 9b3e d418 cebe 9e31 63bd
000001a0: 8c11 2f3e cd34 25be 6719 d33d 2569 34be
000001b0: 1341 4b3e dbb5 6ebd 18fb 85be f472 063e
000001c0: 3daf 833e 2dba 95be 08f5 073e c054 df3b
000001d0: ab18 56be 802a 83bc c403 a2bd 0fd3 a6be
000001e0: 9ebc 15be be4f 74be a779 843e a892 5dbd
000001f0: 8035 5fbc 8cd2 fcbd 14aa 943e 8f71 383e
00000200: 2e60 a23e b4ee b73d c309 623e 461d 933e
00000210: d581 e93d ea75 aabc 336f 0d3e dde0 69be
00000220: c9fb de3d 61db 3e3e 903c 86be 0bcc adbc
00000230: 0199 c13e c65b 4b3e b831 793d 6abd f2bd
00000240: 49a4 64be a959 b4be 262a 11bf 62b6 063e
00000250: f8a8 d73c f2a6 4bbe efaa 9e3e 9d98 763e
00000260: 8dcc a13d f93d 5ebd a1be 32bf d87e 0bbf
00000270: 6be3 c73c 4e50 76be da04 c83e 91a6 9d3e
00000280: 7e24 893e 924c 8a3e 7362 2ebd edfd 02bf
00000290: e6be 9fbe 1672 0f3e 881e e63d 615f 45bc
000002a0: 262f 19be 12b2 993e 4bc9 b93e 05a3 b73e
000002b0: 442a e7bc 4cae 543d 048f 85bd 7c55 cbbd
000002c0: 974b 063a 79a7 34be 68ad a3be 9dde a4be
000002d0: 5e4a 5cbe 2cd8 203e 1056 a73e 5c0b 203e
000002e0: 5a34 f9bd db30 b5be 1698 a5be 2d0f 8b3d
000002f0: 770a 9cbd 7c03 943e c474 b13e 002d 64bd
00000300: 0916 00be 5f19 413e 85bb 43be 33cd b43e
00000310: f04d 113e cb28 16be 3af6 6fbe c7b9 b5be
00000320: 831f e73d 9079 8cbe 39f0 1c3e 62eb 463e
00000330: d8ad 013e bd5a 22bd 129e ba3e d392 dbbd
00000340: 96ba d43c fd79 a8be cd75 dc3c c742 b8be
00000350: 6554 a23d 71e2 2e3a 5aea 80bd 845a 883e
00000360: f2b4 acbe d43d 2d3d f4b1 d2bd 1812 1b3e
00000370: 3d54 a0bc aa11 c13d cdd9 05bf e48e 9c3e
00000380: 1868 64bd 1cef c4bd 58a9 813e 0870 c1bd
00000390: 6933 26be a267 7f3e 9ca5 673e e851 fe3d
000003a0: 0bd7 3fbd 07c3 e03a 6ec7 86be 5c8a 8abd
000003b0: c114 b03d a018 27bc deed 433e 56da 64be
000003c0: 606b 2cbc 6a27 613e bbf0 a1be dd45 8f3e
000003d0: 2354 adbe 4b31 843e eba9 263e 520b 913e
000003e0: 458f 60be 567a 6b3e 206c 633e 7402 a1be
000003f0: c6a4 74be 8c41 343e 45a4 d5bd fb15 5a3e
0.24146141 0.26014948 -0.21672103 -0.33261943 0.10052133 0.3121293 -0.21313895 -0.35329324
0.35694215 -0.29362845 0.33253613 0.19625564 -0.06535468 0.1652447 -0.26895282 -0.15969403
-0.24252553 0.23977976 -0.24916732 0.06555182 -0.0014510653 0.18882264 0.09837901 0.05310266
-0.21877016 0.18518378 -0.20965241 0.09474258 0.13302065 -0.4153237 0.18236835 -0.017929
0.40476698 0.0053778747 0.024681555 0.06781408 -0.29964444 0.33373654 0.0027021342 -0.5178007
-0.50124156 0.036283407 -0.099526815 -0.57817006 -0.24252033 -0.04034569 -0.6244699 -0.27123615
-0.085427545 0.17062354 -0.27377093 0.09683794 0.1262125 0.24738614 -0.113036565 0.13462698
-0.17337756 0.05699292 -0.08869061 0.4007893 0.0032666638 0.2628751 -0.16958909 -0.09041485
0.0026444197 -0.25218266 -0.17731433 -0.21384187 0.278402 -0.2493119 0.112650506 -0.2600599
-0.4661635 0.14822672 0.288041 -0.2858085 0.094725534 0.2527604 0.16525507 -0.051108766
-0.17489557 0.16896702 -0.13693386 -0.073164344 0.3430784 0.13134558 -0.06089001 0.10295993
-0.3304256 -0.012545503 -0.2555803 0.2416915 0.36612344 0.044705413 0.25505745 -0.1986845
0.04422349 0.1841718 0.15978731 0.0320269 0.2592798 0.30335122 -0.40253317 -0.05546724
0.17096537 -0.16133423 0.103075795 -0.17618234 0.19849043 -0.0582789 -0.26168132 0.13129789
0.25719634 -0.29243603 0.13277066 0.006815523 -0.20907848 -0.016011477 -0.079108745 -0.325829
-0.14622733 -0.23858544 0.25874063 -0.05409494 -0.013623595 -0.12344846 0.2903601 0.18012069
0.31714004 0.08981076 0.22074036 0.2873327 0.114017166 -0.020808179 0.1381195 -0.22839685
0.10887868 0.18638374 -0.2621808 -0.02121546 0.37812045 0.19859228 0.06083843 -0.11852534
-0.22328295 -0.35224655 -0.5670494 0.13155511 0.026325688 -0.19887903 0.30989787 0.24081655
0.07900343 -0.05425832 -0.69822127 -0.54490423 0.024400434 -0.24054071 0.390662 0.30791143
0.26785654 0.27011544 -0.042574357 -0.5116871 -0.3120033 0.14008364 0.11236292 -0.012046666
-0.14959392 0.3001867 0.36286387 0.35866562 -0.028218396 0.051924035 -0.06521419 -0.09928414
0.0005122958 -0.17642011 -0.31968236 -0.3220109 -0.21512744 0.15707463 0.32682848 0.15629333
-0.121681884 -0.35388836 -0.32342595 0.06790004 -0.076191835 0.28908908 0.34659398 -0.055706978
-0.12508406 0.18857335 -0.19114502 0.35312805 0.14189887 -0.14663999 -0.23433772 -0.354933
0.11285307 -0.27436495 0.15326013 0.19425729 0.12663972 -0.039637316 0.36448723 -0.10721364
0.025967877 -0.3290557 0.02691164 -0.35988447 0.07926253 0.00066713156 -0.06294699 0.26631558
-0.337318 0.042295292 -0.10287848 0.15143621 -0.019571418 0.09427197 -0.5228546 0.30577767
-0.055763334 -0.09615919 0.25324512 -0.094451964 -0.16230549 0.24941877 0.22621769 0.12417966
-0.04683594 0.0017147966 -0.26324028 -0.06764671 0.085977085 -0.010198742 0.19133708 -0.22348914
-0.010523647 0.21987692 -0.31628975 0.2798299 -0.33853254 0.25818858 0.16275756 0.2832895
-0.21929653 0.22995886 0.22209215 -0.31447184 -0.23890981 0.17603129 -0.104317226 0.21297447

ConvNet.0.bias f4 [64]
00000000: 8448 dabb 4948 30bd 25e9 7f3d 307b 1fbd
00000010: 8a80 183e 458f 8f3c 24cd 7cbd 0b1f a2be
00000020: f764 5b3d cb1b c4bd 9255 13be 5832 ba3d
00000030: 1b7f e0bc a0d7 6bbe 3923 7cbe 14dd 01be
00000040: 51fc 05bd 981f 05be 3146 e83c 6eb9 ea3d
00000050: 358f 993e 61da 06be 71ce 1938 eed1 483e
00000060: 8129 ac3d a0d0 19be 1e1b 9abe 2537 e33d
00000070: 6747 a13e dfb0 443d ce58 923e 7987 58bd
00000080: 9eb9 9ebc 35c0 20be 8cbb 6e3e e3eb 7abe
00000090: 6d88 dd3d e5c3 6dbc 3603 943e fb12 283e
000000a0: 0d1a 86bc 6584 fa3d 3b0a 973e bf4a 7b3e
000000b0: 05ae 293e da56 16be bc79 79bd 6172 f13d
000000c0: aff9 01be 619c 953e 68f3 6e3d 0b6a 913e
000000d0: abcf 83be 422b 523e 9024 cabd 0334 4c3e
000000e0: bd3f a53e 9bd8 503b 35a1 b4be 9481 a1be
000000f0: 9059 96be 4097 74be 30ff a43e 12b9 23be
-0.0066614766 -0.043037686 0.062478203 -0.03893584 0.14892784 0.01752437 -0.061719075 -0.3166431
0.053563084 -0.095756136 -0.14388111 0.090916336 -0.027404359 -0.23031473 -0.24622811 -0.12681991
-0.03271133 -0.13000333 0.028353782 0.11461149 0.2999207 -0.13169242 3.6670306e-05 0.19611332
0.08406354 -0.1502099 -0.30098814 0.11094502 0.31499788 0.04802024 0.28583378 -0.05286357
-0.019375619 -0.15698321 0.23313731 -0.24504046 0.10817037 -0.014512037 0.289087 0.1641349
-0.016369844 0.122322835 0.29499993 0.24540232 0.1657029 -0.14681569 -0.06090711 0.11789394
-0.12692903 0.2922087 0.0583376 0.28401217 -0.25744376 0.20524314 -0.09870255 0.19941716
0.3227519 0.0031867388 -0.3527924 -0.31544173 -0.29365206 -0.23885822 0.32225943 -0.15988567

ConvNet.2.weight f4 [64, 64, 3, 3]
00000000: b4dc 0fbd ca5f ccbc c37c 9cbd 921f 26bd
00000010: 6f0d 67bc 1bc2 1dbe f94c b1bc 13d2 30bc
00000020: 3c6b e2bd 8535 113c 53d1 7e3b 4c00 70be
00000030: 9fb2 50bd b8a3 cfbd 73f9 06be 50d6 12bd
00000040: 0775 fabd eeaf 8abd 554a 5f3b b14d 2dbd
00000050: f4e0 abbc ba8a 25bd 3b7e ecbc 2fc1 803c
00000060: a616 473c cda7 7bbb 53f7 153d 67a9 a7bd
00000070: d6c1 5ebd b021 ecbc 7c29 d9bd 6101 71bd
00000080: bbc9 bebc 7304 c3bc dde7 7abd 80a2 5fbd
00000090: 514b 43bd 1227 d0bd b1ee e8bd c78a e8bc
000000a0: ae8b 81bc 3705 23be 7e3f aabd 2530 88bb
000000b0: 97ff bdbd 32ab 703d 8815 8f3d 80d7 0a3e
000000c0: 06c1 933d c06c c63c df18 4dbc 3dc0 a23d
000000d0: 5a61 023e dd8c 543e 7e20 02be b902 60bd
000000e0: 9dae 61bd dacb 9cbd 6e7f 133c f651 cbbc
000000f0: d28f af3a 236a 61bd 26d1 2cbd 9a9e b73c
00000100: b2f2 ae3c 0345 b5bc 3e61 f73c e059 113c
00000110: 20ae 83bc caa5 d73a 8f39 24bb c235 f33c
00000120: 5aec 143d 6ace 16bd 3c44 11bd 3ecd 013c
00000130: ec7e a63b e18c debb f298 7bbc cbb4 a4bc
00000140: 4837 a23c ff22 cd3a 8dab 9c3c 176e 603c
00000150: e249 833d ac9c a73d 0831 3c3d b6dc 913d
00000160: 52e8 c8bd 1180 013d a459 b7bd cabe 59bd
00000170: 2813 fabd c394 98bd e6bb afbc 9546 9ebd
00000180: 3c6a a9bd 5d52 5cbd d5ef 223a 2d3d 943c
00000190: 5518 87bc 1bb5 2e3c 5fb4 83bc bdd1 2b3c
000001a0: b9b7 3e3d f358 bbbb 4d44 04bd 552f 08bc
000001b0: cf27 523d 2ff6 853b 8cfe a2bb 7976 0a3e
000001c0: d742 a43d da9d 843c dff2 323e d4ba e7bb
000001d0: 9872 f2bc 30aa 453c 1862 a03b 701a 4cbb
000001e0: aa27 1ebd 40f5 563a 206d 11bd 63da d3bc
000001f0: 86e7 41bc 6334 bdbc 1e5a 90bd ae2f b8bd
00000200: d6fa bfbd 91c7 11be aeb8 09be 3a1e 84bd
00000210: 127a 02be 4d63 14be 116a 2abe 8868 b33c
00000220: 763c fabb 6a3c f7bc 771a 9f3c f3a0 1f3d
00000230: 48bf 023e 20c5 d5bc fd86 edbc d535 33bd
00000240: 4aec d83c 53f0 703d e68e 793d 7792 bbbc
00000250: f496 393d 4837 edbb fd11 a53d 5f9d 923d
00000260: 6ae0 363e 99c4 94bc 93c3 9a39 e182 95bc
00000270: bed5 49bd 796e 9bbd 57a5 70bd 9178 273e
00000280: c4c8 ea3d 0bb4 9d3d cba0 c73b 5462 ad3d
00000290: c988 563d 8171 223d 1068 0ebb fffe 833d
000002a0: 0741 933d 5660 c03d abc2 8c3d 9738 42bd
000002b0: b77f e43c 9914 a03d 0f49 02bd 7cda 7f3d
000002c0: c83f a03d e7dd 1c3d deab df3c 1f95 9b3d
000002d0: efc9 6fbb 2a96 873d 9fdf 103c 30c9 073d
000002e0: 4078 203d b3c7 4e3c 9186 313d 273e 873c
000002f0: 9324 e33c b7f0 d93d 62a1 b2bc 8794 a3bb
00000300: 86b6 863d 864f f4bd 24cb 94bd f54d afbd
00000310: 8855 48be 2353 c5bd 717e 9bbb ee97 a8bc
00000320: fcb6 503d c732 ce3c 589c 933d 2e5b 3f3c
00000330: 0290 253d 6678 933d 4a73 bf3d 343c 3a3d
00000340: eeee 1fbc 07d3 9b3d 85a4 213b 68d1 d2bc
00000350: b2e0 ccbc 9d43 8c3d 1a41 d0bc 7631 d43b
00000360: 1299 a4bd f2a8 a7bc 189d 13be 563a 57bd
00000370: 1f5a 1ebd 114b 2fbd 51b4 b2bc d31f 2dbd
00000380: 4eac 02be 8cb2 0fbe 3699 64be e93e 4dbe
00000390: f538 63be 785c b3bd 9fe0 d6bd c5aa 72be
000003a0: 94fc 15be d377 89be b896 94bb d847 a53c
000003b0: 78af fabb feac bfbc 16ad de3c c63e 07bd
000003c0: ce57 c0bc 98a7 99bc 20a5 aaba a29f 02bd
000003d0: 0928 87bc be8e 0e3d c6d5 693c 0253 a53c
000003e0: 5593 343d 0982 353d a0d2 053c 1ea7 653d
000003f0: 7d4a 8abc 384b 273d 35e3 623d 8222 ccbc
-0.03512259 -0.02494802 -0.07640984 -0.04055745 -0.014102324 -0.15406077 -0.021643149 -0.010792273
-0.110556096 0.008862858 0.0038882091 -0.23437613 -0.050951596 -0.10138649 -0.13181095 -0.035848916
-0.122293524 -0.06771837 0.0034071405 -0.04231042 -0.02098129 -0.040415503 -0.028868785 0.015717117
0.012151396 -0.0038399578 0.03661282 -0.08186608 -0.054384075 -0.028824657 -0.10603616 -0.058839206
-0.023289552 -0.023805832 -0.06125628 -0.05459833 -0.04767925 -0.10163702 -0.11373652 -0.028386487
-0.015813675 -0.15919958 -0.083128914 -0.00415613 -0.092772655 0.058757015 0.06986529 0.13558769
0.07214551 0.024221778 -0.012518137 0.07946823 0.12732449 0.2075686 -0.12707707 -0.054690097
-0.055098165 -0.07656069 0.00900255 -0.024819355 0.0013394302 -0.05503286 -0.042191647 0.022414494
0.02135596 -0.022127634 0.030197736 0.0088715255 -0.01607424 0.0016452607 -0.0025058722 0.02968872
0.036358215 -0.036817946 -0.035465464 0.007922469 0.0050810482 -0.0067916964 -0.015356289 -0.02010574
0.01980175 0.0015650688 0.01912477 0.013698122 0.064105764 0.0818418 0.045945197 0.071221754
-0.098099366 0.031616274 -0.089526445 -0.053160466 -0.12210685 -0.07450249 -0.021451902 -0.07728306
-0.08272216 -0.053789485 0.00062155473 0.018095577 -0.016491095 0.010663296 -0.016077219 0.010487017
0.04656193 -0.0057173907 -0.0322917 -0.008312066 0.051307496 0.0040881853 -0.004974192 0.13521756
0.08020561 0.01618855 0.1747546 -0.007071832 -0.029595658 0.012064502 0.004894506 -0.0031143688
-0.038612045 0.0008199997 -0.03550446 -0.02586097 -0.011834985 -0.023096269 -0.070484385 -0.08993469
-0.09374015 -0.14236285 -0.13449356 -0.06451078 -0.12741879 -0.14491005 -0.16642024 0.02190043
-0.007636602 -0.030180175 0.0194218 0.038971853 0.1276828 -0.026094973 -0.028995031 -0.04375251
0.026479859 0.05882294 0.060927294 -0.022896988 0.045309976 -0.007239256 0.080600716 0.071589224
0.17859045 -0.018160151 0.00029518883 -0.018250884 -0.049276106 -0.0758943 -0.05875143 0.16354586
0.11464074 0.07700356 0.006092166 0.0846602 0.052376542 0.039659027 -0.0021729507 0.06445121
0.07190137 0.093933746 0.068730675 -0.04741725 0.02789293 0.07816429 -0.031807955 0.062464222
0.07824665 0.03829756 0.027303632 0.07596802 -0.0036588868 0.066204384 0.008842378 0.03315085
0.03917718 0.012620854 0.043341223 0.016509129 0.0277274 0.10641616 -0.021805469 -0.004992071
0.06577782 -0.119292304 -0.072653085 -0.08559791 -0.19563878 -0.09634998 -0.0047452976 -0.020580258
0.050955757 0.025170697 0.072075546 0.011679454 0.04042054 0.072006986 0.093481615 0.04546757
-0.009761555 0.0760861 0.0024664712 -0.025734618 -0.025009487 0.06848834 -0.025421668 0.0064756228
-0.08037008 -0.020466302 -0.14415395 -0.052545868 -0.038660165 -0.0427962 -0.021814497 -0.042266678
-0.12761042 -0.14032954 -0.2232407 -0.2004353 -0.22189696 -0.087578714 -0.10492062 -0.23697956
-0.14647132 -0.2684923 -0.0045345686 0.02017586 -0.007650312 -0.023397919 0.027182143 -0.03301885
-0.023479369 -0.018756673 -0.0013019182 -0.03189052 -0.016498582 0.0348041 0.014272159 0.020181183
0.04408582 0.044313464 0.008167893 0.05606758 -0.016881222 0.04084322 0.055392463 -0.024918798

ConvNet.2.bias f4 [64]
00000000: 25ca 273d 8110 343d e98e f13c c3bc 57bc
00000010: db91 d93c 14e9 0cbd b9d8 62bc 20ff e73c
00000020: 3e0c 39bd 74e5 9d3c 6bca 703c 6860 213d
00000030: 990d 663d b3ad 263d cd05 263d 3318 a73c
00000040: 94ae 17bd 3e63 dc3c 7de4 0a3d fd81 6ebb
00000050: 1539 173d e530 3d3c 45c0 643c 2c0c 98bc
00000060: e3d1 bcbc 22f3 193d 7c96 45bd 73a5 0a3d
00000070: e71f 563d df7c e0bc 450c 083d 9ea3 2f3d
00000080: df4c 073d 46b5 9bba add2 7b3c 6983 ee3c
00000090: c1f7 60bc 521b d3bb 2f76 243d 0e90 2b3d
000000a0: 7b76 203d a139 8bbc d72b d73b 8ac8 1c3d
000000b0: 7cc6 cdbc d18f 28ba fd48 043c b274 a2bb
000000c0: 6637 093c 5163 23bd 79ff 8c3b ec70 07bc
000000d0: 5948 c23b 2cd1 d2bc 499c d4ba 2f94 c9bc
000000e0: b42c 0d3d c3aa 0c3d 6a36 02bd 2368 b33c
000000f0: 6e26 cdbc b650 073d 4439 d23c 4476 3a3d
0.040964264 0.04396105 0.02948709 -0.013167563 0.026558807 -0.034401968 -0.013845616 0.028319895
-0.04517769 0.01927445 0.014696698 0.03939858 0.05616531 0.040692996 0.040532876 0.020397281
-0.037031725 0.026902791 0.03390931 -0.0036393397 0.036919672 0.011547302 0.013961856 -0.018560492
-0.0230493 0.037585385 -0.048239216 0.03384919 0.05227652 -0.027403293 0.033214826 0.042880647
0.033032294 -0.0011879585 0.015370053 0.029115396 -0.013730944 -0.006442466 0.04015177 0.041885428
0.03917549 -0.016995253 0.0065665054 0.038277186 -0.025119059 -0.0006430122 0.008074042 -0.004957759
0.008375024 -0.039889637 0.0043029157 -0.008266669 0.0059290347 -0.025734507 -0.0016220893 -0.024606792
0.03446646 0.03434254 -0.031790175 0.021900242 -0.025042739 0.033035956 0.025662072 0.045522943

ConvNet.4.weight f4 [64, 64, 3, 3]
00000000: be7d d8bb b860 2bbd 3696 cbbd 60ea db3c
00000010: 9221 073c a420 9dbd 9759 783d 462d 9e3c
00000020: 81f8 75bd 3a71 c53e 9644 e93e 3435 c33e
00000030: 7f15 fd3e 0810 f73e 6ccf 433e c83d 0b3f
00000040: 9077 013f 186f a63e e719 943d 318c 8a3b
00000050: ab5e bebc a805 ba3d 8f2e 3e3d 8fc7 75bd
00000060: f720 a13d 3b38 923d be73 91bd 1be4 5e3d
00000070: 0235 8ebd ef78 91bd c522 bb3c a4a9 62bc
00000080: ccb8 e0bd 6cf1 aa3d 9e28 163d 6b8b d5bd
00000090: 63a9 b53d ed26 9a3d 6840 8a3c 0417 f93c
000000a0: 9404 fb3b 8ffa e1bc 09de 0b3e 42a4 9a3c
000000b0: 7c85 333d 4f76 7b3f 2e9c 493f f01d 453f
000000c0: a6ee 563f f5af 0a3f 17b5 d43e 6094 3a3f
000000d0: 5abe e03e c011 443e 6c66 0c3f aff5 0a3f
000000e0: 4542 ec3e 0ebc c83e c684 0a3f 4bc0 6a3e
000000f0: 5d47 be3e 1700 e93e 4395 a23e bc0c d53d
00000100: 7b09 1d3d 6dc5 adbd 4b9f b13d c441 e63d
00000110: 243f efbc 43b5 ce3c 99eb b23d 774d a3bd
00000120: 97c6 4f3f 6e72 443f e790 153f f3c0 223f
00000130: fc03 263f fe9e 053f b99e 093f 5b4c 0b3f
00000140: 3ecf 0d3f f963 b43c ab34 21bc 874c 03be
00000150: fbc3 563c 2327 253d 727c 22be 5481 9a3d
00000160: 66a1 ce3d 71e5 43bc 54e8 783d 7074 8cbc
00000170: 4c8f 9fbc d0f5 373c 7142 683c a179 d4bd
00000180: d312 933c 277e e93c 98a5 78bc db9e 743d
00000190: b36f f13d 4e3c db3d 8caa a03d c96f 4d3d
000001a0: 12fc 46bb 2302 e03c 889f eabb e4c5 70bd
000001b0: ba4a 16bf 85ae 03bf dc12 4ebe 8039 50be
000001c0: eba8 44be 1f5f 06bf 4ffc a9be 90af 5bbe
000001d0: b18a f3be 7b83 8d3c 4e27 5f3d 0533 b5bd
000001e0: 1144 363c eb69 ae3d 802e 39bd 1c39 8f3c
000001f0: 0625 693d 90db 89bd af35 5e3e d58a 833e
00000200: 17a6 873e ff8e 8e3e 0151 653e aa2d 953e
00000210: 3238 9a3e 37d3 933e 510b 783e 6e69 003f
00000220: 4de6 ed3e 5b5f be3e c14f d53e 0853 e43e
00000230: 3a9f 4a3e 718a c83e 20ef c83e f2a3 693e
00000240: 19c9 9d3c 703b c1bc 1dc3 e53c 10fc f13c
00000250: ac06 33bd 69bf 80bc e89e c23b 6042 f23c
00000260: 130e 11bd 09b1 463e b16e 853e 892c 833e
00000270: 666a 943d e55a 533e 914b 8f3d 95e5 823d
00000280: 248b 303e 122b 073e bd97 b13d 33be 993d
00000290: e27d 60bb 73d0 913d 117e 843d 5b58 fb3b
000002a0: c738 823d 38d4 81bb cd00 cabd 6872 183f
000002b0: 142c d43e 16d2 a63e 07e1 cf3e 1c1b a73e
000002c0: 96e9 3d3e 37f5 b13e eaba 3f3e 64be 363d
000002d0: 960c 2b3d 4f04 c5bc 30b5 02ba 1ded 923c
000002e0: 0e75 df3c acfc a0bd e78b bb3d 1d50 043d
000002f0: 9ac2 aebd 662c 4b3b 94cf 7bbd f6bc 36be
00000300: a844 053d 774a d93c bdcb 2ebe b1a9 9d3d
00000310: ac92 cf3d 75d0 67be 1d05 c33e cdc8 8e3e
00000320: 2091 c53e 0cba 733e 31d8 283e 79da 863e
00000330: d63b df3e 4cd5 6d3e e60a 813e 2f77 403e
00000340: d1b5 bd3e c9a4 a03e 88e6 843e 6b58 8e3e
00000350: e37c 323e 31fe 6c3e 644f ab3e 3be2 793d
00000360: 22ab 313f 6cc0 e33e 1773 b23e a3e6 083f
00000370: 4816 d03e 970d b23d f124 0f3f c223 b13e
00000380: 2f38 803e 3df0 583c 1d58 a73c b606 01be
00000390: ace8 0bbb 0774 ba3c e350 0cbe f7f0 383d
000003a0: 1972 523d ea58 37be 3bb8 4a3f 27fe 413f
000003b0: 621b a63e 20ce 153f 194b cd3e 5d7a 723e
000003c0: a740 fe3e 008b bf3e d3f2 7d3e fc93 843c
000003d0: b60a 253d c9f1 45bd afeb 843c 5f8c ecbc
000003e0: e51d 9fbd c393 54bc b637 8ebd b953 d9bd
000003f0: 81a1 d23d 559e 3e3d fde0 feba c087 673e
-0.0066067865 -0.041840285 -0.0994076 0.026845157 0.00824775 -0.07672241 0.060632315 0.019308697
-0.060051445 0.38562948 0.4556014 0.38126528 0.49430463 0.48254418 0.19122094 0.54391146
0.5057306 0.32506633 0.07231503 0.004228138 -0.0232385 0.0908311 0.04643112 -0.060004767
0.07867616 0.07139631 -0.07102154 0.054416757 -0.06943704 -0.071031444 0.022843728 -0.013834391
-0.10972747 0.08346829 0.03665983 -0.104269825 0.088701986 0.07526956 0.016876414 0.030406483
0.007660458 -0.027585296 0.13658918 0.018877152 0.043828472 0.982274 0.78753936 0.76998806
0.839579 0.5417474 0.4154441 0.7288265 0.43895227 0.19147396 0.54843783 0.54281133
0.4614431 0.39205974 0.54108846 0.22924916 0.3716382 0.4550788 0.31754503 0.104028195
0.03833912 -0.084849216 0.08672961 0.112430125 -0.029204912 0.025232917 0.08736343 -0.079737596
0.811624 0.76737106 0.5842423 0.6357567 0.6484983 0.5219573 0.53757817 0.54413384
0.5539435 0.022020327 -0.009839217 -0.12822162 0.013108249 0.040320527 -0.15867785 0.07544199
0.10089378 -0.011956559 0.06076844 -0.017145365 -0.019477509 0.01122804 0.014175997 -0.103747614
0.017953312 0.028502537 -0.015176199 0.05972181 0.11788883 0.107048616 0.07845029 0.050155435
-0.0030362648 0.027344769 -0.007160131 -0.058782473 -0.58707774 -0.5143817 -0.20124382 -0.20334435
-0.19205062 -0.52488893 -0.3320031 -0.2145369 -0.4756675 0.017274609 0.054480843 -0.08847622
0.011124627 0.08516296 -0.04521036 0.017483287 0.056920074 -0.06731331 0.21700166 0.25691858
0.26493904 0.27843472 0.22394182 0.291364 0.30121 0.28872082 0.24223067 0.5016087
0.46464768 0.37182125 0.4166241 0.44594598 0.19787303 0.39168122 0.39244938 0.22816446
0.01926093 -0.023587912 0.028047139 0.029539138 -0.043707535 -0.015716271 0.0059393533 0.029572666
-0.035413813 0.19403471 0.26061013 0.25619915 0.072468564 0.20640142 0.06996835 0.063914455
0.17240578 0.13200024 0.0867152 0.07506981 -0.003425472 0.07119837 0.06469358 0.007670445
0.06358486 -0.003962066 -0.09863434 0.5954957 0.4143988 0.32582158 0.4060137 0.3263787
0.18546137 0.34757397 0.18723646 0.044615164 0.04176005 -0.024049906 -0.00049861055 0.01793533
0.027277496 -0.07860693 0.09157544 0.032302964 -0.08533211 0.0031001805 -0.06147726 -0.1784552
0.03253618 0.026524765 -0.17069907 0.07698382 0.10135397 -0.22638114 0.3808984 0.27887574
0.38587284 0.2380144 0.1648872 0.26338556 0.4360034 0.23225898 0.25203627 0.18795465
0.37052777 0.3137572 0.2595713 0.27801833 0.17430453 0.23143841 0.33459008 0.061006766
0.6940175 0.44482744 0.34853432 0.53476924 0.40642 0.08693998 0.55915743 0.34597594
0.25042865 0.013240871 0.020427758 -0.12600216 -0.00213484 0.022760404 -0.13702731 0.045151677
0.051378343 -0.17905012 0.79187363 0.7577843 0.32442766 0.58517647 0.40096357 0.2367949
0.496587 0.37410736 0.24799661 0.016183846 0.040293418 -0.048326287 0.016225664 -0.028875528
-0.07769374 -0.012974682 -0.0694422 -0.10611672 0.10284711 0.046537716 -0.0019445714 0.22610378

ConvNet.4.bias f4 [64]
00000000: 97d7 07bd 22a0 50bc fd38 8fbd ed4b 8b3b
00000010: 7c6f 2fbd 2d76 2cbc b281 8f3d 81ab 43ba
00000020: 9ed9 81bd 72ec 02bd ed05 34bc fc59 1abb
00000030: 4609 16bd fba5 e5bc 31d3 fabb 33e5 87bd
00000040: 464d 8a3e 94ec dbbc 3708 103e 3657 bcbc
00000050: 4faf 1fbd e32b 55bd eb2e 51bd d151 e03d
00000060: cc29 9abd bc8a 19bd 2f9c 84bc 703f 85bd
00000070: 061b d7bd 3b4e 063e 4697 4ebd 5c7f b5bc
00000080: 1ed1 90bd 158c d2ba 801d 49bd 8463 a2bc
00000090: 2d1d 213e c204 cebc f52c 93bc 3267 86bd
000000a0: d1d0 cbbc d402 7cbc de34 40bd 13ce 61bb
000000b0: 1835 f2bc 076e f1bc e2d0 38bc 6396 11bd
000000c0: bff5 f1bb ca10 c9bc 7ddf a43d 81af 6fbd
000000d0: 6f4a d6bb 4a79 1bbd 9cf0 563d 5089 50bd
000000e0: d994 3ebd d4ca 52bd 6519 d5bd ace0 79bd
000000f0: d1c9 4dbd 52aa 0fbd 1927 71bd a8be 1a3c
-0.033164587 -0.012733491 -0.069932915 0.0042509944 -0.04283093 -0.010526222 0.07007159 -0.0007464216
-0.06340335 -0.031963773 -0.010987741 -0.002355217 -0.036629938 -0.028033247 -0.0076545705 -0.06635513
0.2701208 -0.026846208 0.14065634 -0.022990804 -0.038985547 -0.052043807 -0.051070135 0.10953105
-0.07527503 -0.037485823 -0.016187755 -0.0650624 -0.10503201 0.1311578 -0.050437234 -0.022155456
-0.07071136 -0.0016063476 -0.0491004 -0.019822843 0.15733786 -0.025148753 -0.017965773 -0.06562652
-0.024879845 -0.015381534 -0.046925418 -0.0034455105 -0.029566333 -0.02947141 -0.01128027 -0.03554381
-0.0073840315 -0.024544138 0.080504395 -0.058516983 -0.006539635 -0.037957467 0.052475557 -0.0509122
-0.04652867 -0.051462963 -0.10405234 -0.06100528 -0.050241295 -0.03507454 -0.058875177 0.00944487

ConvNet.7.weight f4 [4, 1024]
00000000: db76 17be 9357 2e3e 2e78 a93e 7327 f63d
00000010: 4acb 1bbe 46ce 493b d80e 973e 0e36 e03d
00000020: 15b1 b33e d43c 0d3e abb6 843e 8834 fe3d
00000030: aea9 873e ec2f e73d eded 2d3e 97aa 903d
00000040: 763e 5d3e ac1b eb3d c1d2 773e 6b95 063e
00000050: 730c 8c3e b46e 063e ea81 693e 6fd2 c43d
00000060: 84d2 8d3e aff7 e13d bc26 513e 641c d43d
00000070: e717 a33e d4ae ef3d d571 6e3e 12c8 023e
00000080: 137d 713e 53ac bf3d b0d8 4d3e 65eb 863d
00000090: 1c9c 813e 85bb 6e3d 7562 4f3e 39b0 9e3d
000000a0: 6be4 a13e 95e9 163e f62e 6c3e ffe1 833d
000000b0: e786 623e 2e1f 033e 9b4d 713e 1f17 fa3d
000000c0: 657b 803e 2907 b53d 8617 5f3e d2cb f83d
000000d0: 94cd 743e ccae be3d e69b 4e3e f825 9f3d
000000e0: 31bf 7bbd 900c 953d 89f2 f53d 3043 8d3d
000000f0: fc38 1bbf 52f2 88be 7bae 273e e730 0d3e
00000100: 53e2 3a3e 8b2c 353e add0 473e 5113 b03d
00000110: 4ecc 6a3e 3c72 f13d ca75 413e 9c85 1e3d
00000120: 62dc 933e a5a1 003e 25f0 443e b988 9e3d
00000130: 9134 873e 174f da3d ca1f 5c3e 14dc ff3d
00000140: f9d5 4d3e 7bed b53d f8a1 7e3e e2d0 9a3d
00000150: b47a 643e 0bb6 853d 8b6f 683e 4adf 313d
00000160: ffe9 8b3e cf6b c33d 23af 873e bf57 b63d
00000170: 17e9 a63e ba24 f53d 9c85 543e 3465 f33d
00000180: c26c 273c d4ec 13be 0227 a5bb a355 c4bb
00000190: 3d18 383e 25cf a2bd 3499 68bd 6c1d 1e3e
000001a0: d27a 653e 2f10 e63d 65c3 063e 4f37 063e
000001b0: 6150 5c3d 46da 8e3d 75ac 1e3d 1d8f 3c3d
000001c0: 1477 103e 6a39 2e3e eab3 6f3e 372b dc3d
000001d0: 40ac 633e 7b45 b53d f690 6b3e f407 ec3c
000001e0: af38 643e 4b9d 213e 888f 5f3e 7943 ac3d
000001f0: 0aa8 3b3e 0fc7 1b3e be94 583e e6f1 c83d
00000200: ece7 5e3e 6902 ba3d 0b2f 533e 604f e53d
00000210: cb2c 863e 509a 4e3d 0edb 7b3e 5a0c da3d
00000220: 910a 993e dd55 b83d 342a 653e fe5d 023e
00000230: 4c22 813e 7a0a 0c3e 66b6 603e c650 f33d
00000240: fa93 583e 9c4f 993d 970a 7e3e 8434 bd3d
00000250: 285d 493e c8df b73d eadd 283e 7073 d43d
00000260: 54a6 853e 01a2 d03d 01e8 873e e130 bb3d
00000270: 53c0 293e 4b22 393e c0d9 3c3e f1df 0a3e
00000280: aac4 2a3e 2d28 163e c73d 393e b148 d43d
00000290: 7204 713e 245c 093e a666 563e 961d 4f3d
000002a0: de8e 6a3e 85eb 2e3e 8a51 4d3e d2d8 db3d
000002b0: 292a 423e 0518 1a3e 60bd 723e 1a7d 6a3d
000002c0: c2c1 083e 4ea5 033e 7286 5e3e d913 9c3d
000002d0: 0b3e 923e a5ff 5e3d 487a 413e 8673 033e
000002e0: 673a 89bd 95e5 e03d 9be8 433e 4616 e53d
000002f0: e441 bcbd eac5 d73c 1cf3 423e 3c1d 063e
00000300: 2517 4b3e 62be 003e 54e9 313e ca08 103e
00000310: e71e 7f3e 8b96 063e 93f9 343e 2972 1b3d
00000320: 8785 743e 9760 053e d31b 713e 24ef fd3d
00000330: b3b6 3f3e 730c 0e3e 95f6 5c3e 1642 dd3d
00000340: 8c6a 613e 0f23 d23d e184 5e3e f806 b53d
00000350: 6128 513e 7f3c 023e 6894 543e 1613 ed3d
00000360: d097 313e dc96 0b3e e58a 743e b88d 833d
00000370: f668 1d3e ddea 083e 494b 7a3e 3986 d23d
00000380: 86cc 363e c2dc dd3d c47e 5c3e 588a e93d
00000390: 795b 743e 7a31 f53d d91d 213e 4438 d03d
000003a0: 3122 673e c096 193e cae2 5c3e a0c6 063e
000003b0: db17 5b3e c88b 103e 7d86 523e 7f4e fa3d
000003c0: 3b99 263e 6a1b 273e bbd8 3f3e f482 fa3d
000003d0: 65bd 823e 6ac0 0e3e 6a27 4d3e ccab 5e3d
000003e0: 986a 573e d9b4 343e 85fe 533e 5ff1 f23d
000003f0: 96e5 823e d370 2a3e 985f 383e 158d ce3d
-0.14791434 0.17025594 0.33099502 0.12019243 -0.15214267 0.0030793115 0.29503512 0.1094781
0.3509604 0.13792735 0.25920615 0.12412363 0.26496643 0.11288437 0.16985293 0.070637874
0.21605858 0.11479887 0.2420149 0.13142936 0.27353248 0.13128167 0.22803465 0.096104495
0.27699673 0.1103357 0.20424932 0.103569776 0.31854174 0.11703268 0.23285611 0.12771633
0.23582868 0.0935904 0.20102191 0.06587867 0.25314415 0.0582843 0.20252402 0.077484556
0.31619582 0.14737542 0.23064789 0.0643959 0.22121774 0.12804863 0.2356476 0.12211441
0.25094143 0.08839256 0.21786317 0.12148251 0.23906547 0.093106836 0.20176658 0.07770914
-0.06146163 0.07277787 0.120091505 0.068975806 -0.60633826 -0.26747376 0.16375153 0.13788186
0.18250398 0.17692773 0.19513197 0.08597434 0.22929499 0.117893666 0.18892589 0.03870164
0.28879076 0.12561662 0.19232233 0.077409215 0.26407292 0.106596164 0.21496502 0.124931484
0.20101155 0.088831864 0.24866474 0.075593725 0.22312433 0.065288626 0.226988 0.043425836
0.27326962 0.09542047 0.26500806 0.08903455 0.32599708 0.11969896 0.20754093 0.11884537
0.010218801 -0.14445812 -0.0050400505 -0.005991654 0.17977996 -0.07949666 -0.05678673 0.15440911
0.22410133 0.112335555 0.13160475 0.13107036 0.053787593 0.06975226 0.038738687 0.04603492
0.14107925 0.17014089 0.23408476 0.1075043 0.22233677 0.08851143 0.23004517 0.028812386
0.22287248 0.15782659 0.21832097 0.08411307 0.1832582 0.15212654 0.2115049 0.098117635
0.21768159 0.09082491 0.20623414 0.1119678 0.2620605 0.050440133 0.24595281 0.10646887
0.29890874 0.09000752 0.2237938 0.12731168 0.2522148 0.13675871 0.2194458 0.11880641
0.21150199 0.074858874 0.24808727 0.09238532 0.19664443 0.0897823 0.16490903 0.103735805
0.2610346 0.1018715 0.26544192 0.09140182 0.16577272 0.18079488 0.1844244 0.1356199
0.16676584 0.14663763 0.18089972 0.10365427 0.23536852 0.13414055 0.20937595 0.050565325
0.22906062 0.17082031 0.20050636 0.107347146 0.18961395 0.15048225 0.23705053 0.057248212
0.13355163 0.12856027 0.21730974 0.07620973 0.2856296 0.05444302 0.18894303 0.12837037
-0.067005925 0.10981289 0.191317 0.11185889 -0.09192255 0.02633949 0.19038051 0.1309709
0.19833048 0.12572625 0.17374164 0.14065853 0.24914132 0.13143365 0.1767333 0.03795067
0.23879062 0.13025127 0.2354577 0.12399128 0.18722038 0.13871937 0.21578439 0.108036205
0.220133 0.10260593 0.21730377 0.0883922 0.2042556 0.1271839 0.20759737 0.11575906
0.17343068 0.13631767 0.23881109 0.06423515 0.1537207 0.13370843 0.24442782 0.10279507
0.17851457 0.10833122 0.21532732 0.1140334 0.23863019 0.119723275 0.15734042 0.10166982
0.22571637 0.14998913 0.21570888 0.13161707 0.21395819 0.14115822 0.20559116 0.12222003
0.1626939 0.16319051 0.1873502 0.122320086 0.25535122 0.13940588 0.20034567 0.054363057
0.21036756 0.17647113 0.2070256 0.11862444 0.25565785 0.16644602 0.18005216 0.10085503

ConvNet.7.bias f4 [4]
00000000: 6297 95bc 6297 3d3c 34c5 943c 3e2f ebbd
-0.018260662 0.011571737 0.01816044 -0.1148362
