PPO_linear/model/LunarLander-v2_actor.pt (torch, 75167 bytes, 6 tensors)

FCNet.0.weight f4 [128, 8]
000000 19 fb 8b 3d 9e 2d 16 3f 89 8d 91 be 31 7c 49 3f
       0.068350025 0.58663356 -0.28428295 0.78705126
000010 44 d4 eb 3e a2 24 e6 3e dc 93 d2 3e d5 ef 48 3d
       0.46060383 0.44949824 0.41128433 0.049056847
000020 7c aa e2 bd 9a 55 02 bf 6b 81 d5 be da 89 8a 3e
       -0.110676736 -0.5091187 -0.417003 0.27058297
000030 19 42 72 3f 99 a4 41 bd a6 48 24 3e 12 43 4e 3e
       0.94632107 -0.047276113 0.16043338 0.20142773
000040 4e 6a f3 bd 92 b1 bb 3d 4e e1 d4 bd d8 a8 dd be
       -0.118855104 0.09164728 -0.10394536 -0.4329288
000050 63 b2 95 3f c5 57 af 3e b3 b8 6b be 41 d7 52 3e
       1.1695064 0.3424665 -0.23019676 0.20589925
000060 e0 b9 8d 3c cd 65 8f be 97 b1 cd 3d 33 8f 37 bd
       0.017300546 -0.28007355 0.10043638 -0.0448143
000070 65 ae 2d be 20 e4 68 3e cf 7d 0e 3f 23 63 d9 3e
       -0.16961057 0.22743273 0.5566072 0.42458448
000080 6e 0f 84 3e 3d 86 85 3e 98 49 d8 3d e3 a1 21 bf
       0.25793022 0.26078978 0.10560912 -0.63137645
000090 a7 94 80 3f 02 2d 3f 3f cb 67 38 be a8 4c 7f 3d
       1.0045365 0.7467805 -0.18008344 0.062328964
0000a0 19 6a 65 3e 63 2a e9 be 0b 10 93 3e 7d 02 15 bf
       0.22403754 -0.4554015 0.28723177 -0.5820692
0000b0 f3 40 93 be 53 3c f3 3d e5 f9 ce be 5c 5d 9d be
       -0.2876049 0.1187674 -0.4042503 -0.3073529
0000c0 dd 2a 2a be 31 1f c7 be 91 10 92 3d f2 b5 27 be
       -0.16617914 -0.38890985 0.07132066 -0.16378
0000d0 09 4e 29 3f b8 23 fb 3c fe bf af be 93 58 8f be
       0.661347 0.03065668 -0.34326166 -0.27997264
0000e0 6a c4 10 3e fd 02 8f be c4 37 83 3e 9f 47 0c 3f
       0.14137426 -0.27931967 0.25628483 0.54796785
0000f0 fe fb a7 3e 46 ea 42 3e 8e 67 e0 3e 22 28 3d be
       0.32809442 0.1903468 0.43829006 -0.1847234
000100 c0 40 fc 3c ab 19 1f 3f f1 21 a3 3d e2 84 03 3f
       0.030792594 0.6214854 0.07965458 0.5137464
000110 0c 7e a3 bf 22 fd b9 be 5c 5b 87 3e 5e 7d ec 3d
       -1.2772841 -0.36325938 0.2643689 0.115473494
000120 90 08 af be 1a aa 92 3b 18 48 cc 3e 3f b7 35 bf
       -0.3418622 0.004475844 0.39898753 -0.70982736
000130 f9 2d 51 bf 9b ca 6a bc c0 9f fc be 60 2c fc be
       -0.81710774 -0.0143305315 -0.4934063 -0.49252605
000140 2e 92 07 3a 8e 12 a3 3d fa ad 6a be a3 dd 89 3f
       0.0005171624 0.079625234 -0.2291793 1.0770763
000150 fe 0b e3 be 3a f3 b5 3d 2f 90 02 3f 80 7b 9a be
       -0.44345087 0.088842824 0.51001257 -0.30172348
000160 68 c8 a1 3e 9b e1 e0 be 0f 99 6d 3e 80 a7 a6 be
       0.3159821 -0.43922123 0.23202918 -0.32549667
000170 66 41 3e bc 8d 1a dc 3e 91 e2 28 be e5 68 1b bd
       -0.011612272 0.42989007 -0.16492678 -0.037941832
000180 b1 05 03 3e a2 26 a9 be 97 bb 68 be 34 88 13 3f
       0.1279514 -0.33037287 -0.2272781 0.57629704
000190 40 bc 41 be 10 b7 0b 3f 5c 09 ed 3e da 0e 23 3e
       -0.18919468 0.54576206 0.46296203 0.15923634
0001a0 a8 b7 91 3d 37 ca 34 be 04 f0 62 3d d4 da eb bc
       0.07115108 -0.17655264 0.055404678 -0.028790869
0001b0 00 6a c1 bd bb 94 bf bd 16 10 9c bd 93 b0 af be
       -0.09444046 -0.0935454 -0.07620256 -0.34314403
0001c0 5d 9e ef bd 3e 10 49 be 82 ba 13 3d f6 6c 19 3f
       -0.11700127 -0.19635102 0.03606654 0.59931886
0001d0 75 4c 54 bf 35 fe 03 be ee 17 1d 3e f9 4a 89 be
       -0.82929164 -0.12889941 0.1534116 -0.26815012
0001e0 48 c8 45 3e 21 2e 49 bf 73 eb aa 3e 08 14 e0 3e
       0.19314682 -0.7858601 0.33382758 0.43765283
0001f0 82 2e 0b bf d5 45 11 3e d3 80 77 3e b8 ae 92 3c
       -0.5436784 0.14186795 0.24170236 0.017905578
000200 66 d7 03 be ba 99 1c be e2 e5 00 3e 4a c8 a0 bc
       -0.12875137 -0.15293017 0.12587693 -0.019626755
000210 57 26 09 3e 71 c1 0d be 7f 92 81 3e 8c 64 c9 3e
       0.13393532 -0.13843323 0.2530708 0.39334524
000220 1e 79 7f be 81 54 82 be 35 6b e3 3e 06 17 83 be
       -0.24948546 -0.25455096 0.4441773 -0.25603503
000230 b5 25 aa 3d 1d 1f a6 3e 3f e6 4c be e3 60 cb be
       0.08307973 0.32445613 -0.20009707 -0.39722356
000240 9a 90 0b bc 3c f2 78 be 3e c3 b4 3e b1 db 9a 3d
       -0.008518362 -0.24311155 0.35305208 0.07561434
000250 0b 27 c7 be ea bf b9 bd ac 8e f6 3e 13 b4 e7 3e
       -0.38896975 -0.09069808 0.48155725 0.45254573
000260 bb 9a 98 3d 41 1d 1a bf 1b 21 32 be 74 d7 85 be
       0.074513875 -0.6020089 -0.17395441 -0.2614094
000270 fc 64 49 3d f4 bb e5 3e 51 39 7b 3e af e4 86 3e
       0.04916857 0.4486996 0.24533583 0.26346347
000280 33 5b 4a 3c 15 8a 47 bf b4 ce 9d bd f4 a8 d1 3e
       0.012350845 -0.7794507 -0.07705441 0.40949214
000290 d9 56 98 be 94 2d be 3e 7a d6 a0 3e a2 43 af bd
       -0.2975376 0.37144148 0.31413633 -0.08557822
0002a0 b6 91 44 be 3c 8d 19 bf 13 61 0a be e3 9a 30 3e
       -0.1919621 -0.5998113 -0.13513593 0.17246585
0002b0 99 58 57 3f 50 1c b3 3e 73 5b c6 be 8b 90 76 3c
       0.84119564 0.34982538 -0.38741645 0.01504911
0002c0 4c e9 68 3b bb c9 c2 be f8 56 9a 3e 35 73 b7 be
       0.0035539446 -0.38044533 0.30144477 -0.35830083
0002d0 b0 bd cd be 99 ae 33 bc d9 1f 4b be 8d 6b fb 3e
       -0.40183783 -0.01096692 -0.19836368 0.49105492
0002e0 13 b9 4f 3d 3b e7 fd 3e 5e 05 18 be a9 de 4d 3d
       0.05071361 0.49590477 -0.14845797 0.050261173
0002f0 1d 7e ef 3f 1f 0c 9b 3e 52 df 3e be 81 03 dd 3e
       1.8710362 0.30282685 -0.18639877 0.43166736
000300 12 d2 b2 bd 58 5d b0 3e 73 31 a3 3e 29 f9 01 3f
       -0.08731474 0.34446216 0.31873664 0.50770813
000310 a4 9b b0 bf 87 2d db be 6d 46 0a 3f 52 74 b8 bd
       -1.3797498 -0.42808172 0.5401371 -0.09006561
000320 ea 68 4d 3d 56 e9 2d be 33 18 95 3e 70 58 c1 3e
       0.050148882 -0.16983542 0.29120025 0.37762785
000330 be ab b9 bf b5 62 4d be 8e 8a 6a 3e 4a 2a a3 bd
       -1.4505537 -0.20057185 0.22904417 -0.079670504
000340 55 67 4a bd 9f 4e 51 be 76 d4 a2 be 1a f4 c1 bd
       -0.04941495 -0.20440148 -0.3180272 -0.09470387
000350 0e 39 e9 3e 7e e8 00 3d bb 0f e0 be d3 13 4c 3e
       0.45551342 0.03147172 -0.43762 0.19929437
000360 43 f1 64 be 00 1a f4 bc 43 3f 9b 3e 31 5f a2 3f
       -0.22357659 -0.029797554 0.30321702 1.26853
000370 e8 3f da 3e c8 93 ac 3e dc 40 82 3d 74 9a dd 3e
       0.42626882 0.33706498 0.06360027 0.432819
000380 d4 8e ca 3c df 49 17 3f 6e df b5 be 30 4f b4 3e
       0.024726309 0.59097093 -0.35522026 0.35216665
000390 7b 3d be 3f 35 2c 27 3f 54 8c 0d be 89 6f d3 3d
       1.4862512 0.6530183 -0.13823062 0.10324008
0003a0 15 f7 9d be fa fe 66 3e 56 a9 3e 3e d6 56 b7 3d
       -0.3085257 0.22558203 0.18619284 0.089521095
0003b0 5c 65 a2 3f 10 7e 14 3e 66 5e 9c 3d 9c 93 47 3f
       1.2687182 0.14501214 0.076351926 0.7795961
0003c0 ac 75 89 3e bf e6 e9 3c 42 17 7a 3d 12 32 00 3e
       0.2684759 0.028552411 0.061057337 0.125191
0003d0 b9 bf eb 3e c2 98 62 3d 8c ca 69 3d b2 68 1d 3f
       0.4604471 0.055321462 0.05707793 0.6148788
0003e0 17 8f 22 3e 81 ea d0 3e f0 57 d1 3c 00 c9 1c be
       0.15874897 0.40803912 0.025554627 -0.1531105
0003f0 16 41 9a bf 30 1e 36 bf b7 1a 08 be fd 8e ef bd
       -1.2051113 -0.7113981 -0.13291441 -0.11697195

FCNet.0.bias f4 [128]
000000 ed 62 b9 3d f7 2f 59 3e 1b 0b a2 3c 3c f6 11 be
       0.09052072 0.21209703 0.019780686 -0.14254087
000010 db 09 a9 3c 8e 87 5c 3e 90 e1 29 3e c2 35 09 bd
       0.020634582 0.21536085 0.16589952 -0.033498533
000020 35 c9 b0 3c a8 5e af 3d 18 d5 8d 3c 34 a0 ec bd
       0.021580318 0.08562976 0.017313525 -0.11553994
000030 c0 67 65 bd b7 34 b9 be 40 1a 20 3e 50 b0 5a 3d
       -0.056007147 -0.3617303 0.15635014 0.0533908
000040 40 8f c9 3d 44 a0 a7 3d ac cb ea bd 5b c3 e8 bd
       0.09841776 0.08184865 -0.114646286 -0.11365386
000050 e5 1c c4 3c 59 8f 65 3e 22 55 a1 3d 8a c5 36 3d
       0.02393956 0.22417964 0.07877566 0.04462198
000060 16 68 a4 3d 5b 79 32 3e d0 0b c8 be 06 03 8f 3d
       0.08027665 0.17429106 -0.39071512 0.069829985
000070 b8 cf bf 3c 89 9a 1e be 5d 9b 09 be ca 17 f9 bd
       0.023414478 -0.15488638 -0.13438173 -0.121627405
000080 1f 66 ac be 1f a4 e9 3c c5 57 89 3d c8 b9 45 bd
       -0.33671662 0.028520642 0.06706194 -0.048272878
000090 7a e8 ba 3c e7 a1 fd 3c b3 c0 99 bd 55 21 5f 3c
       0.022815932 0.03096099 -0.075074576 0.013618787
0000a0 f9 11 00 bd f9 81 60 be 72 a7 69 3e a4 22 a9 bb
       -0.03126714 -0.2192458 0.22817782 -0.0051616
0000b0 22 20 c1 bc 35 b5 29 be 22 e5 98 3d 30 a0 86 be
       -0.023574892 -0.16573031 0.074655786 -0.26294088
0000c0 e0 bb 35 3e 72 79 49 3d f8 c5 ab bc 1f 45 c2 bd
       0.1774745 0.049188085 -0.020968422 -0.0948584
0000d0 1e 80 a9 bd 90 bd da bd 84 f2 39 3d 4e 12 38 3d
       -0.082763895 -0.106806874 0.045397297 0.04493933
0000e0 3a 40 05 3e e3 d5 d7 be 32 58 8a bd 7e f0 c0 be
       0.13012782 -0.4215537 -0.06755103 -0.3768348
0000f0 b7 3a 96 bd 3b f5 ae bd 48 64 3c 3c 3e 83 37 3e
       -0.07335418 -0.08542868 0.011498518 0.17921159
000100 4e 8b 86 3c 04 0e d7 bb 3d 04 e2 3c f4 dd 0a 3e
       0.016423848 -0.00656295 0.027589912 0.13561231
000110 6d e1 95 3d 5a b1 f7 bb 2e ab 02 bd 69 d4 df bd
       0.07318387 -0.0075589838 -0.03190153 -0.10929186
000120 65 c8 de be 04 14 23 3d d8 6d 8f bc b6 23 b2 3c
       -0.43512264 0.03981401 -0.017508432 0.021745544
000130 c1 6b 0b 3e 54 e1 13 3d 50 8a 78 be 6a e4 65 be
       0.13615324 0.03610356 -0.24271512 -0.22450414
000140 d6 fd d5 3d 08 cb b8 be 79 c1 84 bd 82 9b 80 3d
       0.10448806 -0.360924 -0.064822145 0.06279661
000150 d4 3f 24 3e 27 ad 43 3d 4f 88 41 3d ea 8d ea 39
       0.16039973 0.047772553 0.047249135 0.00044737692
000160 31 b5 27 be 6f 12 ff 3d 0b 87 79 3c 86 b1 6c be
       -0.16377713 0.12454688 0.015229951 -0.23114595
000170 79 4b b0 3d a4 11 2a bd 96 32 b5 3d c5 21 06 3e
       0.08608145 -0.04152073 0.08847539 0.1309882
000180 9b fc 80 bd 25 35 67 be 85 b3 32 3d 43 a6 fc 3d
       -0.06298181 -0.22578867 0.043628234 0.123363994
000190 8e 1c a3 bc 05 af fc 3d 26 74 16 3d 29 5d a0 bd
       -0.019911077 0.1233807 0.03673186 -0.07830269
0001a0 75 3d 90 3d 8c 14 16 bd 8d e7 e4 3c 83 43 22 3d
       0.07042972 -0.03664069 0.027942443 0.039615165
0001b0 ba a5 5e 3d 07 a3 88 be b6 5c a3 bc e8 6e 7c 3d
       0.054357268 -0.2668688 -0.019941669 0.061629206
0001c0 9f 63 1e 3d 61 30 b9 3d 71 41 b6 be 46 e7 0b be
       0.038669225 0.09042431 -0.35596803 -0.13662443
0001d0 1d af bf be 03 ca fb bd 31 dc fd bd 58 64 80 3d
       -0.37438288 -0.1229439 -0.12395514 0.06269139
0001e0 3f d5 55 bc 6c 40 5a 3e d9 9b ae be 57 70 18 be
       -0.01305133 0.21313637 -0.34103277 -0.14886604
0001f0 a5 83 cd 3d 78 61 2f bd 87 17 49 bc a1 19 3a 3e
       0.10034875 -0.042817563 -0.012273676 0.18173839

FCNet.2.weight f4 [128, 128]
000000 2a 66 24 3f 8e a0 11 be c5 c5 de be ce 7b e9 3e
       0.6421839 -0.14221403 -0.4351026 0.45602268
000010 71 ba 4e be 5c a8 2f be 5f e8 7b be 3a 15 9a 3e
       -0.20188309 -0.17154068 -0.24600361 0.3009432
000020 25 fa 27 3f 14 39 23 be e0 a0 76 3e bc b1 43 3e
       0.65616065 -0.15939742 0.24084806 0.19110769
000030 00 02 a3 3e 40 21 3f bd 46 f5 23 3d 2b 39 f0 3d
       0.31837463 -0.04666257 0.040028833 0.11729654
000040 28 c0 68 3e 9b 4e 34 bd a6 2d ed 3e be 48 93 3e
       0.22729552 -0.044020277 0.4632389 0.28766435
000050 28 73 14 3e 69 4e 54 be 85 ad 56 3d dd 03 12 be
       0.14497054 -0.20733036 0.052411575 -0.14259286
000060 f6 bc 47 3f f7 df 81 3e b8 63 6b be 04 4f d4 b8
       0.78022707 0.25366184 -0.22987258 -0.000101236656
000070 6c 7d 9e bc 27 6e 80 3d 0f 9b b2 3d 5b 2f 89 3e
       -0.019346915 0.0627101 0.08720981 0.26793942
000080 5a 97 6b 3c f8 7f 30 3f 2c 81 5b 3d bd 82 16 bb
       0.014379347 0.68945265 0.053589985 -0.002296611
000090 4b be 90 be bb 34 e2 3e db f8 87 3d 48 f0 f5 3d
       -0.28270182 0.44180855 0.06639262 0.12008721
0000a0 2c 47 81 3e 96 e3 b2 3e 9f e5 62 be 1f 5c 3e be
       0.25249612 0.3493926 -0.22157906 -0.18589829
0000b0 47 50 f4 bd d3 bd 8d 3e 3b 32 f6 3e c4 08 34 3e
       -0.11929374 0.27683887 0.48085198 0.17581469
0000c0 7c 5c 87 3b f9 99 87 be 17 4b 03 3e 6f 14 18 bd
       0.004130898 -0.2648466 0.12821613 -0.037128862
0000d0 c5 c4 f2 3d 86 31 96 3e e6 8e a5 3e fa 80 26 bd
       0.11853937 0.29334658 0.32335585 -0.040650345
0000e0 ff 05 77 3e c6 50 07 bd ae 18 ea 3d 0a 38 bd bb
       0.24123381 -0.033036016 0.114304885 -0.0057745026
0000f0 35 11 0a 3e f1 9b 95 b9 6a d2 88 3d 62 ab 0c be
       0.13483126 -0.0002853568 0.06680758 -0.13737252
000100 f1 d6 58 bc 8e e7 87 3d 39 23 e6 3e b8 70 0a be
       -0.01323484 0.066359624 0.44948748 -0.13519561
000110 1b d0 95 bd 32 79 32 3c 95 ab e5 3e ae 1c 91 3e
       -0.073150836 0.010893153 0.4485747 0.28342193
000120 33 cb 53 3d 6c bc 2f be 5e b8 2b 3d 5a 2d 65 bc
       0.051707458 -0.17161721 0.041923873 -0.013987863
000130 60 e3 8e 3d 22 42 a8 bc 31 8a 35 3e ec d9 0a 3e
       0.06976962 -0.020539347 0.17728497 0.13559693
000140 39 9a 86 be 28 79 99 3d fb 95 3f bb e9 67 4d 3e
       -0.26289538 0.07493812 -0.0029233682 0.2005917
000150 84 96 de bd 12 42 ba bd 17 a2 9b bc 53 19 be 3e
       -0.10868552 -0.09094633 -0.018998189 0.37128696
000160 09 d4 22 3e 86 1a 80 bd 79 5a fc 3d ef 85 ab 3d
       0.15901197 -0.06255059 0.12321944 0.08375155
000170 a0 91 3e 3d ff 12 7f be 64 cb c7 3d 0c 31 89 3e
       0.046525598 -0.2490959 0.097555906 0.26795232
000180 86 b3 73 3d 76 5d b6 be 40 f4 47 3f e0 09 87 be
       0.05949738 -0.3561818 0.7810707 -0.26374722
000190 87 7f cf be c1 00 6f bd b0 c1 aa bd 2a 4e b8 3d
       -0.40526983 -0.05835033 -0.08337724 0.089992836
0001a0 b0 76 a6 3e 4f 88 9f 3e b2 4e bb 3e c5 7d e1 3e
       0.32512426 0.31158683 0.36583477 0.44041267
0001b0 5b 13 99 3e 1a 95 fb 3d 2e c9 f2 3e 7a 59 6e 3d
       0.2989758 0.12284298 0.47419113 0.0581908
0001c0 7b 85 b3 3e 5d a1 59 bd 19 fb 15 bd c0 83 cf 3d
       0.35062775 -0.053132404 -0.03661642 0.10132551
0001d0 fd d0 89 3e 9e 7a ab 3d 07 56 7c 3e 81 93 ae 3e
       0.26917258 0.08372997 0.24642192 0.34096912
0001e0 a0 68 9e bc d9 56 0b 3e ce 58 08 3e bf 6a 3a bd
       -0.019336998 0.13607349 0.13315126 -0.045511957
0001f0 2c b1 05 3f ea f9 9e 3e 76 43 9f 3e aa 9f 46 be
       0.5222347 0.31050044 0.31106156 -0.19396845
000200 5b 9e c5 be f6 5f 80 be c8 db fe bd fc 2c d3 bd
       -0.38597378 -0.25073212 -0.12444264 -0.103113145
000210 6a 89 9b bd 87 ae ae bc 50 6c e4 bd 55 7b 52 3e
       -0.07594569 -0.021323455 -0.111534715 0.2055486
000220 a6 4f 84 bc e1 06 3b 3e dc 9f 91 be 31 92 d3 bc
       -0.01615126 0.18264343 -0.28442276 -0.025826545
000230 a1 2b 9b bd 6f b2 ec bc 9d 8c 1a 3d 4f 7d 19 be
       -0.07576681 -0.028893678 0.037731756 -0.14989208
000240 3a 04 90 be 51 95 ba 3d 4c dc 68 be a7 30 80 bd
       -0.28128225 0.09110511 -0.22740287 -0.0625928
000250 89 c5 e1 bd ef b5 c6 3d 36 87 37 be 19 f8 ac be
       -0.11024005 0.0970267 -0.17922673 -0.33783033
000260 5d c4 66 be c9 46 2c be 5d 96 16 bd a0 c0 15 be
       -0.22535844 -0.16823877 -0.03676449 -0.14624262
000270 a4 61 aa be a3 a8 84 be 84 3a e4 3c be 95 b7 3d
       -0.3327762 -0.2590991 0.027859934 0.08964108
000280 5a ce 1f 3d 68 64 26 3e a8 8a 07 be 50 eb 86 bd
       0.03901515 0.1624924 -0.13236487 -0.06587851
000290 15 2f 29 be 18 29 d2 3d a8 da 8a be 67 cd ee be
       -0.16521867 0.10261744 -0.27119946 -0.46641085
0002a0 f5 59 3f bd f4 36 5c be 24 11 da bd ce 86 0e be
       -0.04671665 -0.21505338 -0.106478006 -0.13918611
0002b0 66 84 37 bd bd b5 dc bd 8f a0 1c be 19 3e ab bd
       -0.044804 -0.10776851 -0.15295623 -0.083614536
0002c0 cb ac 39 be b3 f8 70 be 4c 9f 4d 3d 15 ee 00 bd
       -0.18132322 -0.23532371 0.050200745 -0.031477053
0002d0 40 e1 0b be b8 43 83 3e 6c 35 0c bf a3 70 95 bd
       -0.13660145 0.25637603 -0.54769015 -0.072968744
0002e0 f6 78 bc bc 0b 4d d5 3c ea 92 be 3d 3a 85 a5 3d
       -0.023006897 0.026037714 0.093053654 0.080820516
0002f0 0c 2f 75 3d 1b b7 f6 bc 77 7c 7a bd 02 b2 8f be
       0.05985932 -0.030116608 -0.061153855 -0.28065497
000300 6e 93 bd bd 71 d4 94 bc ce af 38 bc 29 c1 cb bd
       -0.092566356 -0.018167706 -0.011272384 -0.09948952
000310 0d b4 c5 3d 42 e0 ec 3d e4 6c f9 bd af 10 12 be
       0.096534826 0.11566211 -0.12178972 -0.14264177
000320 15 45 9b 3d cf cf 3e be 4e ab 79 bd 38 6a 93 be
       0.07581536 -0.1863396 -0.060954385 -0.28791976
000330 91 f1 92 be 56 56 aa be fe da 2a be 4e ae 89 bd
       -0.28699926 -0.33268994 -0.16685101 -0.06722699
000340 6f ed aa bd d9 ca 38 3d 41 72 d1 bb af 57 3a be
       -0.08346068 0.045115326 -0.006391794 -0.18197511
000350 39 c8 75 bd 20 cb 0d be 38 a4 99 be 17 00 2e 3d
       -0.0600054 -0.13847017 -0.300081 0.042480554
000360 8d 28 87 3e 20 63 83 be c5 4d bd bd 21 bb 8d bd
       0.26398125 -0.25661564 -0.09243349 -0.06920458
000370 68 15 bf be 30 5b 1a bc d2 e8 5d be 14 ec 68 be
       -0.3732102 -0.009421155 -0.21670845 -0.22746307
000380 9e c1 b3 be b4 8b 03 bc b8 ea 99 be 7f b3 40 be
       -0.35108656 -0.008028913 -0.3006189 -0.18818472
000390 92 dc b5 3c 9a 48 a2 bd 6b cf c6 bd 2c 47 01 be
       0.022199903 -0.07924004 -0.097075306 -0.12624806
0003a0 33 72 01 be 16 82 26 bd c2 36 5e bc 9c 40 6b be
       -0.1264122 -0.040651403 -0.01356286 -0.22973865
0003b0 e1 1b 77 bd 92 c3 a1 3c 85 d6 1a bd 95 52 b7 3d
       -0.06032932 0.019746576 -0.037802238 0.08951298
0003c0 ea 52 6a be 8c 5c 35 3d 30 1a c3 bc ae ea 13 bb
       -0.22883192 0.044277713 -0.023816198 -0.00225703
0003d0 e7 f9 02 be cd 05 ed 3d f7 c1 4e be b1 8e 0e bf
       -0.12790643 0.11573372 -0.20191179 -0.5568648
0003e0 c4 d0 9e 3d e5 e1 f0 3c f6 98 32 be b2 cf b5 3c
       0.07754663 0.02940459 -0.17441162 0.022193763
0003f0 71 ea 4b be 78 35 ad bd 86 ca 81 bc 3a 70 da bd
       -0.19913651 -0.08457464 -0.015843641 -0.10665937

FCNet.2.bias f4 [128]
000000 16 40 92 3c 2a b7 a7 bd 93 dd c4 bd 4d 7a 1e bc
       0.017852824 -0.08189233 -0.096125744 -0.0096727135
000010 ce 96 59 3c c1 47 88 bd a5 86 4e bd 7b 32 94 bd
       0.013280584 -0.06654311 -0.050421376 -0.07236191
000020 71 02 fb 3d 48 1b d4 3d 37 a5 2c bd be 8c dd bd
       0.12256325 0.10356766 -0.04214975 -0.1081786
000030 c3 d1 99 bd 9e cd 57 bc ab bf 88 bd b9 3c c2 3c
       -0.07510712 -0.013171582 -0.06677183 0.023710595
000040 df d3 e3 3d f4 f0 96 bd df 24 2d bc 7b b8 4e bd
       0.111243956 -0.07370177 -0.010567873 -0.050468903
000050 2a b1 b6 bd 6d 29 de bc 4b 20 00 3e e7 18 f1 3c
       -0.0892051 -0.027119363 0.12512319 0.02943082
000060 50 08 9c bd 15 5f 94 bd 51 a0 1e bd 91 95 13 3e
       -0.07618773 -0.07244698 -0.03872711 0.14412524
000070 2f 6f fd 3c 3a a7 85 bc 3d 8d 61 3e 2f 2e 9d bd
       0.030936806 -0.016315091 0.22026534 -0.076748244
000080 37 ad 04 bd 5b b4 89 bc 66 6d be bc ea 50 4d bd
       -0.032391753 -0.016809633 -0.023245525 -0.050125994
000090 8f 53 18 3d dc b7 bb bd d1 f4 b8 3d 5d a2 b8 bd
       0.037189063 -0.09165928 0.0903107 -0.09015343
0000a0 b3 5f e3 bc 12 1e 0a 3e 25 ab 26 bc 65 68 b1 bc
       -0.027755594 0.13488033 -0.01017264 -0.021656225
0000b0 b2 97 80 bd a2 25 be bd 47 00 f8 3c 82 df 81 bd
       -0.062789336 -0.09284522 0.03027357 -0.06341459
0000c0 ca a7 1f 3d 08 8d 05 3e e6 68 a2 bd 3e 8e 32 bd
       0.038978375 0.1304208 -0.07930164 -0.043592684
0000d0 2b 62 da bd 39 93 ec 3c ee 7c a1 bb a1 5b f0 bd
       -0.10663255 0.028878795 -0.004928223 -0.11736227
0000e0 a5 5a 49 bd 3e 89 08 3e f9 f3 15 3b 3a ca 96 3c
       -0.04915871 0.13333604 0.0022881015 0.018406976
0000f0 bf ef db bc fe 4b b3 3c a9 5e f2 bd c3 64 07 bc
       -0.026847718 0.021886822 -0.11834461 -0.00826377
000100 84 d3 1d bd cd 4a 12 be 5c 4d 22 bd cf 3b 85 bd
       -0.038531795 -0.14286347 -0.039624557 -0.06505548
000110 c1 80 06 bd 4f 4d 17 3e 2a e9 b2 bc 94 a3 a8 bd
       -0.032837633 0.14775585 -0.021839697 -0.08234325
000120 9d 5a b9 bd 61 64 82 3d c2 32 66 3c 78 49 8f 3d
       -0.09050486 0.06366802 0.014050188 0.06996435
000130 4c 3c 03 3d 61 22 c0 bd 9e b7 9a 3d 01 6d 2c 3c
       0.032039925 -0.09381557 0.075545534 0.010524035
000140 78 47 85 bd 5b b7 41 3e df 5e fd bd 91 4e 8a 3c
       -0.06507772 0.18917601 -0.12371611 0.016883167
000150 0f 91 ec bd 5e c7 49 bc 4c 58 e8 3d 3e d6 11 bd
       -0.11551105 -0.012315599 0.11344966 -0.035604708
000160 b2 55 8d bd 63 4c 90 bd 62 9b 61 3d b4 b1 65 3d
       -0.06901111 -0.070458196 0.055079825 0.056077674
000170 79 74 93 bd 4d 38 d5 bd 45 e9 34 3d 32 69 a7 bd
       -0.0719995 -0.10411129 0.044167776 -0.08174361
000180 fd c1 aa bb 8c 79 fa 3d e4 cd 12 3d 3b a2 ae bd
       -0.0052111135 0.122302145 0.035840884 -0.08527037
000190 8d 80 a3 bc 8b 50 c0 bd a2 a0 0d bd 44 a4 a5 bd
       -0.019958759 -0.09390362 -0.03457702 -0.08087972
0001a0 d2 6a 18 3d fa 96 aa bd f4 01 c7 bc ab cb f0 bd
       0.037211247 -0.08329578 -0.024292924 -0.117575966
0001b0 30 c7 71 bc a7 87 ce bd 14 d8 c1 3d 92 c4 76 3c
       -0.014756963 -0.100844674 0.09465042 0.015061514
0001c0 68 7b ef 3d f1 0c 94 bc d4 d1 d7 bc 70 bb 00 be
       0.1169346 -0.018072577 -0.026345171 -0.12571502
0001d0 f4 63 1a be 32 f8 d3 bd a6 45 ca 3c cf 15 c0 bc
       -0.15077192 -0.10350074 0.024691414 -0.0234479
0001e0 45 30 93 bd 83 5e 91 3d 2c 60 30 be 77 af 84 bb
       -0.07186941 0.07098105 -0.17224187 -0.0040492374
0001f0 aa 96 e7 3d a7 59 26 bd dd d5 9e 3c bf c7 53 bd
       0.11308034 -0.040612843 0.019389087 -0.051704165

FCNet.4.weight f4 [4, 128]
000000 26 31 c8 3e 66 b1 ae bd d0 4f c8 bb 66 ba 60 bb
       0.39099997 -0.0852993 -0.00611303 -0.003429079
000010 fe 09 d1 bb bf df c1 3c 5a 00 3a bc 17 50 a3 3c
       -0.006379365 0.02366626 -0.011352623 0.01993565
000020 47 4a 92 3e 02 e5 b8 bd a3 e0 c4 3d 9e 04 a3 3e
       0.28572294 -0.09028055 0.096131586 0.3183946
000030 42 08 a1 bc 91 15 17 3d 32 33 a9 3d 1c 45 12 3d
       -0.019657258 0.0368858 0.08261718 0.03571044
000040 45 56 29 3e 86 11 8a 3e d5 bc 0c bb b5 c0 cc bc
       0.16536815 0.26966494 -0.0021474857 -0.024994234
000050 14 e9 25 3d eb 1e ae 3c a3 cb 22 3e 86 0d 1c be
       0.040505484 0.021254977 0.15897994 -0.15239534
000060 3a 53 e3 bb a6 9f 48 bd 00 a9 fc bc 19 17 de bd
       -0.0069374116 -0.048980378 -0.030842304 -0.10844249
000070 2f 35 4c 3e 92 a3 be bd 00 1a 16 be a0 05 87 3c
       0.19942163 -0.09308542 -0.14658356 0.016482174
000080 d3 9b 0b 3d c9 5b e3 bd dc c5 01 3d 49 2f 8e 3c
       0.034084152 -0.11101491 0.031682834 0.017356532
000090 30 95 59 bc 8a 1b 72 bd b6 67 4d 3e 3e 54 82 bd
       -0.013280198 -0.059108295 0.20059094 -0.06363724
0000a0 c3 1f 87 3e c4 43 ab bc 20 50 9f bd f6 ac 1b 3d
       0.2639142 -0.020906337 -0.077789545 0.038006745
0000b0 a6 16 9d 3e f4 b4 0c 3c 32 d2 1e 3e 37 29 89 3e
       0.30681342 0.008588064 0.1550987 0.26789257
0000c0 a3 5e f1 bd de 97 14 be 78 da 71 bd b6 18 52 be
       -0.11785629 -0.14511058 -0.05904624 -0.20517239
0000d0 1e a4 dc bd 16 29 d2 bc d1 bf 1e 3d 00 2e 81 bd
       -0.1077349 -0.025654357 0.03875715 -0.06307602
0000e0 05 e3 50 be dd ee 82 bd d4 6f df bd c9 60 4f 3e
       -0.20399101 -0.06393216 -0.109100014 0.20251764
0000f0 65 ff 88 3e 39 82 a7 3d 4e af 41 bd 9a e4 8b 3d
       0.2675735 0.08179135 -0.047286324 0.06830712
000100 32 f2 11 3d a4 74 1b bd 36 5b 1f 3d a8 4d 15 be
       0.035631366 -0.037953034 0.038905345 -0.14580405
000110 1e b0 02 bc ba 03 0b bd 5b 3a 87 bd e8 42 d8 3c
       -0.00797656 -0.0339391 -0.06602927 0.02639909
000120 fa fc 69 bd 6d 1d 4d 3e 78 57 7f 3e 50 d2 3b 3d
       -0.057126023 0.20030756 0.2493571 0.045854867
000130 db 02 11 bd 87 d1 9a 3d 49 45 f2 bd 8e e8 0f 3b
       -0.035403114 0.075594954 -0.11829621 0.0021958682
000140 51 9c 0e bd ee 92 e9 3d 77 77 b3 3d 8b db 61 bd
       -0.034817044 0.11404978 0.087630205 -0.055141013
000150 b2 3c 82 3d 36 af fc 3e 87 d8 dc 3e c5 cb 40 3c
       0.06359233 0.49352425 0.43133947 0.011767332
000160 3e 9f da 3e 0e b0 7b 3d 2d fc 51 bd 4f ab 1a 3e
       0.42699617 0.061447196 -0.051265884 0.15104412
000170 77 92 1a 3c b4 5f ce 3c 46 9d 51 3e 52 55 3b bd
       0.009434334 0.02519212 0.20470151 -0.045735665
000180 8d 1e dc bd 07 30 94 3e 24 5e fc 3d ec 6c e7 3e
       -0.107480146 0.28942892 0.123226434 0.45200288
000190 3d ab df bc 07 05 8b bc 10 56 17 bd 81 39 a0 3b
       -0.027303332 -0.01697017 -0.03694731 0.0048896675
0001a0 ba 95 b2 3e 33 67 6c 3d 22 e0 1a 3d f9 f8 8a 3d
       0.34879857 0.057715606 0.037811406 0.06785769
0001b0 ac d7 6d 3d 68 f5 8c bd cd 7e 6e bd 8c 42 c3 bc
       0.05806701 -0.06882745 -0.058226395 -0.023835443
0001c0 e1 41 b4 3d 55 40 e6 3d 2e a3 91 bd cd f5 1a bd
       0.08801628 0.11242739 -0.07111202 -0.03783207
0001d0 7b a3 12 bd 3e 35 0d 3d 1a d6 97 3d 67 22 be 3c
       -0.03580044 0.034474604 0.074138835 0.023209764
0001e0 eb 4a 90 3e 87 56 8d bd 03 2f a2 3e c3 cd a8 3d
       0.28182158 -0.069012694 0.31676492 0.08242371
0001f0 2e b4 c7 3e a1 e7 80 bc 90 c3 14 3e 17 ed 72 bd
       0.39004654 -0.01573545 0.14527726 -0.059308138
000200 f3 49 58 3e 0c a4 df 3d 30 5c 53 be 48 3a 94 3d
       0.2112196 0.10919961 -0.20640635 0.07237679
000210 87 e3 14 bd 25 37 ae 3d ed 09 c4 3d a3 c9 2f 3c
       -0.0363498 0.08506612 0.09572206 0.010729226
000220 89 4d fc 3e aa 0b b8 3b ec 23 5c 3d 8a c3 32 bd
       0.49277905 0.005616625 0.053745195 -0.04364351
000230 83 2a 4e 3d 36 54 a0 bc d4 6a 29 bb 62 57 89 bc
       0.05033351 -0.019571405 -0.0025851028 -0.0167653
000240 ed 1e 20 3e bf 48 ed bc 28 61 a1 3e 07 69 c1 3e
       0.15636797 -0.028965352 0.31519437 0.37775442
000250 1c bc ce 3c ce 9d b6 3e a5 2e ce 3e 2f fd 9d 3e
       0.025236182 0.3566727 0.40269962 0.30857226
000260 05 80 b6 3a 7d d6 c1 bd 94 10 f8 3c 11 59 61 bc
       0.0013923651 -0.094647385 0.030281343 -0.013754145
000270 ab 50 93 3e fc bf c6 3d 5b 86 d0 3c 60 4f f9 3c
       0.28772482 0.09704587 0.02545469 0.030433357
000280 b1 3c 80 3e 79 ae 0a be 2b 3d 69 3d 47 cd 6f bd
       0.25046304 -0.13543119 0.0569431 -0.058545377
000290 8d 62 a6 bd 06 dc 7b 3d 47 08 9e bc 5a 90 f9 bc
       -0.08124266 0.061489128 -0.019291056 -0.03046434
0002a0 4a b9 d4 bd 25 74 5e be 0c 82 c0 3a 20 71 ff 3d
       -0.103869036 -0.21723993 0.0014687194 0.12472749
0002b0 2c 01 40 bd b9 a6 b9 3d 18 33 ae 3e f3 03 3b 3e
       -0.046876118 0.09065003 0.34023356 0.18263225
0002c0 f3 5c 11 bd fe d5 f8 3c 67 fe 9d 3d e9 43 d7 be
       -0.035489034 0.030375477 0.07714539 -0.42044
0002d0 15 90 77 be 62 68 39 3c 10 8a 2b 3d 19 bc 17 ba
       -0.24176057 0.011316391 0.041879714 -0.00057882216
0002e0 4a 17 27 be b0 b6 18 3e 5f 6a b5 bd 6d 06 1e 3d
       -0.16317478 0.1491344 -0.08858179 0.038580347
0002f0 6f 06 d8 be a4 34 77 bd 1d a5 f6 be de 15 84 3d
       -0.42192408 -0.060352936 -0.48172846 0.06449483
000300 92 b2 57 bd 52 c0 1d bf d1 58 0f 3e 39 1d 3a 3e
       -0.052660532 -0.6162158 0.13998725 0.1817521
000310 1d f3 1a bd 2e cb 65 3c 7a c9 41 bc f3 81 32 3c
       -0.037829507 0.014025493 -0.011827821 0.01089524
000320 d0 cc 8e be c3 ed 45 3e da 0a 63 be 5c aa fa bd
       -0.27890635 0.1932898 -0.22172108 -0.12239525
000330 55 2c f5 3e a4 fc 96 3d 22 6f 81 3d 39 95 7b be
       0.47885385 0.07372406 0.06320025 -0.24568643
000340 99 c5 9b 3d 8c 0c 71 be 3f 13 00 3e d5 78 b4 bd
       0.07606048 -0.23539943 0.12507342 -0.088121094
000350 55 dd 28 3c 72 b1 f8 3d f5 5b f9 bd 5a 47 af 3d
       0.010306676 0.1214322 -0.121757425 0.08558531
000360 3e 23 1a be 87 13 70 bc b2 55 e2 3d 90 e8 fd be
       -0.15052506 -0.014653093 0.11051501 -0.49591494
000370 c3 4b 8c 3d 56 1c 15 3d 61 d6 6d 3e 34 52 d8 bc
       0.06850388 0.036403976 0.2322631 -0.026406385
000380 00 70 bb be 52 e3 23 be 94 22 8c 3e 27 54 07 3c
       -0.36608887 -0.16004685 0.2737013 0.00825981
000390 90 05 8b 3d 0f 3d 5d 3d 99 97 df 3c 1b ee eb bb
       0.0678817 0.05401331 0.027293967 -0.0072000152
0003a0 88 92 b7 3e b1 19 84 bb ff 7a 2f ba 9d 57 48 ba
       0.35853982 -0.004031383 -0.0006694048 -0.000764245
0003b0 af f3 4e bd f0 28 b9 3e 1d 3f 21 3e da d3 16 bd
       -0.050525364 0.36164045 0.15746732 -0.03682313
0003c0 f9 0a 97 be 33 9d ea bd 7f 46 f9 3c 1b fd 07 3d
       -0.2950056 -0.114557646 0.030429123 0.033200365
0003d0 95 b8 66 bd 9b e5 95 3d 2c 6f bd 3d 91 9b 06 be
       -0.056328375 0.073191844 0.0924972 -0.13145281
0003e0 fe 2f ad bd e3 eb d1 3d fc f3 b6 be 2b 4d 15 3e
       -0.084564194 0.1025007 -0.3573302 0.14580218
0003f0 e0 2f 81 bc c7 c0 47 3d c9 89 08 3e 81 b4 34 3d
       -0.015769899 0.04876783 0.13333811 0.044117454

FCNet.4.bias f4 [4]
000000 05 02 1f 3e f7 d0 de bd 32 b2 49 3e 67 aa f2 bc
       0.15528114 -0.10879701 0.19696882 -0.02962227
