DDPG_linear/model/MountainCarContinuous-v0_actor.pt (torch, 496319 bytes, 9 tensors)

FCNet.0.weight f4 [400, 2]
00000000: 32e1 4abb 1a30 6bbd 4d07 29bc 158d 4d3e
00000010: 3b15 55bc 723c 0ebe 0ee3 0dbd 72e2 363e
00000020: a624 16bb 9fcd eebd e568 66bc c347 323e
00000030: ba92 1d3c d432 3c3e 3231 0ebc 1f74 1b3e
00000040: cae0 3bba 0ee3 64bc c221 26bb f5ac d63d
00000050: 09f2 3db9 04ea 0fbd 9103 6dbb 92e3 5bbd
00000060: 325f 1abd f5e6 063e 87f0 10bb aa15 2dbd
00000070: bacf 4bbb d5f9 3cbd fd9c 95ba 5fe7 12be
00000080: 80cd c9bb b425 e3bd 0d64 b1bc 63b5 80be
00000090: 7e87 09bb 03eb 1bbd 135b 41bb 5813 07be
000000a0: 6008 e0bb e02f 1e3e f1fb 19bd 82a9 033e
000000b0: 9ddd bdba 56e4 a5bc eb67 143c afe3 61bd
000000c0: b192 11bb 3ea9 81bd 04be b0ba 6bb7 55bd
000000d0: 672c 0bbc 7706 5f3e 85de 1abb 6dfa 15bd
000000e0: 62fa f9bb d40a d0bd 38e7 bebb 8f94 61bd
000000f0: a7ff 18bd b8a0 483e e389 89bc 0710 50be
00000100: 0030 8cbc 5637 76be 2688 00bd 6a56 2e3e
00000110: 0a15 30bb 0c22 05bd 3488 b8bb fc9a acbd
00000120: 25b6 0dbb c27d 83bd 3a20 b1bc 6c3a 473e
00000130: 4a7d a4bb d08a ccbd f852 6bbb 52c1 b73d
00000140: 2091 11bb 864a 99bd 4c05 fe38 abeb 29bd
00000150: cb3b 2ebc 058c 82be 74c3 0dbb 6077 47bd
00000160: ccfe b0bb a21e cfbd a510 103c d992 0dbd
00000170: 26a4 fb3b 9448 303e 4e6a 09bc 8fe1 b8bd
00000180: 8088 e1ba 4022 1fbd 732f 5c3c 992b b13d
00000190: 6079 dfba 2fef 42bd c36a ebba 0172 7dbd
000001a0: 644c 33bc 17e8 3ebe f014 04bd 320e d53d
000001b0: 98b4 c4ba 2c53 9cbd 9451 c2bc a8bb 443e
000001c0: f014 0d3d 705a 0e3d 31b9 41bb 53e9 b63d
000001d0: bbfd d83c 4922 72bc cd76 cdba 2d28 dfbc
000001e0: df4a 1dbb 5f61 87bd 9784 32bc b3a2 03be
000001f0: c4c7 11bd 1eec 1d3e 7cbb ccbb 5965 d8bd
00000200: 4049 76b9 1e2d d33d 85a4 d23a 97db 62bd
00000210: fc18 683a 804c 47bd 2c5a bbbc aeca 303e
00000220: 910f 22bb 43fc ad3d 3272 40bb 7972 4fbd
00000230: ac84 c5bb b263 143e 1216 99ba 367a 0cbe
00000240: a284 64bc 5cef 8dbe a227 5b3c fe94 19bd
00000250: 2df6 c3bb da38 babd 2fc6 92bc 07d0 043e
00000260: ec37 81bb b57b ef3d af3f 85bb 5c42 46bd
00000270: 56c8 6ebc 18c3 0fbe a000 06bc 7c60 2f3e
00000280: 3935 e83c d1c0 b83d 7f2a b6ba 1e2d 67bd
00000290: 6797 383c 2d09 0ab9 bb26 deb9 dcd8 a5bd
000002a0: 4df8 58bb c8cf b5bd def6 7cbb 7178 aa3d
000002b0: a8f6 543a 4061 c1bd cb5b 13bd fc6e 053e
000002c0: bf44 cabb 7cea 173e 0ec3 203c 15f0 2a3e
000002d0: 66c8 87bc a045 52be 1c46 73bb 9cf2 dfbd
000002e0: 1478 99bc edcb 56be 8923 f3ba 3928 d2bc
000002f0: 2148 66bb c1a8 febd 5cc5 fcba d716 54bd
00000300: e8ed 87bc dcdc 4dbe 554d b73c 2254 293e
00000310: 2223 4abc 2b8c 4dbe c2e7 f5ba 38b9 b4bd
00000320: 5cbe 3abb 4ff0 d43c 73a9 8eba b632 56bd
00000330: 0332 803c fb5b f93c 96b4 853b b789 043e
00000340: a37d c7ba 41d1 50bd 077f 18bc bc21 31be
00000350: 93dd 94bb c2fd 043d 5106 f93c ac8c f23c
00000360: a4ae ddbb 2913 fabd 7b8b 10bb a640 4fbd
00000370: 8b85 1ebd 27c5 f93d f9a0 6d39 c45d fabd
00000380: 832d 26bc 3f65 38be 2ca3 fb3c 2653 023e
00000390: 0b50 1b3d 604a 873d a17e 79bb e6de 293d
000003a0: cd7c ed3c ec86 e93d 583a 86bc 7150 2d3e
000003b0: 6ac6 1bbd d98b 543e 31ae 693c 8c03 733c
000003c0: 21aa e63c 7db2 613c ecd1 21bb d127 42bd
000003d0: 26d9 d0bb d8fd 27bd 9805 2bbc d541 01be
000003e0: 3ea4 f7bc 6921 413e 9154 0f3d cee6 9b3d
000003f0: 2b68 a8b9 9d5f abbd f688 78bb 1838 fbbd
-0.003095698 -0.05741892 -0.010316682 0.2007335 -0.01300555 -0.13890246 -0.034640364 0.1785982
-0.0022910028 -0.11660313 -0.014063095 0.17410187 0.009617502 0.18378764 -0.008678721 0.15181015
-0.000716698 -0.01397015 -0.002534971 0.10482208 -0.0001811461 -0.035135284 -0.0036165456 -0.053683825
-0.03768844 0.1317404 -0.0022116022 -0.04225699 -0.0031099156 -0.046136696 -0.0011414584 -0.14346074
-0.0061585307 -0.11091176 -0.021654153 -0.25138387 -0.00209853 -0.03806592 -0.0029503747 -0.13190973
-0.006836936 0.1544795 -0.037593786 0.12857631 -0.0014485602 -0.02025048 0.009057979 -0.055148777
-0.002221268 -0.063311085 -0.0013484363 -0.052176874 -0.008494473 0.2177981 -0.0023631167 -0.036615778
-0.007628725 -0.10158315 -0.0058259033 -0.055073317 -0.037353184 0.1959256 -0.016789382 -0.20318614
-0.017112732 -0.24044546 -0.03137984 0.17025152 -0.002686801 -0.032503173 -0.005631471 -0.084279984
-0.002162346 -0.06420471 -0.021621812 0.1945588 -0.0050198184 -0.09987414 -0.0035907608 0.0897242
-0.0022211745 -0.07484917 0.000121126504 -0.041484516 -0.010634373 -0.2549745 -0.0021631392 -0.04869783
-0.005401468 -0.101132646 0.008793031 -0.034563873 0.00767948 0.17215186 -0.008387161 -0.09027397
-0.0017206818 -0.038851023 0.013439047 0.08650894 -0.0017049722 -0.047591385 -0.0017960895 -0.0618763
-0.010943506 -0.18643223 -0.03224653 0.10403098 -0.0015007434 -0.07633051 -0.02372054 0.1921221
0.034443796 0.034754217 -0.0029559846 0.08931222 0.026488176 -0.014778682 -0.0015675664 -0.027240837
-0.0024000925 -0.06610369 -0.01089587 -0.12855034 -0.035590902 0.15422103 -0.006247936 -0.105662055
-0.00023487676 0.1031134 0.0016070759 -0.0553852 0.00088538206 -0.04865694 -0.022870146 0.17264816
-0.0024728517 0.08495381 -0.002936494 -0.05064628 -0.0060277786 0.14491156 -0.0011679551 -0.13718495
-0.013947638 -0.2772168 0.013376148 -0.037495606 -0.005980274 -0.09092875 -0.017916767 0.12969981
-0.003943434 0.11693517 -0.0040664296 -0.04840313 -0.014574131 -0.14039266 -0.00817886 0.1712665
0.028345691 0.09021152 -0.0013898163 -0.05643951 0.011266566 -0.00013164124 -0.00042371996 -0.08098003
-0.0033106983 -0.08877522 -0.0038599293 0.083237536 0.0008123913 -0.09442377 -0.035976212 0.13030618
-0.006172746 0.14835542 0.00981213 0.16693147 -0.01657505 -0.20534372 -0.0037120646 -0.10934946
-0.018734016 -0.20976229 -0.0018550019 -0.025653945 -0.0035138207 -0.12434531 -0.0019284892 -0.051779594
-0.016592935 -0.20103782 0.022375742 0.16536 -0.012337478 -0.20073001 -0.0018761086 -0.0882439
-0.002849481 0.025993494 -0.001088424 -0.052294455 0.015648847 0.030439368 0.0040803654 0.12943159
-0.0015219938 -0.05098081 -0.009307629 -0.17298025 -0.0045430153 0.032468565 0.03039852 0.029608093
-0.0067652036 -0.12210686 -0.0022055793 -0.050598763 -0.038701575 0.12195807 0.00022662048 -0.122249156
-0.010142687 -0.18007372 0.030717455 0.12727031 0.03791813 0.06605983 -0.0038069861 0.04147234
0.028990174 0.114026874 -0.016385242 0.16925217 -0.03803102 0.20756473 0.014262722 0.014832389
0.028157296 0.013775465 -0.0024691774 -0.047401253 -0.0063735424 -0.04101357 -0.010438345 -0.12622769
-0.030229684 0.18860401 0.03499276 0.07612382 -0.00032121068 -0.08367846 -0.0037923432 -0.122665584

FCNet.0.bias f4 [400]
00000000: 1506 2e3c bac3 843c 107b cb3a 2f28 c43b
00000010: c90c 293c 9286 033c e762 ab3c 94e8 7d3c
00000020: 099d 613c e4fa b33c d51e 903c 1461 2f3c
00000030: d715 cc3b efe6 643c 8b35 4a3c fd51 2b3c
00000040: 445f d23b 069c 723c 3572 573c 52f2 023c
00000050: 418d 943c 3d30 ca3b a3ec 853c 0f5b b83c
00000060: 3c62 453c 124e 6b3c a6b1 9b3c 7988 493c
00000070: e047 0e3c f577 1b3c c3a6 c03b 9421 653c
00000080: 4413 843c 7f2a d53b f697 553c 71b3 233c
00000090: 6f01 503c e671 eb3b e8f5 083c bfc4 b03c
000000a0: a6e3 3d3c 21e3 913c 602b 653c 25e9 603c
000000b0: 2ac9 023c 50ca ac3c 33a1 a53c e40f 0b3c
000000c0: 3681 523c 061e ae3c cc33 693c db3d 5b3c
000000d0: 6931 2a3b c3f3 df3b 8016 5b3c 04bb ed3b
000000e0: 6c59 873c b7ff a53c ee77 8a3c 11ed 833c
000000f0: f52e 263c 68e9 733b 3627 cb3b 80f4 cd3b
00000100: 644e 843c d50b 8e3c c531 8f3c e137 f73b
00000110: 8066 a93c 8326 413c 781a 983c f906 653c
00000120: 3f4c 7c3c 22db d03c ebf7 e13b 5af0 d13b
00000130: 7bbe 9c3c 22f6 1f3c 231f 923a 944f 8a3c
00000140: 2abf 743c 8fa5 543c 510c ce3c 6d93 593c
00000150: 8f69 303c e4c2 af3c 30d2 5c3c 9c1d d03b
00000160: 0797 b13c 54b4 aa3c 61b7 6a3c 9cb7 143c
00000170: 8d86 613c 608a 833c f194 163c 31f6 563c
00000180: 64d4 643c a571 5c3c e5c5 563c c214 383c
00000190: 3c43 583c bb42 533c a479 b63c acd5 953c
000001a0: 4e99 463c 0090 5f3b 347a 873c fa98 833c
000001b0: 68ab c33b d67b 553c cb31 c93b 3d0e 513c
000001c0: b449 273b ac48 713c 3571 853c cb57 6b3c
000001d0: 12ce 703c aae5 313c 96ef bb3b 445a 9f3b
000001e0: 2571 863c 4e5a 303c 48db 0a3c 1746 803b
000001f0: 2b5b db3b 273b 823c fda2 563c 0c84 0f3c
00000200: 95eb 4d3c 79fa c03b a613 9b3c 241b 103c
00000210: fa88 313c 3980 0b3c 8e25 0e3c 244b 883c
00000220: 894a 9e3b 0ec8 0e3c fdd8 ac3c 6c76 8a3c
00000230: 7f66 cc3b a03d 663c dd68 213c b0bc 733c
00000240: e524 863c f681 863c 3cdf 963c 6b22 e73a
00000250: e4ad a53c dd87 593c 9723 703c 0bcb d03b
00000260: f614 e23b f3c7 733c 14c6 3d3c ad1a 503c
00000270: 9263 ceba 2379 bb3c f3e4 a93c 262b 503c
00000280: 2733 ad3c d461 553c 7053 a33c 86b3 443b
00000290: f014 d239 4b3a 883c 0125 5d3c 762a 1b3c
000002a0: 8fe1 aa3c 7123 333c 2af3 0f3c e11a a63c
000002b0: b870 a03c df9a 383c 96ec 9a3c a429 6b3c
000002c0: 047a 803c d914 d23b dd3d f73b bbfc 143c
000002d0: af12 113a fb14 913c 9e6e 8c3c 8def c73b
000002e0: 2c5e 863c e605 763c f944 8e3a 798b ea3b
000002f0: 22ee 023c 1b6f c83c 2a52 af3c 7e95 393c
00000300: 216b bc3b 44cd 8a3c 8372 513c 8232 3b3c
00000310: d794 e03b 64f4 bc3a ab43 233c e7f8 543c
00000320: a5a3 823c 7881 433c f4eb 9b3b aa7e fd3b
00000330: df27 813c dcf0 a73b 9428 833c 163f 0cba
00000340: 083b 5b3c 9c43 363c 2b01 343c 1ce9 983c
00000350: fc88 c23c 4b4d d43b e357 303c a058 853c
00000360: 0b87 663c f3bd 333c 419d b83c 3b84 cc3b
00000370: ec9f c63b c5c0 5a3c 41b8 d43b cbd3 aa3c
00000380: c5b1 ad3b 3e49 c73b c5d4 9c3c 6a14 8c3b
00000390: 15e8 a43c 2121 8e3c 5eca b33c 7aaa 8e3c
000003a0: 65a6 393c 5c88 e43b c955 eb3b 67e3 843c
000003b0: 2f5b 5a3c d148 6a3c 8efd 8a3c 8add 023c
000003c0: 8560 993c 2c73 d33b a399 923c f92e 4c3c
000003d0: 6051 c83c dc5a e83b 312c d73b 8e6b 623c
000003e0: 3177 4a3c 7b35 883c c2a2 9d3b be9a 9b3b
000003f0: c30e 883c 7278 893c 768c b23b ca58 2f3c
0.010621567 0.016206611 0.0015524346 0.0059862356 0.01031799 0.0080276895 0.020921184 0.0154973455
0.01377035 0.02197022 0.017592827 0.010704298 0.0062281894 0.0139710745 0.012341867 0.010456559
0.006420048 0.014807707 0.013149788 0.007992344 0.018133761 0.006170301 0.016348189 0.022504358
0.012047347 0.014361875 0.019005608 0.012300604 0.0086841285 0.009489049 0.0058792545 0.013985056
0.016122468 0.00650531 0.013036719 0.009991513 0.012695654 0.0071852086 0.00835941 0.02157819
0.01158992 0.017808499 0.013987392 0.013727461 0.007982532 0.021092564 0.020218467 0.008487675
0.012848189 0.02125455 0.014233541 0.013381447 0.0025969392 0.0068344786 0.013372064 0.00725496
0.016522132 0.020263536 0.01690289 0.016104253 0.010143031 0.0037217978 0.0061997427 0.00628525
0.01615066 0.017339626 0.017479787 0.007544503 0.020678759 0.011788967 0.018567309 0.013978713
0.015399038 0.025495116 0.006896009 0.006406826 0.019133797 0.0097632725 0.0011148195 0.016883649
0.014938155 0.012978925 0.025152357 0.013279778 0.010767355 0.021455236 0.013477847 0.006351186
0.02167846 0.02083794 0.0143259475 0.009076979 0.01376499 0.016057193 0.009190784 0.01312022
0.0139666535 0.013454829 0.013108705 0.011235418 0.013199624 0.012894328 0.0222748 0.018290363
0.012121512 0.003411293 0.016537763 0.016064156 0.005971361 0.013030013 0.006139969 0.012759742
0.0025526108 0.014726799 0.016289333 0.014364193 0.0146975685 0.010857979 0.005735348 0.0048630554
0.016411373 0.010763718 0.008475132 0.0039146054 0.0066942177 0.015897347 0.013100383 0.00875951
0.012568374 0.0058892337 0.018930268 0.008795533 0.01083588 0.008514457 0.008675946 0.016637392
0.0048306626 0.008714689 0.021099562 0.016902171 0.0062378044 0.0140527785 0.0098516615 0.01487653
0.016375015 0.016419392 0.018416993 0.0017634159 0.02022452 0.013277021 0.014656923 0.006371861
0.0068994714 0.014879215 0.01158287 0.0127016725 -0.0015746227 0.02288491 0.020739054 0.0127056
0.021142555 0.013023812 0.019937247 0.003001423 0.0004006992 0.016629359 0.013497592 0.009470573
0.020859508 0.010933743 0.008786002 0.020276489 0.019584998 0.011267393 0.018911641 0.01435319
0.015683182 0.0064111766 0.0075452165 0.009093459 0.0005534095 0.0177102 0.01714259 0.0061015547
0.016402327 0.015016055 0.0010854296 0.0071577397 0.007991346 0.024467042 0.021401484 0.011327146
0.0057500754 0.016943581 0.012783649 0.011425616 0.0068536806 0.0014416096 0.009964864 0.012998796
0.015947172 0.011932723 0.0047583524 0.007736047 0.015766082 0.005125148 0.01601056 -0.0005349977
0.013380773 0.011124518 0.010986607 0.018665843 0.02374696 0.0064789406 0.010763141 0.016277611
0.014070283 0.01097058 0.022535922 0.006241349 0.0060615446 0.013351624 0.0064916913 0.020852944
0.005300733 0.006081729 0.019144425 0.0042748945 0.020130197 0.017349781 0.021947082 0.017415274
0.011331175 0.006974263 0.0071818572 0.016221715 0.013327404 0.014299587 0.016966607 0.007987389
0.018722782 0.0064529385 0.017895525 0.012462371 0.024452865 0.0070909094 0.0065665473 0.013819588
0.012357519 0.016627064 0.004810662 0.0047486713 0.016608601 0.016781066 0.005448873 0.010702321

FCNet.1.weight f4 [400]
00000000: 57b5 733f 7fde 813f 73c2 813f 6ee8 7e3f
00000010: e1d0 713f a8d7 763f b798 813f cafc 783f
00000020: 2c4a 703f 5b25 793f a1b9 6c3f bdce 6f3f
00000030: 8814 823f f1ee 6d3f 35f3 693f 0759 723f
00000040: a90b 703f 9b49 873f 6a71 6e3f 095d 753f
00000050: fbe7 793f 5e98 813f 78e0 6c3f 7405 753f
00000060: 9bd5 773f 00ef 783f 4bd5 833f bcda 6c3f
00000070: 8ad5 753f ab62 713f 943e 853f dd96 833f
00000080: 6354 883f de8c 803f 1a77 723f 84d1 6e3f
00000090: 7c18 723f e8ac 7e3f 9e57 6f3f bde1 773f
000000a0: d8a0 743f 69c6 6f3f 034d 883f 84e5 723f
000000b0: 52dc 793f e74c 773f 734f 813f d7e1 703f
000000c0: 1cfe 693f 8edf 7e3f ab66 693f d06d 683f
000000d0: d1b7 803f 98b9 803f 4b92 683f 5012 823f
000000e0: 6c72 7c3f 3d11 773f c759 7c3f 3ae6 6a3f
000000f0: efbd 6f3f 1cea 783f 950e 823f 2c91 733f
00000100: f206 773f 7aef 713f caec 713f 88bb 7c3f
00000110: 2458 733f a47d 723f 5090 793f f726 6f3f
00000120: d605 8b3f c426 7f3f 5fe0 6d3f 4c26 783f
00000130: 5c0e 7b3f 3975 703f 9e72 7a3f 888f 793f
00000140: 9f2f 803f c3d2 733f 24e1 803f 5f55 6e3f
00000150: a23d 6e3f de15 723f f17a 7b3f a8d3 813f
00000160: af69 793f f1be 803f e803 833f 39d1 6b3f
00000170: 5a9b 843f 20d5 643f 9dac 763f 8b1c 733f
00000180: 125b 833f 07cb 813f 7cb5 833f 94b6 703f
00000190: 54c2 6d3f 192a 773f 478e 7e3f 14d5 7c3f
000001a0: 4f0b 753f 5e4f 803f 1af6 693f 17aa 7b3f
000001b0: f16c 733f cf8c 6d3f eb4c 823f 6f0f 753f
000001c0: 118a 803f 64c6 7f3f 0ba7 7d3f dc94 6d3f
000001d0: b47f 803f 4d14 7d3f 87e3 813f 673f 7e3f
000001e0: 7c89 7c3f 4c37 6b3f fa65 683f 7faa 753f
000001f0: 56ce 833f 6057 7e3f 02e4 7a3f 2383 743f
00000200: 1fc9 6d3f 7782 833f d658 7d3f b1fd 713f
00000210: 841f 763f 3f20 823f 8d05 6f3f bec2 7d3f
00000220: 030e 7c3f f2fc 713f 822c 723f c960 6d3f
00000230: 8d3a 813f 66e1 743f 3e16 793f 43ea 843f
00000240: db17 7c3f bc6e 7f3f d16a 803f 72d4 813f
00000250: 320e 793f 4fc2 733f d657 803f 568f 753f
00000260: 8536 7b3f 16ec 793f f05f 823f 2b62 6e3f
00000270: a1ab 7f3f 453b 7c3f 0c1b 773f 2df2 803f
00000280: 6579 7a3f 5e6c 683f 07d9 743f c73a 7e3f
00000290: a679 803f 8bed 733f 9f8c 6e3f 2ccf 6d3f
000002a0: 2123 7b3f 6f72 773f fa01 763f 8fb6 773f
000002b0: c065 763f 60cc 773f b3e1 813f 5673 803f
000002c0: c012 7d3f a545 813f edbf 783f 7df1 703f
000002d0: 2f6e 813f 0c2a 793f 65a8 683f 830d 803f
000002e0: 719b 7f3f 65be 783f f573 803f 3fcd 803f
000002f0: c6ce 773f 3984 813f 9ccc 723f afbc 863f
00000300: 5d2f 783f 0365 753f 86ee 6d3f ab33 753f
00000310: 9018 813f f3b3 823f aef2 743f e10e 6f3f
00000320: 0437 833f 7b05 743f e8e6 7a3f cace 673f
00000330: aad5 853f 2541 743f 3bad 733f 0c8d 813f
00000340: 5dca 783f 69ab 773f 35f0 763f 5105 793f
00000350: 5424 7d3f fe88 6f3f e76e 713f a4a2 7a3f
00000360: 606d 6c3f 1957 723f 6ea5 703f 7d07 813f
00000370: 4c76 853f e896 753f 1084 793f 8ef4 743f
00000380: ad86 823f ac5a 833f 6545 7a3f 5cd4 743f
00000390: 78ca 7d3f 3787 793f 9c4c 763f 288c 6f3f
000003a0: 0844 723f 7c6b 833f 3d18 783f ab2b 823f
000003b0: 1f1c 6d3f 4d47 733f f7c6 7e3f 10d6 7b3f
000003c0: 9f18 773f 6c7d 813f 0d20 6a3f 050e 863f
000003d0: 40ac 7a3f 8124 763f a6e1 7e3f 822e 783f
000003e0: 2e3d 743f 9628 7f3f c55c 7d3f 7c1c 7e3f
000003f0: 39ea 733f 5329 7c3f fabd 793f 392c 783f
0.9519858 1.0146025 1.0137466 0.9957341 0.9445935 0.96422815 1.012473 0.97260725
0.9386318 0.97322625 0.9247075 0.9367483 1.0162516 0.9294272 0.9138673 0.94667095
0.9376779 1.0569338 0.93141806 0.95845085 0.976196 1.0124624 0.9253001 0.95711446
0.9681031 0.97239685 1.0299467 0.9252126 0.9602896 0.9429118 1.0409722 1.0280415
1.0650753 1.0042989 0.94712985 0.93288445 0.9456861 0.99482584 0.9349307 0.96828824
0.9555793 0.93662125 1.0648502 0.94881463 0.9760181 0.9660172 1.0102371 0.94094604
0.91403365 0.9955987 0.91172284 0.9079256 1.0056096 1.0056639 0.90848225 1.0161839
0.98612094 0.9651068 0.9857449 0.9175755 0.9364919 0.9723222 1.01607 0.9514339
0.9649497 0.9450604 0.94501936 0.9872365 0.95056367 0.9472296 0.9748583 0.9341883
1.0861156 0.99668527 0.9292049 0.96933436 0.98068786 0.9392887 0.9783114 0.97484636
1.0014533 0.9524347 1.0068707 0.93099016 0.93062794 0.94564617 0.9823447 1.0142717
0.97426885 1.0058271 1.0235567 0.92116123 1.035991 0.893877 0.96357137 0.9496543
1.0262167 1.0140084 1.028976 0.9402859 0.92874646 0.9654861 0.9943585 0.9876263
0.9572038 1.0024221 0.91391146 0.9830641 0.95088106 0.9279298 1.0179724 0.95726675
1.0042135 0.99912095 0.9908301 0.92805266 1.0038972 0.988591 1.0147561 0.99315494
0.98647285 0.9188125 0.90780604 0.9596328 1.0297344 0.99352074 0.9800416 0.955126
0.9288501 1.027419 0.9896368 0.9452773 0.9614184 1.0166091 0.93367845 0.9912528
0.9845888 0.9452659 0.94599164 0.9272581 1.0095993 0.9565643 0.97299564 1.0383991
0.984739 0.9977834 1.0032598 1.0142958 0.97287285 0.95218366 1.0026805 0.9592184
0.98130065 0.97625864 1.0185528 0.9311854 0.9987126 0.9852794 0.96525645 1.0073906
0.97841483 0.90790355 0.9564366 0.9930844 1.0037124 0.95284337 0.9318332 0.92894244
0.9810048 0.96658987 0.96096766 0.9676294 0.9624901 0.96796227 1.0147003 1.0035198
0.98856735 1.0099379 0.97167856 0.9411848 1.011175 0.97329783 0.9088195 1.0004123
0.9984656 0.9716552 1.0035387 1.0062636 0.96799886 1.0118476 0.9484346 1.0526332
0.9694727 0.95857257 0.9294208 0.95781964 1.0085621 1.0211166 0.956828 0.9338208
1.0251164 0.9532086 0.98008585 0.9054991 1.045583 0.954119 0.95186204 1.0121169
0.9718378 0.96745926 0.96460277 0.9727374 0.9888356 0.9356841 0.9430985 0.9790442
0.92354393 0.9466415 0.94002426 1.008041 1.0426726 0.9593339 0.97467136 0.9568566
1.019735 1.0262046 0.9776214 0.95636535 0.9913707 0.97471946 0.96210647 0.93573236
0.9463506 1.0267177 0.96911985 1.0169576 0.92621034 0.9503067 0.99522346 0.9837351
0.96521944 1.0116401 0.91455156 1.0473028 0.9791908 0.9614945 0.9956306 0.96945965
0.9540585 0.99671304 0.9896968 0.99262214 0.9527927 0.98500556 0.97555506 0.9694248

FCNet.1.bias f4 [400]
00000000: e7de 63bd f5ab 163b a088 bebc 7d8b 55bc
00000010: 063b 5fbd 6f21 eabc 9b60 933b 28ce a1bc
00000020: f7e7 83bd e614 23bd 92b6 a1bd 818b 8bbd
00000030: 6706 76bc 5c84 7ebd 0415 d2bd b97e 4bbd
00000040: 741a 83bd 4016 b73b dd82 8abd f85f 26bd
00000050: 59c3 fdbc 5d26 92bc 05c2 8cbd 4465 8abd
00000060: 8853 2fbd a897 4ebd a79e 3dbb 5796 a2bd
00000070: 943b 61bd 892e 56bd 7983 1dba cff4 db39
00000080: 0262 833a 419f 30bc a3e0 89bd e432 80bd
00000090: 5613 44bd 5cae 16bc ebcb 44bd 04ec 37bd
000000a0: 9be6 85bd 5d10 88bd bc81 e2b9 71e5 88bd
000000b0: 68a0 ccbc 2042 6fbd 3eb5 cc3b 8c15 86bd
000000c0: 46b8 bfbd 379d 2bbc 46ad b9bd 31b4 a5bd
000000d0: f98f 61bc 23d2 9fbc a362 b1bd 1f82 5bbb
000000e0: 7626 7cbc 5f5e 2dbd 4ba4 acbc a635 a5bd
000000f0: af4f 8cbd e6a6 32bd c77c 26bc 40a9 33bd
00000100: 8fe7 eabc a663 71bd 4fc7 87bd 798a 6bbc
00000110: fd78 48bd fe78 82bd 62f4 f4bc d21b 32bd
00000120: 7969 133b d05e f8bc 9d8e 99bd 4bef d9bc
00000130: 9f18 56bb a047 65bd b3db 3abd 29b1 85bc
00000140: faf2 70bc 6a22 75bd cbc5 f8bc 408a 6abd
00000150: 2880 98bd bbf6 63bd 7446 16bd beef 81bc
00000160: 5574 efbc e992 943b 1f26 303b c1bf 85bd
00000170: 30c2 2a3b ddaa bebd a96f 3cbd c6c3 7fbd
00000180: 3ac1 00b9 9831 8f3b d406 d8b9 51ac 6ebd
00000190: 5bb3 87bd 7d08 56bd 5ce2 65bc 5741 e4bb
000001a0: 34e7 61bd 49e2 05bd c043 9abd b86c 91bc
000001b0: 403b 3bbd 8850 adbd bda2 91bc 2548 cebc
000001c0: 8574 f1bc 06b2 bdbb fbf0 69bc c918 8cbd
000001d0: 31a2 2ebc 4f7a d3bb 50c0 d0bb 1f8f d0bc
000001e0: 568f c7bc 8a08 94bd 750c b1bd 9e51 30bd
000001f0: 52bd e0b8 5e16 02bc 1bc6 0abd 90dd 29bd
00000200: dedc b9bd 3a22 2ebc d317 10bd 73bd 83bd
00000210: 4130 4ebd f6f4 f33a 7e73 76bd 9dcc cbbc
00000220: d2c3 04bd d828 65bd 1807 aabd acef 9bbd
00000230: fc8c 91bc 08ba 11bd f4a4 b2bc 0e1d a43b
00000240: 9949 9dbc 357c 26bc da9c b43a a913 c4bc
00000250: 91fd 84bc e0e8 84bd e3df 56ba 890d 15bd
00000260: 779a 20bd c0e0 ccbc 0f8a 99bb 0665 8dbd
00000270: e55e abbc b95d 3abd 371d eabc e32f 88bc
00000280: 0384 23bd cabd aabd 48d7 ecbc 80dc 0cbd
00000290: 36d2 bfbc 68aa 55bd 7e36 9cbd 1c0b 81bd
000002a0: 2077 d4bc 54cd 26bd 0d42 1ebd 75b2 cdbc
000002b0: f4a1 62bd 5b6e 20bd b5e8 28bc 6e60 d8bb
000002c0: ada8 33bc df35 85bc 2d1d 0dbd 97ea 72bd
000002d0: 8081 0fbd b626 d9bc 8250 aebd 1630 4abc
000002e0: 10e3 27bc e413 f4bc dfb5 a8bc fd76 dbbb
000002f0: 8ce2 c7bc ba26 17bd 89a1 b4bd 6c6b 393b
00000300: a7ca 0fbd 56be 71bd 6464 96bd 6cd8 2fbd
00000310: 1de7 10bc 1e97 b7bb 43fe 25bd a01d 87bd
00000320: 49cd 333b 7bd3 6fbd a6a0 d6bc 3721 aabd
00000330: b836 0a3b 7fd6 55bd 88fb 5dbd 99e4 4dbc
00000340: 41c7 17bd 5dae 2bbd e807 3abd 6211 40bc
00000350: 9424 1dbd 5c98 74bd 8340 49bd bc81 04bd
00000360: b71a b6bd 42bc 54bd 218e 91bd 58a7 90bc
00000370: 97a0 84bb 2c6c 28bd 5eb5 cabc 2837 87bd
00000380: b83e 10bc 3b28 a8bb dcbc 19bd 77ec 47bd
00000390: 8935 1bba 48aa 52bd 618f 4bbd 6001 9cbd
000003a0: c2a5 a4bd d68b 19bb 5ef9 32bd d57c 3f3b
000003b0: e13c a8bd 01a6 87bd f86d d4bb e61b 35bd
000003c0: 6731 c8bc 1c4b 84bc cf9c b3bd 7bb2 3d3b
000003d0: f28e 4abd 9a19 19bd 3190 acbc 4117 16bd
000003e0: e9f2 5cbd 1223 17bc 6bbc f8bc c643 d0bc
000003f0: fe7f 6bbd 5d6a 1ebc 2a40 c5bc 687c 50bd
-0.055632498 0.0022990678 -0.023258507 -0.013033745 -0.05449965 -0.028580396 0.0044976003 -0.019751623
-0.06440728 -0.039814852 -0.07896151 -0.06813718 -0.015016175 -0.062137946 -0.10257915 -0.0496814
-0.0640153 0.005587369 -0.067632414 -0.040618867 -0.030976938 -0.017840559 -0.06872944 -0.06757596
-0.04280427 -0.0504376 -0.0028933675 -0.07938831 -0.05498846 -0.052290473 -0.00060086657 0.00041953332
0.0010023715 -0.010780157 -0.06732299 -0.062597066 -0.047870003 -0.009196844 -0.048046034 -0.044902816
-0.06538125 -0.06643746 -0.0004320274 -0.066843875 -0.024978831 -0.05841267 0.0062471917 -0.065470785
-0.09361319 -0.010474495 -0.090662524 -0.080910094 -0.013767236 -0.01950938 -0.086613916 -0.0033494306
-0.015390029 -0.042326327 -0.021074435 -0.08066873 -0.06851136 -0.043616198 -0.010161585 -0.04386258
-0.028674869 -0.058932923 -0.06629812 -0.014376276 -0.04894351 -0.06370734 -0.029901687 -0.043483563
0.0022493287 -0.030318648 -0.074979044 -0.026603362 -0.0032668484 -0.05597651 -0.045619678 -0.016319828
-0.014706368 -0.059847273 -0.030367753 -0.05726075 -0.07446319 -0.055655222 -0.036688283 -0.015861388
-0.029230276 0.0045341146 0.002687819 -0.06530715 0.0026055686 -0.09309933 -0.046004925 -0.062442563
-0.00012279014 0.0043699257 -0.00041203818 -0.058269802 -0.06626006 -0.05225419 -0.014031019 -0.006965797
-0.055152133 -0.032686505 -0.075324535 -0.017752036 -0.045710802 -0.08462626 -0.017777795 -0.025180886
-0.029474506 -0.0057890443 -0.014278646 -0.06840665 -0.010658787 -0.0064537893 -0.0063705817 -0.02545887
-0.02436034 -0.07228191 -0.08644954 -0.043046586 -0.00010716416 -0.007939903 -0.033880334 -0.041471064
-0.0907533 -0.010628277 -0.03517897 -0.06432619 -0.050338987 0.0018612433 -0.060168736 -0.02487784
-0.03241331 -0.055947155 -0.08302134 -0.07614073 -0.017767422 -0.035577804 -0.021807171 0.0050083464
-0.019200133 -0.010161449 0.0013779656 -0.023935156 -0.016234191 -0.0648973 -0.0008196814 -0.03638986
-0.03920981 -0.025009513 -0.0046856473 -0.06904034 -0.020919273 -0.045499537 -0.028578384 -0.016624397
-0.039920818 -0.08336981 -0.028911248 -0.034389973 -0.023415666 -0.052164465 -0.07627581 -0.06300947
-0.02593571 -0.04072316 -0.03863721 -0.025109509 -0.05533023 -0.039167743 -0.010309388 -0.006603292
-0.010965508 -0.01626104 -0.034451652 -0.059305754 -0.03503561 -0.026507717 -0.085114494 -0.012340566
-0.010247007 -0.02979464 -0.020594535 -0.006697534 -0.024400018 -0.036902167 -0.08819873 0.0028292788
-0.035105374 -0.05901941 -0.07343367 -0.042931005 -0.008844164 -0.0056027314 -0.040525686 -0.065974474
0.0027435592 -0.058551293 -0.02619965 -0.083071165 0.0021089744 -0.052206513 -0.054194957 -0.012566709
-0.037055258 -0.041914333 -0.045417696 -0.011722894 -0.03836496 -0.059715614 -0.04913379 -0.032350287
-0.08891814 -0.05193735 -0.07107187 -0.01765792 -0.004047464 -0.041118786 -0.024744686 -0.06602317
-0.008804016 -0.005131749 -0.037533626 -0.048809495 -0.0005920758 -0.051431924 -0.049697284 -0.0761745
-0.08039428 -0.0023429296 -0.043694846 0.0029218693 -0.08214737 -0.066234596 -0.006482836 -0.04421606
-0.02443762 -0.016149096 -0.08770143 0.0028945494 -0.04945273 -0.03737793 -0.02106485 -0.03664327
-0.053942595 -0.00922467 -0.030363282 -0.025422942 -0.05749511 -0.009668914 -0.024078447 -0.050899893

FCNet.3.weight f4 [300, 400]
00000000: a3ad 67bb 88a4 ad3c 0aa1 0ebd d6b8 e33c
00000010: 3936 9e3a 47ef 1d3c a484 fa3c d066 073c
00000020: 95fb 9f3c 4186 2c3c 7cd0 f539 c693 1c3c
00000030: 4ea0 0d3d e618 cb3b c584 783a af9b febb
00000040: e95a c5bb 3b42 48bd 108b 25bb 4824 dcbb
00000050: 738d 213c 7d77 ff3c aa1b a7ba 2d21 8ab9
00000060: 4676 8b3b 2cfc 923c 0c2e 413d d0bc 8f3b
00000070: b737 7c3c 4ee9 413c 25be 5c3d 7e55 f6bc
00000080: 8137 71bd e5a8 e13c 9a99 513b 391f 20bc
00000090: a911 383c 7496 d23c 8e50 653b d405 e23b
000000a0: 5551 bbba 9dc0 683b 1195 69bd 2f06 16bb
000000b0: f7e9 34bb cc27 90bb f26a e43c 97c1 fa3b
000000c0: 3d07 aa3b d7fb d43c 9490 e938 bd37 a4bb
000000d0: 78fb a0bc ddc2 143d 577d c93a f323 0d3d
000000e0: 3551 e63c 29e8 4e3c 9c2e 363c 959b 19ba
000000f0: 5833 9c3b 4bf3 59bc 2036 1a3d abb2 3d3b
00000100: 286a c73c ee52 1739 b75e 77ba ed15 c53c
00000110: dd44 2e3c 82c4 433c 0a73 0a3c dd53 eb3a
00000120: 2f3b 75bd 013e 81bc 4d94 b93a 3531 023c
00000130: 2f23 f23b 3596 823c 037a 0dbd 1af0 ee3b
00000140: 6362 ca3c d003 10ba 2f45 82bb 3904 7d3c
00000150: 7908 943c 68d7 1c3c 42fb 7fbb 0f68 aa3c
00000160: feb3 2b3c 0fb4 b53c f099 d9bc 7222 7c3b
00000170: 35ac 07bd 9b6a 9a39 5503 073c 2f7c 2d3c
00000180: 8b15 f8bc 7733 d73c 0854 05bd 9a15 9eb9
00000190: fb4c d43a a0e8 193c 4c19 273c 6f1f d53c
000001a0: ed6d b63a 0fd7 e4bc c933 af3b 4b16 cf3c
000001b0: aa57 71ba 2139 2ebb 1317 f93c 7f99 2a3c
000001c0: 5709 dbbc a6f3 f13c b034 123d 2d24 1c3c
000001d0: d454 ef3c 497e 8f3c 6790 0c3d b06d e83c
000001e0: 0200 a23c 8b17 85bb e7fe a1bb d779 36bc
000001f0: 3bda 423d 0489 c63c e6da 8c3b bfd3 523b
00000200: f762 a73b 11c3 253d 74d6 0c3c 8929 6f3b
00000210: befb 3b3c 704d 1d3d 911e 4b3c 2480 cb3c
00000220: a8f6 03bc d6dc 263c d425 6e39 1378 a13a
00000230: ac93 ea3c e387 1a3c cd2d a63b c474 3a3d
00000240: e93e 983c b122 073d b552 993c e75a 0ebd
00000250: bc56 533c 0358 aa3b 1483 fd3c 57e0 30bc
00000260: 5376 ba3c 9d03 8d3c 5b98 edbc d985 063b
00000270: bad5 c03c 8c42 d6bb 4b60 423c c38e 7bbb
00000280: f749 2fbc 8df1 da3b d9a2 463c 5213 10bd
00000290: f889 0ebd 355f 4a3b f331 873c 64fe d63b
000002a0: b62b 5f3c 2cd9 2e3c 5ff0 923a ed3b 5d3c
000002b0: a243 633b 66ee 9d3c 4615 123d b644 e73c
000002c0: 3996 f93c dbb9 f73c c867 72bc 797b 123b
000002d0: 5a82 fcbc b823 bc3b cfdf a13b 3a73 cd3c
000002e0: a8fe cd3c eaaf 3e3c b4f5 1abd 63fc 003d
000002f0: 9380 ab3c 3f87 31bc b737 43bc d2f7 623d
00000300: ed69 60bb a6f5 633c 68fb 893b 852b 7e3a
00000310: a8fd 0d3d eb43 183d 0965 1e3c d305 bd3b
00000320: 55f6 2a3d ea57 703b 2c1c abbc d579 e43b
00000330: ddd5 3f3d 4265 acbb 8c03 7f3c 30ab b9bc
00000340: 14a6 113c 6ade 003c 7749 213c 4cb5 e439
00000350: d57b 2ebc e2ea d33a a90e 933a d774 cd3b
00000360: 59b8 373c 0737 3d3c c165 0f3b 98cd 143d
00000370: 3709 2e3d af77 df3b ecbb 543b 128b 66bc
00000380: 64bd 283d 5cce 2c3d cc6c 7c3c 08ee fdbb
00000390: 9b77 c83b f1e1 523b b580 18ba dfb8 27bc
000003a0: 6af2 453b e54d 253d 58cb e1bb ec43 1a3d
000003b0: fa34 13bb 31ad a83b 92a2 0b3c b804 9b3c
000003c0: 117d 243c 219b b73c e2d8 253b 13a6 4d3d
000003d0: 39a3 66bc bf7a 1f3b 7b7e ee3c db09 4a3c
000003e0: 9131 823c 2b33 e63c db4a debc a33a 82bc
000003f0: 5451 1c3c d5ee 143c 134a 8c3c dfe9 5d3c
-0.0035351298 0.021196619 -0.034821548 0.027798098 0.0012070603 0.009639568 0.030580826 0.0082642585
0.019529143 0.0105300555 0.00046885374 0.009556716 0.034576707 0.0061980365 0.00094802334 -0.007770024
-0.0060228 -0.048891287 -0.002525989 -0.0067181922 0.009860384 0.031184906 -0.0012749333 -0.0002634613
0.0042560427 0.01794251 0.047163054 0.004386522 0.015394143 0.011835409 0.053892273 -0.030070063
-0.058890823 0.027546356 0.0031982423 -0.009773069 0.011234679 0.025706507 0.0034990641 0.0068976674
-0.0014291207 0.0035515197 -0.057026926 -0.002289187 -0.0027605274 -0.0043992754 0.027883027 0.0076524722
0.005188851 0.025998993 0.000111372356 -0.0050115273 -0.01965116 0.03631865 0.0015372437 0.034458112
0.028114894 0.0126285935 0.011119511 -0.00058596703 0.004766863 -0.0133026345 0.037649274 0.0028945606
0.024342611 0.00014431376 -0.0009436416 0.024058307 0.0106365355 0.011948707 0.008450279 0.001795407
-0.059870895 -0.015776636 0.0014158577 0.007946302 0.007389448 0.015940765 -0.034540188 0.007291806
0.024705118 -0.0005493732 -0.0039755325 0.015442901 0.018070446 0.009572841 -0.0039059673 0.020801572
0.010479925 0.022180585 -0.026562661 0.003847268 -0.033123214 0.00029452596 0.0082405405 0.01058869
-0.03028371 0.026269658 -0.03255084 -0.00030152203 0.0016197258 0.009393841 0.010198902 0.026015965
0.0013918258 -0.02793458 0.0053467494 0.025279185 -0.00092064834 -0.0026584344 0.03040651 0.010412573
-0.026737852 0.029535126 0.035694778 0.009530109 0.029215254 0.017516272 0.0343174 0.028372616
0.019775394 -0.0040616444 -0.004943717 -0.011137447 0.047571402 0.024235256 0.0042985557 0.0032169668
0.005108233 0.040469233 0.0085960515 0.0036493263 0.011473594 0.03840393 0.012397424 0.024841376
-0.008054413 0.010184487 0.00022711541 0.001231911 0.028634869 0.009431812 0.005071378 0.045521513
0.018584685 0.03299207 0.018716196 -0.03475466 0.012899097 0.00519848 0.030946292 -0.010795674
0.0227615 0.017213637 -0.029003313 0.0020526557 0.023539413 -0.0065386947 0.011863778 -0.0038384653
-0.010698787 0.006681627 0.012123787 -0.035174675 -0.034799546 0.0030879502 0.01650331 0.0065610874
0.013621261 0.010671895 0.0011210552 0.013503057 0.0034677763 0.019278716 0.03566482 0.028231006
0.03046714 0.03023999 -0.014795251 0.0022351427 -0.030823875 0.0057415627 0.00494001 0.025079358
0.025145844 0.011638621 -0.037831977 0.031490695 0.020935332 -0.010835468 -0.011915139 0.05541212
-0.0034242824 0.013913548 0.004210878 0.0009695816 0.034665734 0.037174147 0.009667643 0.0057685166
0.041738827 0.0036673495 -0.020887457 0.0069725313 0.046834815 -0.0052610943 0.0155648105 -0.022664636
0.008889694 0.007865528 0.009844176 0.00043622626 -0.010649641 0.0016168023 0.0011219579 0.006270032
0.0112133855 0.011548764 0.0021880718 0.036328882 0.042489257 0.0068196873 0.0032460643 -0.014071243
0.041196242 0.042188987 0.015406799 -0.007749323 0.0061177737 0.0032178129 -0.00058175187 -0.010236948
0.0030204304 0.04035749 -0.0068906955 0.03766243 -0.0022461996 0.005147599 0.0085226465 0.018923149
0.010039584 0.022412838 0.0025306274 0.05020721 -0.014077001 0.0024334637 0.029113045 0.012331451
0.015892776 0.02810057 -0.027135303 -0.0158971 0.0095408745 0.009090145 0.017125165 0.013544529

FCNet.3.bias f4 [300]
00000000: d7d1 523c ac05 f4bb 9536 77b9 7bfc 2eba
00000010: b89e 18bb ba70 6e3c ccb9 513c d27b 323c
00000020: 2907 75bb 5105 933c 3693 ad3b 4688 0a3c
00000030: 523f 1a3c cb90 953a 2a83 6d3c e46e 5dbb
00000040: 0447 7e3c 8285 27bc e6c9 063c 9b76 553c
00000050: 0355 953b 0078 60bb acf9 bbba 73b8 a2bb
00000060: fb00 a6ba bd28 673b 7668 7bbb 4e58 163c
00000070: 4315 393b b348 143c 2b89 a5bb edb6 c1b9
00000080: 8854 9c3c 4c6e 743c 0da2 193c 3fb5 f038
00000090: 4891 11bb 2760 2b3a 61fb 663c ec57 9bbb
000000a0: 03e8 b03b 1980 933c 3205 7dba ec9a 113b
000000b0: 2e3d ba3b 0976 f93a 467c 9d3c f2c7 793c
000000c0: 6493 a53c 7c43 43ba 01d4 6bba 60dc 04bc
000000d0: 2393 d5bb 2745 293b 044b ba3b 53b9 af3c
000000e0: 3874 de3b ac1f 4c3c c027 feba 29ec db3b
000000f0: fffe 873c fcd2 803b 5660 983b 3563 253c
00000100: 4290 efbb 9607 123c 2be1 513c fdd8 be3a
00000110: ceb8 233b e365 7b3c 26e8 873c 2fe1 23bb
00000120: 447b 503c 8d74 a43b 8b52 593c 620c 8abb
00000130: 75cb 55ba 1b80 623c 5582 cd39 3944 143b
00000140: 44cf 383a 729b ac3a 392a 5a3c 338c c03a
00000150: 680b a539 2d75 103c 62e6 193c 4f50 dc3b
00000160: 51ec 433b 5d33 293c 7200 213c e5da 013c
00000170: 2b59 f53b 3f62 393b d35f f9ba 49cb 983c
00000180: 9f3b 6c3c 1980 c9b9 bad2 a23c ae84 ecba
00000190: 360e 943b dcd5 71bb c322 7c3c 3001 563c
000001a0: d27b 78bb af6b 923c c53d 75ba 1e32 01b9
000001b0: 3da4 97bb e1a4 bbba 8be3 563a 9c8b 543c
000001c0: e2c4 a1bb b26a f1bb 5d9b 353b 9794 1d3a
000001d0: 9376 84bb 2199 863b d0fa 933b 809f c3ba
000001e0: 3e0f 4a3b 8f2d 8cbb 4136 573b 28ea eaba
000001f0: 5cd3 b9bb 158b e53b 97a7 723b a93f 423b
00000200: 0109 ef3b 23ce 963c 1b4c f9bb 2ebe 963c
00000210: 03d2 2d3c cfca d93b d2f5 f53a fb4d a9bb
00000220: 6fdb 123c b949 4a3c c9c3 a73c 426e 2c3c
00000230: af00 45bb 8986 703b ef6d caba dcf9 57ba
00000240: 262e df3a 0292 673b 3d73 903c 33ff 843c
00000250: 2f7a 2dba a8f3 4b3b 511c 0d39 c333 d33b
00000260: 2fe2 f03b 8f53 833c e8e0 853c a7b3 d33a
00000270: 4f99 b5bb cd66 703a d1fd 96bb 95e2 613b
00000280: 97a2 0f3b ec47 3c3b 564c 563c 01f6 40b9
00000290: fb87 8bbb d680 0f3b 4db9 44ba 76cf 8e3c
000002a0: 6f6c 9a3c 81c7 69bb 79b3 aa3c f336 8d3c
000002b0: 4729 893b 4d17 a63c 7ee2 813c c894 28bb
000002c0: 497f ef3b 1689 0c3c baca 8bb9 74b7 f03b
000002d0: 6b45 083c 2e37 463c 2dac a63b 7c16 453c
000002e0: 28c8 903c 701b c23b d771 6e3b 3cc8 a13c
000002f0: 55aa c23b f977 82bb 3802 593c fde7 353c
00000300: d4fb 843c d752 283a c442 a83b e0d7 4b3c
00000310: e8e9 59bb 644a 42bb d2d3 643c d752 a53a
00000320: 5590 5fbb 554e 463c 14c7 6e3a a2cb eeba
00000330: f688 bdba 5e34 17ba 89eb 4e3b d724 b83a
00000340: 5658 8a3c fadd 783c 5983 6d3b 8aac 6438
00000350: bb71 883c 987c 883b b5a2 90bb ddcd 653b
00000360: 13b1 8dbb bf35 5abb 43a9 803c 8f9e 9e3b
00000370: 4246 bf3a e0dd c0b9 63dd fc3b b1a8 823b
00000380: cbf8 35b7 14b8 51ba 4b08 d03a f898 763c
00000390: 252b 40bb 2cdf d53b 88a0 783c 6b19 503b
000003a0: 0e0a 0ebb 8603 3f3a 5019 1f3c 9cb9 403b
000003b0: fd88 333c 3b67 3e3c 5028 983b f5e2 943c
000003c0: a09e 2dbb cf8f 6d3c f298 043c 50ce 0cbc
000003d0: 006d a43a e179 733a 58c8 d7ba 18e7 e83b
000003e0: a39d ac3b c397 843c 24b8 a03b 4948 9c3c
000003f0: 1ec0 6ebb aa6a b03b 8226 e0bb 7fbd 6fbb
0.0128674125 -0.007446965 -0.00023576089 -0.0006675196 -0.0023287963 0.014553243 0.012800645 0.010893779
-0.00373883 0.017946871 0.00529709 0.008455342 0.009414511 0.001141095 0.014496604 -0.003378802
0.015519861 -0.010224702 0.008226847 0.013028766 0.0045572533 -0.0034251213 -0.0014341376 -0.0049658357
-0.0012665087 0.0035272085 -0.0038361824 0.009176327 0.0028241433 0.009050536 -0.005051752 -0.0003694812
0.019083276 0.014918875 0.009377015 0.000114778515 -0.0022211839 0.000653746 0.014098019 -0.0047407057
0.0053987517 0.018005418 -0.0009651958 0.0022217585 0.0056835627 0.001903237 0.019224297 0.015245425
0.020211883 -0.00074487156 -0.00089961296 -0.008109182 -0.006517784 0.0025828572 0.005685212 0.021450674
0.0067887567 0.012458723 -0.0019390509 0.006711502 0.016601084 0.0039314013 0.004650156 0.010094454
-0.007310898 0.008912941 0.012810032 0.0014560517 0.0024981978 0.015344116 0.01659019 -0.0025006046
0.012724701 0.0050187767 0.013264309 -0.004212902 -0.00081556226 0.013824488 0.00039197752 0.0022623672
0.0007049928 0.0013168885 0.013315731 0.001469022 0.0003147975 0.008816999 0.009393306 0.0067234407
0.0029895494 0.010327187 0.009826766 0.007925724 0.0074874363 0.002828732 -0.001902575 0.018651621
0.014418512 -0.00038433148 0.019875873 -0.0018044913 0.0045182956 -0.0036901152 0.015389147 0.013061807
-0.00379156 0.017873613 -0.00093552127 -0.00012321069 -0.004627733 -0.0014316106 0.00081973587 0.012972739
-0.0049368003 -0.0073674554 0.0027711012 0.00060112163 -0.0040424555 0.00410761 0.004515983 -0.0014924854
0.003083184 -0.004277892 0.0032838734 -0.0017922567 -0.005670948 0.0070051053 0.003702616 0.0029639995
0.0072947745 0.01840884 -0.0076079494 0.018401232 0.010609153 0.006646491 0.0018765277 -0.0051667667
0.00896345 0.012346678 0.0204791 0.010524334 -0.0030060222 0.0036701283 -0.001544414 -0.0008238831
0.0017027303 0.003533483 0.017633075 0.01623497 -0.0006617633 0.0031120572 0.00013457357 0.0064453795
0.007351182 0.016031055 0.016342595 0.0016151563 -0.0055419574 0.0009170592 -0.004607894 0.0034467329
0.002191698 0.0028729392 0.013079723 -0.0001840219 -0.0042581535 0.002189686 -0.00075044186 0.01743291
0.018850533 -0.0035671892 0.020837532 0.017238116 0.004185829 0.020274783 0.01585507 -0.0025723446
0.0073088747 0.008577606 -0.0002666319 0.007346088 0.008317332 0.012098117 0.005086443 0.0120292865
0.017673567 0.005923681 0.0036383772 0.0197488 0.0059407153 -0.003981587 0.013245158 0.011102674
0.016233362 0.00064210355 0.005134912 0.012441605 -0.0033250991 -0.002964639 0.0139665175 0.0012613189
-0.0034113128 0.012103637 0.00091086444 -0.0018218646 -0.0014460373 -0.0005767996 0.0031573495 0.0014049065
0.016887825 0.015189642 0.003624162 5.4520126e-05 0.016655793 0.0041652434 -0.0044139274 0.003506533
-0.0043240874 -0.0033296195 0.01570571 0.004840679 0.0014593082 -0.00036786404 0.007716821 0.0039873947
-1.0846367e-05 -0.0008000147 0.0015871612 0.015051119 -0.002932259 0.0065268483 0.015174992 0.0031753432
-0.0021673474 0.0007286597 0.009710625 0.0029407507 0.0109579535 0.011621292 0.0046434775 0.018174628
-0.0026492253 0.014499619 0.008093106 -0.008594111 0.0012544692 0.0009287876 -0.0016462905 0.0071076266
0.005267815 0.016185647 0.004904764 0.019077437 -0.0036430429 0.005383809 -0.006840528 -0.0036581454

FCNet.4.weight f4 [300]
00000000: 235d 8a3f ec47 913f b80e 8a3f 7b89 883f
00000010: 4306 8b3f 5428 8a3f f2fe 863f cf08 8d3f
00000020: 224c 843f 58f5 8b3f 416f 8b3f 79f1 8d3f
00000030: bb3d 8b3f f474 883f fcb7 893f 5802 893f
00000040: dece 823f 206e 883f b43a 8e3f b9a1 8f3f
00000050: 2d48 8d3f aa4f 843f bbb3 863f 9bdd 833f
00000060: 654c 823f 3498 943f cca0 853f 2ded 8c3f
00000070: e32a 803f a23a 853f a6ab 833f d8e0 863f
00000080: 89b1 8f3f 5522 8b3f f4d9 803f 54ea 883f
00000090: a4bc 893f 6eba 883f 5a64 863f c652 843f
000000a0: 61ac 8c3f e2b1 8d3f 8e1a 8c3f 295d 8e3f
000000b0: f1b2 8a3f f4ca 8d3f 10db 8c3f 8c77 8b3f
000000c0: f66e 8e3f 6dc6 8c3f 9f88 823f a57e 833f
000000d0: b0f0 803f 74f3 8a3f e2b0 8a3f 2e22 8e3f
000000e0: 7b20 913f ffe2 863f a6ab 843f 30cb 823f
000000f0: 0477 8c3f e64f 923f e5da 873f 5346 8d3f
00000100: 7d75 863f b597 8b3f 5281 8d3f b622 8a3f
00000110: e13a 813f 70ba 893f 9baa 903f e65d 9b3f
00000120: dca6 883f 1bff 7f3f a499 8d3f 8ff1 7e3f
00000130: 29a7 8a3f 7441 873f 376f 903f 0f80 8d3f
00000140: 7811 8a3f c4be 893f 6a76 8d3f 791a 853f
00000150: 1582 823f a400 8f3f 777a 8c3f 44a8 853f
00000160: fc8c 8c3f f1a3 883f 5198 843f 93a5 8d3f
00000170: b028 8c3f d5cd 893f 45e3 893f 17c8 883f
00000180: 8b1c 893f b330 8f3f 30be 8d3f af37 893f
00000190: 8461 8e3f 6218 863f 1cff 873f 3ecf 8b3f
000001a0: 91d2 803f e822 8b3f 816c 8e3f 658a 8e3f
000001b0: 13dd 9d3f d243 933f 65cd 873f a94c 873f
000001c0: 710a 853f 8311 803f 29a1 8a3f 8598 8d3f
000001d0: 23c2 813f f685 823f cead 8e3f d910 893f
000001e0: 0493 893f 9b61 863f 10c1 8b3f 5721 7d3f
000001f0: f1f0 823f bfb1 813f 5d45 813f 6639 823f
00000200: cb69 8d3f cef0 8b3f 625f 843f 5109 903f
00000210: ec63 883f 459b 843f 3945 863f c858 8a3f
00000220: e742 883f 02ec 8d3f a83f 8f3f 5096 8c3f
00000230: a9f7 863f 7439 8d3f 1612 803f 0ff1 803f
00000240: 16a3 8c3f 1047 8c3f a16d 8c3f 642c 883f
00000250: 42cc 8c3f 0aa6 7f3f 61b8 7e3f 144b 843f
00000260: fc37 8c3f 2349 923f 4ba5 8f3f 3ca7 8c3f
00000270: b88b 823f a65b 8c3f 2e83 863f 761d 863f
00000280: a256 843f 21b5 7d3f 4112 893f a309 893f
00000290: 334a 813f 7bb0 8c3f 9d0a 893f c736 8b3f
000002a0: c976 8d3f 3653 863f 27e8 8f3f 2b26 8d3f
000002b0: a9ea 8d3f 149a 8f3f 5f1a 8b3f f19c 813f
000002c0: a3f5 833f eaa2 893f b209 893f 4266 8f3f
000002d0: 7f68 893f 74e6 8b3f baad 8d3f f6a0 873f
000002e0: d580 8f3f 95a5 8e3f af93 853f 8cd5 8d3f
000002f0: 5aad 833f 9092 833f 8ef2 873f 730d 7e3f
00000300: ad4e 893f fd3c 8c3f abdf 8c3f ecd7 8e3f
00000310: da8a 843f d927 7f3f 4f64 883f 1c1c 8a3f
00000320: 3fb4 8a3f f5c9 853f 88b8 8b3f 77ee 813f
00000330: 2efe 8b3f d5e7 803f 1113 843f cc87 8a3f
00000340: ce36 8a3f f11b 893f 4b3e 8d3f b714 8c3f
00000350: 5285 923f 3121 813f 108d 8b3f dd03 813f
00000360: 4ab2 8a3f a30c 8c3f 8947 8f3f f2cb 8c3f
00000370: 7819 883f 5e9b 863f 3a64 853f baef 8c3f
00000380: 45cb 8a3f 6ccd 8b3f 40db 8e3f 70b6 8f3f
00000390: 3173 8a3f 587f 8b3f d0e7 8d3f 377b 8a3f
000003a0: 7110 8f3f 08c0 8a3f a5e8 8d3f 6841 8c3f
000003b0: 7a1f 883f c7e0 7b3f 4c2b 8f3f cc24 8a3f
000003c0: f996 873f 10d3 8a3f 1a35 8c3f 788e 843f
000003d0: c197 7b3f c469 913f b8fb 803f 087c 8f3f
000003e0: e93d 8d3f 5129 8f3f 4cbf 823f 35f6 883f
000003f0: c37e 813f fbfc 833f 4022 833f 8b6e 843f
1.0809673 1.1350074 1.0785742 1.0666956 1.0861286 1.0793557 1.0546553 1.1018313
1.0335734 1.0934248 1.0893327 1.1089317 1.0878214 1.0660691 1.0759273 1.070384
1.0219381 1.0658607 1.1111665 1.1221229 1.1037651 1.0336812 1.0523599 1.0302004
1.0179564 1.1608949 1.0439696 1.100988 1.0013088 1.0408518 1.0286758 1.0537367
1.1226054 1.0869852 1.0066514 1.0696511 1.0760694 1.0681894 1.0499375 1.033776
1.0990106 1.106991 1.0945604 1.112218 1.0835859 1.1077561 1.1004353 1.0895858
1.1127613 1.0998055 1.0197943 1.0273024 1.0073452 1.0855546 1.083523 1.1104181
1.1338037 1.0538024 1.0364883 1.0218258 1.0973821 1.1430633 1.0613676 1.1037086
1.0504605 1.0905672 1.105509 1.0791843 1.0096093 1.0760021 1.1302065 1.213803
1.0675921 0.99998635 1.1062512 0.9958734 1.0832263 1.056685 1.128394 1.1054705
1.0786581 1.0761342 1.1051762 1.0398704 1.0195948 1.117207 1.0974873 1.0441976
1.0980525 1.0675031 1.0358983 1.1066154 1.0949917 1.076594 1.0772482 1.0686063
1.0711836 1.1186737 1.1073666 1.0720118 1.112351 1.0476191 1.0624728 1.092262
1.006426 1.0870028 1.1126863 1.1135985 1.2333091 1.1505072 1.0609556 1.057027
1.0393811 1.0005344 1.0830432 1.106217 1.0137371 1.0197132 1.1146791 1.0708266
1.0747991 1.0498537 1.0918293 0.98879 1.022978 1.0132369 1.0099293 1.0173767
1.104791 1.0932863 1.0341609 1.1252843 1.0655494 1.0359885 1.0489875 1.0808344
1.0645417 1.1087649 1.1191301 1.0983372 1.054433 1.1033158 1.0005519 1.0073565
1.098727 1.0959187 1.0970956 1.0638547 1.0999835 0.9986273 0.9950009 1.0335412
1.0954585 1.142857 1.1222318 1.0988536 1.0198889 1.0965469 1.0508783 1.0477741
1.0338938 0.99104506 1.0708696 1.0706066 1.0100769 1.0991358 1.0706364 1.0876092
1.1051875 1.0494144 1.1242722 1.1027273 1.1087238 1.1218896 1.0867423 1.012602
1.0309337 1.0752842 1.0706084 1.1203082 1.0735015 1.0929704 1.1068642 1.0595996
1.1211191 1.1144282 1.0435694 1.1080794 1.0287278 1.0279102 1.0620897 0.9923927
1.0727135 1.0956112 1.1005758 1.1159644 1.0354874 0.9967018 1.0655612 1.0789828
1.0836257 1.0452257 1.091569 1.0150899 1.0936944 1.007075 1.0318319 1.0822692
1.0797975 1.0711652 1.1034635 1.0943822 1.1446936 1.0088254 1.0902424 1.0079304
1.083566 1.0941356 1.1193706 1.0999739 1.0632772 1.0516164 1.0421212 1.1010659
1.0843283 1.0922065 1.116066 1.122755 1.0816404 1.0898237 1.1086369 1.0818852
1.1176893 1.0839853 1.1086622 1.095746 1.0634606 0.9838986 1.1185088 1.079248
1.0592948 1.0845661 1.0953705 1.0355978 0.98278433 1.1360402 1.0076818 1.1209726
1.1034518 1.1184484 1.0214629 1.0700136 1.011681 1.0311579 1.0244827 1.0346235

FCNet.4.bias f4 [300]
00000000: e6ac 763d 0b3e a53d 5580 7a3d 5cda 1c3d
00000010: 0062 043d 6fa0 863d b328 6d3d 707e 4e3d
00000020: a6d5 b73c 7931 703d 7855 913d 46f3 6a3d
00000030: 12d0 613d 2d73 3c3d 93c7 883d 9718 4a3d
00000040: 2f5d 1a3d 997b 7d3d 5352 5d3d a242 923d
00000050: 0887 863d 8516 cd3c c5ca 0b3d 8796 913c
00000060: de04 423d 5d44 b53d 5398 163d 6b7c 663d
00000070: c92c 353d 7090 e13c e574 8b3c 2167 413d
00000080: 8d3e 7d3d 7b78 653d d518 f23b 3e6b 643d
00000090: 3b26 9f3d 3f51 e23c e83c 713d f622 9f3c
000000a0: 5a87 843d bad6 7f3d 5467 553d 4320 a33d
000000b0: f750 803d 851b 853d c157 843d d608 733d
000000c0: b5c9 833d 07e8 1f3d 3151 2b3a 2f84 f73c
000000d0: 5e60 ef3c 8ade 443d ae2c 823d c309 713d
000000e0: bd45 813d 4df5 f83c 23b0 863c 4a46 833b
000000f0: 6674 783d d724 953d ace8 0a3d c30c 933d
00000100: c3be 9e3c 2cd5 aa3d d117 643d 5722 9a3d
00000110: 3b52 963c e752 803d 3aa9 8b3d e150 dd3d
00000120: e3f7 783d 01ea a4ba 784c 8c3d 1a47 f53c
00000130: b0a2 263d 90e6 733d 0f8b bd3d 608d 833d
00000140: 44b1 153d 5fdd 273d af64 8f3d 7aa2 613d
00000150: 90fc bf3b 3273 963d 2521 793d bb55 d13c
00000160: da3b 863d d463 883d fc9f 8d3d 7850 943d
00000170: b70e 543d 1d33 923d 8e29 5f3d 52a4 773d
00000180: efed 853d 2c08 813d 9a5a 773d a66a 303d
00000190: a765 8d3d 31c3 183d d364 643d c0ea 8c3d
000001a0: 88a4 f13c 8ee8 7e3d 8a4b 8c3d e4e2 853d
000001b0: a654 ee3d d9ef bb3d 1936 443d a439 833d
000001c0: 55f9 1f3d 18c8 dc3b 582f 383d 821b 763d
000001d0: 4410 3cbc 4521 473d 83b9 853d f1a0 2f3d
000001e0: f044 013d cc9a 013d cafa 353d fb75 02bc
000001f0: 0e8e efba 3c74 be3c fc55 c53c ec4b db3c
00000200: 0848 603d 9882 823d ffb6 893c b06b 833d
00000210: 40ef 4a3d d60f 8a3d c497 5b3d 254a 863d
00000220: a243 823d 2efb 853d 1f81 803d 2c97 6f3d
00000230: 4221 3c3d c337 853d 9609 92b9 7058 a53c
00000240: 8157 563d 5b8b 813d a88b 843d 5e5d 6d3d
00000250: 167e 793d 2095 edbb 5426 803c 5fb3 563d
00000260: f523 8b3d 409d 803d 3a2a 8e3d 7395 223d
00000270: abe9 753c 884c 123d 4b7e 313d ffee 753d
00000280: d5a9 5a3c e6dc 3d3c 8b2f 833d 8108 703d
00000290: 1b5b b83c 8dcb 8d3d 5bfc 373d 1bd7 793d
000002a0: 267b 573d aeb1 603d fd1f 7f3d efad 833d
000002b0: 7d8e 8b3d b05a 853d 78e1 803d b7e7 8e3c
000002c0: b2e2 4f3d e4ba 5c3d c5f9 053d c174 873d
000002d0: e755 f83c 8b06 823d c6b3 873d eedd 693d
000002e0: ea54 873d 1e13 8b3d 3231 3b3d 0998 603d
000002f0: c181 d63b a77e a33b 7fe5 6a3d 7c28 0bbc
00000300: f4d8 893d 7835 1b3d 7eaa 823d 5352 793d
00000310: 8d18 413d e532 563b df5f 7f3d c88a 223d
00000320: 8b7a 1a3d c321 7a3d ea98 853d 8a56 a43c
00000330: 808f 563d 736c 583c 98ec b33c 8ed0 813d
00000340: 29ee 823d 020e 753d 77d4 883d 8390 663d
00000350: 3e2f 883d 4e86 833b 7870 813d 6df0 663b
00000360: 7556 663d bdda 843d 0e73 683d 851c 8c3d
00000370: fc7c 643d 55a9 473d 86f7 853c 664b 8e3d
00000380: 0ec4 253d 1025 303d 904f 5d3d ae2a 773d
00000390: 953f 633d f10b 613d f339 833d 3466 993d
000003a0: 1fe1 b13d 757f ed3c d259 853d 3d77 803d
000003b0: 2d2b 813d d0aa 153a f716 8f3d 3d15 813d
000003c0: a236 563d ee8e 773d c5ae 8a3d 07a8 183d
000003d0: ee3a 5cbb 439c 863d b495 373c 3511 8c3d
000003e0: d96f 883d 3859 893d 6256 333d ba1c 753d
000003f0: a304 bc3c 036b 8d3c 84ae bd3c 7097 1a3d
0.060223483 0.080684744 0.061157543 0.03829418 0.032320023 0.06573569 0.057900142 0.05041355
0.022440743 0.05864093 0.0709638 0.05736091 0.055130072 0.046008278 0.06678691 0.049339857
0.037686523 0.06188545 0.05403359 0.071416155 0.06568724 0.025035152 0.034128923 0.017771972
0.047367923 0.0885093 0.03676636 0.056270998 0.044232164 0.027534693 0.017023513 0.047217492
0.06182723 0.056023102 0.007388214 0.055766337 0.07770964 0.027626632 0.058895975 0.01942585
0.06471129 0.06246064 0.052100495 0.07965138 0.06265443 0.064993896 0.0646205 0.0593346
0.06434957 0.039039638 0.0006535231 0.030214397 0.029220756 0.048063792 0.06356178 0.0588472
0.0631213 0.030390406 0.01644141 0.004006182 0.06065788 0.07282417 0.0339133 0.071801685
0.019378072 0.083414406 0.055686776 0.07526081 0.018349757 0.06265812 0.06819387 0.10806442
0.06078328 -0.0012581946 0.06850523 0.02994113 0.040682495 0.059546053 0.09255039 0.064234495
0.036546007 0.0409826 0.07001626 0.05508659 0.005858965 0.073461905 0.060822625 0.025553575
0.065543845 0.06659666 0.0691528 0.07241911 0.051771846 0.07138655 0.05448299 0.060459442
0.06539523 0.06300387 0.06038914 0.043070458 0.06904154 0.037295524 0.055760216 0.068807125
0.0294974 0.0622335 0.068503454 0.065374166 0.11637239 0.09176607 0.047903154 0.064074785
0.03905614 0.00673772 0.044967026 0.060084827 -0.011478487 0.048615713 0.06529524 0.042878095
0.031559885 0.031641766 0.044428624 -0.007962699 -0.0018276589 0.023248784 0.024088852 0.0267696
0.054756194 0.06372565 0.016810892 0.06417024 0.049544573 0.06741302 0.05361153 0.06557111
0.06360556 0.06542049 0.06274628 0.058493778 0.045930155 0.06504776 -0.00027854432 0.020183772
0.052329544 0.06325408 0.0647195 0.05795037 0.06091126 -0.007250443 0.015643276 0.052417155
0.06793968 0.06279993 0.06941648 0.039693307 0.015009324 0.035717517 0.043333333 0.060042378
0.013346155 0.011588311 0.064055525 0.05860186 0.02250438 0.0692359 0.0449184 0.060996156
0.052607678 0.05485695 0.062286366 0.064296596 0.06814287 0.06511438 0.06293005 0.017444475
0.050753303 0.05388917 0.032708902 0.06614066 0.030314399 0.06348904 0.06626086 0.057096414
0.06607993 0.06790756 0.045701213 0.054832492 0.0065462296 0.0049894634 0.05734777 -0.008493539
0.06730834 0.03789279 0.06380175 0.060869526 0.047142554 0.0032684144 0.06234729 0.039683133
0.037714522 0.061067354 0.06523307 0.020060796 0.052382946 0.01320945 0.021963403 0.06338607
0.06393082 0.059827812 0.066811495 0.05629016 0.06649636 0.004013813 0.0632028 0.003523852
0.056234796 0.064870335 0.05675035 0.06841377 0.055783257 0.048745472 0.01635338 0.06947975
0.040470175 0.043004096 0.054030955 0.060343437 0.05548056 0.05494303 0.06407537 0.07490197
0.086855166 0.02899144 0.065112725 0.06272743 0.06307063 0.0005709352 0.06986802 0.06302879
0.052298196 0.060439043 0.06771616 0.03726962 -0.003360446 0.06572773 0.011205126 0.068392195
0.06661958 0.0670647 0.043783553 0.05984185 0.02295143 0.017262941 0.023154505 0.03774208
