DDPG_linear/model/Pendulum-v0_critic.pt (torch, 499519 bytes, 9 tensors)

FCNet.0.weight f4 [400, 4]
000000 3b d9 3f bf a7 b5 63 3d 73 34 0d bc 31 aa 4b bd
       -0.7494084 0.05559316 -0.008618462 -0.049722854
000010 5e 00 2b 3f a2 cc cd 3f 46 61 72 3e 1b 60 7e 3d
       0.66797435 1.6078074 0.2366992 0.062103372
000020 4a ac 0d bf ea 55 02 3f 7e 86 84 bc f3 c9 66 3e
       -0.5534102 0.50912344 -0.016177412 0.22537975
000030 a5 26 28 bf 35 97 1c 3f e7 5b eb 3c da 69 aa 3e
       -0.65683967 0.61168224 0.028730346 0.33283883
000040 b2 05 4d bf 31 39 61 3d 30 60 5e bc c2 92 51 bd
       -0.80086815 0.054986183 -0.013572738 -0.05116535
000050 83 7b 06 bf ad c2 81 3e 79 9a 42 3d 77 e5 e8 3c
       -0.52532214 0.25343838 0.047510598 0.02842973
000060 eb 7e 38 bf d3 d0 a9 3c 69 51 44 bc eb 42 9c bd
       -0.7206866 0.020729458 -0.0119823 -0.07629951
000070 64 1f 4a bf ed 4d 71 3d 20 4e 4e bc b9 d7 2a bd
       -0.7895415 0.058912206 -0.012591869 -0.041709635
000080 51 f0 17 bf 02 70 43 bd a5 3a a0 bc 7f 2d 01 be
       -0.5935107 -0.04771424 -0.019559214 -0.12615012
000090 6a d3 06 3f b4 71 ad 3f 27 a5 34 3e d3 98 0e bd
       0.5266634 1.3550324 0.17641126 -0.034813713
0000a0 d5 92 13 bf 4f 2a 89 3e 47 73 05 3d d6 79 b2 3d
       -0.5764592 0.2679009 0.03258064 0.087146446
0000b0 f4 0c 38 bf 19 65 97 3b 99 12 aa bc b5 86 a3 bd
       -0.71894765 0.004620206 -0.020760821 -0.07984678
0000c0 b5 a6 34 bf 48 74 8e 3d 17 e8 87 bb d1 2c bb bb
       -0.70566875 0.06955773 -0.0041475403 -0.0057121296
0000d0 64 95 47 3f d8 bc 61 bf c5 9b a7 be 6d da 31 be
       0.77962327 -0.8817878 -0.3273603 -0.17368479
0000e0 28 e0 e9 3d d3 ce a4 bf 98 42 98 bd df 33 89 bc
       0.114197075 -1.2875618 -0.07434577 -0.016748367
0000f0 dd ea 49 3f ce 2d 1d 3f 64 a9 eb 3e b3 4a 87 3d
       0.78874 0.6139802 0.46027672 0.066060446
000100 5b ee 31 bf 8c 02 4a 3d 6b 5f 94 bb fd 2e 67 bd
       -0.69504327 0.049318835 -0.0045279763 -0.056441296
000110 77 22 d5 be a0 7f 35 be ef 11 88 bd 6d fe 14 be
       -0.41627857 -0.17724466 -0.066440456 -0.1455018
000120 4f 4a bb be 1a bf 2a 3e 73 9e 94 3c 01 21 73 39
       -0.3658013 0.16674462 0.01814196 0.00023186581
000130 9c 64 02 bf 73 69 8f 3f c0 dd 37 bd a8 c2 75 bb
       -0.5093477 1.1204056 -0.04488921 -0.0037500057
000140 84 eb 8f bf b2 ff 89 3f 1f b4 a5 3d 4a bb 43 3d
       -1.1243749 1.0781157 0.08090996 0.047786035
000150 d8 f3 1d bf 5b a9 e6 3d b2 69 67 3c 3e 0a 87 bc
       -0.617002 0.11262771 0.014124321 -0.016484376
000160 4b 3f 3a bf c1 f4 78 3d 08 06 9d bb f4 c6 21 bd
       -0.7275283 0.06078029 -0.0047919787 -0.039496377
000170 ed 7f 23 bf 20 50 18 bf 2a 53 3f 3e d3 47 8a 3d
       -0.63867074 -0.5949726 0.18684068 0.06751981
000180 1f 95 21 3e ae 63 95 3f aa 88 8f 3d 6e 5e d5 3d
       0.15779541 1.1671045 0.070084885 0.10418402
000190 58 bd 49 bf dc 90 2f 3d 1d d3 9a bc 79 4f cc bc
       -0.7880454 0.042862758 -0.018899495 -0.02494024
0001a0 0b fd 41 bf 7a 40 a6 3d 0a 68 ea ba 39 43 18 bd
       -0.7577674 0.08117767 -0.0017883789 -0.037173484
0001b0 65 11 b0 be 71 57 27 bf 36 b2 08 3e b6 09 87 3e
       -0.3438827 -0.653678 0.13349232 0.26374596
0001c0 e5 5a 4a bf 49 8f 8b 3d bc fa 13 bc 49 02 3f bd
       -0.79044944 0.06814439 -0.009031948 -0.04663304
0001d0 39 29 03 3c 29 34 89 bf ba 4c d1 bd f4 c6 31 3d
       0.008005434 -1.0719043 -0.102197126 0.043402627
0001e0 5d 45 38 bf 1a b9 08 3d 8f 1f 6f bc 40 36 6c bd
       -0.7198084 0.03337965 -0.0145949265 -0.057668924
0001f0 87 a6 d2 be 8b 35 c4 be 11 68 87 bd fa bc 67 3d
       -0.41142675 -0.383221 -0.06611646 0.056576706
000200 48 5c 03 bf 96 06 ad 3d 82 2a 13 3c 2c d1 97 3c
       -0.51312685 0.08448522 0.008982303 0.018532358
000210 c4 cc 39 bf c5 61 80 3d ee 4c a8 bb 3f aa 1a bd
       -0.7257807 0.06268648 -0.005136124 -0.037760016
000220 a8 e4 2d 3f 53 21 0f 3f 5d eb b1 3e ba 94 c1 3d
       0.67927027 0.55910224 0.3474988 0.094521955
000230 6f 69 4b bf 50 fc 52 3d b7 3e 47 bc b2 f6 58 bd
       -0.79457754 0.051510155 -0.0121609485 -0.052969642
000240 bf 7c 48 bf 69 28 37 3d 8a 58 5b bc 46 2d 8c bd
       -0.7831535 0.044716273 -0.013387809 -0.06844573
000250 41 86 13 bf 98 32 e8 3e e7 97 a8 3d f7 22 f2 3d
       -0.5762673 0.453511 0.08232098 0.11823075
000260 3e 35 06 bf 83 be 09 3f 1a 36 94 bd 7b 78 91 3e
       -0.5242499 0.5380632 -0.072368816 0.28412232
000270 df 23 27 bf 7e d2 10 3e ee 81 78 3c dc be 38 3c
       -0.6528911 0.14142796 0.015167696 0.011275973
000280 a0 94 2e bf 3d c5 ae 3c da 56 03 bc 3a d1 ae bd
       -0.68195534 0.021334285 -0.0080163125 -0.085360005
000290 28 6f 0d bf 14 66 3f 3d 0d 62 37 3b e2 f1 ff bc
       -0.55247736 0.04672821 0.0027982027 -0.031243268
0002a0 6c 7c 18 bf 64 46 e5 3b 4e f8 08 bc 6a 2c 52 bd
       -0.5956485 0.0069969166 -0.008359982 -0.051311888
0002b0 47 7b 1d bf 72 a6 04 3d a0 3f ae bb fb 2c 11 bd
       -0.6151623 0.032385297 -0.0053176433 -0.035443287
0002c0 bf f8 db be c0 60 8c 3e 61 2c 56 3c 3e 5c 8d 3d
       -0.42963216 0.27417564 0.013072104 0.069023594
0002d0 f9 ee 4c bf 4b 91 80 3d a1 f0 3a bc 12 f6 50 bd
       -0.80052143 0.062777124 -0.011409909 -0.05101592
0002e0 40 2f 8f bf 4f 8d 4f bf 78 92 91 bd bc 2c c4 bc
       -1.1186295 -0.81074995 -0.07108015 -0.023947112
0002f0 a0 00 01 3e 2a c3 79 bf ad 3a a6 bd 91 40 ab be
       0.12597895 -0.9756342 -0.0811666 -0.33447698
000300 7f df 43 bf 87 e6 4e 3d f7 51 30 bc f6 90 61 bd
       -0.765129 0.050512817 -0.010761729 -0.055069886
000310 f4 60 ad bd a9 a6 b0 3f 9b 0a d6 3d 60 51 31 be
       -0.08465758 1.3800861 0.104512416 -0.17316198
000320 41 4f 3d be b1 e3 ee bf 41 9c 9a be 63 dd 8a bb
       -0.18487264 -1.8663236 -0.30197337 -0.004237817
000330 1a 8d 30 bf 14 e6 2c 3c 40 4d 63 bc 61 83 86 bd
       -0.68965304 0.010552902 -0.013873398 -0.06568027
000340 26 ff 50 bf db 57 31 3d c7 ba a1 bc 39 15 5c bd
       -0.81639326 0.043296676 -0.019742383 -0.053731177
000350 24 e5 52 bf 8e 4a 9d 3d fb d4 3a bc ff 40 db bc
       -0.8238089 0.07680236 -0.011403318 -0.026764391
000360 40 4f 18 bf d8 b4 8e bc e5 e9 a7 bc a9 b9 54 3d
       -0.59495926 -0.017420217 -0.020497272 0.05193487
000370 0f 98 0b bf 6a 3c 58 3e 24 37 51 bc de e1 88 3e
       -0.545289 0.21116796 -0.012769494 0.26734823
000380 af 83 32 3f 01 36 3b 3e 48 c6 a5 3e ec 0a b0 bc
       0.69732183 0.1828232 0.3237784 -0.021489583
000390 79 bd 46 bf fb 23 9a 3d f8 2d c2 bb 5e 78 07 bd
       -0.7763286 0.07526394 -0.00592589 -0.033073775
0003a0 54 82 2a bf 53 e2 9d 3c 58 44 03 bc ac 20 cb bd
       -0.66605115 0.019272959 -0.0080119 -0.09918341
0003b0 d3 43 28 3e 63 a2 97 3f 54 97 ec 3d 25 35 87 3e
       0.16432123 1.1846431 0.11552301 0.26407734
0003c0 d7 8d 44 bf 3e e0 44 3d f5 45 52 bc d5 a9 3d bd
       -0.7677893 0.048065417 -0.012834062 -0.046304543
0003d0 2f 88 d0 3d b6 87 bb be b8 ca c8 be 65 b6 c6 bd
       0.10182225 -0.36626977 -0.39217162 -0.09702758
0003e0 9f 7a 2a bf 63 40 fd 3d 08 08 4a 3c 95 2f bc 3b
       -0.66593355 0.123657964 0.012331016 0.005742977
0003f0 c8 6a 2f 3f d8 47 b6 3f 7c 5d c5 3e ed 7a 17 3e
       0.6852231 1.4240675 0.38547885 0.14792986

FCNet.0.bias f4 [400]
000000 53 1e b1 3f 62 38 57 be 93 87 50 3f 16 ae 55 3f
       1.3837379 -0.21017602 0.8145687 0.8346876
000010 4d 7b b7 3f 05 32 91 3f 5b 2f af 3f 3d 6b b5 3f
       1.4334503 1.134339 1.3686327 1.4173352
000020 3a cd a0 3f 6f 27 86 be 70 34 8e 3f d9 83 ae 3f
       1.256263 -0.2620196 1.1109753 1.3633987
000030 78 76 a8 3f ac e5 b4 be 14 81 38 bc 26 d6 59 bf
       1.3161154 -0.35331476 -0.011261243 -0.8509239
000040 a0 0a ab 3f 77 95 7c 3f 71 9d 46 3f 7a d8 b0 3d
       1.3362617 0.98665565 0.77583987 0.0863504
000050 f8 93 87 3e 1f c1 9e 3f ef be ad 3f 95 ee b1 3e
       0.2648008 1.2402686 1.3573893 0.34752336
000060 3c 11 4e 3e fa e2 b2 3f 20 a3 b1 3f c5 fa f0 3d
       0.20123762 1.3975518 1.3877907 0.117665805
000070 e0 e9 b5 3f 71 99 a2 3d 58 9a ad 3f e5 fe 5e 3f
       1.4211998 0.07939423 1.3562727 0.8710769
000080 67 8e 8e 3f 87 53 ad 3f a9 10 fc be 2f e2 b6 3f
       1.1137208 1.3541116 -0.4923146 1.4287776
000090 71 9e b6 3f bf de 3d 3f 87 b2 26 3f 84 51 a1 3f
       1.4267102 0.7416801 0.6511616 1.2603002
0000a0 4f 7e aa 3f 61 e1 96 3f c3 92 9d 3f a3 0a 9f 3f
       1.3319796 1.178753 1.2310413 1.2425121
0000b0 2b 96 58 3f 2b 97 b7 3f 96 e3 8c 3e ec 68 06 3f
       0.8460414 1.4343008 0.27517384 0.5250385
0000c0 32 69 b3 3f 93 7d 36 3e 91 32 48 3e 5b a1 aa 3f
       1.4016478 0.1782134 0.1955054 1.3330492
0000d0 4a 46 b9 3f 05 41 b8 3f 5c a4 95 3f d3 87 70 3f
       1.4474576 1.4394842 1.1690784 0.9395725
0000e0 ff 22 28 bf 2b 76 b3 3f d9 5c aa 3f 43 74 d6 3e
       -0.656784 1.4020437 1.3309585 0.41885576
0000f0 02 f7 b2 3f 73 3b 5a bf 96 36 a3 3f 75 89 96 bd
       1.3981631 -0.8524696 1.2751033 -0.073504366
000100 fa f8 90 3f de e4 7c be 27 6c 31 3f 09 1c 4f 3e
       1.1325982 -0.24696681 0.6930565 0.20225538
000110 2a a0 95 3f 36 c9 ab 3f ea ae b3 3f fa 3a e8 3e
       1.1689503 1.342078 1.4037755 0.45357496
000120 4e eb 95 3f 07 69 01 3f dd 2d b5 3f 59 99 c5 3e
       1.1712434 0.50550884 1.4154621 0.38593557
000130 b5 02 7c 3f fa 3b b8 3f d6 2f a5 3f f0 93 af 3f
       0.9844163 1.4393303 1.2905223 1.3717022
000140 34 ac ac 3f 69 36 b2 3e 36 28 34 3f 43 20 b6 3f
       1.3490052 0.34807137 0.7037386 1.4228595
000150 74 0e 0d 3f b3 fe a4 3e 1a 05 b0 3f 62 9c 13 3f
       0.5510018 0.3222557 1.3751557 0.57660496
000160 3d ac a4 3f 42 b5 1d bf 2b 2c 4e bf 9a 3f ad 3f
       1.2865063 -0.616047 -0.80536145 1.3535035
000170 47 05 79 bd f5 3a 88 3f 66 b6 af 3f e7 cf 9f 3f
       -0.06079605 1.0642992 1.3727539 1.2485322
000180 d9 97 b0 3f c1 26 1a bd 42 20 53 be 8a ad 04 3f
       1.379634 -0.037634615 -0.20617774 0.518273
000190 d8 c1 b8 3f ea fc b5 3f 01 5f af 3f 31 91 ae 3f
       1.4434156 1.4217808 1.3700868 1.3638059
0001a0 e1 6e 66 3e ff e7 14 3f 96 8b 40 bf 11 98 9f 3f
       0.22503234 0.581665 -0.7521299 1.2468282
0001b0 fe fd ab 3f 6e e1 b8 3f b6 7f 91 3e d2 67 49 3e
       1.3436887 1.4443796 0.28417748 0.1966851
0001c0 0f 72 b4 3f bd 61 9e 3f 22 dd 37 3f 8e a6 f6 3d
       1.4097308 1.2373577 0.71821797 0.120434865
0001d0 ab 33 b4 3f 51 9c a6 3f 2a ec 45 3f fd 99 9c be
       1.4078268 1.3016454 0.7731348 -0.30586234
0001e0 a9 d6 98 3f ef 3e ba 3f b3 22 8f 3f 8a f8 b4 3f
       1.1940509 1.4550456 1.1182464 1.4138348
0001f0 39 0d 8e 3f 4f f7 37 be 35 9e ab 3f 9b 06 03 bf
       1.1097785 -0.17965434 1.3407656 -0.51181954
000200 5f ec bc 3e dd 17 ae 3f a7 0e 2f 3f c2 97 82 3f
       0.36899087 1.3601032 0.6838173 1.0202563
000210 3f eb 2f bf be f0 b5 3f 91 c4 92 3f 6a 7b 00 3f
       -0.6871833 1.4214094 1.1466237 0.50188315
000220 26 0c 81 3e 54 59 2c 3e 47 ac 7f be e7 2a 59 3b
       0.2520458 0.16830951 -0.24968062 0.0033137144
000230 a7 b7 ac 3f 97 60 2d bf 56 dc b1 3f af bf 5d 3f
       1.3493546 -0.6772551 1.3895366 0.8662061
000240 8e 36 05 3f c0 ef c9 3d 76 05 10 3e 91 52 b7 3f
       0.5203637 0.09860182 0.14064583 1.4322072
000250 e7 9d 8a 3f bb f0 b5 3f 5f 49 27 3d b5 21 06 3f
       1.0829438 1.421409 0.040841457 0.5239518
000260 c8 c8 95 3f b2 b5 a5 3f 8f 35 5a bf ac dd b3 3f
       1.1701899 1.2946074 -0.85237974 1.4052024
000270 31 51 5e be 6c 50 a8 3f bc 4e 65 bf 08 83 88 3f
       -0.2171066 1.3149543 -0.89573264 1.0664988
000280 e7 3c 0c 3f 0d ba 3d be 62 e3 9a be e9 4f b0 3f
       0.5478043 -0.18528004 -0.30251604 1.3774387
000290 3d f4 a8 3f 3e ba 07 3f 35 57 ac 3f e3 cb af 3f
       1.3199536 0.5301856 1.3464113 1.3734096
0002a0 98 2e 32 bf ab d7 9c 3f 2c bb a0 3f e8 40 96 3f
       -0.69602346 1.2253317 1.255712 1.1738558
0002b0 8e 8c 9a 3f ae f5 d0 3e 90 04 8a 3e 0b f6 11 3f
       1.2074144 0.4081244 0.26956606 0.57016057
0002c0 2d f7 a6 3f cc ca df be 83 66 ad 3f 3c e8 b3 3f
       1.3044182 -0.4370941 1.3546909 1.4055247
0002d0 0a 13 a6 3f f4 d0 3c 3f 80 68 d9 be cb ff 0c be
       1.297456 0.7375634 -0.4246254 -0.13769452
0002e0 99 00 6c 3e 61 4e 98 3f f7 d9 ad 3f a6 ef b8 3f
       0.23047103 1.1898919 1.3582143 1.4448135
0002f0 f0 25 5a 3e e4 9b af 3f c3 73 a3 3f b8 cd 85 3f
       0.21303535 1.3719449 1.2769703 1.0453405
000300 d6 0b 8a 3f 8a 01 72 3f 8d 3f 24 bf 4f 7a b4 3f
       1.0784862 0.945336 -0.6415947 1.4099826
000310 6d cf dd 3e e9 57 8e 3f 2b 2e ab 3f 05 37 41 3f
       0.43322316 1.1120578 1.3373464 0.7547458
000320 cf 74 aa 3f 14 53 ad 3f 02 e1 54 3e 7a 9e b6 3f
       1.3316897 1.3540978 0.20788959 1.4267113
000330 15 8d 99 3f d7 97 e6 3e 58 ad 2e bf d3 5f b4 3f
       1.199618 0.4503772 -0.6823325 1.4091743
000340 62 24 b2 3f 78 3b b4 3f ec 0d 76 bd 76 33 2e be
       1.3917353 1.4080648 -0.06007187 -0.17011818
000350 25 4c 64 3f a0 7e 93 3f 28 a7 ae 3f d7 07 6f 3f
       0.8917869 1.1523018 1.3644762 0.9337134
000360 08 9f b8 3f 26 aa 51 3e 1b 76 f1 3e 96 13 b5 3f
       1.4423532 0.20475063 0.4716042 1.4146602
000370 a7 cf a1 3f e8 de cb 3e 4f 92 b5 3f d1 b3 b0 3f
       1.2641495 0.398185 1.4185275 1.3804876
000380 e0 7e b1 3f ef cd ad 3f 0e a2 8b 3e c5 00 b7 3f
       1.3866844 1.3578471 0.27272075 1.429711
000390 b3 2d 78 be 9c 4a 84 3e 70 3f 71 3d 38 5e b3 3f
       -0.24236183 0.25838172 0.05889839 1.4013128
0003a0 38 e5 b2 3f 99 04 ab 3f d4 24 99 3f 5c a8 9c 3f
       1.3976202 1.3360778 1.1964364 1.2238879
0003b0 8f c9 7e 3f 8c dd ac 3f b4 ca 8d 3f 9e e1 63 bf
       0.99526304 1.3505111 1.1077485 -0.8901614
0003c0 73 a4 31 be 34 bd 28 3f b5 fa 1e 3f 50 fe 26 3f
       -0.17347889 0.659137 0.621013 0.652318
0003d0 3d ce 3e be 30 8a a8 3f b0 eb 9c be 85 b2 8a be
       -0.18633361 1.3167171 -0.30648565 -0.27089325
0003e0 66 85 98 3f 35 01 97 3f 80 14 b5 3f bc 7b a9 3f
       1.191571 1.1797243 1.4146881 1.3240886
0003f0 32 14 e8 3e 37 70 f5 3e 05 02 13 3f 3e f0 b6 3f
       0.45327908 0.47937176 0.57424957 1.4292066

FCNet.1.weight f4 [400]
000000 7a 39 f9 3e 55 71 02 40 24 36 4c 3f 71 01 0d 3f
       0.48676664 2.0381672 0.7977011 0.55080324
000010 75 d4 b9 3e 6f eb f3 3e 62 1f f3 3e 29 08 e1 3e
       0.36294904 0.4764056 0.4748488 0.43951538
000020 59 77 ae 3e 6e 80 e3 3f 21 61 02 3f 4c af c9 3e
       0.3407543 1.7773569 0.50929457 0.39391553
000030 cf ef f5 3e a3 0a b7 3f 86 10 9f 3f 2c 0d 53 40
       0.48034522 1.4300121 1.2426918 3.297679
000040 b6 ea f3 3e 42 47 0c 3f db 67 26 3f 76 73 8f 3f
       0.47640008 0.5479623 0.6500222 1.1207111
000050 d9 be 9f 3f 31 71 eb 3e 1b cf eb 3e 72 11 17 3f
       1.2480117 0.45984796 0.46056446 0.59010994
000060 ef 08 7c 3f ea 0f e2 3e d9 68 da 3e de ca 42 3f
       0.9845113 0.44152766 0.42658117 0.760908
000070 25 68 d7 3e 56 9b 93 3f 16 90 fb 3e cc 13 84 3e
       0.42071643 1.153178 0.49133366 0.25796354
000080 01 e7 c7 3e 68 8f f7 3e 9c 90 ee 3f 01 71 cf 3e
       0.3904343 0.48351598 1.8637881 0.40515903
000090 a4 67 d0 3e b1 1c ce 3e e8 a4 12 3f 20 59 fb 3e
       0.40704072 0.40256265 0.57282877 0.49091434
0000a0 af 46 02 3f bc de ce 3e b1 4d fb 3e 83 6a d8 3e
       0.50889105 0.40404308 0.4908271 0.42268762
0000b0 79 ae 25 3f 81 1d c7 3e 59 7d 92 3f 74 ae 01 3f
       0.6471935 0.38889697 1.1444503 0.5065682
0000c0 a9 6c ca 3e f4 3f 39 3f 82 01 75 3f f7 12 ce 3e
       0.39536026 0.7236321 0.95705426 0.40248844
0000d0 40 7f b7 3e 47 15 db 3e 6f 85 cb 3e 92 69 b2 3e
       0.35839272 0.4278967 0.3975024 0.3484617
0000e0 d9 09 07 40 89 f9 c6 3e 75 96 cf 3e 5f b6 39 3f
       2.109976 0.38862255 0.40544477 0.725439
0000f0 ac f0 dd 3e 48 5d 14 40 cb f3 da 3e 5f 83 c2 3f
       0.4334768 2.3181934 0.42764124 1.5196341
000100 b5 e5 fd 3e 5a 5b b1 3f 75 20 8d 3f 13 e7 6c 3f
       0.49589315 1.3856003 1.102553 0.9254009
000110 90 d9 b9 3e f6 79 07 3f c3 b7 df 3e 18 50 72 3f
       0.362988 0.5292047 0.43694887 0.94653463
000120 ef 36 e9 3e 88 60 02 3f e9 31 b4 3e 45 3a e4 3e
       0.45549724 0.50928545 0.35194328 0.44575706
000130 3b fb 1e 3e b7 06 be 3e 62 41 06 3f b8 c9 d4 3e
       0.15525524 0.37114498 0.52443516 0.4156015
000140 f2 4a c8 3e 67 0b 78 3f a7 b2 09 3f 1b c1 e6 3e
       0.3911968 0.968924 0.53788227 0.45069203
000150 17 ac 1d 3f ee f8 ab 3f eb 22 da 3e 2e b5 cc 3e
       0.61590713 1.3435342 0.42604765 0.3998198
000160 96 76 cc 3e 92 57 0b 40 bb e0 50 40 bc d5 de 3e
       0.39934224 2.1772199 3.2637165 0.4352244
000170 9d d1 dd 3f e1 37 ac 3e e7 03 be 3e ee a4 e8 3e
       1.7329594 0.33636382 0.37112352 0.4543833
000180 18 5a c8 3e e2 9e 32 3f 8c 2b bb 3f 79 5b 80 3f
       0.39131236 0.69773686 1.4622664 1.0027915
000190 74 ea 96 3e 91 c2 bc 3e 63 22 f0 3e 9f ae df 3e
       0.2947575 0.36867192 0.46901235 0.43687913
0001a0 f5 bb 94 3e 20 ca 55 3f 75 0e 22 40 2d 3b e7 3e
       0.2904965 0.83511543 2.5321324 0.45162335
0001b0 cc f8 da 3e 7f 72 ac 3e d3 f3 ff 3e 8a a9 8a 3f
       0.42767942 0.33681104 0.4999071 1.0832989
0001c0 dc 37 c6 3e 14 e8 87 3e 78 7e 32 3f b9 b5 bd 3f
       0.38714492 0.2654425 0.69724226 1.4821082
0001d0 a5 9f d3 3e f1 ba f5 3e e9 86 03 3f 24 96 ed 3f
       0.41332737 0.47994187 0.5137773 1.8561444
0001e0 4d 20 0d 3f 1f f8 bf 3e 92 cc b1 3e a0 ea c5 3e
       0.5512741 0.3749399 0.34726387 0.38655567
0001f0 eb cd a0 3e b5 d5 e9 3f 54 5b fe 3e e4 4e 04 40
       0.31407103 1.8268343 0.49679053 2.067315
000200 05 13 54 3f 38 ce a2 3e 8e cf fd 3e 03 0f cd 3e
       0.8284152 0.31797957 0.49572414 0.40050516
000210 7f c0 1e 40 e0 05 bc 3e 7a 88 c1 3e 0f 85 30 3f
       2.480499 0.36723232 0.37799436 0.6895303
000220 11 f3 9a 3f 1c 8d 40 3f 6d 3e de 3f 49 cc bf 3f
       1.2105428 0.75215316 1.7362801 1.4984218
000230 a4 60 fc 3e 22 e4 0a 40 5f cf ce 3e ec 1f 36 3f
       0.4929248 2.1701741 0.40392587 0.7114246
000240 29 8b c2 3e 49 60 17 3f de 35 d8 3f 20 33 cc 3e
       0.37996796 0.59131294 1.6891439 0.39882755
000250 26 44 eb 3e da 50 d3 3e c5 5c e5 3f bf 1f 6d 3f
       0.4595043 0.41272622 1.7918936 0.92626566
000260 99 fc 00 3f 7b d9 f5 3e ed 12 16 40 c7 e0 c7 3e
       0.50385433 0.48017487 2.3449051 0.3903868
000270 b0 7c b9 3f 92 df ee 3e 3a e3 2b 40 ef a6 08 3f
       1.4491177 0.46654946 2.6857438 0.5337972
000280 61 82 51 3f ef 01 d3 3f 16 e2 01 40 c4 5c d7 3e
       0.8183957 1.6484965 2.0294242 0.42062962
000290 42 65 f8 3e 9c 1f 5f 3f 0f 4d fa 3e 4c 92 df 3e
       0.48514754 0.8715761 0.48886916 0.43666303
0002a0 7a 2e 57 40 12 d5 e3 3e 1a 86 02 3f c8 3e da 3e
       3.3622117 0.44498497 0.5098587 0.42626023
0002b0 49 74 0c 3f 30 87 59 3f 3c 13 ba 3f f2 9f 74 3f
       0.5486494 0.84971905 1.453712 0.9555656
0002c0 d3 61 c8 3e 5a 9f ec 3f 38 b3 e6 3e 1c 12 d0 3e
       0.39137134 1.848613 0.45058608 0.40638816
0002d0 00 7c e0 3e 75 00 a3 3e eb 0f e9 3f a2 03 34 3f
       0.43844604 0.31836286 1.8207983 0.70318043
0002e0 86 eb 2f 3f c2 81 03 3f 97 df d8 3e 4c 91 c6 3e
       0.68718755 0.5136987 0.42358086 0.38782728
0002f0 fd ea 28 3f 5b 07 b0 3e be ba d7 3e 95 0b cb 3e
       0.65983564 0.34380612 0.4213466 0.39657274
000300 48 fa 08 3f 0a 6f a3 3e b6 45 0a 40 80 2f e2 3e
       0.535069 0.31920654 2.1605048 0.44176865
000310 c3 f3 61 3f 14 5a fa 3e 7e da db 3e 3e 68 0f 3f
       0.88262576 0.4889685 0.42940134 0.56018436
000320 ea 37 fe 3e b9 b5 df 3e 53 5c 93 3f 24 77 be 3e
       0.49652034 0.4369333 1.151255 0.37200272
000330 80 2d ef 3e 5a f0 1a 3f f3 73 33 40 fa 36 c9 3e
       0.467144 0.60523 2.803952 0.39299756
000340 66 86 0b 3f 20 b4 cc 3e c5 43 4d 3f ee 18 ab 3f
       0.5450195 0.39981174 0.80181533 1.3366983
000350 03 db e7 3e 0a ad e9 3e 42 4d f0 3e c9 03 3d 3e
       0.4528428 0.4563983 0.46933943 0.18458475
000360 a9 b2 c7 3e ae 04 c4 3f d2 45 17 3f fb 72 de 3e
       0.39003494 1.5313928 0.5909091 0.43447098
000370 ef 9d ee 3e 16 6d 07 3f 5a 8f b1 3e 69 5a e1 3e
       0.4660487 0.52900827 0.3467968 0.4401429
000380 e5 12 d9 3e 02 92 e9 3e 46 22 9f 3f cb 78 94 3e
       0.42397228 0.45619208 1.2432334 0.28998408
000390 14 98 91 3f 30 ae 87 3f 14 c0 68 3f 29 19 d2 3e
       1.1374536 1.0600033 0.9091809 0.4103482
0003a0 03 42 d1 3e 00 be 0b 3f 36 34 03 3f 26 fa a4 3e
       0.40870675 0.5458679 0.5125154 0.32222098
0003b0 1e 5e e9 3e c5 d2 dd 3e 2a dd f4 3e 9c 7b 4a 40
       0.45579618 0.43324867 0.47824985 3.1637945
0003c0 c2 a2 5a 3f c5 f1 1b 3f 0e 2c 4f 3f 69 48 fe 3e
       0.854046 0.60915786 0.809266 0.4966462
0003d0 60 6f 01 40 c3 8a e9 3e c9 18 9d 3f c7 38 7c 3f
       2.0224228 0.4561368 1.2273189 0.98524135
0003e0 ff ee d8 3e ec 46 08 3f fb 4e aa 3e ae 20 03 3f
       0.4236984 0.5323322 0.33263382 0.5122174
0003f0 03 06 05 3f 3a b5 53 3f 24 c9 24 3f d2 4b ca 3e
       0.519623 0.82698405 0.64369416 0.3951097

FCNet.1.bias f4 [400]
000000 45 47 07 bf d3 40 c4 be 28 73 0e bf 3a c7 cc be
       -0.52843124 -0.38330707 -0.55644464 -0.39995748
000010 95 59 09 bf 22 e1 02 bf cd f7 f3 be 82 75 07 bf
       -0.53652316 -0.51124775 -0.47649994 -0.5291368
000020 64 aa d6 be 62 2f f6 be 8f fc d0 be 9c 93 d8 be
       -0.41926873 -0.48083025 -0.40817687 -0.42300117
000030 e8 bd cd be 7a e9 b8 be 1f 58 2c bf 79 eb 86 be
       -0.4018395 -0.36115628 -0.6732196 -0.26351526
000040 16 21 fb be 96 8b 0a bf 0e d8 79 be ad 69 47 be
       -0.4904868 -0.5411924 -0.24398825 -0.19473906
000050 bb 25 a9 be 6d 15 bb be fb bb e2 be ca aa 38 bd
       -0.330366 -0.36539784 -0.44284043 -0.045084752
000060 30 25 1d bf 92 6c e8 be 18 11 03 bf 75 0d c1 be
       -0.6138487 -0.45395333 -0.5119796 -0.3770558
000070 53 19 03 bf 21 09 0c bf 88 2c e7 be 01 e5 68 be
       -0.51210517 -0.5470143 -0.45151162 -0.22743608
000080 2d e9 a9 be ea 43 d4 be 4a 8d 1e bf 5d 5e 02 bf
       -0.33185712 -0.41458064 -0.6193434 -0.50925237
000090 20 90 17 bf 5c 66 8c be 96 7c 9a be f3 cf e1 be
       -0.5920429 -0.27421844 -0.30173177 -0.44103965
0000a0 cc de f8 be 8f ea b1 be 65 24 d8 be cc a6 af be
       -0.4860748 -0.34749267 -0.42215267 -0.34306943
0000b0 65 e3 73 be f8 53 0c bf 8b 8f b9 be 2e cb c4 be
       -0.23817213 -0.54815626 -0.36242327 -0.38436264
0000c0 0c 0a 02 bf f1 b6 db bd c0 13 cd 3e 02 0e ca be
       -0.5079658 -0.10728253 0.4005413 -0.39463812
0000d0 32 5c 00 bf 38 e1 fb be 69 03 c6 be 64 4f e2 be
       -0.5014068 -0.49195266 -0.38674477 -0.44201195
0000e0 ba 1e 17 bf 20 5f f2 be ba 39 fb be c6 75 d4 be
       -0.5903126 -0.473382 -0.4906748 -0.41496104
0000f0 5d d8 eb be c9 80 81 be e6 70 c6 be 64 e9 2b bf
       -0.4606351 -0.25293568 -0.3875801 -0.67153
000100 db 68 c0 be 94 bf 02 bf 46 05 41 3e 95 71 44 be
       -0.37579998 -0.51073575 0.18849668 -0.19183953
000110 2c 02 98 be b5 cf e8 be 62 f4 f5 be 7d bd 9c be
       -0.29689157 -0.45470968 -0.48038012 -0.30613318
000120 53 8d cd be 46 bb b0 be 9a 04 e8 be b1 69 4a 3e
       -0.40146884 -0.34517878 -0.4531601 0.1976688
000130 83 57 1f be ac 7a 05 bf 5c 5e d3 be 36 c2 f6 be
       -0.15560727 -0.5214031 -0.41282928 -0.48195046
000140 39 e2 c9 be 10 ac 55 be c4 d9 19 be 09 57 ff be
       -0.39430407 -0.20866418 -0.15024477 -0.4987109
000150 f9 8b dd be 64 fc 8a be 19 59 d7 be cb a7 88 be
       -0.43270853 -0.27145684 -0.42060164 -0.26690516
000160 2c 3e cb be d6 94 dd be 2e 9f b2 3d d0 3b e1 be
       -0.3969587 -0.43277615 0.08721767 -0.43990946
000170 20 d5 98 bd c2 f2 76 be 33 da c8 be d4 a5 c8 be
       -0.07462525 -0.24116042 -0.39228973 -0.39189017
000180 e9 c8 ec be d1 99 0e bf 5e d7 ee be 9b 37 d9 be
       -0.46247032 -0.55703455 -0.46648687 -0.42425236
000190 9d 5d 01 bf 76 a3 f7 be d3 46 e4 be 84 04 df be
       -0.5053347 -0.48366898 -0.44585285 -0.43558133
0001a0 5e 3c 11 3e 84 94 a9 bd d5 de 1a bf 68 9b f8 be
       0.14183185 -0.0828028 -0.60496265 -0.48556066
0001b0 38 e2 e4 be 3b d7 03 bf ef 41 bc 3d b4 39 09 bf
       -0.4470384 -0.5150029 0.09192263 -0.53603673
0001c0 77 28 f3 be d2 81 71 be 52 d5 ad be 1d eb 98 be
       -0.4749181 -0.23584679 -0.33951813 -0.29866877
0001d0 45 65 07 bf 78 a2 e6 be 3f 3d a2 be 88 54 1f bf
       -0.528889 -0.4504583 -0.31687352 -0.6223836
0001e0 b1 7e c7 be 36 88 1a bf ef 42 8f be af b5 0c bf
       -0.38963845 -0.6036409 -0.27980754 -0.5496473
0001f0 a7 77 7c be e8 62 e2 be 7b 65 e0 be d3 74 02 bf
       -0.24655019 -0.44216084 -0.43827423 -0.5095951
000200 b7 c2 81 be 57 23 fe be 05 5f 58 be c0 cf 62 be
       -0.25343868 -0.49636337 -0.21129997 -0.22149563
000210 a8 7a 63 be ed 72 00 bf cf 29 8a be a0 4b fd be
       -0.22214758 -0.5017536 -0.26985022 -0.4947176
000220 89 4b cf be 78 49 f2 be c8 1c 15 bf c4 9d 14 3e
       -0.40487316 -0.47321677 -0.5824704 0.14513308
000230 a1 d8 f1 be 1d 25 ca be f8 aa 01 bf 14 fd ee be
       -0.47235587 -0.3948144 -0.506515 -0.46677458
000240 97 69 a2 be c8 db 62 bf 5c f3 fd be 7e a8 10 bf
       -0.31721184 -0.8861661 -0.4959973 -0.565071
000250 2d 65 cf be c4 12 f9 be 3f 5b 37 be 48 0e ef be
       -0.40506878 -0.4864713 -0.17905901 -0.46690583
000260 dd 45 ed be 67 8c c4 be 92 3c bb bd 8b 0c f7 be
       -0.46342364 -0.38388368 -0.09142412 -0.48251757
000270 94 d7 1c bf cd bf bc be 7e 93 fc be 53 a2 b2 be
       -0.61266446 -0.36865082 -0.49331278 -0.3488947
000280 11 44 a0 be 64 2c cb bd 82 f8 fd be 4e 07 df be
       -0.3130193 -0.09920576 -0.4960366 -0.4356026
000290 c7 e1 c6 be 7d 6f 6a be bf 82 e3 be df 04 f1 be
       -0.3884413 -0.22894092 -0.4443569 -0.4707403
0002a0 7a 5d b4 be fb 94 be be 62 b6 be be a5 98 ae be
       -0.35227567 -0.37223038 -0.37248522 -0.34100834
0002b0 9b c2 c5 be c2 ac 1b bf 18 41 ad be 7b e6 49 bf
       -0.38625035 -0.6081048 -0.33838725 -0.7886731
0002c0 5c c6 d1 be 70 5e 13 bf fe 29 f1 be 34 98 11 bf
       -0.4097165 -0.57565975 -0.4710235 -0.5687287
0002d0 3e 17 f6 be d7 8b 7b be ab 5d be be b6 a8 25 bd
       -0.48064607 -0.24565063 -0.37180838 -0.0404441
0002e0 a4 30 14 be cf 50 c2 be 73 13 c2 be 41 20 16 bf
       -0.1447168 -0.37952277 -0.37905464 -0.58642966
0002f0 b8 9d bf be 60 b3 c7 be f4 a9 c0 be 38 22 b1 be
       -0.37425017 -0.3900404 -0.37629664 -0.3459642
000300 d0 bc 0b bf 3c 1c 9a be bf 42 d6 be d4 44 f9 be
       -0.5458498 -0.30099666 -0.41847798 -0.48685324
000310 50 d2 fa be f5 c0 04 bf 7d b8 ca be 05 69 1c bf
       -0.4898858 -0.5185693 -0.39593878 -0.6109775
000320 32 13 d5 be c4 e0 e4 be a2 77 b0 be c7 61 f8 be
       -0.41616207 -0.44702733 -0.34466273 -0.48512098
000330 5d 2e c5 be 50 39 5f be dd 88 02 be 47 6d 0d bf
       -0.38511935 -0.21799207 -0.12747522 -0.5524487
000340 26 56 12 bf 2d 31 fb be 09 26 4c be 45 b0 d9 be
       -0.571627 -0.49060956 -0.19936384 -0.42517295
000350 24 5a 71 be 6f a4 bb be 2c b8 e1 be 9c 9e 30 be
       -0.23569542 -0.3664889 -0.44085824 -0.17248005
000360 7e d7 10 bf 6b 8f 9f bd 28 ca 5a bd b5 96 09 bf
       -0.56578815 -0.07791027 -0.053415447 -0.53745586
000370 ea 14 c0 be 18 27 16 bf 64 0a f6 be e1 f5 01 bf
       -0.37515956 -0.586534 -0.48054802 -0.50765806
000380 07 d4 f6 be e7 f4 f1 be 60 da f1 be a6 39 fa be
       -0.4820864 -0.47257158 -0.4723692 -0.48872107
000390 0b ad 1c be 2b 81 fe be de 11 f7 be b9 d0 08 bf
       -0.15300386 -0.49707922 -0.4825582 -0.53443485
0003a0 09 74 e9 be 12 b5 0a bf 6e 60 c3 be 80 6b 8b be
       -0.4559634 -0.5418254 -0.38159508 -0.27230453
0003b0 d8 a3 7f be bf c6 e7 be 3a 3b bb be 6a f9 66 be
       -0.24964845 -0.4526882 -0.36568624 -0.22556081
0003c0 be f3 bc bd c8 5e 33 bf 23 72 23 be da d2 af be
       -0.09226178 -0.700665 -0.15961508 -0.34340554
0003d0 f2 6b 22 bf ae 2b c4 be cb 11 e3 bd c0 d7 e2 be
       -0.6344596 -0.38314575 -0.11087378 -0.4430523
0003e0 b0 0b 92 be 74 7e e9 be f6 db cd be fc 5b e0 be
       -0.28524542 -0.4560429 -0.4020688 -0.43820179
0003f0 96 99 ae 3d 89 c1 98 be 9d 3b 21 bf 5b 1c ef be
       0.08525388 -0.29835156 -0.6298159 -0.4670132

FCNet.3.weight f4 [300, 400]
000000 08 92 20 3e 63 0f eb bd 15 6d 6a 3f d7 fc 77 3f
       0.15680707 -0.11477544 0.91572696 0.9687018
000010 d8 f3 86 3d 06 88 8e bd 08 e5 29 3e ad ea d4 3d
       0.06589478 -0.06959538 0.16591275 0.10396323
000020 ec ae bd 3d 66 f9 95 3d d8 5f a4 3c f5 9a ec 3c
       0.09261879 0.073229596 0.020065233 0.028882483
000030 24 08 79 3e 6f 66 9d 3f c1 d4 00 40 a2 81 4f 3f
       0.24319512 1.2296885 2.0129855 0.8105718
000040 99 c0 1d be 8b 24 7b 3f a5 31 40 3f 3e fb a2 3d
       -0.15405501 0.98102635 0.7507575 0.07958077
000050 c7 3a 8b 3f 22 59 96 bd 39 f9 e8 3d 72 e0 d6 be
       1.0877312 -0.073412195 0.113756604 -0.41968113
000060 37 e1 d0 3e af d7 b7 bc 0d ec 27 3e e8 7d b4 3d
       0.40796825 -0.022441713 0.1639864 0.08813077
000070 e3 be 05 3d c4 d8 a6 3f 05 af 05 3e a6 c9 45 be
       0.032652747 1.3034902 0.13055046 -0.19315204
000080 31 57 82 3e 5a bc 52 3e e5 d7 82 3e 0c 84 e4 3b
       0.25457147 0.20579663 0.2555534 0.006973749
000090 a0 d4 a2 3d a9 6a 9f be d3 dc dd be f6 ae 5c bb
       0.07950711 -0.31136063 -0.43332538 -0.003367362
0000a0 c3 5f 95 bb 63 2b 0c 3e b9 42 a7 3e f2 59 e0 bd
       -0.004558535 0.13688426 0.32668093 -0.10954656
0000b0 19 e3 6e 3f e1 9f 55 3d 6d e8 45 3e 68 e1 17 3e
       0.93315274 0.052154426 0.19326945 0.1483208
0000c0 b1 d9 99 3d 08 89 11 3f b3 fd d5 3e ba bb 3a 3e
       0.075122245 0.5684972 0.4179512 0.18235675
0000d0 b4 67 c6 3d 75 c1 cf bc a6 04 a9 be f6 70 20 bf
       0.096877486 -0.025360802 -0.3301136 -0.62672365
0000e0 4e 60 51 3e 11 16 c1 3d 12 fd 80 3b ef ba d6 3e
       0.20446894 0.09428037 0.0039364183 0.41939494
0000f0 ab b2 b5 3d 6d 6c 7f 3d 24 58 bb 3d 31 fd 3b bd
       0.08871969 0.062359262 0.09147671 -0.04589576
000100 35 92 16 3e cc 61 56 3f 68 38 18 bd 4c 06 25 3e
       0.14704211 0.83742976 -0.03716317 0.16115683
000110 9b b8 8d 3c 37 ef 00 bb 0f ac 32 3e 26 39 d8 bd
       0.01729994 -0.0019673833 0.17448448 -0.10557775
000120 b3 7c f6 3d 73 a5 1d 3e 89 a2 96 3d 25 f7 4c be
       0.12035503 0.15395145 0.0735522 -0.20016153
000130 80 6e 03 be a8 2c 2a 3d 23 74 77 3e fb 1a 8b bd
       -0.12835121 0.041546494 0.24165396 -0.067922555
000140 ae a9 7e be b3 5c c6 bb ba c9 29 3f 62 1f a8 bb
       -0.24869415 -0.006053531 0.66323435 -0.0051306942
000150 99 9d fd 3e 5b 6f 78 bd 8f 64 22 3c 8e 6e 4f be
       0.495343 -0.06065307 0.00991167 -0.20257017
000160 4a a8 11 be f1 de 49 3f ea df a6 3f 82 88 bb 3d
       -0.14224353 0.78855807 1.3037083 0.09156896
000170 cd f4 49 3d c3 f8 e0 3e 61 78 7b bd 98 0c 0e 3b
       0.049305726 0.4393979 -0.0613941 0.0021674987
000180 54 a6 1c 3e a0 e2 1f 3f 6f 6e 79 3e 1a 80 95 3f
       0.15297824 0.6245518 0.24358533 1.1679718
000190 d5 8e 4b 3d ca 5a 7c 3d a9 0e 8d 3d 85 dc d9 3d
       0.049696762 0.06161002 0.06887562 0.10637764
0001a0 5f b7 92 bd c0 6a 81 3f 5a d5 80 3d 5d e6 cf 3c
       -0.071638815 1.0110703 0.062906936 0.0253784
0001b0 64 2b 0a bd fc 4b 1e bd ad c9 10 3d 57 fd 1c 40
       -0.033732787 -0.038646683 0.035348583 2.4529626
0001c0 ad 66 a5 3c 85 d6 dc bd bf a5 d9 3e 6d 46 3a 3f
       0.020190561 -0.10783104 0.42509267 0.7276371
0001d0 d6 a9 b4 3d 35 f9 89 bd 3b d8 45 3e d3 68 87 3f
       0.08821456 -0.067369856 0.19320767 1.0578865
0001e0 24 77 91 be 40 b1 97 bd 36 65 c6 bd 7f 48 26 3e
       -0.2841121 -0.07406855 -0.09687273 0.16238593
0001f0 f7 5a 65 3d 73 a4 8b 3f 6c b1 1e 3d b6 6f 90 3f
       0.055994954 1.0909561 0.03874342 1.1284091
000200 f0 a6 89 3e 4c e8 99 be f2 90 9f 3c 92 d2 f4 3d
       0.26885176 -0.3006004 0.019478295 0.119542256
000210 19 08 35 3f c2 30 ff 3b 42 2c 93 bd 1b c9 3a 3f
       0.7071548 0.007787795 -0.07186176 0.7296311
000220 3d 92 4f 3f b4 a9 c5 be c7 fd 6e 3f 86 be 39 3e
       0.81082517 -0.38606036 0.93355983 0.18139085
000230 a5 21 27 3d 2f 2e 23 3f 40 d0 7e 3d 89 07 7d 3f
       0.04080357 0.63742346 0.06221032 0.9883962
000240 c7 4d 15 be fa 95 71 3e 32 5c 71 be c9 53 b6 3d
       -0.14580451 0.23592368 -0.23570326 0.089026995
000250 1b d4 98 3e 45 63 8e 3e 59 fa 16 3f 3a c8 e1 3e
       0.29849324 0.27810112 0.5897575 0.44098073
000260 90 ca 36 bd 8e 20 45 3d 7e fb 21 be d9 86 c6 3d
       -0.044626772 0.04812675 -0.15818593 0.09693689
000270 11 76 5e 3f c7 40 49 3d cd 47 86 3f 49 21 7f bd
       0.86898905 0.049134042 1.0490662 -0.062287603
000280 7a 68 41 be 87 d4 d9 be 66 61 b5 3e 66 4c ed 3d
       -0.18887511 -0.42544958 0.35425872 0.115868375
000290 5b 4e c8 bc bc c3 6a bf 0d 19 de bd 78 85 50 3e
       -0.024451425 -0.91704917 -0.10844622 0.20363414
0002a0 bf ce 58 3f ad 00 53 3c 96 2f 18 3e 29 2f 0d 3e
       0.8469047 0.012878579 0.14861903 0.13787521
0002b0 c9 96 38 be 40 8a 86 3d 6f fc 20 3f 6c 2e d5 3e
       -0.1802627 0.06569338 0.62885183 0.4163698
0002c0 9f 39 19 3d 20 2f 3a 3f d5 a3 31 bd 68 8a 50 bc
       0.037408467 0.7272816 -0.043369133 -0.012728311
0002d0 e7 54 d8 bd ad ab 6c 3e a2 d5 1e 3f 1a fd 55 be
       -0.10563069 0.23112364 0.6204473 -0.20897332
0002e0 ac 5b 52 bd 88 0f e9 3d 12 d9 05 be f7 30 00 3e
       -0.051356956 0.113799155 -0.13071087 0.12518679
0002f0 3b c8 c5 be 76 79 14 be 50 31 47 3c 3a 37 9b be
       -0.38629326 -0.14499459 0.012157753 -0.30315572
000300 88 c4 24 3c 40 ad 47 3f af ec 66 3f 17 62 83 3d
       0.010056622 0.77998734 0.902049 0.064151935
000310 ac 8c bd 3f 1f 39 31 bd 67 be 42 3e 74 ee 5f 3e
       1.4808555 -0.043267366 0.19017945 0.21868306
000320 c7 fc 04 3d 27 fe 2a bd db b5 b0 be 6b bb 61 3d
       0.03246763 -0.041746285 -0.34513745 0.055110376
000330 a4 24 9f 3d 5c 1f b9 3e 4d d2 a1 3f a7 5a be 3b
       0.077706605 0.36156738 1.2642304 0.0058091464
000340 45 9f b1 3d 1f 49 e4 3d 6e e0 c6 bc 45 41 49 3f
       0.086729564 0.11146759 -0.024276938 0.7861522
000350 57 f0 1a 3e 39 ae 29 be 8e 54 f0 bc 20 9e 05 be
       0.15130745 -0.16570367 -0.029337194 -0.13048601
000360 6b 03 f2 3d ba f7 b3 3e 53 6f 7d bf 96 5a dd 3c
       0.11817058 0.35149938 -0.9899799 0.027020734
000370 ba 02 89 bd 41 cc 0c 3e 6c 68 34 be 79 a4 34 3e
       -0.06689973 0.13749792 -0.17617959 0.17640866
000380 1c 78 7d 3d 03 bf 8d bd 67 84 4e 3e 0a 47 ab 3c
       0.061882123 -0.06921198 0.20167695 0.020907898
000390 2d 22 f8 be b9 68 b9 3f 08 fd 7a 3f db 90 7c 3e
       -0.48463574 1.4485084 0.98042345 0.24664633
0003a0 65 b3 ac 3d 49 bb 4d 3e e5 f5 82 3e f4 33 7e 3e
       0.08432654 0.20090975 0.25578228 0.24824506
0003b0 2e 7e 33 3e 7f 79 12 3c 32 5e 8a bb 33 97 4e be
       0.17528602 0.0089401 -0.0042226547 -0.20174865
0003c0 58 9b d0 be 54 77 12 3f 28 06 4b bf c6 b5 08 3f
       -0.40743518 0.5721333 -0.7930627 0.53402364
0003d0 50 bb b6 3f 88 b3 92 bc 8e 9c 96 be a8 2b 6b bf
       1.4275913 -0.017907873 -0.29416317 -0.9186349
0003e0 6e b3 78 3d b5 99 f0 bd 30 b2 9d 3d 25 7c 8d 3d
       0.060717992 -0.11748067 0.07700002 0.06908444
0003f0 f7 49 dc 3e a9 7c 07 bf d6 97 fe 3f 6a 97 6c 3d
       0.4302518 -0.5292459 1.9890087 0.057761587

FCNet.3.bias f4 [300]
000000 75 c2 74 bd 4a 5d 43 be cd 60 ae be 3c 52 38 3f
       -0.05975576 -0.19078556 -0.34058228 0.7200048
000010 55 1e 59 bd 89 0a cc be 50 ac ce 3c f2 bf 13 3d
       -0.053007443 -0.39851788 0.02522865 0.036071725
000020 38 bd 1b 3c 75 c5 6a be 8a e6 af 3e 6a 89 af 3e
       0.0095055625 -0.22926886 0.34355575 0.34284526
000030 50 4d 9b bd 19 36 04 3e 0d d3 e6 be 22 78 b2 be
       -0.075831056 0.12911262 -0.45082894 -0.3485728
000040 04 47 98 bd ce 5c a8 be f2 6f 9d 3e d4 69 72 be
       -0.0743542 -0.32883304 0.3074947 -0.23673183
000050 f2 07 0f bf 31 a3 ed bd ca d2 1b bd da c0 a3 be
       -0.558715 -0.11603392 -0.03804282 -0.31983072
000060 96 54 4e 3d d6 64 d3 bd a6 56 3c be 10 9f 7c 3d
       0.050373636 -0.10321967 -0.18392429 0.06167513
000070 04 6a d2 3e 0f cc 1e be 0b 26 94 3e 9d 5a c5 3b
       0.41096509 -0.1550753 0.28935274 0.006022765
000080 62 85 04 be 57 91 40 3e 0b 86 84 be f1 e9 93 3e
       -0.12941507 0.18805443 -0.25883517 0.2888942
000090 20 55 b1 be 56 fb e1 bd fa ec 97 be 57 74 89 3e
       -0.34635258 -0.11034267 -0.29672986 0.26846573
0000a0 f5 8e a4 be 6c 0d 04 bf f2 9e f8 be 20 10 89 3e
       -0.32140318 -0.5158298 -0.48558766 0.26770115
0000b0 ba d6 95 be c4 66 19 bd 2b fb 11 3f 1e e8 e1 3d
       -0.29265386 -0.03745152 0.57023877 0.11030601
0000c0 79 de f1 3d 28 80 18 3f 99 9a 7f 3e b2 76 d8 be
       0.118100114 0.5957055 0.24961318 -0.42278057
0000d0 7e 7d 87 be 37 bc 19 bf c8 be 9d bd ba b9 f6 3d
       -0.2646293 -0.6005282 -0.07702404 0.12047143
0000e0 5a 1b 1f 3f ab 91 af 3e 6e e5 47 3f 5f 6a 4d 3e
       0.6215111 0.34290823 0.78084457 0.20060109
0000f0 9c 72 77 be 41 91 97 be e5 9c cf 3b 9e 6d 47 be
       -0.24164814 -0.29603007 0.006335842 -0.1947541
000100 01 96 b4 3e 4a 73 df 3d e4 7a a8 bd 0c c1 83 bd
       0.35270694 0.109106615 -0.082265645 -0.06433305
000110 5e c3 d1 bd a2 88 31 be 9a df 63 be e0 ee 0f be
       -0.102423415 -0.17337278 -0.22253266 -0.14055967
000120 20 1d 60 be 03 e7 6a 3e 0e cf 63 be 98 ca 04 be
       -0.2188611 0.22939686 -0.22246954 -0.12967908
000130 96 d0 b7 3e f7 af 2f be 5c d5 81 be b5 c9 a1 bd
       0.35901326 -0.17156969 -0.25358093 -0.07899801
000140 1e 43 27 3e d6 0f fa be 4d d6 a0 3e d0 03 34 be
       0.16334197 -0.48840207 0.314135 -0.1757958
000150 e0 e3 bd bd 4e 7a a6 be 92 26 63 be 65 58 00 3f
       -0.09271979 -0.32515186 -0.22182682 0.5013488
000160 6d 15 95 bd 48 5f dc bd c5 eb b4 be 06 e4 a7 3e
       -0.07279477 -0.10760361 -0.35336128 0.32791156
000170 06 93 80 be 75 1e 82 3e 2f 43 da bd df d8 91 be
       -0.2511217 0.25413862 -0.106573455 -0.28485772
000180 8d 40 6a be be 90 ba be 3e 7a 22 be 9e 2c bb 3d
       -0.22876187 -0.36438555 -0.15866944 0.091393694
000190 95 1d a3 3d b4 d9 34 bd db 48 3e be d8 6e 7d be
       0.07964627 -0.04415293 -0.1858248 -0.24749315
0001a0 78 57 83 3e 44 4f 94 be 89 27 51 bd 13 fd b4 be
       0.2565267 -0.28966725 -0.051063094 -0.3534933
0001b0 63 6b 5a be d8 15 a6 be b4 77 eb be 5a 98 f4 3c
       -0.21330027 -0.3243854 -0.45989764 0.029857803
0001c0 87 63 8c be 80 72 eb 3d 93 d2 d3 bd 98 72 00 bf
       -0.27419683 0.114964485 -0.10342898 -0.50174856
0001d0 34 cc b0 3b f0 4f 94 bd 11 a0 69 3d da 33 46 3f
       0.0053954367 -0.07241809 0.057037417 0.7742287
0001e0 53 8e 32 3d c2 c3 7f be 1c 74 60 be d2 19 04 bf
       0.043592762 -0.2497702 -0.21919292 -0.516019
0001f0 b0 e8 30 3e 00 22 e1 be 8c 46 29 3e 53 02 69 3e
       0.17276263 -0.43971252 0.16530818 0.22754793
000200 9a 91 17 3f 41 c6 76 bd 68 53 f1 3b 89 55 3d be
       0.59206545 -0.060247663 0.007364679 -0.1848966
000210 cf c8 0e 3f 8f 4d 08 ba da 79 b0 be 10 ef cd be
       0.5577516 -0.00051995454 -0.34467965 -0.40221453
000220 bc b2 d0 be 16 a8 e3 3b 63 70 26 3e ff e1 a2 3e
       -0.40761364 0.0069475276 0.1625381 0.31813046
000230 33 64 94 3c 6a 60 a4 be 5e e9 49 be e7 fc 5c be
       0.018114185 -0.32104808 -0.19717929 -0.2158085
000240 7a fe 08 3e 0b 29 b7 be 2b f3 57 be 67 30 17 3d
       0.13378325 -0.357735 -0.21088855 0.036911394
000250 1e b6 c9 be 61 f1 67 3e 2b 51 95 3e f8 33 aa be
       -0.39396757 0.22650672 0.2916349 -0.33242774
000260 e0 99 48 be 93 89 e3 be 70 2e 8a be 3b ce 83 be
       -0.19589949 -0.44440898 -0.26988554 -0.2574328
000270 da 7b 58 be 4e 6c 3f 3e 99 90 7e bd ab 72 e3 3e
       -0.21140996 0.18693659 -0.062149618 0.44423422
000280 ba d1 1f be 71 f8 3e be a8 38 d6 bd 63 d4 87 3c
       -0.15607348 -0.1864946 -0.10460025 0.016580766
000290 89 c2 7f be 43 18 bc bd 88 bc 0f bd be 54 c6 3d
       -0.24976553 -0.09184315 -0.035091907 0.09684132
0002a0 51 98 f1 be 53 5f 39 be b5 30 1d 3e d3 a7 ab be
       -0.4718652 -0.1810277 0.15350612 -0.33526477
0002b0 41 02 ca 3d 34 81 0d bd 55 78 ad bd 5c 57 ea be
       0.09863711 -0.034547046 -0.08470217 -0.45769775
0002c0 1b c6 86 be 46 04 1d 3c 1b 31 46 be cb f9 02 3e
       -0.26323017 0.009583538 -0.1935467 0.12790601
0002d0 ae e1 63 be d7 8e 60 3e 87 ba d0 3d e8 48 e5 be
       -0.22254059 0.21929489 0.10191827 -0.44782186
0002e0 a3 6e 8a be 5b 33 49 3e 8d 7f a1 bd 8b ba 90 bd
       -0.27037534 0.19648497 -0.078856565 -0.0706683
0002f0 29 5c 51 3e 22 d8 37 3e f7 71 f3 be 8e db 88 be
       0.20445313 0.17953542 -0.47547886 -0.26730007
000300 f4 d0 e6 bd 55 47 9e be 7a 22 2e bd 36 9a 52 3e
       -0.112703234 -0.30913797 -0.04251335 0.2056664
000310 39 14 ab 3d e3 eb 81 3e 45 31 8e be ae 93 81 be
       0.083534665 0.2537528 -0.27771965 -0.25307983
000320 34 3e 4a be 21 96 19 be cf 68 ee be 37 5c 06 bf
       -0.19750291 -0.14998676 -0.46564338 -0.5248446
000330 69 fe 06 be d1 2d 54 be eb 84 5f be c0 c7 7f 3e
       -0.13182987 -0.20720603 -0.21828048 0.24978542
000340 e4 e0 b4 3d 96 cb 98 be 6f a8 ba be 31 a8 56 3d
       0.08831957 -0.29842824 -0.3645663 0.052406494
000350 9e c0 b7 be 5f 2f ee be a3 bd 80 bd a6 c9 aa be
       -0.35889143 -0.46520516 -0.0628617 -0.3335697
000360 03 d0 92 be df 39 e4 3c f9 6b 22 bd d8 e5 76 be
       -0.28674325 0.027859626 -0.039653752 -0.24111116
000370 85 fc 68 3e 72 bd dd be 43 da fc bd 73 70 32 3e
       0.22752579 -0.43308598 -0.123463176 0.17425708
000380 13 d3 07 be a1 87 5c 3d a9 55 e3 bd 55 9c c1 bd
       -0.13264112 0.053840283 -0.11100323 -0.09453646
000390 4b 6a c6 be c6 f6 d4 bd b7 eb 99 3e cb 32 75 be
       -0.3875297 -0.10398631 0.3006265 -0.23945157
0003a0 1c 42 f6 3d bf 7d dd be 90 42 86 be ce a8 a3 3e
       0.12024328 -0.4326 -0.26222658 0.31964725
0003b0 2b c9 02 3e 56 42 6c be e7 cb a4 3a b3 d7 98 3c
       0.12772052 -0.2307218 0.0012572975 0.01865754
0003c0 2c 7b c0 3e 1c 11 44 be ac f5 89 be 08 7a f3 be
       0.37593973 -0.19147152 -0.26945245 -0.4755404
0003d0 21 1c 56 be c9 1f f7 be 7a 02 7f be 4c 2f b3 3e
       -0.20909168 -0.48266438 -0.24903288 0.34997022
0003e0 7f 1e 87 be b9 97 86 be f9 90 1a be 02 54 ed 3d
       -0.26390454 -0.2628763 -0.15094365 0.11588289
0003f0 b4 a5 5c 3d d4 4a 23 3d 5a 8f 16 3e 63 62 db 3d
       0.053868964 0.039866284 0.14703122 0.10712125

FCNet.4.weight f4 [300]
000000 e2 2b 02 40 ef 7c 92 3f 58 46 00 40 58 a9 34 40
       2.0339284 1.1444377 2.0042934 2.822836
000010 e5 d6 ac 3f 67 54 4c 3e f4 69 d4 3f 9c 44 07 3f
       1.3503081 0.19954072 1.6594834 0.52839065
000020 01 a7 a0 3f 55 76 c2 3f cb a9 87 3f 36 a2 1a 40
       1.2550966 1.5192362 1.0598692 2.4161506
000030 64 92 bf 3f bc 9c db 3f 85 76 99 3e f6 78 82 3e
       1.496655 1.7157207 0.29973236 0.2548291
000040 16 60 94 3f e7 79 a6 3f 42 9b 94 40 19 d8 d8 3f
       1.1591823 1.3005952 4.6439524 1.6940948
000050 70 e6 b3 3e 97 88 d0 3f b0 e1 d7 3f ea 5b 8b 3f
       0.35136747 1.6291684 1.6865749 1.0887425
000060 f5 df 41 3f 72 9d ab 3f 06 a7 aa 3f 49 f9 0d 3f
       0.75732356 1.3407423 1.3332222 0.55458504
000070 b5 93 18 40 b8 a2 97 3f cd 9d cf 3f 26 6e f6 3f
       2.3840153 1.1846533 1.6220032 1.9252365
000080 78 6d 66 3f c5 79 ee 3f dd 6d 33 3f b2 92 1b 40
       0.90010786 1.8630911 0.70089513 2.4308286
000090 3b 8d b8 3f 95 4a aa 3f 95 fa 42 3e 7c 08 fb 3f
       1.44181 1.3304011 0.19040902 1.9611964
0000a0 87 bb a7 3f 1b 11 87 3e 9d 3e 60 3f 0c 29 07 40
       1.3104104 0.26380238 0.8759554 2.1118803
0000b0 2c a3 78 3e 64 be 86 3f 1a d4 10 40 cb 49 90 3f
       0.24280995 1.0526853 2.2629457 1.127252
0000c0 ff 58 f2 3f 76 e8 20 40 08 d6 80 40 b6 fb 47 3f
       1.893341 2.5141883 4.026127 0.78118455
0000d0 f3 54 e0 3e 8c 76 76 3e e7 92 01 40 2e 9b a4 3f
       0.4381481 0.2406866 2.0245912 1.2859857
0000e0 e9 99 2a 40 f6 35 f3 3f a0 73 8b 40 f9 f5 fd 3f
       2.665644 1.9000843 4.3578644 1.984069
0000f0 fa b8 92 3f e1 99 e2 3e 5b 15 d9 3f 91 f1 a2 3f
       1.14627 0.44258025 1.6959642 1.272997
000100 e9 f1 0e 40 ca 8e 64 3f 70 6c bc 3f f9 da c2 3f
       2.233515 0.8928038 1.4720592 1.5223075
000110 86 7f 90 3f 0f 05 f7 3f 52 c7 a7 3f d2 89 90 3f
       1.1288917 1.9298419 1.3107703 1.129206
000120 48 a3 8c 3f 08 84 df 3f 4b 73 20 3f 85 73 d5 3f
       1.098733 1.7462168 0.62675923 1.6675879
000130 14 b7 26 40 9b eb 9a 3f c3 20 38 3f ff 30 8a 3f
       2.6049242 1.2103151 0.7192499 1.0796202
000140 6a f3 ca 3f be ea c6 3e e9 81 03 40 ab e9 9e 3f
       1.5855534 0.3885097 2.054804 1.241506
000150 ea 83 85 3f a7 04 9c 3f c2 b5 77 3f 4c 49 55 40
       1.0430882 1.218892 0.96761715 3.3325987
000160 f6 ad 3a 3f 6b 04 89 3f 11 b5 63 3f fe d9 fb 3f
       0.72921693 1.0704473 0.8894816 1.9675901
000170 4f f0 36 3f 78 ba 0d 40 d9 72 77 3f 7f 84 af 3e
       0.7146043 2.2145061 0.9665962 0.34280774
000180 2b e6 8f 3f a1 f3 90 3e d4 ce 85 3f 4b 84 cd 3f
       1.1242117 0.28310874 1.0453744 1.6055998
000190 e9 d4 90 3d 15 e1 df 3f 3b ad 8f 3f 1e 30 86 3f
       0.070718594 1.7490565 1.1224741 1.0483434
0001a0 56 94 07 40 e0 e9 74 3f e0 70 b6 3f ae 55 57 3f
       2.1184287 0.95669365 1.4253197 0.8411511
0001b0 ab 30 95 3f 1a ac cd 3f f3 7f c1 3e 3f 4e 6a 3f
       1.1655477 1.6068146 0.3779293 0.91525644
0001c0 9e 84 9f 3f 22 56 f5 3f 26 8d b2 3f 40 2a 5a 3e
       1.2462347 1.9166911 1.3949325 0.2130518
0001d0 d9 42 e2 3f fc 71 a9 3f 0f 50 b5 3f 3a 17 33 40
       1.767665 1.323791 1.4165057 2.7982926
0001e0 9a 3e e4 3f e8 29 09 3f ef dd 94 3f d4 0d 04 3f
       1.7831604 0.5357957 1.1630229 0.515836
0001f0 b9 62 dd 3f 95 d9 c1 3f 3f a5 c7 3f 92 0f ff 3f
       1.7295753 1.5144526 1.5597304 1.9926627
000200 4c 88 10 40 cf e2 a3 3f cd 24 c7 3f b6 2a ac 3f
       2.258319 1.2803591 1.5558106 1.3450534
000210 d9 81 84 40 9f 6e 0e 3f d4 c4 94 3f aa c7 89 3e
       4.1408505 0.55637544 1.1622567 0.26910144
000220 3c 82 58 3f ab e2 bc 3f dd 4e f5 3f 1a de 22 40
       0.8457372 1.4756674 1.9164692 2.544806
000230 15 13 fa 3f a4 c3 47 3f 46 bf 9c 3f be be 80 3f
       1.9537073 0.780329 1.2245872 1.005821
000240 fd da 2a 3d ab 81 40 3f d6 57 93 3f d8 6f eb 3a
       0.04171275 0.7519786 1.151118 0.0017962409
000250 ad b4 58 3f 86 94 16 40 ba c2 7e 3f 8d 7a 70 3e
       0.8465069 2.3528152 0.9951588 0.2348425
000260 ee 2f 9f 3f ac 30 90 3e 58 56 88 3e 85 36 91 3e
       1.2436502 0.28162134 0.26628375 0.28361908
000270 16 69 9f 3f 12 1d fd 3f 7a e8 ce 3f a7 28 23 40
       1.2453945 1.9774497 1.6164696 2.5493562
000280 56 56 ab 3f 29 64 b6 3f f4 18 55 3f 43 bd cf 3f
       1.3385723 1.4249316 0.832412 1.6229633
000290 be fc e1 3e b6 13 b4 3f 3d 60 9d 3f 27 4f ce 3f
       0.4413814 1.4068515 1.2294995 1.6117905
0002a0 ce b0 03 3f 3e 4a a1 3f 24 66 c1 3f d7 d1 8f 3e
       0.5144166 1.2600782 1.5109296 0.28089783
0002b0 37 38 10 40 80 b8 c4 3f cc a1 8e 3f d6 f9 e9 3e
       2.253431 1.5368805 1.1143126 0.45698422
0002c0 2b 70 02 3f 43 fd f0 3f 6e c2 fe 3f 34 9a 91 3f
       0.50952405 1.8827289 1.9903085 1.1375184
0002d0 d3 00 57 3f b3 84 a0 40 31 c5 f8 3f 47 13 67 3e
       0.8398563 5.0161986 1.9435178 0.22565947
0002e0 16 9a c3 3e 59 bd a1 3f 14 84 70 3f 7a 37 c9 3f
       0.38203496 1.2635909 0.93951535 1.5720055
0002f0 c0 aa 0c 40 df 23 be 3f 0f 8c 98 3e c5 77 9b 3f
       2.1979218 1.4854697 0.29794356 1.2145926
000300 34 c1 de 3f 9d 3f a1 3f 6d 50 a5 3f 73 a1 cf 3f
       1.7402711 1.2597538 1.2915169 1.6221145
000310 9c ef 32 3e 1a 8c 3a 3f 64 41 98 3f e4 c0 9a 3e
       0.17474216 0.7287003 1.1894956 0.3022529
000320 51 7a 77 3f 8c c5 98 3f 7b 46 9a 3f 51 3f 3b 3f
       0.96671015 1.1935287 1.2052759 0.7314349
000330 93 4e 8c 3f 94 cd 4f 3f 5e 68 81 3f 55 e1 08 40
       1.0961479 0.8117306 1.0109975 2.1387532
000340 63 e5 d1 3f bb 10 94 3e 4c 46 91 3f 6e 7b cd 3f
       1.6398128 0.28919014 1.1349578 1.6053293
000350 30 76 98 3e c8 fb 1d 3f 5a 65 ce 3f b8 d5 77 3e
       0.2977767 0.6171231 1.612468 0.24202621
000360 ab 8d 83 3f 19 0a d4 3f 22 af d2 3f ab 74 96 3f
       1.0277609 1.6565582 1.6459696 1.1754354
000370 1b 21 f2 3f e6 18 f7 3e f7 2a 84 3f 17 7e b4 3f
       1.8916353 0.48261184 1.0325612 1.410098
000380 fe af a5 3f df b8 2d 3d 05 01 13 3f d0 92 c7 3f
       1.2944334 0.042412635 0.5742343 1.5591679
000390 d3 b3 a2 3e a8 f3 b0 3f a8 c9 69 40 14 fe 99 3f
       0.3177782 1.3824358 3.6529331 1.2030663
0003a0 6e ed ce 3f 85 c2 5a 3f 7f 23 fb 3e 06 9b 0b 40
       1.6166208 0.85453063 0.4905052 2.1813369
0003b0 24 13 c3 3f 91 e8 67 3f 24 dd 6b 3f e6 3c e0 3f
       1.5240216 0.90589243 0.9213431 1.7518585
0003c0 a8 d7 11 40 41 eb 98 3f c8 69 40 3f 83 82 de 3d
       2.2787876 1.1946794 0.7516141 0.10864737
0003d0 87 c1 57 3f b8 1f 86 3f cb fa 40 3f 02 27 19 40
       0.84279674 1.047843 0.7538268 2.3930058
0003e0 e0 4e f2 3e 5c 4b 98 3e 1a 24 b3 3f 23 4a e2 3f
       0.47325802 0.29744995 1.3995392 1.7678875
0003f0 2a 6d bf 3f 09 74 ee 3f 01 3c c8 3f 11 52 d4 3f
       1.4955189 1.8629161 1.5643312 1.6587545
