DDPG_linear/model/Pendulum-v0_critic_target.pt (torch, 499519 bytes, 9 tensors)

FCNet.0.weight f4 [400, 4]
000000 99 d0 3f bf a2 ad 6b 3d f3 93 14 bc 35 59 54 bd
       -0.7492767 0.057538636 -0.009068477 -0.051842887
000010 09 0b 2a 3f 69 2b cd 3f 20 32 72 3e bf ff 71 3d
       0.6642309 1.6028873 0.23651934 0.05908179
000020 7f 81 0e bf c7 68 01 3f 98 45 23 bc 9a 93 68 3e
       -0.55666345 0.505505 -0.009965323 0.22712556
000030 98 d6 28 bf ca 2a 1d 3f 88 58 f6 3c 3f 5a aa 3e
       -0.65952444 0.61393416 0.030071512 0.33271977
000040 86 fc 4c bf 38 19 69 3d ad b3 65 bc 52 31 5a bd
       -0.8007282 0.056908816 -0.014019889 -0.05326969
000050 6b 79 06 bf 1c f0 82 3e df 15 40 3d 4d d3 d6 3c
       -0.5252902 0.25573814 0.046895858 0.026223803
000060 41 74 38 bf e5 51 b9 3c 0a 17 4b bc 43 98 a0 bd
       -0.7205239 0.022622058 -0.01239563 -0.078415416
000070 a1 17 4a bf 79 41 79 3d 29 ba 55 bc 19 7e 33 bd
       -0.78942305 0.060853455 -0.013044872 -0.043821428
000080 36 e7 17 bf fc 15 3c bd f4 b7 a2 bc 58 57 03 be
       -0.59337175 -0.045919403 -0.019863106 -0.12826288
000090 67 6d 06 3f e3 77 ac 3f 89 c5 3e 3e 4f 13 22 bd
       0.52510685 1.3474087 0.18630041 -0.039569195
0000a0 4b a4 13 bf 55 5c 8a 3e cd fb 02 3d 96 f9 ad 3d
       -0.57672566 0.2702357 0.031978417 0.0849487
0000b0 1f 04 38 bf 7f 44 d4 3b 98 1d ad bc fc d5 a7 bd
       -0.7188129 0.006477892 -0.021132275 -0.08195111
0000c0 7c a4 34 bf a7 9c 92 3d c9 bb 97 bb 7d e4 00 bc
       -0.70563483 0.07158785 -0.00463054 -0.007866976
0000d0 02 01 47 3f 24 99 60 bf 31 be a6 be 80 18 34 be
       0.7773591 -0.87733674 -0.3256698 -0.17587471
0000e0 af 2a f5 3d 21 0a a5 bf 64 f1 94 bd 86 99 72 bc
       0.11971032 -1.2893716 -0.07272604 -0.014807111
0000f0 6f 9d 47 3f 21 8f 1d 3f 16 2f ec 3e 89 36 82 3d
       0.779746 0.6154652 0.46129674 0.06358058
000100 0b e5 31 bf 28 02 52 3d 48 e7 a2 bb 14 eb 6f bd
       -0.69490117 0.051271588 -0.0049714185 -0.058573797
000110 4e 58 d5 be e7 dc 33 be 2c 17 88 bd 25 1c 17 be
       -0.41668934 -0.17564736 -0.06645045 -0.1475683
000120 aa b8 bb be b6 e7 2c 3e 46 48 91 3c 2a d7 f1 ba
       -0.36664325 0.16885266 0.017734658 -0.0018450965
000130 58 9a 00 bf 4a c3 8f 3f 77 d9 26 bd 8a e5 ef bb
       -0.5023551 1.1231472 -0.040734734 -0.0073210644
000140 9d 7d 8f bf 35 09 8a 3f 17 cc b1 3d 22 78 3c 3d
       -1.1210209 1.078406 0.08681505 0.046013005
000150 19 ef 1d bf 0e f1 ea 3d c8 13 5f 3c bb d4 98 bc
       -0.6169296 0.11471759 0.013615556 -0.018656125
000160 bb 37 3a bf df 85 80 3d 7e 49 ac bb 7b 84 2a bd
       -0.7274129 0.06275534 -0.0052577844 -0.04163025
000170 a8 4c 22 bf 5c 3e 19 bf 5d cd 38 3e 51 cc 83 3d
       -0.6339822 -0.5986078 0.1804709 0.06435455
000180 b1 6e 24 3e 0d cf 94 3f 90 68 8c 3d 77 75 cc 3d
       0.1605785 1.1625687 0.06855881 0.09983342
000190 ef ba 49 bf 2c 86 37 3d b9 6f 9e bc 96 a9 dd bc
       -0.78800863 0.04480569 -0.019340383 -0.027058404
0001a0 40 f4 41 bf 03 53 aa 3d e8 2b 15 bb 9f fa 20 bd
       -0.7576332 0.083166145 -0.0022761766 -0.03930151
0001b0 dc a1 b2 be 03 5b 26 bf f1 f0 03 3e 47 f4 82 3e
       -0.34889114 -0.6498262 0.1288488 0.25576994
0001c0 24 52 4a bf ed 8b 8f 3d e6 92 1b bc 7e a7 47 bd
       -0.79031587 0.070091106 -0.009495473 -0.048743717
0001d0 64 91 28 3c ac aa 89 bf 81 54 d7 bd cb 38 2e 3d
       0.01028857 -1.075521 -0.10514165 0.04253463
0001e0 9c 3d 38 bf a0 90 10 3d ea d2 75 bc 54 e2 74 bd
       -0.7196901 0.035294175 -0.015003899 -0.059786156
0001f0 bf 0a d3 be c4 43 c3 be f2 f9 87 bd cd 49 5e 3d
       -0.41219136 -0.3813764 -0.0663947 0.0542696
000200 25 60 03 bf fe 63 b1 3d 0c 5f 0b 3c d1 b9 85 3c
       -0.5131858 0.0866165 0.008506548 0.016323956
000210 b6 c5 39 bf 5f 6e 84 3d 84 7f b7 bb 97 67 23 bd
       -0.7256731 0.06466364 -0.005599918 -0.039893713
000220 45 df 2f 3f 33 64 0f 3f d6 47 b1 3e ad 49 b7 3d
       0.6870006 0.56012267 0.3462512 0.089495994
000230 02 60 4b bf f0 dd 5a 3d 09 a5 4e bc 52 99 61 bd
       -0.7944337 0.053434312 -0.01261259 -0.05507786
000240 67 71 48 bf ce ee 3e 3d f9 65 62 bc 66 7a 90 bd
       -0.7829804 0.04661446 -0.0138182575 -0.07054596
000250 25 e2 13 bf 00 72 e9 3e 94 ed a6 3d 5b ff ed 3d
       -0.57766944 0.45594788 0.08150783 0.11620971
000260 ab a2 06 bf d0 d3 0a 3f 10 08 a1 bd da c7 8e 3e
       -0.5259196 0.5422945 -0.07862866 0.2788685
000270 d4 21 27 bf 51 02 13 3e dc a6 6f 3c 3e 22 15 3c
       -0.6528599 0.14356352 0.014627185 0.009102402
000280 73 8a 2e bf 6d 4c be 3c 9e 06 0a bc 14 29 b3 bd
       -0.68180007 0.023229802 -0.008424429 -0.087480694
000290 c4 6c 0d bf 4d b3 47 3d b5 b6 1a 3b 08 e6 08 bd
       -0.5524409 0.04875498 0.0023607437 -0.0334225
0002a0 a5 77 18 bf fe 95 12 3c 4d 89 0f bc ee 04 5b bd
       -0.59557563 0.008946894 -0.008760762 -0.0534715
0002b0 70 77 1d bf b6 c8 0c 3d 98 40 bc bb 43 07 1a bd
       -0.6151037 0.0343711 -0.005745005 -0.03760458
0002c0 fd bc dc be 2e 00 8f 3e e3 02 3b 3c 20 7e 88 3d
       -0.43112937 0.27929825 0.0114142625 0.066646814
0002d0 4c e5 4c bf d7 85 84 3d e3 63 42 bc 29 95 59 bd
       -0.8003738 0.064708404 -0.011864635 -0.053120766
0002e0 08 19 8e bf 05 f2 4f bf 7b c3 87 bd e7 6b b9 bc
       -1.1101389 -0.8122867 -0.06629082 -0.02263446
0002f0 38 16 01 3e dc 51 79 bf 21 83 96 bd d0 00 ab be
       0.12606132 -0.9739053 -0.073492296 -0.33399057
000300 11 d6 43 bf a4 cc 56 3d 88 98 37 bc c8 38 6a bd
       -0.76498514 0.052441254 -0.0112058 -0.057183057
000310 08 f3 b4 bd 70 0e b0 3f 36 f9 d6 3d 3a 72 2b be
       -0.08835417 1.3754406 0.10496752 -0.16742793
000320 46 66 3b be 7b 50 ee bf f8 1f 9d be 4e ad 98 bb
       -0.18300733 -1.8618311 -0.30688453 -0.0046593314
000330 28 84 30 bf 0f 15 4c 3c 78 e5 69 bc 11 df 8a bd
       -0.68951654 0.012456193 -0.014275901 -0.06780828
000340 ba f6 50 bf 59 1c 39 3d b1 37 a5 bc b1 a9 64 bd
       -0.81626475 0.04519305 -0.020168157 -0.055825893
000350 5e df 52 bf 5c 51 a1 3d ae ad 42 bc 77 8c ec bc
       -0.8237208 0.07876846 -0.011882229 -0.028875573
000360 72 59 18 bf a1 b9 7b bc bc 77 ab bc 73 ab 4b 3d
       -0.5951148 -0.015364082 -0.020931117 0.049724054
000370 24 cc 0b bf 48 bd 5a 3e 56 ca 59 bc 70 bb 87 3e
       -0.5460837 0.21361268 -0.01329287 0.2651019
000380 b8 bc 29 3f e3 32 3c 3e ac 6c a6 3e 7b 8d a4 bc
       0.66303587 0.18378787 0.32504785 -0.020086994
000390 e1 b5 46 bf 59 31 9e 3d b6 f0 d1 bb 28 2b 10 bd
       -0.77621275 0.07724256 -0.006406869 -0.035197407
0003a0 4a 74 2a bf cd 42 ad 3c cb a8 09 bc 96 75 cf bd
       -0.66583693 0.021150017 -0.00840206 -0.101298496
0003b0 7f da 24 3e f5 08 98 3f 01 57 ea 3d ef e3 84 3e
       0.16098975 1.1877733 0.11442376 0.2595515
0003c0 1d 86 44 bf 25 cc 4c 3d be 87 59 bc 73 54 46 bd
       -0.7676714 0.049999375 -0.013276992 -0.04842038
0003d0 46 13 d9 3d 56 1f b5 be 8a 08 c9 be 24 86 c8 bd
       0.10599379 -0.3537547 -0.39264327 -0.0979121
0003e0 12 78 2a bf 0f ca 00 3e 10 43 41 3c ba 0a 6a 3b
       -0.6658946 0.12577079 0.011795774 0.003571196
0003f0 18 d7 2e 3f 9e a9 b6 3f 27 87 c4 3e 62 77 14 3e
       0.68296957 1.4270513 0.38384363 0.14498666

FCNet.0.bias f4 [400]
000000 96 8e b0 3f de 19 5a be 1b 7b 4f 3f c8 db 54 3f
       1.3793514 -0.2129893 0.8104722 0.8314786
000010 03 eb b6 3f 92 a3 90 3f 77 a0 ae 3f c3 da b4 3f
       1.429047 1.1299918 1.364272 1.4129261
000020 00 40 a0 3f b9 e6 86 be 42 a1 8d 3f c5 f4 ad 3f
       1.2519531 -0.26347902 1.1064837 1.3590323
000030 d5 e5 a7 3f 37 cf b5 be a6 12 14 bc 6a 0c 5a bf
       1.3117014 -0.35509655 -0.009037649 -0.8517519
000040 b6 7b aa 3f b5 72 7b 3f 00 74 45 3f ee 75 b3 3d
       1.3319004 0.98221904 0.77130127 0.08762728
000050 9d 5f 88 3e 1e 32 9e 3f 2a 2f ad 3f 0a 2b b2 3e
       0.26635447 1.2359045 1.3530018 0.3479846
000060 f7 35 4b 3e 71 51 b2 3f 36 13 b1 3f 8d 4f e9 3d
       0.19844805 1.3931104 1.3833988 0.11392126
000070 b6 59 b5 3f b4 8a aa 3d e4 0a ad 3f b9 ce 5d 3f
       1.4168003 0.08327237 1.3518949 0.8664356
000080 df fe 8d 3f a6 c3 ac 3f 05 3a f8 be 16 52 b6 3f
       1.1093405 1.3497207 -0.48481765 1.4243801
000090 e8 0e b6 3f 0c a8 3c 3f 0e 0f 26 3f 7f c1 a0 3f
       1.4223299 0.7369392 0.6486672 1.255905
0000a0 e8 ef a9 3f c8 52 96 3f 21 04 9d 3f 81 7b 9e 3f
       1.3276339 1.1744013 1.2266885 1.238144
0000b0 5f 90 57 3f 07 07 b7 3f 2f e7 8c 3e 81 7d 06 3f
       0.8420467 1.429902 0.2752013 0.52535254
0000c0 69 d9 b2 3f fc 88 30 3e 31 5a 49 3e 64 12 aa 3f
       1.3972598 0.17239755 0.19663312 1.3286862
0000d0 bd b5 b8 3f a5 af b7 3f 7e 12 95 3f ff 54 6f 3f
       1.4430462 1.4350477 1.1646268 0.9348907
0000e0 40 e6 2b bf cc e5 b2 3f 75 cf a9 3f c1 a3 d4 3e
       -0.6714821 1.3976378 1.3266436 0.41531184
0000f0 e1 66 b2 3f 84 fc 59 bf 84 a6 a2 3f eb 9c 98 bd
       1.3937646 -0.85150933 1.2707067 -0.07451805
000100 57 69 90 3f 5d 3e 82 be 41 b6 31 3f 31 99 46 3e
       1.1282147 -0.25438204 0.6941872 0.19394375
000110 03 12 95 3f c7 38 ab 3f 8a 1e b3 3f 21 d5 e4 3e
       1.1646122 1.3376702 1.3993695 0.44693854
000120 00 5a 95 3f 7f 47 00 3f 9a 9d b4 3f ba 2b c4 3e
       1.1668091 0.50109094 1.4110596 0.3831461
000130 da dc 7a 3f 09 ac b7 3f d0 a0 a4 3f 0b 05 af 3f
       0.9799324 1.4349376 1.2861576 1.3673414
000140 25 1b ac 3f 87 af b0 3e 24 59 33 3f d4 8f b5 3f
       1.3445784 0.34508917 0.7005789 1.4184518
000150 9d 06 0c 3f 92 0e a6 3e 23 75 af 3f d4 65 12 3f
       0.5469759 0.3243299 1.3707622 0.5718663
000160 c2 1e a4 3f 59 70 1d bf fc 9d 4d bf 63 af ac 3f
       1.2821887 -0.61499554 -0.8031919 1.3491024
000170 f1 50 76 bd fe aa 87 3f c4 26 af 3f 35 3f 9f 3f
       -0.060135785 1.0599058 1.3683705 1.2441164
000180 a4 07 b0 3f 45 96 20 bd 9a 60 50 be bc 86 03 3f
       1.3752332 -0.03920581 -0.2034935 0.51377463
000190 a2 31 b8 3f d5 6c b5 3f 1a cf ae 3f 6c 01 ae 3f
       1.4390147 1.4173838 1.3656952 1.3594184
0001a0 3f 82 68 3e cb bd 13 3f 5a f5 41 bf 62 08 9f 3f
       0.22705935 0.57711476 -0.75765 1.2424433
0001b0 a5 6e ab 3f 25 51 b8 3f 31 ad 90 3e d3 70 4b 3e
       1.3393141 1.4399763 0.28257135 0.19867258
0001c0 88 e2 b3 3f e5 d3 9d 3f 53 7d 36 3f ef f0 01 3e
       1.4053507 1.233029 0.7128498 0.12689565
0001d0 20 a4 b3 3f f6 0c a6 3f 54 16 45 3f 4a 86 a4 be
       1.4034462 1.2972705 0.76987195 -0.32133704
0001e0 0b 46 98 3f c3 ae b9 3f 5c 94 8e 3f 31 69 b4 3f
       1.1896375 1.4506458 1.1139026 1.4094602
0001f0 f0 7d 8d 3f a0 d0 35 be 18 0f ab 3f 5a 6c 01 bf
       1.1054058 -0.17755365 1.3363981 -0.50555956
000200 28 dd bb 3e 03 8c ad 3f 56 ec 2c 3f ff 00 82 3f
       0.36692166 1.3558353 0.6754812 1.0156554
000210 dc b8 30 bf 72 60 b5 3f ca 34 92 3f 5d a6 fe 3e
       -0.69032073 1.4170058 1.142236 0.497363
000220 cd 61 81 3e 89 b0 2b 3e eb 25 75 be 99 15 e0 3a
       0.2526993 0.16766562 -0.23940246 0.001709628
000230 20 26 ac 3f 7c 7d 2b bf b3 4a b1 3f 80 fc 5a 3f
       1.3449135 -0.6698835 1.3850921 0.85541534
000240 13 fe 03 3f 37 7e da 3d 97 b2 10 3e 97 c2 b6 3f
       0.5155956 0.10668605 0.14130627 1.4278134
000250 7c 0b 8a 3f c8 60 b5 3f 15 da 39 3d d2 11 06 3f
       1.0784755 1.417016 0.045373995 0.5237094
000260 7c 3a 95 3f 65 26 a5 3f b8 bc 5a bf ab 4d b3 3f
       1.1658473 1.2902342 -0.8544421 1.4008077
000270 e7 f6 64 be 8e c0 a7 3f 09 6f 66 bf b5 f0 87 3f
       -0.22359811 1.3105638 -0.90013176 1.0620333
000280 ec c8 0b 3f 01 60 3d be a9 18 97 be 69 c0 af 3f
       0.5460346 -0.18493654 -0.29511002 1.3730594
000290 e2 64 a8 3f ef e8 07 3f a4 c7 ab 3f cd 38 af 3f
       1.3155787 0.53089803 1.34203 1.3689209
0002a0 e7 3c 32 bf bc 48 9c 3f ec 2b a0 3f f7 b1 95 3f
       -0.6962418 1.2209697 1.2513404 1.1694936
0002b0 1d fd 99 3f be ad ce 3e 72 a6 8c 3e 33 cb 0f 3f
       1.2030369 0.4036693 0.27470738 0.5616943
0002c0 0f 69 a6 3f 5a 93 e1 be 68 d7 ac 3f d5 57 b3 3f
       1.3000811 -0.44057733 1.3503237 1.4011179
0002d0 f0 83 a5 3f ee 89 3b 3f 96 8c d9 be 0d 8c 18 be
       1.2930889 0.7325734 -0.4249007 -0.14897175
0002e0 cc 31 6b 3e 54 be 97 3f 60 4a ad 3f 12 5f b8 3f
       0.22968215 1.1854959 1.3538322 1.4404013
0002f0 29 f5 66 3e 3e 0d af 3f a8 e2 a2 3f b6 3d 85 3f
       0.22554459 1.3675916 1.272542 1.0409458
000300 4b 7d 89 3f c3 da 70 3f 29 82 24 bf 45 ea b3 3f
       1.0741361 0.94083804 -0.6426111 1.4055868
000310 6e 27 e0 3e 6c cb 8d 3f b2 9e aa 3f 3a 26 40 3f
       0.43780082 1.1077704 1.332968 0.7505833
000320 65 e5 a9 3f e6 c2 ac 3f 4f f2 53 3e 99 0e b6 3f
       1.3273131 1.3496978 0.20697902 1.4223205
000330 33 fe 98 3f b0 ab e3 3e 8f 5d 2d bf 87 d0 b3 3f
       1.1952575 0.44466925 -0.67720884 1.4048012
000340 3f 94 b1 3f dc ab b3 3f da 4e 79 bd 65 91 3d be
       1.3873366 1.4036822 -0.060866214 -0.18512495
000350 90 26 63 3f e3 ee 92 3f 0b 17 ae 3f 4c ec 6d 3f
       0.88730717 1.1479152 1.3600782 0.92938685
000360 f7 0e b8 3f 6b 1d 52 3e 83 17 ef 3e b8 83 b4 3f
       1.4379567 0.20519035 0.46697626 1.4102697
000370 36 3e a1 3f 95 84 c9 3e 24 03 b5 3f 28 24 b0 3f
       1.259711 0.39358965 1.4141583 1.3761034
000380 aa ef b0 3f 95 3e ad 3f 10 db 8e 3e e1 70 b6 3f
       1.382314 1.3534724 0.27901506 1.4253198
000390 dc 2b 81 be 26 57 88 3e 37 80 71 3d 37 cf b2 3f
       -0.25228775 0.2662899 0.058960166 1.3969487
0003a0 d4 54 b2 3f 94 73 aa 3f e7 93 98 3f 8c 19 9c 3f
       1.3932137 1.3316522 1.1920136 1.2195296
0003b0 b5 a1 7d 3f 54 4d ac 3f d0 38 8d 3f 11 5b 64 bf
       0.9907487 1.3461099 1.1032963 -0.89201456
0003c0 df 2d 33 be 25 a1 27 3f 24 52 1e 3f 97 b9 25 3f
       -0.17497967 0.6548026 0.61844087 0.6473631
0003d0 92 48 3e be 9f f9 a7 3f 0d 7e 9c be d8 95 86 be
       -0.18582371 1.3123053 -0.3056492 -0.26286197
0003e0 8c f4 97 3f 79 73 96 3f 9c 84 b4 3f d9 ea a8 3f
       1.1871505 1.175399 1.4102969 1.319667
0003f0 e6 c7 e7 3e 49 35 f5 3e 10 8a 12 3f 8d 5f b6 3f
       0.45269698 0.47892216 0.57241917 1.424791

FCNet.1.weight f4 [400]
000000 8e 3b f9 3e 57 3b 02 40 61 05 4c 3f c7 5a 0e 3f
       0.4867825 2.0348718 0.7969571 0.55607265
000010 c8 d8 b9 3e 11 f0 f3 3e 09 21 f3 3e 11 0c e1 3e
       0.36298203 0.47644094 0.4748614 0.43954518
000020 97 7a ae 3e 5f ad e3 3f 4a 65 02 3f 6e b3 c9 3e
       0.34077904 1.7787284 0.50935805 0.39394706
000030 b3 f3 f5 3e 8b e0 b6 3f ec bc 9f 3f 5f ae 53 40
       0.4803749 1.4287275 1.2479529 3.3075178
000040 29 ec f3 3e 92 48 0c 3f 10 6c 26 3f 14 59 8f 3f
       0.47641113 0.54798234 0.6500864 1.119906
000050 02 99 9f 3f 2a 74 eb 3e ea d1 eb 3e 6b 0a 16 3f
       1.2468569 0.45987064 0.4605859 0.58609647
000060 e7 ba 7a 3f ca 11 e2 3e bc 6c da 3e 84 67 41 3f
       0.9794144 0.44154197 0.42661083 0.7554858
000070 31 6b d7 3e fe 4e 94 3f 38 91 fb 3e e3 16 84 3e
       0.42073968 1.1586607 0.4913423 0.2579871
000080 64 ea c7 3e c4 91 f7 3e d4 57 ee 3f 1b 74 cf 3e
       0.39046013 0.48353398 1.8620553 0.4051827
000090 33 6a d0 3e 41 20 ce 3e 56 29 14 3f 88 5a fb 3e
       0.40706024 0.40258983 0.57875574 0.49092507
0000a0 f1 49 02 3f aa df ce 3e d0 4e fb 3e 02 6d d8 3e
       0.50894076 0.40405017 0.49083567 0.42270666
0000b0 28 c4 26 3f 44 1f c7 3e 39 7b 91 3f 55 83 01 3f
       0.6514306 0.3889104 1.136573 0.5059102
0000c0 ee 6e ca 3e d7 12 39 3f fe f4 73 3f 89 14 ce 3e
       0.39537758 0.7229437 0.95295703 0.40250042
0000d0 1e 83 b7 3e b5 14 db 3e 2f 88 cb 3e 30 70 b2 3e
       0.35842222 0.42789236 0.39752337 0.34851217
0000e0 fa 97 06 40 1b fc c6 3e 43 97 cf 3e 8f 18 39 3f
       2.103026 0.38864216 0.4054509 0.723031
0000f0 17 f3 dd 3e 98 0f 14 40 74 f5 da 3e 0c a6 c2 3f
       0.43349525 2.3134518 0.4276539 1.5206923
000100 e2 e6 fd 3e 52 eb b0 3f b0 08 8d 3f 21 ee 6a 3f
       0.49590212 1.3821814 1.1018276 0.91769606
000110 b0 dc b9 3e fe 7d 07 3f 20 bc df 3e 8c 90 6f 3f
       0.36301184 0.52926624 0.43698215 0.93579936
000120 d8 39 e9 3e 85 66 01 3f 74 33 b4 3e 4e fb e4 3e
       0.45551944 0.5054706 0.35195506 0.4472298
000130 b2 fd 1e 3e 04 0b be 3e 7d 45 06 3f 4f cb d4 3e
       0.15526465 0.3711778 0.5244978 0.41561362
000140 0d 4c c8 3e 4a d3 76 3f df 7f 09 3f ee c4 e6 3e
       0.39120522 0.9641615 0.5371074 0.4507212
000150 a1 30 1e 3f fc e2 aa 3f 6c 26 da 3e e0 b8 cc 3e
       0.6179295 1.335052 0.4260744 0.39984798
000160 60 7a cc 3e c6 68 0b 40 27 6d 4c 40 90 d9 de 3e
       0.39937115 2.1782699 3.1941621 0.43525362
000170 7a 50 de 3f 75 38 ac 3e 1c 07 be 3e 50 a9 e8 3e
       1.736831 0.33636823 0.371148 0.45441675
000180 ad 5b c8 3e a9 c7 34 3f 94 29 bb 3f f2 78 7f 3f
       0.39132443 0.7061716 1.4622064 0.9979392
000190 43 eb 96 3e cb c6 bc 3e 7f 1f f0 3e 68 b0 df 3e
       0.29476365 0.36870417 0.4689903 0.43689275
0001a0 ce ec 92 3e 3f ae 54 3f 74 49 21 40 07 3e e7 3e
       0.28696293 0.8307838 2.5201082 0.4516451
0001b0 44 fd da 3e f5 76 ac 3e f2 c4 00 3f 14 1b 8b 3f
       0.4277135 0.33684507 0.50300515 1.0867639
0001c0 cb 38 c6 3e 5e eb 87 3e 0f 95 30 3f a3 44 bd 3f
       0.38715205 0.26546758 0.68977445 1.4786571
0001d0 6e a2 d3 3e 03 bd f5 3e a4 c0 05 3f b4 ea ec 3f
       0.41334862 0.47995767 0.5224707 1.8509126
0001e0 53 23 0d 3f 1d fb bf 3e 2a ce b1 3e 93 ee c5 3e
       0.55132025 0.37496272 0.34727603 0.3865858
0001f0 8b ce a0 3e aa 25 ea 3f fa 5f fe 3e 22 ae 04 40
       0.3140758 1.8292744 0.496826 2.0731282
000200 b6 a7 53 3f 2d d2 a2 3e f0 e5 fa 3e b9 12 cd 3e
       0.8267778 0.31800976 0.49003553 0.40053347
000210 42 13 1e 40 62 07 bc 3e 8f 89 c1 3e 08 86 30 3f
       2.4699254 0.36724383 0.3780026 0.68954515
000220 d4 da 9a 3f 07 be 3f 3f a4 49 df 3f d8 a6 bf 3f
       1.2098031 0.74899334 1.7444348 1.4972792
000230 28 64 fc 3e c6 e0 0a 40 f2 d3 ce 3e d0 24 33 3f
       0.49295163 2.169969 0.40396076 0.69978046
000240 57 9d c3 3e 64 2b 18 3f 0f fd d8 3f 10 34 cc 3e
       0.38205978 0.5944121 1.6952227 0.3988347
000250 4a 45 eb 3e 4e 54 d3 3e ca 53 e6 3f f8 0b 6d 3f
       0.459513 0.41275257 1.799432 0.9259639
000260 e8 fd 00 3f 43 dc f5 3e 96 0d 16 40 94 e2 c7 3e
       0.5038743 0.4801961 2.3445792 0.39040053
000270 76 71 b9 3f 15 e3 ee 3e 60 1f 2c 40 79 5f 09 3f
       1.448775 0.46657625 2.689415 0.53661305
000280 ca 8e 50 3f 0e b1 d2 3f 30 2c 02 40 79 5f d7 3e
       0.8146788 1.6460283 2.033947 0.42065027
000290 9d 68 f8 3e 0a 3a 5f 3f e7 50 fa 3e 10 95 df 3e
       0.48517314 0.87197936 0.4888985 0.43668413
0002a0 a8 5e 57 40 ec d6 e3 3e 72 88 02 3f c4 41 da 3e
       3.3651524 0.4449991 0.5098945 0.426283
0002b0 72 77 0c 3f 2b 8a 59 3f e6 f6 b9 3f eb ae 73 3f
       0.5486976 0.8497645 1.4528472 0.9518878
0002c0 7d 63 c8 3e cb 8a ec 3f 4e b5 e6 3e 43 14 d0 3e
       0.39138404 1.8479856 0.450602 0.40640458
0002d0 71 7f e0 3e 0d 01 a3 3e e8 33 e9 3f 8b 99 34 3f
       0.4384723 0.3183674 1.8218966 0.7054679
0002e0 df 8f 30 3f 72 82 03 3f 32 e2 d8 3e a3 92 c6 3e
       0.6896953 0.5137092 0.42360073 0.3878375
0002f0 6d e6 2b 3f 08 09 b0 3e 3a bd d7 3e 17 0f cb 3e
       0.67148477 0.3438189 0.42136556 0.3965995
000300 cf fc 08 3f 55 72 a3 3e d7 4c 0a 40 0a 31 e2 3e
       0.53510755 0.31923166 2.16094 0.4417804
000310 8f 0e 64 3f 9f 5c fa 3e ed db db 3e 5d 69 0f 3f
       0.89084715 0.4889879 0.42941228 0.56020147
000320 ea 38 fe 3e 38 b8 df 3e 18 6a 93 3f 64 78 be 3e
       0.49652797 0.43695235 1.1516752 0.37201226
000330 35 31 ef 3e ab 1e 19 3f e6 d3 32 40 55 3a c9 3e
       0.4671723 0.5981242 2.7941833 0.39302316
000340 29 89 0b 3f f8 b4 cc 3e 04 74 4d 3f 77 ad a8 3f
       0.54506165 0.39981818 0.8025515 1.3177937
000350 ce d6 e7 3e 09 af e9 3e 5e 4e f0 3e 4b 05 3d 3e
       0.4528107 0.45641354 0.4693479 0.1845905
000360 b4 b3 c7 3e fe 2e c4 3f 3a ee 16 3f ff 73 de 3e
       0.3900429 1.5326841 0.58957255 0.43447873
000370 ad a0 ee 3e 5e 6e 07 3f 91 93 b1 3e 1a 5e e1 3e
       0.4660696 0.5290278 0.34682897 0.44017106
000380 fb 14 d9 3e b1 93 e9 3e 46 b5 9f 3f 41 7a 94 3e
       0.4239882 0.45620492 1.2477195 0.28999522
000390 38 cf 8e 3f d8 a3 88 3f 9b 51 69 3f cd 1b d2 3e
       1.1156988 1.0675001 0.91140145 0.41036835
0003a0 f4 44 d1 3e d9 bf 0b 3f 3a 38 03 3f df fc a4 3e
       0.4087292 0.5458961 0.5125767 0.32224175
0003b0 e8 60 e9 3e d7 d3 dd 3e 5a de f4 3e cb d6 4a 40
       0.45581746 0.43325683 0.4782589 3.16936
0003c0 92 00 59 3f 57 f4 1b 3f 41 e3 4f 3f 25 77 00 3f
       0.84766495 0.6091971 0.81206137 0.501818
0003d0 3e 8f 01 40 e1 8b e9 3e b4 c5 9b 3f 74 74 7c 3f
       2.0243678 0.45614532 1.2169709 0.98615193
0003e0 d3 f1 d8 3e 1e 49 08 3f 2b 50 aa 3e b2 24 03 3f
       0.42371997 0.5323657 0.33264288 0.5122787
0003f0 00 57 06 3f 6b 71 53 3f 0d 50 25 3f ae 4f ca 3e
       0.524765 0.8259494 0.6457527 0.39513916

FCNet.1.bias f4 [400]
000000 4f 47 07 bf 15 a2 c4 be db a8 0d bf 9d 03 c9 be
       -0.52843183 -0.3840491 -0.5533578 -0.3926057
000010 a8 56 09 bf 63 de 02 bf e2 f7 f3 be 47 72 07 bf
       -0.5364785 -0.51120585 -0.47650057 -0.5290875
000020 e2 a7 d6 be 1f 8a f6 be bd fa d0 be 13 94 d8 be
       -0.4192496 -0.48152253 -0.40816298 -0.42300472
000030 b2 ba cd be 16 6a b9 be e8 20 2b bf 69 1a 86 be
       -0.401815 -0.3621375 -0.66847086 -0.26192024
000040 f0 1f fb be 41 8b 0a bf b6 db 79 be d2 42 48 be
       -0.49047804 -0.54118735 -0.2440022 -0.1955674
000050 1c cc a7 be 32 15 bb be c4 b9 e2 be 95 18 3c bd
       -0.3277291 -0.36539608 -0.44282353 -0.04592188
000060 57 ba 1d bf d1 6a e8 be 2b 11 03 bf fa 69 c1 be
       -0.6161246 -0.45393994 -0.5119807 -0.37776166
000070 fb 18 03 bf 48 ae 0a bf 80 2a e7 be e9 e3 68 be
       -0.5120999 -0.5417218 -0.45149612 -0.22743191
000080 b4 e6 a9 be 98 42 d4 be be 3e 1d bf 7a 5d 02 bf
       -0.33183825 -0.41457057 -0.6142386 -0.50923884
000090 54 8f 17 bf eb 63 8c be 51 70 97 be 63 cf e1 be
       -0.59203076 -0.2741998 -0.29577878 -0.44103536
0000a0 ce dd f8 be 83 e9 b1 be cb 22 d8 be 61 a7 af be
       -0.48606724 -0.34748468 -0.42214045 -0.34307387
0000b0 0a f2 6e be 4b 54 0c bf 54 1f ba be 86 88 c3 be
       -0.23334518 -0.5481612 -0.36352026 -0.38190097
0000c0 8a 07 02 bf 24 d9 e5 bd ba 28 cd 3e 47 0d ca be
       -0.50792754 -0.11223057 0.40070134 -0.39463255
0000d0 d9 59 00 bf 40 e3 fb be 1c 02 c6 be 9f 46 e2 be
       -0.50137097 -0.49196815 -0.38673484 -0.44194505
0000e0 49 b1 16 bf b9 5d f2 be 60 37 fb be 7a 42 d6 be
       -0.58864266 -0.4733713 -0.49065685 -0.41847593
0000f0 d3 d5 eb be 7a fe 81 be 7c 6f c6 be 6e cb 2b bf
       -0.46061572 -0.25389463 -0.3875693 -0.67107284
000100 7f 68 c0 be aa f2 03 bf 42 84 43 3e d1 aa 52 be
       -0.37579724 -0.5154215 0.19093421 -0.20572974
000110 9d 00 98 be 61 d0 e8 be b4 f3 f5 be cc d0 a3 be
       -0.29687968 -0.4547148 -0.48037493 -0.31995237
000120 d2 8b cd be 66 fc b2 be 40 05 e8 be 54 4e 4b 3e
       -0.40145737 -0.3495819 -0.45316505 0.19854099
000130 8b 57 1f be 5d 7a 05 bf 1f 5c d3 be bd c2 f6 be
       -0.15560739 -0.52139837 -0.4128122 -0.4819545
000140 4f e2 c9 be 79 c2 57 be 57 c5 1a be 14 56 ff be
       -0.39430472 -0.21070279 -0.15114342 -0.4987036
000150 b1 67 dc be e6 0c 89 be aa 57 d7 be e0 a6 88 be
       -0.4304786 -0.26767653 -0.4205907 -0.26689816
000160 f8 3d cb be fa 71 dc be 05 3b 66 3c f3 3a e1 be
       -0.39695716 -0.43055707 0.014052157 -0.43990287
000170 a5 20 94 bd 9d f1 76 be ae d8 c8 be e6 a5 c8 be
       -0.07232789 -0.24115606 -0.39227813 -0.3918907
000180 04 c8 ec be 7c 2e 0c bf dd 0c ef be 20 b8 db be
       -0.4624635 -0.5475843 -0.466895 -0.42913914
000190 aa 5b 01 bf 65 a1 f7 be 34 48 e4 be 89 04 df be
       -0.50530493 -0.48365322 -0.44586337 -0.43558148
0001a0 31 df 11 3e cf 0f ac bd 6b b2 1a bf 66 9b f8 be
       0.14245297 -0.08401453 -0.60428494 -0.4855606
0001b0 8e e0 e4 be 7c d4 03 bf 45 8e b8 3d ee d6 08 bf
       -0.44702572 -0.514961 0.09011511 -0.53452957
0001c0 da 28 f3 be 10 7f 71 be b4 28 b2 be 5e c8 95 be
       -0.47492105 -0.23583627 -0.3479668 -0.2925443
0001d0 a7 62 07 bf c7 a1 e6 be 9e 7f 9c be 7f ff 20 bf
       -0.52884907 -0.450453 -0.30566114 -0.62889856
0001e0 05 7d c7 be 27 85 1a bf 4d 42 8f be f3 b5 0c bf
       -0.3896257 -0.60359424 -0.2798027 -0.5496513
0001f0 b2 77 7c be d7 4b e2 be 1a 64 e0 be 6c bd 00 bf
       -0.24655035 -0.44198486 -0.4382637 -0.50289035
000200 ca e1 82 be 7b 21 fe be 0a 04 64 be 4c cd 62 be
       -0.25562888 -0.4963492 -0.22267166 -0.22148627
000210 07 20 69 be 49 71 00 bf 99 29 8a be a2 4a fd be
       -0.22766124 -0.5017286 -0.26984861 -0.49471003
000220 93 bb d0 be 5a 2e f2 be 30 14 13 bf b7 57 11 3e
       -0.40768108 -0.47300988 -0.5745268 0.14193617
000230 e9 d8 f1 be 07 cf c6 be ca a9 01 bf c8 40 f3 be
       -0.47235802 -0.38829824 -0.506497 -0.47510362
000240 c8 64 a1 be a3 b4 61 bf ef e0 fb be c7 a5 10 bf
       -0.31522202 -0.88166255 -0.49195048 -0.56502956
000250 7b 64 cf be 97 10 f9 be 7a dd 2c be a6 25 ed be
       -0.40506348 -0.4864547 -0.16881362 -0.46317786
000260 05 45 ed be 1a 8b c4 be 17 ab bd bd f5 0c f7 be
       -0.4634172 -0.38387376 -0.092611484 -0.48252073
000270 76 99 1d bf fc be bc be 04 d1 fa be 11 d9 b0 be
       -0.6156229 -0.3686446 -0.4898759 -0.3454061
000280 c1 59 a0 be 9c bf c6 bd d0 05 fa be 89 04 df be
       -0.31318477 -0.09704515 -0.4883256 -0.43558148
000290 c4 e0 c6 be b9 6b 69 be fc 80 e3 be 10 02 f1 be
       -0.38843358 -0.22794999 -0.44434345 -0.47071886
0002a0 77 27 b4 be bd 93 be be e5 b6 be be f0 95 ae be
       -0.3518636 -0.3722209 -0.37248912 -0.34098768
0002b0 b3 bf c5 be 20 aa 1b bf d9 40 a8 be ae 1f 4b bf
       -0.38622817 -0.60806465 -0.32861975 -0.79345214
0002c0 dd c5 d1 be 55 2a 13 bf 20 29 f1 be f7 97 11 bf
       -0.4097127 -0.5748647 -0.47101688 -0.56872505
0002d0 dc 16 f6 be 69 89 7b be 2e 8a be be b8 c7 3b bd
       -0.48064315 -0.24564137 -0.37214798 -0.045844764
0002e0 38 4f 17 be c8 50 c2 be 48 12 c2 be 23 20 16 bf
       -0.14776313 -0.37952256 -0.37904572 -0.58642787
0002f0 c0 0e b7 be b5 b3 c7 be ff a6 c0 be 4a 22 b1 be
       -0.3575344 -0.39004293 -0.37627408 -0.34596473
000300 f2 bb 0b bf af 1b 9a be bf 4d d7 be 5f 43 f9 be
       -0.54583657 -0.30099246 -0.42051503 -0.48684213
000310 41 db f5 be dd be 04 bf 28 b9 ca be 88 69 1c bf
       -0.4801884 -0.51853734 -0.39594388 -0.6109853
000320 a0 11 d5 be 8e e0 e4 be 46 bb b0 be ce 60 f8 be
       -0.4161501 -0.44702572 -0.34517878 -0.48511356
000330 43 2b c5 be a7 18 69 be c6 7e 01 be 8c 6d 0d bf
       -0.3850957 -0.2276331 -0.12646016 -0.5524528
000340 78 53 12 bf 90 2f fb be 3c 10 4b be bf 6e e1 be
       -0.57158613 -0.49059725 -0.19830412 -0.44029805
000350 7f 66 71 be d3 a1 bb be f3 b7 e1 be 7a 9d 30 be
       -0.23574255 -0.366469 -0.44085655 -0.17247573
000360 a7 d4 10 bf 3c a5 9f bd 8c c4 66 bd 29 95 09 bf
       -0.5657448 -0.07795188 -0.056339785 -0.53743225
000370 8f 12 c0 be 0b 24 16 bf 24 0b f6 be 02 f4 01 bf
       -0.3751416 -0.5864875 -0.48055375 -0.5076295
000380 5d d2 f6 be 41 f4 f1 be 4f 00 ee be 78 39 fa be
       -0.4820737 -0.47256663 -0.4648461 -0.4887197
000390 7b 7e 29 be dc 5f fa be 5b 94 f6 be f0 cd 08 bf
       -0.16552155 -0.4890126 -0.4816006 -0.53439236
0003a0 71 74 e9 be 52 b2 0a bf 51 5e c3 be ea 69 8b be
       -0.4559665 -0.54178345 -0.38157895 -0.27229244
0003b0 34 a4 7f be c0 c6 e7 be 5a 38 bb be 80 72 67 be
       -0.24964982 -0.45268822 -0.3656643 -0.22602272
0003c0 2d f0 bf bd 9c 5c 33 bf a7 4b 22 be c9 8a ad be
       -0.09371982 -0.70063186 -0.15849172 -0.33894947
0003d0 04 58 22 bf 72 29 c4 be 81 f3 de bd c9 de de be
       -0.6341555 -0.3831287 -0.108862884 -0.43529347
0003e0 40 09 92 be 42 7c e9 be f2 d9 cd be 4a 5c e0 be
       -0.28522682 -0.45602614 -0.40205342 -0.4382041
0003f0 e1 94 ac 3d 3e 2c 98 be 6c b5 20 bf c6 19 ef be
       0.08426834 -0.29721254 -0.6277683 -0.4669935

FCNet.3.weight f4 [300, 400]
000000 0c 90 20 3e cc 8a f0 bd ed a3 63 3f f1 fb 75 3f
       0.1567995 -0.117452234 0.88922006 0.9608756
000010 5e f1 86 3d cd 86 8e bd cc e2 29 3e 90 ea d4 3d
       0.06589006 -0.06959305 0.16590422 0.10396302
000020 45 ad bd 3d e6 27 b4 3d b7 5c a4 3c 0b 9d ec 3c
       0.09261564 0.087966725 0.020063741 0.028883478
000030 c7 08 79 3e 4f 1c 9f 3f a3 af 00 40 22 45 50 3f
       0.24319755 1.2430514 2.01072 0.8135549
000040 49 c1 1d be d8 23 7b 3f cf 31 40 3f 13 a7 92 3d
       -0.15405764 0.9810157 0.75076 0.07160773
000050 38 6b 8c 3f d3 56 96 bd 71 f7 e8 3d e2 a6 db be
       1.097022 -0.07340779 0.11375321 -0.4290076
000060 39 14 c5 3e 28 d5 b7 bc c9 ee 27 3e e1 11 be 3d
       0.3849199 -0.022440508 0.16399683 0.09280754
000070 ac c0 05 3d 4f 9e a6 3f 0c b1 05 3e 6a cb 45 be
       0.03265445 1.3017062 0.1305582 -0.19315878
000080 aa 55 82 3e f6 bb 52 3e 43 00 84 3e b4 86 e4 3b
       0.25455981 0.20579514 0.2578145 0.0069740657
000090 2e d2 a2 3d fa 6e 9f be 65 6c e3 be c6 b2 5c bb
       0.07950245 -0.31139356 -0.44418636 -0.0033675893
0000a0 ba 60 95 bb 3a 2d 0c 3e d1 46 a7 3e 49 5c e0 bd
       -0.00455865 0.13689128 0.32671216 -0.10955102
0000b0 13 bb 68 3f 41 9e 55 3d d2 80 3f 3e 78 7b 17 3e
       0.9091045 0.052152876 0.18701485 0.14793193
0000c0 2d dd 99 3d b4 89 10 3f 83 9f d0 3e 5a bb 3a 3e
       0.07512889 0.5646012 0.40746698 0.18235531
0000d0 ac 67 c6 3d 54 be cf bc 23 04 a9 be cb 75 20 bf
       0.096877426 -0.02535931 -0.3301097 -0.6267974
0000e0 30 16 51 3e 5f 14 c1 3d 01 fa 80 3b 48 fd cd 3e
       0.2041862 0.094277136 0.003936053 0.402323
0000f0 2d b6 b5 3d 6d 6e 6f 3d 82 5b bb 3d 54 4d 3f bd
       0.08872638 0.05845492 0.09148313 -0.046704605
000100 6c 91 16 3e d9 b4 58 3f bd 66 05 bd 70 a6 25 3e
       0.14703912 0.8465095 -0.032568682 0.16176772
000110 ab bb 8d 3c 49 ee 00 bb d2 ac 32 3e 63 20 cb bd
       0.017301401 -0.001967328 0.17448738 -0.09918287
000120 53 80 f6 3d 39 9e 1b 3e 0c a1 96 3d 99 61 51 be
       0.12036195 0.15197076 0.07354936 -0.20447387
000130 eb 6e 03 be 04 2d 2a 3d 85 72 77 3e c9 1b 8b bd
       -0.1283528 0.041546836 0.2416478 -0.06792409
000140 33 aa 7e be 77 ed 8c bc 0f ea 2a 3f 91 21 a8 bb
       -0.24869613 -0.017203076 0.66763395 -0.0051309546
000150 d7 11 fe 3e b1 f7 42 bd ce 64 22 3c 33 70 4f be
       0.49622986 -0.0475995 0.009911729 -0.20257644
000160 7e ab 11 be 58 8e 48 3f 40 99 9e 3f 7b 86 bb 3d
       -0.14225575 0.783422 1.2390518 0.091565095
000170 bf c2 3f 3d 71 fc e0 3e e1 75 7b bd b3 0d 0e 3b
       0.046816584 0.43942598 -0.061391715 0.0021675646
000180 21 a4 1c 3e 7c 2f 20 3f a7 45 6e 3e 2f 70 95 3f
       0.15296985 0.62572455 0.23268758 1.1674861
000190 18 8c 4b 3d 71 58 7c 3d e4 0b 8d 3d 34 dc d9 3d
       0.04969415 0.06160778 0.068870336 0.106377035
0001a0 25 d8 95 bd 30 a4 7e 3f 56 fe 86 3d 64 e5 cf 3c
       -0.07316617 0.9946928 0.065914795 0.025377937
0001b0 99 29 0a bd e9 4d 1e bd 53 51 f3 3c 86 79 1c 40
       -0.033731077 -0.03864852 0.029701864 2.4449172
0001c0 58 66 a5 3c d6 d9 dc bd 8d 70 d9 3e ad e2 39 3f
       0.020190403 -0.107837364 0.42468682 0.72611505
0001d0 a5 a8 b4 3d b8 fa 89 bd c7 1f 36 3e d5 e2 88 3f
       0.08821229 -0.06737274 0.1778556 1.0694224
0001e0 cf 74 91 be 94 ae 97 bd ab 67 c6 bd e9 48 26 3e
       -0.2840943 -0.07406345 -0.09687742 0.1623875
0001f0 8d 5d 65 3d 9a 37 8b 3f 79 b3 1e 3d 1c c1 90 3f
       0.05599742 1.0876343 0.038745377 1.1308932
000200 0c 2e 86 3e e5 e8 99 be 26 95 15 3c a3 d2 f4 3d
       0.26207006 -0.30060497 0.009129798 0.11954238
000210 fa b3 34 3f eb 32 ff 3b 51 2a 93 bd 12 c7 3a 3f
       0.7058712 0.0077880523 -0.071858056 0.7296001
000220 29 08 50 3f ac a8 c8 be e1 6c 6e 3f 84 72 35 3e
       0.8126245 -0.39191186 0.93134886 0.17719465
000230 c2 1f 27 3d f6 9d 23 3f 5b cd 7e 3d ea 2a 79 3f
       0.04080177 0.63912904 0.06220756 0.97331107
000240 29 1a 17 be 5d 3b 79 3e 9c 50 76 be 6e 52 b6 3d
       -0.14756073 0.24339052 -0.24054188 0.08902441
000250 8d d3 98 3e a5 63 8e 3e d1 c5 18 3f a9 f1 d7 3e
       0.298489 0.27810398 0.59676844 0.4217656
000260 9f c7 36 bd 72 23 45 3d 25 8f 26 be ec 86 c6 3d
       -0.044623967 0.048129506 -0.16265543 0.09693703
000270 4f 99 5c 3f 3e 3e 49 3d d4 32 86 3f eb bc 81 bd
       0.8617143 0.049131624 1.0484262 -0.06334861
000280 c2 54 49 be 4b bb d7 be 12 55 b7 3e d5 4c ed 3d
       -0.19661239 -0.4213508 0.3580709 0.1158692
000290 0e 4c c8 bc f3 a4 6a bf 27 1a de bd 8c 85 50 3e
       -0.024450328 -0.9165794 -0.10844832 0.20363444
0002a0 23 39 59 3f 5f fe 52 3c 64 33 18 3e f3 32 0d 3e
       0.8485281 0.01287803 0.14863354 0.13788967
0002b0 90 94 38 be e6 87 86 3d 87 38 22 3f 33 88 d6 3e
       -0.18025422 0.06568889 0.63367504 0.41900787
0002c0 05 3d 19 3d ef 37 3b 3f 19 a7 31 bd 5b 8d 50 bc
       0.03741171 0.7313222 -0.043372247 -0.012729014
0002d0 7a 59 d8 bd c4 a8 6c 3e 58 b3 20 3f 24 9e 54 be
       -0.10563941 0.23111254 0.62773657 -0.20763451
0002e0 42 2c 84 bd e1 0e e9 3d 1d d8 05 be e1 2e 00 3e
       -0.06453754 0.11379791 -0.13070722 0.12517883
0002f0 07 9d bb be 41 7a 14 be cc 32 47 3c d6 38 9b be
       -0.3664324 -0.14499761 0.012158107 -0.303168
000300 48 c2 24 3c e5 ab 47 3f 7e 48 66 3f 4b 5f 83 3d
       0.010056086 0.77996665 0.89954364 0.0641466
000310 e0 aa bd 3f d2 35 31 bd 10 c2 42 3e d0 f2 5f 3e
       1.4817772 -0.043264218 0.19019341 0.2186997
000320 75 f9 04 3d f4 ff 2a bd 41 13 ba be db bb 61 3d
       0.032464463 -0.041748002 -0.36342815 0.055110794
000330 aa 28 9f 3d e6 cf b4 3e 18 aa a1 3f 25 59 be 3b
       0.07771428 0.35314864 1.2630033 0.0058089667
000340 31 a3 b1 3d 35 48 e4 3d 14 f2 13 bd 24 12 47 3f
       0.086737044 0.11146585 -0.036119536 0.77762055
000350 36 e1 1a 3e 03 b0 29 be 2e 56 f0 bc 6c a1 05 be
       0.15124974 -0.1657105 -0.029337969 -0.13049859
000360 e1 03 f2 3d 01 62 b3 3e 25 97 7c bf bf 5a dd 3c
       0.11817146 0.3503571 -0.9866813 0.02702081
000370 9f 04 89 bd 7b c9 0c 3e 3d 66 34 be bd a4 34 3e
       -0.066903345 0.13748734 -0.17617126 0.17640968
000380 9a 75 7d 3d 93 bf 8d bd a3 a7 4c 3e 2c 4a ab 3c
       0.06187973 -0.069213055 0.19985823 0.020909391
000390 06 ad f5 be 94 48 b9 3f 32 2a 79 3f 22 8f 7c 3e
       -0.4798357 1.4475274 0.9733001 0.24663976
0003a0 75 b5 ac 3d 99 be 4d 3e d3 f5 82 3e 1b 31 7e 3e
       0.08433048 0.20092238 0.25578174 0.2482342
0003b0 dc 7b 33 3e a0 76 12 3c 48 60 8a bb ca d3 4d be
       0.17527717 0.008939415 -0.0042229034 -0.20100322
0003c0 4e 07 d1 be a0 76 12 3f 27 78 49 bf 66 d2 06 3f
       -0.40825886 0.5721226 -0.7869896 0.5266479
0003d0 b2 9a b3 3f 38 b1 92 bc fd 09 92 be 94 17 68 bf
       1.4031584 -0.01790677 -0.28523245 -0.9066098
0003e0 bd b6 78 3d 98 98 f0 bd aa b1 9d 3d 2b 7d 8d 3d
       0.060721148 -0.11747855 0.07699902 0.069086395
0003f0 72 ef d7 3e a5 c7 06 bf 37 9d fe 3f 3c 95 6c 3d
       0.4217487 -0.52648383 1.9891728 0.05775951

FCNet.3.bias f4 [300]
000000 22 e7 7d bd 42 68 3b be b2 c8 af be de 46 38 3f
       -0.061988004 -0.1830149 -0.34332806 0.71983135
000010 83 eb 47 bd 53 b9 c7 be be de f0 3c 2f f3 1b 3d
       -0.048808586 -0.3900858 0.029403087 0.038073715
000020 70 98 61 3c b8 bc 66 be af a9 af 3e 84 44 b2 3e
       0.013769254 -0.22532928 0.34309146 0.34817898
000030 d1 c6 bc bd 73 c6 03 3e 2d a6 e2 be 97 99 b1 be
       -0.09217609 0.12868671 -0.44267407 -0.34687492
000040 fd 03 85 bd d4 1d a2 be 85 fa 9d 3e 98 a0 6a be
       -0.06494901 -0.31663382 0.30855194 -0.22912824
000050 12 16 0d bf d8 70 e2 bd e5 5a 32 bd da 0b aa be
       -0.551118 -0.110566795 -0.043543715 -0.33212167
000060 86 72 66 3d 70 bc dc bd 82 0b 2b be ad e5 60 3d
       0.05626156 -0.10778129 -0.16703609 0.054906536
000070 d1 a7 d3 3e 5c ba 18 be 62 69 90 3e 30 1e a6 3c
       0.4133897 -0.1491484 0.282054 0.020278066
000080 c4 31 03 be c6 6d 3b 3e 35 62 8b be c5 f3 96 3e
       -0.12811953 0.18303594 -0.27223364 0.29482856
000090 5d 2e af be 8d 23 e0 bd 0b 56 94 be 22 01 87 3e
       -0.3421506 -0.10944281 -0.28971896 0.26368052
0000a0 af 69 a9 be ef 71 01 bf 16 ba f3 be 42 9f 85 3e
       -0.33088443 -0.50564474 -0.4760291 0.26098067
0000b0 f2 c9 94 be 59 9c 00 bd a5 1c 11 3f 11 47 e6 3d
       -0.29060322 -0.031399105 0.56684333 0.112440236
0000c0 12 ba ee 3d e8 20 19 3f 1b 86 84 3e 71 d4 d6 be
       0.11656584 0.59815836 0.25883564 -0.41958955
0000d0 e4 c1 85 be d1 49 16 bf df 31 a3 bd 2d 06 05 3e
       -0.2612449 -0.58706385 -0.079684965 0.12990637
0000e0 5b fb 1e 3f 14 4b aa 3e cd 7e 45 3f 31 1c 4a 3e
       0.6210229 0.33260405 0.7714661 0.19737317
0000f0 64 55 70 be 3f e0 94 be 29 c7 fe 3b e0 7c 47 be
       -0.23470074 -0.29077336 0.0077752066 -0.1948123
000100 4a 96 b6 3e b1 15 e6 3d 56 46 ab bd 09 fd 96 bd
       0.35661536 0.11234606 -0.08363025 -0.073724814
000110 48 52 cc bd 6d 7f 2a be c3 11 5a be 08 65 15 be
       -0.099766314 -0.16650172 -0.21295838 -0.14589322
000120 55 bd 61 be 95 2b 68 3e 85 41 65 be 5e 64 06 be
       -0.2204488 0.22672875 -0.22388275 -0.13124225
000130 71 23 b9 3e 0b ca 2e be 7d a7 87 be e5 b4 9a bd
       0.36159852 -0.17069261 -0.2649497 -0.07554034
000140 b7 64 24 3e e5 4c f6 be f9 7f a3 3e 1f 2b 2d be
       0.16054045 -0.4810554 0.31933573 -0.1691098
000150 d8 6b b0 bd eb 86 a0 be 92 16 5d be 4c 0c ff 3e
       -0.086143196 -0.31352934 -0.21590641 0.4981407
000160 8f aa a2 bd f4 25 cf bd 64 d1 b7 be 56 27 a7 3e
       -0.07942688 -0.10114661 -0.3590194 0.32647198
000170 cb 6f 7f be 68 53 81 3e 4b 12 d8 bd fd 31 8f be
       -0.2494499 0.25258946 -0.10550364 -0.27967826
000180 3b 01 63 be e2 78 b9 be bd 1d 25 be 10 8c b4 3d
       -0.22168438 -0.3622504 -0.16124626 0.08815777
000190 b1 d1 a5 3d d6 4c 46 bd 40 08 51 be f2 56 76 be
       0.08096636 -0.04841312 -0.20413303 -0.24056605
0001a0 8d d6 88 3e a1 50 90 be 08 04 65 bd 63 12 b6 be
       0.2672619 -0.28186515 -0.055912048 -0.35560903
0001b0 90 b1 53 be 28 00 a6 be 26 b4 e7 be de 72 da 3c
       -0.20673203 -0.32421994 -0.4525463 0.026666101
0001c0 62 a2 91 be 66 9f e8 3d cd ec c2 bd a3 e7 fc be
       -0.284442 0.11358528 -0.095178224 -0.49395475
0001d0 8c c7 f8 3a 72 14 8c bd 42 85 5f 3d 99 0c 46 3f
       0.0018980368 -0.06839837 0.054570444 0.7736297
0001e0 ce 78 23 3d 2f 49 81 be a5 79 5c be 4d 16 01 bf
       0.03991013 -0.25251147 -0.21530779 -0.50424653
0001f0 9f 80 2b 3e ba e2 df be 2a 3d 28 3e 10 6c 68 3e
       0.16748284 -0.43727666 0.16429582 0.22697473
000200 03 7e 14 3f 14 6b 65 bd c8 59 dd b9 e4 91 41 be
       0.5800478 -0.05601032 -0.00042219297 -0.18903309
000210 fa 50 0e 3f 7f 5b f9 3b 2c 68 ae be 21 2d cc be
       0.5559231 0.007609784 -0.34063852 -0.3987818
000220 90 1e cc be 56 ba 90 3b 6a 68 25 3e 0e ca a2 3e
       -0.39867067 0.004416744 0.16153112 0.3179478
000230 ca bd 5c 3c 9c 88 9e be d1 32 41 be a1 4c 5c be
       0.013472984 -0.309636 -0.18867041 -0.21513607
000240 bb 72 09 3e 82 04 b3 be 8f 13 64 be b5 10 1d 3d
       0.13422672 -0.34964377 -0.22273086 0.03834601
000250 7d cd c3 be 3a 9b 67 3e a9 03 97 3e c7 02 a9 be
       -0.38242713 0.22617808 0.2949498 -0.3300993
000260 2f 40 4a be 60 6c df be 3e f1 89 be f7 23 81 be
       -0.19751047 -0.4363737 -0.26941866 -0.25222751
000270 0e e0 58 be 9b 87 3d 3e b0 39 8b bd 6e d3 e6 3e
       -0.2117922 0.1850876 -0.067981124 0.45083183
000280 8e 86 20 be fd f2 3c be 55 24 d0 bd df 87 a1 3c
       -0.15676329 -0.18452068 -0.1016318 0.019718109
000290 1b ce 80 be 41 d5 b9 bd 9c 75 10 bd 7c 19 c7 3d
       -0.25157246 -0.09073878 -0.03526841 0.09721658
0002a0 2e 71 ed be ab 7e 29 be f2 83 1d 3e d9 5d ab be
       -0.46375412 -0.16552226 0.15382364 -0.33470038
0002b0 de e7 c7 3d 3c 65 0e bd ac 5d ac bd c7 52 e6 be
       0.09761022 -0.034764513 -0.08416304 -0.4498503
0002c0 63 9e 87 be b9 1d e6 3b ef 41 36 be 0f d8 f9 3d
       -0.26488027 0.007022586 -0.17798589 0.12199413
0002d0 cc e3 62 be 0e 00 5d 3e db 8a d5 3d e9 3e e2 be
       -0.2215721 0.21582052 0.10426875 -0.44188622
0002e0 83 d4 87 be 01 2e 49 3e df 97 98 bd 7b be 92 bd
       -0.2652932 0.19646455 -0.07450842 -0.071652375
0002f0 b1 d6 41 3e 7a b9 3c 3e 64 af ee be 8f 92 8b be
       0.18929555 0.18430129 -0.46618187 -0.27260253
000300 84 5a f0 bd d6 28 a2 be 51 e5 46 bd 21 4e 4e 3e
       -0.117360145 -0.3167178 -0.048558537 0.20146991
000310 c9 93 ad 3d 26 23 82 3e 34 72 8d be 33 df 81 be
       0.084754534 0.2541744 -0.27626193 -0.253656
000320 0e 5c 43 be ba 60 18 be 9d 37 fa be 2c 68 04 bf
       -0.19078085 -0.14880648 -0.48870555 -0.51721454
000330 34 90 00 be f7 55 55 be b5 76 5f be 4f f2 7f 3e
       -0.12555009 -0.20833574 -0.21822627 0.24994777
000340 06 7f ab 3d 6c 67 95 be af 76 c2 be 31 cd 47 3d
       0.08373837 -0.29180467 -0.37981173 0.04877967
000350 07 0e b4 be c9 79 ea be 9c 28 88 bd 35 db a5 be
       -0.35166952 -0.4579604 -0.066483706 -0.32393804
000360 f7 10 91 be 21 ff 12 3d 0d 2b 28 bd 94 fc 7c be
       -0.28333256 0.03588784 -0.04105668 -0.24705726
000370 3e 02 65 3e f7 04 da be fc dd 11 be 85 57 2f 3e
       0.22364137 -0.42581913 -0.14244837 0.1712323
000380 83 7c 04 be d0 78 62 3d 9d 07 eb bd c7 4c b6 bd
       -0.12938122 0.055290997 -0.114760615 -0.08901363
000390 11 94 c4 be e4 bf d0 bd 9c fe 9b 3e 0c 4b 65 be
       -0.38394216 -0.1019285 0.3046769 -0.2239191
0003a0 bb 8c ee 3d 56 9a df be 7f c8 85 be c7 33 a7 3e
       0.11647936 -0.43672436 -0.2612953 0.3265669
0003b0 e0 d1 03 3e 7f 04 67 be 44 4d 72 3c 77 c0 cb 3c
       0.1287303 -0.22560309 0.014788929 0.024872048
0003c0 f0 09 be 3e c8 19 37 be 84 2c 8c be cc 00 f0 be
       0.37116957 -0.17880929 -0.27377713 -0.46875608
0003d0 c0 b8 52 be ca 56 fe be 2b 1d 7b be ad 43 af 3e
       -0.20578289 -0.4967559 -0.24522845 0.3423132
0003e0 36 c7 87 be 96 49 86 be 2e a4 20 be fa d3 e1 3d
       -0.26519173 -0.26228017 -0.1568763 0.110267594
0003f0 56 b8 51 3d 21 f2 27 3d 40 e3 24 3e 2d 4c e0 3d
       0.051201187 0.041002396 0.16102314 0.109520294

FCNet.4.weight f4 [300]
000000 d6 56 02 40 e7 0f 93 3f 9a 1b ff 3f fb ad 34 40
       2.03655 1.1489228 1.9930298 2.823119
000010 c5 ba ac 3f 38 57 4c 3e 62 d6 d4 3f 9b 8b 07 3f
       1.3494498 0.19955146 1.6627924 0.52947396
000020 37 8e a0 3f 7a ee c2 3f 31 bf 87 3f 06 8d 1a 40
       1.25434 1.5229027 1.0605222 2.4148574
000030 33 ff bf 3f 28 ac db 3f 9d 77 99 3e ba 7c 82 3e
       1.4999756 1.7161913 0.2997407 0.25485784
000040 e8 1d 94 3f 39 98 a6 3f e5 78 94 40 12 49 d8 3f
       1.1571627 1.3015205 4.6397576 1.6897299
000050 3b e9 b3 3e 40 3e d0 3f d7 e4 d7 3f a6 ed 8b 3f
       0.35138878 1.6268997 1.6866711 1.09319
000060 9e d8 41 3f 2c 1b ac 3f 5d 9e ab 3f 1b 33 0c 3f
       0.75721157 1.3445792 1.3407704 0.5476548
000070 77 9e 18 40 73 31 98 3f fa 9a cf 3f 9d 14 f7 3f
       2.384672 1.1890091 1.621917 1.9303166
000080 5b 7f 66 3f fe 9b ee 3f c8 46 31 3f a3 82 1b 40
       0.9003808 1.8641355 0.6924863 2.4298484
000090 6b 7d b8 3f ac 9d aa 3f a8 fc 42 3e 56 d9 fa 3f
       1.4413275 1.3329368 0.19041693 1.9597576
0000a0 c4 d4 a7 3f 85 14 87 3e 7c 69 61 3f 26 01 07 40
       1.3111806 0.26382843 0.8805158 2.109445
0000b0 1d a7 78 3e e3 c0 86 3f 3d a5 10 40 e6 16 90 3f
       0.24282499 1.0527614 2.2600853 1.1256988
0000c0 36 80 f2 3f ab f9 20 40 94 b8 80 40 f1 5d 45 3f
       1.8945377 2.5152385 4.0225315 0.7709647
0000d0 47 32 f3 3e 83 78 76 3e fa 96 01 40 fb 7a a4 3f
       0.47499296 0.24069409 2.0248399 1.2850031
0000e0 f7 bc 2a 40 ab b9 f2 3f 97 2e 8b 40 ab 31 fe 3f
       2.6677835 1.8962911 4.349437 1.9858907
0000f0 11 a3 92 3f 6b 9e e2 3e 27 89 d9 3f ee de a2 3f
       1.1456014 0.44261488 1.699498 1.2724283
000100 57 f2 0e 40 47 46 64 3f ad dc bc 3f 32 c2 c1 3f
       2.2335413 0.89169735 1.4754845 1.5137389
000110 8a be 90 3f 37 9b f7 3f 0b e3 a7 3f 1d 20 90 3f
       1.1308148 1.9344243 1.3116163 1.12598
000120 d8 65 8d 3f 91 94 df 3f e8 39 20 3f 8a ab d5 3f
       1.1046705 1.7467214 0.6258836 1.6692975
000130 f8 a8 26 40 e9 c2 9b 3f d7 f4 33 3f 10 3a 8b 3f
       2.604063 1.2168857 0.7029547 1.0877094
000140 3c d2 ca 3f 17 b7 c5 3e 66 ec 03 40 b0 42 9f 3f
       1.5845408 0.3861625 2.0613036 1.2442226
000150 4e 05 86 3f c1 a5 9c 3f 52 e3 78 3f 1f 61 55 40
       1.0470369 1.2238084 0.97221863 3.3340528
000160 3a 88 3b 3f 8e a5 89 3f 97 38 5f 3f 10 c2 fb 3f
       0.7325474 1.0753648 0.87195724 1.9668598
000170 50 3a 38 3f 00 c0 0d 40 f8 4f 78 3f 20 88 af 3e
       0.7196398 2.2148438 0.9699702 0.34283543
000180 16 28 90 3f ce f7 90 3e 05 9f 85 3f 46 79 cd 3f
       1.1262233 0.2831406 1.0439154 1.6052635
000190 8e d8 90 3d 81 06 e0 3f 59 f2 8f 3f d0 b6 86 3f
       0.070725545 1.7501985 1.1245834 1.052454
0001a0 dd a9 07 40 62 6b 74 3f be ee b7 3f 38 24 57 3f
       2.1197426 0.95476353 1.4369733 0.8403964
0001b0 93 1c 95 3f dd 24 cc 3f ea d1 c8 3e a1 c0 6a 3f
       1.1649345 1.594875 0.39222652 0.9170018
0001c0 1d 35 9f 3f e4 f0 f4 3f 9f 09 b3 3f 3c 2e 5a 3e
       1.2438084 1.9136014 1.3987311 0.213067
0001d0 3b 5f e2 3f eb 35 a9 3f 0e 37 b5 3f 80 14 33 40
       1.7685312 1.321958 1.4157426 2.7981262
0001e0 2b 41 e4 3f b1 c1 07 3f 5a 38 95 3f 71 9d fb 3e
       1.7832388 0.53029925 1.1657822 0.49143556
0001f0 62 42 dd 3f ea d9 bf 3f 08 96 c7 3f a7 af fe 3f
       1.7285883 1.4988377 1.5592661 1.9897355
000200 12 87 10 40 11 34 a4 3f b7 93 c7 3f 66 af aa 3f
       2.258244 1.282839 1.5591954 1.3334777
000210 c7 26 84 40 c7 f7 0e 3f 68 b1 94 3f d8 cb 89 3e
       4.1297336 0.5584683 1.161664 0.26913333
000220 3e 96 56 3f ce 89 bc 3f ee 94 f5 3f d0 e3 22 40
       0.83823 1.4729555 1.9186075 2.5451546
000230 f6 95 fa 3f 09 a8 48 3f f2 31 9d 3f a2 10 81 3f
       1.9577014 0.783814 1.2280867 1.0083201
000240 cc dc 2a 3d 22 10 41 3f ef cb 92 3f 2a 74 eb 3a
       0.041714475 0.7541524 1.1468486 0.0017963697
000250 b2 df 5b 3f fd 9b 16 40 68 4f 7f 3f 3e 7d 70 3e
       0.85888207 2.3532708 0.9973054 0.23485276
000260 bc a1 9e 3f 96 30 90 3e bf 58 88 3e 36 3a 91 3e
       1.2393107 0.28162068 0.26630208 0.28364724
000270 52 51 9f 3f 6a f0 fc 3f b4 47 cf 3f fa 20 23 40
       1.2446692 1.9760869 1.6193757 2.5488877
000280 88 d1 aa 3f 73 e5 b6 3f 82 20 56 3f 1f f1 cf 3f
       1.3345194 1.4288772 0.83643353 1.6245459
000290 81 5b de 3e b1 61 b4 3f 11 7a 9d 3f 4e 3c ce 3f
       0.43429187 1.4092313 1.2302877 1.6112154
0002a0 4d 46 00 3f 18 9a a1 3f 64 2f c2 3f d5 d2 8f 3e
       0.5010727 1.2625151 1.5170712 0.2809054
0002b0 6c 46 10 40 d7 03 c5 3f 05 c3 8e 3f 29 1c eb 3e
       2.2542982 1.5391797 1.1153265 0.45919922
0002c0 4a ed 00 3f c0 79 f1 3f 60 2e ff 3f cd 40 91 3f
       0.50362074 1.886528 1.9936028 1.1347901
0002d0 94 c2 56 3f 11 66 a0 40 1b f9 f8 3f f6 16 67 3e
       0.8389065 5.0124593 1.9451021 0.22567353
0002e0 d1 9c c3 3e 9e 1e a2 3f 8c 9d 71 3f c6 6a c9 3f
       0.3820558 1.2665594 0.9438102 1.573571
0002f0 5f dc 0c 40 bc e4 bd 3f 55 89 98 3e 1a 97 9b 3f
       2.2009504 1.4835429 0.29792276 1.2155488
000300 b6 ad de 3f 34 83 a1 3f 2c 63 a5 3f 48 82 d0 3f
       1.7396762 1.2618165 1.292089 1.6289759
000310 f1 dd 3b 3e a5 40 3b 3f 8d 6d 98 3f a6 c3 9a 3e
       0.18346383 0.73145515 1.1908432 0.30227393
000320 6f ab 78 3f 78 9f 98 3f e4 77 98 3f 68 24 38 3f
       0.97136587 1.1923666 1.1911588 0.7193055
000330 09 44 8c 3f 57 a6 4f 3f c9 80 81 3f 40 fd 08 40
       1.0958263 0.8111319 1.0117427 2.1404572
000340 2c bd d1 3f b0 14 94 3e 2b 25 91 3f 17 21 ce 3f
       1.6385856 0.28922033 1.1339468 1.6103848
000350 b4 79 98 3e 49 37 19 3f b6 83 ce 3f 15 d8 77 3e
       0.29780352 0.59849983 1.6133945 0.24203523
000360 68 1f 84 3f 5a 84 d4 3f 57 ee d2 3f 4f dd 96 3f
       1.0322084 1.660289 1.6478986 1.1786288
000370 e8 2e f2 3f 4c cf ee 3e 46 43 83 3f ad 07 b6 3f
       1.8920565 0.4664253 1.0254905 1.4221092
000380 ad 29 a6 3f 2e bb 2d 3d 22 2c 14 3f b1 df c7 3f
       1.2981468 0.042414837 0.5787984 1.561514
000390 d5 b6 a2 3e 1a 57 b1 3f 27 34 69 40 b5 7d 9a 3f
       0.31780115 1.3854706 3.6438081 1.2069613
0003a0 f0 a2 ce 3f 88 15 57 3f b2 20 f7 3e 9d a4 0b 40
       1.6143475 0.8401723 0.48267132 2.1819222
0003b0 69 e9 c3 3f 9e 03 69 3f 84 72 6b 3f 08 0a e1 3f
       1.5305606 0.91021144 0.9197161 1.7581186
0003c0 9d be 11 40 59 5d 99 3f 83 ba 41 3f 9f 83 de 3d
       2.277259 1.1981612 0.7567522 0.108649485
0003d0 f0 df 59 3f c8 d9 84 3f dc ae 44 3f c8 23 19 40
       0.85107327 1.0378962 0.76829314 2.392809
0003e0 42 66 ef 3e bc 4e 98 3e 18 c0 b3 3f 4e 0e e2 3f
       0.46757704 0.2974757 1.4042997 1.7660615
0003f0 1b 83 c0 3f 30 62 ee 3f 2b 1a c9 3f 00 b5 d4 3f
       1.504001 1.8623714 1.5711111 1.6617737
