DDPG_linear/model/Pendulum-v0_actor.pt (torch, 497919 bytes, 9 tensors)

FCNet.0.weight f4 [400, 3]
0	0x3cdae30f	0.026719598
1	0xbe8d6bcb	-0.27621302
2	0xbd3cb182	-0.046067722
3	0x3d92c05d	0.07165597
4	0x3e245138	0.16046607
5	0x3ce73017	0.028221173
6	0xbd9497dd	-0.07255528
7	0x3da26fc0	0.07931471
8	0x3d4afd8f	0.04955822
9	0xbd4122f8	-0.04715249
10	0xbc64383b	-0.013929422
11	0xbcc5d2e2	-0.024148408
12	0xbd6da53f	-0.05801892
13	0xbda940df	-0.08264326
14	0xbd332e5c	-0.043745384
15	0x3cf7951d	0.03022247
16	0xbe0966b0	-0.13418078
17	0xbcbcef2b	-0.023063263
18	0x3ca0590c	0.01957371
19	0xbe0d90a2	-0.13824704
20	0x3b59c14a	0.0033226782
21	0x3c5195d8	0.012792073
22	0x3d5700b1	0.052490894
23	0x3d064dd4	0.032789066
24	0xbb5f8488	-0.0034106094
25	0xbc10962f	-0.008824869
26	0xbc2c4bd9	-0.01051613
27	0x3dbfbf40	0.0936265
28	0x3e32e78d	0.17471142
29	0x3d59fcfb	0.053219777
30	0xbc202876	-0.009775272
31	0xbc9a9c98	-0.018873498
32	0xbc4582a2	-0.012055071
33	0xbce87f4f	-0.028381018
34	0x3e1216f7	0.14266573
35	0x3cd376ec	0.025813542
36	0x3db8f5bc	0.09031245
37	0xbdc86adf	-0.09786009
38	0x3d76d2f3	0.06025977
39	0xbd872de0	-0.06600547
40	0xbcb181ae	-0.021668281
41	0xbcf839e7	-0.030301047
42	0xbd29437b	-0.04132412
43	0x39835a5c	0.0002505359
44	0x3c94135d	0.01807564
45	0x3db96fb2	0.09054507
46	0xbe29b538	-0.16573036
47	0xbd928c1e	-0.071556315
48	0xbd2ce155	-0.04220708
49	0xbd5b68af	-0.05356663
50	0xbce12ed0	-0.027488142
51	0xbcb04dc0	-0.02152145
52	0x3dd1f574	0.102518946
53	0xbd046321	-0.0323211
54	0xbdc6521a	-0.096836284
55	0x3be91c09	0.0071139378
56	0x3ad96184	0.0016584848
57	0x3dc150bd	0.09439228
58	0x3deac9b2	0.114642516
59	0x3d1c0eb3	0.038099956
60	0xb8cce72e	-9.7705386e-05
61	0x3d85511e	0.065096125
62	0x3d286264	0.041109458
63	0x3cf06e4e	0.029349472
64	0xbea7cede	-0.32775015
65	0xbd8514cd	-0.06498108
66	0xbd426a6b	-0.04746477
67	0xbdae4610	-0.08509457
68	0xbcd96838	-0.026538953
69	0x3c44686b	0.011987786
70	0xbdc068aa	-0.09394963
71	0x3cdf76fb	0.027278414
72	0xbcc693aa	-0.024240334
73	0xbe01530d	-0.12629338
74	0xbca74bc8	-0.020421878
75	0x3e16064b	0.14650838
76	0xbd9a23d4	-0.07526365
77	0xbd92ae41	-0.071621425
78	0x3d169d1c	0.036770925
79	0xbe235660	-0.15950918
80	0x3c04d997	0.008108518
81	0xbd2f364a	-0.042776383
82	0xbce8b925	-0.028408596
83	0xbc44ed0d	-0.012019408
84	0xbd3147ec	-0.04328148
85	0xbda75c29	-0.08171875
86	0xbcaa63b5	-0.020799497
87	0x3d897e7b	0.06713577
88	0x3e555e42	0.20836738
89	0x3d4ca4af	0.049961742
90	0x3c9c1798	0.01905422
91	0x3e949f49	0.29027775
92	0x3d9586e2	0.073011175
93	0xbc75f864	-0.015012834
94	0x3c47a7d8	0.012186013
95	0xbbecf206	-0.007231
96	0xbd13f91e	-0.03612625
97	0xbc59c51c	-0.013291623
98	0x3acec92f	0.001577651
99	0xbd7b1c03	-0.06130601
100	0x3d997a73	0.074940585
101	0xbd9b77b6	-0.075911924
102	0x3dfd7118	0.123750865
103	0x3e1ee7fd	0.15518184
104	0x3d450ee3	0.0481099
105	0xbd8263de	-0.063667044
106	0xbc46cea2	-0.012134226
107	0xbc73d636	-0.014882615
108	0xbca73270	-0.020409793
109	0x3dce2199	0.10065002
110	0xbd112663	-0.035437
111	0xbcbd8752	-0.023135815
112	0xbdba19aa	-0.09086926
113	0xbca48af7	-0.020085795
114	0xbc993d05	-0.018705854
115	0xbdca29ca	-0.09871252
116	0x3cb4f86a	0.02209111
117	0xbd0bc5fc	-0.03412436
118	0x3e300f96	0.17193446
119	0x3b4e4bf4	0.0031478377
120	0xbda1cffa	-0.079009965
121	0xbc0c1980	-0.008551002
122	0x3ce35e6f	0.02775499
123	0xbd9ad27a	-0.075596765
124	0xbd00e70e	-0.03147035
125	0xbd4dbdbb	-0.05022977
126	0xbca59b80	-0.02021575
127	0xbb950391	-0.0045475443
128	0x3c282459	0.010262572
129	0x3c31acc9	0.010844418
130	0xbdb7b923	-0.08970859
131	0x3cbea4b6	0.0232719
132	0xbd0b4f07	-0.034010913
133	0xbd0b28d9	-0.033974502
134	0xbbc3e3c8	-0.0059780814
135	0xbd31e21b	-0.04342852
136	0xbd692813	-0.056922983
137	0xbc9a4281	-0.01883054
138	0xbcf3cd51	-0.029760988
139	0xbdae4edf	-0.08511137
140	0x3d4ff306	0.050768875
141	0xbd600556	-0.05469259
142	0xbc31db70	-0.010855541
143	0xbc4e78a6	-0.012602007
144	0xbc4b76c0	-0.012418449
145	0x3e275e74	0.16344625
146	0x3985f52f	0.00025550413
147	0x3e40ea39	0.18839349
148	0xbd80efe6	-0.06295757
149	0xbd5c7c03	-0.053829204
150	0xbc8bde74	-0.017073847
151	0x3d648c2d	0.055797745
152	0xbd72a932	-0.05924339
153	0xbd190cec	-0.03736584
154	0xbd4f2543	-0.050572645
155	0x3c521662	0.012822719
156	0xbd93ac1b	-0.07210561
157	0xbd453186	-0.048142932
158	0xbd1b9b5a	-0.03798995
159	0xbd97e257	-0.07416218
160	0xbceb2f66	-0.028709125
161	0xbd491758	-0.049094528
162	0xbcd4b7ea	-0.025966603
163	0xbdc1eab1	-0.09468592
164	0xbcffc1bc	-0.03122031
165	0xbc96a3c2	-0.018388633
166	0x3e08d6e4	0.13363224
167	0x3cadc169	0.02121039
168	0x3d575d8a	0.05257944
169	0xbe3c3061	-0.1837783
170	0xbd918984	-0.07106307
171	0x3de32173	0.11090364
172	0x3ded5345	0.11588148
173	0x3d7347ae	0.05939453
174	0x3cf84728	0.030307367
175	0xbde1fbec	-0.110343784
176	0xbccbbc6b	-0.024870118
177	0x3dabc2de	0.08386777
178	0xbe5afbf9	-0.21385182
179	0xbd13e7cd	-0.036109734
180	0xbcba25b2	-0.022723053
181	0xbd4e6fb6	-0.050399505
182	0xbc4de63d	-0.0125671
183	0xbdcebcff	-0.10094642
184	0x3df15f18	0.11785716
185	0x3d609c28	0.054836422
186	0xbd5cc0cf	-0.053894814
187	0xbce604de	-0.028078493
188	0xbd2e6baa	-0.042583145
189	0xbd423a44	-0.047418848
190	0xbd03af06	-0.032149337
191	0xbaf59c32	-0.0018738566
192	0xbcb16e89	-0.021659153
193	0x3e0bff4e	0.1367161
194	0x3cccd251	0.02500263
195	0xbb23281f	-0.002489574
196	0x3d74b8f0	0.059746683
197	0xbbff8748	-0.007798109
198	0x3df0d463	0.117592596
199	0xbe032417	-0.12806736
200	0xbd56f336	-0.052478038
201	0xbe7a59e5	-0.24448355
202	0x3c5d7efc	0.013519045
203	0xbc19dd65	-0.0093911635
204	0xbcd1d08c	-0.025612138
205	0xbd5a0276	-0.053225003
206	0xbc978f7f	-0.018501041
207	0xbcea6e0a	-0.028616924
208	0xbdc1db19	-0.09465618
209	0xbd08322e	-0.03325098
210	0xbdf36ba6	-0.11885767
211	0xbc47f3ed	-0.0122041525
212	0xbd8f4221	-0.06995035
213	0x3daedc2c	0.08538088
214	0x3e749f7f	0.23888968
215	0x3d57c466	0.052677535
216	0x3c3a2e1a	0.0113635305
217	0x3d896710	0.06709111
218	0x3c5cba6f	0.013472184
219	0x3ced4c29	0.02896698
220	0x3ccab1f5	0.02474306
221	0x3cfd606f	0.030929772
222	0xbd92ff9d	-0.071776606
223	0x3cdcccd3	0.026953137
224	0x3d9059df	0.070483916
225	0xbd62fa6a	-0.055414595
226	0xbcbbbbfe	-0.02291679
227	0xbd127681	-0.035757545
228	0xbdb1ba27	-0.08678084
229	0xbd634dd7	-0.055494156
230	0xbd08306d	-0.033249307
231	0x3d4b8758	0.04968962
232	0x3da23b10	0.079214215
233	0x3d1019b2	0.035180755
234	0x3dc7325f	0.097264044
235	0x3e0d4485	0.1379567
236	0x3cbff697	0.023433013
237	0xbd3362cb	-0.04379539
238	0xbd207ca9	-0.039181385
239	0xbb8546f0	-0.0040672943
240	0xbd01d0e5	-0.031693358
241	0xbe0f52c6	-0.1399642
242	0xbcdeeac3	-0.027211552
243	0xbc2ac490	-0.010422841
244	0xbd30fd99	-0.0432106
245	0xbc293a6f	-0.010328873
246	0x3d9f4d78	0.07778448
247	0x3e5af7a9	0.21383537
248	0x3d4adaaf	0.04952496
249	0x3d63a0a9	0.05557314
250	0xbe5da9b7	-0.21646772
251	0xbbb6c21a	-0.005577338
252	0xbce1c7d0	-0.027561098
253	0xbd24d787	-0.040244605
254	0x3b40499e	0.0029340754
255	0xbc910624	-0.017703123

FCNet.0.bias f4 [400]
0	0xbca32aff	-0.019917963
1	0xbc523d25	-0.012831961
2	0x3d929a58	0.07158345
3	0x3e036911	0.12833048
4	0x3d5419d7	0.051782455
5	0x3bc39f87	0.005969945
6	0x3d0d566f	0.034506258
7	0x3d981025	0.07424954
8	0x3dc66e5c	0.09689018
9	0x3ca15a47	0.019696368
10	0x3db9eef9	0.090787835
11	0x3ca06a96	0.019582074
12	0xbdba415b	-0.09094497
13	0x3e287a26	0.16452846
14	0x3dc23d3b	0.09484335
15	0xbdae01e0	-0.084964514
16	0x3d8565d4	0.06513563
17	0x3d274499	0.040836904
18	0x3e192d0d	0.14958592
19	0x3c47c782	0.012193562
20	0x3d240b8d	0.04005008
21	0x3cb475b6	0.022028785
22	0x3e00eb15	0.12589677
23	0x3d8edfc5	0.069762744
24	0x3d62a255	0.055330593
25	0xbdfc5664	-0.12321165
26	0x3cd83dfa	0.02639674
27	0x3de54ff5	0.11196891
28	0x3e1b6551	0.15175368
29	0x3c673c1f	0.014113455
30	0x3c644487	0.013932354
31	0x3dbf5798	0.09342879
32	0x3e06cee9	0.13164867
33	0xbc1b52c5	-0.009480183
34	0xbc8c9fbb	-0.01716601
35	0x3e1d1fc8	0.15344155
36	0x3d33fc57	0.043941822
37	0x3d77551e	0.06038391
38	0x3dc63d6e	0.096796855
39	0xbcec02cd	-0.02880993
40	0x3d791892	0.060814448
41	0x3e028903	0.12747578
42	0x3dcac999	0.09901733
43	0x3d8d3c87	0.0689631
44	0x3e18be19	0.14916267
45	0x3e155524	0.1458326
46	0xbe004dae	-0.12529632
47	0x3e20e5bd	0.15712638
48	0x3d3ab92f	0.04558676
49	0xbda90fc4	-0.0825496
50	0xbe19f3c5	-0.15034397
51	0x3e19c924	0.15018135
52	0x3d67e48e	0.05661445
53	0x3de1d809	0.110275336
54	0x3d917e08	0.07104117
55	0x3c92e11f	0.017929612
56	0xbb1505de	-0.0022739093
57	0x3b795133	0.0038042783
58	0x3d77f46d	0.060535837
59	0xbd66f771	-0.056388322
60	0x3e1141ce	0.14185259
61	0x3d814869	0.06312639
62	0x3da95deb	0.082698666
63	0x3e036942	0.12833121
64	0x3d06fede	0.032957904
65	0x3d3089fd	0.043100346
66	0xbcb73394	-0.022363462
67	0xbcf4ead3	-0.02989713
68	0x3e2150c1	0.15753461
69	0x3db2a60f	0.087230794
70	0x3d50bce5	0.050961394
71	0xbd1cce27	-0.03828254
72	0x3d9c34fe	0.07627295
73	0x3d9e2f89	0.0772391
74	0x3d8fbe8b	0.07018765
75	0x3e179aa5	0.14805086
76	0x3e02c534	0.1277054
77	0x3d2f9be5	0.042873282
78	0xbce0f760	-0.027461708
79	0x3e3025a2	0.17201856
80	0x3d91e0b3	0.07122936
81	0x3dc32cc1	0.095300205
82	0x3ba9e1a4	0.005184369
83	0xbcd79c13	-0.02631954
84	0x3e15bc92	0.14622715
85	0x3d8392d2	0.06424488
86	0x3e1c4a48	0.15262711
87	0x3dd53e59	0.104122825
88	0x3d9b242b	0.07575258
89	0x3dea2f3d	0.11434791
90	0xbc36aea2	-0.011150034
91	0x3e24e132	0.1610153
92	0x3d8d4ae3	0.06899049
93	0x3e083ea0	0.1330514
94	0x3e16ffba	0.1474599
95	0x3cc2d568	0.0237834
96	0x3dd36459	0.10321874
97	0x3e0fa7c8	0.14028847
98	0x3d898adc	0.067159384
99	0x3d9481df	0.072513334
100	0x3db3b86b	0.08775409
101	0x3dea4ccc	0.11440429
102	0x3dfa1949	0.12211854
103	0x3df06415	0.11737839
104	0x3d439b16	0.047755323
105	0x3e07b652	0.13253143
106	0x3deabdd7	0.1146199
107	0xbc85eebe	-0.016349193
108	0x3c0a34f2	0.008435475
109	0x3d89b170	0.06723297
110	0xbce6ea11	-0.028187783
111	0x3dd115f5	0.10209266
112	0x3d2a53f3	0.041583966
113	0x3d296cf5	0.041363675
114	0x3e19b120	0.15008974
115	0x3d88bd4b	0.0667673
116	0x3d9022e8	0.07037908
117	0x3c8641ef	0.016388861
118	0x3e188a3a	0.14896479
119	0x3dfba5a7	0.12287455
120	0x3e0c0e3b	0.13677303
121	0xbba682e9	-0.0050815237
122	0xbe0b91cf	-0.1362984
123	0x3e0fe8d1	0.14053656
124	0x3c867dff	0.016417501
125	0x3dfd4a61	0.12367702
126	0x3dee6bb7	0.11641639
127	0x3d9814fe	0.07425879
128	0x3de63b31	0.112417586
129	0x3e00f642	0.1259394
130	0x3e2015c0	0.15633297
131	0x3dfec210	0.12439358
132	0x3d712a44	0.0588782
133	0xbc9898ce	-0.01862755
134	0xbdbab95a	-0.09117384
135	0x3d97cfbd	0.0741267
136	0x3dbff984	0.09373763
137	0xbd4396b3	-0.04775114
138	0x3e0b22d7	0.13587509
139	0x3e00abf8	0.12565601
140	0xbbe5ee07	-0.0070169005
141	0xbd359ce9	-0.044339094
142	0x3e04d5b6	0.12972149
143	0x3cca906a	0.024727065
144	0x3dc10a91	0.094258435
145	0x3d5eba59	0.054376934
146	0x3d8337e1	0.064071424
147	0x3d9468e4	0.07246569
148	0x3e0360c7	0.12829886
149	0x3d24b5e2	0.04021252
150	0x3e13408a	0.14380088
151	0x3de33240	0.11093569
152	0xbd4bc980	-0.049752712
153	0x3dd7bc91	0.10534013
154	0x3be9a746	0.0071305363
155	0x3df62610	0.120189786
156	0xbd32b982	-0.043633945
157	0xbc821e43	-0.01588357
158	0x3d674e27	0.056471016
159	0x3d913f5b	0.07092162
160	0xbc951358	-0.0181977
161	0x3d93b71d	0.072126605
162	0x3e247123	0.16058783
163	0x3cd053a9	0.025430517
164	0x3c71f95c	0.014768925
165	0x3d5db6b3	0.054129314
166	0x3dbe5aa8	0.09294635
167	0x3da561dd	0.080753066
168	0x3cca04ab	0.024660429
169	0x3ccec7a5	0.025241682
170	0x3df54ecb	0.11977919
171	0x3c9794de	0.018503603
172	0x3dcb19d5	0.099170364
173	0x3ccc21c4	0.024918444
174	0x3deda12a	0.11603005
175	0x3db5aad9	0.08870477
176	0x3e0f252e	0.13979027
177	0x3d8f8d1e	0.07009338
178	0x3d5021e6	0.050813578
179	0x3d74750f	0.05968195
180	0xbc87f8b7	-0.016598089
181	0x3d874e30	0.0660671
182	0x3c5d9862	0.0135251
183	0x3e0df423	0.13862662
184	0x3dfbde02	0.12298204
185	0x3d0bcb14	0.034129217
186	0xbafed18a	-0.001944111
187	0x3d4f4d0d	0.05061059
188	0x3d38008f	0.044922408
189	0x3d6f25cc	0.058385655
190	0xbc7a20f8	-0.015266649
191	0x3dc3695b	0.09541579
192	0x3ce8b59d	0.028406912
193	0x3dba2fc4	0.09091142
194	0xbe04f705	-0.12984855
195	0x3c584018	0.013198875
196	0x3d8a6292	0.06757082
197	0x3baf8371	0.005356245
198	0x3dcf2d28	0.10116035
199	0x3dcb916e	0.09939848
200	0x3e15508d	0.14581509
201	0x3dcddb81	0.10051633
202	0x3e09cd23	0.1345716
203	0x3d90c926	0.07069616
204	0x3e1b53f6	0.15168747
205	0x3df167dd	0.117873885
206	0xbc650e93	-0.013980526
207	0x3d319ccf	0.043362435
208	0x3dedb4b2	0.116067305
209	0xbd690c19	-0.056896303
210	0x3e17e5e5	0.14833792
211	0x3d9beab8	0.076131284
212	0x3d814108	0.06311232
213	0x3d6dce23	0.058057915
214	0x3e050d70	0.12993407
215	0x3d807adc	0.062734336
216	0x3e0e5da9	0.13902916
217	0x3d782958	0.060586303
218	0xbdc434b5	-0.095803656
219	0x3dca0bb2	0.09865512
220	0x3e22abf1	0.15885903
221	0x3cbc72f7	0.023004038
222	0x3dae6715	0.08515755
223	0x3d89e9ae	0.06734024
224	0x3d871c45	0.06597189
225	0x3dc85492	0.097817555
226	0x3c996afd	0.018727774
227	0xbc93988b	-0.018017074
228	0x3d8044a5	0.06263093
229	0x3d582c34	0.05277653
230	0xbd54b70c	-0.05193238
231	0x3d835786	0.06413178
232	0xbd6219c0	-0.05520034
233	0x3d8017fc	0.06254575
234	0x3e207793	0.15670614
235	0x3c9f958c	0.01948049
236	0xbd1412b3	-0.036150645
237	0x3d9e0f00	0.07717705
238	0x3c817f4d	0.015807772
239	0x3cc8b7ac	0.024501644
240	0x3e024728	0.12722456
241	0x3beeeda3	0.007291512
242	0x3e090a89	0.13382925
243	0x3da26a5e	0.07930444
244	0xbcea054d	-0.02856698
245	0x3d904bef	0.07045733
246	0x3dab71f5	0.08371345
247	0x3db623e3	0.088935636
248	0xbd2aac89	-0.04166845
249	0x3beb7dff	0.0071866508
250	0x3e113bdf	0.14182995
251	0x3e0b9872	0.13632372
252	0x3e22f5d1	0.15914084
253	0x3db6e621	0.08930612
254	0x3dca2c2c	0.09871706
255	0xbd406ed9	-0.046980713

FCNet.1.weight f4 [400]
0	0x3fb03206	1.3765266
1	0x3f8d451e	1.1036718
2	0x3f78aa5e	0.9713496
3	0x3f2b4001	0.6689454
4	0x3f5ccece	0.8625306
5	0x3f7efd58	0.9960532
6	0x3f6e36f6	0.93052614
7	0x3f6089cd	0.8771027
8	0x3f369f47	0.7133679
9	0x3f828bb7	1.0198888
10	0x3f2738ce	0.6532105
11	0x3f802666	1.0011718
12	0x3f92b085	1.146012
13	0x3f11983a	0.56872904
14	0x3f6392de	0.88895977
15	0x3faea964	1.3645444
16	0x3f4cc5cb	0.7998931
17	0x3f65c9c4	0.89760995
18	0x3f61ff27	0.88279957
19	0x3f64d6c8	0.8939023
20	0x3f6105f2	0.87899697
21	0x3fb40fa1	1.406727
22	0x3f206c08	0.6266484
23	0x3f6f35ae	0.93441284
24	0x3f64d9fa	0.89395106
25	0x3fa0bb5c	1.2557178
26	0x3f7d5333	0.98955077
27	0x3f26787f	0.6502761
28	0x3f0c63a6	0.5483955
29	0x3f8d18f2	1.1023238
30	0x3fa419d4	1.2820382
31	0x3f2d224e	0.6763047
32	0x3f1398dc	0.5765512
33	0x3f885e5c	1.0653796
34	0x3f8e3bad	1.1111962
35	0x3f1a8756	0.60362756
36	0x3f5cd9fb	0.8627011
37	0x3f4961a8	0.78664637
38	0x3f700d1d	0.9377001
39	0x3f9a8442	1.2071612
40	0x3f689af5	0.90861446
41	0x3f44b854	0.7684376
42	0x3f434718	0.76280355
43	0x3f6a4dc4	0.9152491
44	0x3f1ae0af	0.6049909
45	0x3f23d6ce	0.6399964
46	0x3f8bf4f2	1.0934126
47	0x3f37dc4c	0.7182052
48	0x3f68a8d2	0.908826
49	0x3f9cb6e8	1.2243319
50	0x3fab5f8c	1.3388534
51	0x3f167288	0.5876851
52	0x3f5d316f	0.86403555
53	0x3f4c46ce	0.7979554
54	0x3f416fa8	0.75561
55	0x3f86a712	1.0519736
56	0x3f878156	1.0586345
57	0x3f753aeb	0.95793027
58	0x3f789c0b	0.971131
59	0x3fa491ec	1.2857032
60	0x3f1bebca	0.6090666
61	0x3f835102	1.0259097
62	0x3f588507	0.84577984
63	0x3f3ea53a	0.74470866
64	0x3f730493	0.94928855
65	0x3f4ebbfa	0.8075558
66	0x3f8a2fd3	1.0795845
67	0x3f9a86f9	1.207244
68	0x3f136c74	0.5758736
69	0x3f4186f3	0.7559654
70	0x3f7f118b	0.99636143
71	0x3fb6a110	1.4267902
72	0x3f408f38	0.75218534
73	0x3f526ed6	0.8220037
74	0x3f79066e	0.97275436
75	0x3f258629	0.6465784
76	0x3f4a1b18	0.7894759
77	0x3f45ece3	0.77314585
78	0x3f8f8ad4	1.1214242
79	0x3f1c14b7	0.6096911
80	0x3f54d86d	0.8314274
81	0x3f2c5329	0.6731439
82	0x3f8e1438	1.109992
83	0x3f87bfad	1.060537
84	0x3f0675cd	0.525235
85	0x3f653e48	0.8954816
86	0x3f270e3f	0.6525611
87	0x3f354371	0.7080603
88	0x3f7cf5d0	0.9881258
89	0x3f465e0b	0.7748725
90	0x3fa67f76	1.3007648
91	0x3f2f6b21	0.6852284
92	0x3f5f7373	0.87285537
93	0x3f490714	0.78526425
94	0x3f19f5d4	0.6014073
95	0x3f8740d0	1.0566654
96	0x3f446e3a	0.7673069
97	0x3f46868f	0.7754907
98	0x3f3ee8bc	0.74573874
99	0x3f68bff7	0.90917915
100	0x3f7c30c1	0.9851189
101	0x3f437177	0.7634501
102	0x3f377dfc	0.7167661
103	0x3f453f66	0.77049863
104	0x3f562bf1	0.836608
105	0x3f351804	0.7073977
106	0x3f33661c	0.7007768
107	0x3f8f885f	1.1213492
108	0x3f9013bd	1.1256024
109	0x3f5b5e9c	0.8569124
110	0x3f92cb7a	1.1468346
111	0x3f33762c	0.7010219
112	0x3f5fa2b8	0.87357664
113	0x3f671529	0.9026666
114	0x3f2a56ac	0.665385
115	0x3f473db7	0.77828544
116	0x3f50285d	0.8131159
117	0x3f989643	1.1920856
118	0x3f076906	0.5289463
119	0x3f22e2a9	0.63627106
120	0x3f27a908	0.65492296
121	0x3f8ae10c	1.0849929
122	0x3f93827a	1.1524193
123	0x3f12645f	0.57184404
124	0x3f747e53	0.95505255
125	0x3f265fec	0.64990115
126	0x3f4542a2	0.770548
127	0x3f8078f2	1.003691
128	0x3f15653e	0.5835761
129	0x3f20f842	0.6287881
130	0x3f1b3790	0.60631657
131	0x3f76bcf5	0.96382076
132	0x3f6a1773	0.9144203
133	0x3f8e66ff	1.1125182
134	0x3fb8618e	1.4404771
135	0x3f7d550f	0.98957914
136	0x3f47c0d0	0.78028584
137	0x3fa4fe8b	1.289018
138	0x3f5909f0	0.8478079
139	0x3f285aa1	0.6576329
140	0x3f87903f	1.0590895
141	0x3f95b345	1.1695334
142	0x3f22919c	0.6350343
143	0x3f9b97e8	1.2155733
144	0x3f469a93	0.7757961
145	0x3f353a1d	0.707918
146	0x3f7486ea	0.9551836
147	0x3f4906b4	0.78525853
148	0x3f1e7bcd	0.61907655
149	0x3f51e2f9	0.8198696
150	0x3f0ba63e	0.5455054
151	0x3f2585f1	0.64657503
152	0x3f8d656d	1.1046578
153	0x3f245d45	0.6420482
154	0x3fa2670b	1.2687696
155	0x3f1fcea8	0.6242471
156	0x3f9b5b60	1.213726
157	0x3fad95a1	1.3561288
158	0x3f812aa6	1.009114
159	0x3fa0703d	1.2534252
160	0x3f87cf03	1.061005
161	0x3f4e020a	0.8047186
162	0x3f25c2dc	0.64750457
163	0x3f6eaa39	0.9322849
164	0x3f88803f	1.0664138
165	0x3f80db52	1.0066931
166	0x3f4e65bb	0.8062398
167	0x3f423b7d	0.7587202
168	0x3f88728e	1.0659959
169	0x3f7a0524	0.97664094
170	0x3f11072a	0.56651556
171	0x3f936e83	1.15181
172	0x3f4ba741	0.79552084
173	0x3f613b80	0.87981415
174	0x3f1aab8a	0.60418
175	0x3f5bcc60	0.85858727
176	0x3f29b763	0.6629545
177	0x3f75b8d1	0.9598513
178	0x3f685abc	0.9076345
179	0x3f718180	0.94338226
180	0x3f8064f9	1.0030814
181	0x3f8981cc	1.0742736
182	0x3f65e761	0.8980618
183	0x3f2a455f	0.665121
184	0x3f3e7f75	0.74413234
185	0x3f773372	0.96562874
186	0x3f8a65c1	1.0812303
187	0x3f63a6b0	0.8892622
188	0x3f604a3f	0.8761329
189	0x3f474af7	0.7784876
190	0x3f90f709	1.1325389
191	0x3f361e3f	0.711399
192	0x3f78aaa2	0.97135365
193	0x3f4c2f1d	0.7975939
194	0x3f9cd336	1.2251956
195	0x3f983bb1	1.1893216
196	0x3f7a8740	0.97862625
197	0x3f796bca	0.974301
198	0x3f337983	0.7010729
199	0x3f68cf83	0.9094164
200	0x3f19fc01	0.6015015
201	0x3f307e33	0.68942565
202	0x3f1977d9	0.599485
203	0x3f6d47a8	0.92687464
204	0x3f57a8ca	0.84241927
205	0x3f2289ae	0.6349133
206	0x3f864091	1.0488454
207	0x3f90f5ae	1.1324975
208	0x3f2ad0d3	0.6672489
209	0x3fa63c3c	1.2987132
210	0x3f12841d	0.5723284
211	0x3f66d4ae	0.90168273
212	0x3f6dea1a	0.92935336
213	0x3f55b27e	0.8347548
214	0x3f4744eb	0.77839535
215	0x3f894585	1.0724341
216	0x3f30308d	0.6882408
217	0x3f4dc3b0	0.8037672
218	0x3fa66baf	1.3001612
219	0x3f36c6cc	0.7139709
220	0x3f42278a	0.7584158
221	0x3f698eb7	0.9123339
222	0x3f3b77a4	0.7322943
223	0x3f71958d	0.9436882
224	0x3f5d9399	0.8655334
225	0x3f42d9dc	0.7611368
226	0x3f9d1787	1.2272805
227	0x3fa8543d	1.3150707
228	0x3f5c9e40	0.8617897
229	0x3f89f5f1	1.077818
230	0x3f952f9b	1.1655153
231	0x3f896391	1.073351
232	0x3f916c9a	1.1361268
233	0x3f6ee5f4	0.9331963
234	0x3f156c1c	0.58368087
235	0x3f87adf3	1.059996
236	0x3f93cd7a	1.1547081
237	0x3f4fbae0	0.81144524
238	0x3f650dfe	0.89474475
239	0x3f7cbfd4	0.98730206
240	0x3f495437	0.78644127
241	0x3fa473ae	1.2847803
242	0x3f17ac50	0.59247303
243	0x3f68d1d5	0.9094518
244	0x3f839ac3	1.0281605
245	0x3f646f9b	0.89232796
246	0x3f662508	0.89900255
247	0x3f3ca3cf	0.7368745
248	0x3f81d7cb	1.014398
249	0x3f8bca13	1.0921043
250	0x3f20bf75	0.6279214
251	0x3f483134	0.7820008
252	0x3f13be30	0.5771208
253	0x3f5a1052	0.8518115
254	0x3f71f84a	0.94519484
255	0x3f9c1abc	1.2195659

FCNet.1.bias f4 [400]
0	0xbd6ed451	-0.05830795
1	0xbe55b38d	-0.20869274
2	0xbe463dd2	-0.1935952
3	0xbea67cdb	-0.32517132
4	0xbe110fee	-0.14166233
5	0xbe3c8f97	-0.1841415
6	0xbe4a913f	-0.1978197
7	0xbe527cfb	-0.20555489
8	0xbea9ceb0	-0.33165503
9	0xbdad77be	-0.08470105
10	0xbeb5a3bb	-0.3547648
11	0xbe86d4a4	-0.26334107
12	0xbdfbd888	-0.122971594
13	0xbee2e958	-0.44318652
14	0xbe3250ab	-0.17413585
15	0xbc24d878	-0.010061376
16	0xbe2f8918	-0.17142141
17	0xbe5b68fc	-0.21426767
18	0xbe3af0f0	-0.18255973
19	0xbd7317bf	-0.059348818
20	0xbe87fd62	-0.26560503
21	0xbd218dea	-0.03944198
22	0xbebbbc80	-0.36667252
23	0xbd53a86e	-0.0516743
24	0xbe72b12a	-0.23700395
25	0xbd955168	-0.07290918
26	0xbe1e6aee	-0.15470478
27	0xbe9d669a	-0.3074234
28	0xbed52f70	-0.41637754
29	0xbdb79e7a	-0.08965774
30	0xbcbf3b00	-0.023343563
31	0xbed85da4	-0.42258942
32	0xbed68224	-0.41896164
33	0xbe4dd9a3	-0.20102553
34	0xbc0e1b20	-0.008673459
35	0xbec766a3	-0.38945493
36	0xbe5e13d2	-0.21687248
37	0xbe502acd	-0.20328827
38	0xb89cc5d8	-7.475511e-05
39	0xbe081119	-0.13287772
40	0xbe27f18b	-0.16400735
41	0xbea32e8b	-0.31871447
42	0xbe7344af	-0.2375667
43	0xbd6e1460	-0.0581249
44	0xbeb864e6	-0.3601448
45	0xbebddab3	-0.37080917
46	0xbd9b0fff	-0.075714104
47	0xbea49da7	-0.3215153
48	0xbe38c8f3	-0.18045406
49	0xbd921685	-0.071332015
50	0xbda581e9	-0.08081419
51	0xbefbf8df	-0.4921331
52	0xbe1aeb6f	-0.15128873
53	0xbe815c3e	-0.25265688
54	0xbe7b1da5	-0.24523027
55	0xbe2c7edb	-0.16845267
56	0xbd0d07be	-0.03443121
57	0xbdf6582d	-0.12028537
58	0xbe056709	-0.13027586
59	0xbdcdc536	-0.100473806
60	0xbeda2ae3	-0.42610845
61	0xbe510118	-0.20410573
62	0xbe144d95	-0.1448272
63	0xbe9fcb32	-0.31209713
64	0xbe958662	-0.29204088
65	0xbe78ff55	-0.24316151
66	0xbd545589	-0.051839385
67	0xbd7970da	-0.06089864
68	0xbf06eef1	-0.52708346
69	0xbe84a671	-0.25908235
70	0xbe196a6c	-0.14982003
71	0x3c94c82c	0.018161856
72	0xbe1d7a78	-0.1537875
73	0xbe857bc8	-0.26071
74	0xbdae98c5	-0.08525232
75	0xbebe5b27	-0.3717892
76	0xbe96298a	-0.29328567
77	0xbe4e3eea	-0.20141187
78	0xbc902534	-0.017595865
79	0xbeedf8f7	-0.46479008
80	0xbe68c65d	-0.2273192
81	0xbea20fff	-0.3165283
82	0xbcc17bf1	-0.02361867
83	0xbd1ede0f	-0.03878599
84	0xbede24d5	-0.43387476
85	0xbe06a7f7	-0.13150011
86	0xbeda57b3	-0.42645034
87	0xbeafb80f	-0.34320113
88	0xbe2af647	-0.1669551
89	0xbe8001d7	-0.25001404
90	0x3b96647d	0.004589616
91	0xbea085bf	-0.3135204
92	0xbe4d7ebb	-0.20067875
93	0xbe9ec11f	-0.31006715
94	0xbee64b88	-0.449795
95	0xbdae49e7	-0.085101895
96	0xbea4c16f	-0.32178828
97	0xbe79150c	-0.24324435
98	0xbe7bfed0	-0.24608922
99	0xbe6119fc	-0.21982569
100	0xbd083177	-0.0332503
101	0xbe871c1e	-0.2638864
102	0xbec9c8e6	-0.39411086
103	0xbe9e8d53	-0.30967197
104	0xbe6ddb2f	-0.23228143
105	0xbeb927c2	-0.36163145
106	0xbeb02be1	-0.34408477
107	0xbc6b1921	-0.014349253
108	0xbc8030ee	-0.015648331
109	0xbe861f3d	-0.26195708
110	0xbcf9b5d4	-0.03048221
111	0xbe905d69	-0.28196266
112	0xbe8506ef	-0.25981852
113	0xbdd17806	-0.10227971
114	0xbecc65a1	-0.39921287
115	0xbe5ac2b4	-0.21363336
116	0xbe91d039	-0.28479174
117	0xbd69c0e2	-0.057068713
118	0xbee0df13	-0.43920192
119	0xbeaf335d	-0.34218875
120	0xbea93a20	-0.33052158
121	0xbcded92f	-0.02720317
122	0xbd8c16df	-0.068403
123	0xbed2bed4	-0.41161215
124	0xbe6f2d92	-0.23357227
125	0xbec8f74f	-0.3925118
126	0xbe88d8f5	-0.26728025
127	0xbde3fbf1	-0.111320384
128	0xbed1c581	-0.40970996
129	0xbee83d05	-0.45359054
130	0xbec54946	-0.38532466
131	0xbd71b1c7	-0.059007432
132	0xbdc70f20	-0.09719682
133	0xbcf0ff01	-0.02941847
134	0xbc16a88e	-0.00919546
135	0xbde882cc	-0.113530725
136	0xbe8ad6d3	-0.27117023
137	0xbb74a059	-0.003732702
138	0xbe5f8912	-0.21829632
139	0xbeabe354	-0.33571875
140	0xbcda1423	-0.02662093
141	0xbd1a5db6	-0.037687026
142	0xbeaf5e5f	-0.34251687
143	0xbc231bb3	-0.0099553345
144	0xbea558b1	-0.3229423
145	0xbe40ac6a	-0.18815771
146	0xbe0155c7	-0.12630378
147	0xbe910bb4	-0.2832924
148	0xbebbc4fb	-0.36673722
149	0xbe9d52b5	-0.30727163
150	0xbedda88d	-0.43292657
151	0xbebdd8ff	-0.37079617
152	0xbda8583b	-0.082199536
153	0xbecef0f4	-0.40418208
154	0x3cb87da0	0.02252084
155	0xbec40435	-0.3828446
156	0xbd42feb8	-0.0476062
157	0xbbf0cb16	-0.0073484285
158	0xbdfe3169	-0.12411768
159	0x3bfbda77	0.007685955
160	0xbe484bfd	-0.19560237
161	0xbea0309f	-0.31287095
162	0xbedff0c1	-0.43738368
163	0xbdf9a795	-0.12190167
164	0xbe4fe8d1	-0.20303656
165	0xbe584835	-0.21121295
166	0xbe5a6e69	-0.2133118
167	0xbe67c7a3	-0.22634749
168	0xbdcd8c2b	-0.100365005
169	0xbe2beac0	-0.16788769
170	0xbecf1b1a	-0.40450364
171	0x3c4ece86	0.012622481
172	0xbe9ce722	-0.3064509
173	0xbe63c318	-0.22242391
174	0xbecc9ad3	-0.39961872
175	0xbe4e0809	-0.20120253
176	0xbec8fd1e	-0.39255613
177	0xbd6c9437	-0.057758536
178	0xbdd037c3	-0.10166886
179	0xbe063af3	-0.13108425
180	0xbdf4e0d7	-0.11956947
181	0xbdb0583c	-0.08610579
182	0xbe14e1c9	-0.14539255
183	0xbebf284c	-0.37335432
184	0xbead4d54	-0.3384806
185	0xbe824cf5	-0.2544934
186	0xbe3506fc	-0.17678446
187	0xbdcb88a0	-0.099381685
188	0xbde47379	-0.11154837
189	0xbe8e83b6	-0.27834862
190	0xbdf9731a	-0.12180157
191	0xbea740b0	-0.3266654
192	0xbe731ae6	-0.2374073
193	0xbe6751d4	-0.22589809
194	0xbd849ed8	-0.064756095
195	0xbc2168b7	-0.009851626
196	0xbe3f85c6	-0.18703374
197	0xbe4279eb	-0.1899182
198	0xbec4206a	-0.3830598
199	0xbdc51289	-0.09622676
200	0xbed1ccf1	-0.4097667
201	0xbe8638bc	-0.2621516
202	0xbed41617	-0.41423103
203	0xbd560750	-0.052253067
204	0xbe69d6c2	-0.2283583
205	0xbec2caf2	-0.3804546
206	0xbde15b8e	-0.11003791
207	0xbd0ea2f9	-0.03482339
208	0xbed3ded3	-0.4138094
209	0xbc889901	-0.01667452
210	0xbece0baa	-0.40243274
211	0xbd80f7c8	-0.062972605
212	0xbe14c514	-0.14528304
213	0xbe0377a2	-0.12838605
214	0xbea70033	-0.3261734
215	0xbdf9c0cb	-0.121949755
216	0xbed862fc	-0.4226302
217	0xbe4eb13f	-0.20184802
218	0xbcffd507	-0.031229509
219	0xbea1c643	-0.31596574
220	0xbe8c059b	-0.27348027
221	0xbe29c46b	-0.16578834
222	0xbe9691ac	-0.29408014
223	0xbd5611a9	-0.052262936
224	0xbe3d8457	-0.18507515
225	0xbe920a68	-0.28523564
226	0xbde37444	-0.1110616
227	0xbe1d0d5f	-0.15337132
228	0xbde8abb4	-0.11360875
229	0xbdd87923	-0.1056998
230	0xbd11d38f	-0.03560215
231	0xbdd8b490	-0.105813146
232	0xbd76cd0f	-0.060254153
233	0xbe145b9a	-0.14488068
234	0xbedae00d	-0.42749062
235	0xbc6ba9c6	-0.014383739
236	0xbe4c43c8	-0.19947731
237	0xbe6ec4b6	-0.23317227
238	0xbe08cc4e	-0.13359186
239	0xbe3831fa	-0.17987815
240	0xbe26a257	-0.16272865
241	0x3b5ff94f	0.00341757
242	0xbecf3de9	-0.4047692
243	0xbe40aa88	-0.18815053
244	0xbdb50da1	-0.0884049
245	0xbe680bed	-0.226608
246	0xbe73d94b	-0.2381336
247	0xbe9025a6	-0.28153723
248	0xbde96d89	-0.11397845
249	0xbe22bc14	-0.15892059
250	0xbec0bc53	-0.3764368
251	0xbe6c3e4c	-0.2307064
252	0xbed7587d	-0.420597
253	0xbe6d3351	-0.23164107
254	0xbc8b7ffc	-0.017028801
255	0xbd773eb7	-0.060362544

FCNet.3.weight f4 [300, 400]
0	0xba078956	-0.0005170306
1	0x3deb04f0	0.11475551
2	0xbd8c07c1	-0.068374164
3	0x3cbba95e	0.022907909
4	0x3d6c8ebe	0.057753317
5	0xbe0bab42	-0.13639548
6	0xbd4b6940	-0.04966092
7	0x3cfac9a4	0.030613728
8	0x3d26ba5b	0.040705066
9	0x3ded4507	0.115854315
10	0x3dfbd3ba	0.12296243
11	0xbdeef716	-0.11668222
12	0x3dab85d1	0.08375133
13	0xbc80fad2	-0.0157446
14	0xbcf83a0f	-0.030301122
15	0xbdd30696	-0.103039905
16	0x3dbe81c1	0.09302092
17	0x3d160640	0.036627054
18	0xbce15a15	-0.027508775
19	0x3dbde6c8	0.09272534
20	0xbd206fa6	-0.039168976
21	0x3dc286cf	0.09498369
22	0x3b9ceb0c	0.004788762
23	0x3cf0d671	0.029399129
24	0x3d6cbe14	0.05779846
25	0xbd9d26a8	-0.07673389
26	0xbd4b7517	-0.049672212
27	0x3de0cd05	0.10976604
28	0xbd471e39	-0.048612807
29	0x3d1599ca	0.036523618
30	0x3d9d7d2b	0.076898895
31	0xbb613b90	-0.0034367777
32	0xbb95cead	-0.004571757
33	0x3d7d6171	0.061860505
34	0x3e2cd8cc	0.16879576
35	0x3aa0dfd2	0.0012273735
36	0x3d36fc15	0.044673998
37	0x3d851094	0.06497303
38	0x3bd674e6	0.006544697
39	0x3d81cbf1	0.06337727
40	0x3c586faf	0.013210221
41	0x3deebc4e	0.1165701
42	0x3dbfb4dc	0.09360668
43	0x3cedc8a6	0.02902634
44	0xbc810ef5	-0.015754202
45	0xbcfdfab2	-0.03100333
46	0x3dbcaa9f	0.09212231
47	0x3c3b1429	0.011418381
48	0x3c4be36d	0.012444359
49	0xbcc4b956	-0.024014156
50	0x3d5e0da0	0.054212213
51	0x3d297bcf	0.04137784
52	0x3d88d0d8	0.06680459
53	0x3dd921f1	0.10602177
54	0x3d469b17	0.04848775
55	0xbd34ee61	-0.04417265
56	0xbd54bb29	-0.051936302
57	0x3db2cfb3	0.08731022
58	0x3d1e86fb	0.038702946
59	0xbdb32696	-0.08747594
60	0x3dc88154	0.097902924
61	0xbdb172a0	-0.08664441
62	0x3d0edae3	0.034876715
63	0xbd0ecd90	-0.03486401
64	0xbdcb794c	-0.09935245
65	0x3cdee0ee	0.027206864
66	0xbd8fb73a	-0.070173696
67	0x3dcec43b	0.10096022
68	0x3d0c5e66	0.034269713
69	0x3d79f666	0.061026
70	0x3de8ef67	0.113737874
71	0x3e49dd33	0.19713287
72	0x3d32642f	0.043552574
73	0x3da55e83	0.08074667
74	0x3d174f14	0.03694065
75	0x3d901e14	0.07036987
76	0x3dd615f8	0.10453409
77	0x3dce84d2	0.10083927
78	0x3d73a8ab	0.059487026
79	0xbd60a58a	-0.05484537
80	0xb9ab4315	-0.00032665642
81	0x3dcc7866	0.09983902
82	0x3dfc254e	0.12311803
83	0xbe15016d	-0.14551325
84	0x3d4ed242	0.050493486
85	0x3d5c1223	0.053728234
86	0xbcd0e806	-0.025501262
87	0xbc59cdbe	-0.013293682
88	0x3dafbb6d	0.085806705
89	0x3d855cb6	0.06511824
90	0x3dc1dc2c	0.094658226
91	0xbcb7be10	-0.022429496
92	0x3d4041f7	0.04693791
93	0x3de3d503	0.11124613
94	0xbd323785	-0.04350998
95	0x3dd36d19	0.10323543
96	0xbd8e37cf	-0.069442384
97	0x3d408797	0.04700431
98	0x3d9491bc	0.07254359
99	0x3dc2a8c6	0.09504847
100	0x3d88c46f	0.06678092
101	0x3d9669bb	0.07344385
102	0xbc613f60	-0.01374802
103	0xbd3ae645	-0.04562976
104	0x3d36a235	0.044588286
105	0xbd2ea722	-0.04263986
106	0x3d120d36	0.03565713
107	0x3e357277	0.17719446
108	0x3df1d0ba	0.118073896
109	0x3dc144ff	0.09436988
110	0x3df65621	0.120281465
111	0x3da19476	0.07889645
112	0xbca0f5d8	-0.019648477
113	0x3d710748	0.058844835
114	0x3c98d431	0.018655868
115	0x3d672f79	0.056441758
116	0x3dada58f	0.084788434
117	0x3dcc31e3	0.09970453
118	0x3c24b878	0.010053746
119	0x3dc81989	0.097704954
120	0xbd7a5d3f	-0.061124083
121	0xbd42bc22	-0.0475427
122	0x3dedeb71	0.116171725
123	0x3d0bd27c	0.03413628
124	0x3d55b49b	0.052174192
125	0xbc8889cb	-0.016667267
126	0x3d939f1f	0.07208084
127	0xbbce8772	-0.0063027674
128	0x3c98db67	0.018659307
129	0xbda6baf2	-0.08141126
130	0x39568f3a	0.00020461986
131	0xbc95153b	-0.0181986
132	0x3d72b557	0.05925497
133	0x3e2426d1	0.16030432
134	0xbde696bc	-0.11259219
135	0x3d3918a8	0.04518953
136	0xbd3ea9f9	-0.046548817
137	0xbd93e50f	-0.07221424
138	0xbc6ef8f7	-0.014585725
139	0x3d833008	0.064056456
140	0x3e317d6d	0.17333002
141	0x3df34a12	0.11879362
142	0x390ee92b	0.00013629037
143	0x3b44f16f	0.0030051132
144	0xbd47b67d	-0.04875802
145	0x3db194ef	0.08670985
146	0x3c17c890	0.009264126
147	0x3d81b60e	0.06333552
148	0x3cdc6373	0.02690289
149	0x3c961c75	0.018324116
150	0x3d8d30e4	0.06894091
151	0x3ddcd396	0.10782544
152	0x3dc295f5	0.09501258
153	0x3db8341d	0.08994315
154	0xbdf6c293	-0.12048831
155	0x3e039c4f	0.12852596
156	0x3dc9b23e	0.0984845
157	0xbdf60faa	-0.120147064
158	0xbd13eb2e	-0.036112957
159	0x3c4d4dc7	0.012530751
160	0x3e4a3c0f	0.19749473
161	0x3daebc04	0.08531955
162	0xbd90db05	-0.07073025
163	0x3d6b93f8	0.05751416
164	0xbda4fce5	-0.08056048
165	0xbdb57a0e	-0.08861171
166	0x3d3a648e	0.045506053
167	0x3d316cb8	0.043316573
168	0x3c446165	0.011986111
169	0xbd5c5a2f	-0.053796943
170	0x3df86ce5	0.12130145
171	0xbe3ba664	-0.18325192
172	0xbd65982e	-0.056053333
173	0x3d108403	0.035282146
174	0x3e2afcb2	0.16697958
175	0x3b880890	0.0041514114
176	0xbd5367c2	-0.051612623
177	0x3d99951d	0.07499144
178	0x3c130aa6	0.008974707
179	0x3c62df44	0.013847176
180	0xbd16f805	-0.036857624
181	0x3c21e102	0.009880306
182	0x3da56976	0.08076756
183	0xbd21a354	-0.039462402
184	0xbd0f6b9d	-0.035014737
185	0xbdc22290	-0.094792485
186	0x3e806739	0.25078753
187	0x3d76b497	0.060230818
188	0x3d65f213	0.056139063
189	0x3cce8ec8	0.025214568
190	0x3e0c48eb	0.13699691
191	0x3db4d8e0	0.08830428
192	0xbdb61275	-0.08890239
193	0x3c1af746	0.009458369
194	0x3dea297c	0.11433694
195	0x3ce9032d	0.028443897
196	0x3d10a4a8	0.03531328
197	0x3e0e1010	0.13873315
198	0x3c8e4b49	0.017369883
199	0x3d2e3400	0.04253006
200	0xbc2311e6	-0.009952998
201	0x3dc57120	0.096407175
202	0x3d24b7da	0.040214397
203	0x3cfcb2d6	0.030846994
204	0xbbe376e8	-0.006941665
205	0x3deb25ea	0.11481841
206	0x3e4a4130	0.1975143
207	0x3d6519e5	0.055932898
208	0x3c0c3b5b	0.008559073
209	0x3e14cf3d	0.1453218
210	0x3ce4c7c0	0.02792728
211	0x3d2a7a03	0.041620266
212	0x3c2686c4	0.010163967
213	0x3d9e83c4	0.07739976
214	0x3e009b3a	0.12559214
215	0xbd67f848	-0.056633264
216	0xbca1e504	-0.019762523
217	0x3d7bfe0e	0.061521582
218	0x3eaab864	0.33343804
219	0x3dd08d12	0.10183157
220	0xbd68425f	-0.05670392
221	0x3d8a4f36	0.067533895
222	0x3d3f7be0	0.046748996
223	0x3cf1699c	0.029469304
224	0x3c3182da	0.01083442
225	0xbc8447b3	-0.01614747
226	0xbb62cfcf	-0.0034608727
227	0x3d3f76da	0.046744205
228	0x3c58bfca	0.01322932
229	0xbd02e249	-0.031954084
230	0x3e5bc952	0.21463516
231	0xbcf1e1e1	-0.029526653
232	0xbbc13ea9	-0.0058973623
233	0x3c6f7754	0.014615852
234	0xbbc03a4b	-0.005866324
235	0xbde88721	-0.11353899
236	0x3d816f82	0.063200966
237	0x3dd3ded9	0.10345239
238	0x3ddad4b2	0.106851
239	0x3cc379e9	0.023861842
240	0xbc10f874	-0.008848298
241	0xbd812339	-0.06305546
242	0xbc3e81c5	-0.011627619
243	0x3d43aa8a	0.04777006
244	0x3d565cb6	0.05233451
245	0x3d70e4f4	0.058812097
246	0x3d0a7198	0.033799738
247	0x3e0eb586	0.13936433
248	0x3d9083ed	0.07056413
249	0x3d927c6b	0.07152637
250	0xbd3a44fa	-0.045475937
251	0x3d11cb27	0.03559413
252	0x3c3dfed9	0.011596405
253	0x3d3ef98a	0.046624698
254	0x39c1266d	0.00036840458
255	0xbd9496d6	-0.07255332

FCNet.3.bias f4 [300]
0	0x3b55f780	0.0032648742
1	0x3d815746	0.06315474
2	0x3d03670b	0.03208069
3	0x3d6331b4	0.055467322
4	0x3d2050ee	0.03913968
5	0x3cd58abb	0.026067128
6	0x3d3a75e4	0.045522586
7	0x3d23ea0c	0.040018126
8	0x3d7ea319	0.06216726
9	0x3d1b4a7f	0.037912842
10	0x3c4f5b09	0.012655982
11	0x3d60fe04	0.05492975
12	0x3d09a434	0.033603862
13	0x3d2bba1f	0.041925546
14	0x3d83d4c4	0.06437066
15	0x3d7750b0	0.060379684
16	0x3d5f8b2c	0.054576084
17	0x3d521213	0.05128677
18	0x3cd72f15	0.026267568
19	0xbb93bd06	-0.0045086173
20	0x3cb243fd	0.021760935
21	0x3d4d6688	0.05014661
22	0x3c085b11	0.008322493
23	0x3d10d616	0.03536042
24	0x3d99eeba	0.075162366
25	0x3bbd9aea	0.0057862895
26	0x3d17849f	0.03699171
27	0x3cd197ca	0.025585074
28	0x3d32921e	0.04359638
29	0x3d3f62cb	0.046725076
30	0x3d5061c6	0.050874494
31	0x3cba14c6	0.022714984
32	0x3cbdfae7	0.023190929
33	0x3cce2c51	0.025167616
34	0x3ccc6926	0.024952482
35	0x3d564771	0.052314226
36	0x3d7ec382	0.06219817
37	0x3c7cc88c	0.0154286735
38	0x3db43cc8	0.088006556
39	0x3d4de234	0.050264552
40	0x3d033269	0.032030497
41	0x3c75f98a	0.015013108
42	0x3d50ea5b	0.05100475
43	0x3d3a3351	0.045459095
44	0x3d0af438	0.03392431
45	0xbba5e930	-0.0050631985
46	0x3d3b9964	0.04580058
47	0x3d2e388c	0.042534396
48	0x3d05a388	0.03262666
49	0x3d92eac8	0.07173687
50	0x3d3c7319	0.046008203
51	0xbb0e42d8	-0.0021707322
52	0x3d1ef057	0.038803425
53	0x3d51a999	0.05118713
54	0x3cfb2acd	0.030660057
55	0x3d6f8344	0.058474794
56	0x3d89398f	0.067004316
57	0x3d53d812	0.051719733
58	0x3d9058d6	0.07048194
59	0xbb57a357	-0.0032903755
60	0x3d82f024	0.063934594
61	0x3d5ac584	0.05341102
62	0x3d57a323	0.052645814
63	0x3bf64235	0.0075152167
64	0x3c3bc5a9	0.0114607
65	0x3d4571ac	0.04820411
66	0x3d87e717	0.06635874
67	0x3d8d283e	0.06892441
68	0x3d139ea0	0.03603995
69	0x3d82bce4	0.06383684
70	0x3c84f4d2	0.01623002
71	0x3d1267ce	0.035743527
72	0xbcac61d0	-0.021042734
73	0x3d2d073f	0.04224324
74	0x3d11b88e	0.035576396
75	0x3cb5f37d	0.02221083
76	0x3c906e87	0.017630829
77	0x3d74a67d	0.059729088
78	0xbc3e6998	-0.011621855
79	0x3d0bd913	0.034142565
80	0x3d7fee8a	0.062483348
81	0x3da3220f	0.079654805
82	0x3d0bdd07	0.034146335
83	0x3d57d271	0.052690927
84	0x3d5dd859	0.054161403
85	0x3c62a02b	0.013832132
86	0x3d720983	0.059091102
87	0x3d196e1f	0.037458535
88	0x3d2fc5b6	0.04291316
89	0x3d68ace6	0.056805514
90	0x3cfbbb7c	0.030729048
91	0x3c412bff	0.011790275
92	0x3d7e2a1e	0.062051885
93	0x3d090901	0.033455852
94	0x3cfa53c5	0.030557523
95	0x3d2e86dd	0.042609084
96	0x3c01dba1	0.007925899
97	0x3cf99040	0.030464292
98	0x3d6116e3	0.054953467
99	0x3ba4e7b4	0.005032504
100	0x3d6ce1e9	0.057832632
101	0x3d4465f2	0.047948785
102	0x3d156d3b	0.036481123
103	0x3cf783e1	0.030214252
104	0x3d763b16	0.060114942
105	0x3c89c778	0.016818747
106	0x3aafc9c1	0.0013411568
107	0x3d7ee0d4	0.06222613
108	0x3cb7a34b	0.022416731
109	0x3d283f54	0.04107602
110	0x3d295b83	0.041347038
111	0x3d114b11	0.03547198
112	0x3d385418	0.045002073
113	0x3cb99bd7	0.022657318
114	0x3cba2514	0.022722758
115	0x3d8b8b73	0.06813707
116	0xbc7c2ccf	-0.015391543
117	0x3d6b1ae3	0.057398688
118	0x3b8ad190	0.0042364076
119	0x3d41d86e	0.047325544
120	0x3d09e522	0.033665784
121	0x3d269428	0.040668637
122	0x3c5ab782	0.013349416
123	0x3d4e5737	0.050376143
124	0x3d2c8749	0.042121205
125	0x3d2dbdd4	0.042417362
126	0x3d869581	0.06571484
127	0x3d6e3f92	0.058166094
128	0x3d13d788	0.03609422
129	0x3d80f51a	0.062967494
130	0x3d9986c0	0.07496405
131	0x3d7c4878	0.06159255
132	0x3d8a5120	0.067537546
133	0x3d6abccc	0.057308957
134	0x3d2bb497	0.04192027
135	0x3c8c111a	0.017097998
136	0x3d28fe14	0.041257933
137	0x3ccf8950	0.02533403
138	0x3d59a9cf	0.053140458
139	0x3c98b502	0.018640999
140	0x3cd03354	0.0254151
141	0x3d0d71b0	0.03453225
142	0x3ae4df6a	0.0017461602
143	0x3da92443	0.082588695
144	0xbbf3c56c	-0.007439306
145	0x3d88aa3c	0.06673095
146	0x3d4d455e	0.05011498
147	0x3d6de1f9	0.058076832
148	0x3d0fc574	0.035100415
149	0x3d5c180e	0.053733878
150	0x3d12cb3b	0.035838347
151	0x3cfb7e92	0.030700002
152	0x3d244fac	0.040115044
153	0x3d6e9ed3	0.058256935
154	0x3da5306e	0.08065878
155	0x3d616015	0.05502327
156	0x3cef150f	0.029184846
157	0xba5f0f9a	-0.00085091
158	0xbcadf6e6	-0.021235894
159	0x3d516094	0.051117495
160	0x3d984873	0.074356936
161	0x3d4f6ccf	0.050640877
162	0x3d490003	0.049072277
163	0x3c1f47f0	0.009721741
164	0x3d2ddce0	0.04244697
165	0x3ce21526	0.027597975
166	0x3d642e0e	0.055707984
167	0x3c799c5b	0.015235032
168	0x3d53f44a	0.051746644
169	0x3d7ffba9	0.06249586
170	0x3d3e7453	0.046497654
171	0x3ceea731	0.029132457
172	0x3d803739	0.06260533
173	0x3d34b2d2	0.04411585
174	0x3d80988a	0.062790945
175	0x3caa6226	0.020798754
176	0x3d330784	0.04370834
177	0x3d29abbb	0.04142354
178	0x3c38fa76	0.011290183
179	0x3d5ccfc9	0.053909097
180	0x3d518119	0.051148508
181	0x3d3875da	0.045034267
182	0x3d528200	0.05139351
183	0x3cceb520	0.025232852
184	0xbb59c3e3	-0.003322833
185	0x3d7bd22f	0.061479744
186	0x3d1f3a7e	0.038874142
187	0x3d47a80f	0.048744258
188	0x3d88d840	0.066818714
189	0x3c9b2fe7	0.01894374
190	0x3ceb8813	0.028751409
191	0xbbd525a9	-0.0065047336
192	0x3c8f2c75	0.017477253
193	0x3d06e5c9	0.032933984
194	0x3cebec6a	0.028799254
195	0x3b92e4e2	0.0044828514
196	0xbbba28da	-0.0056811394
197	0x3cf90ff3	0.030403113
198	0x3cc85eeb	0.024459323
199	0x3cbc7e4b	0.02300944
200	0x3d1e3e00	0.038633347
201	0x3c42cbd8	0.01188942
202	0x3d51149e	0.051045053
203	0x3d7368ed	0.059426237
204	0x3d3cc4a8	0.046085984
205	0x3d63968c	0.055563495
206	0x3ca80466	0.02050991
207	0x3ccbca2d	0.024876678
208	0x3d1d7706	0.038443588
209	0x3c05597b	0.00813901
210	0x3d1cb320	0.038256764
211	0x3d75ec76	0.06003996
212	0x3c955eb9	0.018233644
213	0x3d63e3bf	0.055637117
214	0x3ca2c60f	0.019869832
215	0x3cc8f2e5	0.024529884
216	0x3d78c37d	0.060733307
217	0x3d4b4bcb	0.04963283
218	0x3d6e1c52	0.058132477
219	0x3d2affca	0.041747846
220	0x3d9bd28e	0.076085195
221	0x3d898a28	0.06715804
222	0x3b895923	0.004191534
223	0x3d08e418	0.033420652
224	0x3d1a8406	0.037723564
225	0x3d720fae	0.059096985
226	0x3d7890f6	0.06068512
227	0xbc81798f	-0.015805034
228	0x3d6636a0	0.05620444
229	0x3d2b593a	0.04183314
230	0x3c15cc9d	0.009143022
231	0x3d4c27d5	0.049842674
232	0x3d864227	0.06555586
233	0x3d363b09	0.044489894
234	0x3d3bb780	0.045829296
235	0x3cd8a690	0.02644661
236	0x3d586ae3	0.05283631
237	0x3cc6a9a1	0.024250807
238	0x3cf714e0	0.030161321
239	0xbc870bf9	-0.016485201
240	0x3d5e0b00	0.05420971
241	0x3d14ec00	0.03635788
242	0x3d356282	0.044283397
243	0x3b902ad1	0.0043996354
244	0x3d63acc5	0.055584688
245	0x3b52732f	0.0032112112
246	0x3bf80118	0.0075684898
247	0x3d3f015e	0.046632163
248	0x3d3493b5	0.044086177
249	0x3c5c97a5	0.013463889
250	0x3d043a7b	0.032282334
251	0x3d25eec2	0.0405109
252	0x3c4de329	0.012566366
253	0x3d0d2b6b	0.034465235
254	0x3d2a8061	0.041626338
255	0x3d1dc718	0.03851995

FCNet.4.weight f4 [300]
0	0x3f998bba	1.1995766
1	0x3e9c469b	0.30522618
2	0x3fd41846	1.6569908
3	0x3f124c06	0.5714725
4	0x3f1957a1	0.59899336
5	0x3ff37b04	1.9021916
6	0x3f2750fe	0.6535796
7	0x3f3595dc	0.7093179
8	0x3f4f8325	0.81059486
9	0x3f23551f	0.6380176
10	0x3fad77d0	1.3552189
11	0x3f2d25b4	0.67635655
12	0x3f8855b8	1.0651159
13	0x3f6a822a	0.91604865
14	0x3fb3b5e3	1.4039882
15	0x3f5aee1a	0.85519564
16	0x3ebcb287	0.36854956
17	0x3f490540	0.78523636
18	0x3f5bcb4a	0.8585707
19	0x3f8c1f80	1.0947113
20	0x3f915bd5	1.135615
21	0x3ec0bb82	0.37643057
22	0x3fa6d7fd	1.3034664
23	0x3f8faef4	1.1225266
24	0x3f1420b1	0.57862383
25	0x3fa2dc83	1.2723545
26	0x3f3f0407	0.7461552
27	0x3fbbc851	1.4670507
28	0x3f879b91	1.059435
29	0x3f91a57c	1.1378627
30	0x3ebce3d6	0.36892575
31	0x3f0eaa90	0.5572901
32	0x3f8f4660	1.1193352
33	0x3f919fbe	1.1376874
34	0x3f94a995	1.1614252
35	0x3eb468fb	0.35236344
36	0x3fb14439	1.3848945
37	0x3faf5a5d	1.3699452
38	0x3ebe0e29	0.37120178
39	0x3f575ab8	0.841228
40	0x3eea52a0	0.45766163
41	0x3fabbea2	1.3417552
42	0x3f35feb1	0.71091753
43	0x3ec39820	0.38202
44	0x3f66ba69	0.9012819
45	0x3fc813d5	1.5631052
46	0x3f5303c4	0.8242762
47	0x3f1bbb61	0.6083279
48	0x3f81eb36	1.0149906
49	0x3f53d34e	0.827443
50	0x3f25fc25	0.6483787
51	0x3f93c3d7	1.154414
52	0x3faf6d1f	1.3705176
53	0x3fb27265	1.394116
54	0x3f28fd9f	0.66011995
55	0x3f2f051f	0.6836719
56	0x3f08fb15	0.5350812
57	0x3f4986f2	0.78721535
58	0x3f17c27b	0.5928113
59	0x3fa3d91a	1.2800629
60	0x3eff9c6a	0.49924022
61	0x3ec512a4	0.38490784
62	0x3ec078ff	0.37592313
63	0x3fabe683	1.3429722
64	0x3fa1364d	1.2594696
65	0x3fbadcc9	1.4598628
66	0x3f6f5953	0.9349567
67	0x3f7e0469	0.9922548
68	0x3f12d8e0	0.57362175
69	0x3fcb8a05	1.5901495
70	0x3f9deda3	1.2338146
71	0x3f409706	0.75230443
72	0x3fa55f75	1.2919756
73	0x3f3d4b01	0.7394257
74	0x3fad6141	1.3545305
75	0x3f43ab0a	0.7643286
76	0x3f84cb81	1.0374604
77	0x3f117835	0.56824046
78	0x3f9e0b98	1.2347288
79	0x3ec749c7	0.38923475
80	0x3f374e8d	0.71604234
81	0x3f844f19	1.0336639
82	0x3fa38e2e	1.2777765
83	0x3eaf95d2	0.3429399
84	0x3ea790fb	0.327278
85	0x3f9d656f	1.229658
86	0x3f1821f9	0.5942684
87	0x3f2341c1	0.6377221
88	0x3f3c2296	0.73490274
89	0x3f7687d2	0.96300995
90	0x3fa237eb	1.2673315
91	0x3f896579	1.0734092
92	0x3ea2dc79	0.31808832
93	0x3f29e835	0.66369945
94	0x3fb63bd8	1.4237013
95	0x3f961def	1.1727885
96	0x3fba83e9	1.4571506
97	0x3f4d30c2	0.80152524
98	0x3ea7f963	0.32807454
99	0x3f907622	1.1286051
100	0x3e92d819	0.28680494
101	0x3eca8d8f	0.39561126
102	0x3f486dcc	0.78292537
103	0x3fab7e10	1.3397846
104	0x3f1b74b5	0.60724956
105	0x3f940fa6	1.1567276
106	0x3f84133a	1.0318367
107	0x3fbb9ce4	1.4657254
108	0x3fb00aad	1.3753258
109	0x3fbcb467	1.4742554
110	0x3f08f371	0.5349646
111	0x3fb0b271	1.3804456
112	0x3fbcd9fe	1.4754026
113	0x3f1c0f1b	0.6096055
114	0x3f17435c	0.5908716
115	0x3ec6b156	0.38807172
116	0x3f933a6e	1.1502206
117	0x3ef321ce	0.47486728
118	0x3f990d64	1.1957211
119	0x3f7529bc	0.95766807
120	0x3f86401b	1.0488313
121	0x3f6f8885	0.9356769
122	0x3fe3b803	1.7790531
123	0x3fb20cbf	1.391014
124	0x3fc1dd1a	1.51456
125	0x3f943a78	1.1580343
126	0x3f7f9d23	0.99849147
127	0x3fb16424	1.3858685
128	0x3f4e49a1	0.805811
129	0x3f6d8201	0.92776495
130	0x3fc00c8d	1.500383
131	0x3fa1cdf2	1.2640975
132	0x3f18a5f8	0.5962825
133	0x3f476eb0	0.7790327
134	0x3fa1d2e1	1.264248
135	0x3f997fc1	1.1992112
136	0x3f33361e	0.7000445
137	0x3f4a3d17	0.78999466
138	0x3e94e9b6	0.29084557
139	0x3ffc0f7f	1.9692229
140	0x3fb21cff	1.3915099
141	0x3fafd801	1.3737794
142	0x3fa54d94	1.29143
143	0x3f90212d	1.1260124
144	0x3fb3ef11	1.4057332
145	0x3f236a6b	0.63834256
146	0x3f8345ef	1.0255717
147	0x3f1969c5	0.59927016
148	0x3f99ef3b	1.2026132
149	0x3ebd7eb9	0.37010744
150	0x3f16dd7b	0.589317
151	0x3f9e66fb	1.2375177
152	0x3ef5a18f	0.47974822
153	0x3f9e9122	1.2388041
154	0x3f9ab71a	1.2087128
155	0x3e96aae5	0.29427257
156	0x3faa49ef	1.3303813
157	0x3f3a86b5	0.72861797
158	0x3fbdbb4e	1.4822786
159	0x3f404b1e	0.7511462
160	0x3eb71147	0.3575537
161	0x3eab2747	0.33428404
162	0x3f61afc5	0.8815883
163	0x3fb16922	1.3860209
164	0x3f7cbe02	0.9872743
165	0x3f82fcfa	1.0233452
166	0x3fadb8a3	1.3571972
167	0x3f8b4f32	1.0883543
168	0x3eb91a2b	0.36152777
169	0x3f107440	0.56427383
170	0x3f8d50f3	1.1040329
171	0x3fb0f3bf	1.3824385
172	0x3ec8f3df	0.3924856
173	0x3fb96432	1.4483702
174	0x3ec8a881	0.39191058
175	0x3f952aa2	1.1653636
176	0x3f30bae2	0.6903516
177	0x3f527431	0.82208544
178	0x3f835a20	1.0261879
179	0x3ea727ce	0.32647556
180	0x3f9d8b18	1.2308073
181	0x3ed7986f	0.42108485
182	0x3f46b64e	0.77621925
183	0x3f553f56	0.8329977
184	0x3f59f01e	0.85132015
185	0x3f17b474	0.59259725
186	0x3f56093c	0.8360784
187	0x3f4921cd	0.785672
188	0x3f888710	1.0666218
189	0x3fb7b655	1.4352518
190	0x3fb9bbb3	1.4510406
191	0x3fae2ed8	1.3608046
192	0x3fad916f	1.3560008
193	0x3ecc0f43	0.39855394
194	0x3f278486	0.6543659
195	0x3fa460b8	1.2842016
196	0x3fb70295	1.4297663
197	0x3f439c36	0.76410234
198	0x3f55191e	0.8324145
199	0x3fa0b21f	1.2554358
200	0x3fc555ca	1.5416806
201	0x3f998a81	1.1995393
202	0x3ec6df87	0.38842413
203	0x3ea37927	0.3192837
204	0x3f7d39b8	0.98916197
205	0x3eae418f	0.34034392
206	0x3faf6932	1.3703978
207	0x3f091c02	0.5355836
208	0x3ecb963b	0.39763054
209	0x3fbc6161	1.4717218
210	0x3ede86ac	0.4346212
211	0x3f420d5e	0.75801647
212	0x3fb1754b	1.386392
213	0x3f930637	1.1486272
214	0x3f4f6c56	0.8102468
215	0x3f8962f6	1.0733325
216	0x3eda6ac2	0.42659575
217	0x3ec022b0	0.37526464
218	0x3fa6a860	1.3020134
219	0x3f73d278	0.95243025
220	0x3f1b1fd6	0.6059545
221	0x3f32f3ff	0.6990356
222	0x3fb51ef5	1.4150072
223	0x3ee65f9a	0.44994813
224	0x3fb6c2e5	1.4278227
225	0x3f4d3c86	0.80170476
226	0x3fb17648	1.3864222
227	0x3fbb0330	1.4610348
228	0x3f193da2	0.5985967
229	0x3fae61aa	1.3623555
230	0x3fb016df	1.375698
231	0x3f92bb38	1.1463385
232	0x3f2d8e6b	0.6779544
233	0x3f9e0242	1.2344439
234	0x3fc5ea2b	1.5462087
235	0x3ee15336	0.44008797
236	0x3f7af9fa	0.98037684
237	0x3eeb4de9	0.45957878
238	0x3f23b366	0.63945615
239	0x3fb0af5c	1.3803515
240	0x3f47e2f1	0.7808066
241	0x3f875737	1.0573491
242	0x3fc1eed4	1.515101
243	0x3f9e0ef7	1.2348317
244	0x3e9e74c2	0.30948454
245	0x3f9af1c9	1.2105037
246	0x3f96dbb9	1.1785804
247	0x3f17b61e	0.59262264
248	0x3fb45720	1.4089088
249	0x3fe492b7	1.7857274
250	0x3f9dabd9	1.2318069
251	0x3fa7d5fa	1.3112175
252	0x3f8d4d10	1.1039143
253	0x3f1cd6d7	0.6126532
254	0x3fb7b2e5	1.4351469
255	0x3f4cbb2b	0.79973096
