DDPG_linear/model/Pendulum-v0_actor_target.pt (torch, 497919 bytes, 9 tensors)

FCNet.0.weight f4 [400, 3]
000000 1d 43 f3 3c 83 c5 8d be e7 12 36 bd 0b d9 9d 3d
       0.029695088 -0.27689752 -0.04445162 0.07707413
000010 28 17 27 3e f7 9c dd 3c c6 98 9b bd ae 74 a5 3d
       0.16317427 0.027052386 -0.075974986 0.080788955
000020 c6 bd 3f 3d 9c c9 3a bd a7 40 5a bc 9e c9 c7 bc
       0.04681184 -0.045602426 -0.013321078 -0.02438813
000030 bd 8a 64 bd 43 90 a5 bd 81 48 34 bd 04 0e da 3c
       -0.055796374 -0.08084156 -0.044014458 0.026618011
000040 0c f2 07 be 1b da b2 bc c8 a6 7e 3c c3 f8 08 be
       -0.13275927 -0.021832516 0.015542693 -0.13376145
000050 a8 1c ed 3a 42 d6 7b 3c 4c 4e 54 3d c0 93 07 3d
       0.0018090205 0.015370907 0.051832482 0.03309989
000060 d7 3f ad ba 27 a4 22 bc 96 60 1e bc 83 11 c0 3d
       -0.0013217878 -0.009926832 -0.009666583 0.0937834
000070 b1 1e 32 3e 38 08 5b 3d c1 cb f2 bb 53 48 95 bc
       0.1739452 0.053474635 -0.0074095433 -0.018222963
000080 96 2b 3e bc 2c 32 ee bc cf 00 12 3e d2 5c cc 3c
       -0.011607071 -0.029076658 0.14258121 0.024946604
000090 ad 99 be 3d 50 f2 cb bd a5 84 79 3d ce 45 83 bd
       0.09306655 -0.09958327 0.060917515 -0.064097986
0000a0 4e 3b b7 bc fa b6 f0 bc 62 79 3c bd 14 2e c2 3a
       -0.022367146 -0.029384125 -0.046014197 0.0014814758
0000b0 95 dd 6d 3c 8f 1a b3 3d 46 6c 28 be f6 56 8f bd
       0.014518161 0.087453 -0.16447553 -0.06999008
0000c0 7c 77 23 bd 5c 47 55 bd fb 07 e1 bc c0 dc 9d bc
       -0.03990887 -0.052070007 -0.027469626 -0.0192703
0000d0 10 00 d4 3d 6d 8d 0b bd 84 43 c3 bd 78 f0 ff 3b
       0.103515744 -0.03407042 -0.09534362 0.0078106485
0000e0 74 c1 2e 3b 09 20 c2 3d f8 93 ed 3d 9b c7 15 3d
       0.00266656 0.094787665 0.116004884 0.03656731
0000f0 d4 eb b2 ba 40 ef 86 3d 4c 3c 22 3d da c4 cb 3c
       -0.0013650605 0.06588602 0.039608285 0.02487414
000100 dd 12 a7 be 88 6a 87 bd 76 a3 37 bd bb 7a b1 bd
       -0.3263158 -0.06612116 -0.044833623 -0.08665987
000110 d1 67 d0 bc 46 a9 6e 3c 52 99 bf bd 5d 1f cb 3c
       -0.025440129 0.014566725 -0.093554154 0.024795229
000120 af d4 c8 bc bd f2 00 be d3 03 a6 bc 2b d4 14 3e
       -0.024515478 -0.12592597 -0.020265495 0.1453406
000130 b8 14 a3 bd cc 22 92 bd f9 41 00 3d ac 56 21 be
       -0.07962936 -0.07135543 0.031312916 -0.15755719
000140 96 f1 c5 3b 88 9e 24 bd 59 58 ed bc a9 f5 31 bc
       0.006040762 -0.04019025 -0.028972792 -0.010861793
000150 a2 42 33 bd 99 2a a8 bd 93 92 a2 bc 7f 82 8f 3d
       -0.043764718 -0.0821125 -0.019845283 0.07007312
000160 ee 20 59 3e 97 f8 40 3d 78 63 6a 3c 26 87 91 3e
       0.21203968 0.047112074 0.014305942 0.28423423
000170 ff 67 9d 3d 29 82 5c bc 9e 61 4c 3c a2 4b d2 bb
       0.07685851 -0.013458767 0.012474446 -0.0064177075
000180 4e 27 09 bd f6 fd 3e bc 59 5f fd 3a 51 d5 78 bd
       -0.03348475 -0.011657229 0.0019330784 -0.06075031
000190 03 32 9b 3d dd 1c 96 bd 50 1c fd 3d b7 55 1e 3e
       0.07577898 -0.07329724 0.12358916 0.15462385
0001a0 e8 ab 47 3d 11 b1 7a bd a1 f7 44 bc 7f ba 51 bc
       0.048747927 -0.06120402 -0.01202193 -0.012800812
0001b0 99 f7 95 bc 85 0b d0 3d 77 19 15 bd d7 9d b1 bc
       -0.01830654 0.10158447 -0.03640124 -0.02168171
0001c0 c1 ed b8 bd 99 b9 8c bc 65 48 93 bc d2 da c7 bd
       -0.09029723 -0.017178344 -0.017978856 -0.097585335
0001d0 92 f7 ad 3c bc df 09 bd 31 f5 30 3e 78 a8 f9 3a
       0.021236215 -0.033660635 0.17281033 0.00190474
0001e0 5e 38 a4 bd fe 2b 0d bc a3 38 e6 3c 5a 32 97 bd
       -0.08018564 -0.008616446 0.028103178 -0.07382651
0001f0 ff 6f fd bc 22 4d 50 bd 03 db 88 bc 6b 4e 60 bb
       -0.030937193 -0.05085481 -0.016705995 -0.0034226428
000200 18 1c 19 3c 45 f7 57 3c 15 de b6 bd 62 1c ae 3c
       0.009345077 0.013181512 -0.089290775 0.021253768
000210 8d 3c 02 bd 5e ba 0c bd fc 2f c0 bb 2d 04 3b bd
       -0.031796027 -0.03435742 -0.005865095 -0.04565828
000220 c9 aa 6f bd 58 4f 9a bc 2b bd d6 bc be cb af bd
       -0.058512483 -0.018836662 -0.02621325 -0.085837826
000230 a9 e9 4f 3d ea b0 73 bd d6 38 5f bc 3a 52 42 bc
       0.050759945 -0.05949489 -0.013624391 -0.011860425
000240 ff 1f 36 bc f6 91 25 3e b8 95 a1 3a ec 16 44 3e
       -0.011116027 0.16168961 0.0012327945 0.19149369
000250 bc 28 85 bd 63 08 5e bd 2c b1 8b bc 92 96 64 3d
       -0.0650191 -0.054207217 -0.017052256 0.055807658
000260 3a 9a 6f bd 6e 8e 14 bd 8e dc 49 bd b1 33 51 3c
       -0.05849669 -0.036268644 -0.049282603 0.012768672
000270 0d ff 8d bd 63 3f 3e bd e5 24 22 bd 2a e7 93 bd
       -0.06933413 -0.04644717 -0.039585967 -0.072218254
000280 d0 7a e7 bc fa 6e 4b bd e0 0c bc bc a2 b4 be bd
       -0.028256804 -0.049666382 -0.022955358 -0.09311797
000290 30 80 05 bd ef 8a 9a bc 5a be 08 3e 5b 24 a5 3c
       -0.032592952 -0.018865077 0.13353863 0.020158937
0002a0 8a 1c 4d 3d 12 22 3d be 4c ca 90 bd 8b 29 e6 3d
       0.050076045 -0.18470028 -0.07069835 0.112383924
0002b0 74 29 f0 3d e5 4b 6c 3d 91 c5 df 3c 17 56 e3 bd
       0.117266566 0.057689566 0.027315887 -0.11100405
0002c0 a8 39 d0 bc bd 9c a8 3d 25 7a 59 be d5 1c 13 bd
       -0.025418118 0.082330205 -0.21238 -0.03591617
0002d0 fd c2 a8 bc ee a8 50 bd f2 ed 1e bc f2 e8 d2 bd
       -0.02060079 -0.050942354 -0.009700285 -0.10298337
0002e0 cd 7f f1 3d e4 be 5e 3d e8 4d 52 bd 2e b0 de bc
       0.11791954 0.054381266 -0.05134383 -0.027183618
0002f0 7a 87 31 bd a8 a3 41 bd d6 e2 fc bc 80 cc 4f bb
       -0.04334209 -0.047275215 -0.030869883 -0.0031707585
000300 1b 87 b7 bc 0b ea 0b 3e f8 b2 c6 3c 0b f6 a1 b9
       -0.02240329 0.13663499 0.02425526 -0.0003089163
000310 2a 67 77 3d c8 da 04 bc 6a ee f8 3d 41 55 01 be
       0.06040112 -0.008108802 0.12154849 -0.12630178
000320 8c 10 57 bd 90 2c 76 be ba ba 5e 3c ec f6 24 bc
       -0.052506015 -0.24040437 0.013594324 -0.010068636
000330 bd f8 d1 bc f4 49 6a bd 61 57 83 bc da 53 d8 bc
       -0.025631303 -0.057199433 -0.016032876 -0.026407171
000340 81 2a bf bd 58 9f 0a bd 58 33 f0 bd 7d c3 41 bc
       -0.09334279 -0.03384337 -0.11728543 -0.011826393
000350 18 82 8e bd b1 43 a2 3d 1e fe 70 3e 44 90 5f 3d
       -0.06958407 0.07923067 0.23534438 0.05458094
000360 00 00 d3 3b 90 42 83 3d f5 c0 7f 3c 0e e2 05 3d
       0.006439209 0.0640918 0.015609969 0.032686286
000370 26 a0 e5 3c f2 c6 f1 3c 20 4f 95 bd 7c 45 cf 3c
       0.028030466 0.02951381 -0.072904825 0.025301687
000380 66 00 93 3d 5f c4 66 bd 81 ba b7 bc 13 00 14 bd
       0.0717781 -0.056339618 -0.0224278 -0.036132883
000390 a5 fb ac bd 62 b7 61 bd 04 c1 0a bd cd 6c 59 3d
       -0.08446435 -0.055106528 -0.03387548 0.053082276
0003a0 b8 e3 a6 3d 4d f2 0a 3d 5b d3 bd 3d 54 d1 0e 3e
       0.08148903 0.033922482 0.092688285 0.1394704
0003b0 eb e7 a3 3c e1 2f 29 bd 3c 02 1a bd 3e de aa bb
       0.020008048 -0.041305427 -0.037599787 -0.0052144816
0003c0 2f 6a f3 bc 3f 0b 0f be cd a4 e3 bc 70 4c cb bb
       -0.029713718 -0.13969134 -0.027788544 -0.0062041804
0003d0 57 c0 2c bd f7 ed 26 bc dc af a5 3d b1 e8 5d 3e
       -0.042175617 -0.010188571 0.08090183 0.21670796
0003e0 c1 85 3f 3d bf 52 56 3d ca b3 5b be ac 21 ee bb
       0.046758417 0.052325007 -0.21455303 -0.0072671976
0003f0 bd 7b bd bc 1b 03 1c bd 3d a1 11 3b d2 8c 82 bc
       -0.023130292 -0.0380889 0.002222135 -0.015936289

FCNet.0.bias f4 [400]
000000 a5 74 ab bc 64 a1 f4 bb 12 77 90 3d 3d 01 04 3e
       -0.020929644 -0.0074655283 0.07053961 0.12891097
000010 6b 0b 50 3d f6 5d a2 3b c6 5a fb 3c fb 73 99 3d
       0.05079214 0.0049550487 0.030682933 0.07492825
000020 30 b9 c9 3d e6 9a a2 3c 69 6c bd 3d 03 66 a3 3c
       0.09849775 0.019849252 0.09249193 0.019946104
000030 a1 59 b6 bd 1e f6 27 3e 5a ed bf 3d 0e 74 b0 bd
       -0.08903814 0.1640248 0.09371443 -0.08615886
000040 93 48 83 3d 1d 02 2d 3d 63 7f 19 3e 48 b9 5b 3c
       0.06410327 0.042238344 0.1499 0.013410874
000050 63 4b 1b 3d e2 d3 8a 3c e8 34 01 3e 50 1b 94 3d
       0.03791369 0.016946737 0.12617838 0.07231772
000060 cf 74 60 3d 78 92 fb bd 1f bf b8 3c d9 1f e4 3d
       0.054798897 -0.12283796 0.022552071 0.11138887
000070 a9 40 1a 3e c5 59 8d 3c ab a1 21 3c 26 be bf 3d
       0.15063728 0.01725472 0.009865205 0.0936244
000080 7f 0f 0a 3e 90 55 40 bc cd e1 87 bc f5 39 1c 3e
       0.13482474 -0.01173915 -0.016587162 0.15256484
000090 16 48 38 3d f3 9e 73 3d c5 a3 c9 3d 56 b3 df bc
       0.04499062 0.059477758 0.0984569 -0.027307194
0000a0 1a 6a 80 3d 98 7f 02 3e 65 ad d2 3d 45 f6 91 3d
       0.06270237 0.12743986 0.10286979 0.0712705
0000b0 bc ff 1a 3e 06 bf 13 3e bd ee fd bd 8a 23 1c 3e
       0.15136617 0.14428338 -0.12399051 0.15247932
0000c0 d6 f3 38 3d 53 d6 a1 bd c0 48 1a be d4 5e 1b 3e
       0.045154415 -0.07902207 -0.15066814 0.15172893
0000d0 06 a0 66 3d 89 dd e1 3d 30 c7 93 3d 04 25 95 3c
       0.056304954 0.110285826 0.072157264 0.018206127
0000e0 ac 16 4e bb 77 7d a5 3b dc 98 6e 3d 2b 13 6a bd
       -0.003144662 0.005050357 0.058251247 -0.057147186
0000f0 c3 e2 12 3e e6 3b 83 3d 0e 65 a9 3d 8a f8 04 3e
       0.14344315 0.06407909 0.08271228 0.12985435
000100 83 9a 08 3d 2e f5 35 3d c6 07 9b bc fd eb fc bc
       0.03335048 0.044423275 -0.018924605 -0.030874247
000110 4d 97 20 3e 3b f9 b5 3d e0 06 4c 3d 4e f0 33 bd
       0.15682717 0.088854276 0.049811244 -0.043930344
000120 d5 86 92 3d b1 a7 a4 3d d5 ef 92 3d ae d8 15 3e
       0.071546234 0.08039797 0.071746506 0.14633438
000130 0f f2 02 3e c7 e4 38 3d 2f c0 fb bc 4d 1a 32 3e
       0.1278765 0.045140054 -0.030731289 0.17392845
000140 41 c4 91 3d ab 08 cb 3d e8 84 0f 3c f6 23 ea bc
       0.071175106 0.09913763 0.008759715 -0.0285816
000150 70 5a 19 3e fc bf 82 3d 78 60 1e 3e 20 9e d3 3d
       0.14975905 0.06384274 0.15466487 0.10332894
000160 f9 d2 9c 3d ee 3b ea 3d db b9 8e bc ed 78 26 3e
       0.07657427 0.11437212 -0.017422607 0.16257067
000170 70 22 8f 3d 0c 80 08 3e 99 73 18 3e 34 f7 d4 3c
       0.0698899 0.13330096 0.14887847 0.025996782
000180 c7 93 d7 3d 71 2c 0d 3e c0 a5 88 3d ec c5 8f 3d
       0.10526233 0.13786484 0.06672239 0.070201725
000190 7f 52 b1 3d 1d 15 ea 3d 54 7a 02 3e 0a 74 f0 3d
       0.08658313 0.11429808 0.12741977 0.11740883
0001a0 9a 6d 4b 3d c0 c4 0c 3e ae 32 f1 3d 84 b6 86 bc
       0.04966507 0.13746929 0.117772445 -0.016444452
0001b0 45 b8 2c 3c 04 4c 88 3d 4c 05 e5 bc 46 cd d3 3d
       0.01054198 0.06655124 -0.027956627 0.10341887
0001c0 67 44 20 3d 12 9d 27 3d df 3e 18 3e 8f c5 88 3d
       0.039127734 0.04092128 0.14867733 0.06678306
0001d0 48 1b 8f 3d 35 93 72 3c 2a 39 1c 3e f5 5e 01 3e
       0.06987625 0.014805605 0.15256181 0.1263388
0001e0 26 f0 0c 3e be 36 d0 bb e5 1e 0a be 50 b5 12 3e
       0.13763484 -0.006354182 -0.13488348 0.14326978
0001f0 bf f8 8e 3c 4d 0b 00 3e ec 69 ee 3d 5c b2 9c 3d
       0.017452596 0.12504311 0.11641297 0.07651207
000200 82 be eb 3d 3e b2 04 3e b8 66 1f 3e cc 85 01 3e
       0.11510946 0.12958619 0.15566528 0.12648696
000210 39 97 6b 3d a1 f9 8d bc 5d 7e bc bd 27 71 97 3d
       0.057517264 -0.017330946 -0.092037894 0.07394629
000220 f6 8a c2 3d 35 f8 3a bd f0 6d 0a 3e a0 7b 02 3e
       0.09499161 -0.045646865 0.135185 0.12742472
000230 19 99 f3 bb a6 32 37 bd 8b a6 08 3e b3 70 aa 3c
       -0.007434022 -0.044726036 0.13344781 0.020805692
000240 e1 59 c3 3d 84 4b 4d 3d 1f 6f 85 3d 60 de 86 3d
       0.095386274 0.050120845 0.06515335 0.065853834
000250 1b bb 06 3e f0 85 22 3d 39 1d 18 3e dc 04 ec 3d
       0.13157313 0.039678514 0.14854898 0.11524364
000260 d3 04 55 bd d4 47 d5 3d 4b 12 65 3b 62 ef f9 3d
       -0.052006554 0.10414091 0.003495353 0.12203862
000270 11 80 38 bd 06 ea 87 bc dc 86 74 3d c4 c7 8b 3d
       -0.04504401 -0.016591083 0.059698924 0.06825212
000280 81 1e 95 bc b5 66 92 3d 83 04 25 3e 8d a4 bb 3c
       -0.018203022 0.07148496 0.16115002 0.022905612
000290 2b 32 78 3c 91 d4 64 3d e7 1c ba 3d 82 d7 a2 3d
       0.01514868 0.05586678 0.09087544 0.07951261
0002a0 c6 66 bf 3c c3 59 a9 3c f0 f4 f4 3d 6a 9e a0 3c
       0.023364436 0.020672685 0.119607806 0.019606788
0002b0 37 67 c8 3d 0c 90 cf 3c 0c e5 ef 3d d6 3d b2 3d
       0.09785312 0.025337242 0.11713609 0.087032005
0002c0 8b 1f 14 3e 77 5b 8e 3d d2 a8 4a 3d ad cc 76 3d
       0.14465158 0.06951039 0.049477406 0.060253788
0002d0 3a ce 8b bc b8 75 85 3d f9 e0 75 3c 57 fc 10 3e
       -0.01706611 0.06516594 0.015007251 0.1415876
0002e0 6b b4 fe 3d 2f f5 0c 3d 65 16 0f bb d4 7b 4a 3d
       0.12436756 0.034413513 -0.0021833417 0.049434498
0002f0 da d2 34 3d 94 8e 6d 3d 09 7b a0 bc 98 3a c9 3d
       0.044146396 0.0579973 -0.019589918 0.09825629
000300 10 4c ec 3c 4f 87 bf 3d be cb 05 be 1b 3c 1a 3c
       0.028844863 0.0935198 -0.13066003 0.009413744
000310 a9 34 8a 3d 31 52 e0 3b 84 99 cf 3d cf b7 cd 3d
       0.067483254 0.0068457355 0.10136703 0.10044824
000320 23 af 18 3e c4 55 d3 3d 0b a5 0c 3e 61 52 95 3d
       0.1491056 0.10319093 0.13734834 0.07291103
000330 dc 9b 18 3e d4 33 ee 3d 30 50 7e bc 05 a2 33 3d
       0.14903206 0.11630979 -0.015522048 0.043855686
000340 04 f8 f4 3d ee bd 70 bd 18 de 15 3e c7 e6 9e 3d
       0.11961368 -0.05877488 0.14635503 0.07758861
000350 99 dc 82 3d 92 8a 69 3d 54 87 05 3e 7b b9 7d 3d
       0.06389732 0.057016917 0.13039905 0.061944466
000360 be bb 0f 3e fa 4b 74 3d c1 82 c3 bd ed e3 d1 3d
       0.14036462 0.05964277 -0.09546424 0.102485515
000370 2d e8 24 3e b3 f8 c0 3c 0f f9 a9 3d 75 8a 8f 3d
       0.16104193 0.023556089 0.08299457 0.070088305
000380 94 c6 8d 3d 5d db c6 3d c9 2a 95 3c 26 48 94 bc
       0.069226414 0.09709809 0.018208878 -0.01810081
000390 1f 70 80 3d de 2e 5d 3d ac f5 4c bd 54 be 81 3d
       0.062713854 0.053999774 -0.05003898 0.0633513
0003a0 c5 e9 63 bd f2 ab 81 3d 9e b9 21 3e 54 be ae 3c
       -0.055642862 0.06331624 0.15793464 0.02133099
0003b0 49 6d 0d bd 4d 11 9b 3d 2a 62 84 3c fc cb d5 3c
       -0.03452805 0.07571659 0.01616009 0.026098244
0003c0 29 18 02 3e 2c f7 ad 3b d8 26 0a 3e aa a1 a5 3d
       0.12704529 0.005309006 0.1349138 0.080874756
0003d0 d2 77 de bc 5a fb 8b 3d 8e eb a2 3d 49 6b ba 3d
       -0.027156744 0.06835051 0.07955085 0.09102494
0003e0 ec 8c 25 bd b4 90 a3 3b 3b 54 10 3e 5c 06 09 3e
       -0.040417597 0.004991615 0.14094631 0.13381332
0003f0 d1 05 22 3e 9d 0b b5 3d 43 d8 ca 3d 07 c9 42 bd
       0.15822531 0.08840106 0.0990453 -0.047554996

FCNet.1.weight f4 [400]
000000 de 6d b0 3f d4 b7 8d 3f 0a b7 78 3f 73 70 2b 3f
       1.3783529 1.1071725 0.97154295 0.6696846
000010 3e 73 5c 3f 6a 81 7e 3f 99 12 6d 3f 5a a0 60 3f
       0.86113346 0.9941622 0.926065 0.8774468
000020 dc 09 37 3f ee 78 82 3f e5 91 27 3f 7b 1c 80 3f
       0.7149942 1.0193155 0.6545699 1.0008692
000030 f5 d0 92 3f 22 70 11 3f c4 a0 63 3f 96 13 ae 3f
       1.1470019 0.56811726 0.88917184 1.3599727
000040 62 7d 4c 3f b3 17 66 3f e6 1c 62 3f 1a ec 64 3f
       0.7987882 0.8987991 0.88325346 0.8942276
000050 03 a2 60 3f 8f 24 b4 3f 23 79 20 3f a4 0b 6f 3f
       0.8774721 1.4073657 0.6268484 0.9337714
000060 1d d4 64 3f 57 a1 a0 3f a7 a5 7c 3f 37 58 26 3f
       0.8938616 1.2549237 0.98690265 0.64978355
000070 59 5c 0c 3f da 7e 8d 3f c2 19 a4 3f 00 37 2d 3f
       0.5482841 1.1054337 1.2820361 0.6766205
000080 ec 77 14 3f f5 22 88 3f 6f 31 8e 3f 59 3b 1a 3f
       0.57995486 1.0635668 1.1108836 0.6024681
000090 bc 1a 5d 3f 9b 22 49 3f 7b f7 6f 3f b0 8b 9a 3f
       0.8636892 0.7856843 0.93737 1.2073879
0000a0 c0 12 69 3f e4 bb 44 3f 45 fe 43 3f 87 30 6a 3f
       0.91044235 0.768492 0.7655986 0.91480297
0000b0 6c 78 1b 3f 28 f7 23 3f c3 d9 8b 3f 2b 42 37 3f
       0.60730624 0.64049006 1.0925831 0.7158534
0000c0 a3 1f 68 3f 2a ec 9c 3f ae 52 ab 3f c6 b3 16 3f
       0.90673274 1.2259572 1.3384607 0.5886806
0000d0 db ee 5c 3f fa 45 4c 3f 3f ad 41 3f 21 9c 86 3f
       0.86301965 0.79794276 0.7565498 1.0516397
0000e0 6b 85 87 3f f8 74 75 3f 50 a7 78 3f a5 26 a4 3f
       1.0587591 0.95881605 0.971303 1.2824293
0000f0 a3 60 1c 3f 95 73 83 3f 60 66 58 3f f9 0a 3f 3f
       0.61084956 1.0269648 0.8453121 0.7462612
000100 69 f6 72 3f 6f ee 4e 3f 2e 6c 8a 3f b7 3e 9a 3f
       0.9490724 0.8083257 1.0814264 1.2050389
000110 50 af 13 3f b9 a6 41 3f 1a 9f 7e 3f 71 3e b6 3f
       0.5768938 0.75645024 0.9946152 1.4237806
000120 62 84 3f 3f 91 0b 53 3f 3c 83 79 3f f8 74 25 3f
       0.74811375 0.82439524 0.9746587 0.64631605
000130 d1 01 4a 3f 1a 9f 46 3f 08 05 8f 3f c1 7e 1c 3f
       0.7890902 0.7758652 1.117341 0.6113091
000140 3e e4 54 3f 1e 44 2d 3f 62 57 8e 3f 3e 77 87 3f
       0.8316077 0.67682064 1.1120417 1.0583265
000150 81 1f 07 3f 1f 82 65 3f 47 92 27 3f 11 77 35 3f
       0.52782446 0.89651674 0.65457577 0.70884806
000160 d9 ed 7c 3f 47 67 46 3f da 1c a6 3f 56 c1 2f 3f
       0.98800427 0.7750134 1.2977555 0.6865438
000170 71 db 5f 3f 42 f3 48 3f 37 68 1a 3f bc 50 87 3f
       0.87444216 0.7849618 0.6031527 1.0571513
000180 a9 fd 44 3f 6c 66 46 3f 77 a9 3e 3f 0c a8 68 3f
       0.76949555 0.77500033 0.7447733 0.9088142
000190 89 44 7c 3f bc 79 43 3f aa d1 38 3f 17 5b 45 3f
       0.98542076 0.76357627 0.7219492 0.7709212
0001a0 b1 61 56 3f ae f2 35 3f 9a 10 34 3f 65 75 8f 3f
       0.83742815 0.71073425 0.7033783 1.1207701
0001b0 28 3a 90 3f 5c 62 5b 3f 9e be 92 3f 3d d9 33 3f
       1.1267748 0.8569696 1.1464422 0.70253354
0001c0 f9 cf 5e 3f a3 cd 66 3f 4c 6b 2a 3f 01 5b 47 3f
       0.8703609 0.90157527 0.6656997 0.77873236
0001d0 87 19 50 3f aa 3e 98 3f fe e6 07 3f 54 b1 23 3f
       0.8128895 1.1894124 0.5308684 0.63942456
0001e0 b1 c2 27 3f 7e e9 8a 3f 49 5c 93 3f 11 fb 12 3f
       0.6553145 1.0852506 1.1512538 0.57414347
0001f0 27 6f 74 3f e7 c2 26 3f 22 48 45 3f 58 4d 80 3f
       0.95482105 0.6514115 0.7706319 1.0023603
000200 4e 33 16 3f d1 84 21 3f c4 68 1b 3f 28 ad 76 3f
       0.58672035 0.63093287 0.60706735 0.96357965
000210 d3 b0 69 3f 0c 62 8e 3f 35 d6 b7 3f 3d 0f 7d 3f
       0.9128544 1.1123672 1.4362246 0.98851377
000220 b8 ef 47 3f c7 be a4 3f 52 3f 59 3f 36 cf 28 3f
       0.78100157 1.2870721 0.84862244 0.6594118
000230 46 75 87 3f 75 c8 95 3f 4f 02 23 3f 44 26 9b 3f
       1.0582664 1.17018 0.636754 1.2121053
000240 85 e0 46 3f 49 32 35 3f 36 e2 74 3f d8 26 48 3f
       0.7768634 0.70779854 0.9565767 0.7818427
000250 74 14 1f 3f 2c c1 51 3f 5d 93 0c 3f b5 3b 26 3f
       0.62140584 0.8193538 0.5491236 0.64934856
000260 bf 2b 8d 3f 54 31 24 3f ba 95 a2 3f 51 43 20 3f
       1.1028975 0.6413777 1.2701943 0.62602717
000270 82 a6 9b 3f 11 cb ad 3f 74 25 81 3f 5c 9f a0 3f
       1.2160189 1.3577596 1.0089555 1.2548633
000280 e2 da 87 3f 86 ed 4d 3f ba 19 26 3f 3b 85 6e 3f
       1.0613673 0.80440557 0.64883006 0.93172044
000290 88 75 88 3f 88 01 81 3f 18 18 4e 3f 13 e8 41 3f
       1.0660868 1.0078592 0.80505514 0.7574474
0002a0 47 cf 88 3f cd 39 79 3f 95 21 11 3f 1c 86 93 3f
       1.0688256 0.9735382 0.5669187 1.1525302
0002b0 e5 b1 4b 3f 5e 22 61 3f 2c 17 1b 3f 25 77 5b 3f
       0.7956832 0.87943065 0.6058223 0.85728675
0002c0 4a 93 2a 3f 2a e2 75 3f 9a 94 67 3f 23 d8 71 3f
       0.66630995 0.96048224 0.90461123 0.94470423
0002d0 5b 1d 80 3f 30 43 89 3f b8 44 66 3f 03 05 2b 3f
       1.0008959 1.0723629 0.89948606 0.6680452
0002e0 63 e7 3e 3f a6 20 77 3f ac 56 8a 3f 3c 4b 63 3f
       0.7457182 0.9653419 1.08077 0.88786674
0002f0 97 fb 5f 3f be 3d 47 3f 22 1c 91 3f d9 f5 36 3f
       0.8749327 0.77828586 1.133671 0.71468884
000300 03 9d 78 3f 28 7b 4c 3f cb dd 9c 3f 9e 3d 98 3f
       0.9711458 0.7987542 1.2255186 1.1893804
000310 cb 97 7a 3f 3b 77 79 3f 9f e4 33 3f f1 ca 68 3f
       0.9788787 0.97447556 0.70270723 0.90934664
000320 5b c7 1a 3f dc 2d 31 3f 77 16 1a 3f 5d 25 6d 3f
       0.6046044 0.692106 0.6019053 0.92635137
000330 7f 6b 57 3f 1e 1b 22 3f d6 36 86 3f 7c ef 90 3f
       0.841484 0.6332263 1.0485485 1.1323085
000340 33 ed 2b 3f 24 91 a6 3f ba 8f 12 3f cb be 66 3f
       0.6715881 1.3013043 0.5725056 0.90134877
000350 e3 4a 6e 3f aa 54 55 3f 32 3a 47 3f db 29 89 3f
       0.9308302 0.8333231 0.77823174 1.0715898
000360 35 49 30 3f 35 88 4d 3f d2 55 a6 3f 46 cb 37 3f
       0.68861705 0.8028596 1.299494 0.71794546
000370 1c 74 42 3f 68 db 69 3f 58 26 3b 3f 67 65 71 3f
       0.7595842 0.9135041 0.7310538 0.9429535
000380 20 35 5e 3f bb d3 42 3f 25 da 9c 3f a0 53 a8 3f
       0.8679981 0.76104325 1.2254072 1.315052
000390 ee 80 5c 3f c0 1d 8a 3f eb 7c 95 3f 58 72 89 3f
       0.8613423 1.0790329 1.1678747 1.073802
0003a0 a2 68 91 3f 53 46 6f 3f 95 dc 15 3f 0c d3 87 3f
       1.1360056 0.9346668 0.58539706 1.0611281
0003b0 8b 19 94 3f a0 34 4f 3f b9 23 65 3f 9c 2f 7d 3f
       1.1570295 0.80939674 0.89507633 0.9890077
0003c0 1c 5a 49 3f 5e b5 a4 3f 96 f5 17 3f 46 3e 69 3f
       0.7865312 1.2867849 0.5935911 0.91110647
0003d0 b5 8c 83 3f 48 58 64 3f e4 3b 65 3f 48 b1 3c 3f
       1.0277315 0.89197206 0.8954451 0.7370801
0003e0 9b df 81 3f df a3 8b 3f 49 aa 20 3f 9b 16 48 3f
       1.0146364 1.0909384 0.62759835 0.78159493
0003f0 d1 a7 13 3f 55 3d 5a 3f ba d7 71 3f e8 fa 9b 3f
       0.5767794 0.85249835 0.944698 1.2185946

FCNet.1.bias f4 [400]
000000 2e 0d 7b bd ef fd 50 be 97 fc 46 be a6 1f a6 be
       -0.061291866 -0.20409368 -0.19432293 -0.3244602
000010 08 6e 12 be 62 5a 3d be 65 06 4f be 9e 92 52 be
       -0.14299786 -0.1849151 -0.20217283 -0.20563743
000020 fb ef a8 be 7e f8 ac bd b6 f7 b4 be fb ba 86 be
       -0.3299559 -0.084458336 -0.35345238 -0.2631453
000030 3f 29 fa bd 95 0c e3 be 47 d5 32 be 93 b0 38 bc
       -0.12214898 -0.44345537 -0.17464171 -0.011272567
000040 1e d6 30 be 98 78 5a be 23 d9 3a be 87 48 6c bd
       -0.17269179 -0.21335065 -0.18246894 -0.057686355
000050 de 25 89 be f1 b6 2e bd 33 b6 bb be aa b3 4a bd
       -0.26786703 -0.042654935 -0.36662444 -0.049487747
000060 75 fe 72 be 1a 93 92 bd b6 b7 20 be 1c 91 9d be
       -0.2372988 -0.07156964 -0.1569508 -0.30774772
000070 15 51 d5 be 2e f5 b0 bd c0 ef d3 bc 23 39 d8 be
       -0.41663423 -0.08640514 -0.025871158 -0.42231092
000080 a3 d6 d4 be 34 fb 50 be 9e 42 04 bc 05 f4 c7 be
       -0.41570005 -0.20408326 -0.008072523 -0.3905336
000090 b8 94 5d be 1c 87 51 be b4 e4 65 3a 91 77 06 be
       -0.21638763 -0.20461696 0.0008769736 -0.13131548
0000a0 f2 23 26 be 55 32 a3 be 0f 86 70 be 7d 10 66 bd
       -0.1622465 -0.31874338 -0.2348864 -0.05616807
0000b0 06 89 b7 be b5 e0 bd be 73 f7 9a bd 71 dc a5 be
       -0.35846728 -0.370855 -0.075667284 -0.32394746
0000c0 88 b8 39 be 8a 77 8b bd ee 20 a7 bd b0 3e fb be
       -0.181368 -0.0680991 -0.08160578 -0.49071264
0000d0 30 b0 1b be e7 69 81 be 34 47 7a be 21 65 2c be
       -0.15203929 -0.2527611 -0.24441224 -0.16835453
0000e0 e9 fd 0c bd da 39 f4 bd 0f 1a 06 be 10 3e cf bd
       -0.034421835 -0.11925097 -0.13095878 -0.10119259
0000f0 64 e1 d9 be 8d 09 50 be 11 d9 14 be 9c 2e 9f be
       -0.42554772 -0.20316143 -0.1453593 -0.31090248
000100 b8 65 95 be 3d 2b 78 be df b8 4b bd 4d 66 7a bd
       -0.29179168 -0.24235244 -0.049736854 -0.061132718
000110 9b d7 06 bf 7e 35 84 be be 12 1b be 7c 35 5d 3c
       -0.5267274 -0.2582206 -0.15143868 0.013501521
000120 09 0b 21 be 6f 4d 84 be ed 95 ab bd a6 b7 be be
       -0.15726866 -0.25840327 -0.083782054 -0.37249488
000130 95 30 96 be a3 18 4d be 06 a2 97 bc 57 99 ed be
       -0.2933394 -0.2002893 -0.018509876 -0.46406052
000140 c4 c0 68 be 5c 59 a0 be 93 b8 9f bc fa f3 25 bd
       -0.22729784 -0.31318176 -0.019497192 -0.040515877
000150 36 ec dc be ba 6d 06 be a8 59 d9 be 01 bd af be
       -0.43148965 -0.13127795 -0.42451215 -0.34323886
000160 ae d8 2a be 20 f7 7f be 9e e6 5c ba 48 97 9f be
       -0.16684219 -0.24996614 -0.00084266986 -0.31170106
000170 86 55 4b be 7f be 9e be 1e 3c e5 be b8 dd a9 bd
       -0.19856843 -0.31004712 -0.44772428 -0.082942426
000180 c2 b3 a3 be 2d 06 7a be 4c d9 7c be 19 dc 62 be
       -0.31973082 -0.24416418 -0.24692267 -0.22154273
000190 09 f0 0c bd d3 1b 87 be 1c 63 c7 be bb c2 9e be
       -0.034408603 -0.26388416 -0.38942802 -0.31007943
0001a0 ea 32 6c be 28 36 b7 be de ef ae be 4c 97 6a bc
       -0.23066297 -0.35783505 -0.3416738 -0.014318299
0001b0 fb 8a 4d bc 28 41 86 be db ee f5 bc 7c bb 8f be
       -0.012545343 -0.26221585 -0.030021122 -0.28072727
0001c0 6c 58 86 be 9b 55 d3 bd 50 71 cc be 54 cd 5a be
       -0.26239336 -0.10319062 -0.399302 -0.21367389
0001d0 02 0f 92 be 06 d5 73 bd 99 da df be 33 b4 ad be
       -0.28527075 -0.059529327 -0.43721464 -0.33926544
0001e0 62 cf a8 be 80 fe e0 bc 2d d5 8b bd df 68 d1 be
       -0.3297072 -0.027465105 -0.068277694 -0.40900323
0001f0 4a 8c 6d be ed 48 c8 be 4d dd 88 be 0c d7 e1 bd
       -0.23198047 -0.39118138 -0.2673134 -0.11027345
000200 a4 32 d0 be 97 f6 e6 be 9e eb c4 be 4d 63 69 bd
       -0.40663636 -0.45110008 -0.38461012 -0.056979466
000210 13 81 ca bd 34 49 e9 bc 2a 77 26 bc a3 dc e9 bd
       -0.098879 -0.028477289 -0.010160247 -0.11419036
000220 41 61 8a be d5 f3 4e bb 04 74 5f be 66 7d ab be
       -0.27027324 -0.003157844 -0.218216 -0.3349411
000230 88 2e dc bc 98 8f 1a bd e4 12 ae be ae 8e 4f bc
       -0.026877657 -0.037734598 -0.33998787 -0.012668295
000240 9c e8 a4 be b0 ca 42 be 34 70 00 be e2 a2 92 be
       -0.32208717 -0.19022632 -0.12542802 -0.28639895
000250 48 65 ba be c0 90 9d be 95 bd db be 29 4d bc be
       -0.36405396 -0.30774498 -0.42918077 -0.3677762
000260 7d 17 ac bd cb 67 cf be 57 ec b2 3c 1b 0f c3 be
       -0.084029175 -0.40508875 0.021841211 -0.38097462
000270 a1 fb 42 bd 4d 75 20 bc c5 1d fa bd 67 03 03 3c
       -0.047603253 -0.009793592 -0.12212709 0.007996417
000280 a0 46 48 be 17 7d a0 be 1c 98 df be b4 c8 fe bd
       -0.19558191 -0.31345436 -0.43670738 -0.12440625
000290 af aa 4f be f6 85 56 be 60 4e 5c be 50 16 69 be
       -0.20279954 -0.2094954 -0.21514273 -0.22762418
0002a0 ed 08 cb bd cf b1 2e be 93 1f cf be 64 3b 44 3c
       -0.09913812 -0.17060016 -0.40453777 0.01197705
0002b0 24 3a 9d be 41 a1 63 be 39 d8 cb be d8 23 4f be
       -0.3070842 -0.22229482 -0.39813402 -0.20228517
0002c0 7b 3f c7 be 23 d0 6f bd 1c fd ce bd da ba 05 be
       -0.3891562 -0.058548104 -0.101068705 -0.1305956
0002d0 2c 0f f5 bd 34 b3 b2 bd b0 ad 13 be 5b 66 bd be
       -0.119657844 -0.087255865 -0.14421725 -0.36992154
0002e0 de ab ac be dd 42 82 be 28 d2 35 be 78 7d ce bd
       -0.33724874 -0.25441638 -0.1775595 -0.10082525
0002f0 f9 de e6 bd 55 bf 8e be 43 1d ff bd 3d 18 a5 be
       -0.112729974 -0.2788035 -0.12456753 -0.32245055
000300 e6 cd 72 be 61 8a 65 be 3e 51 86 bd 3f b6 42 bc
       -0.23711357 -0.22416069 -0.065584645 -0.011884271
000310 2e b9 3e be 00 44 42 be 2b 82 c3 be 02 ac c2 bd
       -0.18625328 -0.18971252 -0.38185248 -0.09505464
000320 1e 72 d0 be 3f da 84 be 5b e7 d2 be ae 66 51 bd
       -0.40712065 -0.2594776 -0.41192135 -0.051123314
000330 00 71 6b be ac 09 c4 be b3 99 e2 bd cb 2b 0f bd
       -0.22992325 -0.3828863 -0.11064472 -0.034953874
000340 e8 94 d1 be 16 a8 8f bc c0 05 ce be 1f 52 7e bd
       -0.4093392 -0.017536204 -0.40238762 -0.062090036
000350 2e 11 14 be 48 db 04 be 28 ef a6 be 73 22 fb bd
       -0.14459679 -0.12974274 -0.32604337 -0.1226243
000360 a3 d0 d7 be 3f 0c 50 be 2e 8e 00 bd 48 5c a0 be
       -0.42151365 -0.20317172 -0.031385593 -0.31320405
000370 c2 ee 8a be 6b 60 29 be ce 03 97 be 5f 0b 4c bd
       -0.27135283 -0.16540687 -0.2949509 -0.04981553
000380 d9 87 3a be 28 1e 92 be 18 a5 e5 bd 4f 1d 1d be
       -0.18215884 -0.28538632 -0.1121313 -0.15343212
000390 45 f7 eb bd ed 04 d6 bd 1e e8 0d bd a9 cb d9 bd
       -0.11521772 -0.10450158 -0.034645192 -0.10634548
0003a0 34 d1 78 bd a1 ae 13 be 40 46 da be ac 8b 5c bc
       -0.060746387 -0.14422084 -0.42631721 -0.013461035
0003b0 12 7f 4a be db 0e 6e be e7 6b 08 be bc 7b 36 be
       -0.19775036 -0.23247854 -0.13322411 -0.17820638
0003c0 0c a5 26 be 96 2d cd 3a ed aa ce be c6 f2 3e be
       -0.16273898 0.0015653844 -0.4036478 -0.18647298
0003d0 df f3 b1 bd 60 a4 69 be ec dd 76 be d0 81 90 be
       -0.08689093 -0.2281661 -0.24108094 -0.2822404
0003e0 ea 69 e9 bd 72 62 23 be 7e d2 c0 be 5a 31 6d be
       -0.11397155 -0.15955523 -0.37660593 -0.23163357
0003f0 a5 63 d7 be e1 04 6d be 3e 66 8a bc 0c ac 78 bd
       -0.4206821 -0.23146392 -0.016894456 -0.06071095

FCNet.3.weight f4 [300, 400]
000000 8f 05 2d ba 07 5a eb 3d 99 54 8d bd 31 e8 d3 3c
       -0.00066002546 0.11491781 -0.06900901 0.025867553
000010 39 13 7a 3d 5b c3 0b be e7 39 4e bd fd 4f ed 3c
       0.06105349 -0.13648741 -0.05034819 0.028968805
000020 2e 2c 23 3d 8c 49 ec 3d 8e a1 fb 3d b8 ba ed bd
       0.039837055 0.115374655 0.122866735 -0.116078794
000030 d9 cb a6 3d 82 b0 55 bc 1a 9c 02 bd 54 d0 cd bd
       0.081443496 -0.013042571 -0.03188715 -0.10049501
000040 fc df c5 3d 85 ac 24 3d b1 e6 e0 bc 52 c6 bc 3d
       0.09661862 0.04020359 -0.027453752 0.09217514
000050 29 3b 24 bd 4a 43 c4 3d 28 7d c2 3b 78 c6 e5 3c
       -0.040095482 0.09583147 0.00593533 0.028048739
000060 9c d5 6c 3d 81 d6 95 bd 49 72 4f bd 82 ad de 3d
       0.0578209 -0.07316304 -0.0506461 0.10872938
000070 ea f5 48 bd 07 05 15 3d d5 9a 9d 3d df c1 62 bb
       -0.049062647 0.036381748 0.076955475 -0.003460042
000080 e8 48 c5 bb 70 da 87 3d 66 23 2c 3e db c3 c5 3a
       -0.006020654 0.066334605 0.16810378 0.0015088277
000090 38 1c 46 3d 27 f5 85 3d 73 ce b0 3b 86 6a 84 3d
       0.048366755 0.065409 0.0053957044 0.0646563
0000a0 6a c1 40 3c 1c 72 f5 3d 42 f1 bb 3d 86 36 e3 3c
       0.0117648635 0.11984655 0.09176876 0.02773596
0000b0 d0 1b 85 bc 2d 8e f8 bc 96 5c ba 3d 7b b8 4e 3c
       -0.016248614 -0.030341232 0.090996906 0.012617226
0000c0 32 59 6d 3c d1 50 b3 bc 9a 45 72 3d 74 d9 21 3d
       0.014486598 -0.021889122 0.05914841 0.03951402
0000d0 7f 81 8f 3d 23 08 e0 3d 99 53 51 3d 38 e2 32 bd
       0.07007121 0.10939052 0.051105116 -0.04367277
0000e0 8d 66 49 bd ac 18 b0 3d 9d e7 21 3d 98 c1 b3 bd
       -0.049170066 0.08598456 0.039527524 -0.087771595
0000f0 52 83 c8 3d f4 68 b2 bd 0f 30 1d 3d 00 21 12 bd
       0.09790672 -0.087114245 0.03837591 -0.035676003
000100 1e 57 ca bd 0a 52 ec 3c ca 03 8b bd bd db ce 3d
       -0.098798975 0.028847713 -0.06787832 0.101005055
000110 da d1 0e 3d 11 03 82 3d 8f 81 f0 3d 85 ef 49 3e
       0.0348681 0.06348241 0.11743461 0.19720276
000120 d1 bc 31 3d 95 ad a2 3d 0b 1c 11 3d db 68 96 3d
       0.04339296 0.079432644 0.035427134 0.07344218
000130 76 22 db 3d 89 20 cc 3d 45 28 75 3d 5f fe 62 bd
       0.10699932 0.09967143 0.059852857 -0.05541837
000140 24 ed 13 39 3c 44 cb 3d 71 02 fc 3d 3b a4 15 be
       0.00014107354 0.09925124 0.12305153 -0.1461343
000150 3c 48 4c 3d 72 e0 62 3d c8 7d dd bc 18 b5 6f bc
       0.049873576 0.05538983 -0.027037516 -0.014630578
000160 8e 46 b2 3d 9e fb 8b 3d 64 fe c1 3d 2d e1 b5 bc
       0.087048635 0.068351015 0.09472349 -0.022202099
000170 54 ab 40 3d 9a c8 e8 3d 5f e0 33 bd 54 a7 d2 3d
       0.04703839 0.11366387 -0.04391515 0.102858216
000180 d4 e4 8d bd f3 cf 47 3d 67 17 99 3d 19 98 c6 3d
       -0.06928411 0.0487823 0.07475167 0.09696979
000190 9b 32 90 3d 4a 39 9d 3d 35 94 75 bc 1a 37 40 bd
       0.07040902 0.07676943 -0.014988949 -0.04692755
0001a0 62 b8 43 3d dc f4 2f bd fd 97 0c 3d f4 a5 34 3e
       0.047783263 -0.042958125 0.034324635 0.17641431
0001b0 35 a4 f1 3d 95 ac c3 3d fb cb f3 3d e9 74 9d 3d
       0.11798898 0.09554402 0.119041406 0.076883145
0001c0 90 7c b0 bc 0d f5 7e 3d 17 2a b1 3c 6a e7 68 3d
       -0.021543771 0.062245417 0.021626515 0.05686132
0001d0 fd b1 b5 3d 44 f4 d3 3d d8 75 2b 3c 2b 7b c6 3d
       0.08871839 0.10349324 0.010465108 0.09691461
0001e0 f1 bd 70 bd 41 16 38 bd a4 64 eb 3d 40 ed 0d 3d
       -0.058774892 -0.044943098 0.11493805 0.034650087
0001f0 f9 ea 66 3d da ca 93 bc 19 5c 9a 3d 5f d9 ef bb
       0.05637643 -0.018041063 0.075370975 -0.007319614
000200 19 d6 99 3c 31 59 a7 bd 83 04 87 b9 34 ca 9f bc
       0.018778848 -0.08171309 -0.00025752568 -0.019505598
000210 41 b8 7f 3d fe 0f 23 3e 61 41 e1 bd 1f 57 47 3d
       0.062431578 0.1592407 -0.10998798 0.04866707
000220 5c 64 3a bd 00 77 8d bd 41 74 70 bc 53 9e 80 3d
       -0.045505866 -0.06907463 -0.014676155 0.06280198
000230 f3 f0 30 3e 0c 53 f0 3d cc db db ba 5d d2 84 3b
       0.17279415 0.1173459 -0.0016773879 0.0040533976
000240 6f ed 48 bd 04 9e ad 3d 7f 54 fd 3b 38 7f 87 3d
       -0.04905456 0.08477405 0.00773102 0.06616062
000250 ce db cf 3c 0a 90 99 3c be 98 8b 3d b4 c7 da 3d
       0.025373366 0.018745441 0.06816243 0.106826216
000260 1b f9 bf 3d c9 ec b5 3d d1 f4 f6 bd 97 d6 02 3e
       0.09373685 0.08883054 -0.12058414 0.12777172
000270 0c 5d c9 3d 9b ca f5 bd 14 83 14 bd 8a b3 5b 3c
       0.098322004 -0.120015346 -0.03625782 0.013409505
000280 1a fa 48 3e 24 e4 b6 3d 8f 2d 94 bd 60 df 64 3d
       0.19626656 0.08930233 -0.07235252 0.05587709
000290 07 c6 a3 bd 44 57 b6 bd ac 0e 44 3d c7 37 40 3d
       -0.07996755 -0.08903363 0.047865555 0.046928193
0002a0 e8 99 62 3c 73 43 60 bd 06 a5 fe 3d 10 32 3b be
       0.013830639 -0.054751825 0.124338195 -0.18280816
0002b0 ce 92 66 bd 8a a3 1d 3d 7c 46 2b 3e 3e de b6 3b
       -0.056292348 0.03848604 0.16726106 0.0055806926
0002c0 d6 2e 54 bd 48 3f a1 3d e2 eb 12 3c 6a 32 4a 3c
       -0.05180248 0.07873398 0.008967372 0.012341121
0002d0 f4 24 22 bd 12 9c 5b 3c f4 b4 a2 3d 38 e6 23 bd
       -0.039586022 0.013403909 0.0794467 -0.040014476
0002e0 59 a4 12 bd 1c 27 c1 bd c6 31 80 3e 04 1b 82 3d
       -0.035801265 -0.09431288 0.25037974 0.06352809
0002f0 80 35 74 3d fa e9 c9 3c fa 2d 0a 3e 2b 61 b3 3d
       0.059621334 0.024647702 0.13494101 0.08758768
000300 a9 fc b4 bd ae e1 f6 3b 90 9e e5 3d 7e eb f5 3c
       -0.088372536 0.0075342273 0.11211884 0.030019518
000310 a5 d7 10 3d b8 0c 0e 3e 85 21 aa 3c 81 90 27 3d
       0.035361905 0.1387204 0.020767936 0.040909294
000320 26 94 24 bc db 48 c3 3d ff 38 1e 3d fb a1 f4 3c
       -0.010045087 0.095353805 0.038628574 0.029862395
000330 b2 76 af bb d7 56 f1 3d a3 f0 49 3e 54 b9 6d 3d
       -0.0053547258 0.117841415 0.19720702 0.05803807
000340 89 6e 08 3c b3 80 14 3e 26 d4 de 3c a0 09 24 3d
       0.008327135 0.1450222 0.02720077 0.04004824
000350 b9 98 0d 3c 11 00 a6 3d 71 63 03 3e 0d 53 6b bd
       0.008642369 0.081054814 0.12830903 -0.05745225
000360 6e 30 99 bc 4e 0d 7e 3d 95 14 aa 3e 17 9d cf 3d
       -0.01869985 0.062024407 0.33218828 0.101373844
000370 d9 0c 67 bd 35 02 86 3d 46 30 41 3d 95 70 e6 3c
       -0.056408737 0.0654339 0.047165178 0.028129855
000380 56 3b 1b 3c 5e 31 4b bc dd 6c 5c bb d7 46 41 3d
       0.009474596 -0.012401907 -0.0033634224 0.0471867
000390 be 95 55 3c e6 cc 04 bd c1 5e 5a 3e 1f 69 f6 bc
       0.01303619 -0.03242197 0.21325208 -0.030079423
0003a0 a7 ab 35 bb 81 d6 56 3c 6e 4f b8 bb f4 25 e6 bd
       -0.002772072 0.013112665 -0.005624703 -0.11237708
0003b0 2d 74 77 3d ad 06 d4 3d 17 a2 d9 3d ae 4f b6 3c
       0.06041353 0.10352836 0.10626619 0.022254791
0003c0 09 9c 06 bc 4f c7 80 bd 38 b6 4f bc ea ae 4e 3d
       -0.008215913 -0.06288015 -0.012677722 0.05045978
0003d0 7f cc 5c 3d b2 29 79 3d 10 d5 0a 3d ce bf 12 3e
       0.05390596 0.06083078 0.0338946 0.1433098
0003e0 ae f8 8b 3d fa ac 91 3d 9d 7a 2d bd 5a cc 19 3d
       0.06834541 0.07113071 -0.04235326 0.0375484
0003f0 1d 29 48 3c e3 6c 42 3d 0a 35 29 ba f9 bd 8f bd
       0.012216833 0.047467124 -0.0006454742 -0.07018656

FCNet.3.bias f4 [300]
000000 ad ee a3 3b 8f 5e 81 3d bf f7 05 3d 8b 57 65 3d
       0.0050028176 0.06316864 0.032706972 0.05599169
000010 9e 1a 21 3d 5b 2d c4 3c e2 c3 30 3d 69 e4 28 3d
       0.039332025 0.023947408 0.04315556 0.041233454
000020 37 b8 80 3d f9 bb 16 3d ff 6a 54 3c 9f 05 61 3d
       0.06285136 0.03680036 0.012964963 0.054937
000030 2b b7 09 3d 00 71 2b 3d 0a bf 81 3d 1a 4a 78 3d
       0.03362195 0.041855812 0.06335266 0.060617544
000040 aa f3 5e 3d 63 b0 46 3d 87 85 01 3d 93 91 8f bb
       0.054431595 0.04850806 0.031621482 -0.0043813675
000050 8b 3c b8 3c 5a 19 4d 3d 8a a9 cd 3b 4d 0b 12 3d
       0.022489807 0.050073005 0.006276314 0.03565531
000060 a3 20 9b 3d 2b 81 fb 3b 86 2e 1d 3d 3c c2 e1 3c
       0.07574584 0.00767531 0.038374446 0.027558438
000070 4f 2b 2d 3d 08 54 2b 3d 81 58 50 3d 3a 93 cd 3c
       0.04227763 0.041828185 0.050865654 0.025094617
000080 0f d3 ce 3c 82 0d b1 3c 26 95 c1 3c 86 6c 56 3d
       0.025247125 0.021612886 0.02363069 0.05234959
000090 75 5a 81 3d 20 48 7e 3c 12 57 b8 3d b7 90 5d 3d
       0.063160814 0.015520126 0.09000982 0.05409309
0000a0 18 42 04 3d 1d 1c 8a 3c be 17 4f 3d 6f f0 30 3d
       0.032289594 0.016859109 0.05055975 0.043198045
0000b0 7e a0 0c 3d f1 3d a7 bb 6e c9 3b 3d f0 32 31 3d
       0.034332745 -0.0051038195 0.045846395 0.04326147
0000c0 52 fc 0d 3d 33 59 95 3d d7 32 39 3d d7 75 0a bb
       0.03466446 0.07292404 0.0452145 -0.0021127367
0000d0 76 3b 25 3d 42 dc 41 3d c8 67 07 3d 88 7c 73 3d
       0.04033991 0.047329195 0.033057958 0.059444934
0000e0 47 36 8a 3d df 9e 59 3d ab 79 95 3d 08 c6 1e bb
       0.06748634 0.053130027 0.07298597 -0.0024226923
0000f0 3b 92 7d 3d 14 41 6a 3d 72 09 58 3d ea 79 e5 3b
       0.061907034 0.05719097 0.052743383 0.0070030587
000100 b0 74 5d 3c b4 70 44 3d 67 ba 86 3d 34 23 8f 3d
       0.01351659 0.047959045 0.06578522 0.06989136
000110 fa 44 23 3d 73 14 88 3d de 0b 8c 3c 38 55 1f 3d
       0.039860703 0.066445254 0.017095502 0.03889963
000120 4b 93 a7 bc 64 19 2f 3d fa 51 09 3d 58 39 d6 3c
       -0.020455977 0.042748824 0.033525445 0.02615039
000130 a6 f7 8a 3c 7d 47 77 3d 29 97 36 bc 91 ed 0d 3d
       0.016963791 0.06037091 -0.011144438 0.03465039
000140 93 69 82 3d 8d 8f a0 3d 5b 67 12 3d 2b da 57 3d
       0.06367793 0.0783988 0.0357431 0.052698296
000150 5f c5 5d 3d 22 0c 7b 3c 1a f4 76 3d 2a 92 1e 3d
       0.054143306 0.015322717 0.060291387 0.03871361
000160 cb 2e 35 3d c4 2b 69 3d fb 9d ef 3c 28 82 27 3c
       0.04423408 0.056926504 0.029250136 0.010223903
000170 be a2 7d 3d 7f 18 0b 3d ac 5c fb 3c 8c 54 2c 3d
       0.06192278 0.03395891 0.030683838 0.042072818
000180 2c 60 05 3c 91 1a f2 3c 1b 15 61 3d 84 c1 d6 3b
       0.008140605 0.029553683 0.05495177 0.0065538306
000190 32 90 6d 3d 5b 39 45 3d ba 5d 24 3d 57 4f fd 3c
       0.057998843 0.0481504 0.040128447 0.030921621
0001a0 bb 81 77 3d 48 8e 33 3c db 61 1e 3b 0b 03 7b 3d
       0.060426455 0.010959215 0.0024167213 0.0612822
0001b0 bd 9e bf 3c cf 7d 22 3d 5a ab 29 3d 61 34 1a 3d
       0.023391122 0.03967076 0.04142318 0.03764761
0001c0 a7 39 3e 3d 32 38 bd 3c 8c 72 cc 3c 38 f7 90 3d
       0.0464417 0.023098085 0.024956964 0.07078403
0001d0 30 4c 85 bc df e2 69 3d 40 ad d7 3b a9 9f 44 3d
       -0.01627168 0.057101127 0.0065819323 0.048003826
0001e0 ee 31 0d 3d 47 70 1c 3d 26 19 56 3c fd 80 5b 3d
       0.034471445 0.038193014 0.013067519 0.05358981
0001f0 04 15 34 3d b5 fe 30 3d 23 cc 80 3d 27 ac 68 3d
       0.043965355 0.043211658 0.06288936 0.056804802
000200 c1 25 13 3d 37 4a 79 3d 9d 19 93 3d 52 28 79 3d
       0.035924677 0.060861792 0.0718262 0.060829468
000210 c0 04 85 3d d4 10 6a 3d 1a ab 2b 3d 72 78 95 3c
       0.064950466 0.057144955 0.041911222 0.01824591
000220 72 d8 2f 3d cd 79 df 3c 6c 61 5a 3d 3b 32 82 3c
       0.042931028 0.027279759 0.053315565 0.015893092
000230 c0 a4 df 3c 7b 9c 15 3d 73 7c be 3a 3b 10 a7 3d
       0.027300239 0.036526185 0.0014532938 0.081573926
000240 bb f8 f5 bb 4e f3 86 3d 74 e3 41 3d 3a f9 6f 3d
       -0.0075064576 0.065893754 0.047336057 0.05858729
000250 6e 42 09 3d ad 8f 5e 3d 7e 57 0b 3d de d1 00 3d
       0.033510618 0.05433624 0.034018986 0.031450145
000260 3f c2 2e 3d 50 35 63 3d 42 b2 9b 3d 5a 0d 61 3d
       0.042665716 0.055470765 0.07602359 0.054944374
000270 37 68 fe 3c de fc 3d bb a0 4e ad bc 92 5a 54 3d
       0.031055553 -0.0028989832 -0.021155655 0.051844187
000280 4a 3f 9c 3d 39 36 53 3d 3b 09 4c 3d d8 fd 22 3c
       0.07629259 0.051565383 0.04981349 0.009948216
000290 c4 4d 31 3d af 7c ec 3c 7b f2 69 3d 56 61 7b 3c
       0.043287054 0.028868048 0.057116013 0.015343031
0002a0 29 ab 53 3d 69 d5 83 3d 16 e1 37 3d 24 97 f7 3c
       0.051676903 0.06437189 0.044892393 0.030223437
0002b0 31 6d 85 3d 58 cd 3c 3d 53 43 87 3d 09 5b b9 3c
       0.06514967 0.04609427 0.06604638 0.022626417
0002c0 d1 71 30 3d 9d 6d 26 3d a7 99 6c 3c d3 d7 5c 3d
       0.043077294 0.04063188 0.01444093 0.053916764
0002d0 a0 52 46 3d 88 39 39 3d 44 87 51 3d ea 03 c4 3c
       0.04841864 0.04522088 0.05115439 0.023927648
0002e0 13 b2 48 bb 02 04 7a 3d 61 f2 1f 3d 80 f9 53 3d
       -0.0030623719 0.06103898 0.03904951 0.051751614
0002f0 75 df 84 3d 7f 65 a0 3c 79 1a e4 3c b6 54 ee bb
       0.064879335 0.019579647 0.027844654 -0.007273282
000300 70 a2 9b 3c 88 4f 05 3d 33 ac ef 3c 07 39 9b 3b
       0.018998355 0.03254655 0.029256916 0.004737023
000310 12 2e 90 bb 5f 3f f9 3c ae d7 cf 3c a9 9b ac 3c
       -0.0044000233 0.030425726 0.025371399 0.021070318
000320 eb 60 23 3d 17 89 3d 3c 54 9b 51 3d b0 50 73 3d
       0.03988735 0.011568329 0.051173523 0.05940312
000330 a3 3f 34 3d af b2 63 3d 99 50 b3 3c e4 29 dc 3c
       0.044006 0.055590328 0.021889018 0.026875444
000340 f2 3f 1c 3d 7c ff e8 3b fa 70 19 3d 23 ec 75 3d
       0.03814692 0.0071105342 0.03746126 0.06003965
000350 4d 95 9f 3c 56 96 6b 3d 09 04 92 3c c0 9d d6 3c
       0.019480372 0.05751642 0.01782419 0.026198268
000360 02 56 81 3d 1f 1d 4b 3d c3 7b 76 3d 3b 47 28 3d
       0.06315233 0.04958832 0.060176622 0.041083556
000370 9b 6b 97 3d 8f 44 8c 3d 08 e3 84 3b 45 99 0b 3d
       0.07393571 0.06849014 0.0040553845 0.034081716
000380 f0 17 23 3d 7f be 73 3d a0 27 7b 3d 47 37 7e bc
       0.03981775 0.059507843 0.061317086 -0.015516109
000390 08 f1 5c 3d 37 9d 2f 3d 4f 18 11 3c a5 6f 3f 3d
       0.053940803 0.04287454 0.008855893 0.046737332
0003a0 ca 6e 8a 3d a9 f7 30 3d ff d6 44 3d 71 74 dd 3c
       0.067594126 0.043204937 0.0480566 0.027033063
0003b0 f3 13 5b 3d 9c 38 cc 3c e6 56 f0 3c b2 c7 85 bc
       0.053485822 0.024929337 0.029338311 -0.016330574
0003c0 f3 71 62 3d ca 9a 0f 3d 48 05 36 3d c8 fe 9c 3b
       0.05528445 0.035059728 0.04443863 0.0047911145
0003d0 3e 9c 63 3d cc 2e 59 3b 2f 91 f9 3b 13 63 4f 3d
       0.055568926 0.0033139465 0.007616184 0.050631594
0003e0 95 87 39 3d 25 f9 4d 3c 08 e5 01 3d 08 1f 2c 3d
       0.045295317 0.012571608 0.03171256 0.04202178
0003f0 af 2a 4f 3c 46 e7 05 3d 6c 60 24 3d 56 ef 28 3d
       0.012644454 0.032691263 0.040131018 0.041243874

FCNet.4.weight f4 [300]
000000 ba c7 99 3f 47 4a 9c 3e e6 10 d4 3f 07 48 12 3f
       1.2014077 0.3052542 1.6567657 0.57141155
000010 a9 4a 19 3f ff 38 f3 3f 4b 4c 26 3f 90 7d 36 3f
       0.5987955 1.9001769 0.64960164 0.71285343
000020 57 12 50 3f 7d f4 22 3f 40 46 ad 3f 40 25 2d 3f
       0.81277984 0.6365431 1.3537064 0.67634964
000030 75 5f 88 3f 3e 5e 6a 3f 83 8f b3 3f e0 c0 5a 3f
       1.0654131 0.9155005 1.4028171 0.85450554
000040 5c af bc 3e e8 f2 47 3f 36 bf 5c 3f 59 ed 8b 3f
       0.3685254 0.7810502 0.86229265 1.0931808
000050 df 86 91 3f 33 e1 c0 3e 32 ff a6 3f ac a6 8f 3f
       1.1369284 0.37671813 1.304663 1.1222739
000060 fe b2 14 3f 0b f4 a2 3f 9f b1 3f 3f ea bf bb 3f
       0.5808562 1.2730726 0.74880403 1.4667943
000070 77 98 87 3f 98 8c 91 3f 3d 20 bd 3e d4 79 0f 3f
       1.0593404 1.1371031 0.36938658 0.5604527
000080 6d 6a 8f 3f f9 3f 91 3f 5b a4 94 3f 24 6a b4 3e
       1.1204354 1.1347648 1.1612657 0.3523723
000090 0c 41 b1 3f 94 5f af 3f 45 ee be 3e bf 2f 58 3f
       1.3847976 1.3701043 0.3729116 0.84447855
0000a0 d4 aa ea 3e 0a df ab 3f 92 fd 35 3f b2 0a c2 3e
       0.45833457 1.3427441 0.7109004 0.37898785
0000b0 0a 69 66 3f 6c 18 c8 3f b9 05 53 3f e7 9f 1c 3f
       0.90004027 1.5632453 0.8243061 0.6118149
0000c0 46 21 82 3f 2e 94 54 3f b3 ec 25 3f 4a 01 94 3f
       1.0166404 0.83038604 0.648143 1.1562893
0000d0 fd 8b af 3f c4 75 b2 3f 89 97 29 3f 4b 62 2f 3f
       1.3714596 1.3942189 0.6624685 0.6850936
0000e0 3a 00 09 3f 45 27 4a 3f 76 42 18 3f 3b e3 a3 3f
       0.5351597 0.7896617 0.5947641 1.280372
0000f0 2e 0b ff 3e 1f 46 c7 3e 33 cf c2 3e 98 ea ab 3f
       0.49813217 0.38920686 0.38048705 1.3430967
000100 07 2e a1 3f 9d ac ba 3f 6b 43 6f 3f ce 30 7e 3f
       1.2592171 1.4583927 0.93462247 0.9929322
000110 bc 7a 13 3f 73 80 cb 3f b0 e4 9d 3f 0b 6e 41 3f
       0.5760915 1.5898575 1.2335415 0.7555854
000120 5b 5b a5 3f 68 7d 3d 3f 85 7c ad 3f f8 64 44 3f
       1.2918504 0.7401948 1.3553625 0.76716566
000130 44 cb 84 3f 1c da 11 3f 8e cc 9d 3f ba 79 c8 3e
       1.0374532 0.56973433 1.232805 0.3915537
000140 8c df 37 3f 87 37 84 3f c7 8c a3 3f c0 97 af 3e
       0.7182548 1.0329446 1.2777337 0.34295464
000150 f1 94 a7 3e 9e 7c 9d 3f e9 84 18 3f 68 fe 23 3f
       0.3273082 1.2303655 0.59577805 0.6406007
000160 21 6c 3d 3f c5 86 76 3f 11 20 a2 3f e4 77 89 3f
       0.73993117 0.9629939 1.2666036 1.0739713
000170 fe d9 a2 3e a5 7c 2a 3f f9 23 b6 3f 27 08 96 3f
       0.3180694 0.6659644 1.4229728 1.1721238
000180 88 a6 ba 3f 7b 13 4d 3f 81 fa a7 3e fc 90 90 3f
       1.4582071 0.8010785 0.32808307 1.1294246
000190 2f dc 92 3e 68 d2 ca 3e 22 22 49 3f aa 57 ab 3f
       0.28683612 0.39613652 0.7856771 1.3386128
0001a0 89 b0 1b 3f 76 cf 93 3f fa 22 84 3f c0 65 bb 3f
       0.60816246 1.1547687 1.0323174 1.4640427
0001b0 e1 1e b0 3f 5f 53 bc 3f 83 04 0a 3f fb a5 b0 3f
       1.3759423 1.4712943 0.53913134 1.3800653
0001c0 60 bf bc 3f 95 e4 1c 3f ce b1 17 3f 29 ca c7 3e
       1.4745903 0.6128629 0.59255683 0.39021423
0001d0 04 4f 93 3f b4 cc f2 3e bc 28 99 3f e1 95 75 3f
       1.1508489 0.474218 1.1965556 0.9593182
0001e0 e6 55 86 3f 11 4a 6e 3f 49 6a e3 3f 58 ca b2 3f
       1.0494964 0.93081766 1.7766811 1.3968
0001f0 e1 cc c1 3f 75 32 94 3f d5 b1 7e 3f 0b 67 b1 3f
       1.5140649 1.1577898 0.994901 1.3859571
000200 2f ef 4d 3f 17 c6 6c 3f 8e 07 c0 3f 31 c1 a1 3f
       0.8044309 0.9248976 1.5002306 1.2637082
000210 04 f2 17 3f 09 56 47 3f 5f bb a1 3f cf 78 99 3f
       0.5935366 0.77865654 1.2635306 1.1989993
000220 87 f0 33 3f b5 d1 4a 3f 89 eb 94 3e b3 df fb 3f
       0.7028889 0.7922624 0.2908595 1.9677643
000230 44 0a b2 3f d9 cb af 3f 7d 47 a5 3f e1 18 90 3f
       1.3909383 1.3734084 1.2912441 1.1257592
000240 d8 f3 b3 3f e5 62 23 3f 1a b3 82 3f bc 93 19 3f
       1.405879 0.63822776 1.0210907 0.5999105
000250 ca e2 99 3f 94 fb bc 3e 10 5c 15 3f 08 7c 9e 3f
       1.2022336 0.3691069 0.583436 1.2381601
000260 02 c5 f6 3e 09 71 9e 3f 93 91 9a 3f c3 ac 96 3e
       0.4819718 1.2378246 1.2075676 0.29428682
000270 b9 2c aa 3f b5 a9 39 3f 16 c6 bd 3f a5 ea 40 3f
       1.3294898 0.7252458 1.4826076 0.7535804
000280 8d 5c b8 3e 24 22 aa 3e 8d 6b 61 3f d4 75 b1 3f
       0.3600811 0.33229172 0.88054734 1.3864083
000290 72 b5 7c 3f 75 2b 83 3f b3 bd ad 3f e3 70 8b 3f
       0.98714364 1.0247637 1.3573517 1.0893825
0002a0 09 1e b9 3e d7 3b 11 3f 97 10 8d 3f c1 c4 b0 3f
       0.36155728 0.56731933 1.1020688 1.3810045
0002b0 c9 1c ca 3e 1d 74 b9 3f 96 fd ca 3e ab 4d 95 3f
       0.39475086 1.448856 0.39646596 1.1664327
0002c0 ed 63 30 3f 80 13 52 3f 4b 94 83 3f 79 2b a7 3e
       0.68902475 0.82061005 1.027963 0.32650355
0002d0 b7 51 9d 3f 33 ec d7 3e 7d 69 46 3f 75 f7 54 3f
       1.2290562 0.42172393 0.7750471 0.8319009
0002e0 8a 1d 5a 3f 2e 9b 17 3f 95 f9 55 3f 43 db 49 3f
       0.85201323 0.5922116 0.83583957 0.7885019
0002f0 8e 4d 88 3f ba 89 b7 3f 70 bd b9 3f 24 38 ae 3f
       1.0648668 1.4338906 1.4510937 1.3610883
000300 18 b0 ad 3f 89 b5 cb 3e 66 74 27 3f a0 70 a4 3f
       1.3569365 0.39786938 0.65411985 1.284687
000310 83 16 b7 3f b9 a1 43 3f 68 60 55 3f 84 63 a0 3f
       1.4303745 0.76418644 0.8335023 1.253037
000320 80 41 c5 3f 93 9e 99 3f 70 0b c7 3e 25 7a a3 3e
       1.5410614 1.2001518 0.38875914 0.31929126
000330 10 84 7c 3f e7 43 ae 3e 8d 64 af 3f ba bf 09 3f
       0.9863901 0.3403618 1.3702561 0.53808177
000340 2a e3 cb 3e 94 75 bc 3f 96 32 de 3e 0a c2 41 3f
       0.3982175 1.4723382 0.4339797 0.75686705
000350 c9 47 b1 3f 2b 3d 93 3f 9d 15 4f 3f bc 3d 89 3f
       1.3850032 1.1503042 0.80892354 1.0721965
000360 67 81 db 3e 33 c7 c2 3e b0 b6 a6 3f 04 8d 73 3f
       0.42872164 0.38042602 1.3024502 0.9513705
000370 e1 df 1a 3f a3 8a 33 3f 2e 23 b5 3f e9 42 e7 3e
       0.6049786 0.7013342 1.4151361 0.45168236
000380 81 db b6 3f b3 50 4d 3f 53 69 b1 3f fd e2 ba 3f
       1.4285737 0.8020126 1.3860267 1.4600521
000390 e8 af 18 3f e8 96 ae 3f f8 07 b0 3f 02 6c 92 3f
       0.5964341 1.3639803 1.3752432 1.1439211
0003a0 0a 12 2e 3f 2b ee 9d 3f bc c7 c5 3f df 7e e2 3e
       0.67996275 1.2338308 1.5451579 0.4423742
0003b0 cd fd 7a 3f 9d 89 ec 3e 14 f3 22 3f e5 5f b0 3f
       0.9804352 0.4619874 0.6365216 1.3779265
0003c0 64 79 48 3f b2 3d 87 3f 79 d5 c1 3f fb 18 9e 3f
       0.7831023 1.0565703 1.5143272 1.2351373
0003d0 e1 78 9e 3e e1 f8 9a 3f 03 fd 96 3f 8e 92 18 3f
       0.30951598 1.2107202 1.1795963 0.59598625
0003e0 1f 7b b4 3f 49 8e e4 3f 06 aa 9d 3f f7 e0 a7 3f
       1.4100074 1.7855922 1.2317512 1.3115529
0003f0 2c 91 8d 3f 3a 61 1c 3f 2f a7 b7 3f 6c 50 4d 3f
       1.1059928 0.61085856 1.4347895 0.8020084
